IDS_TA/initial_Models/CADE-m20.0-l0.1.pth (torch, 67910 bytes, 16 tensors)

encoder.enc1.weight f4 [58, 78]
0	0x3f72f696	0.9490751
1	0xbca0a749	-0.019611018
2	0x3de41a9f	0.1113789
3	0x3d930987	0.071795516
4	0xbd9f8b4b	-0.0779024
5	0xbe3aa241	-0.18225957
6	0xbe8ce938	-0.27521682
7	0xbeb780e1	-0.35840514
8	0xbe020414	-0.12696868
9	0x3df05300	0.11734581
10	0x3dbab64c	0.091168016
11	0xbd70a74d	-0.0587533
12	0xbe472e44	-0.19451243
13	0xbe2b06d8	-0.1670183
14	0x3e207665	0.15670164
15	0x3b9e2ec4	0.0048273522
16	0x3b84462f	0.004036687
17	0x3e1cfece	0.15331575
18	0x3dce7514	0.10080925
19	0x3e8320f3	0.25611076
20	0x3e56a1a2	0.20960096
21	0xbe8e0907	-0.27741262
22	0x3e8faffb	0.2806395
23	0x3e0cd4b8	0.13753021
24	0xbdf7e492	-0.12104143
25	0x3e2e1ee0	0.17003965
26	0xbdfa8647	-0.122326426
27	0x3eb43790	0.3519864
28	0x3ebba401	0.36648563
29	0x3e61ad57	0.2203878
30	0x3d59ae36	0.053144656
31	0x3ebbe735	0.36699834
32	0x3edb1a8b	0.42793688
33	0x3e88795c	0.2665509
34	0xbe55aae0	-0.20865965
35	0xbe811210	-0.25209093
36	0x3e6d4e25	0.23174341
37	0xbe2b91cb	-0.16754834
38	0x3dc61ec4	0.09673837
39	0xbe2822ab	-0.16419475
40	0x3c62c1c9	0.013840147
41	0x3e72082a	0.23635927
42	0x3d94aa11	0.07259
43	0xbd85f793	-0.06541362
44	0x3ef46944	0.4773656
45	0x3f4e1c69	0.805121
46	0xbc487b84	-0.01223648
47	0xbd31939a	-0.043353654
48	0xbe85493a	-0.2603243
49	0x3e5a1d1e	0.2130017
50	0x3e346766	0.17617568
51	0x3cffbfd1	0.031219395
52	0x3e4ea4f7	0.20180117
53	0x3dd8fa16	0.10594575
54	0xbd995257	-0.07486408
55	0x3e12355d	0.14278169
56	0xbe4866ee	-0.19570515
57	0x3e0aec37	0.13566671
58	0x3e5c6d3c	0.21526045
59	0xbd82189b	-0.06352349
60	0xbd88c832	-0.06678809
61	0x3e8cd316	0.27504796
62	0xbe8fde46	-0.2809927
63	0x3ec9e54a	0.39432746
64	0x3c06ce40	0.008227885
65	0xbcbe50d8	-0.023231909
66	0x3e20e0a4	0.15710694
67	0x3d717b4b	0.058955472
68	0x3e9ab5f2	0.30216938
69	0xbe7e448f	-0.2483084
70	0x3e9c2c31	0.30502465
71	0x3de22224	0.11041668
72	0x3e11987a	0.14218321
73	0x3dc2e936	0.09517138
74	0x3e8fd7f1	0.28094438
75	0xbdaa2aa6	-0.08308916
76	0x3e040b9e	0.12895057
77	0x3d142a76	0.036173306
78	0xc03d3b73	-2.9567535
79	0xbde2b6aa	-0.11069997
80	0x3dd57666	0.10422973
81	0x3e367f09	0.17821898
82	0x3e27a9f6	0.16373429
83	0xbd68fedb	-0.056883674
84	0xbe544a1b	-0.20731394
85	0x3ee956ef	0.45574138
86	0xbdbc5f2c	-0.0919784
87	0xbe39dd6f	-0.18150876
88	0x3e01146d	0.12605448
89	0x3e92d745	0.28679863
90	0x3e9250cb	0.28577265
91	0xbe04d3eb	-0.12971465
92	0x3c3c36fa	0.011487717
93	0xbed4a39c	-0.41531074
94	0x3dafc53f	0.085825436
95	0xbf90c4ea	-1.1310093
96	0xbe884cfa	-0.26621228
97	0xbe365eda	-0.1780962
98	0xbff519e9	-1.9148532
99	0xbddcfb77	-0.107901506
100	0xbef1ea37	-0.47249004
101	0xbd09bbc8	-0.033626348
102	0xbe253203	-0.16132359
103	0xbfa20ed0	-1.266077
104	0x3d8d278f	0.06892311
105	0xbee831e6	-0.4535057
106	0xbe87f9a1	-0.2655764
107	0xbe4b03ff	-0.19825743
108	0xbf13dd9f	-0.5776004
109	0xbdf108b8	-0.11769241
110	0x3cb4873d	0.022037143
111	0x3db5dd19	0.08880062
112	0x3e5be82f	0.2147529
113	0xbde09b64	-0.109671384
114	0x3e72e6db	0.23720877
115	0xbe8c049f	-0.27347276
116	0xbdb460aa	-0.088075
117	0xbf8873eb	-1.0660375
118	0xbe575309	-0.21027769
119	0xbd19335b	-0.037402492
120	0x3d1b1e19	0.0378705
121	0xbe8682b9	-0.26271608
122	0xbd52faf9	-0.051508877
123	0x3e04d3d4	0.12971431
124	0x3f009abb	0.502361
125	0x3e111fc6	0.14172277
126	0xbe0711ff	-0.13190459
127	0xbe21bddd	-0.15795083
128	0xbea679f6	-0.32514924
129	0x3e07814f	0.13232921
130	0x3d0e73d8	0.034778446
131	0xbe1d2e37	-0.15349661
132	0xbe1438e7	-0.14474832
133	0xbe1b5153	-0.15167741
134	0xbf1523a3	-0.582575
135	0xbf8a1dff	-1.0790404
136	0xbd91cf61	-0.071196325
137	0x3db672a3	0.08908584
138	0x3d18b9e0	0.03728664
139	0x3c642352	0.013924437
140	0x3dca3091	0.098725446
141	0xbe2eadf3	-0.17058544
142	0xbcbc3e06	-0.022978794
143	0x3df57c7b	0.119866334
144	0x3e03add4	0.12859279
145	0xbdb01787	-0.085982375
146	0xbded6756	-0.115919754
147	0x3dda69e3	0.106647275
148	0xbe7cbdb4	-0.24681741
149	0x3d459cc9	0.048245225
150	0xbe7b0c9c	-0.24516529
151	0xbf683f77	-0.9072184
152	0x3d80ed70	0.062952876
153	0xbe584573	-0.21120243
154	0xbdb85378	-0.090002954
155	0xbea63347	-0.32460997
156	0x3eb5c742	0.35503584
157	0x3e8ee5a9	0.27909592
158	0x3b4fc3e6	0.0031702458
159	0xbe3cfc66	-0.18455657
160	0xbcbd9bc9	-0.023145573
161	0xbbd8982d	-0.0066099376
162	0x3e0f5aa5	0.13999422
163	0xbd3a977a	-0.045554616
164	0x3e312fb2	0.1730335
165	0x3e2814b3	0.16414146
166	0x3de6a4ac	0.112618774
167	0xbd3250e5	-0.04353418
168	0xbd433994	-0.047662333
169	0xbe172a37	-0.14762197
170	0x3db697a6	0.089156434
171	0x3d309729	0.043112908
172	0xbdae379c	-0.085067004
173	0x3e2847b5	0.16433604
174	0x3e98490d	0.29743233
175	0xbd76e237	-0.06027433
176	0xbdb0058f	-0.0859481
177	0xbb678318	-0.003532594
178	0xbd8806cf	-0.06641924
179	0x3e24e3c1	0.16102506
180	0xbd94018e	-0.07226859
181	0x3e3aab4c	0.18229407
182	0x3dd28349	0.10278947
183	0xbbfb094b	-0.00766102
184	0x3e97977e	0.29607767
185	0xbd176e82	-0.036970623
186	0x3e6c613d	0.23083968
187	0x3d21a924	0.039467946
188	0xbe84d432	-0.25943142
189	0x3d2cce61	0.042189006
190	0x3d75e871	0.060036127
191	0xbe41f4b5	-0.18941005
192	0x3e443d5e	0.19164035
193	0x3ea11888	0.31464028
194	0x3dbef036	0.0932316
195	0xbe0d08f4	-0.13772947
196	0x3da11f4a	0.07867296
197	0x3e880ef7	0.26573917
198	0x3c482c85	0.0122176455
199	0x3e79de6b	0.24401252
200	0x3e78a80e	0.24282858
201	0x3ecd66ea	0.4011758
202	0x3dd2692e	0.10273968
203	0xbe487755	-0.19576772
204	0xbe0060a5	-0.12536867
205	0x3d2fab59	0.04288802
206	0x3e8d2d15	0.27573457
207	0x3d9696cb	0.0735298
208	0x3d1e7c6b	0.038692873
209	0xbd6b4213	-0.05743606
210	0x3d8550d8	0.0650956
211	0x3eaa1f5e	0.33227056
212	0x3e23f706	0.160122
213	0x3e202244	0.15638071
214	0x3dfbaa65	0.122883596
215	0xbd6c1ed0	-0.057646573
216	0x3e93ec88	0.28891397
217	0x3dfd55e6	0.123698995
218	0xbbfb2bbf	-0.007665127
219	0xbcfca2ce	-0.03083935
220	0xbe2ad1eb	-0.1668164
221	0x3e30c3f2	0.17262247
222	0x3d81263e	0.06306122
223	0x3c07b8ff	0.008283853
224	0xbe46ede9	-0.19426693
225	0xbd98c1ad	-0.07458816
226	0x3bd29635	0.0064265975
227	0xbdd0ad7b	-0.10189339
228	0x3e9bbae2	0.30416018
229	0xbde50e32	-0.11184348
230	0x3e9ac70c	0.30229986
231	0xbdf879a9	-0.1213258
232	0x3e71c4f6	0.23610291
233	0x3da24526	0.07923345
234	0x3e90bd8f	0.28269622
235	0xbdb2a934	-0.08723679
236	0x3db7d95f	0.08977007
237	0xbdf6d9d4	-0.12053266
238	0x3dbf42ef	0.093389384
239	0xbc1b6a2e	-0.009485764
240	0xbe3967db	-0.18106024
241	0xbe08866c	-0.13332528
242	0x3d5fcd51	0.054639164
243	0x3daea550	0.085276246
244	0x3d29ef87	0.041488197
245	0x3e110f58	0.1416601
246	0xbe37f60d	-0.17964955
247	0x3c8e5483	0.017374283
248	0x3e55fd00	0.20897293
249	0xbe246b99	-0.1605667
250	0xbdb4ba79	-0.08824629
251	0xbd979ec0	-0.07403326
252	0x3e00a375	0.12562354
253	0x3e579871	0.21054246
254	0xbcd2307e	-0.025657889
255	0xbdb13e87	-0.08654504

encoder.enc1.bias f4 [58]
0	0x3d6dc89e	0.05805265
1	0x3d6c4559	0.057683323
2	0x3d93e602	0.07221605
3	0x3d3d9d26	0.046292447
4	0x3d8aa42e	0.06769596
5	0x3e0829b9	0.13297166
6	0x3dea8dbf	0.11452817
7	0x3e0354c4	0.12825304
8	0x3e12f622	0.14351705
9	0x3d05f9ad	0.032708813
10	0x3a877091	0.001033323
11	0x3dd84434	0.10559884
12	0xbdec95fb	-0.11552044
13	0x3d112421	0.035434846
14	0x3d4e6d80	0.050397396
15	0x3d1fe082	0.039032467
16	0x3d94436a	0.07239421
17	0x3dff9e72	0.12481393
18	0x3d41c217	0.04730424
19	0x3d51b766	0.051200293
20	0xbb075d63	-0.0020655028
21	0x3ce048d9	0.027378486
22	0x3d972b6e	0.073813304
23	0xbcdd640d	-0.027025247
24	0x3da44416	0.08020799
25	0x3dbe693a	0.09297414
26	0x3d0a8bff	0.033824917
27	0x3d5d1618	0.05397615
28	0xbd66b5b7	-0.05632564
29	0xbc2cec10	-0.010554329
30	0x3e1b44a7	0.15162908
31	0x3e2245db	0.1584696
32	0x3ca8b4fb	0.02059411
33	0x3d045531	0.032307807
34	0x3dece860	0.115677595
35	0xbd5376a4	-0.051626816
36	0xbb44531a	-0.002995676
37	0x3e2de8a7	0.16983281
38	0xbcc5ae03	-0.024130827
39	0x3db2b00e	0.08724986
40	0x3e11eb4a	0.14249912
41	0xbd8a30f1	-0.06747616
42	0x3db207f0	0.0869292
43	0x3d87b1da	0.06625719
44	0xbd1836b7	-0.037161555
45	0x3da7df67	0.081969075
46	0x3c4ecba4	0.012621794
47	0x3decd305	0.11563686
48	0x3dc77b8c	0.097403616
49	0x3cc638dc	0.024197035
50	0x3e11e3fb	0.14247124
51	0x3d6ecc43	0.058300268
52	0x3dbb26f2	0.091382876
53	0x3db1c1a5	0.08679513
54	0x3de8d73f	0.1136918
55	0x3dda3c0f	0.106559865
56	0x3dab7049	0.08371026
57	0xbd4df97f	-0.050286766

encoder.enc2.weight f4 [39, 58]
0	0x3e10fe61	0.14159538
1	0x3e6df13d	0.23236556
2	0x3eb1c08c	0.34717214
3	0x3dbb91fd	0.091587044
4	0x3ee508b0	0.4473319
5	0x3e2d8d56	0.16948447
6	0x3ed407a4	0.4141208
7	0x3ee99045	0.4561788
8	0x3e42d696	0.1902717
9	0xbdedafeb	-0.11605819
10	0xbe9db0c8	-0.30798936
11	0x3d714897	0.058907118
12	0xbda4757e	-0.08030222
13	0xbe01295f	-0.12613438
14	0xbe9dc1ac	-0.30811822
15	0x3ec7e9c3	0.39045534
16	0xbe381bbe	-0.17979333
17	0x3de2d56e	0.11075865
18	0xbc8eda2b	-0.017438015
19	0xbe0a2d49	-0.13493837
20	0x3da2c68e	0.079480276
21	0x3d8a444d	0.067513086
22	0x3eb56e63	0.3543578
23	0xbd8605e9	-0.06544096
24	0x3e047875	0.12936576
25	0x3e960637	0.29301617
26	0x3e1ac634	0.15114671
27	0x3eb30993	0.34968242
28	0xbdfe2ff1	-0.12411488
29	0x3d097e5b	0.033567768
30	0x3d9e4c5b	0.077294074
31	0x3ee19234	0.44056857
32	0xbebd4eee	-0.3697428
33	0xbc93f543	-0.018061286
34	0x3ee32bc8	0.4436934
35	0x3e009fd8	0.12560976
36	0x3daa972c	0.08329615
37	0xbde201e1	-0.110355146
38	0xbe866f92	-0.26256996
39	0xbe6065e8	-0.21913874
40	0x3e8a9972	0.27070194
41	0xbc85938d	-0.01630571
42	0xbc7d835d	-0.015473214
43	0xbe3d3d23	-0.18480353
44	0xbd364064	-0.044495
45	0x3d848b5b	0.064718924
46	0x3c677763	0.014127585
47	0xbe533d76	-0.20628914
48	0x3d384ad1	0.044993225
49	0xbeaaa391	-0.33327916
50	0x3d94b07a	0.07260223
51	0xbf06fa06	-0.52725255
52	0xbe9ff7df	-0.31243798
53	0xbe8f352d	-0.27970257
54	0x3b7817f9	0.0037856086
55	0x3ea5a911	0.3235555
56	0xbe71bf4f	-0.23608135
57	0x3f6edd8e	0.93306816
58	0xbea370fc	-0.31922138
59	0xbdded3db	-0.10880252
60	0xbe63d96d	-0.2225091
61	0xbdac5a4d	-0.08415661
62	0x3e58f57f	0.211874
63	0xbd9ec451	-0.07752288
64	0xbdbded75	-0.09273807
65	0xbe034154	-0.1281789
66	0x3d232a75	0.039835412
67	0x3e8abf61	0.27099136
68	0xbe410192	-0.18848255
69	0x3e1ff657	0.15621315
70	0x3e24bed2	0.16088417
71	0x3e4fbcb9	0.20286836
72	0xbd96748c	-0.07346448
73	0xbe81eda2	-0.25376612
74	0xbd3eb917	-0.046563234
75	0xbe9b583a	-0.3034075
76	0xbe89102b	-0.26770148
77	0x3e0a152b	0.13484637
78	0x3d5dad39	0.054120276
79	0xbe48e8bf	-0.19620036
80	0xbdd78113	-0.10522666
81	0xbd95cca7	-0.07314425
82	0xbd37c810	-0.04486853
83	0xbdacac61	-0.08431316
84	0xbdedcadb	-0.11610957
85	0x3e68216a	0.22668996
86	0x3e902d1d	0.2815942
87	0x3a005a1b	0.0004896239
88	0xbea36c6d	-0.3191866
89	0x3e55bdf1	0.20873238
90	0xbe8785a7	-0.26469156
91	0xbe31e0db	-0.17370932
92	0xbe8a5354	-0.270167
93	0x3e65b89a	0.22433701
94	0x3e556663	0.20839839
95	0xbce9f0ee	-0.028557267
96	0x3e685db9	0.22692002
97	0xbdf126af	-0.117749564
98	0xbd26725d	-0.04063641
99	0xbe9c3db6	-0.30515832
100	0xbd878bb8	-0.06618446
101	0x3b6c2ea5	0.0036038544
102	0x3e4f8edd	0.20269342
103	0x3e668b0a	0.22513977
104	0xbdd35a47	-0.103199534
105	0x3e8f6b93	0.2801176
106	0xbe45e9a1	-0.19327404
107	0xbe257f9c	-0.1616196
108	0xbe35b8ad	-0.1774623
109	0x3e3b7a4d	0.18308373
110	0xbd86649f	-0.06562161
111	0xbe4f6d17	-0.20256458
112	0xbe1c531f	-0.15266083
113	0xbe401516	-0.18758044
114	0xbe9c7d1d	-0.30564204
115	0x3e782cdc	0.24235862
116	0x3e5e42f9	0.21705236
117	0x3df72f96	0.12069623
118	0xbda11c77	-0.07866757
119	0xbd82c39c	-0.06384966
120	0xbdf38799	-0.118910976
121	0x3e5bb29a	0.2145485
122	0xbc726b6d	-0.01479612
123	0x3c52b642	0.012860836
124	0xbe79c895	-0.24392922
125	0x3e51dc4a	0.2049419
126	0x3eff1e01	0.4982758
127	0x3d19f48b	0.03758673
128	0x3ec24950	0.37946558
129	0x3e117bcd	0.14207383
130	0x3e089eb2	0.13341787
131	0x3e93e929	0.28888825
132	0x3e6acea0	0.22930384
133	0xbd99c7eb	-0.075088345
134	0x3ebd8ddd	0.37022296
135	0x3e79f732	0.24410704
136	0x3e38c03d	0.18042083
137	0x3dc2a984	0.09504989
138	0xbe9cb4a9	-0.30606583
139	0x3bca33a8	0.0061707087
140	0x3d88e81c	0.06684896
141	0xbecc886e	-0.39947838
142	0xbf1df1a4	-0.6169684
143	0x3dd9a734	0.106275946
144	0xbe56dd80	-0.20982933
145	0x3e2c2452	0.1681073
146	0xbe6c2183	-0.23059659
147	0x3da5c6cc	0.08094558
148	0x3e8249b5	0.2544686
149	0xbe5b781d	-0.21432538
150	0x3d5d02f0	0.05395788
151	0x3e5051f5	0.20343764
152	0xbca49af6	-0.020093422
153	0xbe43d8ae	-0.19125625
154	0x3dec9973	0.115527056
155	0xbda7ecc5	-0.08199457
156	0xbddeff37	-0.10888522
157	0xbf07de35	-0.53073436
158	0x3e960021	0.29296973
159	0x3e812f88	0.25231576
160	0x3e95dabb	0.2926844
161	0x3da71d24	0.08159855
162	0xbea8aa62	-0.32942492
163	0xbe22e851	-0.15908934
164	0x3e3b062a	0.1826407
165	0x3ea395a7	0.31950113
166	0xbda6ec75	-0.08150569
167	0x3ec7a4f2	0.3899303
168	0xbc10be64	-0.008834455
169	0x3e7afb2f	0.24509881
170	0x3cbe4bf8	0.023229584
171	0xbea6087f	-0.32428357
172	0x3e0a36c0	0.13497448
173	0xbeb01ff8	-0.3439939
174	0x3ea1cda5	0.31602207
175	0xbe57f98c	-0.21091288
176	0xbeb7ba50	-0.35884333
177	0xbdc63c55	-0.09679476
178	0xbe2d70d4	-0.16937572
179	0x3e973b4d	0.2953743
180	0xbcecbb64	-0.028897949
181	0x3d9803db	0.0742261
182	0xbe1d82f8	-0.15381992
183	0x3e05cd5a	0.13066617
184	0x3f334c09	0.70037895
185	0x3ebae5b6	0.3650338
186	0xbe2dca3b	-0.16971676
187	0x3c793b0c	0.015211832
188	0x3e8cd3ec	0.27505434
189	0x3eab22ce	0.3342499
190	0x3ecdb16d	0.40174428
191	0x3ccfe6e8	0.02537866
192	0xbe1737d6	-0.14767393
193	0x3d55c07e	0.052185528
194	0xbda11a02	-0.07866289
195	0x3e92674e	0.2859444
196	0xbe4a2297	-0.19739757
197	0xbea55487	-0.32291052
198	0x3e54d7e5	0.20785482
199	0xbe3e1f6c	-0.18566674
200	0xbdf29c28	-0.11846191
201	0x3e352bcb	0.17692487
202	0xbe20a2a9	-0.1568705
203	0xbe54428b	-0.20728509
204	0x3e5b874f	0.21438335
205	0xbe1e07d9	-0.15432681
206	0x3eca575c	0.39519775
207	0xbedcd4b8	-0.43131042
208	0xbe6853dd	-0.22688241
209	0x3e137f91	0.14404131
210	0x3dd9ddda	0.10638018
211	0xbe60c2fe	-0.21949384
212	0xbd403ec9	-0.046934877
213	0x3dab7acb	0.0837303
214	0xbeb627f6	-0.35577363
215	0xbc2b9cc8	-0.010474391
216	0x3da4815b	0.08032485
217	0x3eb72e3a	0.35777456
218	0x3e08429e	0.13306662
219	0x3ea49146	0.32142085
220	0xbe00a486	-0.1256276
221	0x3ecb191c	0.39667594
222	0x3e647644	0.2231074
223	0x3ecc4a58	0.3990047
224	0x3d49c20c	0.049257323
225	0x3f0b78d4	0.54481244
226	0x3edbfba0	0.42965412
227	0x3e8893ad	0.26675168
228	0xbcf96475	-0.03044341
229	0xbea48545	-0.32132927
230	0x3e922c6b	0.28549513
231	0x3b8bf35a	0.004270953
232	0x3dc4562a	0.09586747
233	0x3cc6faab	0.02428945
234	0x3cbd0678	0.023074374
235	0x3db1759b	0.086650096
236	0xbdbfa107	-0.093568854
237	0x3e9d764f	0.30754325
238	0x3e7f8c85	0.24955948
239	0xbd318606	-0.043340705
240	0xbe319c77	-0.17344843
241	0xbdedcab7	-0.116109304
242	0xbe3577ab	-0.17721431
243	0xbe0642e2	-0.13111451
244	0x3d83c129	0.06433327
245	0x3eb50a10	0.3535924
246	0xbd12e0ea	-0.035859026
247	0x3df67f6d	0.12036023
248	0xbe3d80c2	-0.18506148
249	0xbe05d833	-0.13070755
250	0xbe8950ee	-0.26819557
251	0xbd3b9c51	-0.04580337
252	0xbcfcd369	-0.030862527
253	0xbe11c0f0	-0.14233756
254	0xbd2df919	-0.042473886
255	0xbdacbf2a	-0.08434899

encoder.enc2.bias f4 [39]
0	0x3e1134f7	0.1418036
1	0x00000000	0.0
2	0x3d3fa4a1	0.04678786
3	0x3d854c7b	0.06508728
4	0xbba0e6b5	-0.004910315
5	0xbd8f1061	-0.06985546
6	0x3d004c69	0.03132287
7	0xbc8b1ed8	-0.01698248
8	0x3db973b4	0.09055272
9	0xbbb5afa4	-0.0055446196
10	0x3df03a4f	0.117298715
11	0x3d8f2f78	0.06991476
12	0xbdfc092d	-0.12306438
13	0x3d1e574a	0.038657464
14	0x3d1585d5	0.036504585
15	0x3d8a6542	0.06757595
16	0x3da029c5	0.07820467
17	0x3c5c5235	0.013447334
18	0x3d6d66ad	0.057959247
19	0xbd73df5e	-0.05953919
20	0xbbd996bb	-0.006640283
21	0x3c702f32	0.01465969
22	0xbccadedd	-0.024764473
23	0x3d387da6	0.045041703
24	0x3e6526da	0.22378102
25	0xbd39d18e	-0.045365863
26	0x3d6dbd96	0.05804213
27	0x3cab7caa	0.020933468
28	0x3c0ba202	0.008522512
29	0xbbe4ab71	-0.006978445
30	0x3e04df1e	0.12975737
31	0x3dfbbbac	0.12291655
32	0x3c7eb78d	0.015546692
33	0x3d39b51e	0.045338742
34	0xbc078ce6	-0.008273339
35	0x3d91bf71	0.07116593
36	0xbe6f04f5	-0.23341735
37	0x3d800981	0.06251813
38	0xbd2e9922	-0.042626508

encoder.enc3.weight f4 [19, 39]
0	0x3ea229a4	0.31672394
1	0xbeabd5f7	-0.3356168
2	0xbf3e1086	-0.7424396
3	0xbf9b4b3f	-1.2132338
4	0xbc739c0a	-0.014868746
5	0xbf5cbe56	-0.8622793
6	0xbf8bf7ce	-1.0934999
7	0xc008f189	-2.1397421
8	0x3f0cce5a	0.5500237
9	0xbf53f83f	-0.8280067
10	0xbdd08ae1	-0.10182739
11	0x3f01d473	0.50714797
12	0xc00d8b0a	-2.2116113
13	0xbfe7af54	-1.8100381
14	0xbf905bb4	-1.1277986
15	0x3ef61cc4	0.4806882
16	0xbf8fbc5c	-1.1229358
17	0xbff165b5	-1.8859164
18	0x3e8e4639	0.2778795
19	0xbf99113e	-1.1958387
20	0xbf8f4c8d	-1.1195236
21	0xc02f3e8f	-2.7381933
22	0xbf1d53cb	-0.6145598
23	0xbf8a7384	-1.0816503
24	0x3e485717	0.19564472
25	0xc006a215	-2.1036427
26	0x3f72efe1	0.94897276
27	0xbfa6fdfa	-1.3046257
28	0xbec75a19	-0.38935927
29	0xbfda0e13	-1.7035545
30	0x3e76be0d	0.24095936
31	0x3f05ca44	0.5226176
32	0xbf6fd09e	-0.936777
33	0x3ef22a6b	0.47297987
34	0x3dcf9ae8	0.10136968
35	0xbeec11a4	-0.4610721
36	0x3e8e8daf	0.2784247
37	0x3e2cbdb2	0.16869238
38	0xbf5d913a	-0.86549723
39	0x3da99208	0.082798064
40	0xbe56cd91	-0.20976855
41	0xbe61902a	-0.2202765
42	0x3db32419	0.087471195
43	0xbd8b3648	-0.06797463
44	0xbdccb076	-0.09994595
45	0xbe826cc8	-0.25473619
46	0xbec6dd9c	-0.3884095
47	0xbe081c4f	-0.13292049
48	0x3cd70de6	0.026251744
49	0xbd37edfb	-0.04490469
50	0xbe0af075	-0.1356829
51	0xbe119727	-0.14217816
52	0x3ea305d6	0.3184039
53	0x3eae997d	0.34101477
54	0xbeac7db8	-0.33689666
55	0x3d43506f	0.04768413
56	0x3a367b49	0.000696112
57	0xbed13467	-0.40860292
58	0x3e802e90	0.25035524
59	0x3dc6a821	0.09700037
60	0xbe99762c	-0.2997297
61	0xbe07ef70	-0.13274932
62	0xbe0477bd	-0.12936302
63	0x3ede6e7f	0.43443677
64	0xbd24f185	-0.040269393
65	0xbe802393	-0.2502714
66	0x3dbc64fd	0.091989495
67	0x3e6f3d49	0.23363222
68	0x3d8b6536	0.06806414
69	0x3e8caa88	0.27473855
70	0x3e4c10e5	0.1992832
71	0xbb8757c2	-0.0041303346
72	0xbe1e840a	-0.15480056
73	0xbe4a9356	-0.19782767
74	0x3de9ef22	0.11422564
75	0xbf2af72a	-0.6678339
76	0x3e4dfd88	0.20116246
77	0x3e2c510e	0.16827795
78	0x3e8a433c	0.2700442
79	0xbe4c29fb	-0.1993789
80	0xbea90762	-0.33013445
81	0xbf968ef3	-1.1762375
82	0xbcd5be99	-0.02609186
83	0xbf36ee95	-0.714578
84	0xbf8371ff	-1.0269164
85	0xbff85828	-1.9401903
86	0x3ec420f5	0.38306394
87	0xbf3c2992	-0.7350093
88	0x3e908035	0.28222814
89	0x3f2a98ea	0.6663958
90	0xc014bc84	-2.324006
91	0xbff98710	-1.9494343
92	0xbf9a4bdb	-1.2054399
93	0x3d3d0aa9	0.046152744
94	0xbfaaaa46	-1.3333213
95	0xbfa37371	-1.2769605
96	0x3f266577	0.64998573
97	0xbf9d44af	-1.2286586
98	0xbf833c30	-1.0252743
99	0xc00cce2f	-2.2000844
100	0xbfa32b7b	-1.2747644
101	0xbfc6af24	-1.5522199
102	0x3deac695	0.11463658
103	0xc0052dcd	-2.0809205
104	0x3e77f66d	0.24215098
105	0xbf8b39dc	-1.0877032
106	0xbdb4e96a	-0.08833583
107	0xbfc9274e	-1.571512
108	0x3ea66269	0.32496956
109	0x3e29ee17	0.1659473
110	0xbefe0d2d	-0.49619427
111	0x3f005076	0.50122774
112	0xbed6a6ff	-0.41924283
113	0xbf4cd8db	-0.80018395
114	0x3d9f8570	0.07789123
115	0x3ed2e5df	0.41191003
116	0xbf7f61b2	-0.99758446
117	0xbedb47c6	-0.42828196
118	0x3a4bd9b8	0.0007776278
119	0xbe21b16a	-0.15790334
120	0x3e89880b	0.26861605
121	0x3ea09e49	0.31370762
122	0x3b30a377	0.0026952901
123	0x3dc782fe	0.09741782
124	0x3e0c02ea	0.13672987
125	0xbe219716	-0.15780291
126	0x3d5c7ebc	0.0538318
127	0x3df58dda	0.11989947
128	0x3cd3d4e8	0.025858358
129	0x3d5ae8d1	0.053444687
130	0xbd2a5e8f	-0.041594084
131	0x3e3e92e5	0.18610723
132	0x3d383e7e	0.044981472
133	0x3ea0fb25	0.31441608
134	0xbdbf4df8	-0.09341043
135	0xbef54e19	-0.47911146
136	0x3d03c093	0.032166075
137	0xbe2baf6e	-0.1676614
138	0xbe49dd9f	-0.19713448
139	0xbdb6701a	-0.089081004
140	0xbd88dc60	-0.06682658
141	0x3e985d91	0.29758886
142	0x3cab3ccf	0.02090302
143	0xbef736f8	-0.48284125
144	0xbdf10a9b	-0.11769601
145	0xbdc3befa	-0.0955791
146	0xbe23b179	-0.15985669
147	0x3e8a080a	0.26959258
148	0x3e24bf94	0.16088706
149	0x3e811680	0.2521248
150	0x3dad9afc	0.084768265
151	0xbe2d2d1d	-0.1691174
152	0xba50a174	-0.00079586287
153	0xbf472bcb	-0.778012
154	0x3dbd7ce3	0.09252336
155	0xbe7718fa	-0.24130622
156	0x3f091aed	0.5355671
157	0xbe4019dc	-0.18759865
158	0xbed8930e	-0.42299694
159	0xbfa0a69c	-1.2550845
160	0x3d702a63	0.058634173
161	0xbf8769dd	-1.0579182
162	0xbfd0250a	-1.6261303
163	0xc009f5e2	-2.1556325
164	0x3f072767	0.527945
165	0xbf5c419e	-0.86037624
166	0xbd8d8b61	-0.0691135
167	0x3e8a4e57	0.27012894
168	0xbff2755a	-1.8942063
169	0xbff28cfa	-1.8949273
170	0xbf950966	-1.1643493
171	0x3e0be530	0.13661647
172	0xbfbc14c9	-1.4693843
173	0xbff42878	-1.907485
174	0x3ef49958	0.47773242
175	0xbf938171	-1.1523877
176	0xbf90a4bd	-1.1300274
177	0xc0214767	-2.519983
178	0xbf405a0d	-0.75137407
179	0xbfc16a5a	-1.5110581
180	0x3f02ca82	0.5109025
181	0xc0015c2c	-2.0212507
182	0x3ef1f1b6	0.47254723
183	0xbfb23de2	-1.3925135
184	0xbf253671	-0.64536196
185	0xbfdd06cc	-1.7267699
186	0x3e827337	0.25478527
187	0x3f271ab4	0.6527512
188	0xbec1a98d	-0.3782467
189	0x3c8738bb	0.016506543
190	0x3df83b05	0.12120632
191	0xbec1924d	-0.3780693
192	0xbd947e47	-0.07250648
193	0xbca87343	-0.020562774
194	0xbf73cd86	-0.9523548
195	0xbe24725b	-0.16059248
196	0xbe948203	-0.2900544
197	0xbba22411	-0.004948147
198	0xbd8ca5be	-0.0686755
199	0xbc803a6f	-0.015652863
200	0xbca8a637	-0.02058707
201	0xbdce6bea	-0.10079177
202	0xbeaba692	-0.3352552
203	0x3d50f9fa	0.051019646
204	0x3caf4a21	0.021397652
205	0xbe27601a	-0.16345254
206	0xbe3e4e36	-0.18584523
207	0xbe87226c	-0.2639345
208	0x3ce8d582	0.028422121
209	0x3cb6770c	0.022273563
210	0x3ea184bd	0.31546584
211	0x3e0b044d	0.1357586
212	0xbdbe6c7e	-0.09298037
213	0xbf944d48	-1.1586084
214	0x3d373716	0.04473027
215	0xbe1c0341	-0.15235616
216	0xbed6b40f	-0.4193425
217	0xbedffd70	-0.43748045
218	0xbd6a9fcb	-0.057281297
219	0x3e394c3a	0.18095484
220	0x3eb07d33	0.3447052
221	0xbf92ef29	-1.1479236
222	0x3eaa2555	0.33231607
223	0x3ebab189	0.36463574
224	0x3e777b7b	0.24168198
225	0xbe3661ee	-0.17810795
226	0x3dccc115	0.09997765
227	0x3ea162a4	0.3152057
228	0x3aac37d7	0.00131392
229	0xbeacddc1	-0.33762935
230	0x3e4c1405	0.19929512
231	0xbf02177c	-0.50817084
232	0x3e0ab204	0.1354447
233	0x3ea72394	0.3264433
234	0x3ede05e6	0.43363875
235	0x3dfc4360	0.12317538
236	0xbf2f7efd	-0.68553144
237	0xbf669176	-0.90065706
238	0xbe17ed18	-0.14836538
239	0xbe8033f3	-0.25039634
240	0xbf84d873	-1.0378555
241	0xbfef46c8	-1.8693476
242	0x3eed0f1f	0.463006
243	0xbef21917	-0.47284767
244	0xbc64ea07	-0.013971812
245	0x3e94214b	0.2893165
246	0xc006f840	-2.108902
247	0xbfab840c	-1.3399673
248	0xbf271299	-0.6526275
249	0x3ce68daf	0.028143732
250	0xbfc063b6	-1.5030429
251	0xbff3a250	-1.9033909
252	0x3f414bd6	0.7550634
253	0xbf508fbc	-0.8146932
254	0xbf958ab3	-1.1682953
255	0xc0119324	-2.2746058

encoder.enc3.bias f4 [19]
0	0x3d9e5136	0.077303335
1	0x3db9cdbf	0.09072446
2	0x3e39fa6d	0.18161936
3	0x3d9c20ee	0.07623468
4	0x3e25d4f3	0.16194515
5	0x3dab4018	0.08361834
6	0x3e314c43	0.17314248
7	0x3e46c7e5	0.19412191
8	0xbbcf1d6d	-0.0063206465
9	0x3e314de6	0.17314872
10	0x3ddfa148	0.10919434
11	0xbcae9245	-0.021309981
12	0x3d53fafb	0.051753026
13	0x3de47a15	0.11156098
14	0x3dc005b2	0.09376086
15	0x3d782c61	0.060589198
16	0x00000000	0.0
17	0x3ded342d	0.11582217
18	0x3da7a4d6	0.08185737

encoder.enc4.weight f4 [7, 19]
0	0x3e1d6a5c	0.15372604
1	0x3f09e82a	0.5386988
2	0xbf13ba44	-0.57706094
3	0x3b6b7f9a	0.003593421
4	0xbf586ac6	-0.84537923
5	0x3ef8e71d	0.48613825
6	0x3d91bf55	0.07116572
7	0x3eddca07	0.43318197
8	0x3ea3532f	0.31899402
9	0xbf3dedf4	-0.7419121
10	0x3f1723e9	0.5903917
11	0xbeea2da7	-0.45737955
12	0x3e6efdf3	0.23339061
13	0x3e1b0cc2	0.15141585
14	0xbef31a22	-0.47480875
15	0x3e55b824	0.20871025
16	0x3cf944f6	0.030428391
17	0xbf10d9c0	-0.5658226
18	0x3efe44e0	0.49661922
19	0x3e8a0217	0.2695472
20	0xbe2745a9	-0.16335167
21	0x3f63a20e	0.8891915
22	0xbec293c6	-0.38003367
23	0x3f54b0c6	0.83082235
24	0xbe848fcc	-0.25890958
25	0x3f6adbbe	0.9174155
26	0xbe5e5b46	-0.21714506
27	0x3f05f5ad	0.52327996
28	0x3f7f4ba3	0.9972479
29	0xbd971e30	-0.07378805
30	0xbdca9dce	-0.0989338
31	0xbd3ea964	-0.046548262
32	0x3efa04ff	0.48831937
33	0x3ec4e60c	0.38456762
34	0xbebe2bb5	-0.3714272
35	0x3e9bf7c9	0.30462483
36	0x3f523834	0.8211701
37	0xbeb50dee	-0.3536219
38	0xbe98fe54	-0.29881537
39	0x3f03c5a1	0.5147343
40	0xbf8468f3	-1.0344528
41	0x3f02b921	0.51063734
42	0xbf287902	-0.65809643
43	0x3b879cb2	0.0041385526
44	0xbf7634bc	-0.96174216
45	0x3f13e327	0.5776848
46	0xbe562c68	-0.20915377
47	0xbf395619	-0.72397
48	0x3ebd5bb5	0.3698403
49	0xbeb64a27	-0.3560345
50	0x3e94d35b	0.290675
51	0xbecc03b6	-0.3984658
52	0xbe8ac676	-0.2710454
53	0x3f1cac44	0.61200356
54	0xbc756bdc	-0.014979329
55	0xbeecbcc1	-0.46237758
56	0x3f23eb12	0.64030564
57	0xbf1cbd92	-0.6122676
58	0x3f31b09d	0.69410115
59	0xbe9bc12c	-0.30420816
60	0xbd9393cf	-0.072059266
61	0xbf1a1d3d	-0.60200864
62	0x3e4e5ff6	0.20153794
63	0xbf638ff7	-0.8889155
64	0x3e8212e6	0.25405043
65	0x3ea64b0e	0.32479137
66	0xbf5c37fe	-0.8602294
67	0x3f26a7a6	0.6509956
68	0x3f019d41	0.50630575
69	0x3de53b8a	0.11192997
70	0xbd344241	-0.044008497
71	0xbecf3e35	-0.40477148
72	0xbe60d08b	-0.21954553
73	0xbec271c4	-0.3797742
74	0xbf4c74b3	-0.7986557
75	0x3f0496d5	0.5179265
76	0x3f41fada	0.75773394
77	0xba7cae33	-0.0009638995
78	0x3f19d779	0.6009441
79	0xbf25286b	-0.645148
80	0x3f172bb4	0.5905106
81	0xbed93f67	-0.42431185
82	0x3e9768ab	0.29572043
83	0xbec303be	-0.38088793
84	0x3dded8bc	0.108811826
85	0x3f4376bc	0.7635305
86	0xbeb2ed0d	-0.3494648
87	0xbe8b4917	-0.272042
88	0xbedd2801	-0.43194583
89	0x3f809b87	1.0047463
90	0x3f1c2dc0	0.6100731
91	0xbf0f4acc	-0.55973506
92	0xbead10cc	-0.33801877
93	0x3ee3f937	0.44526073
94	0x3cbaa718	0.022784755
95	0x3e96b5d9	0.29435614
96	0xbe882fd4	-0.2659899
97	0x3f52b9b0	0.82314587
98	0xbefb3f5f	-0.49071786
99	0xbd72d222	-0.05928243
100	0xbebad2bd	-0.36488906
101	0x3ec3b14b	0.382212
102	0xbe655e7c	-0.22399324
103	0x3efff6ae	0.4999289
104	0xbd948375	-0.07251636
105	0xbf42c53a	-0.76082194
106	0x3eaa58b3	0.33270797
107	0xbed70fb1	-0.4200416
108	0x3ea10197	0.31446525
109	0x3ed0f7c5	0.40814033
110	0x3d9fb95c	0.07799026
111	0x3eb1d073	0.34729347
112	0x3eb829ef	0.35969493
113	0x3e51ce3d	0.2048883
114	0xbf66c035	-0.90137035
115	0x3dd6f5e9	0.104961224
116	0xbec3f60b	-0.38273653
117	0xbdf27420	-0.11838555
118	0xbe83fc3f	-0.25778386
119	0x3e07a2bc	0.13245672
120	0xbf170827	-0.58996814
121	0x3ead8b59	0.33895376
122	0xbef30f30	-0.47472525
123	0xbf37aaee	-0.71745193
124	0xbe8b9b6c	-0.27267015
125	0xbde21fc4	-0.11041215
126	0x3ccb0710	0.024783641
127	0xbed4d48e	-0.41568416
128	0xbf43de91	-0.76511484
129	0x3f1aebb6	0.60515916
130	0xbf022f1a	-0.5085312
131	0xbe793827	-0.24337827
132	0x3f086a14	0.5328686

encoder.enc4.bias f4 [7]
0	0x3c070de9	0.0082430625
1	0xbcf6cfae	-0.030128326
2	0xbc2220eb	-0.009895544
3	0x3ca907fa	0.020633686
4	0x3b948767	0.004532743
5	0xbc4c2ed5	-0.0124623375
6	0xbb690d1a	-0.0035560788

decoder.dec1.weight f4 [19, 7]
0	0x3e25c126	0.16186962
1	0xbf721113	-0.94557303
2	0xbe5a64ff	-0.2132759
3	0x3ed9d6f5	0.42546812
4	0xbc966929	-0.018360691
5	0x3e3d1449	0.1846477
6	0xbe8f0602	-0.2793427
7	0xbf4a8f6f	-0.7912511
8	0xbd7754cc	-0.060383603
9	0x3f1afff8	0.6054683
10	0x3ccf104e	0.02527633
11	0xbd3e4e6f	-0.04646152
12	0x3f1788bc	0.59193015
13	0xbef13fd5	-0.47119012
14	0xbf135f7e	-0.57567585
15	0xbeedb1c8	-0.464247
16	0x3e812d01	0.25229648
17	0xbf1ccc54	-0.6124928
18	0x3f2c2efc	0.6725919
19	0xbe30c777	-0.1726359
20	0x3f6b037d	0.918022
21	0xbf17bb97	-0.59270614
22	0x3ea17e05	0.31541458
23	0xbf635f0f	-0.8881692
24	0xbe37d069	-0.17950596
25	0xbf341ed2	-0.7035953
26	0xbf0a966d	-0.5413578
27	0x3f662e68	0.8991456
28	0x3f47f4f3	0.7810814
29	0x3ed8f7b9	0.42376497
30	0xbf0211ae	-0.5080823
31	0x3d5298b5	0.051415164
32	0x3f434151	0.7627154
33	0xbe0dcd22	-0.13847783
34	0x3f0f279b	0.5591981
35	0xbf21649d	-0.6304415
36	0xbf32a41c	-0.6978166
37	0xbe4afb3a	-0.19822398
38	0x3d682854	0.056679085
39	0x3ed66057	0.41870376
40	0xbdecbaab	-0.115590416
41	0x3daea7f2	0.08528127
42	0x3f20e798	0.62853384
43	0xbf08fdbb	-0.5351216
44	0xbf832106	-1.0244453
45	0x3e766145	0.24060543
46	0xbf24a332	-0.64311516
47	0x3ee9391c	0.45551383
48	0x3f48c076	0.7841867
49	0x3d2f8bf6	0.042858087
50	0x3e7b5461	0.24543907
51	0x3e57ecdd	0.2108645
52	0x3f6b3b0d	0.9188698
53	0x3e048b71	0.12943818
54	0x3ef42e7c	0.47691715
55	0xbf1fb537	-0.62385887
56	0xbf2260fb	-0.6342923
57	0x3e4c847d	0.19972415
58	0xbeeaeeaa	-0.4588521
59	0x3e9b7c99	0.30368498
60	0xbee1d8b0	-0.44110632
61	0x3ef53e8f	0.4789929
62	0x3f13f8d1	0.5780154
63	0xbef3fa63	-0.47651967
64	0xbcf1d811	-0.029521974
65	0x3f207454	0.626775
66	0x3dd23d89	0.10265643
67	0x3dba68f2	0.09102048
68	0x3e822a8a	0.2542308
69	0x3ed68935	0.41901556
70	0xbf352947	-0.7076611
71	0x3ee45218	0.44593883
72	0x3f39c797	0.72570175
73	0xbedffd40	-0.43747902
74	0xbf049afe	-0.51799
75	0x3ea205e9	0.31645134
76	0xbf342111	-0.70362955
77	0xbf1516d4	-0.5823796
78	0x3e8d8e72	0.2764774
79	0xbe99bc8e	-0.30026668
80	0xbf470b62	-0.77751744
81	0x3b4e8227	0.0031510682
82	0xbed7182e	-0.42010635
83	0xbde94265	-0.11389617
84	0x3f02ef35	0.5114625
85	0xbe75b34a	-0.23994175
86	0xbeaecd72	-0.34141117
87	0x3ecfa7e3	0.40557775
88	0xbefc5146	-0.49280757
89	0x3f161aaa	0.58634436
90	0x3f56a94a	0.83852065
91	0x3f6d707b	0.92749757
92	0xbe8e3e8b	-0.27782091
93	0xbe6c87a8	-0.23098624
94	0xbe71156c	-0.23543328
95	0x3edee057	0.43530533
96	0x3ece0b19	0.40242842
97	0x3e9cf01b	0.30651936
98	0xbf64cce2	-0.89375126
99	0xbf21878d	-0.6309746
100	0xbe439035	-0.1909798
101	0xbd0580c7	-0.032593515
102	0xbeb0f466	-0.3456146
103	0x3f574796	0.84093606
104	0x3f0ea9a8	0.55727625
105	0x3f217e11	0.6308299
106	0x3f6b2087	0.9184651
107	0x3f655766	0.89586484
108	0x3e23e0f1	0.16003777
109	0xbdd8df1b	-0.10589429
110	0x3e50a1a4	0.20374161
111	0xbf415731	-0.7552367
112	0x3ef37a5c	0.4755429
113	0x3f4e76a0	0.8064976
114	0xbf4489d5	-0.76772815
115	0x3d6276e3	0.05528916
116	0x3e20782f	0.15670846
117	0xbe888e39	-0.26671007
118	0x3ea325e5	0.3186485
119	0xbeb1cb33	-0.3472534
120	0x3f4d1507	0.8011021
121	0xbd5a516f	-0.053300317
122	0xbf1fc4bf	-0.62409586
123	0xbf234838	-0.6378207
124	0xbe62fe62	-0.22167352
125	0x3e67e6c0	0.22646618
126	0xbec07a54	-0.3759333
127	0xbb865a43	-0.0041001155
128	0xbf54e33f	-0.8315925
129	0x3ec246f2	0.37944752
130	0xbf5a6cc7	-0.8532223
131	0xbeb60575	-0.35551038
132	0xbd7a4611	-0.061101977

decoder.dec1.bias f4 [19]
0	0xbd05bde7	-0.032651808
1	0xbd48ee20	-0.04905522
2	0xbd1b70ed	-0.03794949
3	0x3a829469	0.0009962443
4	0xbd8685d9	-0.06568498
5	0xbd20dafd	-0.039271343
6	0xbc76b1d1	-0.015057043
7	0xbc586ced	-0.013209564
8	0xbd95cd90	-0.073145986
9	0xbcad09ff	-0.02112293
10	0xbbed27ca	-0.0072374092
11	0x3cba9317	0.022775216
12	0xbc821eed	-0.015883887
13	0x3c486c27	0.012232817
14	0xbc88007e	-0.016601797
15	0xbcc2cf8c	-0.023780607
16	0xbd09bb61	-0.033625964
17	0xbb664035	-0.0035133485
18	0xbb70a120	-0.0036717132

decoder.dec2.weight f4 [39, 19]
0	0x3d830d7c	0.06399056
1	0xbe8ea08f	-0.2785687
2	0xbebaaad1	-0.36458448
3	0x3eea95f2	0.45817524
4	0x3efc0b61	0.4922743
5	0xbe1af9e1	-0.15134384
6	0x3edc525f	0.43031594
7	0xbee069b4	-0.43830645
8	0x3eee1e8e	0.46507686
9	0xbe4df964	-0.20114666
10	0xbe701b0c	-0.23447818
11	0x3e00203b	0.12512295
12	0xbe6fcd00	-0.23418045
13	0xbe5a0d8d	-0.21294232
14	0x3dffe723	0.12495258
15	0xbd077991	-0.03307492
16	0xbf04de4d	-0.51901704
17	0xbe9d3d07	-0.30710623
18	0xbf08d9a8	-0.5345712
19	0x3f02406e	0.5087956
20	0xbe03e577	-0.12880503
21	0xbe18f497	-0.14937054
22	0x3e658c53	0.2241681
23	0x3f00c3c2	0.502987
24	0x3e90c05f	0.28271767
25	0x3e163146	0.14667234
26	0xbf461472	-0.7737495
27	0x3d7cf645	0.0617583
28	0x3e40dd67	0.18834458
29	0xbe3f60db	-0.18689291
30	0xbefeab46	-0.49740046
31	0x3ed051f5	0.40687528
32	0x3e43d0d6	0.19122633
33	0xbf0d1169	-0.5510469
34	0xbed63a07	-0.41841146
35	0x3c86d48b	0.01645877
36	0xbe097ce6	-0.13426551
37	0x3eed0acd	0.46297303
38	0xbc1d47a1	-0.009599597
39	0x3ea8b8ff	0.3295364
40	0xbea6e803	-0.32598886
41	0x3ec2250d	0.37918893
42	0xbe1521a3	-0.14563613
43	0x3e9717ac	0.29510248
44	0xbd4e1c2d	-0.05031984
45	0xbdba475f	-0.09095644
46	0xbe6eb01b	-0.23309366
47	0xbe91db54	-0.28487647
48	0xbe35de98	-0.17760694
49	0x3ea4fc2c	0.32223642
50	0xbeb90f72	-0.36144596
51	0xbe5bc02d	-0.21460028
52	0x3cf25829	0.029583054
53	0xbe876c3d	-0.26449767
54	0x3e8a4e34	0.2701279
55	0x3ee55325	0.44789997
56	0xbdc7401e	-0.09729026
57	0xbe46c3b4	-0.19410592
58	0x3e38a05b	0.18029921
59	0xbdb202fe	-0.08691977
60	0x3e12d578	0.14339244
61	0x3ec958fa	0.39325696
62	0x3f15cd28	0.5851617
63	0xbe8fb9ea	-0.2807153
64	0xbeb95d19	-0.3620384
65	0xbe863dbb	-0.26218972
66	0x3edd9939	0.43280962
67	0x3e8e868a	0.2783702
68	0x3d8ca43a	0.06867261
69	0xbe442f4d	-0.19158669
70	0xbed23a54	-0.41060126
71	0xbe6c32d1	-0.2306626
72	0x3f1c9aec	0.6117389
73	0x3e5e881a	0.21731606
74	0xbecdd7e1	-0.40203765
75	0x3c60f14b	0.013729404
76	0x3e3b2595	0.18276055
77	0x3ed8a7e0	0.42315578
78	0xbea394aa	-0.3194936
79	0xbeebdd9b	-0.4606751
80	0xbf34c9d1	-0.7062045
81	0xbe9752c6	-0.2955534
82	0xbcd1fd18	-0.02563338
83	0x3f0c4036	0.5478548
84	0xbe829363	-0.25503072
85	0xbcfbda40	-0.030743718
86	0xbf3f3c66	-0.74701536
87	0x3ec9b1b7	0.39393398
88	0x3e2534e5	0.16133459
89	0x3d939130	0.07205427
90	0x3ea47993	0.32124004
91	0x3db086ec	0.08619484
92	0xbe3795ef	-0.17928289
93	0xbe39f2e7	-0.18159066
94	0x3ef13022	0.47107035
95	0xbf03646f	-0.51325125
96	0xbe6b6def	-0.22991155
97	0xbe4b17cd	-0.19833298
98	0x3e33d536	0.17561802
99	0xbc4c204e	-0.012458874
100	0x3f050c91	0.519723
101	0x3ecf50c3	0.40491304
102	0xbe15b7ae	-0.1462085
103	0xbee8024d	-0.45314255
104	0x3eaaf291	0.33388188
105	0x3ee3f448	0.4452231
106	0xbef7f81c	-0.4843148
107	0x3ea51126	0.32239646
108	0xbcf93e03	-0.030425077
109	0x3e6a34e0	0.22871733
110	0x3f045f39	0.517078
111	0x3e8385bc	0.2568797
112	0x3eb07a43	0.34468278
113	0x3e1d0925	0.1533552
114	0x3f055c7f	0.5209426
115	0x3ec88a54	0.39168036
116	0xbf066f61	-0.525137
117	0x3ecc4144	0.39893544
118	0xbeeb74da	-0.45987588
119	0xbef8ca86	-0.48592013
120	0xbed5bdc4	-0.41746342
121	0x3ef07c3b	0.4696978
122	0x3e920434	0.28518832
123	0xbef81e57	-0.48460647
124	0xbee1c053	-0.44092044
125	0xbdb1ec87	-0.08687692
126	0xbf00de0c	-0.50338817
127	0x3d9ca3db	0.076484405
128	0x3e55a70b	0.20864503
129	0xbdb1f39c	-0.08689043
130	0x3ee42896	0.44562215
131	0x3d6aee45	0.057356138
132	0xbec3b77c	-0.38225925
133	0xbefe8156	-0.4970805
134	0xbe26ae16	-0.16277346
135	0x3ec07ace	0.37593693
136	0xbd6307e0	-0.055427432
137	0xbe6dc320	-0.23218966
138	0x3ef0bd60	0.47019482
139	0x3ef87168	0.48524022
140	0xbf20f03e	-0.6286658
141	0xbf0dca71	-0.55387026
142	0xbed47cdf	-0.4150152
143	0xbc6c9ea0	-0.014442116
144	0xbe9e3746	-0.30901545
145	0x3eb4cceb	0.3531259
146	0x3ea43e59	0.32078817
147	0xbe320ef4	-0.17388517
148	0xbea9054f	-0.33011863
149	0x3e9d455b	0.30716977
150	0xbe7adf1c	-0.24499172
151	0x3e2ace68	0.166803
152	0x3ccf4ca7	0.025305105
153	0xbe20f87e	-0.15719792
154	0xbeb9c721	-0.36284736
155	0xbd2460ea	-0.040131487
156	0xbefc5f9a	-0.49291688
157	0x3efb9270	0.4913516
158	0x3e3fbc03	0.18724065
159	0x3dc7028e	0.09717284
160	0x3ee6d5bc	0.4508494
161	0xbf3678e6	-0.71278226
162	0x3e4c02fd	0.19923015
163	0xbe945e6a	-0.28978282
164	0x3e9ab8a3	0.30218992
165	0xbf150724	-0.5821402
166	0xbd4d0a55	-0.05005868
167	0x3e34e5bd	0.17665763
168	0x3dc5ecc6	0.096643016
169	0x3edf9dbd	0.43675032
170	0xbd8da003	-0.069152854
171	0xbe47d572	-0.19515017
172	0x3ef0b56a	0.47013408
173	0xbe5f11b4	-0.21784097
174	0x3ecab7c0	0.39593315
175	0xbdf9a0b0	-0.12188852
176	0x3dec48c7	0.11537319
177	0xbee87076	-0.453983
178	0x3e024900	0.1272316
179	0x3e9c0ab8	0.30476928
180	0x3f197720	0.59947395
181	0xbe524d06	-0.20537195
182	0x3e26d79e	0.16293189
183	0xbe3fc7a5	-0.18728502
184	0x3f138db4	0.57638097
185	0xbe3e7eaf	-0.18603013
186	0x3f2cef8c	0.6755302
187	0x3e942ad2	0.2893892
188	0xbe931fe0	-0.28735256
189	0x3daf8bb9	0.08571572
190	0xbeedcb0b	-0.46443972
191	0x3e5103b1	0.20411564
192	0x3bcb9771	0.0062131216
193	0x3da4ae23	0.080410264
194	0x3e9f1fa4	0.31078827
195	0x3e75747d	0.23970218
196	0xbefc2c49	-0.49252537
197	0xbdae0235	-0.08496515
198	0x3e3968f1	0.18106438
199	0x3ec51a30	0.38496542
200	0x3ed5a0e2	0.41724306
201	0xbe825028	-0.2545178
202	0x3e971a28	0.29512143
203	0x3db5fdbb	0.08886286
204	0x3ea08d5f	0.31357858
205	0x3d605963	0.054772746
206	0xbe9905c1	-0.29887202
207	0x3d721a96	0.059107386
208	0xbededc73	-0.43527564
209	0xbf19fc3e	-0.60150516
210	0xbebefe2d	-0.37303296
211	0x3ed282a7	0.41115305
212	0xbe9c19f2	-0.30488545
213	0x3e7f32ae	0.24921677
214	0x3e3e2ac8	0.18571007
215	0xbe825b97	-0.25460503
216	0x3eaf1a3e	0.3419971
217	0x3ef4f770	0.4784503
218	0x3ecfabc3	0.4056073
219	0xbef7a8e7	-0.4837105
220	0x3eae7bf5	0.34078947
221	0x3eed2c6b	0.4632295
222	0xbe8ebd47	-0.27878782
223	0xbe6cfcec	-0.23143357
224	0x3ed96dd6	0.4246661
225	0xbe4749bd	-0.19461723
226	0xbe39522f	-0.18097757
227	0xbe9e6c94	-0.30942214
228	0x3f1b2dc9	0.6061674
229	0xbccc62b7	-0.024949415
230	0x3e5fd767	0.21859513
231	0x3f03d7d6	0.51501215
232	0xbefcba86	-0.49361056
233	0xbf09722c	-0.5368984
234	0xbd4a10be	-0.049332373
235	0x3fc84574	1.5646195
236	0x3efc2d93	0.4925352
237	0x3f03d14a	0.51491225
238	0xbecac319	-0.39601973
239	0x3d89017c	0.06689736
240	0x3ed45a5f	0.41475198
241	0xbec49a59	-0.38399008
242	0xbef0bf35	-0.4702088
243	0x3bdac37a	0.0066761347
244	0x3e441633	0.19149093
245	0xbeb7e17d	-0.3591422
246	0xbd87746d	-0.06614003
247	0xbdaf3cde	-0.08556531
248	0x3ed414b7	0.41422054
249	0xbb2e4c9e	-0.002659596
250	0xbf044f5f	-0.5168361
251	0xbe8d902f	-0.27649066
252	0xbef48ddf	-0.4776449
253	0x3ef8b656	0.4857661
254	0x3e442059	0.19152965
255	0xbe0949bb	-0.13407032

decoder.dec2.bias f4 [39]
0	0xbb59e8a5	-0.003325024
1	0x3caa5958	0.020794556
2	0x3d68b897	0.056816664
3	0xbcb29b15	-0.021802465
4	0xbc8d0521	-0.01721436
5	0xbcb84cc6	-0.022497546
6	0xbc33948c	-0.010960709
7	0xbc4304a2	-0.01190296
8	0xbb2ed99a	-0.0026679994
9	0xbd1a5333	-0.037677
10	0x3c8ba923	0.017048424
11	0x3c02b095	0.007976671
12	0xbb271ab7	-0.00254981
13	0xbce5ba06	-0.028042804
14	0xba8090c1	-0.0009808765
15	0x3d614050	0.054992974
16	0xbd1e9199	-0.03871307
17	0x3c016cbd	0.00789946
18	0x3d580512	0.05273921
19	0xbd0d4663	-0.034490954
20	0x3d845012	0.06460585
21	0x3b25ae2a	0.0025280812
22	0xbd354899	-0.044258688
23	0x3c25a922	0.010111125
24	0xbb8b7734	-0.0042561535
25	0xbd1186dc	-0.035529003
26	0xbc3fa0de	-0.011696069
27	0x3e9c77ee	0.3056025
28	0xbccdb6cc	-0.025111578
29	0x3c626e0a	0.013820181
30	0xbc55012d	-0.013000769
31	0x00000000	0.0
32	0x3b684a5a	0.0035444708
33	0x3c7587a5	0.014985953
34	0xbc9f11ae	-0.01941761
35	0xbce297a0	-0.027660191
36	0xbb2e752f	-0.002662014
37	0x3c2accf1	0.010424838
38	0x3c73d4e9	0.014882305

decoder.dec3.weight f4 [58, 39]
0	0xbd048ad6	-0.032358967
1	0xbc6e95a0	-0.014562041
2	0xbd6e997f	-0.058251854
3	0xbd562bbf	-0.052287813
4	0xbdf2f079	-0.11862273
5	0xbeb384eb	-0.35062346
6	0xbe5aaab7	-0.21354185
7	0xbeb54dca	-0.3541091
8	0xbddd4b6e	-0.10805403
9	0xbec3958d	-0.38200036
10	0x3c628cd6	0.013827523
11	0xbe8173b0	-0.25283575
12	0xbe84ba94	-0.25923598
13	0xbe8361bc	-0.25660503
14	0xbd7fbacd	-0.062434006
15	0xbde482ac	-0.11157736
16	0xbddb59cf	-0.10710489
17	0xbd5ce9dd	-0.053933967
18	0xbe633b03	-0.2219048
19	0x3e58d6a3	0.21175627
20	0xbeb0dbd6	-0.34542722
21	0x3e1d1ecb	0.15343778
22	0xbd34cf3b	-0.044142943
23	0xbe9737cd	-0.2953476
24	0x3c8e303c	0.017356984
25	0xbdb96087	-0.09051614
26	0x3e03bf8d	0.1286604
27	0xbe666ca2	-0.22502378
28	0x3e98ec8b	0.29867968
29	0x3ca3b69b	0.019984534
30	0xbc61f2b0	-0.013790771
31	0xbead5d31	-0.33860162
32	0x3d97485a	0.07386847
33	0x3dffcef4	0.12490645
34	0x3e1d524d	0.15363427
35	0x3e3a3ef5	0.18188079
36	0x3d175cc6	0.03695371
37	0xbd59e778	-0.05319926
38	0x3e9e3d41	0.30906108
39	0x3c217766	0.009855127
40	0x3b86eade	0.004117354
41	0xbece0b08	-0.4024279
42	0xbd9d662c	-0.07685503
43	0x3d8e09c1	0.06935454
44	0xbeb5161f	-0.3536844
45	0xbe6cf76e	-0.23141262
46	0xbe0f86d7	-0.14016281
47	0x3e96994b	0.29413828
48	0x3ea8fb29	0.3300412
49	0xbec0241d	-0.37527552
50	0xbe8e6b7e	-0.27816385
51	0xbde7ae01	-0.113124855
52	0xbe1a003b	-0.1503915
53	0x3ea5c581	0.32377246
54	0xbe400c2b	-0.18754642
55	0x3dc75341	0.09732676
56	0x3ec0e9dd	0.37678424
57	0xbe169aa0	-0.14707422
58	0xbde71083	-0.11282446
59	0xbcd3b1e4	-0.02584166
60	0xbdf7f411	-0.12107099
61	0x3e99e3f3	0.30056724
62	0x3e74453e	0.23854539
63	0xbe7944e8	-0.24342692
64	0xbe223a89	-0.15842642
65	0x3e8a36ac	0.26994836
66	0xbea2bb2f	-0.31783435
67	0xbde98772	-0.11402787
68	0x3e260107	0.1621133
69	0xbe1ff748	-0.15621674
70	0x3e8e8746	0.2783758
71	0xbe386095	-0.18005593
72	0x3e9d9779	0.30779627
73	0x3e9fc5f3	0.3120571
74	0x3ea227fa	0.31671125
75	0xbe9505f2	-0.29106098
76	0xbe9fd52d	-0.31217328
77	0x3e24e1ea	0.16101804
78	0x3eaac80f	0.33355758
79	0x3e94048c	0.2890972
80	0xbd1b8c8d	-0.037975837
81	0x3c828e02	0.015936855
82	0x3ee97618	0.4559791
83	0xbe79d216	-0.24396548
84	0x3eb34686	0.35014743
85	0xbe34569d	-0.17611165
86	0x3e80c096	0.2514693
87	0xbd8c356c	-0.06846127
88	0x3fdfebac	1.7493796
89	0x3df626f0	0.120191455
90	0x3f0ff5d2	0.5623447
91	0x3ee07db6	0.4384591
92	0xbe4403f1	-0.19142129
93	0xbeb1fd9d	-0.34763804
94	0xbebd8863	-0.37018117
95	0xbfb5bc7d	-1.4198147
96	0xbf18f449	-0.5974775
97	0xbe605c8b	-0.21910302
98	0xbe001059	-0.12506236
99	0x3fd6e11b	1.6787447
100	0x3c0a2d70	0.008433685
101	0xbe1280ea	-0.1430699
102	0xbeb1b16e	-0.3470568
103	0xbd4a0b28	-0.049327046
104	0x3ddc718a	0.10763843
105	0xbea3c9af	-0.3198981
106	0x3e07c307	0.13257991
107	0xbf51ee90	-0.8200464
108	0xbe8fa151	-0.28052762
109	0x3e675686	0.225916
110	0x3e487abf	0.19578074
111	0xbbe13639	-0.006872919
112	0xbd49092d	-0.049081016
113	0xbf35d0c4	-0.71021676
114	0xbdd52417	-0.10407274
115	0x3ed956b7	0.4244897
116	0x4022c9eb	2.543574
117	0xbd02a6ee	-0.031897478
118	0xbecafd14	-0.39646208
119	0xbe51fc38	-0.2050637
120	0xbc928f7f	-0.01789069
121	0xbe90cbe0	-0.28280544
122	0xbcd2ddf8	-0.025740609
123	0xbdcf2e31	-0.10116232
124	0x3da95c9d	0.08269618
125	0xbc3d074d	-0.011537385
126	0x3e258d47	0.16167174
127	0xbeef28a0	-0.46710682
128	0x3dcbb874	0.09947291
129	0xbd966395	-0.073432125
130	0xbe46074d	-0.19338723
131	0xbe8aac45	-0.27084556
132	0x3d338739	0.04383013
133	0x3e77a131	0.24182583
134	0xbe7a0c4f	-0.24418758
135	0xbd0c5c20	-0.034267545
136	0xbe43f749	-0.191373
137	0x3e9fabf4	0.31185877
138	0x3e812744	0.2522527
139	0xbd575fdc	-0.052581653
140	0xbe6813a8	-0.22663748
141	0x3e98eabb	0.29866585
142	0x3f9b7173	1.2143997
143	0x3eaf2924	0.34211075
144	0x3d1723b6	0.03689929
145	0x3e538001	0.20654298
146	0xbea57760	-0.32317638
147	0xbe630365	-0.22169264
148	0x3eaf94c7	0.34293196
149	0xbeb9d432	-0.36294705
150	0xbe9c67ad	-0.30547848
151	0x3ad7ecd0	0.0016473774
152	0xbdb2a109	-0.08722121
153	0xbe9d0d79	-0.3067434
154	0x3e4421ba	0.1915349
155	0xbc5cb282	-0.013470294
156	0xbc958732	-0.018252943
157	0x3ee9b42e	0.4564528
158	0x3cfe9bde	0.031080183
159	0xbfa2a649	-1.2706996
160	0x3d633177	0.055467095
161	0xbe489705	-0.1958886
162	0xbe9a06ca	-0.30083305
163	0x3f567633	0.8377411
164	0xbdb61bcc	-0.088920206
165	0xbeed398e	-0.46332973
166	0xbfc29e32	-1.5204527
167	0x3e2ceb3c	0.1688661
168	0x3e24b345	0.16084011
169	0xbf2bf0e0	-0.6716442
170	0xbdee9c66	-0.116509244
171	0xbeba9600	-0.36442566
172	0x3ea7e819	0.32794264
173	0x3fcdd51b	1.608066
174	0xbe9159df	-0.2838888
175	0xbcfe3ef9	-0.031035887
176	0x3e8167fe	0.25274652
177	0xbfa57b06	-1.2928169
178	0x3d886933	0.0666069
179	0xbe3c08c3	-0.18362717
180	0x3ebc23f3	0.36746177
181	0x3efa3049	0.48864964
182	0xbe8cf2a2	-0.27528864
183	0x3e934a36	0.28767556
184	0x3d9b9321	0.07596422
185	0x3d5de211	0.05417067
186	0xbde3bdfc	-0.11120221
187	0xbea7931c	-0.32729423
188	0xbe80b4e9	-0.25138023
189	0xbd9667ed	-0.07344041
190	0xbe66caea	-0.22538343
191	0x3fcbfab1	1.593588
192	0x3e8d4141	0.27588847
193	0xbf15d056	-0.5852102
194	0x4008ecca	2.1394525
195	0x3d6c65d6	0.057714306
196	0x3e92fd53	0.28708896
197	0x3beda3a8	0.0072521754
198	0x3e03823c	0.12842649
199	0x3dabd2e9	0.08389837
200	0x3e775894	0.24154884
201	0x3d9ca6dc	0.076490134
202	0xbf48ba72	-0.7840949
203	0x3f250c7f	0.6447219
204	0x3d88f9ca	0.066882685
205	0xbf0c9af3	-0.54923934
206	0x3eb8aca5	0.36069217
207	0xbe0fd837	-0.14047323
208	0xbe843e08	-0.25828576
209	0x3ea08b72	0.31356388
210	0x3d335592	0.043782778
211	0xbe31b89a	-0.17355576
212	0xbf5ff104	-0.87477136
213	0xbe9998a2	-0.29999262
214	0xbe47f0b8	-0.1952542
215	0x3e35b4e3	0.17744784
216	0x3df977c7	0.12181049
217	0x3e509225	0.2036825
218	0x3d93c077	0.07214444
219	0x3d75c410	0.060001433
220	0x3ce1ae10	0.02754882
221	0x3e423cdf	0.18968533
222	0xbda5fb81	-0.08104611
223	0x3e4bb403	0.19892888
224	0x3dc57703	0.0964184
225	0xbe29d88c	-0.16586512
226	0x3e9ecefb	0.3101729
227	0xbe85843c	-0.2607745
228	0xbf03e5c4	-0.5152247
229	0xbe78c987	-0.24295627
230	0x3e38f68e	0.18062803
231	0xbe89e3b1	-0.26931527
232	0xbd8e8d44	-0.06960538
233	0xbe9b50b0	-0.30334997
234	0x3dce655d	0.10077927
235	0xbe69c9c8	-0.2283088
236	0x3e5bdc27	0.214707
237	0xbf0df6fb	-0.5545499
238	0x3bf4c272	0.0074694688
239	0xbeb67ffe	-0.35644525
240	0x3ebdb0cb	0.37048945
241	0xbee1ee1a	-0.4412697
242	0x3e3a60a8	0.18200934
243	0xbea0dcdd	-0.31418505
244	0xbf05190b	-0.5199134
245	0xbe57c2a9	-0.2107035
246	0x3ecc0b46	0.3985235
247	0xbed909c2	-0.42390257
248	0xbdc57724	-0.09641865
249	0xbdffcbad	-0.1249002
250	0xbe1d18dd	-0.15341516
251	0xbe7cad91	-0.24675585
252	0x3ef26260	0.4734068
253	0x3ecb6eae	0.3973288
254	0x3ebb35e4	0.36564553
255	0x40230e8d	2.547763

decoder.dec3.bias f4 [58]
0	0x00000000	0.0
1	0xbd13bf3f	-0.03607106
2	0xbdb96557	-0.09052532
3	0xbd859e5c	-0.06524345
4	0xbda523b8	-0.080634534
5	0x3d61e64a	0.05515126
6	0xbcd5e696	-0.026110929
7	0x3c25ad1a	0.010112071
8	0x3c2d5755	0.010579904
9	0xbcc10caa	-0.023565609
10	0x3ca80655	0.020510832
11	0xbb59868b	-0.0033191766
12	0x3c64a79f	0.01395598
13	0x3b5c21ad	0.0033589408
14	0xbcc56dcd	-0.024100209
15	0xbc19fbb0	-0.009398386
16	0xbcd50022	-0.02600104
17	0xbccc34a5	-0.024927447
18	0x3d148724	0.036261693
19	0x3e84c65f	0.25932595
20	0xbbff4235	-0.007789875
21	0x3d1aef92	0.03782613
22	0x00000000	0.0
23	0x3d0e565e	0.034750335
24	0xbc785c53	-0.015158731
25	0x3d799ac2	0.060938604
26	0xbd1c35ce	-0.03813725
27	0x3b8124c5	0.003941151
28	0xbd4a64d8	-0.04941258
29	0x3e04a52d	0.12953635
30	0xbc6629e0	-0.01404807
31	0xbc9c5a51	-0.019086035
32	0xbc9f2bf9	-0.019430147
33	0xbcf20a48	-0.029545918
34	0xbcda53fb	-0.026651373
35	0xbb4201d9	-0.0029603152
36	0x3d360d46	0.044446252
37	0x3cfc6496	0.030809682
38	0x3b40e219	0.002943164
39	0x00000000	0.0
40	0x3c08a22a	0.008339444
41	0x00000000	0.0
42	0xbc38d1f5	-0.011280526
43	0x3d6bfda0	0.057614923
44	0xbd699557	-0.057027187
45	0x3d5f82c0	0.054568052
46	0xbc8a5881	-0.016887905
47	0x3e598604	0.21242529
48	0x3d419619	0.047262285
49	0x3bb2f8ef	0.005461804
50	0x3d74ed98	0.0597969
51	0x3b8e8057	0.0043487954
52	0x3ba2a3c1	0.0049633686
53	0xbbd55aa0	-0.0065110475
54	0xbc718d2c	-0.014743131
55	0xbbf058cf	-0.0073348056
56	0xbd1259d2	-0.03573019
57	0xbd4ecf93	-0.050490927
