IDS_TA/initial_Models/CADE-m5.0-l1.0.pth (torch, 67890 bytes, 16 tensors)

encoder.enc1.weight f4 [58, 78]
0	0x3f8f51dc	1.1196856
1	0x3e4a458a	0.1975309
2	0x3e0c2718	0.13686788
3	0x3b1e4657	0.0024150813
4	0x3cc61ef2	0.024184678
5	0xbccdc257	-0.025117083
6	0xbdd73761	-0.105086096
7	0x3e818156	0.25293988
8	0x3c8a14f0	0.016855687
9	0xbe085cb9	-0.13316621
10	0x3e85b4ec	0.26114595
11	0xbed6711b	-0.41883168
12	0x3e44a852	0.19204834
13	0x3e12be41	0.14330389
14	0xbe91e8c1	-0.2849789
15	0x3d31a79b	0.04337273
16	0x3dcb3e2a	0.09923966
17	0x3e89cbfd	0.26913443
18	0xbd002b6e	-0.031291418
19	0xbc863414	-0.016382255
20	0xbe3ce0a5	-0.1844507
21	0xbd0951a2	-0.033525117
22	0x3cab5eaa	0.020919163
23	0x3e50317b	0.20331375
24	0x3e7103b4	0.23536569
25	0x3db92286	0.09039788
26	0xbd372465	-0.044712443
27	0x3f0598bf	0.521862
28	0x3e2a215b	0.16614287
29	0xbdd8f7ac	-0.10594115
30	0xbc27a146	-0.010231322
31	0xbe795963	-0.24350505
32	0x3e3d5356	0.18488821
33	0xbe494956	-0.19656882
34	0x3e37e617	0.17958866
35	0x3ddd91a0	0.108187914
36	0x3dc4da11	0.09611905
37	0x3e3fb6ff	0.18722151
38	0x3e28b296	0.16474375
39	0x3e9b31f9	0.30311564
40	0x3e159323	0.1460691
41	0x3e0ee00f	0.13952659
42	0xbda2144e	-0.07914029
43	0x3e4dc8ec	0.20096177
44	0x3dd2793b	0.10277029
45	0xbda0dfda	-0.07855196
46	0x3eb80058	0.35937762
47	0x3d996537	0.07490008
48	0xbda22068	-0.07916337
49	0x3d66cfe1	0.056350593
50	0xbea59f0c	-0.32347906
51	0xbe5ba99f	-0.21451424
52	0xbd4a6d7c	-0.04942082
53	0xbd33ac6b	-0.043865602
54	0xbcebfe4d	-0.028807783
55	0x3b8ea48b	0.004353111
56	0xbd389c4a	-0.045070924
57	0xbe1cc5c2	-0.15309814
58	0xbe1e1235	-0.15436633
59	0x3e547192	0.20746449
60	0x3e189b3a	0.14902964
61	0x3cbb24e9	0.022844749
62	0xbea3fe9c	-0.3203019
63	0x3ecee490	0.40408754
64	0x3de7c108	0.11316115
65	0xbd03cbee	-0.032176904
66	0xbe84d44f	-0.2594323
67	0x3c26030f	0.010132565
68	0xbe904ca1	-0.28183463
69	0xbd8d5314	-0.069006115
70	0xbdc8ca08	-0.098041594
71	0x3c1c428e	0.009537352
72	0x3e28d9f9	0.164894
73	0xbe8545ec	-0.2602991
74	0x3d937f7f	0.07202052
75	0x3e0b2d42	0.13591483
76	0x3dce3fbd	0.10070751
77	0x3e446bcd	0.19181748
78	0x3fb4d597	1.4127682
79	0x3ce8433f	0.028352378
80	0xbe8ccea4	-0.27501404
81	0xbd00b2a3	-0.03142036
82	0xbdf6ea64	-0.12056425
83	0x3e1c10a0	0.15240717
84	0xbdbd4ab2	-0.092427626
85	0xbec74a88	-0.3892405
86	0x3e619e4e	0.22033045
87	0xbdaf8442	-0.08570148
88	0x3d5b69ef	0.053567823
89	0x3c2e3120	0.0106318295
90	0x3e5b2cf5	0.21403868
91	0xbdd011ab	-0.1015962
92	0x3d89d281	0.067296036
93	0x3ec30c03	0.38095102
94	0xbe239664	-0.15975338
95	0x3eb078a0	0.3446703
96	0x3e7df9d9	0.2480234
97	0x3e202f90	0.15643144
98	0xbe8e5e7b	-0.27806458
99	0x3de86817	0.113479786
100	0x3dcfc166	0.1014431
101	0xbce73fde	-0.028228696
102	0xbe88af8d	-0.26696435
103	0xbc85650d	-0.016283536
104	0xbe129b2d	-0.14317007
105	0x3d18ac97	0.03727397
106	0x3e96fc00	0.29489136
107	0x3c84c93a	0.016209234
108	0x3e53e312	0.20692089
109	0x3cb109e5	0.021611163
110	0x3e088341	0.1333132
111	0x3e8b82e2	0.27248293
112	0x3e398209	0.1811601
113	0xbc86e888	-0.016468301
114	0x3e4e74d9	0.20161761
115	0x3d1cb3a8	0.03825727
116	0x3ed2a723	0.4114314
117	0xbec9fd61	-0.39451125
118	0x3e4b9534	0.19881135
119	0xbe0e6507	-0.13905726
120	0x3d175433	0.036945533
121	0xbd127c36	-0.035762988
122	0x3e7a2a38	0.24430168
123	0x3ef35d1d	0.47531977
124	0xbe8d1b4b	-0.27559885
125	0x3ba0c583	0.0049063577
126	0xbe5260a3	-0.20544676
127	0xbe5959b3	-0.21225624
128	0xbebbd44b	-0.36685404
129	0x3dd185f3	0.10230627
130	0x3dbb2061	0.09137035
131	0x3d609f40	0.054839373
132	0x3c828060	0.015930355
133	0x3e0a51b1	0.13507725
134	0x3f3a9ff9	0.7290035
135	0x3f93e18b	1.1553205
136	0x3e8fe0aa	0.28101093
137	0xbd991a2f	-0.07475697
138	0x3dd9e304	0.10639003
139	0x3c241e90	0.010017052
140	0xbe3b2a83	-0.18277936
141	0x3ed47174	0.41492808
142	0x3d162a03	0.03666116
143	0x3d382729	0.04495922
144	0x3e5d9540	0.21638966
145	0x3c3b3190	0.011425391
146	0x3ead3b60	0.33834362
147	0xbe3a176a	-0.18172994
148	0x3d3a930b	0.045550387
149	0x3ead751a	0.33878404
150	0xbcba5db1	-0.022749754
151	0x3e5addf3	0.2137373
152	0xbdb16356	-0.08661525
153	0x3e2995db	0.16561072
154	0x3e59f61b	0.21285288
155	0x3e5a5d65	0.2132469
156	0x3f76ed11	0.96455485
157	0xbe099b5d	-0.13438173
158	0x3deef99c	0.11668703
159	0xbf075f27	-0.52879566
160	0xbc8ae166	-0.016953181
161	0xbe6ab728	-0.22921431
162	0xbec7d046	-0.39026088
163	0x3d8d1701	0.06889153
164	0x3eba8a7e	0.36433786
165	0x3f0eb717	0.5574812
166	0x3ec81a36	0.39082497
167	0xbeea2be0	-0.457366
168	0xbd006bf9	-0.03135297
169	0x3d95235d	0.07282136
170	0xbe052906	-0.1300393
171	0x3e5835f9	0.21114339
172	0xbe249318	-0.16071737
173	0x3eae6496	0.34061116
174	0xbd1899cb	-0.037256043
175	0xbd850ec9	-0.06496961
176	0x3e49a33c	0.19691175
177	0xbebbcf6c	-0.36681688
178	0x3f2279e0	0.63467216
179	0xbdada532	-0.08478774
180	0xbe23198d	-0.15927716
181	0x3e312166	0.17297897
182	0xbd955364	-0.07291296
183	0x3e2534c2	0.16133407
184	0xbe0ef862	-0.13961938
185	0xbe0848e0	-0.1330905
186	0xbf022c61	-0.50848967
187	0xbeed31bd	-0.4632701
188	0xbc8b3967	-0.016995145
189	0x3cf2854e	0.02960458
190	0xbe895782	-0.26824576
191	0xbf0eb938	-0.5575137
192	0xbe91af46	-0.28454036
193	0x3c8386a9	0.016055422
194	0xbe5eb8ba	-0.21750155
195	0xbdb032bd	-0.086034276
196	0xbe13b977	-0.14426218
197	0xbd86f894	-0.06590381
198	0x3e5a0243	0.21289925
199	0xbee1d3a8	-0.44106793
200	0x3e5a6674	0.21328145
201	0xbe8b4895	-0.27203813
202	0xbfa454bb	-1.2838358
203	0xbe445a8b	-0.19175164
204	0xbe91d797	-0.28484794
205	0x3d8adeed	0.06780801
206	0xbc8a3fdb	-0.016876152
207	0xbd1792e0	-0.037005305
208	0xbe5974fe	-0.21236035
209	0x3dcfe22d	0.101505615
210	0x3e0b8cb3	0.13627891
211	0x3d6994f8	0.057026833
212	0xbdb9b31d	-0.09067366
213	0x3e6a8c3d	0.22905059
214	0xbf9dcc27	-1.2327927
215	0xbea8b559	-0.32950857
216	0x3f12c399	0.5732971
217	0x3dca02bc	0.09863803
218	0xbe3deca7	-0.18547307
219	0x3e9ccec1	0.3062649
220	0xbe1346e7	-0.14382516
221	0xbe466f87	-0.19378482
222	0xbe8ae1b3	-0.2712532
223	0xbd98bdcf	-0.07458078
224	0xbede3887	-0.43402502
225	0x3e89f35b	0.26943478
226	0xbeff30fb	-0.49842057
227	0xbdf5b0cc	-0.11996612
228	0xbee3a301	-0.444603
229	0xbec87464	-0.391513
230	0xbec97266	-0.39345092
231	0xbe551302	-0.20808032
232	0xbd6b2642	-0.057409532
233	0xbee33e2d	-0.44383374
234	0xbcd6f070	-0.026237696
235	0x3e1f707d	0.15570255
236	0x3e791459	0.24324168
237	0xbd66cc6e	-0.056347303
238	0x3e0e7945	0.13913448
239	0x3de469d9	0.11153001
240	0x3d8377ed	0.064193584
241	0xbd5ee357	-0.054416027
242	0x3e35f846	0.1777049
243	0xba5011c1	-0.0007937216
244	0x3c4cff09	0.012511977
245	0xbdc6724c	-0.09689769
246	0x3d3e38a0	0.04644072
247	0x3e2c80b7	0.16845976
248	0xbe425fa9	-0.18981804
249	0xbdbf19ca	-0.09331091
250	0xbdc4bb57	-0.09606045
251	0xbae73857	-0.0017640692
252	0x3e379800	0.17929077
253	0x3e7fa2e5	0.24964483
254	0x3e157a27	0.14597379
255	0xbe4a69b7	-0.1976689

encoder.enc1.bias f4 [58]
0	0x3d58e803	0.05295564
1	0x3d732ca6	0.059368752
2	0x3d791974	0.06081529
3	0xbca2a8bf	-0.019855855
4	0xbc39885c	-0.0113240145
5	0x3d3f3473	0.04668088
6	0xbc76d136	-0.015064528
7	0x3bb7759e	0.005598738
8	0x3caf72c5	0.021417031
9	0xbd518da9	-0.05116049
10	0x3c0856b1	0.00832145
11	0xbcf0b3a5	-0.029382536
12	0x3c725d1d	0.014792708
13	0x3d75cfd4	0.060012653
14	0x3d67623a	0.05649016
15	0x3d6a8b0b	0.057261508
16	0xbd0bcb55	-0.03412946
17	0x3c73eca0	0.014887959
18	0x3d6ab5cf	0.057302292
19	0x3d076b80	0.033061504
20	0x3cc60144	0.024170525
21	0x3d6b0569	0.057378206
22	0x3bf7a53a	0.0075575383
23	0x3cb50c85	0.022100696
24	0x3d5d0956	0.05396398
25	0xbd5e63f6	-0.05429455
26	0x3c4f818d	0.012665165
27	0x3c848dee	0.016180959
28	0x00000000	0.0
29	0x3d6ff8a6	0.05858674
30	0x3d34ecc4	0.04417111
31	0x3c92226c	0.01783868
32	0x3c02b0ea	0.00797675
33	0x3c8a2a03	0.016865736
34	0xbd1882f9	-0.03723428
35	0x3c7232a5	0.014782582
36	0x3c20a936	0.009805968
37	0x3d959caf	0.07305276
38	0x3d340851	0.043953244
39	0x3ba45ef8	0.005016204
40	0x3d935303	0.071935676
41	0x3d60aa6f	0.05485004
42	0x3d658db9	0.05604336
43	0x3d2e7016	0.042587362
44	0x3d3562ec	0.044283792
45	0x3d0ecb76	0.034862004
46	0xbc801029	-0.015632706
47	0x3d9868c3	0.07441857
48	0xbcde0971	-0.027104111
49	0x3c6a64c6	0.014306253
50	0x3dc05ea2	0.0939305
51	0x3c6945ec	0.014237862
52	0xbc844612	-0.016146693
53	0x3c1c37a9	0.009534755
54	0x3d2cda47	0.042200353
55	0x3d96314c	0.073336214
56	0x3d5b53f1	0.05354685
57	0x3db58b46	0.08864455

encoder.enc2.weight f4 [39, 58]
0	0x3ec09874	0.37616313
1	0x3e28535b	0.16438048
2	0x3ef57e47	0.47947904
3	0x3ddad1be	0.106845364
4	0xbe44c53c	-0.19215864
5	0x3ed7f131	0.42176202
6	0x3c9ee2cd	0.019395256
7	0x3ecb30f3	0.39685783
8	0x3dbe609b	0.0929577
9	0xbe7aaf54	-0.24480945
10	0xbe94dccc	-0.29074705
11	0x3dc788e5	0.097429074
12	0x3e80300b	0.25036654
13	0x3e2ec5c7	0.17067634
14	0x3eb1a5e6	0.34696883
15	0x3ecdeade	0.40218252
16	0x3cf0064e	0.029299881
17	0xbe1d5757	-0.15365349
18	0x3e860c93	0.26181468
19	0x3e2d46ad	0.16921492
20	0x3eb8838c	0.36037862
21	0x3d7de88c	0.061989352
22	0x3ecb8b79	0.39754847
23	0x3de0ed78	0.109827936
24	0x3e8140e1	0.2524481
25	0xbe2379bd	-0.15964408
26	0x3e5f8c0a	0.21830764
27	0x3e1a5c4c	0.15074271
28	0x3d8f2af8	0.069906175
29	0xbd1b8734	-0.037970737
30	0xbe0af587	-0.13570224
31	0xbdfcbcb6	-0.12340681
32	0x3dc8b3b2	0.09799899
33	0x3ca1524b	0.01969256
34	0x3f3b21d7	0.7309851
35	0x3e34da85	0.17661484
36	0xbeb248bc	-0.34821117
37	0x3d84ce02	0.06484605
38	0xbe97dba9	-0.29659775
39	0xbd194452	-0.03741867
40	0x3e05f4d4	0.13081676
41	0x3e099fed	0.13439913
42	0x3e9eba6d	0.31001607
43	0xbd2bb655	-0.041921932
44	0x3e525277	0.2053927
45	0x3e6dd12d	0.23224325
46	0x3d0a621e	0.033784978
47	0x3e2b68c7	0.16739188
48	0x3e8b7f72	0.2724567
49	0xbc9c3f9e	-0.019073304
50	0x3e33576c	0.17513818
51	0x3e84b3b5	0.25918356
52	0xbe80875a	-0.25103265
53	0x3df491f2	0.11941899
54	0xbe532ea5	-0.20623262
55	0x3e846810	0.25860643
56	0x3dc8b564	0.098002225
57	0x3ded971d	0.11601088
58	0xbe612cdf	-0.21989773
59	0x3e228c7c	0.15873903
60	0xbf5a2714	-0.8521588
61	0x3f07f6f7	0.53111213
62	0x3e460375	0.19337256
63	0xbf0260ae	-0.5092877
64	0xbe424312	-0.18970898
65	0xbe4f95a6	-0.2027193
66	0x3e347016	0.17620882
67	0xbc03b38b	-0.008038412
68	0x3e1f0d9b	0.15532534
69	0xbe2b9702	-0.16756824
70	0x3e42c395	0.19019921
71	0x3da00de7	0.07815152
72	0xbe21bc15	-0.15794404
73	0xbd11ce4e	-0.035597138
74	0xbdec94eb	-0.11551841
75	0xbe15a464	-0.14613491
76	0x3da470e4	0.08029345
77	0xbe14092f	-0.14456628
78	0xbec3557d	-0.3815116
79	0x3c8d2957	0.017231626
80	0xbf45acde	-0.772169
81	0x3e809345	0.25112358
82	0xbe3ab497	-0.18232952
83	0xbeb95642	-0.36198622
84	0xbf36ab89	-0.7135549
85	0x3dfba1c7	0.12286716
86	0xbea34403	-0.31887826
87	0x3e2c6982	0.16837123
88	0x3c35914e	0.011082007
89	0x3e31eff5	0.17376693
90	0x3e828177	0.254894
91	0xbeb908ef	-0.36139628
92	0xbf25c83d	-0.64758664
93	0xbeb5b66e	-0.35490745
94	0xbd9b2763	-0.07575872
95	0xbefbef16	-0.49205846
96	0xbe043477	-0.12910639
97	0xbea831b4	-0.3285042
98	0x3e4d656a	0.20058218
99	0x3d950016	0.07275407
100	0xbeac640a	-0.33670074
101	0xbe84de07	-0.25950643
102	0xbe41041d	-0.18849225
103	0xbd736210	-0.05941969
104	0xbe531c78	-0.20616329
105	0xbd88237d	-0.06647394
106	0xbdb1142a	-0.08646424
107	0x3e815f2c	0.25267923
108	0x3e334218	0.17505682
109	0x3e6e75eb	0.2328717
110	0x3dc5d3a7	0.0965951
111	0x3eaf769a	0.34270173
112	0xbe4ae325	-0.19813211
113	0x3e2fbaa4	0.17161041
114	0xbebd6163	-0.36988363
115	0x3d526799	0.05136833
116	0xbbbcab0c	-0.005757695
117	0xbdcf0f1f	-0.10110306
118	0xbe68e8b0	-0.22745013
119	0x3e9a4439	0.30130175
120	0x3e181441	0.14851476
121	0xbeb682c7	-0.3564665
122	0xbe7823b5	-0.24232371
123	0xbe79baf5	-0.24387725
124	0x3e8b561f	0.27214143
125	0xbd6ac284	-0.05731441
126	0xbd2c37a1	-0.04204524
127	0x3da8c09c	0.08239862
128	0xbe9d5ab5	-0.30733266
129	0x3e3d6e0a	0.18499008
130	0xbeba18c5	-0.36347023
131	0xbea04291	-0.31300786
132	0xbeae22fa	-0.3401106
133	0x3cda0730	0.026614755
134	0xbdb3d94f	-0.08781683
135	0x3e74e7ac	0.23916501
136	0x3ded443c	0.1158528
137	0x3dccb132	0.09994735
138	0x3e082feb	0.13299529
139	0x3e577769	0.21041645
140	0xbe0069e5	-0.12540396
141	0xbde4c960	-0.11171222
142	0xbe292c4d	-0.16520806
143	0x3db75615	0.08951966
144	0xbe9daf63	-0.30797872
145	0xbe453d42	-0.19261649
146	0x3e8bcbae	0.27303833
147	0x3e1b24bd	0.15150733
148	0xbe570e91	-0.2100165
149	0xbd5d3f97	-0.054015722
150	0xbf013a21	-0.5047932
151	0xbe261623	-0.16219382
152	0xbdee9867	-0.11650162
153	0xbe8cbe22	-0.2748881
154	0x3e938aae	0.28816742
155	0xbd968295	-0.07349125
156	0xbd3a0d10	-0.045422614
157	0xbe965b0b	-0.29366335
158	0xbd459c0f	-0.048244532
159	0xbef7bb6b	-0.48385176
160	0xbeb6dc67	-0.3571503
161	0xbd8375aa	-0.06418927
162	0xbd59ea36	-0.053201877
163	0x3debfef5	0.115232386
164	0xbe69a36f	-0.22816251
165	0x3e5815cf	0.2110207
166	0x3e3ec442	0.18629554
167	0xbd06af92	-0.03288228
168	0xbe12e64f	-0.14345668
169	0xbe907493	-0.2821394
170	0xbd1a0494	-0.037602022
171	0xbe649169	-0.22321095
172	0xbe641a6f	-0.22275709
173	0x3cb46fee	0.022026028
174	0xbe5fd599	-0.21858825
175	0xbf2babc6	-0.6705898
176	0xbf1f6116	-0.62257516
177	0xbe6db27f	-0.23212622
178	0xbd8e4d65	-0.069483556
179	0xbf08b3b1	-0.5339919
180	0xbeb7d0c7	-0.35901472
181	0xbe3c0c90	-0.18364167
182	0x3ec24caa	0.37949115
183	0x3e6d2464	0.23158413
184	0xbe223ac0	-0.15842724
185	0xbea4d185	-0.321911
186	0xbe504b63	-0.20341258
187	0xbe383fb7	-0.17993055
188	0xbec67438	-0.38760543
189	0xbeeacb63	-0.45858297
190	0xbf9c07ce	-1.2189882
191	0xbca33222	-0.019921366
192	0x3ed4e24a	0.41578895
193	0x3e1d2bed	0.15348788
194	0xbf164ca8	-0.5871072
195	0x3d130260	0.035890937
196	0xbf70253d	-0.9380682
197	0xbcd9802b	-0.026550373
198	0xbf0d3777	-0.5516276
199	0xbede3861	-0.4340239
200	0xbf076019	-0.5288101
201	0x3b8df9b5	0.004332746
202	0xbe83cabf	-0.2574062
203	0xbe92a365	-0.28640285
204	0x3ea06c7f	0.31332776
205	0xbd4b6f5a	-0.04966674
206	0xbdc01527	-0.093790345
207	0xbef155d3	-0.4713579
208	0xbf7694bc	-0.963207
209	0xbf57e422	-0.8433248
210	0xbe20acbd	-0.15690894
211	0xbef9341b	-0.48672566
212	0x3e3af8d9	0.1825899
213	0xbf0faa33	-0.5611908
214	0xbefc3775	-0.4926106
215	0xbe320ab2	-0.17386892
216	0xbdcaa10d	-0.09893999
217	0xbe85122c	-0.25990427
218	0x3e57a3eb	0.21058623
219	0xbd9feed3	-0.07809224
220	0xbf43a8bc	-0.76429343
221	0xbf6aef30	-0.9177122
222	0xbf06e46a	-0.5269228
223	0x3e8eaada	0.27864724
224	0xbe122010	-0.14270043
225	0xbf184600	-0.5948181
226	0x3e98808c	0.29785573
227	0xbdff0dd5	-0.1245381
228	0x3caf798c	0.021420263
229	0xbd97e882	-0.07417394
230	0xbed48a62	-0.41511828
231	0x3e859ebb	0.26097664
232	0x3c09c567	0.008408881
233	0xbedc9565	-0.4308273
234	0xbd9e8807	-0.07740789
235	0xbd16c610	-0.03680998
236	0xbda00262	-0.078129545
237	0x3d9f5ba3	0.0778115
238	0xbd402a9d	-0.04691564
239	0x3a1c1c4a	0.0005955143
240	0x3e255c55	0.16148503
241	0x3d3a33bc	0.045459494
242	0xbe174f20	-0.14776278
243	0xbd935ea0	-0.07195783
244	0x3c120ce2	0.008914204
245	0xbedcc8f5	-0.43122068
246	0xbdc70685	-0.097180404
247	0x3e9b0d56	0.30283612
248	0x3e72c6c5	0.23708637
249	0x3e973e45	0.29539695
250	0x3e1b00f3	0.15137081
251	0x3e5350bb	0.20636265
252	0xbe6bb936	-0.23019871
253	0x3e809c47	0.2511923
254	0xbef5730d	-0.4793934
255	0x3cd34700	0.025790691

encoder.enc2.bias f4 [39]
0	0x3d4db85e	0.050224654
1	0x3d09a6da	0.033606388
2	0xbc04f49a	-0.008114958
3	0x3d29a58f	0.041417655
4	0xbce25a28	-0.02763088
5	0x3d5f144f	0.054462727
6	0xb8043859	-3.152373e-05
7	0x3c5b7c6a	0.013396362
8	0x3d733c38	0.0593836
9	0xbc0a111d	-0.008426932
10	0x3cd2e609	0.025744455
11	0x3d71fa95	0.059076864
12	0x3d981d79	0.074274965
13	0xbd8ad5e9	-0.067790814
14	0x3cc8a7bf	0.02449405
15	0xbc3ed74f	-0.011648013
16	0x3c9719b9	0.018444883
17	0x3aa686ce	0.001270497
18	0xbcce4c20	-0.025182784
19	0xbcb0500e	-0.021522548
20	0x3d995f17	0.0748884
21	0x3d3af272	0.04564137
22	0x3dc3431b	0.09534284
23	0x3da2e1e6	0.07953243
24	0x3cc69b57	0.024243994
25	0x3d47ae36	0.048750125
26	0xbcf98edb	-0.030463627
27	0xbc312e21	-0.010814221
28	0x3d144118	0.03619489
29	0x3d6284b8	0.05530235
30	0x3d555f20	0.05209267
31	0x3d8a5812	0.06755079
32	0x3d4cecc4	0.050030485
33	0x3d1ad19e	0.037797563
34	0xbd34d0bf	-0.04414439
35	0x3c546bb4	0.012965132
36	0x3b7c3c8c	0.0038488237
37	0x3d7aca3f	0.061228033
38	0x3cd11928	0.02552469

encoder.enc3.weight f4 [19, 39]
0	0xbe5acc6c	-0.21367043
1	0xbe35ae95	-0.17742379
2	0xbd9e981a	-0.07743855
3	0xbf32bebd	-0.69822294
4	0xbe2d83d0	-0.16944814
5	0x3d8a5705	0.06754879
6	0x3d6381a4	0.055543557
7	0x3dfcc663	0.12342527
8	0xbd67a511	-0.056553904
9	0x3e541e61	0.20714714
10	0xbf1bf9ff	-0.6092834
11	0x3e69e7ad	0.22842284
12	0x3d89360a	0.0669976
13	0xbdba133c	-0.090857
14	0x3d17142d	0.036884475
15	0xbe1b6c09	-0.15177931
16	0x3e5c7d61	0.21532203
17	0xbd695d21	-0.05697358
18	0x3e65bc9f	0.22435234
19	0xbd827db7	-0.063716345
20	0x3eaf7bfc	0.3427428
21	0x3ea9d550	0.33170557
22	0x3e35c4e9	0.17750897
23	0x3dd84197	0.10559385
24	0x3db8a6df	0.09016203
25	0x3e2a78c7	0.16647635
26	0xbe88f2f7	-0.26747867
27	0x3d84d074	0.06485072
28	0x3ea34de3	0.3189536
29	0xbe863e61	-0.26219466
30	0x3e90e4ab	0.2829946
31	0x3e719d8c	0.23595256
32	0x3e0205d6	0.12697539
33	0xbe322239	-0.17395867
34	0xbea2be7c	-0.31785953
35	0xbf970f85	-1.1801611
36	0xbc32a3db	-0.010903324
37	0x3eb24134	0.3481537
38	0xbf9e0a31	-1.234686
39	0xbe98a944	-0.2981664
40	0xbe923292	-0.28554207
41	0x3e0d40ac	0.13794202
42	0xbf583500	-0.8445587
43	0x3e331adf	0.1749072
44	0xbe0c1fd6	-0.1368402
45	0x3bb1429f	0.005409553
46	0x3e62d209	0.22150435
47	0xbd85190f	-0.0649892
48	0xbcb097f0	-0.021556824
49	0xbf52eaa2	-0.8238927
50	0xbd953428	-0.07285339
51	0xbe6dc387	-0.23219119
52	0x3e5564d2	0.20839241
53	0xbda05721	-0.078291185
54	0xbd0a33c6	-0.03374078
55	0x3c1484ac	0.009064835
56	0x3e736c73	0.23771839
57	0x3e9e7b82	0.30953604
58	0x3df056c9	0.11735303
59	0x3cd121f5	0.025528887
60	0x3ec61604	0.38688672
61	0x3eac9864	0.33710015
62	0x3e2fdbdf	0.17173718
63	0x3e32e48d	0.17469998
64	0x3e3368d5	0.17520459
65	0x3e8b4339	0.27199724
66	0xbe751cd3	-0.23936777
67	0xbc2046b1	-0.009782479
68	0xbeaa714f	-0.33289573
69	0x3e86dde2	0.26341158
70	0x3dfaf012	0.12252821
71	0x3d4c1832	0.049827762
72	0xbe38831e	-0.18018767
73	0xbeae79e8	-0.34077382
74	0xbf89a45f	-1.0753287
75	0xbc8cb077	-0.017173989
76	0x3f0595a6	0.5218147
77	0xbf575fee	-0.8413075
78	0x3e681a9c	0.226664
79	0xbe7994a4	-0.24373108
80	0x3d6498e8	0.055809885
81	0x3e971634	0.29509127
82	0xbec96bd8	-0.3934009
83	0xbec9f37e	-0.39443582
84	0xbcbcc9fb	-0.02304553
85	0x3badf995	0.0053092935
86	0xbe889a69	-0.26680306
87	0xbba5244b	-0.005039727
88	0x3e848793	0.25884685
89	0xbe329fbe	-0.1744375
90	0xbdbba71f	-0.09162735
91	0xbd5c654c	-0.05380754
92	0x3d9bcc54	0.07607332
93	0x3e4dea88	0.20108998
94	0xbead7aa9	-0.33882645
95	0xbd8491aa	-0.06473096
96	0x3eb42a64	0.3518859
97	0x3d92a3be	0.071601376
98	0xbe47c6a0	-0.19509363
99	0xbe2b5d57	-0.16734825
100	0x3ddbf416	0.10739915
101	0x3e079434	0.13240129
102	0xbd80f4c2	-0.06296684
103	0xbed28603	-0.41117868
104	0xbec93ff3	-0.39306602
105	0x3e0d1c0a	0.13780227
106	0xbc215358	-0.009846531
107	0xbebdce8f	-0.37071654
108	0x3eb28069	0.34863594
109	0x3de05f2a	0.10955651
110	0x3c4f7b87	0.012663729
111	0xbe8244f3	-0.2544323
112	0x3c17cab2	0.009264635
113	0x3c9feb04	0.019521244
114	0x3e4f8cee	0.20268604
115	0xbd8ff547	-0.07029205
116	0x3e80a67a	0.25127012
117	0xbec1f1fb	-0.3787993
118	0x3efa4520	0.48880863
119	0x3e3e1689	0.18563284
120	0x3f66f1de	0.9021281
121	0x3f03de1a	0.51510775
122	0xbf6f84b7	-0.9356188
123	0xbf1ffa06	-0.6249088
124	0x3e531844	0.20614725
125	0xbf06eb9e	-0.52703273
126	0x3ea29325	0.31752887
127	0x3f65a823	0.8970968
128	0x3d9bb099	0.07602043
129	0xbe4fb4db	-0.20283835
130	0xbecd3fa6	-0.40087622
131	0xbe29d7f8	-0.16586292
132	0x3f1590ae	0.5842389
133	0xbf99a5e8	-1.2003756
134	0xbe8794a0	-0.2648058
135	0xbe358353	-0.17725877
136	0xbe84b1e2	-0.25916964
137	0xbefcd098	-0.49377894
138	0xbf481393	-0.7815487
139	0x3eaa7309	0.3329089
140	0xbd9fc07b	-0.078003846
141	0x3f01eaf6	0.50749147
142	0xbe36848b	-0.17823999
143	0xbf066406	-0.52496374
144	0x3e42d34d	0.19025917
145	0xbf9b8a93	-1.2151664
146	0x3e4841fd	0.19556423
147	0xbef4cb49	-0.47811344
148	0xbe948e1e	-0.29014677
149	0xbf8b64a7	-1.0890092
150	0xbf89e57e	-1.077316
151	0xbe5bd1a5	-0.21466692
152	0x3f46b41c	0.77618575
153	0x3ec7d87d	0.39032355
154	0xbf165e3d	-0.58737546
155	0x3f92c637	1.146674
156	0xbd9cf543	-0.076639675
157	0xbd6db6d2	-0.05803568
158	0x3e55c5a2	0.20876172
159	0xbff6c2ed	-1.9278237
160	0xbe226b4e	-0.15861246
161	0x3e6ab20a	0.22919479
162	0x3e107772	0.14108065
163	0xbdd14624	-0.102184564
164	0x3ead689f	0.33868882
165	0xbe7c39b2	-0.24631384
166	0xbfa37e73	-1.2772964
167	0xbec770aa	-0.38953143
168	0xbe37f888	-0.17965901
169	0x3e893fb3	0.2680641
170	0xbe3f51ac	-0.18683499
171	0xbe379faf	-0.17932008
172	0x3e91fe7f	0.28514478
173	0xbe63d6e0	-0.22249937
174	0x3ee31ece	0.4435944
175	0xbd4eee7a	-0.050520398
176	0x3db48904	0.08815196
177	0x3d49fa27	0.04931083
178	0x3ebe6ec1	0.37193874
179	0xbd9c21fa	-0.07623668
180	0xbeb69bdb	-0.35665783
181	0x3e3ba6d4	0.18325359
182	0x3dbb8c66	0.09157638
183	0xbda0fe8b	-0.0786105
184	0x3c3e6f3e	0.011623202
185	0xbe090d21	-0.13383915
186	0x3e64b1e7	0.2233349
187	0x3eeb0601	0.45903018
188	0xbd0c5be8	-0.034267336
189	0x3ebdbb76	0.37057084
190	0xbe1c9919	-0.15292777
191	0xbf88834e	-1.0665071
192	0x3e1b2ec3	0.15154557
193	0xbe0850e4	-0.13312107
194	0xbfa45087	-1.2837075
195	0xbf0833ce	-0.5320405
196	0x3f161a2d	0.5863369
197	0x3df2a5c2	0.11848022
198	0x3f1d466f	0.614356
199	0x3f09edd9	0.5387855
200	0xbe6e74f5	-0.23286803
201	0xbf2e4562	-0.6807462
202	0xbd434ae8	-0.047678858
203	0xbf3e08ef	-0.7423238
204	0x3f119ed3	0.5688297
205	0x3f1ed6b9	0.6204639
206	0x3f065cce	0.5248536
207	0xbe335cd6	-0.17515883
208	0xbe90d261	-0.28285506
209	0x3e8cc1f7	0.27491733
210	0x3dd43d6c	0.10363278
211	0xbf48cf84	-0.78441644
212	0xbf202bca	-0.62566817
213	0xbf246021	-0.6420918
214	0xbec9ce9e	-0.3941545
215	0xbea9b635	-0.33146825
216	0xbf44e082	-0.7690507
217	0xbe7e0b2f	-0.24808954
218	0xbf1d9bc7	-0.6156582
219	0x3e4034d1	0.18770148
220	0xbf056f99	-0.5212341
221	0x3d9471c9	0.07248265
222	0xbeb67257	-0.3563411
223	0xbf2e1799	-0.6800476
224	0x3ec31c67	0.38107607
225	0xbee22ba2	-0.44173914
226	0xbf1292ee	-0.57255447
227	0xbf373f4a	-0.71580946
228	0xbf01944e	-0.5061692
229	0x3e34e0cf	0.17663883
230	0x3f225985	0.63417846
231	0x3ed84e51	0.4224725
232	0xbf8080a0	-1.0039253
233	0x3f300c54	0.6876881
234	0x3ec6e862	0.3884917
235	0xbde3719c	-0.11105654
236	0xbeba3dfa	-0.3637541
237	0xbf9117ef	-1.1335429
238	0xbe005353	-0.12531786
239	0xba9c4f60	-0.0011925511
240	0x3ec09947	0.3761694
241	0xbea13924	-0.31488907
242	0xbda76528	-0.08173591
243	0x3db42c9b	0.0879757
244	0xbf4dbc4a	-0.8036543
245	0x3e059b1c	0.13047451
246	0xbe336694	-0.17519599
247	0xbe31c7f4	-0.17361432
248	0xbe31ee74	-0.17376119
249	0xbe030e59	-0.12798442
250	0xbd58f14a	-0.052964486
251	0x3d2dca27	0.042429116
252	0x3ea6f244	0.3260671
253	0x3e52dc5d	0.20591874
254	0xbe0cb567	-0.13741075
255	0xbe7fcf86	-0.24981508

encoder.enc3.bias f4 [19]
0	0x3da00186	0.078127906
1	0xbd30d2f8	-0.043169945
2	0xbcbd45d7	-0.023104591
3	0x3d7cd498	0.061726183
4	0xbd9e8ba5	-0.07741479
5	0x3cd33ffc	0.025787346
6	0x3d95c2b5	0.07312528
7	0xbd415a81	-0.047205452
8	0x3da78bb1	0.08180941
9	0xbca31ee3	-0.019912189
10	0xbc60e210	-0.0137257725
11	0x3d640586	0.05566933
12	0x3cd577a0	0.026058018
13	0xbbf2555d	-0.00739543
14	0xbcda19e5	-0.026623676
15	0x3d6dab49	0.05802468
16	0xbb4d91a6	-0.003136733
17	0x3d923a33	0.07140007
18	0xbb9bac41	-0.004750759

encoder.enc4.weight f4 [7, 19]
0	0xbf0386e7	-0.5137772
1	0x3e7fc33f	0.24976824
2	0x3eb94173	0.36182746
3	0x3f6e907a	0.93189204
4	0x3f0a82eb	0.54106015
5	0x3f4dad6f	0.80342764
6	0x3dfe0f70	0.12405288
7	0x3f6a7ff3	0.91601485
8	0x3f4baddc	0.79562163
9	0x3ee80f16	0.4532401
10	0x3ed3e826	0.41388053
11	0xbebd6f52	-0.36998993
12	0x3f36e37d	0.7144087
13	0x3ba5202b	0.005039235
14	0x3d594e36	0.053053103
15	0xbea9b7db	-0.33148083
16	0x3e4581da	0.19287816
17	0xbf0db48d	-0.55353624
18	0x3d73d4f9	0.05952928
19	0x3eb37143	0.3504735
20	0xbe986d23	-0.29770765
21	0xbea5eb4f	-0.3240609
22	0xbf5652e2	-0.8372022
23	0xbec128a6	-0.37726325
24	0xbf2791cb	-0.6545684
25	0x3d3b89be	0.045785658
26	0xbd956545	-0.07294706
27	0xbed3a2c1	-0.4133511
28	0xbf20e217	-0.62844986
29	0xbec5ad96	-0.38608998
30	0x3ecff776	0.40618485
31	0xbf04c16e	-0.5185765
32	0xbdf156cd	-0.11784134
33	0x3cc6cda0	0.024267972
34	0x3d1d7c90	0.03844887
35	0xbdc74d87	-0.09731584
36	0x3e3a7993	0.1821044
37	0xbdd0d82b	-0.10197481
38	0xbebea0f8	-0.37232184
39	0x3e2490bd	0.16070838
40	0x3e4f3cd0	0.20238042
41	0x3f03c414	0.51471066
42	0x3e680437	0.22657858
43	0x3f5446d8	0.829206
44	0x3e0d4a64	0.13797909
45	0x3dcb84a8	0.099374115
46	0x3f16d730	0.589221
47	0x3f339c77	0.7016062
48	0x3e8ca40e	0.27468914
49	0x3d884431	0.066536315
50	0x3daa3969	0.08311731
51	0xbe2a7876	-0.16647515
52	0x3ebe7b2a	0.37203342
53	0xbec06010	-0.3757329
54	0x3ed9466b	0.42436537
55	0xbe9bd9c1	-0.3043957
56	0xbec55eb4	-0.38548815
57	0xbeeb70db	-0.4598454
58	0x3d8a54cd	0.06754456
59	0x3e0413e2	0.1289821
60	0x3f337b0d	0.70109636
61	0xbe0c14ce	-0.13679811
62	0x3ee21d47	0.44162962
63	0xbe7ec03b	-0.24878018
64	0x3f2c2fb5	0.67260295
65	0x3e0dc2ed	0.1384389
66	0x3ea4a0ca	0.32153922
67	0x3f09381b	0.53601235
68	0xbe97e5ac	-0.29667413
69	0x3f0aad7b	0.5417096
70	0xbee1f45f	-0.44131753
71	0x3e952927	0.2913296
72	0x3d1de394	0.038547114
73	0xbe32c4ed	-0.17457934
74	0x3ea21e46	0.31663722
75	0x3ed5e554	0.41776526
76	0xbeb5cc70	-0.35507536
77	0xbd08e37d	-0.033420075
78	0x3ec5394c	0.38520277
79	0xbf26c211	-0.6513987
80	0x3e8fc66a	0.28081065
81	0xbf8f410c	-1.1191726
82	0x3f0e1e05	0.55514556
83	0xbf7a3abe	-0.97745883
84	0xbf911261	-1.1333734
85	0xbf8b4e9d	-1.0883366
86	0x3e8960e6	0.2683174
87	0xbef39adb	-0.47579083
88	0xbf70eb8c	-0.94109416
89	0xbe6b84f9	-0.22999944
90	0xbf3611bb	-0.71120805
91	0x3efe6331	0.49685052
92	0xbeb0324c	-0.34413373
93	0x3da6a214	0.08136383
94	0x3eaef168	0.34168553
95	0x3e82067f	0.2539558
96	0xbe85f1eb	-0.2616113
97	0xbec62abd	-0.38704482
98	0xbf087406	-0.5330204
99	0xbe375d60	-0.17906713
100	0x3e097847	0.13424788
101	0xbe5f9f1f	-0.21838044
102	0xbeed0e5b	-0.46300015
103	0xbe8067df	-0.25079247
104	0xbdfc4d17	-0.12319391
105	0x3f02f10c	0.5114906
106	0x3e1462d7	0.1449083
107	0xbeac7280	-0.33681107
108	0xbd61b958	-0.0551084
109	0xbe0c0252	-0.1367276
110	0xbcb5e0e5	-0.022201965
111	0xbe60367b	-0.21895783
112	0x3e7db054	0.24774295
113	0x3ea90fd9	0.33019903
114	0x3f046be9	0.5172716
115	0xbe1dd8a1	-0.15414669
116	0xbd08323f	-0.033251043
117	0xbf4dc79e	-0.80382717
118	0xbef58bd5	-0.47958246
119	0xbe0f2d75	-0.13982184
120	0xbd21ef5a	-0.039534904
121	0xbe8d20aa	-0.27563983
122	0xbed6f2f6	-0.4198224
123	0xbf0c259b	-0.5474488
124	0x3efebd15	0.49753633
125	0xbcc2854d	-0.023745203
126	0xbf203f10	-0.62596226
127	0x3e61257f	0.2198696
128	0xbe8374c9	-0.25675038
129	0x3f150fcb	0.58227223
130	0xbf0b9295	-0.5452054
131	0x3e66fd26	0.22557506
132	0x3e7e6e82	0.24846843

encoder.enc4.bias f4 [7]
0	0xbcca392e	-0.024685469
1	0x3cb8c59c	0.022555165
2	0xbbf337cd	-0.0074224235
3	0xbc147785	-0.009061699
4	0x3bbb3bff	0.005713939
5	0x3bffe74c	0.007809555
6	0xbd16527f	-0.03669977

decoder.dec1.weight f4 [19, 7]
0	0x3eb9e80e	0.36309856
1	0x3cdd4379	0.027009713
2	0x3f5e731a	0.8689438
3	0xbf398d0f	-0.72480863
4	0xbc8dde17	-0.017317815
5	0x3eacc0ed	0.3374094
6	0x3de78914	0.113054425
7	0x3ea8c7b5	0.32964864
8	0x3ea54deb	0.3228601
9	0xbf5edc71	-0.87055117
10	0x3f54ec34	0.8317292
11	0x3f0aaa50	0.54166126
12	0xbf43de31	-0.7651091
13	0x3f1488fa	0.5802151
14	0x3ea3986f	0.31952235
15	0xbe8e80f7	-0.27832767
16	0x3e2feca6	0.17180118
17	0xbdad46af	-0.084607475
18	0xbb834636	-0.0040061725
19	0x3eeae213	0.45875606
20	0x3f391449	0.7229658
21	0x3f570119	0.8398605
22	0xbcdd8b83	-0.027044063
23	0x3ea56b62	0.3230849
24	0x3f094c17	0.5363173
25	0x3ee00309	0.43752316
26	0xbf1d476b	-0.614371
27	0x3d68907e	0.056778423
28	0x3f6511a6	0.89480054
29	0x3f548d9a	0.83028567
30	0x3edd80ba	0.43262273
31	0x3e7a1940	0.24423695
32	0x3f11b799	0.5692077
33	0x3f5673f7	0.837707
34	0xbd8d2acd	-0.06892929
35	0x3f54796a	0.82997763
36	0x3f4a1c22	0.7894918
37	0xbeb51be0	-0.3537283
38	0x3e0f88b7	0.14016996
39	0x3eb4f5df	0.35343835
40	0xbec64a49	-0.3872855
41	0x3f1ca516	0.611894
42	0xbf393255	-0.72342426
43	0xbf1ce85f	-0.6129207
44	0x3f803e49	1.0019008
45	0xbf0df822	-0.55456746
46	0x3f537294	0.8259671
47	0x3f639cd4	0.88911176
48	0x3ec5674d	0.38555375
49	0x3e414f4a	0.18877903
50	0xbe180cfc	-0.14848703
51	0xbce406a9	-0.027835207
52	0x3c8bf595	0.017084876
53	0xbe4a9af6	-0.19785675
54	0x3d463300	0.04838848
55	0x3e9d89a5	0.30769077
56	0x3ee762ba	0.4519251
57	0x3f2d6359	0.6772972
58	0x3ed83e56	0.4223506
59	0x3f47606d	0.7788151
60	0x3e6a943d	0.22908111
61	0x3e27317b	0.16327469
62	0x3f12971a	0.5726181
63	0x3d7cee53	0.06175072
64	0xbf210784	-0.6290209
65	0xbf09006b	-0.5351626
66	0x3f0cdce1	0.55024534
67	0xbf56b1f0	-0.8386526
68	0x3df3cf46	0.11904769
69	0x3f5e399a	0.86806643
70	0xbeb623fb	-0.35574326
71	0xbf1d0805	-0.6134036
72	0x3f1b29e5	0.606108
73	0x3f1200b4	0.5703232
74	0xbecb1b2f	-0.39669177
75	0x3f177871	0.59168154
76	0xbed01752	-0.40642792
77	0xbf30560c	-0.688813
78	0x3eecad1a	0.46225816
79	0x3f4f1a0e	0.8089913
80	0xbf6c3a79	-0.9227672
81	0xbf280cc3	-0.6564447
82	0xbe032c54	-0.12809879
83	0xbf4e8d92	-0.8068477
84	0x3f1f2522	0.62166035
85	0x3c6487c0	0.013948381
86	0x3e00755b	0.12544768
87	0x3f35ee9e	0.71067226
88	0xbe715295	-0.23566659
89	0xbe39bb69	-0.18137898
90	0x3e054893	0.13015966
91	0xbeef6a5d	-0.46760836
92	0x3f13f2cb	0.5779235
93	0xbf67d50d	-0.90559465
94	0x3d4b2c54	0.04960282
95	0xbf0862ae	-0.53275573
96	0x3f40abea	0.7526232
97	0xbf769f42	-0.9633676
98	0x3e223f6f	0.1584451
99	0x3dbf0577	0.09327214
100	0x3f01642d	0.5054348
101	0xbf0eb65d	-0.55747014
102	0xbe88aa6c	-0.26692522
103	0x3ec8a31f	0.39186952
104	0xbeac22c8	-0.33620286
105	0xbf5ab9d6	-0.85439813
106	0xbec53c94	-0.3852278
107	0xbe29d7f8	-0.16586292
108	0x3f30f03a	0.69116557
109	0xbc7ccf21	-0.015430243
110	0xbf52d341	-0.823536
111	0xbda4eaec	-0.0805262
112	0xbe73b9be	-0.23801324
113	0xbf0ec5bb	-0.5577046
114	0x3eeb12aa	0.45912677
115	0xbdd43d6b	-0.10363277
116	0x3d86aa71	0.06575478
117	0xbdb78a01	-0.08961869
118	0xbeee6f22	-0.46569163
119	0xbe2a5f99	-0.1663803
120	0xbf5b5f6c	-0.8569248
121	0x3f66b1b0	0.9011488
122	0xbf29f18c	-0.66384196
123	0xbec5b96d	-0.3861803
124	0xbf48ed02	-0.78486645
125	0x3f6f0a29	0.9337488
126	0x3ee5649b	0.44803318
127	0xbe4aa9dc	-0.19791359
128	0xbd427d32	-0.047482677
129	0x3e4a9228	0.19782317
130	0x3e37a3d5	0.1793359
131	0x3f5fcacc	0.8741882
132	0xbf5a612e	-0.85304534

decoder.dec1.bias f4 [19]
0	0x3d7db0c8	0.06193617
1	0xbc6e4209	-0.014542111
2	0x3c48209e	0.012214808
3	0xbaf4c6f1	-0.0018675012
4	0x3a6ba398	0.0008988916
5	0xbd51effc	-0.051254258
6	0xbcf2e3fb	-0.029649725
7	0x3c47867f	0.012178062
8	0xbd624d29	-0.055249367
9	0xbc91dfde	-0.017806944
10	0x3ce34d98	0.02774696
11	0x3ba3a801	0.004994393
12	0x3ca3897e	0.019963022
13	0x3ce0e328	0.027452067
14	0x3cc95a20	0.024579108
15	0xbd1c4543	-0.03815199
16	0xbd5704fc	-0.052494988
17	0x3cdf23ba	0.027238715
18	0xbd563e12	-0.05230529

decoder.dec2.weight f4 [39, 19]
0	0x3ed89198	0.4229858
1	0xbe8fd1a8	-0.28089643
2	0xbf0e5710	-0.55601597
3	0xbead97a5	-0.33904758
4	0x3df4276b	0.11921581
5	0xbf285d39	-0.65767246
6	0x3ebfdb27	0.37471887
7	0xbf3f6403	-0.7476198
8	0xbe8bae4d	-0.27281418
9	0x3e957aa6	0.29195136
10	0x3ec00c70	0.3750949
11	0xbe230395	-0.15919335
12	0xbefa201e	-0.48852628
13	0x3e97ae38	0.29625106
14	0xbea08d6b	-0.31357893
15	0x3ffdc253	1.9824928
16	0x3e00566a	0.12532964
17	0xbf3714fb	-0.7151639
18	0x3ed83674	0.42229044
19	0x3d3ef266	0.046617888
20	0xbf04eebe	-0.5192679
21	0x3e82e799	0.2556732
22	0x3d11b1f1	0.03557009
23	0x3e272524	0.16322762
24	0x3e749447	0.23884688
25	0xbf1a1b9a	-0.60198367
26	0xbe206672	-0.1566408
27	0xbe0bd904	-0.13657004
28	0xbeb22ef3	-0.34801444
29	0x3eb2eea5	0.34947696
30	0xbe5be971	-0.2147577
31	0x3ec1f73a	0.3788393
32	0x3eed0bdc	0.4629811
33	0x3ea32ece	0.31871647
34	0xbedfbb80	-0.4369774
35	0xbef4cedb	-0.47814068
36	0x3d89f2b8	0.06735748
37	0xbeacbac3	-0.33736238
38	0x3edf6840	0.43634224
39	0x3ec9e102	0.3942948
40	0xbf2f30b3	-0.68433684
41	0x3cf9055d	0.030398065
42	0xbdfec55b	-0.12439986
43	0x3d8013d2	0.062537804
44	0x3f148b26	0.58024824
45	0x3daf9a05	0.08574299
46	0xbd546867	-0.05185738
47	0xbecf49ff	-0.40486142
48	0x3f04a584	0.51815057
49	0xbd4fdbfb	-0.0507469
50	0x3d8ec458	0.06971043
51	0x3f18c0b6	0.59669054
52	0x3e2ac0df	0.16675137
53	0xbea2360b	-0.31681857
54	0xbed943e2	-0.42434603
55	0x3ee7cd33	0.45273742
56	0xbef10f1d	-0.47081843
57	0xbf2145b3	-0.6299698
58	0x3d53fbc0	0.05175376
59	0x3ef3d7fe	0.47625726
60	0x3e245d24	0.16051155
61	0x3efc4099	0.49268034
62	0x3f7eb874	0.99500203
63	0xbe4925e3	-0.19643359
64	0x3bee1df0	0.0072667524
65	0xbdad79dd	-0.08470509
66	0xbe1af513	-0.15132551
67	0xbe38704d	-0.1801159
68	0x3ed2910e	0.41126293
69	0xbeb97cc1	-0.36227992
70	0xbb373d5f	-0.0027960164
71	0xbd571391	-0.052508894
72	0xc0266b36	-2.6002936
73	0x3f0954bc	0.5364492
74	0xbeb29908	-0.3488238
75	0xbe803053	-0.25036868
76	0xbeca27a4	-0.39483368
77	0xbeaba2ae	-0.33522552
78	0xbe1f9623	-0.15584616
79	0xbe29430a	-0.1652948
80	0xbc0d3dec	-0.00862072
81	0xbf0a3296	-0.5398344
82	0x3d82fc42	0.063957706
83	0x3dc2442f	0.09485661
84	0xbe8751be	-0.26429552
85	0xbeb65b63	-0.35616598
86	0x3e86d291	0.26332524
87	0xbeb04261	-0.34425643
88	0xbd80eac7	-0.0629478
89	0xbf0507fe	-0.5196532
90	0xbe8f9411	-0.28042653
91	0xbbb5f46c	-0.005552819
92	0x3e655455	0.22395451
93	0x3eb3837a	0.35061246
94	0xbdb35850	-0.08757079
95	0x3ebf2df9	0.37339762
96	0xbdb63236	-0.08896296
97	0x3f24339f	0.6414127
98	0xbeb95952	-0.36200958
99	0x3efe20d1	0.49634412
100	0xbf1b30ac	-0.6062114
101	0x3f1fd482	0.62433636
102	0xbe67a1d9	-0.22620334
103	0x3e38f177	0.18060862
104	0x3e2f8e7e	0.171442
105	0x3e8ae5f3	0.27128562
106	0x3ec310d6	0.38098782
107	0xbe5b1369	-0.21394123
108	0xbef8e5dc	-0.4861287
109	0xbdafeb87	-0.08589845
110	0xbf3aa5eb	-0.7290942
111	0x3d901807	0.07035833
112	0xbeed36e4	-0.4633094
113	0x3f097346	0.5369152
114	0xbe2970fb	-0.16547005
115	0x3e405085	0.18780716
116	0xbea4787a	-0.32123166
117	0xbe5dd6eb	-0.21664016
118	0x3bdb7cf7	0.0066982466
119	0x3f721eb2	0.9457809
120	0xbe007115	-0.12543137
121	0xbefc26ff	-0.49248502
122	0x3db9e9e1	0.09077812
123	0xbf52e304	-0.8237765
124	0xbe965945	-0.29364982
125	0xbf8d2717	-1.1027554
126	0x3e0d97a2	0.13827375
127	0x3e548368	0.20753253
128	0x3de801c3	0.11328461
129	0xc008fa5b	-2.1402805
130	0xbeae2753	-0.34014377
131	0x3e371edf	0.1788287
132	0xbe86d536	-0.26334542
133	0x3eecdeb9	0.46263674
134	0xbe2fd44c	-0.17170829
135	0x3edd2890	0.4319501
136	0xbddce45c	-0.107857436
137	0xbd1e3d8a	-0.038632907
138	0xbedf8bde	-0.43661398
139	0xbe46e24b	-0.19422261
140	0x3ddc051b	0.10743161
141	0x3e6897ee	0.22714207
142	0x3e682ea4	0.22674042
143	0x3e997239	0.29969957
144	0x3f03b3b1	0.5144606
145	0xbe73270f	-0.23745368
146	0xbece1410	-0.4024968
147	0xbe3894d0	-0.18025517
148	0x3eac645a	0.33670312
149	0xbee592c2	-0.4483853
150	0xbe409680	-0.18807411
151	0xbe9aa2b7	-0.30202267
152	0xbec6450a	-0.38724548
153	0x3ec98186	0.3935663
154	0xbe0a0db9	-0.13481797
155	0x3d9a8125	0.075441636
156	0xbd83a9f3	-0.064288996
157	0xbf0c6523	-0.5484182
158	0x3c4cf5d0	0.012509778
159	0x3e060bff	0.13090514
160	0x3eadf38a	0.33974868
161	0xbd40ad78	-0.047040433
162	0xbd800b63	-0.06252172
163	0x3eee8ab4	0.46590197
164	0x3ed9ac64	0.42514336
165	0xbe1d9acc	-0.15391082
166	0xbf144af4	-0.5792687
167	0xbde6b961	-0.11265827
168	0x3f0a1d51	0.53950983
169	0x3e8cddfc	0.2751311
170	0x3ea46b69	0.32113197
171	0xbed5de7a	-0.417713
172	0xbec29615	-0.38005129
173	0x3e943bb4	0.289518
174	0xbdd5b3ed	-0.10434709
175	0x3e354e87	0.17705737
176	0xbf3473ae	-0.70489013
177	0x3f0483ee	0.5176381
178	0x3e912844	0.28351033
179	0xbd7bc332	-0.06146545
180	0xbe594380	-0.21217155
181	0x3e1a03cb	0.1504051
182	0x3ebc4779	0.3677328
183	0x3e08aae7	0.13346444
184	0xbe9b3b2a	-0.30318576
185	0xbe9342e9	-0.28761986
186	0x3e2fef13	0.17181043
187	0x3e908d9b	0.28233036
188	0xbdebdf51	-0.115172036
189	0x3d69f310	0.057116568
190	0x3ea3cbca	0.31991416
191	0x3e17ca03	0.14823155
192	0xbedeba15	-0.43501344
193	0xbed6fb63	-0.41988668
194	0x3e800389	0.25002697
195	0xbebfcf20	-0.3746271
196	0xbda0abd9	-0.07845277
197	0xbf0fb000	-0.5612793
198	0x3e1b1691	0.15145327
199	0xbeddeec2	-0.4334622
200	0x3ee6a42d	0.4504713
201	0xbe72c087	-0.23706256
202	0x3ef04e1f	0.46934602
203	0xbf417d2e	-0.75581634
204	0x3dac332f	0.084082
205	0xbea1c443	-0.31595048
206	0xbe95014d	-0.29102555
207	0x3ea24f9e	0.31701368
208	0xbf16b15d	-0.58864385
209	0x3e28c72c	0.16482228
210	0xbecd3467	-0.40079042
211	0xbeb06831	-0.34454492
212	0xbea7022d	-0.32618847
213	0xbc3483ad	-0.011017722
214	0x3e878789	0.26470593
215	0xbe8930b8	-0.26794982
216	0x3e9e4f7f	0.30920026
217	0xbccf7ae7	-0.02532716
218	0x3ef3c3a4	0.476102
219	0xbe641d53	-0.22276811
220	0x3edc5a40	0.43037605
221	0x3e6891dc	0.22711891
222	0xbebac009	-0.36474636
223	0x3ea5fb60	0.32418346
224	0xbe392bbe	-0.18083093
225	0x3ea0b7de	0.3139028
226	0x3e7a7f09	0.24462523
227	0x3eb519d0	0.35371256
228	0xbd362a71	-0.04447407
229	0x3e1137bc	0.14181417
230	0x3e9153b0	0.2838416
231	0xbe0767df	-0.13223217
232	0xba2ad449	-0.00065166183
233	0x3e09d48e	0.1345999
234	0x3ef3e27d	0.47633734
235	0xbe9102b9	-0.2832239
236	0xbecccf88	-0.40002084
237	0x3eadadc9	0.3392165
238	0x3ef70e3b	0.48253044
239	0x3d4892aa	0.048967995
240	0xbe89fb5b	-0.26949582
241	0xbc194b25	-0.009356295
242	0x3eb31f36	0.3498475
243	0x3e36d239	0.17853631
244	0x3e5e5b8c	0.2171461
245	0x3ec3f32d	0.38271466
246	0xbef39c2c	-0.47580087
247	0xbf1fac1d	-0.62372
248	0xbc28c312	-0.010300415
249	0x3ed996e3	0.4249793
250	0xbe3d023e	-0.18457887
251	0xbe763a45	-0.24045666
252	0x3e9704be	0.29495806
253	0x3f065fa9	0.52489716
254	0x3ea8c4fc	0.32962787
255	0x3eb2fe72	0.3495975

decoder.dec2.bias f4 [39]
0	0xbd4def65	-0.050277133
1	0x3d80bb60	0.06285739
2	0x3cc1a236	0.023636919
3	0x3d767e68	0.060179144
4	0xbcc511bb	-0.024056306
5	0xb97cc07c	-0.00024104299
6	0xbd16094e	-0.036629967
7	0x3e3b995c	0.1832022
8	0xbba097d4	-0.004900912
9	0x3c9b5d60	0.018965423
10	0x3dc83f22	0.09777667
11	0xbc3f0a18	-0.011660121
12	0x3c506fa9	0.012721934
13	0x3d881d14	0.06646171
14	0x3d3ae07b	0.045624238
15	0xbcecf485	-0.02892519
16	0x00000000	0.0
17	0xbb8b6463	-0.0042539104
18	0x3bae3e38	0.0053174756
19	0xbc36319b	-0.011120225
20	0x3d09a1c6	0.033601545
21	0x3d480942	0.048836954
22	0x3cbead0f	0.02327588
23	0xbb452984	-0.003008456
24	0x3b452151	0.0030079673
25	0x3b5561d6	0.0032559535
26	0xbc9cc1a0	-0.019135296
27	0x3b2bb301	0.0026199224
28	0xbb637851	-0.0034709165
29	0xbc9a6670	-0.018847674
30	0x3d6fa3a0	0.058505654
31	0x3dacc883	0.08436682
32	0x3db5ae92	0.08871187
33	0xbbf79297	-0.0075553167
34	0x3d7a41ac	0.061097786
35	0x3d1ee4dd	0.03879248
36	0x3d0621b9	0.032747004
37	0xbb73e984	-0.0037218044
38	0xbcdbb188	-0.026818052

decoder.dec3.weight f4 [58, 39]
0	0xbec86a79	-0.39143732
1	0xbe887aac	-0.2665609
2	0xbd992430	-0.07477605
3	0x3f4aff5e	0.7929591
4	0x3e85636d	0.26052418
5	0x3f025c60	0.50922203
6	0xbfcb82d0	-1.5899296
7	0xbf21ef39	-0.6325565
8	0xbe1d9e76	-0.1539248
9	0xbe57292d	-0.21011801
10	0xbf593cfa	-0.8485867
11	0xbe2ea24d	-0.170541
12	0x3ec17eb7	0.37791988
13	0x3f8cbfc0	1.0996017
14	0x3e765746	0.2405673
15	0xbf880861	-1.0627557
16	0xbe2b84cc	-0.16749877
17	0xbf80e31f	-1.0069312
18	0xbdf95158	-0.12173718
19	0x3e9dfffc	0.30859363
20	0xbf5088f7	-0.8145899
21	0xbebe253a	-0.37137777
22	0xbd078a88	-0.033091098
23	0x3fffeb6c	1.999372
24	0x4013a9db	2.3072422
25	0xbe57874b	-0.21047704
26	0x3f49bc6a	0.7880312
27	0x3e919d98	0.28440547
28	0xbe0287d9	-0.12747134
29	0x3b50b1f0	0.003184434
30	0x3fda9752	1.7077429
31	0x3d4c164f	0.049825963
32	0x3f204320	0.62602425
33	0x3e500718	0.20315206
34	0x3e94f6cd	0.29094544
35	0x3e82d483	0.2555276
36	0xbff4101d	-1.9067417
37	0x3e4d7ba9	0.20066704
38	0x3d0f0f1f	0.03492653
39	0xbda27039	-0.07931561
40	0xbe17fcd5	-0.14842542
41	0x3e15bcfc	0.14622873
42	0xbed06046	-0.4069845
43	0xbdf8ef53	-0.121550225
44	0x3de190e9	0.110139675
45	0xbd86e8b1	-0.06587351
46	0x3e6e8e35	0.23296435
47	0x3e0ad633	0.13558273
48	0xbd0483e0	-0.03235233
49	0xbf8090b6	-1.0044162
50	0x3de1dc32	0.11028327
51	0xbebfc478	-0.3745458
52	0x3dff85c2	0.12476684
53	0x3ebd1c9f	0.369359
54	0x3e042c60	0.12907553
55	0xbdf2c269	-0.11853487
56	0x3dc35cd8	0.09539193
57	0x3d84d8a1	0.06486631
58	0xbe96515b	-0.29358944
59	0xbce70054	-0.028198399
60	0x3cd3e67e	0.025866743
61	0x3e002f16	0.12517962
62	0x3ed218c8	0.41034532
63	0xbd91f595	-0.07126919
64	0x3d291e41	0.041288618
65	0xbe14e90a	-0.14542022
66	0x3eba21a6	0.36353797
67	0x3e39aa5b	0.18131392
68	0xbce729a9	-0.028218107
69	0x3ed6f4b0	0.41983557
70	0xbecab1f5	-0.39588895
71	0x3e8853cc	0.26626432
72	0x3e0261c8	0.12732613
73	0xbe982a46	-0.29719752
74	0x3d96cfa3	0.07363822
75	0xbf12b51d	-0.57307607
76	0x3e39ceec	0.1814534
77	0x3e80d852	0.2516504
78	0x3ccaa969	0.024738984
79	0xbf64b97c	-0.89345527
80	0xbc534ae5	-0.012896274
81	0xbe9ba0b7	-0.30396053
82	0xbe90c929	-0.28278473
83	0x40191435	2.3918583
84	0xc00a2ec9	-2.1591055
85	0xbf16ae32	-0.5885955
86	0xbe5e2dd1	-0.21697165
87	0x4003df97	2.0605218
88	0xbf29f437	-0.6638827
89	0x3df20b81	0.118186004
90	0x3ec962f5	0.3933331
91	0x3f28bd1c	0.6591356
92	0xbe873593	-0.2640806
93	0xbf3bcbb7	-0.7335772
94	0x3ea820cb	0.3283752
95	0xbef9de05	-0.488022
96	0xbe3f9786	-0.18710145
97	0xbd341202	-0.043962486
98	0xbd6338ae	-0.055473976
99	0xbda0f168	-0.078585446
100	0xbf2b6ecb	-0.6696593
101	0x3fa2fc9d	1.2733341
102	0xbe947c33	-0.29001006
103	0x3e4ed83a	0.20199671
104	0xbe247709	-0.16061033
105	0xbc3dccc8	-0.011584468
106	0xbe8e7f5c	-0.27831542
107	0xbe84b8a2	-0.25922114
108	0x3f85830c	1.0430617
109	0x3e44ec6f	0.19230817
110	0x3f44e4ea	0.76911795
111	0xbe834d8a	-0.25645095
112	0xbe3d982e	-0.18515083
113	0xbdd85600	-0.10563278
114	0xbed41adb	-0.4142674
115	0xbe50a57b	-0.20375626
116	0x3e3954b2	0.18098715
117	0xbecaec77	-0.39633533
118	0x3f3fde58	0.74948645
119	0x3e13b6e8	0.14425242
120	0x3fb45a27	1.4090012
121	0x3e4a0311	0.19727732
122	0xbcd1a5f4	-0.025591828
123	0x3f8c91a1	1.0981942
124	0xbed27f10	-0.41112566
125	0xbf14ea0d	-0.58169633
126	0xbf2e7c3f	-0.68158334
127	0xbdb3c7dc	-0.087783545
128	0xbf2d9b23	-0.67814845
129	0xbda9aed5	-0.082853
130	0x3e085d6d	0.13316889
131	0x3e1c6b32	0.15275267
132	0xbe3d9808	-0.18515027
133	0xbd93ab91	-0.07210458
134	0x3e0b289e	0.13589713
135	0xbf23f3e8	-0.64044046
136	0xbe066867	-0.13125764
137	0xbe99206f	-0.29907557
138	0xbdd394ed	-0.1033114
139	0xbe2e5da8	-0.17027915
140	0xbf665e18	-0.89987326
141	0x3faf9d4e	1.371988
142	0xbeb85fef	-0.36010692
143	0x3f129656	0.57260644
144	0xbe41f4db	-0.18941061
145	0x3dffdc0e	0.12493144
146	0xbeb8c143	-0.36084947
147	0x3f436171	0.7632056
148	0xbd06b6cd	-0.032889176
149	0xbf8c1261	-1.0943109
150	0x3fa420c1	1.2822496
151	0x3dc6516b	0.09683498
152	0xbe0ed4a3	-0.13948302
153	0xbe5d336b	-0.21601646
154	0x3db822f8	0.08991045
155	0x3e2a1662	0.16610101
156	0xbe1db6c3	-0.1540175
157	0xbfd051df	-1.6274985
158	0x3e359c0d	0.1773531
159	0xbf3aad56	-0.7292074
160	0x3e3a2d27	0.18181287
161	0xbfd817c6	-1.6882255
162	0x3f0788ee	0.52943313
163	0xbd73fce4	-0.059567347
164	0xbdab091e	-0.08351348
165	0xbf527722	-0.8221303
166	0xbd6281bc	-0.055299506
167	0xbeccd664	-0.40007317
168	0x3e0b442a	0.13600221
169	0xbf441b98	-0.76604605
170	0xbe16d53a	-0.14729777
171	0x3f221266	0.63309324
172	0xbdbcb7b7	-0.09214728
173	0xbc09f62c	-0.008420508
174	0x3ec1ac96	0.37826985
175	0x3e05c567	0.13063584
176	0x3ec20b52	0.37899262
177	0xbe86032f	-0.26174304
178	0x3fb3a641	1.4035112
179	0xbfaa2177	-1.3291463
180	0xbe585a3a	-0.21128169
181	0xbe98320a	-0.29725677
182	0xbec4b136	-0.3841645
183	0xbf4d42c8	-0.80180025
184	0xbe5ebf70	-0.21752715
185	0xbdebe3a6	-0.1151803
186	0x3ebb33f4	0.36563075
187	0x3dd68389	0.10474307
188	0xbfbe6b4d	-1.4876496
189	0xc0105b57	-2.255575
190	0x3eb98cdc	0.3624028
191	0x3d076eff	0.03306484
192	0x3d83764b	0.06419047
193	0x3a1e4bac	0.00060384977
194	0x3d621167	0.055192377
195	0xbefa6198	-0.48902583
196	0x3f2258dd	0.63416845
197	0x3d7da169	0.06192151
198	0x3f915afc	1.1355891
199	0xbe8b68e2	-0.27228457
200	0x3f020373	0.50786513
201	0x3f76bc42	0.9638101
202	0x3ea4cca4	0.32187378
203	0xbf0dc761	-0.55382353
204	0x3ea374d7	0.3192508
205	0xbe055202	-0.13019565
206	0xbec65f99	-0.3874481
207	0xbe7c1e24	-0.24620873
208	0x3e8c0535	0.27347723
209	0xbd044213	-0.032289576
210	0x3db278f7	0.087144785
211	0x3e856314	0.26052153
212	0xbe7da694	-0.24770576
213	0xbd9635a3	-0.07334449
214	0x3d0dd414	0.03462608
215	0xbe7eadd0	-0.24870992
216	0x3e1cf6ee	0.15328571
217	0x3dcb6a52	0.09932388
218	0x3fa0a969	1.25517
219	0x3ffad4e7	1.9596223
220	0xbf3e3b55	-0.74309283
221	0x3f15a1ec	0.584502
222	0xbf3c0257	-0.7344107
223	0x3b2d6101	0.0026455524
224	0xbe45c417	-0.19313084
225	0xbfaa3484	-1.3297276
226	0x3e8c8dc6	0.27451915
227	0x402089eb	2.5084178
228	0x3f90069f	1.1252021
229	0xbd5d5b40	-0.0540421
230	0x3dafe3be	0.0858836
231	0xbeaae71b	-0.33379444
232	0xbdce315e	-0.1006801
233	0xbdd61fad	-0.104552604
234	0xbe22df9e	-0.15905616
235	0xbf4a2e43	-0.7897684
236	0x3c2bf463	0.010495278
237	0x3f24beaa	0.6435343
238	0xbe6e1424	-0.2324987
239	0x3f6e5b22	0.9310781
240	0xbf0a6bed	-0.5407093
241	0x3ecdfea5	0.4023334
242	0xbe1d7911	-0.15378214
243	0x3ed2c97b	0.41169342
244	0xbe2b0593	-0.16701345
245	0xbebf43e2	-0.37356478
246	0x3d95de90	0.07317841
247	0x3f1ee36c	0.6206577
248	0xbe4afbbf	-0.19822596
249	0xbf0ecea1	-0.5578404
250	0x3e5e242a	0.21693483
251	0xbee05c1e	-0.4382028
252	0xbe35f6ce	-0.1776993
253	0xbe2a8f20	-0.1665616
254	0xbe3b12e3	-0.18268923
255	0xbe48ac78	-0.19597042

decoder.dec3.bias f4 [58]
0	0x3d147877	0.036247697
1	0x3d65ec11	0.056133334
2	0x3d0f073e	0.034919016
3	0x3d05dd55	0.03268178
4	0x3cf0a887	0.029377235
5	0xbc116d6c	-0.008876186
6	0x3d719a13	0.058984827
7	0x3d1e52f9	0.038653348
8	0x3d2adcce	0.041714482
9	0xbbf7b841	-0.0075598066
10	0x3d2552cd	0.040362168
11	0x3b0fbd98	0.0021933075
12	0xbbe5140b	-0.0069909147
13	0xbc7e064e	-0.015504433
14	0xbb1675b1	-0.0022958333
15	0xbd1b5911	-0.037926737
16	0x3d8b3ef1	0.067991145
17	0xbd0ea46c	-0.034824774
18	0x39e6c2e9	0.00044014238
19	0x3d51a8b5	0.051186282
20	0xbbf069d9	-0.007336837
21	0x3d9ff8fc	0.07811162
22	0xbc3a2f56	-0.011363825
23	0x3cc09291	0.023507388
24	0x3b43c8df	0.0029874367
25	0xbd442082	-0.047882564
26	0xbd172697	-0.036902037
27	0x3d33049f	0.04370558
28	0x3d480ab3	0.04883833
29	0xbc2974bb	-0.010342772
30	0xbd8b2209	-0.06793601
31	0x3d7a64af	0.061131176
32	0xbd73b0e0	-0.059494853
33	0x3d2ec99c	0.04267274
34	0x3df3e28c	0.11908445
35	0x3c889c14	0.016675986
36	0x3d809b1c	0.06279585
37	0xbe012664	-0.12612301
38	0xbd328a17	-0.043588724
39	0x3c6b0f78	0.01434695
40	0x3c83bda9	0.016081648
41	0xbcd0f6e8	-0.02550836
42	0xbc97bb24	-0.018521853
43	0x3dc1b7ef	0.09458911
44	0x3d1d4753	0.0383981
45	0xbcfbc145	-0.030731807
46	0xbcc4cf3d	-0.0240246
47	0xbd165585	-0.03670265
48	0x3bcf9d87	0.0063359174
49	0xbd4b37cc	-0.04961376
50	0x3d8f3dce	0.0699421
51	0x3dc3ad1a	0.09554501
52	0xbb1bc453	-0.0023768141
53	0x3da25cb6	0.079278395
54	0x3d1edd65	0.038785357
55	0x3cefe28b	0.029282829
56	0x3d98eef9	0.074674554
57	0x3d545623	0.05183996
