IDS_TA/initial_Models/CADE-m20.0-l0.001.pth (torch, 68014 bytes, 16 tensors)

encoder.enc1.weight f4 [58, 78]
0	0x3d7d161c	0.061788663
1	0xbcb028df	-0.021503864
2	0x3e2b72a7	0.16742955
3	0x3e8594a4	0.26089966
4	0x3e5648bd	0.20926185
5	0x3e48dd9d	0.19615789
6	0xbe969c1c	-0.29415977
7	0xbcf15166	-0.02945776
8	0x3cf15f93	0.029464519
9	0xbe66ac3a	-0.22526637
10	0x3d9efee1	0.07763458
11	0x3dbc74ad	0.09201942
12	0xbef4928a	-0.4776805
13	0xbc30954e	-0.0107777845
14	0x3cf8ad98	0.030356213
15	0x3e7c96bb	0.24666874
16	0x3e7a1827	0.24423276
17	0x3e68b3de	0.22724864
18	0xbd97cfb7	-0.07412665
19	0x3d09bcf4	0.033627465
20	0xbe994159	-0.2993267
21	0x3d191858	0.03737673
22	0xbe550af0	-0.20804954
23	0x3e05205b	0.13000624
24	0x3e481bcd	0.19541855
25	0xbedadb5b	-0.4274548
26	0x3e9ff73a	0.31243306
27	0x3e2f7c9d	0.1713738
28	0x3e57f3d5	0.21089108
29	0xbd5789af	-0.05262154
30	0xbe4ae1ab	-0.19812648
31	0xbe7aabab	-0.24479549
32	0x3e666ccb	0.22502439
33	0xbdf3d39e	-0.11905597
34	0xbe189991	-0.14902331
35	0xbe8cd9d3	-0.27509937
36	0xbe5b7e74	-0.21434957
37	0x3dc13efc	0.094358414
38	0xbd3db62e	-0.04631632
39	0x3df1ec4d	0.11812649
40	0xbc4e472f	-0.012590214
41	0x3e7283db	0.23683111
42	0x3d80ccf7	0.06289094
43	0xbd0c78aa	-0.03429476
44	0xbe03d5cc	-0.12874526
45	0xbd8144e1	-0.06311966
46	0x3dc90355	0.09815089
47	0xbc3a953d	-0.01138812
48	0xbe48d524	-0.19612557
49	0xbdadc020	-0.084839106
50	0xbd8e2970	-0.06941497
51	0x3d35b42f	0.04436129
52	0x3deb5f6a	0.11492808
53	0xbe4cace4	-0.19987828
54	0x3c065301	0.008198501
55	0xbe204342	-0.15650657
56	0xbe572cae	-0.21013138
57	0x3cddeeb2	0.027091358
58	0xbcff62cd	-0.031175042
59	0xbe25638e	-0.16151258
60	0xbe35fa09	-0.17771162
61	0x3ca196b0	0.019725174
62	0xbdace3aa	-0.08441861
63	0x3da0e18a	0.07855518
64	0xbe11d175	-0.14240058
65	0xbe1dd33b	-0.1541261
66	0xbed0efd6	-0.4080798
67	0xbdf03b2b	-0.117300354
68	0x3e0cd7a8	0.13754141
69	0xbd097d39	-0.033566687
70	0xbdc31781	-0.095259674
71	0x3cc5ac46	0.024129998
72	0x3e422ce7	0.18962441
73	0x3e7d7f47	0.24755584
74	0x3e9b0ac8	0.30281663
75	0x3da99a14	0.08281341
76	0x3e3f861b	0.18703501
77	0xbdc15cbb	-0.09441515
78	0xbe6ef843	-0.23336892
79	0x3e86825d	0.26271334
80	0x3dfc6ed5	0.12325827
81	0x3c485437	0.01222711
82	0xbe12aec5	-0.14324482
83	0xbe8bb7dc	-0.2728871
84	0xbe168f4c	-0.14703101
85	0xbe190a96	-0.14945444
86	0xbd6c842f	-0.057743248
87	0xbe12add0	-0.14324117
88	0xbc92b9b0	-0.017910808
89	0x3c2248cb	0.0099050505
90	0x3e0e54f4	0.13899595
91	0xbb6f827d	-0.0036546283
92	0xbded1814	-0.11576858
93	0xbda963e6	-0.08271007
94	0x3ea8b12a	0.32947665
95	0xbcb36cef	-0.02190253
96	0x3e825866	0.25458068
97	0x3e3ed796	0.18636927
98	0xbbe95a30	-0.007121347
99	0xbbf8f713	-0.007597813
100	0xbe54e6a4	-0.20791107
101	0x3b6144f4	0.0034373375
102	0x3cfb70cf	0.03069344
103	0xbe8dbbb6	-0.27682275
104	0x3e4f4ac1	0.2024336
105	0xbcfd7d3a	-0.030943502
106	0x3e349ba3	0.17637496
107	0x3e37ff90	0.17968583
108	0xbdf091a3	-0.11746528
109	0xbef33d8c	-0.47507894
110	0x3cd41ce4	0.025892682
111	0xbe4eeb1f	-0.20206879
112	0xbe08b37f	-0.13349722
113	0x3de6b903	0.11265757
114	0x3e1f3dd7	0.15550934
115	0xbd8e5d39	-0.069513746
116	0xbebeeb7c	-0.37289035
117	0xbb733931	-0.0037112946
118	0xbd995d5c	-0.0748851
119	0x3dd98509	0.106210776
120	0xbcaf9b59	-0.02143638
121	0x3e548aac	0.20756024
122	0xbdad26b9	-0.084546514
123	0x3de36dd4	0.111049324
124	0xbe6d4c05	-0.2317353
125	0xbd051e1f	-0.03249943
126	0x3e3367e6	0.17520103
127	0xbe33a8be	-0.17544839
128	0x3e1a6dac	0.15080899
129	0xbda6eb19	-0.0815031
130	0x3d43f602	0.047842033
131	0xbe0a7c53	-0.13523988
132	0x3e2eda33	0.17075424
133	0x3ea716b6	0.32634515
134	0x3e652e34	0.22380906
135	0xbe3db724	-0.18526894
136	0x3aa6e7aa	0.0012733836
137	0x3d130be3	0.035900008
138	0x3d190cfb	0.037365895
139	0xbd617edd	-0.055052627
140	0x3da5510d	0.080721
141	0x3d83b5a1	0.06431127
142	0x3e255646	0.16146192
143	0x3b7913d3	0.00380062
144	0xbde85254	-0.11343828
145	0xbe24ac88	-0.1608144
146	0xbbbafcc1	-0.0057064
147	0xbb695912	-0.0035606069
148	0xbdfd9088	-0.12381083
149	0xbcb9ec1e	-0.022695597
150	0x3e37dc39	0.17955102
151	0x3e3084d9	0.17238177
152	0x3e624902	0.22098163
153	0x3df652f7	0.12027543
154	0x3e416567	0.18886338
155	0x3cfe4328	0.031037882
156	0x3dc9fee8	0.09863073
157	0xbe7d234a	-0.24720493
158	0x3e2eea39	0.17081536
159	0xbed14779	-0.40874842
160	0xbe760d3c	-0.24028486
161	0xbca1e8b9	-0.019764291
162	0xbc9d18d4	-0.019176878
163	0xbdc9b924	-0.09849766
164	0x3e3a8f51	0.18218733
165	0x3dfc68b4	0.12324658
166	0xbda70313	-0.08154883
167	0x3e172596	0.14760432
168	0x3df26cf1	0.11837185
169	0x3ce0a80d	0.027423883
170	0xbe1f7084	-0.15570265
171	0x3d56653a	0.05234263
172	0xbe3e6efe	-0.18597028
173	0xbcd9cb2e	-0.026586141
174	0xbe58ac4a	-0.21159473
175	0x3d31a91c	0.043374166
176	0xbec32732	-0.3811584
177	0x3dd1a4b0	0.1023649
178	0xbeccbca5	-0.39987674
179	0xbd20522a	-0.039140858
180	0xbdfd1a1e	-0.12358497
181	0xbe97a171	-0.29615358
182	0xbd8e8f21	-0.069608934
183	0x3e0c415e	0.1369681
184	0xbe0c813f	-0.13721178
185	0xbd0aca76	-0.033884488
186	0xbee4d397	-0.4469268
187	0xbef12a42	-0.47102553
188	0xbe8f0e75	-0.27940717
189	0xbe18bbbc	-0.14915365
190	0x3d8fbfa0	0.070189714
191	0x3d035bfa	0.032070138
192	0xbea39d92	-0.31956154
193	0xbe85aebe	-0.2610988
194	0xbe78c7f4	-0.24295026
195	0x3d2366fc	0.039893135
196	0x3dece5e7	0.11567288
197	0xbc1cf502	-0.009579899
198	0xbd198218	-0.037477583
199	0xbcceeb7d	-0.025258774
200	0xbe11caf8	-0.14237583
201	0xbe6eac74	-0.23307973
202	0xbe9a6f1a	-0.3016289
203	0xbe3b8b4b	-0.18314855
204	0xbe79237d	-0.24329944
205	0xbd883432	-0.066505805
206	0xbe338b32	-0.17533568
207	0xbe574c44	-0.21025187
208	0xbf2b5cd9	-0.6693855
209	0xbe0a3bcd	-0.13499375
210	0xbe35ed38	-0.17766273
211	0xbdf87d0c	-0.12133226
212	0x3e2eef28	0.17083418
213	0xbcd4345c	-0.025903873
214	0x3d94cad4	0.07265249
215	0xbd6f532d	-0.058428932
216	0x3e1f6a05	0.15567787
217	0x3c137402	0.008999826
218	0x3dd99be4	0.10625437
219	0xbe3202e8	-0.17383921
220	0xbd6283b3	-0.05530138
221	0x3c96b6c7	0.018397702
222	0xbf1e56d1	-0.6185122
223	0xbcaf496f	-0.02139732
224	0xbe9efcf1	-0.31052354
225	0x3e93802a	0.2880872
226	0xbe2b3c01	-0.16722108
227	0x3e1c3ede	0.15258357
228	0xbe924874	-0.28570902
229	0xbd09589e	-0.033531778
230	0x3e672698	0.22573316
231	0x3e681299	0.22663344
232	0x3d8ca80b	0.06867989
233	0x3d7092c3	0.058733713
234	0xbc8e10e1	-0.017342033
235	0x3dad80bc	0.0847182
236	0xbe4b8755	-0.19875844
237	0xbe1f4791	-0.15554644
238	0xbe3843bf	-0.17994593
239	0x3e56d546	0.20979795
240	0x3d95d0cf	0.07315218
241	0x3df2c19d	0.11853335
242	0xbe0ce176	-0.13757882
243	0x3dccb020	0.09994531
244	0x3de26582	0.11054517
245	0xbd737956	-0.059441887
246	0x3da55156	0.08072154
247	0xbd0ced49	-0.03440598
248	0x3d934bd8	0.071922004
249	0xbe74197a	-0.23837844
250	0x3d191204	0.037370697
251	0x3d6dd9c4	0.058069006
252	0x3e9592b5	0.2921349
253	0x3ea0e882	0.3142739
254	0x3e4bf5a6	0.19917926
255	0x3e0d2e3e	0.13787171

encoder.enc1.bias f4 [58]
0	0x3dd0fec9	0.102048464
1	0x3daa0102	0.083009735
2	0xbd1ab6ff	-0.037772175
3	0x3cecb908	0.028896824
4	0xbb3a374f	-0.0028414314
5	0xbc6afa3b	-0.014341886
6	0x3d9c4704	0.07630733
7	0x3e12eac0	0.14347363
8	0xbcfaeaa0	-0.030629456
9	0x3e88e307	0.26735708
10	0x3cef201c	0.029190116
11	0xbd087650	-0.033315957
12	0x3e8a8937	0.27057812
13	0x3e4eede1	0.20207931
14	0x3e22d196	0.15900263
15	0x3c772042	0.015083374
16	0xbc8d7352	-0.017266903
17	0xbaf572b5	-0.0018726202
18	0x3d16f7ec	0.03685753
19	0xbc0443ac	-0.008072775
20	0x3d746cbd	0.059674013
21	0x3d87269e	0.065991625
22	0x3e6b4b0c	0.22977847
23	0x3e13b5b5	0.14424784
24	0xbcbf2b98	-0.023336217
25	0x3bf48390	0.0074619725
26	0x3c203462	0.009778114
27	0xbd2ce7f3	-0.04221339
28	0xbcfb1bbb	-0.030652871
29	0xbcf75ac1	-0.030194642
30	0x3e56bfe0	0.20971632
31	0x3ece5ad7	0.4030368
32	0x3c04231b	0.00806501
33	0x3e22c8f2	0.15896967
34	0xbd5883b7	-0.052859988
35	0xbd8e5326	-0.06949453
36	0x3db83da2	0.089961305
37	0x3d4291b3	0.04750223
38	0x3ca10c24	0.01965911
39	0xbd250101	-0.04028416
40	0x3e92de19	0.28685072
41	0x3d7aaf71	0.06120247
42	0x3d2acfaf	0.04170197
43	0x3cd4977e	0.025951143
44	0x3dd7e515	0.10541741
45	0xbd0a222b	-0.03372399
46	0xbd41d58d	-0.0473228
47	0x39f30641	0.0004635323
48	0x3d3e57c7	0.04647043
49	0xbcb52fb1	-0.022117468
50	0x3be9a792	0.0071305716
51	0x3d0ff6ac	0.035147354
52	0x3c41b753	0.011823493
53	0xbaa80300	-0.0012818277
54	0x3cc34ec7	0.023841275
55	0x3dacc067	0.08435135
56	0x3d23e610	0.040014327
57	0x3c785856	0.01515778

encoder.enc2.weight f4 [39, 58]
0	0x3e8970de	0.26843923
1	0x3e1819f1	0.14853646
2	0x3d484d42	0.048901804
3	0x3e533ba6	0.20628223
4	0x3e7da53a	0.2477006
5	0x3e62c26a	0.22144476
6	0xbf1ebc78	-0.6200633
7	0xbf1a4288	-0.6025777
8	0xbf405986	-0.751366
9	0xbe109361	-0.1411872
10	0x3e003911	0.12521769
11	0x3c4c5df4	0.012473572
12	0x3ea98097	0.3310592
13	0x3eb7f011	0.35925344
14	0x3e81cbf8	0.25350928
15	0x3ea07542	0.3133946
16	0xbed19257	-0.4093196
17	0x3f0bfc96	0.5468229
18	0x3e95d3e9	0.29263237
19	0xbc802c85	-0.015646229
20	0xbd947c10	-0.072502255
21	0xbd1736d5	-0.036917526
22	0x3ea01d9c	0.3127259
23	0xbec1e80a	-0.37872344
24	0x3d7e25fc	0.062047943
25	0xbe3a6c07	-0.18205272
26	0x3e8633ab	0.26211295
27	0xbe036eda	-0.12835255
28	0xbe7e66a1	-0.24843837
29	0x3e5883e4	0.21144062
30	0xbe9d4237	-0.3071458
31	0xbdf9d8ba	-0.121995404
32	0xbebb9fbd	-0.36645308
33	0x3e78264a	0.24233356
34	0xbe9648ca	-0.2935241
35	0xbe2e2b79	-0.17008771
36	0xbebdebd9	-0.37094
37	0x3de9aef2	0.11410321
38	0xbf2251bd	-0.6340597
39	0x3eba4222	0.3637858
40	0x3ecec028	0.4038098
41	0x3dc83bb9	0.09777016
42	0x3ec5ccb0	0.38632727
43	0x3e7fad78	0.24968517
44	0x3e87b3a2	0.26504236
45	0x3dbf1e52	0.09331955
46	0xbdc5030b	-0.09619721
47	0xbda47c96	-0.080315754
48	0xbf6d52d6	-0.9270452
49	0x3ba421a8	0.005008895
50	0x3e16eb0f	0.14738105
51	0xbe167295	-0.14692147
52	0xbeb87dcc	-0.36033475
53	0x3d01aea1	0.03166068
54	0x3ea32dfb	0.31871018
55	0x3ecdd597	0.4020202
56	0x3ec4473b	0.38335595
57	0xbf18fdab	-0.59762067
58	0x3c4d5ecd	0.012534809
59	0x3eb45269	0.35219124
60	0xbe7028bb	-0.23453037
61	0x3e428177	0.189947
62	0xbea6c66a	-0.32573253
63	0x3e1897ca	0.14901653
64	0xbf5e4da4	-0.8683722
65	0xbe89636f	-0.26833674
66	0xbf1dc9cb	-0.61636037
67	0x3d64421d	0.055727113
68	0x3e9e29b2	0.30891186
69	0x3e2f5da1	0.1712556
70	0xbe75a449	-0.23988451
71	0xbcc0831b	-0.023500016
72	0xbe490eed	-0.196346
73	0xbdee0c07	-0.11623388
74	0x3c20fb53	0.009825545
75	0x3ce89ea3	0.028395956
76	0xbd8574bf	-0.06516408
77	0x3ea6de1b	0.32591328
78	0x3dba0145	0.090822734
79	0x3e1115d4	0.14168483
80	0xbe633b74	-0.22190648
81	0x3d8b1dec	0.067928165
82	0xbe3bdd2a	-0.18346086
83	0xbe2b748f	-0.16743682
84	0x3dcfffef	0.10156237
85	0x3e3b0faa	0.18267694
86	0x3e281570	0.16414428
87	0x3d900043	0.070313
88	0x3e036b5d	0.12833925
89	0x3ebd6cdd	0.3699712
90	0xbc9f5f83	-0.019454723
91	0xbd683662	-0.05669249
92	0x3eaf65cd	0.34257355
93	0xbdb5c9f4	-0.0887641
94	0x3baee6e6	0.005337584
95	0xbe09b42b	-0.13447635
96	0xbddb0b69	-0.10695536
97	0x3eaabe8c	0.333485
98	0x3d2e2872	0.04251904
99	0xbe4654df	-0.19368313
100	0xbd09785d	-0.033562053
101	0x3e6fbbc3	0.23411469
102	0xbac524e9	-0.0015040907
103	0xbe0fb041	-0.1403208
104	0xbea3c26a	-0.31984264
105	0x3ea2a5ec	0.31767213
106	0xbf1b207a	-0.6059643
107	0xbea99685	-0.3312265
108	0xbd9df21f	-0.077121966
109	0x3c9bfde5	0.019041965
110	0x3e4ce351	0.2000859
111	0x3eb8050e	0.35941356
112	0x3b10060b	0.0021976258
113	0x3ebdce42	0.37071425
114	0xbdeb2576	-0.114817545
115	0xbf06f183	-0.5271227
116	0xbdefa429	-0.11701233
117	0x3e0d8cf1	0.13823296
118	0x3ec31c2c	0.3810743
119	0xbdefb39c	-0.1170418
120	0xbdc3acce	-0.09554444
121	0xbe497572	-0.19673708
122	0x3ea56e88	0.3231089
123	0xbe4691bf	-0.19391535
124	0x3e15dfed	0.14636202
125	0x3ebbe37f	0.36697003
126	0xbd3c7e25	-0.04601874
127	0xbd7f4d66	-0.062329672
128	0x3dcf57b7	0.10124152
129	0x3ed99aed	0.42501011
130	0x3dd9d353	0.1063601
131	0xbd931c39	-0.071831174
132	0xbe161c02	-0.14659122
133	0xbe338b5f	-0.17533635
134	0x3d9eb66a	0.077496365
135	0x3d8cebc2	0.06880905
136	0xbe1c9aaa	-0.15293375
137	0xbc710e5b	-0.014712895
138	0x3e54291d	0.20718808
139	0x3e9732e9	0.2953103
140	0xbe8d118f	-0.2755246
141	0x3e4d9a48	0.20078385
142	0x3dd71dd9	0.1050374
143	0xbd2cdf33	-0.042205047
144	0x3eba387c	0.3637122
145	0xbe0204f8	-0.12697208
146	0x3e7c0743	0.24612145
147	0x3f018f4f	0.50609297
148	0x3e9beff4	0.30456507
149	0xbe308026	-0.17236385
150	0x3e2e26fb	0.17007057
151	0x3b6a687c	0.0035767844
152	0x3e469710	0.19393563
153	0xbe5dc5c9	-0.2165748
154	0x3eaad55c	0.33365905
155	0xbbeeb551	-0.007284798
156	0x3e53de90	0.2069037
157	0x3d317de6	0.043332957
158	0x3ed2a7bb	0.41143593
159	0x3e9636d7	0.29338714
160	0x3dd2d26c	0.10294041
161	0x3e017c50	0.12645078
162	0x3cfcedb4	0.030875064
163	0xbc0e0137	-0.008667282
164	0x3edb0305	0.4277574
165	0xbea5179f	-0.32244584
166	0x3dfd2df2	0.12362279
167	0x3cb68f40	0.022285104
168	0xbe54d554	-0.20784503
169	0x3e097e68	0.13427126
170	0x3af1483d	0.001840837
171	0x3b668eb2	0.0035180268
172	0x3d814ad0	0.063130975
173	0x3e70c030	0.23510814
174	0xbe44fe60	-0.19237661
175	0x3df9df4d	0.12200794
176	0x3c8e8fb3	0.017402506
177	0xbd98dbbb	-0.07463785
178	0xbdba748c	-0.09104261
179	0x3c5bf393	0.013424772
180	0xbd71a486	-0.058994792
181	0xbe0d5e96	-0.13805613
182	0x3b0aed0a	0.0021198415
183	0xbe2c10a3	-0.16803221
184	0x3e6bd705	0.23031242
185	0x3ecae645	0.39628807
186	0x3e9284e3	0.2861701
187	0x3ddebc59	0.10875768
188	0x3e3236f1	0.17403771
189	0xbd762ab8	-0.060099334
190	0xbe8bd26f	-0.27308986
191	0x3edd48bf	0.43219563
192	0x3e23c4b8	0.15993011
193	0xbdf7007a	-0.12060638
194	0xbdafadfd	-0.085781075
195	0xbdc6f628	-0.09714919
196	0xbe63f7b2	-0.22262457
197	0x3e2a7ffa	0.16650382
198	0xbe8f355f	-0.27970406
199	0x3ecfbe2e	0.40574783
200	0xbf01572d	-0.50523645
201	0x3de39888	0.111130774
202	0xbdcdd1b1	-0.10049761
203	0xbe912d9e	-0.28355116
204	0x3e378330	0.17921138
205	0x3d0fb38a	0.03508333
206	0xbdd25ed7	-0.102719955
207	0x3e080974	0.13284856
208	0x3e28a921	0.16470768
209	0x3d8ef6fb	0.069807015
210	0xbd4e7473	-0.050404023
211	0x3dc8492a	0.0977958
212	0xbe8000a2	-0.25000483
213	0xbd9be2d3	-0.07611623
214	0x3ddc3e78	0.107541025
215	0xbe39683e	-0.18106171
216	0x3da306d8	0.0796029
217	0x3e692efd	0.22771831
218	0xbc2bc5fe	-0.010484217
219	0xbdfc4cfc	-0.12319371
220	0x3e6fdf79	0.23425092
221	0x3dd8d9a4	0.10588387
222	0xbe15fd68	-0.14647448
223	0xbec71009	-0.3887942
224	0x3e6db7be	0.23214623
225	0xbeae3849	-0.34027317
226	0xbe02116d	-0.1270196
227	0xbde2affe	-0.11068724
228	0xbe8a931f	-0.2706537
229	0xbe1cca02	-0.15311435
230	0xbdb602df	-0.08887266
231	0xbf2df6d5	-0.6795476
232	0x3edc8a1f	0.43074128
233	0xbe24d94b	-0.16098516
234	0xbd962042	-0.073303714
235	0x3e524eeb	0.20537917
236	0xbe59dc50	-0.21275449
237	0x3df0addd	0.11751912
238	0x3daa1108	0.0830403
239	0x3e6bab65	0.230146
240	0xbd755f99	-0.059905622
241	0x3d6351d1	0.055497948
242	0x3df2c081	0.118531235
243	0x3e57b92b	0.2106673
244	0xbe319bbc	-0.17344564
245	0x3d59293f	0.05301785
246	0xbdda858e	-0.10670005
247	0x3ecdd581	0.40201953
248	0x3e606fd7	0.21917664
249	0x3eaa2d74	0.33237803
250	0xbe12f0b8	-0.1434964
251	0xbe0ad30e	-0.13557073
252	0x3d830e7f	0.06399249
253	0x3ead06a7	0.33794138
254	0xbe12f2e1	-0.14350463
255	0xbe47035c	-0.19434875

encoder.enc2.bias f4 [39]
0	0x3d42cbf8	0.0475578
1	0x3d9f1cd3	0.0776917
2	0x3c68898c	0.01419295
3	0xbd57f34d	-0.052722264
4	0x3d145df2	0.036222406
5	0xbc8f5b81	-0.017499687
6	0xbc26409c	-0.01014724
7	0x3d25c992	0.040475436
8	0x3d5cb0c5	0.053879518
9	0x3dc0f3a3	0.0942147
10	0x3cfcec0b	0.030874273
11	0x3d69bb9c	0.057063684
12	0x3a36bdd9	0.00069710385
13	0x3db23bf4	0.087028414
14	0x3d9bf978	0.07615942
15	0xbb9cbd88	-0.004783336
16	0x3e5709cd	0.20999832
17	0x3e520b23	0.20512061
18	0x3cebdb96	0.02879123
19	0xbbbb3bfe	-0.0057139387
20	0x3da56579	0.08075995
21	0x3c6382d2	0.01388617
22	0x3d11c8b2	0.03559179
23	0x3de42ce2	0.11141373
24	0x3d75ed57	0.060040798
25	0xbce60806	-0.028079998
26	0x3ce039c1	0.02737129
27	0x3c2ef2f2	0.01067804
28	0xbc260504	-0.010133032
29	0x3dd93e20	0.106075525
30	0x3cae4aab	0.021275839
31	0xbc8a029d	-0.01684695
32	0xbcab61b8	-0.02092062
33	0x3d4641c0	0.048402548
34	0x3c9c480f	0.019077329
35	0xbc863527	-0.016382767
36	0x3bac8520	0.005264893
37	0x3d98d2af	0.0746206
38	0x3c2f7dc7	0.01071114

encoder.enc3.weight f4 [19, 39]
0	0xbc4e8f77	-0.012607447
1	0xbe8874f1	-0.2665172
2	0x3df1f32f	0.11813962
3	0xbd9a87ce	-0.07545434
4	0xbead976f	-0.33904597
5	0x3df76f19	0.12081737
6	0x3d9ef51f	0.07761597
7	0x3e138714	0.14406997
8	0x3d5f1f7e	0.054473393
9	0xbe1576df	-0.14596127
10	0x3e96fd4a	0.2949012
11	0x3ebfec52	0.37484986
12	0xbea4af90	-0.32165194
13	0xbbea22d8	-0.007145267
14	0xbe1d7b0a	-0.15378967
15	0xbe9b7083	-0.30359277
16	0x3d4a585c	0.049400672
17	0x3d2d54c3	0.042317163
18	0xbc8857dc	-0.016643457
19	0xbcc5632a	-0.024095137
20	0xbe5ff257	-0.21869789
21	0xba0e5ae5	-0.00054304145
22	0xbe1311b2	-0.14362219
23	0x3e2d6693	0.1693366
24	0xbe915b47	-0.28389952
25	0xbe8172d7	-0.25282928
26	0xbcdeadb9	-0.027182447
27	0xbe766bb1	-0.24064519
28	0xbea5c12e	-0.32373947
29	0x3e1f247a	0.15541258
30	0xbe8a928c	-0.2706493
31	0x3dab471e	0.08363174
32	0xbe249fc6	-0.16076574
33	0xbb546f5b	-0.0032415006
34	0x3e5acc41	0.21366979
35	0xbd6dbe53	-0.058042835
36	0x3db52d40	0.088465214
37	0x3dec7f02	0.11547662
38	0xbe2f941d	-0.17146344
39	0xbe519fd2	-0.20471123
40	0xbdfc7609	-0.12327201
41	0x3ead7bb0	0.3388343
42	0xbeb825a9	-0.35966232
43	0x3dc38bfb	0.095481835
44	0x3d4d8c58	0.05018267
45	0x3e18fe4f	0.14940761
46	0x3ecca9db	0.3997334
47	0xbe4589b2	-0.19290808
48	0xbe8db723	-0.27678785
49	0x3ee269b9	0.44221285
50	0x3eced2e7	0.4039528
51	0xbd9ded86	-0.077113196
52	0xbdefd765	-0.11711005
53	0x3d8c730b	0.0685788
54	0xbe0c927b	-0.13727753
55	0xbe4c6fa0	-0.19964457
56	0xbe13fa8b	-0.14451043
57	0x3ea2ac6a	0.31772166
58	0x3eb08ad8	0.3448093
59	0x3c999685	0.018748531
60	0x3e900577	0.2812917
61	0x3eb646ed	0.35600987
62	0x3ceb3cfe	0.028715607
63	0x3e8348d2	0.25641495
64	0x3d15187a	0.036400296
65	0xbe261b99	-0.16221465
66	0x3e515e48	0.20446122
67	0xbcaa89c7	-0.02081765
68	0x3e077a2d	0.132302
69	0x3ecf3784	0.40472043
70	0xbe316ab7	-0.17325865
71	0xbe8a2596	-0.269818
72	0xbe19a091	-0.15002657
73	0x3e2f59b0	0.17124057
74	0x3eae7f83	0.3408166
75	0x3e827c46	0.25485438
76	0xbe91374c	-0.283625
77	0x3e5f19e8	0.21787226
78	0xbe764940	-0.2405138
79	0xbec6a76d	-0.3879961
80	0x3e18b1f4	0.14911634
81	0xbe7af3ce	-0.24507067
82	0x3e54e4ec	0.20790452
83	0x3e012ee4	0.12615544
84	0x3e982730	0.29717398
85	0xbe8c26c4	-0.27373326
86	0xbe385c3e	-0.18003938
87	0xbe957573	-0.2919117
88	0x3e47891a	0.19485894
89	0x3da97993	0.082751416
90	0xbe2683ac	-0.16261166
91	0x3eccbe4a	0.3998893
92	0xbdf856b7	-0.121259145
93	0xbe96543e	-0.29361147
94	0xbd84a911	-0.06477559
95	0xbdbd4ca3	-0.09243133
96	0x3b8e21df	0.004337534
97	0x3e1f4ffc	0.15557855
98	0x3ddab464	0.10678938
99	0x3dbc65a7	0.09199076
100	0x3dc5d297	0.096593075
101	0xbcc9929b	-0.02460604
102	0x3ef09c8b	0.46994433
103	0x3dbbf608	0.09177786
104	0x3e511718	0.20418966
105	0xbd6a95e2	-0.057271846
106	0xbe783dd2	-0.24242333
107	0x3da7a533	0.08185806
108	0xbe3ead8a	-0.18620887
109	0xbe34b0fb	-0.17645638
110	0x3e0ad943	0.13559441
111	0xbd851d81	-0.06499768
112	0x3ecfb80f	0.40570113
113	0x3e8e0415	0.2773749
114	0xbdb038b9	-0.08604569
115	0xbe8d56ec	-0.2760538
116	0x3e8f3962	0.27973467
117	0x3eaeea26	0.34163016
118	0x3e96d808	0.29461694
119	0x3dbc29d7	0.09187668
120	0xbebb9d33	-0.3664337
121	0xbe3474b4	-0.17622644
122	0x3e162450	0.1466229
123	0x3addb15e	0.0016913821
124	0x3e6d8307	0.23194514
125	0x3e67b621	0.2262807
126	0xbd2d6e15	-0.04234131
127	0xbc8732be	-0.016503688
128	0xbddd355e	-0.108011946
129	0xbcf707ff	-0.03015518
130	0xbe5dff9e	-0.21679541
131	0x3ef415e0	0.4767294
132	0x3e2aba0c	0.16672534
133	0xbe168038	-0.14697349
134	0xbe063900	-0.13107681
135	0xbe8cb16a	-0.27479106
136	0xbe4a057b	-0.19728653
137	0xbdd43eeb	-0.10363563
138	0xbed8603e	-0.42260927
139	0x3e8bf7e7	0.27337572
140	0x3ee09917	0.43866798
141	0xbd5ce49b	-0.053928953
142	0xbe944bb4	-0.28964007
143	0xbe8d8087	-0.2763712
144	0x3ecaafce	0.39587253
145	0xbdf1d84f	-0.11808836
146	0xbe779a7c	-0.24180025
147	0xbe8084c7	-0.251013
148	0xbf0115e9	-0.5042406
149	0x3e05db00	0.13071823
150	0xbc58fb3f	-0.0132434955
151	0xbe930892	-0.28717476
152	0x3ea3c579	0.31986597
153	0xbd45a02c	-0.048248455
154	0x3e76170a	0.24032226
155	0x3e655165	0.22394331
156	0xbdc740ed	-0.097291805
157	0x3e010ede	0.12603328
158	0xbd6e5d29	-0.058194313
159	0x3eb57a69	0.35444954
160	0xbed17384	-0.40908444
161	0x3dfd52ce	0.12369309
162	0xbec650d0	-0.3873353
163	0xbec2c9e3	-0.38044652
164	0x3e7e09fa	0.24808493
165	0x3ea4d037	0.32190105
166	0x3eb6c7ad	0.35699216
167	0x3e69d7f2	0.22836283
168	0xbe2ed084	-0.1707173
169	0x3eb3d194	0.35120833
170	0xbea17c96	-0.31540364
171	0xbe583893	-0.21115331
172	0x3e03a9f5	0.12857802
173	0x3ded5fcf	0.1159054
174	0xbe57f806	-0.21090707
175	0xbde0acdd	-0.10970471
176	0x3ea72294	0.3264357
177	0x3d79d552	0.060994454
178	0x3eb8ad6c	0.3606981
179	0xbed2f627	-0.41203424
180	0xbe87a3d4	-0.26492178
181	0xbe3904f3	-0.18068294
182	0xbea81637	-0.3282945
183	0x3c27625f	0.010216325
184	0xbe3cd16d	-0.18439265
185	0x3e1d4a97	0.15360485
186	0xbed96cb3	-0.42465743
187	0xbefdc0fd	-0.495613
188	0xbe65cedc	-0.22442192
189	0xbe724186	-0.23657808
190	0x3c70b099	0.014690542
191	0xbf1e3d10	-0.61811924
192	0x3e50861c	0.20363659
193	0xbe677568	-0.2260338
194	0xbed216b3	-0.41032943
195	0xbe5fa797	-0.21841274
196	0xbe19f489	-0.15034689
197	0x3ea94b83	0.33065423
198	0xbd9aabca	-0.075522974
199	0x3ea2976b	0.31756148
200	0xbe1ca9d2	-0.15299156
201	0x3e8ecd76	0.2789113
202	0x3e114d2f	0.141896
203	0xbf17e319	-0.593309
204	0xbf92f5fa	-1.1481316
205	0xbdf9650e	-0.12177478
206	0x3e59c76e	0.21267483
207	0xbeef3983	-0.46723565
208	0x3ecc0883	0.39850244
209	0xbf05c732	-0.5225707
210	0xbda7df0d	-0.081968404
211	0xbfbf0916	-1.4924648
212	0xbf8b2aad	-1.0872399
213	0x3e932d73	0.28745613
214	0x3eeb79d7	0.45991394
215	0x3e80f090	0.25183535
216	0xbf222dd0	-0.63351154
217	0x3e9b92f3	0.3038555
218	0xbdd4f8f7	-0.10399049
219	0x3f1104d2	0.5664798
220	0x3eed887d	0.46393195
221	0xbdf1c86f	-0.11805808
222	0x3e3ea96a	0.18619314
223	0xbf2d05d5	-0.67587024
224	0xbecc3f3f	-0.39892003
225	0x3e99cea0	0.30040455
226	0xbe473f21	-0.19457676
227	0x3c103911	0.008802668
228	0x3ee756dc	0.45183456
229	0xbe546727	-0.20742474
230	0xbe14347a	-0.14473143
231	0xbf8acfc5	-1.0844656
232	0xbf5da8e0	-0.8658581
233	0x3ea2f8d3	0.31830463
234	0x3c6d9b17	0.014502308
235	0xbdb3747e	-0.087624535
236	0xbe3db27e	-0.1852512
237	0x3e5f10cd	0.21783753
238	0xbeb8853f	-0.3603916
239	0xbe1ddd92	-0.15416554
240	0x3e1948b3	0.14969139
241	0xbe8379e0	-0.2567892
242	0x3ea764f6	0.32694215
243	0xbcdae2a6	-0.026719403
244	0x3e0d8786	0.1382123
245	0xbed1a138	-0.40943313
246	0x3c13401b	0.008987452
247	0x3c31df68	0.010856487
248	0xbdc013ec	-0.093788
249	0xbe5c9a41	-0.21543218
250	0x3dd91434	0.105995566
251	0x3ea8e41b	0.3298653
252	0xbe24908a	-0.16070762
253	0x3e8b8ff0	0.27258253
254	0xbea059d1	-0.31318524
255	0x3d7fd1b7	0.06245586

encoder.enc3.bias f4 [19]
0	0x3da9855a	0.08277388
1	0x3db2e1bf	0.08734464
2	0x3d0f66a5	0.03501
3	0xbb60ace5	-0.003428274
4	0xbcf9403b	-0.030426135
5	0x3c9bed3a	0.019034017
6	0xbc5bd0f5	-0.013416518
7	0xbbf5a99b	-0.007497025
8	0x3c4e052a	0.012574473
9	0x3d9de7fc	0.07710263
10	0xbb93553f	-0.004496246
11	0x3bf702bb	0.0075381673
12	0x3c9653bd	0.018350476
13	0xbc2e57a9	-0.010641017
14	0x3ca9b25b	0.02071493
15	0x3d0fd937	0.03511926
16	0xbc8f5edd	-0.017501289
17	0xbc81b4e2	-0.015833322
18	0x3b38acd9	0.0028179197

encoder.enc4.weight f4 [7, 19]
0	0x3e84b95c	0.25922668
1	0xbddf6afe	-0.10909079
2	0xbed850de	-0.42249197
3	0xbef8cb13	-0.48592433
4	0x3f5ca436	0.86188066
5	0xbf3bd38a	-0.7336966
6	0x3f02e1ef	0.51126
7	0xbe9d0102	-0.3066483
8	0x3e54b42f	0.2077186
9	0xbf3fb44e	-0.748845
10	0x3e84fb8b	0.25973162
11	0x3ea6029b	0.32423863
12	0xbf354d45	-0.7082103
13	0x3ee16adb	0.44026837
14	0x3ee55d9a	0.44797975
15	0xbf0e159f	-0.5550174
16	0xbf344a3b	-0.70425767
17	0xbdb1b807	-0.086776786
18	0x3ec6e76c	0.38848436
19	0xbe97dfd1	-0.29662946
20	0x3f18ad45	0.5963939
21	0x3d8ca7dc	0.06867954
22	0x3e8c99d1	0.27461103
23	0xbf01917e	-0.5061263
24	0x3dc5ec71	0.09664238
25	0xbeee529e	-0.46547407
26	0x3dbace52	0.09121384
27	0xbdad9c60	-0.08477092
28	0xbe612fca	-0.21990886
29	0xbe9cf1af	-0.3065314
30	0xbf02ce4d	-0.5109604
31	0x3f2e1908	0.68006945
32	0xbed6a759	-0.4192455
33	0x3d0322e4	0.032015696
34	0x3f351555	0.70735675
35	0xbcf58ed3	-0.02997533
36	0x3ec8385c	0.391055
37	0x3e15ee89	0.14641775
38	0x3eadc686	0.33940524
39	0xbd9c9b5f	-0.07646822
40	0xbca646e2	-0.020297471
41	0x3d09793e	0.03356289
42	0x3ebdb731	0.37053826
43	0x3e0968d2	0.13418892
44	0x3e696a5a	0.22794476
45	0xbea36237	-0.3191087
46	0x3e457cdc	0.19285911
47	0xbe9ea7ce	-0.309874
48	0x3e976e5c	0.29576385
49	0x3db745cb	0.08948859
50	0xbf21810b	-0.6308753
51	0xbd94cdd6	-0.072658226
52	0x3eeb00ee	0.45899147
53	0x3cad0a77	0.021123154
54	0x3e042fc9	0.12908854
55	0xbeaf13d6	-0.3419482
56	0xbe60e422	-0.21962026
57	0xbe93c184	-0.28858578
58	0xbd7e40a9	-0.062073383
59	0xbe590743	-0.21194176
60	0xbd5d5dd1	-0.05404455
61	0x3baea1fb	0.005329368
62	0xbed68b26	-0.41903037
63	0xbe2a917a	-0.16657057
64	0x3ed9bb78	0.4252584
65	0xbe390dc4	-0.18071657
66	0xbdceac1a	-0.100914195
67	0xbebba8d8	-0.36652255
68	0x3e93a366	0.288356
69	0x3eaf989c	0.3429612
70	0x3f0527e8	0.5201402
71	0xbee0cf1b	-0.4390801
72	0xbef89779	-0.48553064
73	0x3e9d18af	0.30682895
74	0xbea7c9a1	-0.32771018
75	0xbf07b655	-0.5301259
76	0x3d3133d5	0.04326232
77	0x3eef979a	0.4679535
78	0xbe87fd1d	-0.26560298
79	0x3f0e004b	0.554692
80	0xbe848c7e	-0.25888437
81	0xbcabd137	-0.020973785
82	0x3e404c7a	0.18779173
83	0x3ef6b191	0.48182347
84	0xbcaa5e3c	-0.020796888
85	0x3d3499ca	0.044091977
86	0x3e5d5911	0.21616007
87	0xbeb17092	-0.34656197
88	0x3ef3d01d	0.47619715
89	0xbe2f30db	-0.1710848
90	0xbde28c07	-0.11061864
91	0x3ea32884	0.31866848
92	0x3ed239c1	0.41059688
93	0xbe10b434	-0.14131242
94	0xbe51b6d7	-0.20479904
95	0xbd52b911	-0.051446024
96	0x3eecf0de	0.46277517
97	0xbeed6496	-0.46365803
98	0xbe3a4edf	-0.1819415
99	0x3d85a9b2	0.065265074
100	0xbe6afa0f	-0.22946952
101	0x3e6db9ec	0.23215455
102	0xbe04b887	-0.12961017
103	0xbeb288cc	-0.34869993
104	0xbda68e88	-0.081326544
105	0xbc9228a0	-0.017841637
106	0xbd88ec95	-0.066857494
107	0xbcfb88fd	-0.03070497
108	0xbe88de1a	-0.2673195
109	0x3e597e43	0.21239571
110	0x3d038b32	0.03211517
111	0x3e86881f	0.26275727
112	0x3ed029eb	0.4065698
113	0x3e209bfb	0.15684502
114	0xbc65b78a	-0.01402081
115	0xbe915216	-0.2838294
116	0x3d0e1d57	0.03469595
117	0xbe03b917	-0.12863575
118	0x3edf5505	0.43619552
119	0xbee81a47	-0.45332548
120	0x3e30138f	0.17194961
121	0xbe95a6d2	-0.29228836
122	0xbcb0b152	-0.021568928
123	0xbf1f6139	-0.62257725
124	0xbe0659b8	-0.13120162
125	0x3e7338bb	0.2375211
126	0xbeda83f8	-0.4267881
127	0xbdceb110	-0.10092366
128	0x3effb6b8	0.4994409
129	0xbe4bd534	-0.1990555
130	0xbb243fda	-0.0025062473
131	0x3e486314	0.19569045
132	0xbe29fbac	-0.16599911

encoder.enc4.bias f4 [7]
0	0xbded6b6a	-0.11592753
1	0xbc277608	-0.010221012
2	0xbb84b583	-0.004049958
3	0x3ba5bd2e	0.0050579524
4	0x3c10bc6a	0.008833984
5	0xbbc239c0	-0.0059272945
6	0xbcc42002	-0.023941044

decoder.dec1.weight f4 [19, 7]
0	0x3f16d21b	0.58914346
1	0x3e1c1100	0.1524086
2	0xbf0506e6	-0.5196365
3	0x3f59b923	0.8504812
4	0x3e1d5e93	0.15368108
5	0xbe1682ba	-0.14698306
6	0xbf3c33fc	-0.7351682
7	0x3ead2f63	0.33825216
8	0xbf6a771e	-0.9158801
9	0xbebcc067	-0.3686554
10	0xbf08e7e7	-0.53478855
11	0x3f2a1f9d	0.6645449
12	0x3e9334a5	0.28751102
13	0x3e87dbf2	0.26534992
14	0x3dc942c2	0.09827186
15	0xbe7903f5	-0.24317916
16	0x3f3bd660	0.73373985
17	0x3f2729c5	0.6529811
18	0xbd8f92c0	-0.07010412
19	0xbed4873a	-0.4150942
20	0x3f4bef21	0.79661757
21	0xbf1e7355	-0.6189473
22	0x3d85f310	0.06540501
23	0x3f26999d	0.65078145
24	0xbf04e860	-0.51917076
25	0x3f3eb4bd	0.74494535
26	0xbedfddb8	-0.43723845
27	0x3f73cd28	0.9523492
28	0x3ee08edd	0.43858996
29	0xbe554c30	-0.20829844
30	0x3e7d9a33	0.24765854
31	0xbf331b0b	-0.6996314
32	0x3eac5a35	0.33662573
33	0xbf56f0ae	-0.83961
34	0xbf2da83e	-0.6783484
35	0xbe9a06c0	-0.30083275
36	0x3dfe1cb3	0.12407818
37	0x3f19d89f	0.6009616
38	0x3abeb6fd	0.0014550384
39	0x3eae7593	0.34074077
40	0xbe925a0f	-0.28584334
41	0x3f032a84	0.5123675
42	0x3e4d4ca1	0.20048763
43	0xbf357e06	-0.7089542
44	0x3eae61c9	0.3405898
45	0xbee6f116	-0.4510581
46	0x3f31defb	0.69480866
47	0x3ed357b7	0.4127786
48	0x3f5a01a2	0.8515874
49	0xbdbec5f3	-0.093150996
50	0x3f54373b	0.82896775
51	0xbe14e8e2	-0.14541963
52	0x3e39a3b2	0.18128851
53	0xbee85b5a	-0.45382196
54	0xbea9c007	-0.33154318
55	0x3f685a7f	0.90763086
56	0x3f5e4ee4	0.8683913
57	0x3cf975e0	0.030451715
58	0xbf15f7f4	-0.5858147
59	0x3ebd218d	0.3693966
60	0x3f51bc79	0.8192821
61	0x3f43cc44	0.7648356
62	0x3da8e6d4	0.08247152
63	0xbeb60a9d	-0.35554972
64	0x3f3bcad0	0.7335634
65	0x3f33b37f	0.70195764
66	0xb9123d4b	-0.00013946478
67	0xbe99e3a2	-0.30056483
68	0x3e9a248e	0.30106014
69	0x3ed3cd45	0.41367546
70	0xbe201105	-0.15631492
71	0x3eb24d24	0.3482448
72	0x3f5d7ae5	0.8651565
73	0xbe664291	-0.2248633
74	0xbecb303e	-0.39685243
75	0x3edb76d2	0.4286409
76	0xbed1501a	-0.40881425
77	0x3dae1456	0.084999725
78	0xbf0396b8	-0.51401854
79	0xbce9a3eb	-0.028520545
80	0x3e775404	0.24153143
81	0x3f554f25	0.8332389
82	0x3f423ab3	0.7587082
83	0xbec7f0a1	-0.39050773
84	0x3c0fca66	0.008776283
85	0xbf11d973	-0.56972426
86	0xbed9ebb2	-0.42562634
87	0x3f173884	0.5907061
88	0x3da63465	0.08115462
89	0x3ef94411	0.48684743
90	0x3de35e12	0.11101927
91	0x3e6c19ad	0.2305667
92	0xbeabf86a	-0.33587962
93	0x3f003f69	0.50096756
94	0x3f17257b	0.59041566
95	0x3ec28c63	0.37997732
96	0xbf60ff6f	-0.8788976
97	0xbf59e161	-0.85109526
98	0xbe452e8f	-0.19256042
99	0xbede9b22	-0.43477732
100	0xbe3f9c06	-0.18711862
101	0x3f05506f	0.52075857
102	0x3f71142b	0.941714
103	0x3f603312	0.8757793
104	0x3f1fc256	0.6240591
105	0x3f76683c	0.962528
106	0x3e182bd4	0.14860469
107	0xbdc8a192	-0.09796442
108	0x3ef81645	0.4845449
109	0xbe9bbccf	-0.30417487
110	0x3e3196b6	0.17342648
111	0x3dd5d479	0.104409166
112	0x3f17d982	0.59316266
113	0x3efc7a90	0.49312258
114	0xbf08fdec	-0.53512454
115	0xbf37e58b	-0.7183463
116	0xbe747e05	-0.23876198
117	0xbda76728	-0.08173972
118	0xbf2127a6	-0.62951124
119	0xbe98e3e4	-0.29861367
120	0x3ed6d438	0.41958785
121	0x3d40a26c	0.047029898
122	0xbd3b9657	-0.045797672
123	0xbea94510	-0.33060503
124	0x3f456e73	0.7712166
125	0x3f307889	0.6893392
126	0x3e74429a	0.23853531
127	0xbf3d8407	-0.7402958
128	0xbea26974	-0.3172108
129	0x3f47d1d8	0.7805457
130	0xbef48a58	-0.47761798
131	0x3ee43968	0.44575047
132	0xbf5c60aa	-0.86085

decoder.dec1.bias f4 [19]
0	0x3d66c54a	0.056340493
1	0xbe146641	-0.14492132
2	0xbe15671a	-0.14590111
3	0x3d86ad53	0.06576028
4	0xb96f2326	-0.0002280591
5	0xbcfe82e1	-0.031068267
6	0xbd877695	-0.066144146
7	0xbdbf07ed	-0.093276836
8	0xbd0c88a3	-0.034309994
9	0x3c7b5ad4	0.015341479
10	0xbca2e348	-0.019883767
11	0x3c0c3841	0.008558334
12	0xbca6542b	-0.020303806
13	0xbcbf433e	-0.023347493
14	0x3d7c37a6	0.061576508
15	0xbe92460d	-0.2856907
16	0xbc94526d	-0.01810571
17	0xbdd6e952	-0.10493721
18	0x3a79640f	0.0009513506

decoder.dec2.weight f4 [39, 19]
0	0xbe511618	-0.20418584
1	0x3e1a817c	0.15088457
2	0xbef696e3	-0.48161992
3	0xbce63857	-0.028103037
4	0x3e88198c	0.2658199
5	0xbf044834	-0.51672673
6	0x3edb95a0	0.42887592
7	0xbc9b6224	-0.018967696
8	0xbeb804e4	-0.3594123
9	0x3e916e35	0.28404394
10	0xbdbdec20	-0.09273553
11	0xbec8be0b	-0.3920749
12	0x3d8557a8	0.0651086
13	0x3ee21c05	0.44162002
14	0xbb524aca	-0.0032088035
15	0x3c50f79c	0.012754347
16	0x3dee4b4f	0.11635458
17	0x3e1af135	0.15131076
18	0x3f206a5a	0.6266228
19	0x3d231386	0.03981354
20	0x3d9c8a7d	0.07643602
21	0xbeb00b8e	-0.34383816
22	0xbec103ce	-0.37698215
23	0xbde890a2	-0.113557115
24	0x3ee799b4	0.45234454
25	0x3ed7bec8	0.42137742
26	0x3ecc9242	0.39955336
27	0xbeb9ac2d	-0.36264172
28	0xbee36547	-0.44413206
29	0x3dc069e7	0.09395199
30	0xbed29692	-0.411305
31	0x3d461730	0.048361957
32	0xbf052e15	-0.5202344
33	0x3daddc47	0.0848928
34	0x3f0807aa	0.53136694
35	0xbf6cbacb	-0.92472523
36	0xbe6b3891	-0.22970797
37	0xbe5ad0f0	-0.21368766
38	0x3e2f6a84	0.17130476
39	0x3f24e83a	0.6441685
40	0xbde55879	-0.111985154
41	0xbcc31ff9	-0.023818957
42	0xbeeacf9e	-0.45861524
43	0x3e30debc	0.17272466
44	0x3e97a8ae	0.2962088
45	0xbf02ba76	-0.51065767
46	0xbf25db92	-0.6478816
47	0xbf1e7f81	-0.61913306
48	0xbd2ae204	-0.04171945
49	0x3e956e69	0.291858
50	0x3db281fb	0.08716198
51	0x3e91fd02	0.28513342
52	0x3f0557b5	0.52086955
53	0xbe5adfd6	-0.21374449
54	0xbfa715a3	-1.3053478
55	0xbef1c7d3	-0.47222766
56	0xbedf160f	-0.43571517
57	0x3b47556b	0.0030415903
58	0xbe9819b4	-0.2970711
59	0x3eb4e169	0.35328224
60	0xbe03fc0e	-0.1288912
61	0xbde78731	-0.113050826
62	0x3f0c7a03	0.54873675
63	0xbd9ffe44	-0.07812169
64	0x3e8eea63	0.27913198
65	0xbc455028	-0.0120430365
66	0x3e12cd70	0.1433618
67	0x3ec3c155	0.38233438
68	0xbdaf04c4	-0.08545831
69	0x3f107f80	0.5644455
70	0x3ea572ac	0.3231405
71	0xbe377516	-0.17915758
72	0xbe0a9581	-0.13533594
73	0x3e7649a0	0.24051523
74	0xbe756b91	-0.23966815
75	0xbe081995	-0.13291009
76	0x3de07488	0.109597266
77	0xbf09d0b5	-0.53834087
78	0xbecbe11d	-0.39820185
79	0xbeb77a92	-0.358357
80	0xbe05d684	-0.13070112
81	0xbd93c554	-0.07215372
82	0xbc84c891	-0.016208919
83	0xbea5b099	-0.32361296
84	0x3e56a9e3	0.20963244
85	0x3ba4ffe6	0.0050353883
86	0xbcd5c9b3	-0.026097154
87	0xbd568934	-0.05237694
88	0xbe80955a	-0.25113946
89	0xbe7c860a	-0.24660507
90	0x3eebf8f1	0.46088365
91	0xbf047569	-0.51741654
92	0xbd684c31	-0.056713287
93	0xbe09bfa8	-0.13452017
94	0xbe479c56	-0.19493231
95	0x3df46912	0.11934103
96	0x3e1f14b5	0.15535243
97	0x3cc61f16	0.024184745
98	0x3ed593b6	0.41714257
99	0x3d1b32e9	0.03789035
100	0xbe3c9a7f	-0.1841831
101	0xbe978ae5	-0.29598156
102	0x3e7f3eb3	0.24926262
103	0xbe84f98a	-0.25971633
104	0x3f1e0865	0.6173156
105	0x3f0065ff	0.50155634
106	0xbecf5cf0	-0.40500593
107	0xbe79f62a	-0.2441031
108	0xbdd07758	-0.10179013
109	0xbf09436b	-0.53618497
110	0x3e9c6011	0.30542043
111	0xbe504950	-0.20340466
112	0x3e83c79c	0.25738227
113	0x3d718b1e	0.058970563
114	0xbe8ffcba	-0.28122503
115	0x3efb1181	0.49036792
116	0x3efa28a3	0.48859128
117	0xbdfc1416	-0.123085186
118	0x3dc40798	0.09571761
119	0x3ee67d4d	0.45017472
120	0xbe50aca1	-0.20378353
121	0x3d0847bd	0.03327154
122	0xbe66b0f7	-0.22528444
123	0x3e9d41c2	0.30714232
124	0xbe4f9f19	-0.20275535
125	0x3e8bf5e7	0.27336046
126	0x3e30862a	0.1723868
127	0x3ede4df5	0.43418851
128	0x3e8d5351	0.27602628
129	0xbe5423ed	-0.2071683
130	0xbec1ab67	-0.37826082
131	0x3f548a40	0.8302345
132	0x3eefdd92	0.46848732
133	0xbe2c0338	-0.16798103
134	0x3eb025f9	0.3440397
135	0xbdaff05e	-0.08590768
136	0x3ea4f855	0.32220712
137	0xbe50ee5a	-0.20403424
138	0x3b86f03b	0.004117993
139	0x3d06a5d6	0.032872997
140	0x3f0574b1	0.5213118
141	0xbe121c92	-0.14268711
142	0xbd292282	-0.041292675
143	0xbe52d233	-0.20587997
144	0x3da4e06a	0.08050616
145	0xbe745a22	-0.23862508
146	0xbefbea4c	-0.49202192
147	0x3f1f2696	0.6216825
148	0x3d8613d0	0.06546748
149	0x3f26f29e	0.65213954
150	0x3d52825e	0.05139386
151	0x3d884311	0.06653417
152	0x3dff0dea	0.12453826
153	0x3e77db19	0.24204673
154	0xbeaadb84	-0.33370602
155	0xbe10ee56	-0.14153418
156	0xbd9ba2b0	-0.075993896
157	0xbf1e179c	-0.61754775
158	0xbe179dce	-0.14806291
159	0xbf3a5f33	-0.7280151
160	0xbe88ad19	-0.26694563
161	0x3ed41234	0.41420138
162	0xbe3c524e	-0.18390772
163	0xbec6ef1a	-0.38854295
164	0x3d83a307	0.064275794
165	0x3ecd41f4	0.4008938
166	0xbda9c1d7	-0.08288925
167	0x3da942f2	0.08264722
168	0x3e425f0f	0.18981574
169	0xbf02407c	-0.50879645
170	0xbe589557	-0.21150719
171	0xbd38168a	-0.04494337
172	0xbc9a78db	-0.018856457
173	0x3ed61eaa	0.4182027
174	0xbe3d7543	-0.18501763
175	0xbe49431a	-0.19654503
176	0x3f237a14	0.6385815
177	0xbe809857	-0.25116226
178	0x3d5e8658	0.05432734
179	0xbeeeaec9	-0.46617725
180	0x3ef423ac	0.47683465
181	0xbd2a104b	-0.041519444
182	0x3ed75d47	0.42063352
183	0x3ed2045d	0.41018954
184	0x3e6276a7	0.22115575
185	0x3e98858b	0.29789385
186	0x3ec3ebd9	0.38265875
187	0x3ebfedb8	0.37486053
188	0xbf18d2c5	-0.5969661
189	0xbe2b0fe1	-0.16705276
190	0x3e7bca01	0.24588777
191	0x3e740050	0.23828244
192	0xbc337ffa	-0.010955805
193	0x3df14f1f	0.11782669
194	0xbec915a8	-0.39274335
195	0x3ed007d7	0.4063098
196	0xbdf6cb1e	-0.1205046
197	0x3dacf33e	0.08444832
198	0xbe76b9fd	-0.24094386
199	0xbc2d6eee	-0.01058553
200	0x3d9d0ada	0.076680854
201	0x3e22bed3	0.15893106
202	0xbf13eda1	-0.5778447
203	0x3de4df39	0.11175389
204	0xbec72089	-0.3889201
205	0x3ea95610	0.33073473
206	0xbf039886	-0.5140461
207	0xbf1e49f3	-0.6183159
208	0x3e211394	0.15730125
209	0xbee999a4	-0.4562503
210	0x3ebe8060	0.37207317
211	0x3e97cd8f	0.29649016
212	0x3e7878bd	0.24264808
213	0x3e15eba3	0.1464067
214	0xbebed7d2	-0.37274033
215	0xbef55568	-0.47916722
216	0xbe8c6602	-0.27421576
217	0x3edb6124	0.4284755
218	0x3ea95bd0	0.3307786
219	0xbd89aa60	-0.067219496
220	0x3e8026f9	0.25029734
221	0xbebacb1c	-0.36483085
222	0x3e961883	0.29315576
223	0xbc9ea6df	-0.01936668
224	0xbecd628d	-0.4011425
225	0xbefd764f	-0.49504325
226	0xbe4f4067	-0.20239411
227	0xbe96737a	-0.29384977
228	0x3ebea939	0.37238482
229	0x3d935da8	0.07195598
230	0xbd8da6d5	-0.06916586
231	0xbda66a76	-0.081257746
232	0xbdabf05e	-0.08395456
233	0x3ef57f26	0.4794857
234	0x3ee3cb45	0.4449102
235	0x3eede363	0.46462545
236	0x3ef666b9	0.48125246
237	0x3f1229ba	0.5709492
238	0xbd5297f6	-0.051414452
239	0x3ecd56fa	0.4010542
240	0xbed3e4c2	-0.41385466
241	0xbe883c48	-0.2660849
242	0x3efd94e1	0.49527648
243	0xbd0b0f44	-0.033950105
244	0xbe95df42	-0.29271895
245	0xbdaf6e7b	-0.08565994
246	0xbf277a5c	-0.6542108
247	0x3ebc73ba	0.36807042
248	0xbe8e5ad5	-0.27803674
249	0x3ea971ce	0.3309464
250	0xbe730003	-0.23730473
251	0xbe031270	-0.12800002
252	0xbe03eb09	-0.12882628
253	0xbf252d2c	-0.6452205
254	0x3f411996	0.75429666
255	0x3e01a3cd	0.12660141

decoder.dec2.bias f4 [39]
0	0xbc5c0904	-0.013429884
1	0xbd5fc847	-0.05463436
2	0x3e0eeb61	0.13956977
3	0xbd8d10b4	-0.068879515
4	0xbce3514a	-0.027748723
5	0xbdf93675	-0.1216859
6	0xbbfa048b	-0.007629936
7	0x3d015e41	0.03158403
8	0x3dda1a42	0.106495395
9	0x3bb02f35	0.0053767213
10	0xbd1ed0d6	-0.03877338
11	0x3db387db	0.08766147
12	0xbdc30479	-0.095223375
13	0xbba147b8	-0.0049218796
14	0xbb911a72	-0.0044282014
15	0xbcadf5e8	-0.021235421
16	0xbb468fd4	-0.003029813
17	0xbd6ef8cb	-0.058342736
18	0x3d68dd7e	0.056851856
19	0x3b5fd7e5	0.0034155783
20	0x3d938175	0.07202426
21	0xbcb8e5b2	-0.022570465
22	0xbd882713	-0.06648078
23	0xbd85f18f	-0.06540214
24	0xbd17cb1e	-0.037058942
25	0xbbe24084	-0.0069046635
26	0xbe01a9b7	-0.12662397
27	0x3d13d014	0.03608711
28	0x3c29f09c	0.010372307
29	0x3c8f301c	0.017478995
30	0x3d1a6f19	0.037703607
31	0xbdef6ae3	-0.11690309
32	0xbd8a47c6	-0.06751971
33	0xbd596f54	-0.053084686
34	0x3d1e74e4	0.038685694
35	0x3d9f8a23	0.07790019
36	0xbd7512cd	-0.059832383
37	0xbdb3c85a	-0.087784484
38	0x3cad8fde	0.021186765

decoder.dec3.weight f4 [58, 39]
0	0xbf358cd1	-0.70917994
1	0x3ee10725	0.43950763
2	0x3eeb6b7b	0.4598044
3	0xbea0c3a9	-0.31399277
4	0xbe948dc6	-0.29014415
5	0x3f2b6ffe	0.6696776
6	0x3ed530f9	0.41638926
7	0xbc853f64	-0.016265579
8	0x3eca749b	0.39542088
9	0xbe1190d9	-0.14215411
10	0xbeb4fa7a	-0.35347348
11	0x3e9daae0	0.3079443
12	0x3c5faca0	0.013651997
13	0x3e8ec1f5	0.27882352
14	0x3e04b1f9	0.12958516
15	0x3eb6b27f	0.35683057
16	0x3e7bfb24	0.24607521
17	0x3ebacbd5	0.36483636
18	0x3e83357e	0.2562675
19	0x3e8bc30f	0.27297255
20	0xbf00fc4a	-0.5038496
21	0xbe213caf	-0.15745805
22	0xbebb3ce2	-0.36569887
23	0xbdef41ab	-0.11682447
24	0xbe984162	-0.29737383
25	0x3eae4e17	0.34043953
26	0xbe8db6e9	-0.27678612
27	0x3e8567d7	0.26055786
28	0x3e916618	0.28398204
29	0x3e4ca211	0.19983698
30	0xbdf011e0	-0.117221594
31	0xbe1b1387	-0.15144168
32	0x3e32b9c5	0.17453678
33	0x3e9d70d1	0.30750135
34	0xbdf949a8	-0.12172252
35	0xbe97c274	-0.29640543
36	0x3ecfc4a0	0.405797
37	0x3e81530c	0.25258672
38	0x3e3327f8	0.17495716
39	0x3954c4c2	0.00020291194
40	0x3c4dca0a	0.012560377
41	0xbdb012ca	-0.08597334
42	0x3eb6f337	0.35732433
43	0x3e98a71c	0.29814994
44	0x3e8ddae4	0.27706063
45	0x3e14a59a	0.14516297
46	0xbd0b0a7f	-0.033945557
47	0xbdd2987d	-0.10282991
48	0xbdad5981	-0.08464337
49	0xbd3815ff	-0.044942852
50	0xbd94e548	-0.072702944
51	0xbe23bb8c	-0.15989512
52	0x3e4e3791	0.20138384
53	0x3d850d7c	0.064967126
54	0x3d521dc8	0.051297933
55	0x3e9573b9	0.29189852
56	0xbec62541	-0.38700297
57	0xbd4aa1db	-0.049470764
58	0x3ec63dd5	0.3871905
59	0xbeaa5fe3	-0.3327628
60	0x3dba32de	0.090917334
61	0x3e3df03a	0.1854867
62	0xbe51926f	-0.20466016
63	0x3e5fdcf7	0.21861635
64	0x3ecdd251	0.4019952
65	0xbea2a6fb	-0.3176802
66	0xbcec0bc1	-0.028814198
67	0xbddc9973	-0.107714556
68	0x3d869454	0.0657126
69	0xbdcdbb19	-0.10045452
70	0xbe6f7eb1	-0.23388173
71	0xbd991403	-0.0747452
72	0x3e495af6	0.19663605
73	0xbddd0e04	-0.10793689
74	0x3dc850bc	0.09781024
75	0xbe9f0758	-0.3106029
76	0x3ea4e504	0.32205975
77	0x3baff537	0.005369808
78	0xbda8bb15	-0.08238808
79	0x3dbf61f9	0.09344859
80	0x3e0de10f	0.13855384
81	0x3ecb6fb7	0.3973367
82	0xbd8e3c65	-0.06945113
83	0x3e62a055	0.22131474
84	0xbd6e7cb8	-0.05822441
85	0x3e4288dd	0.18997522
86	0xbeea0673	-0.45708045
87	0xbe905736	-0.28191537
88	0xbb98313a	-0.00464454
89	0x3e40ed27	0.18840466
90	0xbd7d1281	-0.061785225
91	0x3de7802e	0.11303745
92	0xbc83e992	-0.016102586
93	0x3d1eed55	0.038800556
94	0xbecb38f9	-0.39691904
95	0x3e87e7db	0.2654408
96	0xbe89355f	-0.2679853
97	0x3ec4cde5	0.38438335
98	0xbe51d6bf	-0.20492075
99	0x3ebb6dbf	0.36607167
100	0x3eb8cc44	0.36093342
101	0x3e5d1105	0.21588524
102	0xbe9f2eee	-0.31090492
103	0x3f06c3ed	0.5264271
104	0xbe66508e	-0.22491667
105	0x3e803ceb	0.25046477
106	0x3e9b22f1	0.30300096
107	0xbec59748	-0.3859198
108	0x3e2d663b	0.16933529
109	0xbe40fc64	-0.1884628
110	0x3db0597e	0.08610819
111	0x3e8585f6	0.26078767
112	0xbe417d71	-0.18895508
113	0xbde95a60	-0.11394191
114	0x3d9e211f	0.07721161
115	0x3eaa4b13	0.33260402
116	0x3e1c175d	0.15243287
117	0xbdf651fe	-0.120273575
118	0x3e0be6b6	0.13662228
119	0x3f040390	0.51567936
120	0xbe8404ab	-0.2578481
121	0x3eaddc5f	0.33957192
122	0xbe66a553	-0.22524004
123	0x3d44dc88	0.048061877
124	0x3eb48547	0.35257933
125	0xbe066373	-0.13123874
126	0xbe04566f	-0.12923597
127	0x3eba226f	0.36354396
128	0x3c76156b	0.015019755
129	0x3cf8b16e	0.030358043
130	0x3dc8e703	0.09809687
131	0xbe8a2d6c	-0.2698778
132	0xbcdd4c49	-0.027013915
133	0xbeacdf45	-0.3376409
134	0xbf29db82	-0.6635057
135	0xbe2027af	-0.15640138
136	0xbcb2f3d6	-0.021844786
137	0x3d9159fc	0.07097241
138	0x3edc8a19	0.4307411
139	0x3d16fc3f	0.036861654
140	0xbb8736a2	-0.004126386
141	0x3e2940a0	0.16528559
142	0x3e20116d	0.15631647
143	0xbe8f9c68	-0.28049016
144	0x3e2a0afd	0.16605754
145	0x3e7f836c	0.24952477
146	0x3ee301ca	0.44337302
147	0xbb6bb4f3	-0.0035966008
148	0x3cdfc02f	0.02731332
149	0x3d619adc	0.055079326
150	0x3e8f3c5d	0.2797574
151	0xbe0e94b0	-0.13923907
152	0x3cf6882a	0.030094225
153	0x3d70ced3	0.058790993
154	0xbe670a24	-0.22562462
155	0xbe04b168	-0.129583
156	0xbe877eb5	-0.26463857
157	0x3e428869	0.18997349
158	0x3e11cba9	0.14237846
159	0xbed1205a	-0.40844995
160	0xbec2e84b	-0.3806785
161	0x3e4bad3c	0.19890302
162	0x3ec9d5c0	0.3942089
163	0x3f01b742	0.50670254
164	0x3e2d76b2	0.1693981
165	0xbe28fd7e	-0.1650295
166	0x3cc1d0c3	0.023659116
167	0xbdf40491	-0.119149335
168	0x3e1814d6	0.14851698
169	0x3e2a559c	0.1663422
170	0xbf01a9ea	-0.50649893
171	0xbcee80ed	-0.029114211
172	0xbd04a316	-0.032382093
173	0x3e8368c6	0.25665873
174	0x3e990b87	0.29891607
175	0xbe4104e9	-0.1884953
176	0x3dda43a5	0.106574334
177	0xbf287e6b	-0.658179
178	0x3e772deb	0.2413861
179	0xbd7db136	-0.06193658
180	0x3f1fb609	0.6238714
181	0x3dec6437	0.11542552
182	0xbd9c9b69	-0.0764683
183	0xbf16af74	-0.5886147
184	0x3e352b23	0.17692237
185	0xbe80a7d7	-0.25128052
186	0xbd1fc545	-0.03900649
187	0xbd8e68cd	-0.06953583
188	0xbf494e4b	-0.7863509
189	0xbe84d44f	-0.2594323
190	0xbd5aeb61	-0.05344713
191	0xbdc1ceeb	-0.094632946
192	0xbeaadcc2	-0.3337155
193	0x3e95a50c	0.29227483
194	0xbf8e6a72	-1.1126235
195	0x3d0d0572	0.03442902
196	0x3cfc3974	0.030789115
197	0xbe72ebfc	-0.23722833
198	0xbc864ac2	-0.01639307
199	0x3e6ba8b0	0.23013568
200	0x3cb6a3a5	0.022294829
201	0xbefacf31	-0.489862
202	0xbe432909	-0.19058622
203	0x3e75ac30	0.23991466
204	0x3eb1bd2e	0.34714645
205	0x3c3615d2	0.011113601
206	0x3e81524c	0.252581
207	0x3e8e55e8	0.27799916
208	0xbe2862d0	-0.16443944
209	0x3f1fc1ba	0.6240498
210	0x3cc87fcf	0.024475006
211	0xbe6457a1	-0.22299053
212	0x3f48e5b2	0.7847549
213	0x3def093a	0.11671682
214	0xbf25a9b3	-0.64712065
215	0xbe102b85	-0.14079101
216	0xbe14ac47	-0.14518844
217	0xbe3a7ee0	-0.18212461
218	0x3ebe50df	0.37171075
219	0xbe4fdaac	-0.2029826
220	0x3e94c62f	0.29057452
221	0x3d709e51	0.058744732
222	0x3e18478b	0.14871041
223	0xbdc76104	-0.09735301
224	0x3e810620	0.25199986
225	0xbe2952f1	-0.16535546
226	0x3e16290a	0.14664093
227	0x3eab6357	0.33474228
228	0x3dbb5806	0.091476485
229	0xbe98c4ec	-0.2983774
230	0x3d26866d	0.040655542
231	0xbe24d0c5	-0.16095264
232	0xbdeb88ca	-0.115007
233	0x3e58694c	0.21133918
234	0x3f29fa41	0.6639748
235	0x3e4eb878	0.20187557
236	0xbed0412e	-0.40674728
237	0x3ec69bd7	0.3879077
238	0xbdb3a178	-0.08771032
239	0xbdfc49f9	-0.12318797
240	0x3d2dbc53	0.042415928
241	0x3ecba139	0.3977144
242	0xbd8077f3	-0.062728785
243	0xbea710e2	-0.32630068
244	0xbd7f12a8	-0.06227365
245	0x3bcfc865	0.0063410276
246	0x3eb5aa64	0.3548156
247	0xbefef635	-0.49797216
248	0xbf069897	-0.52576584
249	0xbdab4e36	-0.08364527
250	0x3e9bb416	0.30410832
251	0x3e20966b	0.1568238
252	0xbe984343	-0.29738817
253	0x3e000e4c	0.12505454
254	0xbe0876bc	-0.13326544
255	0x3db73f6f	0.08947646

decoder.dec3.bias f4 [58]
0	0xbd24dde0	-0.04025066
1	0x3d72247e	0.059116833
2	0xbcc5e6eb	-0.024157962
3	0x3c45ae7b	0.012065525
4	0x3d8d9647	0.06913429
5	0xbd17c9cc	-0.037057683
6	0x3b8495ea	0.0040461915
7	0x3d97fe2f	0.074215285
8	0x3d9c8dd5	0.0764424
9	0xbbccebca	-0.006253694
10	0xbc543fe2	-0.012954684
11	0xbcb7eaaf	-0.022450773
12	0x3de37fc7	0.11108356
13	0xbd7a6199	-0.061128233
14	0xbcb273fd	-0.021783823
15	0x3d7c7791	0.061637465
16	0xbd909f58	-0.070616424
17	0x3d4ed5a2	0.050496705
18	0xbd77c556	-0.06049093
19	0x3e088fba	0.13336077
20	0xbc81d8d5	-0.015850464
21	0x3dd2c8e9	0.10292227
22	0xbcb3ba9b	-0.021939566
23	0xbd9b6218	-0.07587069
24	0x3de7d362	0.11319615
25	0xbb89734f	-0.004194654
26	0xbcf9a77f	-0.030475376
27	0x3d060e62	0.03272856
28	0xbcea6b5c	-0.028615646
29	0xbd7953a5	-0.060870785
30	0x3d0bbe06	0.034116767
31	0xbca58e60	-0.020209491
32	0xbcd3a0d6	-0.025833528
33	0x3d8d70cb	0.06906279
34	0xbd6f7ec8	-0.058470517
35	0x3cea9496	0.028635304
36	0x3e0c3177	0.13690744
37	0xbcef4a0c	-0.029210113
38	0x3d649516	0.055806242
39	0xbdb30ff7	-0.087432794
40	0xbc0e27bf	-0.008676468
41	0x3d07321f	0.033006784
42	0x3d8a39e3	0.06749322
43	0x3ae41ecb	0.0017404197
44	0x3d6de919	0.058083627
45	0x3c94c5ff	0.018160818
46	0xbdcdd30e	-0.10050021
47	0xbd088ad0	-0.033335507
48	0x3e169e03	0.14708714
49	0xbd7f7118	-0.062363714
50	0x3dc79569	0.097452946
51	0x3adadc85	0.00166978
52	0x3c40acb8	0.011759929
53	0xbd520c08	-0.051281005
54	0xbe2fd30b	-0.1717035
55	0xbcaaf730	-0.020869821
56	0x3dc0e92f	0.09419476
57	0xbd845484	-0.064614326
