IDS_TA/initial_Models/CADE-m5.0-l0.001.pth (torch, 67994 bytes, 16 tensors)

encoder.enc1.weight f4 [58, 78]
-0.0015444601 0.21345527 -0.13911594 -0.024175832 0.18202376 -0.23683088 -0.099599816 0.10861184
0.03583114 0.15054828 0.10509907 0.031021923 0.016241094 -0.00060604856 -0.20106035 -0.16320549
0.17074522 0.22723617 0.15192722 -0.026511148 -0.100285545 0.04493839 0.12332593 0.16651565
0.24848492 -0.05872407 0.059600715 -0.11964207 0.104360744 0.12795146 0.09532834 -0.15296102
-0.026204586 0.011371587 -0.21229647 0.10693363 -0.22120202 0.10793578 -0.06502019 -0.15645827
0.01400612 -0.1343489 -0.27425316 0.15677243 0.19896625 0.033635575 0.060148016 -0.43737316
-0.10272514 0.17654084 -0.10526628 0.084660806 -0.014390326 0.10445726 0.0057979664 -0.12593628
0.046445567 0.41824958 -0.12126579 -0.122022696 0.16283754 -0.11074545 -0.08818675 0.18944833
-0.056708477 -0.058008566 0.121299535 0.15522446 0.1518227 0.24475089 0.14652139 -0.18505315
-0.08053782 -0.07733812 -0.06914795 0.068760544 0.28054887 0.24741383 0.061881848 0.26667058
0.13799125 0.10171804 -0.03321455 -0.03380538 0.10330978 -0.2985478 -0.13099283 -0.050758556
0.102016054 0.01813089 0.034706548 0.046841715 0.11868463 -0.050683998 0.21593519 0.025300782
-0.11361158 0.07856559 -0.09015026 -0.035569366 -0.008516411 0.09296893 -0.023151565 0.12404114
0.26427728 -0.09605876 -0.15498987 -0.14288801 0.07909834 -0.04950992 0.14958033 -0.038235698
-0.16799591 -0.050100192 -0.13476655 -0.12348398 0.10151966 -0.21586879 0.10464115 0.049772345
-0.15992256 0.060120687 0.27317747 0.18707913 0.12525873 -0.017034894 -0.11095226 0.029500764
-0.1797001 0.0058371574 -0.13735092 0.14594951 0.20256922 0.078519784 0.24868482 0.28525662
-0.018993715 0.13875099 -0.028805567 -0.05434397 -0.08948143 0.014406322 -0.13478827 0.05855254
-0.12288183 0.06127794 -0.083374485 -0.2027654 -0.08089516 0.06854654 0.012087659 -0.03342636
0.23976171 -0.11295538 0.060245275 0.13408099 -0.03760782 -0.07786314 0.26424256 0.09520983
-0.30710945 0.1192935 0.075525776 0.04485363 -0.10093774 -0.07868005 -0.034171008 -0.007653605
0.027780166 0.087801546 0.035122592 0.051320855 -0.13365662 -0.070379734 0.1146253 0.21801119
-0.118037835 -0.052731622 0.06627769 -0.19103034 0.15102209 -0.028926572 -0.032221533 0.107215635
-0.17014582 -0.084254846 -0.07727756 -0.23950875 0.06245008 0.2543145 0.019042566 0.07417212
0.18993053 0.08687808 0.15729669 0.032878578 -0.02803221 -0.06330835 0.13206711 0.044610467
0.085524075 -0.11215308 0.16615234 -0.18111816 -0.18390737 -0.0692141 0.17963433 -0.04858098
-0.06256663 0.20767355 -0.18756089 -0.03931215 0.052592892 0.33262128 -0.028566217 -0.19041505
-0.042112045 -0.0072611305 -0.18142681 -0.09190051 -0.084190674 -0.007865532 -0.024407154 0.15938671
0.1494531 0.005827762 -0.14133692 -0.02350406 0.13472432 -0.12952538 0.27452686 0.0014482558
-0.05427296 -0.11239582 0.18291162 -0.25091237 -0.11561087 -0.11338321 -0.0664974 0.12901272
0.25130972 0.049292754 0.12653117 -0.07866151 -0.1829972 -0.06295442 0.33959118 0.25989184
-0.3762097 -0.14439152 0.16864364 0.07487126 -0.14458515 -0.02138381 -0.29410508 -0.20595208
00000000: 7b6f caba 0594 5a3e 6974 0ebe 650c c6bc
00000010: 7064 3a3e cb83 72be fdfa cbbd e26f de3d
00000020: acc3 123d 5429 1a3e 2e3e d73d b021 fe3c
00000030: 0b0c 853c 3bdf 1eba c4e2 4dbe 571f 27be
00000040: d6d7 2e3e 99b0 683e cf92 1b3e e82d d9bc
00000050: 8262 cdbd 5111 383d 4e92 fc3d 1483 2a3e
00000060: d572 7e3e a788 70bd e11f 743d e706 f5bd
00000070: 16bb d53d b505 033e 813b c33d d0a1 1cbe
00000080: 00ab d6bc e54f 3a3c 3f64 59be 0500 db3d
00000090: c882 62be 6f0d dd3d 4e29 85bd 9936 20be
000000a0: ed79 653c c292 09be e96a 8cbe f488 203e
000000b0: cfbd 4b3e 75c5 093d c45d 763d 60ef dfbe
000000c0: 8f61 d2bd 1fc7 343e d995 d7bd a562 ad3d
000000d0: 67c5 6bbc b0ed d53d defc bd3b 71f5 00be
000000e0: b53d 3e3d cf24 d63e 335a f8bd 09e7 f9bd
000000f0: e2be 263e 83ce e2bd 419b b4bd befe 413e
00000100: 2647 68bd 649a 6dbd e46b f83d 29f3 1e3e
00000110: 6977 1b3e fa9f 7a3e b409 163e 937e 3dbe
00000120: 03f1 a4bd 7363 9ebd 719d 8dbd 54d2 8c3d
00000130: 1aa4 8f3e 0d5a 7d3e d277 7d3d 0c89 883e
00000140: 944d 0d3e 8c51 d03d fb0b 08bd 8377 0abd
00000150: 1494 d33d 42db 98be fc22 06be 34e8 4fbd
00000160: cbed d03d 3b87 943c 7428 0e3d 19dd 3f3d
00000170: ed10 f33d 069a 4fbd 1d1e 5d3e 9643 cf3c
00000180: 30ad e8bd ffe6 a03d b3a0 b8bd 2fb1 11bd
00000190: 6b88 0bbc 7f66 be3d 5aa8 bdbc 4809 fe3d
000001a0: 5a4f 873e 75ba c4bd aab5 1ebe 3c51 12be
000001b0: 4ffe a13d eaca 4abd 962b 193e 099d 1cbd
000001c0: 1f07 2cbe dc35 4dbd 3e00 0abe 2be5 fcbd
000001d0: 8ae9 cf3d b50c 5dbe 194e d63d 16de 4b3d
000001e0: bdc2 23be 1c41 763d ebdd 8b3e ac91 3f3e
000001f0: d343 003e c38c 8bbc f03a e3bd 96ab f13c
00000200: 4e03 38be a045 bf3b b8a5 0cbe ca73 153e
00000210: 4e6e 4f3e fbce a03d 3ca7 7e3e 280d 923e
00000220: b598 9bbc bd14 0e3e a7f9 ebbc c897 5ebd
00000230: 0a42 b7bd 7e08 6c3c f005 0abe cad4 6f3d
00000240: 78a9 fbbd 94fe 7a3d 3ec0 aabd bca1 4fbe
00000250: 5dac a5bd 2162 8c3d 510b 463c 14ea 08bd
00000260: 1884 753e 2655 e7bd c0c3 763d 874c 093e
00000270: a80a 1abd b676 9fbd cd4a 873e 5ffd c23d
00000280: 733d 9dbe 2750 f43d 42ad 9a3d 71b8 373d
00000290: 72b8 cebd 0223 a1bd e6f6 0bbd 18cb fabb
000002a0: 3b93 e33c 4cd1 b33d b5dc 0f3d d135 523d
000002b0: 48dd 08be 4023 90bd abc0 ea3d 533e 5f3e
000002c0: d2bd f1bd 1dfd 57bd 99bc 873d 759d 43be
000002d0: 89a5 1a3e 6bf7 ecbc bafa 03bd df93 db3d
000002e0: b53a 2ebe ce8d acbd b343 9ebd c841 75be
000002f0: a8cb 7f3d 8335 823e 28ff 9b3c 8de7 973d
00000300: 267d 423e 23ed b13d 6212 213e b0ab 063d
00000310: cea3 e5bc cfa7 81bd 9a3c 073e 77b9 363d
00000320: 3f27 af3d 84b0 e5bd d723 2a3e 0a77 39be
00000330: 3752 3cbe 1fc0 8dbd 10f2 373e dafc 46bd
00000340: ef22 80bd 60a8 543e f60f 40be c705 21bd
00000350: a56b 573d 564d aa3e b303 eabc 2afc 42be
00000360: ae7d 2cbd c7ee edbb f3c7 39be 5636 bcbd
00000370: 296c acbd 6fde 00bc 83f1 c7bc 4536 233e
00000380: 3c0a 193e d0f6 be3b a0ba 10be 968b c0bc
00000390: 2cf5 093e 4da2 04be c98e 8c3e 67d3 bd3a
000003a0: 534d 5ebd c82f e6bd 2f4d 3b3e 9677 80be
000003b0: 64c5 ecbd 7535 e8bd ca2f 88bd e91b 043e
000003c0: abab 803e 33e7 493d 6391 013e 4919 a1bd
000003d0: 9e63 3bbe 3fee 80bd e5de ad3e 8b10 853e
000003e0: 8f9e c0be 5fdb 13be ebb0 2c3e 1a56 993d
000003f0: 210e 14be 1a2d afbc f194 96be 1ae5 52be

encoder.enc1.bias f4 [58]
0.016018828 0.011914318 0.059735 -0.019098673 -0.014931857 0.02673692 0.10893779 0.02919501
-0.017043564 -0.067322195 0.05510519 0.1262962 -0.054936353 0.04934784 -0.0020455604 0.017980883
0.027663259 0.015207618 0.038063165 0.08798518 0.035134513 0.027624218 -0.043814678 -0.030878026
-0.007464728 0.080686025 -0.043099456 -0.07548521 0.23325753 -0.039810706 -0.0015929559 -0.0086048255
0.022790901 0.024204966 -0.008806293 0.021202335 -0.04914756 -0.026288597 -0.017270694 -0.02989028
-0.031388257 0.0037639253 -0.023716692 0.016640509 -0.018655928 0.026526457 -0.07785566 0.08798576
-0.024771493 -0.048887137 0.0010615225 -0.053781364 0.04743518 -0.012836444 0.043636046 0.0015738815
0.08283441 -0.0013628955
00000000: eb39 833c 4634 433c b0ac 743d d274 9cbc
00000010: bfa4 74bc 6307 db3c c71a df3d 602a ef3c
00000020: f29e 8bbc 38e0 89bd fbb5 613d cb53 013e
00000030: f104 61bd f620 4a3d cf0e 06bb a54c 933c
00000040: 0f9e e23c 5f29 793c 1fe8 1b3d 9331 b43d
00000050: 35e9 0f3d 2f4c e23c 0577 33bd eaf3 fcbc
00000060: ad9a f4bb b73e a53d 0e89 30bd fd97 9abd
00000070: 10db 6e3e 8d10 23bd bbca d0ba 41fb 0cbc
00000080: fcb3 ba3c 7e49 c63c 4548 10bc 85b0 ad3c
00000090: f44e 49bd 2f5b d7bc 457b 8dbc 76dc f4bc
000000a0: f990 00bd 30ac 763b 8249 c2bc ad51 883c
000000b0: 51d4 98bc 034e d93c ca72 9fbd e131 b43d
000000c0: 96ed cabc e13d 48bd c922 8b3a d949 5cbd
000000d0: 644b 423d f34f 52bc b6bb 323d b34a ce3a
000000e0: 16a5 a93d 2fa3 b2ba

encoder.enc2.weight f4 [39, 58]
0.02741735 -0.1555907 -0.22719416 0.13552998 0.00709344 0.24223183 0.0635871 -0.13321951
-0.33493304 -0.43958738 -0.14572279 0.21059844 -0.07179177 0.11432589 0.1213877 0.21323778
-0.23888971 0.07315032 -0.25799185 0.2509815 0.2233685 0.23577593 -0.009357437 -0.14957193
0.106794 0.24033166 -0.359803 0.1207594 0.32784155 0.22536194 0.22986268 -0.058947094
0.06043216 0.294851 0.23465495 0.22078528 0.40480456 0.18276562 0.095179014 0.26225188
0.15425749 0.005358797 -0.18315113 0.091000564 0.010344905 -0.28680933 -0.14748463 -0.22520323
0.07575382 -0.13169582 -0.2456851 -0.07232981 0.11536188 0.2478817 -0.09323343 -0.27424583
0.37120137 -0.054851122 0.023339503 0.044728458 -0.070199214 0.3438147 -0.20460919 0.07477345
0.24410672 0.09850484 -0.16822654 -0.1381407 0.05188136 -0.020076675 0.04773276 -0.18253459
-0.20049608 -0.1322614 0.19934043 0.002556505 -0.06804702 -0.07599642 -0.17078757 0.09147142
0.18459031 0.055652104 -0.03228662 -0.2489579 0.15430883 -0.1518545 0.01967159 0.089668125
0.2646854 0.20188166 0.2187213 0.21718378 -0.040330317 -0.29790246 -0.038916733 -0.27118975
-0.3107959 0.31607926 -0.15581173 -0.80643594 -0.2652474 -0.18907581 0.22943467 -0.24356835
0.25874156 0.06947188 0.06145285 0.14614882 0.070981935 -0.1402505 0.23113316 -0.15300804
-0.15214548 -0.1439174 0.008786748 -0.029008932 -0.07941783 0.18203506 0.20259497 -0.16434878
0.121268176 0.24509773 0.02371347 0.15662909 -0.019046277 -0.18876787 -0.33439448 0.12682994
-0.12588747 0.31600404 -0.21228707 -0.06635238 0.04043073 0.09928556 0.056030847 0.057253554
-0.19459587 0.109545596 0.232083 -0.26366094 0.013046308 -0.1315487 -0.21395454 0.0014624706
-0.094444446 -0.1366087 0.20046319 0.14827327 0.25122762 0.08547027 0.21587184 -0.11152055
0.32331857 0.27240393 0.12932703 0.11252448 0.062551044 0.16267824 0.08621597 0.08792908
-0.13468711 -0.15367506 -0.05201842 -0.012790895 -0.057668418 0.15536542 -0.25343344 -0.040048372
0.26281765 0.081658 -0.20184657 0.10559894 0.054784972 -0.09649006 0.028425163 0.21272783
0.14202482 -0.22998434 0.13238704 -0.069114074 -0.077617824 0.012402234 0.03518754 -0.034761693
0.30244547 0.2983068 0.16641752 0.06048122 0.17359272 0.07084461 0.1770298 0.23360364
0.13812722 -0.056498047 0.12461673 -0.18671939 -0.053511202 0.124821804 -0.0975033 0.035259448
0.0071706693 -0.25951463 -0.17242782 0.07591901 -0.33472523 -0.1548981 0.26395786 0.120105416
-0.07614643 -0.25530708 0.085286096 -0.06297084 -0.14970921 0.11514705 0.30787772 -0.1188138
0.016275732 -0.12368538 0.0672674 0.12083875 0.015043569 -0.19958343 -0.010443752 -0.003988192
0.087887436 0.260001 -0.09770586 0.029960172 -0.2458856 0.26106498 0.25950405 -0.10158329
0.12499026 -0.25896668 0.12516357 -0.13120936 0.065848626 0.056269642 -0.0805935 0.104454085
-0.09442574 0.21916023 0.10337616 -0.1785147 -0.2965873 -0.06336765 -0.09456238 0.04734933
0.28103358 0.0447459 0.13719481 -0.23914568 -0.5774504 -0.2819772 -0.3305337 0.24468462
00000000: 5a9a e03c 2b53 1fbe 96a5 68be 5fc8 0a3e
00000010: 1670 e83b 9f0b 783e f439 823d b26a 08be
00000020: 587c abbe 9911 e1be 5b38 15be 1ea7 573e
00000030: 9007 93bd b123 ea3d 1d9a f83d 015b 5a3e
00000040: 819f 74be d6cf 953d 8217 84be a680 803e
00000050: b6ba 643e 3f6f 713e ef4f 19bc 6229 19be
00000060: d0b6 da3d 8119 763e 1938 b8be b450 f73d
00000070: d9da a73e 48c5 663e 1f61 6b3e 8272 71bd
00000080: b687 773d b6f6 963e 6349 703e 8915 623e
00000090: 8b42 cf3e e926 3b3e 37ed c23d e145 863e
000000a0: adf5 1d3e d998 af3b f88b 3bbe 815e ba3d
000000b0: ad7d 293c acd8 92be 3606 17be ad9b 66be
000000c0: d224 9b3d 45db 06be e094 7bbe a721 94bd
000000d0: d942 ec3d b3d4 7d3e 2bf1 bebd f369 8cbe
000000e0: 1b0e be3e 92ab 60bd 7c32 bf3c 3035 373d
000000f0: 9bc4 8fbd 7b08 b03e 1285 51be d322 993d
00000100: 1df7 793e e8bc c93d 9443 2cbe c174 0dbe
00000110: 8d81 543d d777 a4bc 6d83 433d 59ea 3abe
00000120: d84e 4dbe 886f 07be e61f 4c3e 098b 273b
00000130: 3c5c 8bbd 03a4 9bbd f0e2 2ebe 5e55 bb3d
00000140: 3e05 3d3e 76f3 633d fa3e 04bd d2ee 7ebe
00000150: 2203 1e3e bf7f 1bbe 5026 a13c eca3 b73d
00000160: d884 873e 11ba 4e3e 7af8 5f3e 6d65 5e3e
00000170: 6731 25bd ac86 98be 2767 1fbd 62d9 8abe
00000180: a420 9fbe 24d5 a13e 1c8d 1fbe 9672 4ebf
00000190: 82ce 87be 179d 41be ecf0 6a3e fb69 79be
000001a0: c679 843e 4647 8e3d fcb5 7b3d 09a8 153e
000001b0: fa5e 913d d49d 0fbe 2cae 6c3e 24ae 1cbe
000001c0: 06cc 1bbe 155f 13be 4bf6 0f3c 24a4 edbc
000001d0: d1a5 a2bd 6667 3a3e 0e75 4f3e 0c4b 28be
000001e0: 735b f83d e6fa 7a3e c042 c23c 6063 203e
000001f0: f006 9cbc 5d4c 41be c135 abbe b5df 013e
00000200: a5e8 00be 48cb a13e c861 59be c2e3 87bd
00000210: b19a 253d 3a56 cb3d 9a80 653d b482 6a3d
00000220: 2444 47be 7159 e03d 2aa7 6d3e 91fe 86be
00000230: 2fc0 553c b4b4 06be e616 5bbe 5fb0 bf3a
00000240: 176c c1bd 27e3 0bbe 3946 4d3e f3d4 173e
00000250: e8a0 803e 090b af3d 820d 5d3e e364 e4bd
00000260: 038a a53e 8778 8b3e 4e6e 043e 3c73 e63d
00000270: c31a 803d 2095 263e 0092 b03d 2914 b43d
00000280: 6beb 09be ff5c 1dbe 4411 55bd e790 51bc
00000290: b835 6cbd 1d18 1f3e 07c2 81be c309 24bd
000002a0: 0990 863e 4f3c a73d deb0 4ebe 4244 d83d
000002b0: 3566 603d 959c c5bd e3db e83c 53d5 593e
000002c0: f46e 113e 0481 6bbe 7890 073e ae8b 8dbd
000002d0: 18f6 9ebd bd32 4b3c cf20 103d 4762 0ebd
000002e0: 22da 9a3e abbb 983e 5b69 2a3e 28bb 773d
000002f0: 4ac2 313e fb16 913d 4d47 353e cb35 6f3e
00000300: 3971 0d3e 7f6a 67bd 0e37 ff3d 5e33 3fbe
00000310: 902e 5bbd 93a2 ff3d cfaf c7bd 366c 103d
00000320: eff7 ea3b 1adf 84be eb90 30be 6d7b 9b3d
00000330: 1b61 abbe 9c9d 1ebe 7c25 873e d4f9 f53d
00000340: a9f2 9bbd 9cb7 82be 7aaa ae3d dbf6 80bd
00000350: 5f4d 19be 37d2 eb3d 26a2 9d3e a654 f3bd
00000360: af54 853c c34e fdbd 7ec3 893d 4e7a f73d
00000370: 4d79 763c 995f 4cbe 451c 2bbc 61af 82bb
00000380: 54fe b33d da1e 853e 031a c8bd 096f f53c
00000390: 6fc9 7bbe 4faa 853e b7dd 843e e60a d0bd
000003a0: e5fa ff3d 4897 84be e12a 003e bf5b 06be
000003b0: a5db 863d ff7a 663d 340e a5bd 06ec d53d
000003c0: 4862 c1bd 8a6b 603e e1b6 d33d 8fcc 36be
000003d0: 4ada 97be e6c6 81bd eca9 c1bd 5ff1 413d
000003e0: a2e3 8f3e 7a47 373d cc7c 0c3e 9be2 74be
000003f0: cad3 13bf 515f 90be b73b a9be 9b8e 7a3e

encoder.enc2.bias f4 [39]
-0.004237594 -0.005630939 0.0017293167 -0.012525058 -0.02713363 -0.013200753 -0.005713206 -0.027926207
-0.018383 -0.0009844464 0.0028597654 -0.02439004 0.049385846 0.01483446 0.019915985 -0.002640485
0.018851472 0.0031934008 0.03842982 -0.0112591535 0.12657496 0.008561018 0.03742352 0.058139008
0.028840937 0.005236755 0.005020467 -0.06424797 -0.0009980914 0.07274014 0.020289173 -0.01140619
0.030791968 -0.02227354 0.01674244 0.054602005 0.04364945 0.00044539923 -0.022088297
00000000: 84db 8abb bd83 b8bb 3daa e23a e735 4dbc
00000010: 5947 debc f947 58bc d835 bbbb 80c5 e4bc
00000020: f297 96bc 8a08 81ba e76a 3b3b 9fcd c7bc
00000030: d048 4a3d 3c0c 733c d926 a33c fd0b 2dbb
00000040: 676e 9a3c 6048 513b 9668 1d3d 5078 38bc
00000050: de9c 013e 8343 0c3c 6849 193d 2b23 6e3d
00000060: d443 ec3c 1699 ab3b bb82 a43b 7194 83bd
00000070: 64d2 82ba c8f8 943d 7b35 a63c 07e1 3abc
00000080: 703f fc3c 0077 b6bc 7127 893c 5aa6 5f3d
00000090: c4c9 323d 7984 e939 84f2 b4bc

encoder.enc3.weight f4 [19, 39]
-0.021667741 0.2920665 0.19195238 0.037244033 0.010159966 0.28170785 -0.09177224 -0.06926227
-0.15772448 0.3783745 -0.26071605 0.20042072 0.025474396 -0.09578352 -0.18703145 -0.2580305
-0.28932917 -0.10995382 0.26274917 0.29460415 0.08592718 0.2432242 -0.11941339 -0.41733178
-0.35398635 0.04276269 -0.1876556 -0.432997 0.19648151 0.24369895 -0.25971118 0.33570135
-0.08510715 0.12774096 -0.016674398 -0.052668456 0.27571267 0.07479809 -0.010350705 -0.034480598
0.09152751 -0.16592337 -0.14764945 -0.096607305 0.06072198 -0.20457542 -0.30842817 -0.28259373
-0.33406916 -0.20275389 -0.08260277 -0.09844061 0.27257767 -0.024527423 0.30383158 0.080266386
-0.34119943 0.3985949 0.08540296 0.3509888 0.38537672 -0.22057752 -0.22843567 -0.20738278
-0.38804737 0.22417219 -0.2907677 0.08385894 -0.2003605 -0.26546782 -0.3287896 -0.22438793
0.33227846 -0.022500651 0.31716835 0.33192515 0.12645277 0.16191006 0.017786227 -0.16660543
0.24924244 0.26333287 0.17849231 -0.49036968 -0.38848305 0.40411726 -0.08256144 0.20014413
0.16731045 0.13718277 0.24361162 -0.3213678 0.009900984 0.07701254 0.06600595 0.22265969
-0.1278874 0.25464538 -0.048230823 0.056723025 -0.110917136 0.2512869 0.034972154 0.30178237
0.0747754 0.046810083 -0.2405759 -0.33018962 -0.26589912 0.32826072 -0.055143498 -0.18815608
0.028367063 0.09630488 -0.22570252 0.58510137 0.090583794 -0.014859548 -0.08709459 0.11566937
-0.19938362 0.12940541 0.37186524 -0.20927338 -0.02098732 0.3692467 -0.06196127 -0.19628714
-0.12724933 -0.23103946 -0.01752989 0.046448532 -0.082981765 -0.23126964 -0.08363763 -0.18254404
-0.013668519 -0.3039076 -0.22761023 0.28479367 0.103869036 0.5483269 0.10423099 0.27258596
0.28474185 0.19302669 0.16719432 0.1386608 -0.17033528 0.2590065 -0.06838924 0.34856746
-0.40473428 -0.03390025 -0.0011984548 0.2450967 0.1648967 0.07914731 0.003850148 0.32631794
0.19748086 0.11230699 0.21185604 -0.2419224 0.30332136 0.15171845 0.20432006 0.024070803
-0.11094202 0.11119591 0.23120399 -0.01751055 0.15483834 0.048327114 -0.051760063 -0.17400105
-0.46489066 0.19612229 0.16990934 0.042502515 -0.1475536 -0.15793487 0.21601434 -0.27423453
0.22435302 0.23746602 -0.09947251 -0.005178851 -0.3893172 -0.032012504 -0.07217557 -0.11017758
0.2602523 0.027099397 0.24753861 0.27700338 -0.25524786 -0.16797565 -0.036725316 0.16029021
-0.045738965 -0.13521625 0.059892885 -0.03448689 -0.07122816 -0.018876586 0.27109486 -0.33388397
-0.1511188 -0.10245057 0.1165678 -0.0924171 0.25363085 0.1686938 -0.011579089 0.20069738
0.26725224 -0.16815677 -0.28863782 0.009131678 0.03345781 -0.17197035 -0.06911896 0.18109764
0.04752437 -0.28961727 0.012458555 0.35339242 0.012173053 0.063573726 -0.3761533 -0.33416963
-0.31588194 0.27691472 0.03521397 -0.10643412 0.000512095 0.12640783 0.3080597 0.14645968
-0.19764322 -0.15382876 0.31143716 0.21534248 0.35363534 0.22416614 -0.25198442 0.13809834
0.14906956 0.23560037 -0.16633071 0.07898669 -0.018221376 0.32204536 -0.59180003 -0.05937438
00000000: 8c80 b1bc be89 953e 2a8f 443e 338d 183d
00000010: fc75 263c 033c 903e 16f3 bbbd 61d9 8dbd
00000020: 8782 21be 4dba c13e 937c 85be 173b 4d3e
00000030: aeaf d03c 262a c4bd 2c85 3fbe 931c 84be
00000040: f422 94be 782f e1bd 0f87 863e 5bd6 963e
00000050: 97fa af3d c40f 793e 028f f4bd 83ac d5be
00000060: b33d b5be ee27 2f3d ca28 40be c8b1 ddbe
00000070: 7332 493e 388c 793e ddf8 84be 0ce1 ab3e
00000080: a84c aebd 87ce 023e bf98 88bc e1ba 57bd
00000090: 362a 8d3e be2f 993d 0196 29bc 873b 0dbd
000000a0: c672 bb3d d1e7 29be 6b31 17be 0dda c5bd
000000b0: 9cb7 783d 387c 51be 4cea 9dbe 20b0 90be
000000c0: 1d0b abbe b79e 4fbe a42b a9bd 3b9b c9bd
000000d0: 4d8f 8b3e bced c8bc d08f 9b3e b462 a43d
000000e0: b1b1 aebe a114 cc3e bfe7 ae3d ceb4 b33e
000000f0: 1950 c53e 13df 61be 0aeb 69be 275c 54be
00000100: 25ae c6be 658d 653e 81df 94be 3cbe ab3d
00000110: 4e2b 4dbe 66eb 87be 1c57 a8be f3c5 65be
00000120: 6720 aa3e 4953 b8bc e463 a23e 18f2 a93e
00000130: d67c 013e c0cb 253e 6cb4 913c 9d9a 2abe
00000140: 6939 7f3e 91d3 863e b0c6 363e bc11 fbbe
00000150: 40e7 c6be 75e8 ce3e f915 a9bd 95f2 4c3e
00000160: 6e53 2b3e a479 0c3e 5375 793e 528a a4be
00000170: bd37 223c c0b8 9d3d 212e 873d e700 643e
00000180: eaf4 02be e160 823e af8d 45bd 6756 683d
00000190: 8628 e3bd ada8 803e f63e 0f3d 3883 9a3e
000001a0: d823 993d eebb 3f3d 8759 76be 9d0e a9be
000001b0: ee23 88be ca11 a83e 26de 61bd fdab 40be
000001c0: 0b62 e83c 7e3b c53d 901e 67be 34c9 153f
000001d0: ff83 b93d 7675 73bc a65e b2bd 10e4 ec3d
000001e0: 382b 4cbe da82 043e 1f65 be3e c34b 56be
000001f0: 9aed abbc e70d bd3e 1acb 7dbd 7fff 48be
00000200: a64d 02be 9c95 6cbe d89a 8fbc d140 3e3d
00000210: 58f2 a9bd f3d1 6cbe 354a abbd d3ec 3abe
00000220: edf1 5fbc c799 9bbe a812 69be 7ad0 913e
00000230: 4ab9 d43d 275f 0c3f 0f77 d53d 6390 8b3e
00000240: afc9 913e caa8 453e fd34 2b3e 19fd 0d3e
00000250: 5f6c 2ebe 809c 843e a80f 8cbd 6f77 b23e
00000260: 5539 cfbe fdda 0abd 7815 9dba a1fa 7a3e
00000270: aeda 283e fc17 a23d c452 7c3b 2513 a73e
00000280: 6c38 4a3e 3501 e63d caf0 583e 81ba 77be
00000290: f04c 9b3e 155c 1b3e 4739 513e 2230 c53c
000002a0: 9235 e3bd aeba e33d bdc0 6c3e 4972 8fbc
000002b0: f18d 1e3e a7f2 453d 5c02 54bd 552d 32be
000002c0: 2606 eebe 48d4 483e b7fc 2d3e 1e17 2e3d
000002d0: 4a18 17be aeb9 21be dd32 5d3e 7868 8cbe
000002e0: ccbc 653e 4b2a 733e 3eb8 cbbd 5ab3 a9bb
000002f0: 9654 c7be 8b1f 03bd c9d0 93bd c8a4 e1bd
00000300: ca3f 853e 8eff dd3c c37a 7d3e 63d3 8d3e
00000310: d9af 82be cf01 2cbe 496d 16bd 1e23 243e
00000320: c858 3bbd 2176 0abe 3e52 753d 2042 0dbd
00000330: 12e0 91bd 12a3 9abc f2cc 8a3e d7f2 aabe
00000340: e3be 1abe 9bd1 d1bd 19bb ee3d 2d45 bdbd
00000350: e7db 813e 11be 2c3e 38b6 3dbc 9d83 4d3e
00000360: 49d5 883e 4a31 2cbe 56c8 93be 099d 153c
00000370: 0e0b 093d ff18 30be 3e8e 8dbd a971 393e
00000380: eaa8 423d b748 94be f81e 4c3c daef b43e
00000390: 7c71 473c f132 823d 2a97 c0be 4818 abbe
000003a0: 47bb a1be c4c7 8d3e 863c 103d 22fa d9bd
000003b0: 1d3e 063a 0e71 013e 00ba 9d3e 87f9 153e
000003c0: fc62 4abe 4985 1dbe b174 9f3e bd82 5c3e
000003d0: b10f b53e cf8b 653e 1a04 81be a769 0d3e
000003e0: b1a5 183e 3941 713e 9952 2abe c6c3 a13d
000003f0: ff44 95bc 21e3 a43e 3580 17bf 8d32 73bd

encoder.enc3.bias f4 [19]
-0.0022402923 0.012703354 -0.0056907367 -0.008929659 -0.031497076 -0.04474661 0.033494085 -0.016223028
-0.05858331 0.022225529 0.0004991142 0.015230561 -0.115550466 0.045051172 0.05357763 -0.014973837
-0.03325708 0.037926544 0.024666209
00000000: ded1 12bb ba21 503c 5c79 babb b44d 12bc
00000010: 1403 01bd 3948 37bd 1831 093d 28e6 84bc
00000020: 0ef5 6fbd 5012 b63c fdd6 023a 9a89 793c
00000030: b9a5 ecbd 9487 383d 3874 5b3d d354 75bc
00000040: 9338 08bd dd58 1b3d ca10 ca3c

encoder.enc4.weight f4 [7, 19]
-0.44781032 -0.52438366 0.25273386 -0.3089891 0.22389813 -0.03822922 0.0561501 -0.04017966
-0.106783174 0.43333527 -0.20614775 -0.28085503 -0.51067007 0.25190213 0.017443784 0.18372129
-0.4078299 0.48656267 -0.18104893 0.05040427 0.3275399 0.10403033 0.43712372 0.38338384
-0.49005106 0.06506281 0.18423446 -0.12364852 -0.47403133 -0.83040917 0.20511498 0.5112873
-0.45226866 0.08079379 0.4159943 0.15285614 0.10305328 -0.11420901 -0.35334158 -0.2868334
0.21298753 -0.24465732 0.21162717 -0.36411333 0.23370257 -0.118885614 0.18900706 -0.04727614
0.07632605 0.051772263 0.05056948 -0.39152002 -0.39879513 0.44722697 0.018316712 0.025730733
0.21140894 -0.32213596 0.310049 0.24349383 -0.32278776 0.1277094 0.110717736 -0.61122644
-0.41126695 -0.14558338 0.64695364 0.7692128 -0.40150276 0.34699985 0.4900295 -0.3164757
0.10615673 0.08057745 0.018223872 0.592697 0.35478264 0.38277835 0.23713563 0.12571493
-0.44898874 0.3836342 -0.093538806 0.31437624 0.098952636 0.38868606 0.48982927 -0.3188163
-0.009025545 0.4811637 -0.14951615 -0.5184821 0.08018437 0.32567716 -0.23038214 0.4174183
-0.43854773 -0.3053707 0.587681 -0.2635193 -0.21992466 0.56084293 0.115780935 0.204328
-0.15688676 -0.63146335 -0.064474404 -0.09000391 -0.44926608 0.3930009 0.26016283 -0.012374752
-0.35447225 -0.42410105 -0.21814418 0.27558616 0.11871095 0.42752102 0.3074489 -0.28762957
-0.35302436 0.4428893 -0.14058432 0.12052594 0.17218204 -0.28079358 -0.23088934 0.20319071
0.008936919 0.24494304 0.2819208 0.5076766 -0.4719805
00000000: 6547 e5be 023e 06bf 5566 813e d233 9ebe
00000010: 8d45 653e 3e96 1cbd a6fd 653d 6d93 24bd
00000020: 23b1 dabd 1fde dd3e 6518 53be 3bcc 8fbe
00000030: 46bb 02bf 51f9 803e 44e6 8e3c 6f21 3c3e
00000040: 15cf d0be be1e f93e e464 39be b574 4e3d
00000050: 4fb3 a73e db0d d53d aece df3e e34a c43e
00000060: f9e7 fabe a73f 853d f5a7 3c3e 6f3b fdbd
00000070: 3cb4 f2be b295 54bf a909 523e b9e3 023f
00000080: c28f e7be 3777 a53d 34fd d43e 5286 1c3e
00000090: 990d d33d 6ae6 e9bd 30e9 b4be d4db 92be
000000a0: 6719 5a3e 7387 7abe cbb4 583e 106d babe
000000b0: ba4f 6f3e 4d7a f3bd 118b 413e a0a4 41bd
000000c0: d550 9c3d 270f 543d f121 4f3d 5075 c8be
000000d0: e02e ccbe effa e43e ee0c 963c 42c9 d23c
000000e0: 967b 583e 01ef a4be bebe 9e3e 7256 793e
000000f0: 7044 a5be 41c6 023e fbbf e23d 5679 1cbf
00000100: 9591 d2be cf13 15be c19e 253f 21eb 443f
00000110: c591 cdbe f7a9 b13e 26e5 fa3e 1a09 a2be
00000120: b368 d93d ca05 a53d 3b4a 953c feba 173f
00000130: 12a6 b53e 86fb c33e afd3 723e 6abb 003e
00000140: dae1 e5be b46b c43e 4691 bfbd ecf5 a03e
00000150: aea7 ca3d dc01 c73e e7ca fa3e e43b a3be
00000160: e1df 13bc 175b f63e c31a 19be 3ebb 04bf
00000170: b437 a43d 28bf a63e 4ce9 6bbe dab7 d53e
00000180: 5489 e0be 8c59 9cbe 4372 163f 00ec 86be
00000190: ee33 61be 6793 0f3f 8e1e ed3d 5c3b 513e
000001a0: eca6 20be 95a7 21bf 280b 84bd f853 b8bd
000001b0: 3406 e6be 6a37 c93e 1034 853e 79bf 4abc
000001c0: 637d b5be c623 d9be 3061 5fbe a119 8d3e
000001d0: ba1e f33d 09e4 da3e f169 9d3e 2f44 93be
000001e0: 9cbf b4be 63c2 e23e 56f5 0fbe 4ed6 f63d
000001f0: 7d50 303e 2dc4 8fbe 416e 6cbe 3a11 503e
00000200: 286c 123c 59d2 7a3e ec57 903e 18f7 013f
00000210: 6ea7 f1be

encoder.enc4.bias f4 [7]
0.0030139505 -0.009517026 -0.021890229 0.036299728 -0.00040744204 -0.027667865 0.029962147
00000000: b385 453b 4ded 1bbc 2353 b3bc 06af 143d
00000010: f29d d5b9 b8a7 e2bc 2d73 f53c

decoder.dec1.weight f4 [19, 7]
0.895183 0.73790556 -0.044279363 0.0889159 0.4608831 1.1284074 0.49621224 -0.5174489
1.3364998 1.3645817 -0.22904167 0.9877382 0.011413608 -0.42620477 -0.4912399 -0.7264773
-0.17239662 -0.6312308 0.80085117 -0.5059613 -0.74768037 -0.6665501 -0.9484045 1.1587688
0.41214055 -0.7918329 0.86380297 0.30890152 0.3584106 -0.27879262 -0.28762034 0.04560216
0.7077138 0.6568631 -0.9071672 -0.75914454 0.87767625 1.1728586 -0.34393257 -0.21208249
0.6147049 0.37216195 0.038155645 1.2672019 -1.0778376 0.26384494 -0.4171232 0.046290245
-0.19502392 -0.022670723 1.1078798 -0.47640252 -0.41243634 -0.5462477 -0.48044044 0.37650514
-0.2687151 0.3090922 -1.398574 -0.7209198 -0.8625553 0.8517154 -0.6195496 -0.10372471
-0.22887868 -0.19013044 0.6552107 0.27146956 0.6353255 0.87724054 -1.2311887 -0.19584829
-0.17124794 0.016469657 1.050654 0.9449039 0.030768096 0.92020714 0.93596214 0.4738016
-0.16674921 -0.84064424 -1.0053799 0.107996665 0.037391864 -0.7071438 0.78274 -0.6538226
0.051547065 0.06842242 1.0867114 0.18572654 -0.3105683 -0.7251195 0.120653994 0.064661644
0.95540637 0.5090498 -0.62280756 0.1551848 -0.2069693 0.55538356 0.3400033 -0.37681425
0.6490676 -0.17343777 -0.29214483 0.14533266 0.72665274 0.15281239 -0.2236343 -0.14331464
-0.11719333 -0.30369753 -0.8518811 -0.71584433 0.10656693 0.34835106 0.7325839 0.32502335
0.17245667 -0.41189426 0.311177 0.5429226 0.54136056 0.29284966 0.46687034 0.55984616
-0.54546285 0.34327632 -0.34806046 -0.80966985 -0.32047153
00000000: b72a 653f 61e7 3c3f 475e 35bd 8a19 b63d
00000010: dff8 eb3e a76f 903f 880f fe3e 8877 04bf
00000020: 6d12 ab3f 9daa ae3f e689 6abe 69dc 7c3f
00000030: 2400 3b3c 8337 dabe cc83 fbbe 6bfa 39bf
00000040: bd88 30be 5798 21bf 9504 4d3f ae86 01bf
00000050: fb67 3fbf 07a3 2abf a3ca 72bf 8952 943f
00000060: 1604 d33e 90b5 4abf 3122 5d3f 5728 9e3e
00000070: 9881 b73e e8bd 8ebe f942 93be 55c9 3a3d
00000080: bb2c 353f 2e28 283f 1c3c 68bf 4c57 42bf
00000090: 64af 603f 3b20 963f ee17 b0be 272c 59be
000000a0: 4d5d 1d3f 038c be3e 1849 1c3d ac33 a23f
000000b0: 95f6 89bf af16 873e 2c91 d5be d79a 3d3d
000000c0: 5ab4 47be f4b7 b9bc 01cf 8d3f 08eb f3be
000000d0: db2a d3be e4d6 0bbf 4afc f5be 48c5 c03e
000000e0: 0795 89be 5541 9e3e 7904 b3bf 338e 38bf
000000f0: 6dd0 5cbf 050a 5a3f cd9a 1ebf 9f6d d4bd
00000100: 2c5f 6abe 8eb1 42be e3bb 273f 0ffe 8a3e
00000110: b1a4 223f d692 603f 9797 9dbf 748c 48be
00000120: 9f5b 2fbe 60eb 863c d57b 863f 39e5 713f
00000130: 600d fc3c b292 6b3f 379b 6f3f 2096 f23e
00000140: 4ec0 2abe 7634 57bf 4ab0 80bf 5b2d dd3d
00000150: 3628 193d 6007 35bf a661 483f eb60 27bf
00000160: 0423 533d 0e21 8c3d 5c19 8b3f 192f 3e3e
00000170: cf02 9fbe 6ea1 39bf 7119 f73d 536d 843d
00000180: 8395 743f 1651 023f 5170 1fbf c4e8 1e3e
00000190: c3ef 53be 9e2d 0e3f ea14 ae3e cced c0be
000001a0: 4b29 263f ac99 31be 0294 95be 16d2 143e
000001b0: ea05 3a3f da7a 1c3e 6400 65be 13c1 12be
000001c0: 0e03 f0bd 3e7e 9bbe e114 5abf 9341 37bf
000001d0: c33f da3d 125b b23e 9e8a 3b3f 7669 a63e
000001e0: 7b98 303e cee3 d2be 9752 9f3e fafc 0a3f
000001f0: 9b96 0a3f 64f0 953e a109 ef3e 1452 0f3f
00000200: 74a3 0bbf eac1 af3e fb34 b2be 8646 4fbf
00000210: d814 a4be

decoder.dec1.bias f4 [19]
0.029700957 -0.025294926 -0.012352619 -0.021318173 -0.0071033044 0.009157974 -0.023555832 0.02016622
-0.1146793 0.03313212 -0.0024134805 0.024086166 0.11783419 0.011932344 0.039391413 0.016671937
-0.06544786 0.03286792 -0.019542396
00000000: 6c4f f33c 4e37 cfbc a462 4abc 73a3 aebc
00000010: d6c2 e8bb 540b 163c 29f8 c0bc a133 a53c
00000020: fbdc eabd 8cb5 073d 7c2b 1ebb 5a50 c53c
00000030: 0d53 f13d e17f 433c e458 213d 9693 883c
00000040: 8709 86bd 83a0 063d 6017 a0bc

decoder.dec2.weight f4 [39, 19]
0.70996153 0.13420974 -0.07325093 0.44648275 -0.052172184 -0.19995253 0.57759947 -0.20717318
-0.26000473 -0.13967133 -0.0055117276 0.73990387 0.116426535 0.12559931 0.13498007 0.09737343
-0.21273734 0.027239906 0.34817913 0.35099867 -0.028762324 -0.41897067 0.23470756 -0.33958027
-0.24238658 0.40677357 0.65176916 -0.04292427 0.380365 -0.5888571 0.3145876 -0.11916704
0.52022856 -0.26544696 -0.24814628 0.1703558 0.1314444 0.66270304 -0.53888804 0.18975635
0.6697737 0.5910931 -0.5333141 0.5278123 -0.27372602 -0.06238507 0.16882856 0.09645867
-0.29573616 0.23648088 -0.32472774 -0.12668887 -0.1378696 0.0655745 0.24459073 -0.34924012
0.23932387 -0.08275107 0.9387889 -0.052276973 0.5906998 -0.7727244 0.07252596 -0.48934934
0.3822691 0.5706847 0.19364497 0.0324001 0.26305488 -0.17390451 -0.0036407348 0.12835595
-0.050478265 -0.09302007 -0.34305006 -0.2890776 -0.10134575 0.8483325 0.5258418 -0.23690657
-0.12799552 -0.1224878 0.6841231 0.06811664 -0.5763027 -0.3070507 0.6333396 0.1316273
-0.16454905 0.12775977 0.27479354 -0.47148642 0.23466118 0.06711778 -0.25552705 0.10106729
0.5430413 0.061132543 -0.2650144 0.590638 0.24770398 -0.18732314 -0.15828905 -0.4556485
0.012809333 -0.2304549 -0.5882945 -0.0038068946 0.2198983 0.110766135 0.54001004 0.21289931
-0.17268822 -0.20726407 -0.18087538 0.00084474206 0.19529411 -0.44245765 -0.1696956 -0.07993178
-0.46283486 0.21622917 -0.033603813 -0.10884676 0.2740203 -0.5126345 1.0891215 0.24682923
0.4483793 -0.016045345 0.33873177 -0.031825624 0.13274737 -0.55668974 0.4502104 -0.079036325
-0.3596981 0.67306256 0.08859208 0.015652878 -0.6747816 0.81994987 0.2448015 0.63920236
0.37780306 0.2073012 -0.10617766 -0.29194564 -0.04778297 0.5140506 -0.34265396 -1.0483247
-0.39555308 -0.0083891535 0.14930302 0.1799963 0.087291494 -0.060480256 -0.6170349 -0.34844917
0.69661623 0.024549233 -0.238394 0.30627024 0.3029912 0.4474673 0.17409568 -0.21779081
0.19746591 0.02018283 0.47354603 0.3833031 -0.11275106 0.45182556 0.32131252 -0.13766389
-0.45359427 -0.28567687 0.118050896 0.22512257 -0.07630176 0.64026654 0.12090963 0.28962606
-0.6481621 0.1986239 -0.10201205 0.14227358 -0.104198396 -0.4257459 0.3469849 -0.501155
-0.08325725 0.019830676 0.21214816 -0.32119456 0.25198504 -0.59309167 0.828379 -0.28918162
0.009672844 0.28769955 -0.45344675 0.41255018 0.2760507 -0.57171905 -0.5504161 0.3042249
0.13439253 0.41184658 -0.24446861 -0.8980257 0.5710958 0.4977874 -0.46915516 0.43669295
0.3776142 -0.2262613 -0.14007363 -0.38063186 -0.43892696 -0.4749798 0.5296235 -0.5320795
0.18638678 -0.19738546 0.40159965 0.41496643 0.029190522 -0.13087092 -0.042996075 0.43802556
0.64861435 0.08382306 0.3782018 -0.42092013 -0.25354525 0.48372713 0.38049078 -0.4489704
-0.11598693 0.22677119 -0.09795598 -0.82907933 0.28187403 0.6658933 -0.69874716 -0.5511466
-0.26492974 -0.4130192 -0.14128622 -0.49662852 0.37631312 -0.051769473 -0.44838837 -0.3383401
00000000: 0ac0 353f 476e 093e 9504 96bd 6399 e43e
00000010: 80b2 55bd 5bc0 4cbe 8fdd 133f 3525 54be
00000020: 571f 85be 0006 0fbe b99b b4bb 576a 3d3f
00000030: 0971 ee3d 1b9d 003e 3738 0a3e b96b c73d
00000040: d1d7 59be 3926 df3c 8944 b23e 19b6 b33e
00000050: f79e ebbc 5383 d6be 2e57 703e 77dd adbe
00000060: 3034 78be a044 d03e 58da 263f 5cd1 2fbd
00000070: 34bf c23e 57bf 16bf a011 a13e d90d f4bd
00000080: b32d 053f aae8 87be 0f1a 7ebe c071 2e3e
00000090: 5c99 063e e8a6 293f 91f4 09bf 7d4f 423e
000000a0: 4a76 2b3f e151 173f 4687 08bf b51e 073f
000000b0: d125 8cbe 7d87 7fbd 65e1 2c3e 208c c53d
000000c0: bb6a 97be 0b28 723e b742 a6be baba 01be
000000d0: b02d 0dbe ec4b 863d fe75 7a3e 9acf b2be
000000e0: 5111 753e 6579 a9bd 7854 703f 6120 56bd
000000f0: 1a38 173f 44d1 45bf 7e88 943d ff8b fabe
00000100: c7b8 c33e 6418 123f de4a 463e f8b5 043d
00000110: 21af 863e 0614 32be 6599 6ebb be6f 033e
00000120: 4cc2 4ebd 4e81 bebd 42a4 afbe fb01 94be
00000130: 5c8e cfbd 522c 593f 919d 063f a397 72be
00000140: 4211 03be e2da fabd b122 2f3f bd80 8b3d
00000150: 9388 13bf c035 9dbe 8b22 223f 4fc9 063e
00000160: 8c7f 28be 75d3 023e bdb1 8c3e ab66 f1be
00000170: 054b 703e 0c75 893d 71d4 82be 5efc ce3d
00000180: c104 0b3f 1e66 7a3d f8af 87be 0d34 173f
00000190: 1da6 7d3e a3d1 3fbe 8616 22be c34a e9be
000001a0: 3dde 513c 5ffc 6bbe 789a 16bf 187d 79bb
000001b0: 052d 613e 5bd9 e23d 193e 0a3f 4702 5a3e
000001c0: 2ed5 30be 083d 54be 6537 39be ae71 5d3a
000001d0: 2efb 473e cf89 e2be afc4 2dbe 46b3 a3bd
000001e0: b1f8 ecbe 2e6b 5d3e 27a4 09bd 0deb debd
000001f0: 644c 8c3e 043c 03bf 5568 8b3f cdc0 7c3e
00000200: f991 e53e 8771 83bc 406e ad3e 965b 02bd
00000210: edee 073e 3883 0ebf fa81 e63e ccdd a1bd
00000220: 592a b8be d44d 2c3f c46f b53d 773a 803c
00000230: 7dbe 2cbf 3ce8 513f 3fad 7a3e c4a2 233f
00000240: 676f c13e c446 543e ac73 d9bd e679 95be
00000250: 13b8 43bd d298 033f 5770 afbe 812f 86bf
00000260: ef85 cabe a972 09bc e4e2 183e f350 383e
00000270: e2c5 b23d 25ba 77bd 00f6 1dbf ee67 b2be
00000280: 7155 323f 791b c93c 8f1d 74be 74cf 9c3e
00000290: aa21 9b3e 6f1a e53e 2346 323e 8e04 5fbe
000002a0: 8134 4a3e 7656 a53c a074 f23e 4e40 c43e
000002b0: 07ea e6bd ae55 e73e 1383 a43e c3f7 0cbe
000002c0: 823d e8be 3d44 92be abc4 f13d 8886 663e
000002d0: 1944 9cbd 82e8 233f 789f f73d de49 943e
000002e0: f4ed 25bf 1064 4b3e b2eb d0bd 2ab0 113e
000002f0: f865 d5bd 5efb d9be 01a8 b13e b24b 00bf
00000300: c782 aabd f173 a23c 5e3d 593e 9d73 a4be
00000310: 2f04 813e dbd4 17bf a510 543f 9d0f 94be
00000320: d97a 1e3c 5b4d 933e 2c2a e8be c739 d33e
00000330: 8456 8d3e 2e5c 12bf 12e8 0cbf 5ec3 9b3e
00000340: 329e 093e 8edd d23e fb55 7abe 03e5 65bf
00000350: 5633 123f fddd fe3e 1b35 f0be 3896 df3e
00000360: a656 c13e 0bb1 67be 766f 0fbe 2ee2 c2be
00000370: 09bb e0be 8d30 f3be 6895 073f 5d36 08bf
00000380: 2ddc 3e3e 6a1f 4abe 789e cd3e 7b76 d43e
00000390: f620 ef3c 0703 06be a71c 30bd e344 e03e
000003a0: 970b 263f 6dab ab3d aba3 c13e d882 d7be
000003b0: afd0 81be 15ab f73e b0cf c23e 73df e5be
000003c0: 8e8a edbd b536 683e 259d c8bd 8b3e 54bf
000003d0: cb51 903e fc77 2a3f 18e1 32bf f217 0dbf
000003e0: dfa4 87be 4177 d3be 56ad 10be 1846 febe
000003f0: 1dac c03e 3a0c 54bd 2993 e5be ea3a adbe

decoder.dec2.bias f4 [39]
-0.00849065 0.023424722 0.0011482434 0.05487767 -0.00050171436 -0.025241772 0.0062987944 -0.039731834
0.026905064 -0.000996606 0.022626469 0.00726467 0.0070514805 0.04575175 -0.0117375925 0.022984928
-0.026185997 0.02937298 0.075585626 -0.008398399 0.05823933 0.005618121 0.02589314 0.032664005
0.0049680863 -0.026715241 0.028268922 0.025388325 -0.0129530085 0.04812873 0.050254446 0.037222486
0.03620354 0.026023371 0.05459765 -0.006577308 -0.02240283 0.05029747 0.018471332
00000000: 5e1c 0bbc 34e5 bf3c a880 963a 68c7 603d
00000010: 7b85 03ba d5c7 cebc 1e66 ce3b d9bd 22bd
00000020: 0268 dc3c 8ca0 82ba 255b b93c 780c ee3b
00000030: 1b10 e73b 3066 3b3d 084f 40bc e34a bc3c
00000040: 0484 d6bc 9b9f f03c a3cc 9a3d 7099 09bc
00000050: 5d8c 6e3d 3718 b83b da1d d43c b1ca 053d
00000060: 54cb a23b ecd9 dabc 3a94 e73c 2dfb cf3c
00000070: db38 54bc a222 453d 9bd7 4d3d 9b76 183d
00000080: 2a4a 143d f72e d53c c9a1 5f3d 7586 d7bb
00000090: 2486 b7bc b804 4e3d 3151 973c

decoder.dec3.weight f4 [58, 39]
-0.11658687 -0.64828867 0.018601693 0.81459135 -0.27324945 -0.4242671 -0.5102463 -0.57328385
0.68099815 -0.062073503 0.42879623 0.81945544 -0.19882603 0.12449478 0.5169647 0.2803966
-0.27111486 -0.8139754 0.013233799 0.28172925 0.19001144 0.07017506 0.27894178 -0.0953029
-0.066463284 0.30717492 0.057528332 0.45981196 0.34729555 0.06477836 0.14879194 -0.17083974
-0.628199 0.03132076 -0.13734123 -0.3412643 -0.1210645 0.20602517 0.2784118 -0.33043164
-0.09281659 -0.042189185 -0.60765606 0.21727665 -0.23616512 -0.15242806 -0.32414412 0.11189344
0.18067242 -0.3569349 0.16749646 -0.39321384 -0.08749006 0.08664865 -0.10976315 0.2711389
0.030806927 0.30832392 -0.18314633 0.030161425 -0.110125676 -0.07191961 -0.1363507 0.24308677
0.18313456 0.49687627 0.81191385 -0.4790985 -0.10177869 -0.48276657 -0.75621164 0.4485583
0.18367597 -0.5611868 -0.020480085 0.31252757 0.13199124 0.21358001 -0.12507625 -0.3512503
0.05359128 0.2514171 0.024166487 0.14656956 -0.18527274 0.47264087 0.39679343 0.3955096
0.19841212 0.0059749926 0.09624083 -0.22946393 -0.12117914 -0.3052682 -0.24702737 0.12226188
0.31978852 0.04471299 0.14798643 -0.12553555 -0.032896478 -0.09619144 -0.29119077 -0.14165376
0.12189031 0.32011905 -0.119039014 0.18071902 0.048881836 0.43199012 -0.00028070578 0.113600105
0.61631423 0.14727682 -0.38090864 0.24378765 0.113712385 -0.25218827 0.56376547 -0.23193456
-0.21118547 0.05428879 0.12041305 -0.15493046 0.15934479 0.02454036 -0.08907351 0.57475305
-0.068977065 -0.23858781 0.5462348 -0.1752075 0.30752838 -0.13342988 0.3983695 0.1328516
-0.1663835 0.34105012 0.33148673 -0.27735946 0.16085622 0.120794095 0.24620514 -0.81176335
-0.44779345 0.43565398 0.1484901 0.1255357 -0.2946556 -0.23719741 0.2796935 -0.29895565
0.12342196 0.14011258 -0.6739088 0.11553201 0.07030432 -0.38924357 0.25746536 0.67267334
0.48573893 0.19547565 -0.5245863 -0.16696249 -0.041660454 0.22881532 0.67135465 0.503377
0.22608358 0.4595936 0.059230734 -0.04704021 0.14246054 -0.19019505 0.13671055 -0.033212885
0.073403776 -0.009112175 -0.66085064 0.24061395 -0.24640104 0.37158382 -0.18853256 0.3226786
0.30303717 -0.06869751 0.21062803 -0.06176961 0.1780742 0.344455 0.1890768 0.07418842
0.1364259 -0.2623934 -0.28674945 -0.22387522 0.38528165 0.5594549 -0.029886687 0.104348086
-0.069007315 0.0015870938 -0.17997527 0.13259912 -0.042597223 0.36530915 0.13302608 0.5805306
-0.12787679 0.18116874 -0.17258896 -0.23536244 0.13454662 0.75748813 -0.57036555 0.22685952
-0.59209 0.01761087 0.47515175 0.33064374 0.5221926 0.23029605 -0.29475167 -0.09788737
0.23583385 -0.44745806 -0.19036876 -0.333431 -0.29341257 -1.2932892 -0.28735974 0.14380723
-0.23605013 0.31495994 -0.15483473 0.14037727 0.3184503 0.086700246 -0.0648135 0.09789306
-0.3417406 0.51542526 -0.12978877 0.14271262 0.72325987 0.28310907 -0.20919222 -0.26470375
-0.2765768 -0.051005125 0.037917987 0.4986651 -0.4197984 -0.16905932 0.43227237 0.3392132
00000000: 19c5 eebd 3ff6 25bf 9462 983c 0f89 503f
00000010: 5ae7 8bbe 8a39 d9be 809f 02bf bbc2 12bf
00000020: e555 2e3f c940 7ebd 2e8b db3e d5c7 513f
00000030: 0d99 4bbe 1ff7 fe3d cc57 043f 2590 8f3e
00000040: 91cf 8abe b160 50bf 93d2 583c d13e 903e
00000050: 5c92 423e f1b7 8f3d 75d1 8e3e 2b2e c3bd
00000060: e71d 88bd 0846 9d3e d4a2 6b3d 796c eb3e
00000070: b9d0 b13e 84aa 843d ea5c 183e 9df0 2ebe
00000080: a6d1 20bf 324a 003d 2ea3 0cbe 32ba aebe
00000090: aaf0 f7bd 43f8 523e fe8b 8e3e 562e a9be
000000a0: a016 bebd 91ce 2cbd 598f 1bbf c57d 5e3e
000000b0: 45d5 71be 1a16 1cbe 38f6 a5be 6328 e53d
000000c0: 3102 393e 2cc0 b6be 3184 2b3e 5353 c9be
000000d0: fd2d b3bd d974 b13d 81cb e0bd b8d2 8a3e
000000e0: cf5e fc3c a2dc 9d3e b68a 3bbe 1815 f73c
000000f0: 9289 e1bd 974a 93bd 859f 0bbe bdeb 783e
00000100: a087 3b3e 9166 fe3e 96d9 4f3f 664c f5be
00000110: 5971 d0bd 2e2d f7be 1697 41bf 6fa9 e53e
00000120: 8e15 3c3e f0a9 0fbf dac5 a7bc 9d03 a03e
00000130: b628 073e b8b4 5a3e fd13 00be 14d7 b3be
00000140: 8882 5b3d beb9 803e ccf8 c53c 5516 163e
00000150: 23b8 3dbe fcfd f13e 8228 cb3e 3c80 ca3e
00000160: 8c2c 4b3e dfc9 c33b ea19 c53d 98f8 6abe
00000170: c52c f8bd 1d4c 9cbe bef4 7cbe 7064 fa3d
00000180: 52bb a33e f824 373d c189 173e 648c 00be
00000190: 75be 06bd 0500 c5bd f516 95be af0d 11be
000001a0: a0a1 f93d a5e6 a33e baca f3bd 680e 393e
000001b0: 5238 483d cf2d dd3e b12b 93b9 2ca7 e83d
000001c0: c5c6 1d3f bccf 163e 7506 c3be 78a3 793e
000001d0: 0ae2 e83d d21e 81be ef52 103f 4180 6dbe
000001e0: 0141 58be ec5d 5e3d 1e9b f63d 17a6 1ebe
000001f0: 482b 233e dd08 c93c 2c6c b6bd 0423 133f
00000200: d943 8dbd 5d50 74be 0bd6 0b3f 9869 33be
00000210: 5c74 9d3e d8a1 08be 16f7 cb3e 400a 083e
00000220: 7060 2abe 1f9e ae3e a1b8 a93e 0f02 8ebe
00000230: 7eb7 243e e562 f73d 331d 7c3e b9cf 4fbf
00000240: 2f45 e5be 0a0e df3e ca0d 183e 6e8c 003e
00000250: 19dd 96be e1e3 72be fd33 8f3e b710 99be
00000260: a7c4 fc3d ac79 0f3e 4a85 2cbf 0c9c ec3d
00000270: b6fb 8f3d ef4a c7be 80d2 833e 5234 2c3f
00000280: c6b2 f83e c52a 483e 4a4b 06bf 37f8 2abe
00000290: 27a4 2abd 904e 6a3e e6dd 2b3f 51dd 003f
000002a0: 7482 673e da4f eb3e ed9b 723d 3cad 40bd
000002b0: 2de1 113e 7ec2 42be dafd 0b3e 3c0a 08bd
000002c0: b854 963d 3b4b 15bc 822d 29bf 8163 763e
000002d0: 8e50 7cbe 3c40 be3e ae0e 41be 2136 a53e
000002e0: b027 9b3e 48b1 8cbd e0ae 573e 2102 7dbd
000002f0: 1559 363e 685c b03e 599d 413e 19f0 973d
00000300: 3bb3 0b3e 6d58 86be d3d0 92be 8c3f 65be
00000310: a343 c53e 7038 0f3f edd4 f4bc 73b4 d53d
00000320: b553 8dbd 0806 d03a 704b 38be 10c8 073e
00000330: 6d7a 2ebd cd09 bb3e fd37 083e a79d 143f
00000340: 22f2 02be 4c84 393e 29bb 30be da02 71be
00000350: 97c6 093e beea 413f 7a03 12bf dd4d 683e
00000360: 3693 17bf ac44 903c 1747 f33e 234a a93e
00000370: 6aae 053f bad2 6b3e b1e9 96be 2c79 c8bd
00000380: 6e7e 713e 3919 e5be 07f0 42be 78b7 aabe
00000390: 2c3a 96be 808a a5bf d120 93be 3442 133e
000003a0: 20b7 71be 6e42 a13e ff8c 1ebe 0fbf 0f3e
000003b0: eb0b a33e e68f b13d f1bc 84bd 287c c83d
000003c0: a0f8 aebe e9f2 033f 59e7 04be 4223 123e
000003d0: 8f27 393f acf3 903e 7c36 56be 4087 87be
000003e0: 799b 8dbe c0ea 50bd e44f 1b3d 0851 ff3e
000003f0: d1ef d6be e31d 2dbe ce52 dd3e 5aad ad3e

decoder.dec3.bias f4 [58]
-0.036024876 -0.059968673 0.10291684 0.03564708 0.006841776 0.029991228 0.13475719 0.03267747
-0.0125684505 0.003959727 -0.09225758 0.03543236 0.010816952 0.14113618 -0.05069007 0.012193355
0.065342605 -0.019952359 0.03905639 -0.00014727842 0.03960595 0.17163783 0.04975859 -0.01662566
0.016449071 -0.010773378 -0.14490809 -0.04212067 0.030399637 0.05197365 -0.02668998 0.01760603
-0.05734596 0.07345862 0.020595567 0.033294808 -0.011163758 -0.02368175 -0.0049977787 0.07416899
0.009407158 0.0331423 0.04450988 0.004113549 0.007625529 0.09205409 0.06437007 0.0011944211
-0.017057225 -0.0016987514 0.028933987 0.03853033 0.02197795 -0.053847637 -0.006812786 -0.037046965
-0.013466108 0.043368567
00000000: d28e 13bd b6a1 75bd 10c6 d23d ac02 123d
00000010: fa30 e03b 2ab0 f53c cafd 093e d0d8 053d
00000020: e7eb 4dbc 99c0 813b 8bf1 bcbd 8621 113d
00000030: 9639 313c 0186 103e 64a0 4fbd a3c6 473c
00000040: 58d2 853d 2173 a3bc 98f9 1f3d c06e 1ab9
00000050: d939 223d d4c1 2f3e aacf 4b3d 8932 88bc
00000060: 34c0 863c d382 30bc c962 14be b986 2cbd
00000070: a908 f93c 52e2 543d f2a4 dabc 853a 903c
00000080: 99e3 6abd 7971 963d 09b8 a83c 2360 083d
00000090: 32e8 36bc 3b00 c2bc 68c4 a3bb e9e5 973d
000000a0: 7b20 1a3c 38c0 073d fe4f 363d f3ca 863b
000000b0: 93df f93b db86 bc3d 75d4 833d 1f8e 9c3a
000000c0: 98bb 8bbc a3a8 deba f806 ed3c fbd1 1d3d
000000d0: 1a0b b43c 578f 5cbd cb3d dfbb 8fbe 17bd
000000e0: f3a0 5cbc 3da3 313d

decoder.dec4.weight f4 [78, 58]
-0.32866076 -0.03707965 -0.06209453 0.13889153 -0.122319564 -0.010170985 -0.11251776 0.36020282
-0.10441293 -0.19114931 -0.50690114 -0.0016564509 0.7390512 -0.14374857 -0.31808943 0.23204568
0.0074942196 0.030038133 -0.15430562 0.19022611 0.08524957 0.30877244 -0.47226918 -0.7304294
-0.19813275 -0.24367958 0.19393516 -0.097215965 -0.18773672 0.0103660375 0.9547446 0.55457497
-0.04520054 0.3102527 -0.08812879 -0.013557823 0.39089933 -0.029204715 0.0635175 -0.27187735
-0.021939173 -0.28372625 0.11375426 0.38633266 0.28827816 0.16577393 0.08754403 -0.14662477
-0.049973782 0.13656294 -0.051782176 0.26690683 -0.2599564 0.15260963 0.09297491 0.2462746
-0.060320277 -0.20301057 0.03728054 -0.36287817 0.44714594 -0.11081456 0.26103795 -0.8393705
0.027684348 0.6729445 0.05723387 -0.61129683 -0.51509994 0.6995694 0.3763461 0.481909
0.45923004 -0.39612502 0.30345723 0.4433632 0.14526978 -0.3924432 0.35724074 0.36441833
-0.12903444 0.30130985 -0.084414996 0.3058359 -0.2740574 0.080440395 0.5128214 0.18301287
-0.07135876 0.036859587 0.080482066 0.09592548 -0.5371004 0.55653125 -0.5761565 -0.21772388
-0.20126468 0.5912338 -0.30837426 -0.28682736 0.64375734 -0.100408815 0.49943072 0.40125623
-0.43231842 0.49982658 0.17920804 -0.24173445 -0.12356314 0.32333857 -0.4014797 -0.2422863
-0.6572571 0.111047074 0.043330945 0.23587884 0.3434249 -0.06084988 -0.35582873 0.4710306
0.4454281 0.009280536 -0.02535898 -0.34653082 0.36866584 0.27929744 -0.1675572 -0.24471886
-0.38206875 -0.17577839 0.18559949 0.1017922 -0.049573325 0.31597424 -0.13579915 -0.80569154
0.4337711 0.3333304 -0.92086625 -0.45253986 -0.41121897 -0.06727548 -0.13820346 0.009290488
-0.3526391 -0.039716903 -0.19404058 -0.43795523 0.07676431 0.34655693 -0.30226162 0.32976788
0.23128329 0.31620815 0.026787337 -0.21962868 0.6397406 0.12746744 -0.13702588 0.33521613
0.29257253 -0.47880614 -0.3059452 -0.02020035 0.06709963 0.34106365 -0.089336656 -0.514456
0.036534023 -0.16651346 0.28363526 -0.28721252 0.005833169 0.38911587 0.037813466 0.35940748
-0.21977575 -0.23846847 -0.16299601 0.01305971 0.034675498 -0.04271131 -0.22505131 -0.033736784
0.1639924 -0.092966 -0.057558905 -0.0058895205 0.35036835 -0.034673642 -0.071994014 0.17400199
0.22039948 -0.022432858 0.20113322 0.106525615 -0.108748265 0.11881004 0.032361574 -0.23461084
-0.11141253 -0.016542146 -0.0049260375 0.0463853 -0.10021179 -0.111530125 -0.14341018 0.25882804
0.11113176 -0.0797359 -0.10017859 0.008092824 0.017834255 -0.0023072285 -0.058172084 -0.10240319
-0.09124636 0.2216057 0.14269477 -0.007718425 0.22581933 -0.08398806 -0.045154158 -0.17626154
-0.047105968 0.07008759 -0.3791708 0.013571273 -0.071286015 0.076788016 0.07920694 -0.08270134
-0.03147717 0.24116103 -0.2388943 -0.12236283 -0.1441251 -0.08417997 0.035700947 -0.038761318
-0.0820921 -0.12786765 0.22525279 -0.15854199 -0.12784758 0.10443804 0.1915636 -0.112474605
-0.027065044 0.19804204 0.24198425 -0.04742722 0.09432283 -0.22960751 -0.15488774 0.18993464
00000000: 3946 a8be d5e0 17bd d556 7ebd 9539 0e3e
00000010: ae82 fabd 34a4 26bc b66f e6bd 816c b83e
00000020: 72d6 d5bd a5bc 43be 46c4 01bf 451d d9ba
00000030: 7632 3d3f d332 13be 9edc a2be 629d 6d3e
00000040: 1292 f53b 8812 f63c 4b02 1ebe a2ca 423e
00000050: 5497 ae3d 6c17 9e3e 44cd f1be 6cfd 3abf
00000060: 50e3 4abe 2487 79be f096 463e 2a19 c7bd
00000070: 0e3e 40be 50d6 293c 246a 743f a0f8 0d3f
00000080: 3424 39bd 71d9 9e3e de7c b4bd a221 5ebc
00000090: f523 c83e ba3e efbc 7715 823d 8233 8bbe
000000a0: c8b9 b3bc 9144 91be fef7 e83d 65cd c53e
000000b0: 3299 933e a4c0 293e 494a b33d ce24 16be
000000c0: 4fb1 4cbd 28d7 0b3e 8c19 54bd 03a8 883e
000000d0: 0119 85be b345 1c3e a169 be3d 692f 7c3e
000000e0: 6512 77bd 01e2 4fbe 7bb3 183d 2bcb b9be
000000f0: 50f0 e43e bef2 e2bd c4a6 853e fce0 56bf
00000100: 49ca e23c 1746 2c3f 106e 6a3d f37d 1cbf
00000110: 97dd 03bf fb16 333f 70b0 c03e c7bc f63e
00000120: 3320 eb3e e6d0 cabe bf5e 9b3e 8000 e33e
00000130: 9ac1 143e 51ee c8be 42e8 b63e 0a95 ba3e
00000140: 9b21 04be 4945 9a3e c5e1 acbd 8696 9c3e
00000150: 4051 8cbe efbd a43d 4348 033f ba67 3b3e
00000160: 8b24 92bd 14fa 163d c8d3 a43d 9474 c43d
00000170: 697f 09bf d578 0e3f fe7e 13bf 02f3 5ebe
00000180: 5418 4ebe 195b 173f 3be3 9dbe 09db 92be
00000190: 48cd 243f 23a3 cdbd 62b5 ff3e 7571 cd3e
000001a0: d758 ddbe 45e9 ff3e 5082 373e 3c89 77be
000001b0: ac0e fdbd a28c a53e bf8e cdbe e619 78be
000001c0: 0042 28bf a66c e33d ca7b 313d 398a 713e
000001d0: 63d5 af3e b93d 79bd 2f2f b6be ec2a f13e
000001e0: 270f e43e 640d 183c a3bd cfbc 7d6c b1be
000001f0: c5c1 bc3e 1300 8f3e 1d94 2bbe 9597 7abe
00000200: 849e c3be 40ff 33be cb0d 3e3e 6e78 d03d
00000210: 660d 4bbd 60c7 a13e ef0e 0bbe cd41 4ebf
00000220: 3f17 de3e 48aa aa3e e4bd 6bbf 4eb3 e7be
00000230: 4b8b d2be bac7 89bd 3585 0dbe 2237 183c
00000240: 1d8d b4be 31ae 22bd 93b2 46be ab3b e0be
00000250: 9b36 9d3d e96f b13e 09c2 9abe 56d7 a83e
00000260: 87d5 6c3e 09e6 a13e 1e71 db3c 57e6 60be
00000270: 0ac6 233f d386 023e 8350 0cbe 73a1 ab3e
00000280: 11cc 953e 1426 f5be d9a4 9cbe 347b a5bc
00000290: 886b 893d e59f ae3e 23f6 b6bd 63b3 03bf
000002a0: b3a4 153d 8182 2abe a438 913e 850d 93be
000002b0: 2b24 bf3b 323a c73e 4be2 1a3d 4204 b83e
000002c0: e50c 61be 1431 74be 6de8 26be 65f8 553c
000002d0: e507 0e3d 0ef2 2ebd da73 66be 952f 0abd
000002e0: a0ed 273e f564 bebd e3c2 6bbd e1fc c0bb
000002f0: 7b63 b33e f305 0ebd 9971 93bd 942d 323e
00000300: 67b0 613e 1dc5 b7bc def5 4d3e 1a2a da3d
00000310: 69b7 debd ae52 f33d 928d 043d d33d 70be
00000320: 412c e4bd 6583 87bc 996a a1bb 83fe 3d3d
00000330: d73b cdbd e869 e4bd 1eda 12be 1c85 843e
00000340: 0c99 e33d 934c a3bd 6f2a cdbd c497 043c
00000350: 2519 923c df34 17bb da45 6ebd c4b8 d1bd
00000360: 5fdf babd 9bec 623e 941e 123e d7ea fcbb
00000370: 2f3d 673e ef01 acbd 91f3 38bd e87d 34be
00000380: 30f2 40bd 158a 8f3d ad22 c2be 0b5a 5e3c
00000390: 67fe 91bd 0943 9d3d 4037 a23d 525f a9bd
000003a0: 34ee 00bd ebf2 763e b5a0 74be 5d99 fabd
000003b0: 8895 13be 8c66 acbd 283b 123d 30c4 1ebd
000003c0: e71f a8bd bdef 02be aba8 663e d558 22be
000003d0: 7aea 02be 9ce3 d53d 4029 443e 1659 e6bd
000003e0: 83b7 ddbc 88cb 4a3e b8ca 773e 0b43 42bd
000003f0: 542c c13d 3b1e 6bbe e49a 1ebe 3a7e 423e
