IDS_TA/initial_Models/CADE-m15.0-l0.01.pth (torch, 67994 bytes, 16 tensors)

encoder.enc1.weight f4 [58, 78]
00000000: 84a0 8f3f 9e57 923c 1380 f1bd 1b9c 1c3e
00000010: 1686 7a3e af25 3fbe acde 323b 20e8 3bbe
00000020: 6543 953e 07aa eb3d 4876 d53e 0fd6 fdbe
00000030: 078b a03d 2fe1 093d 3535 2cbe f580 803c
00000040: ad78 a4bd 8298 8c3d e9f6 523d 6e2d 51bd
00000050: a617 673e 5f39 383e 0f7f d63d 27b1 5a3e
00000060: 8707 463c 834a 82be 0c1e 293e 48ee c33e
00000070: 1e85 d63e 3fcd 163d 3be1 d03c 5229 08bf
00000080: a52a 043d 4e1f 883d 58b2 0e3e f70d 03be
00000090: ec59 1ebe ccb1 9a3e bfe1 683f 49ae 82bd
000000a0: ff79 92be a5f7 503e f517 dc3d e51f 3a3d
000000b0: 4afb 57bd 7e88 ca3e 5ad6 28bd 714d 52be
000000c0: a32a 0ebe 507a 15be bb8b a93d 0c2f a4bd
000000d0: f297 25bf ef91 073e 541f 93bd 91de dcbc
000000e0: 2024 d3be c7bc b73e d1b0 a3be a042 b53e
000000f0: 8d5e 9e3e dfef 3fbe 6b6e 5c3d 56ce e13e
00000100: d36a 38be 6147 2bbe abdb 843e bc99 a8bd
00000110: 231d 2fbf e484 50be ef27 a93c 0534 083e
00000120: 2dd1 963d abf9 3abe 26e1 5f3e 3d1d 103a
00000130: 1f84 a23c 4631 52bd 8cef bcbe 7275 743e
00000140: ff6b 1e3e af8e 2c3d 1ae1 5e3c 7257 d4bb
00000150: c015 563e 683f ed3e f775 80be 9095 29be
00000160: 73f1 df3b 0ddc 2f3e fa4d 60bc 82fb efbd
00000170: b5b6 933d 8807 5dbe d19f 7d3e 73b5 b1be
00000180: 7329 a63d 73a6 4a3e 74ee 143e 8a32 a2bc
00000190: 90de 40be 5f96 37be cb53 de3c f85e 2a3d
000001a0: 4c09 1a3d 539b 2ebd 21ef 983d 1447 b9bd
000001b0: a151 a13e fde9 2a3e 4b4c 8c3e 7914 7bbe
000001c0: caad 0f3e cba0 febc 7f72 af3c 2cc1 833d
000001d0: 34ac 8e3c 944a d53c e4ec e63d 9bcf 39bd
000001e0: d5ea bbbd 6791 b6be b893 febd 6d65 ed3d
000001f0: 37e4 1a3f 4a58 bf3e 2286 463d 3772 35bd
00000200: 301b 77bb 216e 133c 215f 253e ca57 e03d
00000210: 3bbd 893d 7118 10be 2095 9abe 6d02 c23e
00000220: c017 493d 827f a1bd 4f90 2c3d ad8d c2bd
00000230: b6bd 2dbe 4962 91be 32b7 993d 7f7c 1ebe
00000240: c47c f33d fb6f 623d 1f44 2b3e 8c42 aa3d
00000250: 8c87 8ebd 4fc3 48be a88b 67bc b778 debd
00000260: c76f 96be 0681 fabd 5153 3f3d adbb 2e3d
00000270: 7eae 2f3e 4b04 2cbe 6759 633e d7db 0cbe
00000280: a3be 15be c8eb 873e 5aae 2abd 7db9 2cbe
00000290: 59ea d4bd 9321 19bd b97f 1c3e 8d97 59be
000002a0: 2274 453c a4bc a8bc e973 55be a42c 3e3e
000002b0: 0020 7c3e 5de0 b9bd 6fc9 073e c4f0 70bd
000002c0: 5ee3 493e bb6e 183e 9e7d 8d3e 131d a6bd
000002d0: badb 1d3e c528 623e fbb4 493d d60d 5e3e
000002e0: 9a35 df3d 6fd8 d63d 8684 6d3e 7184 3fbe
000002f0: 8c94 f6bd 6c20 d13d 6791 433e a5ac 2f3e
00000300: 3f8b 683c 5658 193e 0dda 743c c4e3 e8bc
00000310: 0854 ed3b 520d 1dbe 4fc7 083e a0be 8c3e
00000320: 5c1e 1d3e 5c61 0a3f 776f 173e d50e efbd
00000330: 2694 863d ef24 0cbe de6f 103d a6cb 75bd
00000340: 0c61 81be 4f25 a83d 2d10 e2bd 4dc0 f03d
00000350: a652 213e b86e 34be d23b 1abe 9782 bcbd
00000360: 3a1d aa3c d37a 253d 2148 383e d1dc 063e
00000370: b32d 2dbe c236 443c fe3e 44be e17f c43b
00000380: 285e 20be f5a2 33be 8305 163b 6dc4 cebc
00000390: 0000 4b3e f0e3 d93b fd3c 2cbd 2de6 09bc
000003a0: 882a a03d f6a3 643e 648e 243e fbc0 f53d
000003b0: 4a3f e8be 9433 b43d f486 31be 9b4b 3c3e
000003c0: 3442 9cbe 526e 10be 233f 5a3e 0f5b 413c
000003d0: 9e38 0e3e 9fdc 52bd d173 3c3e 1c62 983d
000003e0: db6c 803d a5d4 ca3c 43c0 4a3e 0cea 383c
000003f0: 9551 2dbe 53ca 0bbd 7a91 843d c86a 4cbe
1.122086 0.017864045 -0.11792006 0.15293925 0.24465212 -0.18666719 0.0027293367 -0.18350267
0.2915298 0.115070395 0.41691804 -0.49577376 0.07839017 0.033662017 -0.16817172 0.015686492
-0.080308296 0.06865026 0.051505003 -0.051068716 0.22567615 0.17990635 0.10473453 0.21356641
0.012086756 -0.25447473 0.16515368 0.38267732 0.41898435 0.03681683 0.025498023 -0.5318805
0.03226723 0.06646596 0.1393522 -0.12798296 -0.1546399 0.30213773 0.9096946 -0.063808985
-0.286087 0.20406969 0.10746757 0.045440573 -0.052729882 0.3955726 -0.041220047 -0.20537354
-0.13883452 -0.1459744 0.082786046 -0.08016786 -0.64684975 0.13239263 -0.0718371 -0.026961597
-0.412385 0.35886213 -0.31970838 0.35402393 0.30931512 -0.18743847 0.05381624 0.44102734
-0.180095 -0.16726448 0.25948843 -0.082324475 -0.68403834 -0.20363194 0.020648925 0.13301094
0.07364116 -0.18259303 0.21863231 0.0005497521 0.01983839 -0.051316522 -0.3690151 0.23872927
0.15470885 0.04212826 0.013603473 -0.006480151 0.20906734 0.46337438 -0.2509 -0.1656096
0.006834203 0.17173786 -0.013690466 -0.11717893 0.07212583 -0.21584904 0.24767996 -0.34708747
0.081133746 0.19790058 0.14544088 -0.01979949 -0.18834901 -0.17928456 0.027139565 0.041594476
0.037606522 -0.042628597 0.07467485 -0.0904676 0.3150759 0.16690822 0.27401957 -0.24519528
0.14031139 -0.031082531 0.0214169 0.06433329 0.017416097 0.026036538 0.11275652 -0.045364004
-0.0917565 -0.35657808 -0.12430519 0.11591611 0.6050448 0.37372047 0.048467763 -0.044298377
-0.0037705414 0.008998425 0.1614957 0.109542444 0.06725546 -0.14071824 -0.30191898 0.37892476
0.049094915 -0.07885648 0.04212981 -0.09499679 -0.169669 -0.28395298 0.07505645 -0.15477179
0.118890315 0.055282574 0.16725205 0.08313474 -0.06959447 -0.19605754 -0.014132418 -0.10862868
-0.29382154 -0.122316405 0.046710316 0.04265945 0.17156407 -0.16798513 0.22202073 -0.13755737
-0.14623503 0.26547074 -0.04167018 -0.16867633 -0.10396261 -0.037385534 0.15283097 -0.21249218
0.012051614 -0.020597763 -0.20844997 0.18571717 0.24621582 -0.09075997 0.13260435 -0.058823362
0.1971564 0.1488599 0.276349 -0.08111014 0.1541585 0.22085865 0.049244862 0.21684965
0.108988956 0.104905 0.23195085 -0.18702866 -0.12040052 0.10211262 0.19098435 0.17155702
0.014193355 0.14975104 0.0149445655 -0.02842892 0.0072426833 -0.15337113 0.1335728 0.27489185
0.15343612 0.5405481 0.14788614 -0.11672751 0.06571226 -0.13685964 0.035262935 -0.060008667
-0.25269353 0.08210241 -0.110382415 0.117554285 0.15754184 -0.17620361 -0.15061882 -0.092045955
0.02076589 0.040400337 0.17996265 0.13170172 -0.16911964 0.011975946 -0.19164655 0.0059966897
-0.15660918 -0.17542632 0.0022891469 -0.025240147 0.19824219 0.0066494867 -0.04205035 -0.008416695
0.07820612 0.22328171 0.16069943 0.11999699 -0.45360786 0.087989 -0.17336637 0.18388216
-0.3051926 -0.14104584 0.21313147 0.011801495 0.13888785 -0.051479932 0.18403555 0.07440588
0.062707625 0.0247596 0.19799905 0.01128627 -0.16925652 -0.0341285 0.0647306 -0.19962609

encoder.enc1.bias f4 [58]
00000000: 2004 9c3d 3b04 c73d 9219 233e e6f9 a93d
00000010: ca52 0a3d 2e71 67bd e060 b7bd e551 55bd
00000020: e5b3 f8bb b568 0fbd f05b 973d 3669 3c3e
00000030: bdba 8c3d 0d14 02bd a942 8d3c 3c84 44bc
00000040: 6f6e 093e ea53 0a3e 31b4 0abd 62e5 95bb
00000050: fc09 02be e7f2 b43c 4a94 91bd 67a9 153e
00000060: 7aa1 6abd 28a2 173e 9075 853e 8222 aabb
00000070: 01f4 853d b3f3 8abb 8a59 8c3b 3e19 4d3e
00000080: 3d2e 00bc 8612 a33d f9ab 653d a0a0 8d3a
00000090: 51c1 343e 3bcb 0bbd b83d bfbc 7f8f c03c
000000a0: 5f90 773e f921 9a3c e01d 6e3e fe04 02bd
000000b0: 768d 473e 6a7d debc 24de 0a3b 16ea 8b3d
000000c0: d5ab 7d3d 5e8d 843c 26af 703e 9b8f ac3b
000000d0: 3020 263d 6420 d03d ef3b 4d3e dae5 123e
000000e0: 6618 aa3d 9866 80bb
0.07617974 0.09717604 0.15927723 0.082996175 0.03377036 -0.05650442 -0.08954024 -0.052080054
-0.0075898045 -0.035011966 0.073905826 0.1839951 0.06871555 -0.031757403 0.0172437 -0.011994418
0.13421033 0.13508573 -0.03386325 -0.0045744637 -0.12699121 0.022088481 -0.07108362 0.14615403
-0.057282902 0.14807951 0.26066256 -0.005192102 0.06540681 -0.004240477 0.004283135 0.2002916
-0.007823524 0.079625174 0.05607221 0.0010805316 0.1765187 -0.034129363 -0.02334486 0.023505924
0.24176167 0.018815028 0.23253584 -0.031743042 0.19487557 -0.027159411 0.0021189535 0.06831758
0.06193145 0.01618069 0.23504314 0.0052661425 0.04055804 0.10162428 0.20042394 0.14345494
0.08305435 -0.00391848

encoder.enc2.weight f4 [39, 58]
00000000: 5cbe 95bd 2bc4 8dbe 4416 a8bd be7a 7d3e
00000010: 8262 97bd d671 64bf 4c04 4b3f 07dc 6d3e
00000020: 1772 9abd 1509 9cbd e72d ccbc 6b81 b5be
00000030: 9842 dd3c edf4 e8bb 6727 183d 2d6d b73e
00000040: dffc 2dbe 005b ab3d 707c f83d 7d0a 8fb9
00000050: 8531 ee3d a274 343d c221 a23c e767 6ebe
00000060: 4aa8 dbbd 41a6 3d3e b2b8 6bbd b9f5 093d
00000070: 4417 d73e 777b fd3d abe2 913e d2c8 cabe
00000080: e46b b4bd 0669 7c3c 6575 9c3d 1e61 9cbe
00000090: f5f2 713d 2e66 90bd efea 953e 1601 cbbe
000000a0: 5aa9 113e 870d 8fbe 59c3 413e 8e88 cb3d
000000b0: 1286 dabe 1acf b9bd c9d4 523e 0252 8e3d
000000c0: bb28 aebc 511c 453e 210e 2b3e a87e ad3e
000000d0: f8f4 643d b3c6 06be b6aa c93d 923e d9bd
000000e0: 6076 02bf 6f94 923c fa20 9abf d638 773e
000000f0: 7f2f 2ebf 6a63 a5bd 175e a8be f9d2 12c0
00000100: 6d93 91bd 24ef 85be 86e2 1dbf ad71 1c3e
00000110: 2e61 a93d afe3 acbc 9f8e 5f3f e6f8 bd3b
00000120: 30b7 853e 045f 303f bdb6 b03e 3d18 173f
00000130: 1261 fbbf a46b aabf 4e85 22be a5ca 0bbf
00000140: acdc 233f 4812 8f3b 207e 89be 0ecf a43e
00000150: c26d 163e a0fa b2bf 0318 953e f732 67bd
00000160: 1007 90be fc1a c2bd 4a66 d6be 3399 e2be
00000170: 5be5 22bf 941f 44bf 4559 04be 3dbf 44bf
00000180: b972 263d c7ca 5abf 9446 c6bd aa46 57bd
00000190: ad20 083e 1137 4abf 1feb a5bf d4c7 a2bf
000001a0: 2363 ccbe 4253 5bbe ed54 60bf c794 25be
000001b0: 2b53 ca3c ffcf 85bc ea15 26bf 1ce1 02bb
000001c0: 8810 833e ebbb dabe 47c7 52bf f1c7 04bb
000001d0: 9e22 aebe c0ed a53e 9b3d a1be ede1 15be
000001e0: fb90 bebe 33a1 f7bf 4e6c 8abe 9ff0 8cbe
000001f0: fb08 96be 4b5c 543e 3c14 b93e 43be 74bd
00000200: 7f0a b13e ca6f adbe 8d91 c63e fc2d 303e
00000210: fd17 4abd 5042 9a3e bce3 bebf 9895 3dbf
00000220: 9fe9 98be 7297 6ebe 7b17 c53e 165e 07be
00000230: 169c 1d3e f0fe 52be 60a9 213e 7975 3abe
00000240: caf8 d23d 5ebf c43e a4df 18be be41 f0bb
00000250: 1c18 2bbd 50f7 38bb 5da8 1fbf dc2f 2fbf
00000260: c3a2 83be 11c7 44bd baf8 e43d 6f82 d4bd
00000270: 049c a13e 1668 b2be fb89 fabd 416c 6e3b
00000280: 77cc acbf 6ae1 1fbf 6bc3 5c3e 31a3 2fbe
00000290: 9da9 9abd 9671 8ebd 498f e0bd ef49 7ebc
000002a0: 38ce f03c 675a a3bd a72f 453d dcc7 70be
000002b0: 3bbd 9dbe ffdb e83d d1a4 933d eb9d 423e
000002c0: 9ced 813e 7c6e 4a3e 4db0 20bc 8ae9 263e
000002d0: a28e 6cbd c56a 98be 0d97 27bd 9240 013d
000002e0: 2c92 a43e 9d92 373e a892 81be c4d8 aebe
000002f0: e5c4 82be e5d5 cebd e59b b33e ee35 afbd
00000300: 5cb0 163e b56a ba3d e36d cfbe 5bc7 a93e
00000310: 0f04 eabe a0d3 b23e b3af 36bd 75bd 6b3e
00000320: a079 1f3e 8ef7 7a3d 4839 b4bd 230d d23e
00000330: fd7c bb3d c0db d43e 556a a13d 235d 12bd
00000340: b139 20bd f571 46be 63e5 d8bd eb54 81be
00000350: 4682 633d 961d 14bd f8ba 983d 14e5 8abe
00000360: ac70 31be ddc0 aebe d6be 163e 2478 273e
00000370: e294 b4bd 609a 12be 3966 5f3e 2a23 1d3e
00000380: 25ea a23e 735b 0dbe 5771 7d3d ca69 04be
00000390: ca9c ae3e 9a89 39be 40e1 fe3d 4e77 96be
000003a0: 6070 09bd ba5e 04be 0644 ce3d 2437 6c3e
000003b0: 3f3a c73d 9b9c a03e 83fe abbe 6cba 2f3d
000003c0: 5a20 a53e c42d 02be 4e01 70be cfc0 663d
000003d0: a45e 0ebe 8b19 6e3e 5547 9cbe 2b89 e7be
000003e0: 20aa 09be 6324 91be 1748 203e cb77 693e
000003f0: aaf5 d9bd 9a28 3e3e 9dfb a5be 35ca f93d
-0.07311699 -0.27688727 -0.08207372 0.24753854 -0.07391836 -0.892362 0.7930343 0.23228465
-0.07541292 -0.0761892 -0.024924232 -0.354503 0.027009293 -0.0071092756 0.037146952 0.35825482
-0.16990994 0.08366966 0.121331096 -0.000272829 0.11630539 0.044056542 0.019791488 -0.23281823
-0.10725458 0.18520452 -0.057549186 0.033681605 0.42009938 0.12377065 0.28493246 -0.3960634
-0.08809641 0.015405899 0.07639579 -0.30542845 0.059069593 -0.07050739 0.29280803 -0.39649266
0.14224759 -0.27940008 0.18922175 0.09938155 -0.42680413 -0.090727046 0.20588984 0.069492355
-0.021259656 0.19249083 0.16704609 0.33885694 0.055897683 -0.13161735 0.09847014 -0.106076375
-0.50961876 0.017893044 -1.2041314 0.24142775 -0.68041223 -0.08075602 -0.32884285 -2.2941267
-0.07108197 -0.26159012 -0.6167377 0.15277739 0.08270489 -0.021104662 0.87327 0.0057974933
0.26116323 0.6889498 0.34514418 0.5902136 -1.9638999 -1.3314099 -0.15871164 -0.54606086
0.64008594 0.004366193 -0.26854038 0.3218922 0.14690307 -1.3982735 0.29119882 -0.05644509
-0.28130388 -0.09477803 -0.41874915 -0.44257507 -0.6363122 -0.76610684 -0.12924679 -0.76854306
0.04063675 -0.85465664 -0.096814305 -0.052557625 0.13293715 -0.78990275 -1.2962378 -1.2717233
-0.39919385 -0.21418479 -0.87629586 -0.16170035 0.02469786 -0.016334532 -0.6487719 -0.0019970601
0.2559855 -0.42721495 -0.82335323 -0.0020260776 -0.34010786 0.3240795 -0.31492314 -0.14636965
-0.37219986 -1.9346069 -0.27035755 -0.2752733 -0.29303727 0.20738332 0.3614825 -0.05975176
0.3457832 -0.3387435 0.3878292 0.17205042 -0.049339283 0.30128717 -1.4913249 -0.74056387
-0.2986574 -0.2329996 0.38494477 -0.13219485 0.15391573 -0.20605063 0.15787268 -0.18208875
0.10301359 0.38427252 -0.14929062 -0.007332056 -0.04177104 -0.0028223582 -0.62366277 -0.684324
-0.25710115 -0.048041407 0.11180253 -0.10376441 0.31564343 -0.34845036 -0.12233349 0.0036380442
-1.3499898 -0.6245333 0.21558921 -0.17152096 -0.075518824 -0.069552585 -0.109648295 -0.015520557
0.029395208 -0.07976227 0.048141148 -0.2351374 -0.30808434 0.11370086 0.072091706 0.19005553
0.25376594 0.19768709 -0.009807658 0.16300026 -0.057753213 -0.2976896 -0.040915538 0.03155572
0.3214277 0.17927022 -0.25307202 -0.34149754 -0.25540844 -0.10099391 0.35079876 -0.08555208
0.14715713 0.09102384 -0.40513524 0.3315991 -0.4570622 0.34927082 -0.044601154 0.23021491
0.1557374 0.061271243 -0.08799988 0.41025648 0.09154699 0.41573906 0.07881609 -0.035733353
-0.03911752 -0.19379409 -0.10590627 -0.252601 0.05554416 -0.036161028 0.074575365 -0.27127898
-0.17328137 -0.34131518 0.14721236 0.16354424 -0.0881746 -0.14316702 0.21816339 0.15345445
0.31819263 -0.13804416 0.061875667 -0.1293098 0.34103996 -0.18118897 0.12445307 -0.29387897
-0.033554435 -0.1292676 0.10071568 0.2306791 0.097279064 0.3136948 -0.33592615 0.042902395
0.32251245 -0.1271277 -0.23437998 0.05633622 -0.1390329 0.23251931 -0.30523172 -0.45221838
-0.13443804 -0.28348073 0.156525 0.22799604 -0.1064256 0.18570176 -0.32418528 0.12196771

encoder.enc2.bias f4 [39]
00000000: c669 5ebc 2b90 0f3d 20c2 ce3c dfc3 133e
00000010: 41f5 723c 8e83 77bd 92b0 8c3e 01b9 df3c
00000020: e126 d1bc f3c9 c0bc 3c4c a13c 7116 183c
00000030: e63f 1fbc 24a5 f33d 85f8 903e 8b24 113e
00000040: 2a4b 153d f21d 963d 519c a33d 7d9d 333c
00000050: e2b2 d23d e62f 553e b1f5 6c3d c539 b2bc
00000060: 4f80 043e d204 0e3e cfdb 9bbb 6ee2 533d
00000070: a23c 123e 0d49 b73d af82 bcbc b147 4dbc
00000080: 0646 d73d 6058 45bc fe85 7f3d 7501 8d3c
00000090: 0000 0000 78fa 683e 7606 0e3d
-0.013575023 0.0350496 0.02523905 0.14430188 0.014828981 -0.060428195 0.27478462 0.027309896
-0.025531234 -0.023533797 0.019689672 0.009282694 -0.009719824 0.118967324 0.28314605 0.14174096
0.036448635 0.0732993 0.07988799 0.010962841 0.102880254 0.20819053 0.057851497 -0.021756062
0.12939571 0.13869026 -0.004756428 0.051729612 0.14280942 0.0894948 -0.023011534 -0.0125293
0.10511403 -0.012044996 0.062383644 0.017212609 0.0 0.22751796 0.03467413

encoder.enc3.weight f4 [19, 39]
00000000: 805b 8ebd b80b 97bf 23b1 f7be ee8b a53e
00000010: 953b 61be 72ba debe 1519 033f 54cc 81bf
00000020: de95 bdbc 64e6 44be d4d2 bdbe 350f d5be
00000030: 0035 76be 5efe 9b3e 7dc4 0a3f 5877 f4bc
00000040: 1d6e 84bf ef93 54bf f9aa 803e b308 733e
00000050: 2b1f 5ebf 5207 013f a229 f33d ccf3 53be
00000060: 56dc 1dbf 042e 5abf a0c2 0a3d ab78 bf3e
00000070: 5f5a aa3e f6ca d33d 3a0d 5ebe ba12 2fbe
00000080: d65b 323d b7bf 20be bda4 343e 9164 993e
00000090: 0d18 023c 3550 ed3d 0fe7 8c3e aabd 78be
000000a0: e1b8 02be 7e6d 503d bd8d 73be 1613 1f3d
000000b0: 8b4b 253d fcda a6be e719 38be 54dc f93d
000000c0: 37fe 433d aede c5bc cf08 4f3e 84ef 9f3d
000000d0: 7446 e33c 0f5d bfbe f632 9c3e 97f5 a63e
000000e0: d42e 5bbe 5341 583e f79e ae3e 4c4a 2abe
000000f0: 8611 be3e 959d 903e 5b06 7dbe 726a c7be
00000100: 1394 cb3d 413b f9bd 9342 bbbd 630f 52be
00000110: 4f60 213e 7d47 c6be 1226 16be 09c6 a7bc
00000120: 6716 85be 65eb c3be b2db 753e f9e8 c63e
00000130: 9f38 93be ca89 47be e903 ba3e 2f1d c1be
00000140: a885 8bbe bdbc a3be fc98 b9be cec2 9bbe
00000150: e1db 513e 6763 823d 1eaf 9dbd 261d 00bd
00000160: d939 4c3e e5d2 d9bd 7e77 52bd 662c 273d
00000170: 2d2d 34be e670 9fbe 6852 dabd 2c55 ecbd
00000180: 483e 85be 35e9 1e3e 0bae 8a3e 60f7 ca3d
00000190: 01d0 d83b fbad cabb 6a54 56be d8aa 253e
000001a0: a80a 96be a889 b33e 3cc4 373e 5e3c adbe
000001b0: de98 8c3d 6200 ba3e 72b6 b8be 5634 85be
000001c0: 5506 273e 1192 96be 3ba7 a43e 8339 c23d
000001d0: 5721 9dbe a6e9 47be ed91 10bf 9943 bbbe
000001e0: b2cd b33e 5d2f 4a3e 52e4 0e3d 4e9d 643e
000001f0: ef76 20bf 669a 1e3d 5358 62be d47a 04bf
00000200: 3838 a7be 6703 6bbe 0f19 eabd 541d 1a3f
00000210: f6a0 06b7 5e81 85bd 5421 33bf 7dd2 d4bd
00000220: 54e2 8d3e 6111 e1be e9e8 b43e 74f9 b83d
00000230: e2b8 b1be ac28 2fbf 1141 fbbe 35ed c13e
00000240: 2f6a 63bd c814 e93d d902 30be 5f44 1ebe
00000250: 945e cebe 8f74 2c3e 873a 593d 2534 093e
00000260: 2b87 bf3e b4c3 353e ae17 a83e 682e b23d
00000270: 343d b23e 33d0 5f3f 9b3e 6b3e 98c4 f73e
00000280: 6c56 8cbe acfc 05bd e828 613d a7df a73e
00000290: e42e d4bf d46e 953e 5838 d93e a81b 243f
000002a0: 8673 9bbf a512 04be 22bc 783d d5ca 6a3e
000002b0: 7b55 b23e cf3a 6b3e fa02 2c3e ffe3 e8be
000002c0: 290f 5a3f 9bcf 92be ca81 46bd 637a d7bf
000002d0: 6936 4a3f 424e 223f 5f80 84bf 6364 b9be
000002e0: 0e9b d0bd 16b8 18c0 6484 d43e 7d04 93bf
000002f0: d5cb 2bbd 681a c0be 60f0 44bf 0fb2 b93e
00000300: 0563 053e 5660 0fbf 957d f83e d973 c43e
00000310: 10b6 893e 180b 9d3e 043f 8ebe 9ce6 283e
00000320: 62f7 87be 76c1 94be 034d 74bd d43b 203f
00000330: 7bed 373e f72a 853e 6fd8 5ebe bb35 e0bd
00000340: adda 983e fd77 2a3d 2922 b43e 9c00 8e3e
00000350: b583 383e bfe9 9ebe d2cb 00be a7ab 9cbd
00000360: 8b6f 33bd 002a 4fbe 8ec7 90be e7cc 1d3e
00000370: dee2 c23d c119 93be 1a09 163e 6e5e 29bd
00000380: d26c 963e efe4 a2be 6408 b2be 341e c8bd
00000390: 20c5 c3bd f50f 043f 7874 7fbe 7d2c 16be
000003a0: 7667 99bb 066a 843e f40b a9be 16ff 47bd
000003b0: f223 233e 4f02 3e3e 1b22 3abd 87b1 ef3c
000003c0: f793 ccbd 86f8 e6bc c184 5fbd 807f 62be
000003d0: 653e 0a3d 8669 15b9 adda 67bd ff98 c4be
000003e0: eab1 a73e 4674 c33d dfaa 75be 85ba d7bd
000003f0: 80eb a9be a1cc 8dbd 4549 a6be f31a c5bd
-0.06951046 -1.1800451 -0.48377332 0.3233332 -0.21995385 -0.4350162 0.5121015 -1.0140481
-0.023142751 -0.19228512 -0.37074912 -0.41613165 -0.24043655 0.30467504 0.5420607 -0.029842064
-1.0346104 -0.8303823 0.25130442 0.23733787 -0.8676631 0.50401795 0.11873175 -0.2069847
-0.6166433 -0.85226464 0.033877015 0.3739675 0.33272073 0.10341446 -0.21684733 -0.17096987
0.043544613 -0.15698133 0.17640968 0.2995954 0.007940304 0.11587564 0.27520034 -0.24291101
-0.12765838 0.05088567 -0.23784538 0.03883656 0.040355247 -0.32588947 -0.17978631 0.122002274
0.04784986 -0.024154034 0.20218204 0.07809356 0.027743556 -0.37375686 0.3050763 0.32609245
-0.21404582 0.21118669 0.34105656 -0.16629905 0.37122744 0.28245226 -0.24709456 -0.389484
0.09940352 -0.12169505 -0.091435574 -0.20513682 0.15759395 -0.38726416 -0.1466296 -0.020480173
-0.25993654 -0.3826553 0.24009588 0.3884962 -0.28754136 -0.19486156 0.36331108 -0.37717578
-0.2725041 -0.31979933 -0.3624953 -0.30422062 0.20494033 0.06366616 -0.076994166 -0.031277798
0.19943942 -0.10635928 -0.051383488 0.040813826 -0.17595358 -0.31140822 -0.10660249 -0.11539683
-0.2602408 0.15518649 0.2708591 0.09910464 0.006616593 -0.006185291 -0.20930639 0.16178453
-0.29305005 0.3506596 0.17945951 -0.3383512 0.068650946 0.36328417 -0.36076695 -0.26016492
0.16311009 -0.29408315 0.32158837 0.09483626 -0.306895 -0.19522724 -0.56472665 -0.3657501
0.3511787 0.1974463 0.034885712 0.22325632 -0.6268148 0.038721465 -0.22104006 -0.5174992
-0.3266008 -0.22950517 -0.11430561 0.60201 -8.024499e-06 -0.065188155 -0.6997273 -0.1039171
0.27711737 -0.43958572 0.35333946 0.090319544 -0.34711367 -0.68421435 -0.4907308 0.37876287
-0.055521186 0.11380917 -0.17188586 -0.15455769 -0.40306532 0.16841339 0.05303433 0.13398798
0.37407812 0.17750436 0.32830566 0.087002575 0.3481232 0.8742706 0.22973101 0.48392177
-0.27409685 -0.03271167 0.054970652 0.3278782 -1.657681 0.29186118 0.424258 0.641047
-1.214463 -0.12897737 0.060726292 0.22928937 0.3483084 0.22971652 0.1679801 -0.45486447
0.8517938 -0.28674015 -0.04846362 -1.6834224 0.78989273 0.6340066 -1.0351676 -0.362094
-0.10185824 -2.3862357 0.41507256 -1.1485745 -0.041942436 -0.37520146 -0.76929283 0.3626866
0.13026054 -0.5600637 0.4853331 0.38369635 0.26896715 0.30672526 -0.27782452 0.1649422
-0.26555926 -0.2905385 -0.059643757 0.6259129 0.17961685 0.26009342 -0.2176225 -0.10947748
0.29854336 0.041618336 0.35182312 0.2773484 0.18018992 -0.3103771 -0.12577751 -0.076499276
-0.043807548 -0.20230865 -0.28277248 0.15410195 0.09515928 -0.28730586 0.1465191 -0.04134982
0.29379898 -0.31815287 -0.34772027 -0.09771386 -0.09559083 0.5158685 -0.24946773 -0.14665408
-0.004681523 0.2586214 -0.33016932 -0.048827253 0.15931681 0.18555568 -0.04544268 0.029259456
-0.099891596 -0.028194677 -0.054569963 -0.2211895 0.03375091 -0.00014249058 -0.05660503 -0.38397977
0.32752925 0.09543662 -0.23990963 -0.10533623 -0.33187485 -0.069237955 -0.32477775 -0.09624281

encoder.enc3.bias f4 [19]
00000000: d0c8 453e 40b6 17bc 5a4e a7bc 988a 113d
00000010: 8653 763e f3e9 593c c311 9fbb d0c7 143e
00000020: 6b88 95bc cded 893d fc04 663e 7307 853d
00000030: e264 723d 1118 913d 0acd 7c3c 7443 083e
00000040: d742 5fbc 0000 0000 16e9 683d
0.19314885 -0.00925976 -0.020423103 0.035532564 0.24055299 0.013300407 -0.0048544123 0.14529347
-0.018253526 0.0673481 0.22462839 0.064955615 0.05917824 0.070846684 0.0154297445 0.13306981
-0.013626776 0.0 0.056862913

encoder.enc4.weight f4 [7, 19]
00000000: b537 92be 93fb aa3d c643 de3d 888a 1ebf
00000010: 1a20 613f f881 a8bd 15d1 21bc 84ac f4bd
00000020: 7c66 d5be 89c3 b2be 63fe d4be 9d0a 15bf
00000030: 2f51 943e cbdf ed3e 132d 433e 4d13 d23e
00000040: ea06 413a df07 bf3e 52ae 2cbf 22c1 4bbf
00000050: a382 f9bd 8a57 ae3e 8523 2cbf c8c0 4f3f
00000060: 2abe 67be 51fc 7b3c 332d e9be 1b1a b7bd
00000070: ca56 2ebf 9b19 2bbf 02f8 0ebf 3fa9 8c3e
00000080: 3b1d 993e d845 273e 3ba8 253f 1016 ad3d
00000090: b8e9 c53e 1536 b4be ab5a 943d b002 5fbe
000000a0: 33e8 013e 5cdb 193f e988 04bf 410e 2a3e
000000b0: 38e6 013d a068 0a3f e8f8 bebc 47e9 d9bd
000000c0: ca4b f13d e93e b23e cbd0 abbc 6a6d e73d
000000d0: ed11 8fbe d439 a9be fdde 38bd b0f1 d53e
000000e0: 7e2e 073f d9e1 39bf deb9 90be fba0 e73e
000000f0: 4bbb 03bf 47c1 083f e63e 88be 787c e2bc
00000100: f840 81be c3d8 9cbe 5d3c 88be 0adc bebe
00000110: 261d ddbe a40a d63e a771 1b3f 10ac 253c
00000120: a6d7 223e 9eac af3e c354 a93e 4f60 1b3e
00000130: ea07 9e3d ee0d 93be 886b 843e d08c 05bf
00000140: c979 283d fe47 bcbe 0425 9ebe ccdb 813e
00000150: 2a4c dc3e e5f7 a83e 04f5 5f3d 8059 ddbe
00000160: a1ae 96bd f3c4 af3e 4173 3f3e 2cb7 cb3e
00000170: e018 fdbd a836 963d aea2 0bbe 0c7f 1ebf
00000180: a8d2 463e be7b 06be 2087 9a3e 311a 703e
00000190: 82d6 c63e e39b 593e 3b10 f6be 6362 01be
000001a0: fd64 b5be 12d5 3fbe 57e2 18bf 1ac6 a63e
000001b0: 76b5 103f fb2e 95be ca7b 03be 7708 833e
000001c0: f8ab 5e3e 0efe 1dbd ce88 983e 2190 bd3e
000001d0: cd25 55be 53c5 263e 3e08 27bf c2ee f5bd
000001e0: 8670 c7be 76fb f93e dc06 23be 5f3f f23e
000001f0: 44e1 b9bc a7d7 093c 7b7d cabe 2780 023e
00000200: b3af 963e f636 ebbe 6837 93be c149 2f3e
00000210: fc10 153f
-0.28558126 0.08348765 0.108527705 -0.6193013 0.8793961 -0.082279146 -0.009876509 -0.11946967
-0.41679752 -0.34914806 -0.41600332 -0.5821932 0.28968188 0.46459803 0.19060163 0.4103035
0.0007363396 0.37310693 -0.6745349 -0.7959157 -0.1218312 0.34051162 -0.672417 0.81153536
-0.22631136 0.015379981 -0.45542297 -0.08940526 -0.6810118 -0.66835946 -0.5584718 0.27472875
0.29905114 0.16335237 0.64709824 0.08451474 0.38654876 -0.3519751 0.07243856 -0.21778369
0.12686233 0.6010034 -0.5177141 0.16607 0.031713694 0.54065895 -0.023312047 -0.10640197
0.11782034 0.34813622 -0.020973584 0.11300166 -0.27943364 -0.33051932 -0.045134533 0.41785955
0.52805316 -0.7261024 -0.28266805 0.45240006 -0.5145766 0.5341992 -0.26610488 -0.027647242
-0.2524488 -0.30634126 -0.26608554 -0.3727725 -0.431863 0.41804993 0.60720295 0.010111824
0.15902576 0.34311384 0.3307248 0.15173458 0.07716353 -0.28721565 0.2586329 -0.5216799
0.04113177 -0.36773676 -0.30887616 0.25363004 0.4302686 0.3300163 0.054677024 -0.43232346
-0.073575266 0.34329948 0.1869631 0.39788187 -0.1235826 0.073346436 -0.13636276 -0.6191261
0.19416296 -0.13133141 0.30181217 0.23447491 0.3883553 0.21250872 -0.48059258 -0.12635188
-0.3542861 -0.18733624 -0.5972037 0.32573014 0.5652689 -0.29137406 -0.1284019 0.25592396
0.21745288 -0.038572364 0.29791874 0.37024024 -0.20815201 0.1628621 -0.6524695 -0.1200843
-0.38953036 0.48824662 -0.15920585 0.47313973 -0.022690423 0.008413232 -0.3954886 0.12744199
0.29430923 -0.4594037 -0.2875321 0.17117979 0.5822904

encoder.enc4.bias f4 [7]
00000000: 733a aaba 0ea5 bc3b 3c5c 753d 10de 253c
00000010: cbad 38bc f128 773c 1f33 943c
-0.001298739 0.0057569807 0.059902415 0.010123745 -0.011271904 0.015085445 0.018090783

decoder.dec1.weight f4 [19, 7]
00000000: c1c9 e0be 45ea d93e 6c08 6bbf 4116 33bf
00000010: 546b e83e ccd9 a43e db36 03bd 8d08 f5bc
00000020: 7471 103f 587d 1e3f 3b51 8bbe fc07 b63e
00000030: 0063 cf3e 5e81 d0bd 696c 13bf cc2d aa3d
00000040: eb74 12be c314 95be e90c f53e 6e6b 1abf
00000050: b07e 55bf 8b94 d83e d598 db3e ef75 48bf
00000060: 4aea 44bf 3b83 f3bc 32b2 f93e 649a 8e3d
00000070: 91a0 13be 5c6b 463d 20a0 51bf 1866 5e3d
00000080: ae61 383f 77cd 80be ca76 4ebe e67e babe
00000090: 16be 12bf 5ddc 15bf 6b3a 3dbd cf88 4a3f
000000a0: ce48 1a3f 68a2 f13c 2342 5c3e 1b64 babe
000000b0: 8f43 2cbf f666 79bc a19c 19bf ea7f f3bc
000000c0: e6bc d43e d754 fbbd 21b3 23be 9463 55bf
000000d0: 1513 bb3e a5d7 203f 499b 493e 708e 493f
000000e0: f7f4 153f 0231 b2be 759f edbe 197b 49bf
000000f0: 9b80 5dbf d573 ee3e be04 d53d abdc 993d
00000100: 2921 353f b558 023f 1832 31be 7e34 32bf
00000110: feda 5cbf 9bd2 b9be 3083 81be 154e 583f
00000120: e093 03bf 85d8 12bf b5de 20bf ace7 aa3d
00000130: 9e84 b23e 6350 a43e 444c d8be 0300 94bc
00000140: c64f 0ebf 800f b3be 5844 423f 72c1 16bf
00000150: 0c29 943d 5afd 203e 879b 4ebe ff0c 103f
00000160: a8ca 4a3f dfa8 9b3e 3b7a 823f cb92 d1be
00000170: 65aa 1b3b 3b4e fa3e 7ef6 c23e 135f 813e
00000180: 3a24 1d3f 4631 11bf 0796 d63e 76b5 69be
00000190: 6ccd e9be 5265 03bf 3068 5c3f 1ebb babd
000001a0: 3b9d eb3e 757c 5c3f cbdf 1cbf 0ed0 2ebf
000001b0: 2b8b 6abf abb0 523f f939 523f 0d2c 1d3f
000001c0: f51e c83e 7199 abbe 4d4f c5be 34ad 333f
000001d0: 48b1 3bbf 2719 81bf 572e a9bd 55b7 ed3e
000001e0: 9f05 e1be 89bc ef3e 1754 523e 224c 143f
000001f0: ca6e 3e3f ce00 cc3e 0c5e 51bf 7f6b 323f
00000200: 0b57 6fbe 3a4d 2bbf 331c cabd 9f0f c73e
00000210: 888b cabe
-0.43903926 0.42561546 -0.91809726 -0.6995583 0.45394385 0.32197416 -0.032034736 -0.029911304
0.56423116 0.6191001 -0.2721041 0.35552967 0.40505219 -0.10180925 -0.57587296 0.08309516
-0.14302413 -0.29117402 0.47861412 -0.60320175 -0.83396435 0.4230083 0.4289004 -0.7830495
-0.76919997 -0.029725662 0.48768765 0.069630414 -0.1441672 0.04844223 -0.81884956 0.054296583
0.7202405 -0.25156757 -0.20162502 -0.3642494 -0.573213 -0.5853937 -0.04619829 0.79115003
0.6026734 0.029496387 0.21509604 -0.364045 -0.67290586 -0.015222302 -0.6000462 -0.02972408
0.41550368 -0.12272041 -0.15986301 -0.8335507 0.36537996 0.6282905 0.19688143 0.7873297
0.5857691 -0.34803015 -0.4641072 -0.7870346 -0.8652436 0.46572748 0.10401295 0.07512792
0.70753723 0.50916606 -0.17304265 -0.69611347 -0.86271656 -0.36293492 -0.252954 0.84494144
-0.51397514 -0.5736163 -0.62839824 0.08344969 0.34866804 0.3209258 -0.42245686 -0.018066412
-0.55590475 -0.34972763 0.75885534 -0.58888924 0.072343916 0.15721646 -0.20176516 0.5626983
0.7921548 0.30402276 1.0193552 -0.40932307 0.0023752686 0.4888781 0.38078684 0.25267848
0.613834 -0.5671581 0.41911337 -0.22823128 -0.45664537 -0.5132648 0.8609648 -0.09117721
0.46018395 0.86127406 -0.6127898 -0.68286216 -0.91618603 0.82300824 0.8211971 0.6139534
0.39086118 -0.33515504 -0.38537064 0.7018616 -0.73317385 -1.0085801 -0.08260792 0.46428934
-0.439496 0.46823528 0.2053989 0.5792867 0.743878 0.39844364 -0.8178413 0.69695276
-0.23373048 -0.66914713 -0.0986866 0.38879105 -0.3955958

decoder.dec1.bias f4 [19]
00000000: f83c dcbc a8bc 76bc ea2b a0bd 6941 16be
00000010: a489 bdbc eb68 0bbd 5516 863b 63de 02be
00000020: d661 b1bb c6d0 eebb 7aa5 643c 94bb 69bd
00000030: 847e 81bd 9c3f 4cbd a75e 66bd f702 b7bc
00000040: 1d55 4fbd fd29 3b3c 8265 a5bb
-0.02688454 -0.015059628 -0.07820876 -0.1467339 -0.023136921 -0.034035604 0.0040920177 -0.12780146
-0.0054132743 -0.0072880713 0.013955468 -0.057063654 -0.06322959 -0.04986535 -0.05624261 -0.022340281
-0.05061828 0.011423585 -0.005047501

decoder.dec2.weight f4 [39, 19]
00000000: 8eb8 a13e ef60 e53e 28e5 d4bd 9e64 9c3d
00000010: ecc6 073f 36a2 bcbe e127 99bd 38e7 e4be
00000020: a85b 39be 61cd e0be 2cb3 333d 611a 233c
00000030: 9916 79bd be25 e5be d3cb 0cbf 1403 cb3e
00000040: 7399 0cbf 1b97 d0be 9a39 d9be eac6 dcbe
00000050: bc22 70be e809 4b3e 600e 01bf 3314 32be
00000060: a4c4 93be 0285 e53e 0cfc 8c3e 3b89 553e
00000070: 621f 75bf 654a b43e e318 babd b714 f63d
00000080: eed7 bb3e 7aa9 773e ccad 213d d75c 09bf
00000090: 179c 1c3e 1b23 f8bc d04f b7bd 1c8f 173f
000000a0: 2b55 da3e 7150 87bc 73d6 06bf d8d9 083f
000000b0: 2eeb 9fbe f5e6 bebe 9bfd aebd 0d91 fcbe
000000c0: c08a ee3e 341a e63e 4a77 9c3e 15f6 c3be
000000d0: 73c8 dfba a5db 0c3f 1c3c f93e 3199 b73e
000000e0: ea36 383e cbe1 3b3e 7bca 6d3e f068 c73e
000000f0: f7c2 f0bd a823 583e c647 15be 8b6f f63e
00000100: 76dc bd3e 7c29 543d 92b2 8e3d 4234 083d
00000110: ad42 583e 25e3 07bf 899e b23e eaf0 89bc
00000120: bd57 61bf a93a 7b3e 23e5 99bd 3bfb 01bf
00000130: b2cb 6bbe f998 b83e d73c 65be 2816 b73e
00000140: 3de1 e3be c7bc 503e d142 083f a3cf 1a3e
00000150: 7192 993d fa3e c83e e9fc bc3e 82d2 ca3e
00000160: 88bf 753e ac78 acbd 0e60 4b3e 2f64 383f
00000170: 0d0c 1b3f 8cf8 b6be 5c97 e53e 7887 f6be
00000180: 2c3c 02bf 4fe8 e33e 2bdd 8d3e a75b 443e
00000190: 64ef f93d 2535 ab3c 9fa3 a4be 5fe4 f43c
000001a0: 9403 30bf e0b9 553e fe64 fc3d 92d7 90be
000001b0: 7871 a5be d111 bb3e f106 263c 7cfe 02be
000001c0: a917 d93e f7b3 6c3e 69db c33e abba 41b9
000001d0: 68d7 f8bc cfa8 123e 149b 2b3e 6ee8 5abe
000001e0: 6aa7 8dbe 2393 d73e 69a6 803e 4716 1fbf
000001f0: d12a c8bc ca74 97be 64d6 fcbe 18d9 e13e
00000200: f96a 103f af2b 8a3f 798f 8b3e 7714 f8be
00000210: ceae b2bd f50c c0bd 116c c33e b681 a83e
00000220: 3ec7 03bd 0ee8 783e 0c7f cebe 3f90 edbe
00000230: 819a d0be 9458 e43e b5d7 023f 2b7d dd3d
00000240: 4028 86be 3119 e5be 45bf 6fbe 2b6b 0dbe
00000250: 0401 453d 8e73 febe 2b74 e53e 093f 653e
00000260: b2ba 08be 978c 8f3e 81ad 7b3e 12bc b73e
00000270: e3b1 5ebe 061a 76bd 8b73 873e 2294 133e
00000280: 5861 b83e 2503 06bf 07c4 493e 27d6 f63e
00000290: f414 d2be 2f04 b83e fb25 87be c2ea af3d
000002a0: b638 ffbd 44a7 ae3e fcf6 0d3f 8ddf db3e
000002b0: 8a88 06be c008 d23e 7dc8 dc3b 9539 ddbd
000002c0: d924 e6be 5bc9 983e f2c1 af3e 33b5 48be
000002d0: 5137 cdbe 58aa d83e ea1d 53be a60b e3bc
000002e0: 725e 283e 8560 e2be a06b 223f 29f8 703f
000002f0: 3fb2 85be 21b0 a63c d068 c23d 7b5e 84be
00000300: b526 b53d 288d a93e 3d0a 9fbe c0fa d2be
00000310: a379 fdbd be47 69bd 0e9b b6be 8ff5 e6be
00000320: 03fc 4c3d eec0 82bd adc8 313d c078 1abe
00000330: 06a6 0c3f c51a 6e3e 1283 d23c 5340 5b3e
00000340: 9a6c f83e 7518 02bd 3cb7 ec3d c3a6 aa3c
00000350: 5d0b bb3c c911 b5be 7490 8bbe 53d1 983e
00000360: a61c 06be 0b0c c1be 1001 75be 8729 babe
00000370: 633b 90be fcfe 4e3e 204e c43e d176 a4be
00000380: a43c ef3e 2954 153e 58bd 7c3e e0ab 863e
00000390: da0b 11bf f61a 47be a3dd a13e 59c7 373e
000003a0: fb6d 97be a022 0f3f 70ff 973e 5fb2 373e
000003b0: a6a9 c1bd 60b6 5e3e 7c97 c7be 029a 29bf
000003c0: 7d03 2c3e a557 3e3e 1e97 0cbf 5f69 70be
000003d0: b6bc d0be 443c 4f3e abcc ca3e 1411 ad3c
000003e0: c4c2 93be 3677 043e 58aa 953e 3b00 833d
000003f0: 5636 173e 93df 113f 3cea acbe 9a7e a93e
0.31586117 0.44800517 -0.103952706 0.07636379 0.53037906 -0.36842507 -0.074783094 -0.44707656
-0.1810137 -0.43906692 0.043872043 0.00995502 -0.060812566 -0.44755358 -0.5499851 0.39650786
-0.54921645 -0.40740284 -0.4242676 -0.4312051 -0.2345075 0.19827998 -0.5041256 -0.17390518
-0.28860962 0.4482804 0.27536047 0.2085313 -0.9575101 0.3521301 -0.09086778 0.1201567
0.3668818 0.24185744 0.039472386 -0.5365729 0.15293919 -0.030290177 -0.0895077 0.5920274
0.42643103 -0.01651785 -0.52670974 0.53457403 -0.31234115 -0.3728558 -0.08544465 -0.49329415
0.46590233 0.44941866 0.3055976 -0.38273683 -0.0017073288 0.5502265 0.48678672 0.35859063
0.17989698 0.18347852 0.23221771 0.38947248 -0.117559366 0.21107352 -0.1457816 0.48131976
0.3708226 0.051797375 0.06967653 0.033252962 0.21119185 -0.5308097 0.34886578 -0.01683851
-0.88024503 0.24534096 -0.075144075 -0.5077397 -0.23026922 0.3605421 -0.2238649 0.3575909
-0.4450778 0.20384513 0.53226954 0.1511827 0.074986346 0.39110547 0.36911705 0.3961373
0.23998845 -0.08421454 0.1986086 0.7202787 0.60565263 -0.357365 0.4484204 -0.4815023
-0.50873065 0.44513175 0.277078 0.19175588 0.12203863 0.020899365 -0.32156083 0.029894052
-0.6875546 0.20871687 0.1232395 -0.28289467 -0.32313132 0.3653703 0.010133491 -0.1279239
0.42400864 0.23115526 0.38253334 -0.00018475454 -0.030376151 0.14322208 0.16758376 -0.21377727
-0.2766679 0.42104444 0.2512696 -0.6214337 -0.024434479 -0.2958129 -0.49382317 0.44110942
0.5641323 1.0794581 0.27257898 -0.48453113 -0.087247476 -0.09377471 0.38168386 0.32911462
-0.032172434 0.24307272 -0.40331304 -0.46399114 -0.40742877 0.4459883 0.5111039 0.108148895
-0.26202583 -0.44745782 -0.23412807 -0.13810413 0.04809667 -0.49697536 0.44815192 0.22387327
-0.13352469 0.2803695 0.24577905 0.35885674 -0.21747546 -0.06008341 0.2645534 0.14411977
0.36011767 -0.5234855 0.19703685 0.4821026 -0.4103161 0.35940692 -0.26396164 0.085896984
-0.12461989 0.3411199 0.55454993 0.42943993 -0.13138023 0.410223 0.0067377673 -0.108019985
-0.44949988 0.29841122 0.34327656 -0.19600372 -0.40081266 0.42317462 -0.2061688 -0.027715515
0.16442278 -0.44214264 0.6344547 0.9412866 -0.26112553 0.020347657 0.09492648 -0.25853333
0.088452734 0.33115506 -0.310625 -0.41206932 -0.12376716 -0.056953184 -0.35665172 -0.4510922
0.050045025 -0.06384455 0.04340427 -0.15085125 0.5494083 0.232524 0.025697265 0.21411256
0.48520356 -0.031761605 0.11558387 0.020831471 0.022832567 -0.35365131 -0.27258646 0.29847202
-0.13096866 -0.377045 -0.23926187 -0.36359808 -0.28170308 0.20214456 0.38340855 -0.321219
0.46725953 0.14582886 0.24681604 0.26303005 -0.5665871 -0.19443879 0.31614408 0.17947139
-0.29576096 0.5591221 0.2968707 0.17939137 -0.09456186 0.21749258 -0.3898276 -0.6625062
0.16798206 0.18588121 -0.54918087 -0.23477696 -0.40768975 0.20237833 0.39609274 0.021126308
-0.28859532 0.129361 0.29231524 0.06396528 0.14766821 0.5698177 -0.33772457 0.33104402

decoder.dec2.bias f4 [39]
00000000: 75cc 863a 514b 01bc f156 68bd f1e8 1cbd
00000010: 6cc1 933c 0dca a1bd a074 09bd 7872 bc3d
00000020: 0164 afbc c380 45be 0ddb 8d3b a8d6 a7bd
00000030: e63e 2f3d 4061 23bd 0945 8e3d 92ac a5bc
00000040: ffdc 8c3d 6521 99bc 93c9 44be 8364 0ebc
00000050: bc7e a2bc e6f3 5ebd 754e 7f3e 6481 803c
00000060: 7553 543d 22d0 083c 4f6e 873a 0158 163d
00000070: 7d43 0b3c 0c24 8c3d 1a34 c0bc ad51 dabd
00000080: 0e2d 643d b3f0 953c 40b7 d5bd 7abb ac3b
00000090: b273 c53c 81e7 6e3d a5d4 7d3c
0.0010284322 -0.007891492 -0.05672354 -0.038308088 0.018036567 -0.07899866 -0.033558488 0.09201521
-0.02140999 -0.192874 0.0043290914 -0.08195239 0.042784594 -0.039887667 0.06946761 -0.02022389
0.06878089 -0.018692682 -0.1921752 -0.008690956 -0.019835822 -0.05443182 0.24932273 0.015686698
0.051837403 0.008350404 0.0010332557 0.03670502 0.008499977 0.06842813 -0.023462344 -0.1066011
0.05570703 0.01830325 -0.10435343 0.0052713724 0.02410302 0.058326248 0.015492593

decoder.dec3.weight f4 [58, 39]
00000000: ff6d 873c 4016 c3bc c3c9 453c 602a dcbd
00000010: 09e0 9cbe 7d9c 2e3e 989f bcbe 0a48 873e
00000020: 5d1f 7c3e c9b8 333f 2fd4 003f 20c2 a53c
00000030: 3ac0 863c e955 033e 0784 623e 15ba 683e
00000040: 8ddf b93e 4116 71bf 27f4 83be 346a 8cbe
00000050: 18ef 27bf f152 dcbd 9598 cfbe d6de 613e
00000060: 1018 a4be 4d24 ee3c 7fac 32be ef76 84be
00000070: 37e3 163f 4bf1 6abf 798b 06be bb9f ae3d
00000080: d3bc 87be 6907 9dbe 0dbf 82bf c551 943e
00000090: d2a2 8a3e 0de4 bebc 25ea 0bbe bfe6 babd
000000a0: 5799 40be 9431 33be 7141 0ebe caee 85be
000000b0: 18ca 053e 7a33 c83e 7bf9 f43e 1109 ae3d
000000c0: 39ed 58bf 3c4f 7c3e d133 a03e 2ba2 bbbd
000000d0: 0472 06be 0cf9 bdbe 2bc7 73be 0a78 363e
000000e0: 15a1 9dbe 1f30 acbe b048 8c3e fb9b 203e
000000f0: 1f26 8b3e 9847 c83d 481d e7bd ea6a 8abe
00000100: a852 9a3e b4cc 9f3e 5509 6dbd dabc 513e
00000110: d24f c53d fd55 8bbe 3b85 d13e ab61 24be
00000120: 6406 383e 8458 763e f348 143e 42bb 943d
00000130: 75aa 48bd c385 a63d b480 1a3a 13b6 fd3b
00000140: fd6e 913d ac2f 443d 1abd 283e 0c21 803e
00000150: 25e2 453e 0c59 25bf ee6a 65be e0c5 5abf
00000160: 4d0e f93f 9133 bcbe e440 87be 10fd 46bd
00000170: 2777 41be 0685 a4be 8823 29bf f402 febe
00000180: 189b b23e c7a2 33be a717 b5bb 0eb7 c93c
00000190: 359d 10bf e466 b03e d37c 3cbe f11f abbe
000001a0: aabe c0bd ae27 17bd b4b5 833e 7381 5ebf
000001b0: 52dd 4e3e a1f6 e3bd c4b7 bc3f d98a d33d
000001c0: cab1 863f d914 803e 8ab8 bfbd 073b a03e
000001d0: ef4a 22be e878 043e 940b 21be 46fd 67bd
000001e0: ede3 ffbd c29d 693e a599 6ebd eaad debe
000001f0: 1910 003e fb0d 26be b33b ca3e 5cb8 1e3f
00000200: 0cf1 0dbe 4c64 afbd 7ab2 bb3d be17 fa3d
00000210: d8a1 a4be 227b aa3e 9ae1 8cbe 9687 a1be
00000220: 5330 36be a344 92be b942 e83e 3ced ef3d
00000230: 2334 5a3e 29fa 133f 02b2 bbbc 7679 943d
00000240: 98d5 17be d650 18be 6eb5 0e3f 676d e6bd
00000250: 02db 853d bc1d 0fbf 7e60 e43c 5297 aa3e
00000260: 8ad8 a43e 6d8f bd3d f532 38be 9553 4abe
00000270: a760 233d fbdc 673e aa3f eb3d 2590 92be
00000280: c412 3c3e 53c9 8bbe 4126 88be 2abb 7d3d
00000290: 9d57 c13c 93d5 a43f 03b6 93be b2de c53c
000002a0: 1453 5c3e c3dd 233d 965e 913e 3df6 5fbe
000002b0: 149d fdbe bdd0 47bf 19d3 e83d 7a9c 0e3e
000002c0: 8b22 42be ad08 723e af61 b93e 0211 fd3b
000002d0: 0e92 53be 6afa 413d d9bd 4cbe 9f38 f4bc
000002e0: b534 253f a7ce d4be b92a d5be 16cb 54be
000002f0: b701 75be d90a 57be c94b f63d c0c8 4bbe
00000300: eb1a fb3d 6371 8b3e 0435 be3e 2017 90bc
00000310: daf5 b33c 9ca3 9dbe 52ef c9bb 3714 903e
00000320: 875f 643d 15e1 57bd 2284 66be dc30 c23e
00000330: e930 31be 5d99 573f e5a3 6f3c 9fbe 2abe
00000340: d646 c3bd 6478 9ebe 3eb6 a1be b5cb 033e
00000350: 57e0 debe ac18 43be 4957 95be aa3f 4dbe
00000360: 36e3 72bd 54b9 ee3c 5613 6fbe 3375 e13e
00000370: 7af1 debc e9a1 3c3e 9d1b afbe d93c be3e
00000380: 71f6 ea3e a4cb e73d 1e46 a43e 30c0 1f3e
00000390: 71c4 c2be 817f e33c 3942 943e 17e0 d83e
000003a0: 811b a1bd b040 babe d8be 9c3e 46c8 cf3d
000003b0: d5a4 493e 90de c7bd e58c 14be f251 aabc
000003c0: f9c8 c5bd 4216 2dbf 43b0 92bd 4171 bc3f
000003d0: e9f4 90be e261 82be cce0 473e 4740 383e
000003e0: 2bdb 143b aeff 16bc b74b 2ebf 8694 01c0
000003f0: 2cb6 86be 3417 503d c0a4 3fbf 2369 473d
0.016531942 -0.02381432 0.0120720295 -0.1075027 -0.30639675 0.17051883 -0.3684051 0.2642215
0.24621339 0.70203835 0.50323766 0.020234168 0.016449083 0.12825741 0.22120677 0.22727235
0.36303368 -0.9417458 -0.2577221 -0.27424777 -0.65599203 -0.10758007 -0.40546098 0.22057661
-0.32049608 0.029070044 -0.17448615 -0.2587199 0.5894045 -0.91774434 -0.13139142 0.0852656
-0.2651125 -0.30669716 -1.0214554 0.28968635 0.27077347 -0.023302102 -0.13663538 -0.091260426
-0.18808495 -0.17499381 -0.13892151 -0.26158744 0.13065374 0.39101774 0.47846588 0.08497823
-0.84736973 0.246396 0.31289533 -0.091617905 -0.13129431 -0.3710407 -0.23806445 0.17819229
-0.30786958 -0.33630463 0.27399206 0.15684502 0.27177522 0.097792804 -0.11284882 -0.27034694
0.30141187 0.31210864 -0.057870228 0.20482197 0.09634365 -0.2721404 0.4092196 -0.16052882
0.17971188 0.24057204 0.14480953 0.07262279 -0.048990685 0.08130982 0.0005893812 0.007742652
0.071012475 0.047897026 0.16478387 0.25025213 0.19324549 -0.64589 -0.22404072 -0.85458183
1.9457489 -0.36758092 -0.26416695 -0.048581183 -0.1889311 -0.3213274 -0.6606984 -0.49611628
0.34883952 -0.17542563 -0.005526501 0.02462342 -0.5648988 0.344535 -0.18406992 -0.33422807
-0.09411366 -0.036903076 0.25724566 -0.86916274 0.20201614 -0.11131025 1.4743581 0.103292175
1.0523007 0.25015905 -0.0936137 0.31295034 -0.15848897 0.12936747 -0.15727073 -0.056638025
-0.12494645 0.22814086 -0.058251996 -0.4349206 0.12506141 -0.1621627 0.39498672 0.6200006
-0.13861483 -0.08564052 0.09164901 0.1221156 -0.32154727 0.33297068 -0.2751587 -0.31548756
-0.17791872 -0.2856799 0.45363405 0.11715171 0.21308951 0.5780359 -0.02291203 0.07249729
-0.14827573 -0.14874586 0.5574559 -0.112513356 0.06535913 -0.55904746 0.027878042 0.33318573
0.32196456 0.09255872 -0.17988189 -0.19758447 0.039887097 0.22642891 0.11486752 -0.286256
0.18366534 -0.27302036 -0.26591685 0.06194607 0.023601348 1.2877678 -0.288498 0.024154041
0.21516067 0.04000641 0.28392476 -0.21871276 -0.49533904 -0.78052884 0.11368389 0.13926879
-0.1895849 0.23636122 0.3620734 0.0077229748 -0.20661184 0.047357954 -0.19994296 -0.029812155
0.6453355 -0.41563913 -0.41634157 -0.20780596 -0.23926435 -0.21000232 0.120261736 -0.19900799
0.122609936 0.27234945 0.37149823 -0.017589152 0.021967817 -0.30788887 -0.0061625624 0.28140423
0.055755164 -0.05270489 -0.22511342 0.37927902 -0.17303814 0.8421839 0.014626478 -0.16674279
-0.09534995 -0.30951226 -0.31584352 0.12870677 -0.43530533 -0.1905238 -0.29168156 -0.20043817
-0.059298716 0.029141106 -0.2334722 0.44034728 -0.027214754 0.18421139 -0.34200755 0.37155798
0.45891145 0.11318138 0.32084745 0.15600657 -0.38040498 0.02777076 0.28956774 0.42358467
-0.07866574 -0.36377478 0.30614352 0.10145621 0.19691785 -0.09759247 -0.14506872 -0.020791028
-0.09657473 -0.6761209 -0.071625255 1.4722062 -0.28311852 -0.25465304 0.19519347 0.1799327
0.0022713642 -0.009216232 -0.6808428 -2.0246902 -0.2631086 0.05080338 -0.74860764 0.04868425

decoder.dec3.bias f4 [58]
00000000: e4f2 fe3c 3378 06bc 4c14 04be b94c 993b
00000010: 84ad 023d 615c fabb d578 19be e9dc 0d3c
00000020: e73b 063c 16d8 89bd c3cf 403b 9f74 babb
00000030: 01c2 31bc e13b 79bb 19ab e1bc 9aef 2cbd
00000040: 7f8e 403d 9e05 d43b b1b5 d83c 9672 62bd
00000050: becb 81bd 0000 0000 3147 efbc c6e9 5a3c
00000060: 992c 5d3d 57b8 9ebd e763 8d3c a845 0fbe
00000070: 2fbd 48bd a0e4 babc e283 553d 50e7 44bd
00000080: 3c04 c7bd 04ad 423b 8967 843b 3785 153d
00000090: a074 dd3d 67d4 88bd 9e14 ad3c 3188 cdbb
000000a0: da76 acbd 4641 d3bb f8b9 99bc 00d8 3cbd
000000b0: a0c7 133d 7874 82bc a2b7 f0bd 20dd 74bc
000000c0: acbf 053d e4f4 5e3d c090 723c b7ca 6cbc
000000d0: b63c 83bd 855f 22bd 6627 cabc 2f4f 173c
000000e0: 92ec e7bc 7b02 a83c
0.031121679 -0.008207369 -0.12898368 0.0046783355 0.03190376 -0.007640407 -0.149875 0.008658626
0.008192993 -0.06730668 0.002942071 -0.005690172 -0.010849477 -0.0038030075 -0.027547406 -0.04222069
0.047010895 0.006470396 0.026453825 -0.05528506 -0.06337689 0.0 -0.029208751 0.0133614
0.05399761 -0.07750004 0.017259551 -0.13991416 -0.049008545 -0.022814095 0.052127726 -0.04807216
-0.097176045 0.0029705176 0.0040406627 0.036503997 0.1081326 -0.066811375 0.021127995 -0.006272339
-0.08421107 -0.00644699 -0.018765435 -0.04610443 0.03607905 -0.015924677 -0.11753775 -0.014945298
0.032653496 0.054432765 0.014805019 -0.014452628 -0.06408064 -0.039641876 -0.02467699 0.009235187
-0.028311048 0.020508995

decoder.dec4.weight f4 [78, 58]
00000000: d2b3 07bf 9199 613a 4f18 f4be dec5 4d3d
00000010: 7179 c1bd 4175 003e 416e 8ebd 4b2c 11be
00000020: 3cb5 d43d 6238 763e d8f4 e13c 332b aabd
00000030: bca8 71bd 76bf 67be 4bbc f93c c30d f53e
00000040: 1d73 e8bc 5228 a23e 2ed9 b2bd ea7c 6d3e
00000050: ca52 bebe 7b4a 85be 3d8b 7bbd f862 a3bd
00000060: 8434 4d3e 8698 42be 27e1 933d e8cd 58be
00000070: 2208 663d 38db 77be c01c d43e 4a81 e2be
00000080: 5402 813f 43a7 6c3d 870f 1bbd ed85 1bbe
00000090: 5a26 853e edb5 4cbd bcb5 88be 0e4e 84be
000000a0: 9e76 253e c4aa 343e 851c 83be 2e1c 1ebe
000000b0: 418e 67be 7ac7 983d eb44 c33b 8714 b73d
000000c0: ebef 573e 220c 613d 76d5 9ebe 5334 d43d
000000d0: 0420 643f 503a 953d 4d03 b1bd 6a9e b73d
000000e0: 3e4c c4be 78a8 cf3d 99e1 eb3e b6b9 a0bd
000000f0: 0ea7 943e e257 0a3f b4bd f03e 41b9 ee3e
00000100: 6376 89be aa66 a8bf 2ee3 313f 6c93 99be
00000110: 329b 28bf 8e3c 10bd 720e 3dbe 506c b3be
00000120: 907f 8d3e 06c8 3a3f 6d4e eb3d c5f1 123d
00000130: 7d58 f2be 7f9e c0be 9e93 aa3f d934 05be
00000140: b3c1 b73e c4f5 63be e460 e03e 7eed f43c
00000150: 67a6 7fbd 8af5 2c3d a9de babe 2712 df3e
00000160: d244 90ba b92d c5bd 9231 683f 8e4e f8bd
00000170: 31ae 92be 0cc8 34be e811 6ebd 7f9b 04bf
00000180: 1e30 c53e a14b bd3c ae46 91bd 56d9 1a3e
00000190: 9ad7 97be 337d afbe 4f03 133e dc31 023e
000001a0: 8c90 d9be 7c9a a83e 62a4 263e 670d 2b3f
000001b0: ac31 ddbe 0ef4 003f b006 c4bf 5f3b d5be
000001c0: 1b43 7d40 3ca5 94be 954c b0be 0aeb cb3e
000001d0: 6b0e 713e 623c dfbe f0ba 053f 32a1 cd3e
000001e0: 2e54 97be f97f 32bd 3f61 66be 7989 073f
000001f0: 171d d03e 2f6a 123d d268 15be 96c7 92be
00000200: aae2 30bd 70bb 84be 4081 62be fd18 adbe
00000210: e0b8 a4be fc38 fa3e 178f 33bf ffb5 b43d
00000220: 14f6 db3e d518 693e 9082 c2be 018d 78bd
00000230: a196 69be 7e0e ca3e 7e15 573e 830e 083f
00000240: a283 f1bd 7770 f4bd 7093 23bd d284 a9be
00000250: 4e6a 463f b0ba d03d 9ac1 b73c ffd3 1cbc
00000260: 22db 66be 0fae 4a3e 984f 88be 1e0d 91be
00000270: f98e 653d ba79 033c d7d4 453d 4d52 0d3e
00000280: 258e 65bf 885e 43be da6e f4bd 6ecc 91be
00000290: f6fe b43e 1e4e d1be 5e17 6d3e 0af1 9d3e
000002a0: d9a9 21be 8478 7c3e 19b1 7e3e d947 13be
000002b0: 4d33 023e 8c17 d9be beaa 803d 1461 9bbd
000002c0: 0138 82bd 1559 b2bd a81d 3a3c e750 a13d
000002d0: ac72 acbc 0811 cd3d 73fd a43d 0b3d 453d
000002e0: 63b0 77be 24b7 223d e7ca 993d 95ad ae3d
000002f0: e166 013e 9009 0e3e 4292 213e af16 1abd
00000300: 1cc6 383e 650c 3a3e c94b a73d baa2 a4bc
00000310: 9f12 8b3d 87d7 47bd 8b84 9bbd 3e7c 3fbc
00000320: d1c0 313e 5219 9c3d 9f15 893e 16f0 5bbd
00000330: 1bbe 333d 381c 823d 100f 753c 38dc 193e
00000340: 5443 90be 4761 283e e1e0 cf3d 6116 fa3c
00000350: eeb3 85bd 0185 a6bd 33a0 ae3c 3239 b3bb
00000360: 6ebc 2c3e a13b 7abe b3e1 c0bc 69bd 2ebd
00000370: 19d9 803d ce2b 91bd d5dc 69be 1ae2 1dbd
00000380: cf1c e9bd 0111 f33d 4115 2fbd 9b7f 213e
00000390: 8c67 93bd 0cc5 90be c258 47be e027 f2bd
000003a0: 86b4 5ebd c91c 1f3e 2a57 983d 3958 633e
000003b0: 157d 50bd be41 24bd b8e0 b33c bd58 c33d
000003c0: 98a6 2bbc cea2 d038 8c1c e83d 865e 70bd
000003d0: dfd4 5d3d 9140 93bc fcc0 673d 7196 4b3d
000003e0: 732b cebb eaeb 8c3d 16f0 f6bd 19e2 2fbe
000003f0: 8c78 5ebd 6b7c b93d bb19 3a3d e740 653d
-0.5300876 0.0008605952 -0.47674796 0.05023753 -0.09446991 0.12544729 -0.06954623 -0.14177053
0.1038613 0.24044946 0.02758257 -0.08309021 -0.05899881 -0.2263163 0.030485293 0.47862062
-0.028375203 0.31671387 -0.0873283 0.23192182 -0.37172538 -0.26033387 -0.061412085 -0.07977861
0.20039564 -0.19003496 0.07220679 -0.21172297 0.0561601 -0.24204719 0.41428185 -0.44239265
1.0078835 0.0577767 -0.037856605 -0.15187807 0.26005822 -0.049978185 -0.26701152 -0.258408
0.1615853 0.17643267 -0.25607696 -0.15440437 -0.2261286 0.07459922 0.0059591434 0.08939462
0.21087615 0.05494321 -0.31022233 0.103615426 0.8911135 0.07286513 -0.08643208 0.08965762
-0.38339418 0.10139555 0.46070555 -0.078479216 0.29033703 0.5404035 0.47019732 0.46625713
-0.26848134 -1.315633 0.69487274 -0.29995286 -0.6586181 -0.035214 -0.18462542 -0.35043573
0.27636385 0.7296146 0.11489568 0.0358751 -0.47333136 -0.37620923 1.3326299 -0.13008441
0.35889968 -0.22261721 0.43823922 0.029898401 -0.062414553 0.04222635 -0.36498 0.43568537
-0.0011006838 -0.096278615 0.9070064 -0.12124358 -0.28648522 -0.17654437 -0.058122545 -0.5179977
0.38513273 0.023107352 -0.07093559 0.1512197 -0.29656678 -0.34275207 0.14356731 0.12714332
-0.42493093 0.32930362 0.16273645 0.66817325 -0.4320196 0.503724 -1.5314541 -0.4164686
3.9572208 -0.29032314 -0.34433427 0.39827758 0.23540656 -0.43600756 0.5223837 0.40162045
-0.29556412 -0.043579075 -0.22498034 0.5294414 0.40647194 0.035745796 -0.14590767 -0.28667897
-0.043184914 -0.25924253 -0.22119617 -0.33808127 -0.32172298 0.488716 -0.7014021 0.088237755
0.4296118 0.22763379 -0.37990236 -0.060681347 -0.22811367 0.39464182 0.21004292 0.53147143
-0.11792685 -0.119355135 -0.03993553 -0.33109146 0.7750596 0.10191858 0.022431184 -0.009572028
-0.2254453 0.1979296 -0.26623225 -0.2833032 0.056044552 0.008024627 0.048298683 0.13800927
-0.8967002 -0.1907903 -0.11935206 -0.2847628 0.3535077 -0.4087991 0.23153445 0.3084796
-0.15787448 0.24655348 0.24872245 -0.14382876 0.12714882 -0.42400777 0.062825665 -0.075868756
-0.06358338 -0.08708397 0.01135961 0.07876759 -0.021050774 0.10013014 0.08056154 0.04815392
-0.2418838 0.039725438 0.07509404 0.08529202 0.12636901 0.13870835 0.15778449 -0.03761929
0.18044323 0.1816879 0.08168752 -0.020097125 0.06790661 -0.048789527 -0.0759364 -0.0116873365
0.1735871 0.07622017 0.26774308 -0.05369576 0.04388247 0.063530385 0.014957204 0.15025413
-0.28176367 0.16443358 0.10150314 0.03052825 -0.065284595 -0.08130837 0.021316623 -0.0054694647
0.16868755 -0.24436809 -0.023545122 -0.042661104 0.06291408 -0.07088433 -0.22838147 -0.038545705
-0.11382448 0.118684776 -0.04274488 0.15771334 -0.071974844 -0.28275335 -0.19467452 -0.11824012
-0.05437138 0.15538324 0.074385 0.22201623 -0.050900538 -0.04010176 0.02195774 0.0953841
-0.010476731 9.9485376e-05 0.1133357 -0.058683895 0.054158088 -0.017975124 0.05658053 0.04970402
-0.0062918006 0.068809345 -0.120575115 -0.17176093 -0.05431418 0.09056934 0.045434695 0.0559701
