IDS_TA/initial_Models/CADE-m10.0-l1.0.pth (torch, 67910 bytes, 16 tensors)

encoder.enc1.weight f4 [58, 78]
0.11409705 -0.24025843 0.27805296 -0.00705319 0.002556873 -0.060776904 -0.11884422 -0.31965643
0.11076437 -0.05887994 0.14475203 -0.41732824 0.1968694 0.047658358 0.0042386437 -0.25215334
0.16285251 0.17341095 0.18439864 -0.07796685 0.033653766 0.01688991 0.18881631 -0.15348606
-0.10860363 0.29926747 0.20492335 -0.00903649 0.17468856 0.07720891 0.023718307 0.13236244
-0.20763655 -0.24193634 0.19535618 -0.25093892 -0.36549535 -0.17592795 0.27690628 0.063258715
0.15650904 0.19549851 0.3529092 -0.20755406 0.00022317955 -0.012600038 0.37664136 0.1515826
-0.23072329 0.119507305 0.14973632 -0.15159552 -0.49256846 -0.17431588 -0.056225672 -0.042228192
0.22994956 0.7450485 0.051254902 0.18681762 0.022150502 0.33202136 0.18733051 -0.008456287
0.013171906 -0.08549579 0.33355412 0.14532016 0.105173394 -0.23745522 0.1671327 -0.012687796
0.0036098307 0.066588186 0.08646847 0.030726695 0.096477576 -0.015496256 -0.0033502 -0.22990038
0.18240948 -0.078112535 0.17541318 0.3874524 -0.13831764 -0.19632763 -0.015599474 0.1056862
-0.024780137 0.36216044 0.024703223 0.18602249 0.29436707 -0.97546834 -0.07135909 -0.04695791
0.08606457 -0.049856357 0.16927837 -0.15278943 -0.14156027 -0.13006008 -0.1749132 0.15819728
0.25099835 0.27207774 -0.059349593 0.28076032 0.09391337 0.14400128 0.45281982 -0.26787403
0.24957293 0.2784018 -0.13470659 -0.56681705 0.0857215 -0.0034767766 0.20841792 0.075417906
0.2668111 0.12106911 -0.05147227 -0.025002545 0.3596504 0.23078313 -0.08713828 -0.25249738
-0.019822698 0.22527823 0.16249126 -0.10031675 -0.12463235 0.034791574 0.2707049 0.4638418
-0.33008888 0.097589016 0.07603025 -0.030535359 -0.13891324 -0.17588054 -0.0045160097 0.253022
-0.14501143 0.24087332 0.14465572 -0.01306599 -0.054085262 0.13714288 0.11390294 0.2936014
0.019522807 0.19436896 0.22136994 0.4389508 -1.0737461 0.09226807 0.2558771 -0.028267829
0.14837298 -0.22182845 0.046926714 0.34549385 -0.14721102 0.12520123 0.15146849 -0.076364234
-0.2296772 0.030838504 0.21881358 0.3452487 0.3275014 -0.22169907 -0.16058531 -0.16498438
0.38199678 0.06182854 -0.19006543 0.018092794 0.1391625 0.2846339 -0.053393733 -0.024893723
-0.07563098 0.21380147 -0.015065732 -0.13512912 0.05152694 -0.2454381 0.257395 -0.11092971
-0.1590116 -0.18745172 -0.020126075 -0.12518916 0.07785292 0.047027383 -0.15285143 0.31827956
-0.16217922 0.09559543 0.17956768 -0.30716926 0.22940457 -0.11096483 0.06788799 0.021581693
0.2452151 0.035058137 -0.23867013 -0.10707309 -0.44456676 -0.044520214 0.21346223 0.05335346
-0.049538724 0.14561197 -0.3257436 -0.097522154 0.20973378 -0.32199126 -0.022691809 -0.18148336
0.007130799 0.044018615 -0.26964504 -0.31306496 -0.12047516 -0.13284169 -0.29032552 0.13913311
-0.3658073 0.016185602 0.9189503 -0.2647701 -0.28311512 0.19605672 -0.05894828 -0.26287282
0.14645362 -0.45286456 0.040981885 -0.15774608 0.29777434 0.1500528 -0.05958291 -0.14424944
-0.08429731 -0.02459628 0.15363209 -0.054063976 0.07587165 -0.18278788 0.18117194 -0.074753046
00000000: b7ab e93d 4e06 76be f55c 8e3e 721e e7bb
00000010: 3691 273b 34f1 78bd 9964 f3bd 02aa a3be
00000020: 6ed8 e23d 182c 71bd e039 143e 0cac d5be
00000030: 2298 493e 6935 433d 52e4 8a3b 3e1a 81be
00000040: cfc2 263e a492 313e ffd2 3c3e 15ad 9fbd
00000050: 88d8 093d b55c 8a3c 1059 413e 732b 1dbe
00000060: 946b debd 9639 993e 6dd7 513e c90d 14bc
00000070: 8fe1 323e b41f 9e3d e54c c23c 058a 073e
00000080: ad9e 54be 29be 77be 730b 483e 117b 80be
00000090: 3522 bbbe 7526 34be a9c6 8d3e c98d 813d
000000a0: e843 203e c330 483e 84b0 b43e 0d89 54be
000000b0: 4e05 6a39 6470 4ebc 23d7 c03e 7838 1b3e
000000c0: ba42 6cbe 3fc0 f43d 7a54 193e db3b 1bbe
000000d0: ef31 fcbe dd7f 32be e44c 66bd 78f7 2cbd
000000e0: e677 6b3e 80bb 3e3f a9f0 513d 1e4d 3f3e
000000f0: f874 b53c b4fe a93e 92d3 3f3e 3d8c 0abc
00000100: face 573c 6b18 afbd 9bc7 aa3e cfce 143e
00000110: 2665 d73d 7627 73be d624 2b3e 79e0 4fbc
00000120: e992 6c3b 635f 883d 6216 b13d 8db6 fb3c
00000130: 0996 c53d 02e4 7dbc 078f 5bbb 016b 6bbe
00000140: 8dc9 3a3e 77f9 9fbd 839f 333e 2960 c63e
00000150: 24a3 0dbe 1c0a 49be f094 7fbc 0272 d83d
00000160: b7ff cabc 186d b93e 6a5e ca3c ae7c 3e3e
00000170: 48b7 963e 4bb8 79bf b724 92bd f056 40bd
00000180: 9f42 b03d 2e36 4cbd 4f57 2d3e d574 1cbe
00000190: 2df5 10be 782e 05be 721c 33be 78fe 213e
000001a0: db82 803e c64d 8b3e 8f18 73bd d1bf 8f3e
000001b0: a755 c03d 1275 133e 00d8 e73e c926 89be
000001c0: 0c90 7f3e ae8a 8e3e 86f0 09be ec1a 11bf
000001d0: c18e af3d a2da 63bb 826b 553e b474 9a3d
000001e0: 779b 883e 15f3 f73d 96d4 52bd 23d2 ccbc
000001f0: 1924 b83e 6a52 6c3e 8e75 b2bd 5647 81be
00000200: 3663 a2bc 56af 663e 1c64 263e de72 cdbd
00000210: 3f3f ffbd 9c81 0e3d d599 8a3e ac7c ed3e
00000220: 6901 a9be c0dc c73d bfb5 9b3d 4a25 fabc
00000230: 463f 0ebe 071a 34be 09fb 93bb 198c 813e
00000240: e07d 14be 7fa7 763e a120 143e bc12 56bc
00000250: 8288 5dbd 2f6f 0c3e f245 e93d ec52 963e
00000260: 4bee 9f3c a808 473e cdae 623e 29be e03e
00000270: 8370 89bf 0bf7 bc3d 5302 833e ef91 e7bc
00000280: 16ef 173e ff26 63be 3a36 403d 92e4 b03e
00000290: 7cbe 16be c034 003e 8e1a 1b3e da64 9cbd
000002a0: 8030 6bbe 08a1 fc3c ab10 603e 70c4 b03e
000002b0: 43ae a73e 1505 63be 7a70 24be aaf1 28be
000002c0: 1595 c33e ec3f 7d3d 83a0 42be 5737 943c
000002d0: 9d80 0e3e 89bb 913e 63b3 5abd eced cbbc
000002e0: 6ae4 9abd c6ee 5a3e 43d6 76bc 4a5f 0abe
000002f0: ea0d 533d 2054 7bbe 47c9 833e 1e2f e3bd
00000300: f0d3 22be 58f3 3fbe 70df a4bc 9631 00be
00000310: 5a71 9f3d c99f 403d 1685 1cbe 8af5 a23e
00000320: 4f12 26be 89c7 c33d 97e0 373e 4a45 9dbe
00000330: 08e9 6a3e 8741 e3bd dc08 8b3d 17cc b03c
00000340: ab19 7b3e 1f99 0f3d f165 74be 2349 dbbd
00000350: 419e e3be d45a 36bd d895 5a3e 2889 5a3d
00000360: 1ee9 4abd 4e1b 153e ddc7 a6be b2b9 c7bd
00000370: 74c4 563e 0adc a4be 2ce4 b9bc c6d6 39be
00000380: 7aa9 e93b dd4c 343d ea0e 8abe 0d4a a0be
00000390: aebb f6bd a707 08be 8ca5 94be e978 0e3e
000003a0: 184b bbbe ab97 843c 5440 6b3f f28f 87be
000003b0: 77f4 90be 18c3 483e c073 71bd 4497 86be
000003c0: f0f7 153e dddd e7be 9fdc 273d 3088 21be
000003d0: e175 983e 71a7 193e 360d 74bd 20b6 13be
000003e0: 11a4 acbd 237e c9bc bb51 1d3e 3072 5dbd
000003f0: 9862 9b3d bf2c 3bbe 2385 393e 2018 99bd

encoder.enc1.bias f4 [58]
0.062385544 0.09794243 0.07743346 0.053780973 0.11582689 0.02373449 0.10464591 -0.0018604919
0.050869472 -0.034654945 0.045703646 0.053186167 -0.04750872 -0.0027773792 0.07608914 0.039480414
0.0020473348 0.09017859 0.12027202 0.010598477 0.15787046 0.1318445 0.0492968 -0.009288277
0.0353181 0.015761612 0.025227865 0.14445652 0.0115116285 0.029012647 0.08428782 -0.023650123
0.045264717 0.06002179 0.06636763 0.08814627 -0.012979355 0.0070088436 0.016679723 -0.09445461
0.06213048 0.034536723 0.07534337 -0.031305082 0.10353266 0.029810194 0.13757242 0.008310949
-0.0074481503 0.07236527 -0.04381472 -0.026706107 0.087131225 0.118040554 0.13348298 0.020927714
-0.04011709 -0.048600886
00000000: fc87 7f3d 0a96 c83d 6f95 9e3d 7049 5c3d
00000010: a636 ed3d d56e c23c 9850 d63d c0db f3ba
00000020: 825c 503d 58f2 0dbd bf33 3b3d bdd9 593d
00000030: 8198 42bd b104 36bb 9fd4 9b3d 37b6 213d
00000040: 942c 063b 8daf b83d 2d51 f63d 3ca5 2d3c
00000050: cba8 213e 3f02 073e 71eb 493d db2d 18bc
00000060: b6a9 103d 7f1e 813c abaa ce3c 69ec 133e
00000070: 459b 3c3c eeab ed3c 189f ac3d e7bd c1bc
00000080: 7f67 393d 69d9 753d c1eb 873d 0886 b43d
00000090: 5ca7 54bc 71aa e53b eaa3 883c 6b71 c1bd
000000a0: 887c 7e3d 6176 0d3d a04d 9a3d c239 00bd
000000b0: ee08 d43d 8234 f43c c9df 0c3e a62a 083c
000000c0: 9d0f f4bb 3e34 943d 1077 33bd c4c6 dabc
000000d0: db71 b23d 3fbf f13d c3af 083e 9970 ab3c
000000e0: d151 24bd b911 47bd

encoder.enc2.weight f4 [39, 58]
-0.067657806 0.009813498 -0.254818 -0.009303056 -0.13922782 -0.25825924 0.38675028 -0.48721075
0.33023536 -0.33137813 -0.21829948 0.37293145 -0.11908449 -0.012100381 0.23688403 0.0028410577
-0.11147501 -0.042063475 -0.26093394 -0.0031379673 0.24704014 0.11246569 0.20658086 0.08124466
-0.29829085 0.109867 -0.21799465 0.107063994 0.29302374 0.13579078 0.084968776 -0.51054066
0.21387923 -0.054404557 0.055008925 -0.2862486 0.34312692 0.0068768878 -0.27117017 0.034104194
-0.017686808 -0.27899203 0.01852377 0.48776326 -0.5365262 0.34056622 0.09867756 0.4556771
0.034172162 -0.12065827 -0.31019664 -0.1956732 0.28986523 -0.04843232 0.118460216 -0.1904285
0.018931722 -0.16780545 0.10313491 0.3627719 0.15134607 0.22237268 0.20456618 -0.0075415536
-0.19544077 -0.057005104 -0.032068186 0.28380638 -0.19159058 -0.19594373 0.2208282 -0.047513172
0.14102666 0.29849714 0.0038890233 -0.23421971 0.21064244 -0.10372686 0.094198816 -0.14208315
0.08238876 -0.041341137 0.24977182 -0.3291808 0.095467255 0.097069256 -0.19058093 0.11105116
-0.057651382 0.07493775 -0.36299577 -0.09571942 0.35037532 0.039029963 -0.13361906 -0.13392912
-0.03178369 -0.30502045 0.050853834 0.03860151 0.34305978 -0.24364525 0.24299565 -0.22325614
0.042219713 -0.17623052 -0.3410628 0.087089755 -0.18009154 0.2587841 0.20087896 -0.16337238
0.01822331 0.27180707 -0.103007995 -0.09910085 0.025691701 0.24106203 -0.09121995 0.038019657
0.0066171526 -0.09929334 0.07911711 0.03600025 -0.00079494156 0.63574713 0.059341528 0.028250892
0.1553157 -0.11399082 -0.17732725 -0.000752278 0.092983134 -0.0012919524 -0.08971213 -0.2166506
0.03100702 0.3108382 0.13234939 -0.06303261 0.38946745 -0.35933116 0.23463464 0.33508033
-0.224493 -0.21000952 0.13876656 -0.094942085 -0.24741659 0.1482563 0.42880923 0.45406082
-0.056195755 -0.049019013 -0.11230381 -0.13253343 0.14667132 0.16884196 -0.14600983 -0.19370951
0.27194083 -0.219016 0.025177428 -0.1297985 0.29221493 -0.20264447 0.058974218 0.20713353
0.33081636 -0.07146689 -0.15437327 0.3350188 -0.0059969965 -0.14810184 -0.27165753 -0.55438673
0.3735562 -0.39114535 -0.34080723 -0.5848264 0.20505276 -1.246989 -0.049831104 -0.50841033
-0.03429387 -0.07345756 -0.643727 -0.8439926 -0.9348597 -0.7747235 -0.027356021 -0.15208113
-0.28245944 -0.14397578 0.22688638 -0.5708309 0.20207888 -0.5099233 -0.26647028 0.29133952
-1.0743884 0.34134573 -0.20769778 0.16504784 0.3409347 -0.46821526 0.1885447 -0.87081224
-0.09978304 -1.1778966 -0.23520829 -0.31541288 -0.61555076 -0.23480326 -0.38901594 0.06749734
0.07993383 0.49034655 -0.44894716 -0.40223402 -0.0064001502 0.001405645 0.32533216 -0.24026386
0.1736974 0.16893105 0.027962591 -0.23988804 0.13746671 -0.39021933 -0.08890041 0.24768569
-0.18006189 0.013771852 -0.3113668 -0.25935435 0.09555944 -0.12734857 -0.2151103 0.20089059
-0.27053657 -0.2602395 -0.082864456 -0.032552283 0.030686114 0.06598037 -0.16107868 -0.16357875
-0.1777397 -0.27360156 -0.13692166 0.21909064 -0.20293382 0.0038232459 0.2516947 0.012453394
00000000: 2d90 8abd cbc8 203c 8177 82be d86b 18bc
00000010: bd91 0ebe 8e3a 84be 2204 c63e b073 f9be
00000020: 9c14 a93e 65aa a9be e689 5fbe dff0 be3e
00000030: 92e2 f3bd ad40 46bc ba91 723e 0a31 3a3b
00000040: 034d e4bd c04a 2cbd 2299 85be 5ba6 4dbb
00000050: 17f8 7c3e 6954 e63d ef89 533e 9a63 a63d
00000060: 94b9 98be f301 e13d fd39 5fbe 5e44 db3d
00000070: 3507 963e bd0c 0b3e 1c04 ae3d cbb2 02bf
00000080: 2803 5b3e 50d7 5ebd 0a51 613d 2d8f 92be
00000090: 55ae af3e 8457 e13b d1d6 8abe d7b0 0b3d
000000a0: ede3 90bc 0bd8 8ebe 29bf 973c 1bbc f93e
000000b0: c859 09bf b25e ae3e 7617 ca3d 824e e93e
000000c0: 1cf8 0b3d af1b f7bd 18d2 9ebe 8e5e 48be
000000d0: 3769 943e f860 46bd 459b f23d b0ff 42be
000000e0: b316 9b3c 31d5 2bbe 6538 d33d 3dbd b93e
000000f0: 77fa 1a3e aab5 633e cc79 513e 231f f7bb
00000100: a021 48be 2f7e 69bd ee59 03bd 124f 913e
00000110: 5230 44be 79a5 48be ca20 623e 2c9d 42bd
00000120: 4b69 103e 9ed4 983e fcde 7e3b 4bd7 6fbe
00000130: a7b2 573e bf6e d4bd 4feb c03d 3f7e 11be
00000140: 70bb a83d 5355 29bd 2fc4 7f3e 638a a8be
00000150: 5684 c33d 3fcc c63d a627 43be ca6e e33d
00000160: db23 6cbd f778 993d 95da b9be 8b08 c4bd
00000170: 6564 b33e e2dd 1f3d 6fd3 08be b724 09be
00000180: 9d2f 02bd a42b 9cbe 1c4c 503d 9e1c 1e3d
00000190: 88a5 af3e 247e 79be dad3 783e 429d 64be
000001a0: 94ee 2c3d c675 34be c99f aebe 1d5c b23d
000001b0: eb69 38be 597f 843e 37b3 4d3e 174b 27be
000001c0: 0d49 953c 4c2a 8b3e dbf5 d2bd 63f5 cabd
000001d0: 6777 d23c f7d8 763e 86d1 babd 80ba 1b3d
000001e0: b3d4 d83b 4f5a cbbd 2708 a23d 0075 133d
000001f0: a063 50ba 53c0 223f 1a10 733d 6a6e e73c
00000200: 140b 1f3e 0574 e9bd 4695 35be 8634 45ba
00000210: f16d be3d bb56 a9ba feba b7bd a8d9 5dbe
00000220: 6f02 fe3c 2f26 9f3e 9986 073e 3e17 81bd
00000230: 4768 c73e 41fa b7be 1044 703e a68f ab3e
00000240: 7ee1 65be bc0c 57be d218 0e3e ff70 c2bd
00000250: c65a 7dbe 80d0 173e e28c db3e a97a e83e
00000260: 852d 66bd 29c8 48bd 8aff e5bd d8b6 07be
00000270: 0231 163e e8e4 2c3e 9a83 15be c95b 46be
00000280: d43b 8b3e bb45 60be e540 ce3c e6e9 04be
00000290: 329d 953e 0882 4fbe f38e 713d d01a 543e
000002a0: c360 a93e 3c5d 92bd 0714 1ebe 9687 ab3e
000002b0: 7482 c4bb 02a8 17be b216 8bbe 4aec 0dbf
000002c0: c242 bf3e 3444 c8be 497e aebe 2fb7 15bf
000002d0: 5af9 513e 569d 9fbf b31b 4cbd 2e27 02bf
000002e0: bb77 0cbd eb70 96bd 4bcb 24bf e60f 58bf
000002f0: f752 6fbf 4754 46bf bc19 e0bc 28bb 1bbe
00000300: 869e 90be 636e 13be e754 683e f921 12bf
00000310: c4ed 4e3e 558a 02bf cb6e 88be 742a 953e
00000320: 8f85 89bf dec4 ae3e baae 54be 4d02 293e
00000330: fe8e ae3e e9b9 efbe dd11 413e 8ded 5ebf
00000340: 0d5b ccbd 51c5 96bf 71da 70be cc7d a1be
00000350: bc94 1dbf 4470 70be 192d c7be 0c3c 8a3d
00000360: 59b4 a33d b40e fb3e 67dc e5be 9ef1 cdbe
00000370: 5ab8 d1bb 9f3d b83a f091 a63e bb07 76be
00000380: bbdd 313e 43fc 2c3e ce11 e53c 36a5 75be
00000390: 13c4 0c3e d4ca c7be 6b11 b6bd 51a1 7d3e
000003a0: 2562 38be 55a3 613c 786b 9fbe 18ca 84be
000003b0: abb4 c33d aa67 02be e045 5cbe 43b6 4d3e
000003c0: c583 8abe 1d3e 85be d7b4 a9bd 8b55 05bd
000003d0: 7261 fb3c b720 873d cff1 24be 3081 27be
000003e0: 6501 36be 8115 8cbe 3135 0cbe 4c59 603e
000003f0: e2cd 4fbe 6c8f 7a3b 21de 803e 5209 4c3c

encoder.enc2.bias f4 [39]
0.027396128 0.075674385 0.051562198 0.07047825 0.0 0.0057477634 0.06414615 -0.040338546
0.06388244 0.11966002 0.098708436 -0.095719114 0.14396147 0.11386513 -0.15964447 0.023505872
-0.08631138 0.050549097 0.05357218 0.0538335 0.08960086 0.042271517 0.047026295 0.02801266
0.00037929928 -0.051760796 0.085242026 0.041318726 -0.013497104 -0.01737993 0.0 0.00044594266
0.11736257 0.09694987 0.023538677 0.09871166 0.021249436 -0.01656864 0.10132892
00000000: d86d e03c 2cfb 9a3d e232 533d e756 903d
00000010: 0000 0000 bc57 bc3b 0f5f 833d 083a 25bd
00000020: ccd4 823d 5010 f53d a627 ca3d 6208 c4bd
00000030: a36a 133e 1f32 e93d d779 23be 638f c03c
00000040: 05c4 b0bd 920c 4f3d 816e 5b3d 8480 5c3d
00000050: a880 b73d e624 2d3d a59e 403d ce7a e53c
00000060: b0dc c639 2103 54bd 5f93 ae3d d33d 293d
00000070: f522 5dbc 5b60 8ebc 0000 0000 69cd e939
00000080: c95b f03d a78d c63d 2fd4 c03c 5729 ca3d
00000090: 4c13 ae3c f5ba 87bc 8985 cf3d

encoder.enc3.weight f4 [19, 39]
0.07184299 -0.11454328 0.42796406 -1.0706902 0.046870884 0.06091383 0.25982273 -0.55298793
-0.13536897 -0.24227338 -0.025654146 -0.3277106 0.17922236 -0.30053428 -0.36963484 -1.2689397
-0.3118905 0.34658408 -0.99774885 -0.06851461 0.3628011 0.20496127 -0.8575846 0.076960444
-0.06720094 -0.5195145 -1.232794 0.40954036 -0.22507256 0.3692731 -0.33133814 -1.5091733
0.18757088 -0.14702809 -1.3813381 0.43479222 0.10454202 -0.15792337 0.2534735 -0.23752712
-0.1382082 0.09006242 -1.164265 0.23574701 -0.32511434 -0.3088775 -0.014834068 0.15798151
0.15328297 0.16111425 -0.33351547 -0.16776463 0.08387694 -0.38024515 -0.7877679 -0.07671711
0.14399031 -1.4742662 0.070907414 0.37992096 0.0704618 -1.399169 0.07898836 -0.2182955
0.09596068 -1.4168624 0.06601757 -0.25405645 0.34981 0.23631366 -1.4183434 0.280701
0.2585788 -1.5169187 -0.007966439 0.1712834 0.18933897 0.052835476 0.40542194 -0.34861392
-0.21608506 0.62346214 0.22106138 -0.16006812 -0.7989664 -1.3389429 -0.20138389 0.16026488
-0.07473833 -1.8036715 0.5325825 0.08976529 -0.11359689 0.83918196 -0.63516784 -0.4370881
0.4018126 -1.482543 -0.1047512 -0.7054602 0.6444511 -0.085014656 -0.091973685 -0.07429261
0.58877987 -1.1353983 0.2171407 0.24248055 -0.20857109 0.8058272 -0.43154186 -0.21223348
0.8819328 -0.44146246 -0.34039176 0.26886132 0.26808608 -0.10760641 0.36612996 0.12013467
-1.8628402 -0.21305828 -0.23258433 -0.15979163 0.0011126852 0.35137317 0.19143899 -0.07864049
0.062109794 0.24396463 -0.16585751 0.024066465 -1.5243034 -0.19130991 0.37264758 -1.6530533
0.20806912 -0.1770279 0.04379272 -1.0701404 -0.058322486 -0.24359606 -0.12581216 -1.5573217
0.103688866 -0.0033459298 -0.099976 0.24398024 -1.3215941 0.3375399 0.33376947 -1.717027
0.25788498 0.35104394 -0.23558035 0.21536788 -0.070735075 0.4221031 -0.084725425 -1.7569342
-0.24472623 0.34226134 0.14259833 -0.5757212 0.3496156 0.4108575 0.37816674 -0.5006637
-0.26243514 -0.004235295 0.29528052 -1.1425759 -0.15525834 0.21311896 -1.7596382 -0.08965093
0.09865453 0.3895762 -1.2150857 0.26547766 -0.27620912 -0.18734257 -1.1375998 0.3490467
-0.45532808 0.37963074 0.1255049 -1.6709569 0.13518041 -0.020832462 -1.2960362 0.11220811
0.16619848 -0.10143188 0.44249085 -0.070379324 0.37221533 0.050120737 0.21024768 -0.14998299
0.15340795 0.16281596 0.027854593 -0.21188429 -0.09105662 -0.115278654 -0.34018648 -0.114840336
0.08213709 0.1737303 0.25916436 0.32298285 -0.07340433 -0.0052902633 0.34960455 -0.29768875
-0.08565692 -0.06257246 -0.2207016 0.004768888 0.050999776 0.32877266 -0.22485803 -0.310977
-0.04624913 -0.126976 0.26748756 0.10984309 -0.17182939 0.062760286 -0.09406357 -0.06565052
-0.33479396 -0.009029362 -0.07795302 0.41870242 -0.17238584 -1.3387533 -0.22398964 0.20562448
0.33932266 -0.52531296 0.1212183 0.26586568 0.2895879 -0.19018602 -0.066042215 0.09159563
0.8470385 -1.295039 -0.4601965 -0.09988511 -1.2349861 0.164634 0.035864055 0.11696037
00000000: 6b22 933d ab95 eabd 1b1e db3e 600c 89bf
00000010: affb 3f3d c880 793d 7c07 853e 9e90 0dbf
00000020: 2a9e 0abe 8316 78be a528 d2bc afc9 a7be
00000030: 1186 373e a1df 99be c740 bdbe 9e6c a2bf
00000040: 1db0 9fbe 7873 b13e 786c 7fbf 6351 8cbd
00000050: 11c1 b93e 5ee1 513e aa8a 5bbf 709d 9d3d
00000060: a5a0 89bd e7fe 04bf 32cc 9dbf 46af d13e
00000070: 6c79 66be 5d11 bd3e 27a5 a9be 972c c1bf
00000080: 9512 403e 888e 16be b0cf b0bf 169d de3e
00000090: 201a d63d aab6 21be 47c7 813e 4f3a 73be
000000a0: 7386 0dbe a572 b83d a306 95bf aa67 713e
000000b0: 6375 a6be 3125 9ebe 970a 73bc e8c5 213e
000000c0: 36f6 1c3e 22fb 243e 8ac2 aabe 7eca 2bbe
000000d0: acc7 ab3d 7eaf c2be 28ab 49bf dc1d 9dbd
000000e0: 3272 133e c1b4 bcbf e837 913d 0085 c23e
000000f0: 474e 903d f817 b3bf a6c4 a13d db88 5fbe
00000100: 0887 c43d bf5b b5bf 3834 873d b013 82be
00000110: 4c1a b33e 35fc 713e 478c b5bf 0bb8 8f3e
00000120: 7164 843e 642a c2bf ab85 02bc ea64 2f3e
00000130: 13e2 413e 036a 583d 7793 cf3e 867d b2be
00000140: 6745 5dbe 379b 1f3f ea5d 623e e6e8 23be
00000150: 1089 4cbf 7b62 abbf 9437 4ebe 7a1c 243e
00000160: 6910 99bd b5de e6bf 5457 083f ddd6 b73d
00000170: 7ca5 e8bd a1d4 563f 5c9a 22bf 03ca dfbe
00000180: 62ba cd3e f8c3 bdbf cc87 d6bd 0a99 34bf
00000190: bffa 243f 2a1c aebd b35c bcbd b926 98bd
000001a0: 47ba 163f bb54 91bf 225a 5e3e d24c 783e
000001b0: a993 55be b14a 4e3f 0ef3 dcbe bc53 59be
000001c0: 59c6 613f 5e07 e2be d447 aebe 31a8 893e
000001d0: 9442 893e c060 dcbd 6375 bb3e 2a09 f63d
000001e0: 8c71 eebf f32b 5abe 962a 6ebe 6ba0 23be
000001f0: 85d7 913a 2fe7 b33e 9508 443e 440e a1bd
00000200: d766 7e3d ddd1 793e 8dd6 29be 0927 c53c
00000210: 601c c3bf bfe6 43be aacb be3e 4097 d3bf
00000220: 1210 553e cd46 35be ff5f 333d 5cfa 88bf
00000230: 8fe3 6ebd 3f71 79be e7d4 00be 5156 c7bf
00000240: d45a d43d 6347 5bbb 38c0 ccbd f5d5 793e
00000250: ff29 a9bf 08d2 ac3e d5e3 aa3e 8ac7 dbbf
00000260: 8009 843e 08bc b33e fa3b 71be 6689 5c3e
00000270: 8ddd 90bd e61d d83e 8684 adbd 38e3 e0bf
00000280: 8399 7abe e13c af3e 4c05 123e 7762 13bf
00000290: d100 b33e ea5b d23e 129f c13e 7f2b 00bf
000002a0: e65d 86be 3bc8 8abb 022f 973e ed3f 92bf
000002b0: 0bfc 1ebe db3b 5a3e d33b e1bf e89a b7bd
000002c0: 630b ca3d 8876 c73e ee87 9bbf b0ec 873e
000002d0: 486b 8dbe bbd6 3fbe df9c 91bf 40b6 b23e
000002e0: c320 e9be f65e c23e 5b84 003e eae1 d5bf
000002f0: bc6c 0a3e d7a8 aabc 84e4 a5bf 5ecd e53d
00000300: ef2f 2a3e 84bb cfbd 298e e23e 0923 90bd
00000310: 0293 be3e 674b 4d3d 2b4b 573e 2495 19be
00000320: f916 1d3e 3ab9 263e 512f e43c 32f8 58be
00000330: e57b babd 3717 ecbd ec2c aebe 6931 ebbd
00000340: 7e37 a83d 5be6 313e 31b1 843e 025e a53e
00000350: 0255 96bd f259 adbb 5eff b23e a96a 98be
00000360: e56c afbd fd25 80bd 9aff 61be 5544 9c3b
00000370: 24e5 503d e454 a83e 2f41 66be 6138 9fbe
00000380: ba6f 3dbd ff05 02be 21f4 883e 6af5 e03d
00000390: 0bf4 2fbe 7788 803d 67a4 c0bd c873 86bd
000003a0: 1d6a abbe e4ef 13bc d5a5 9fbd 2a60 d63e
000003b0: ea85 30be 455c abbf 8a5d 65be 398f 523e
000003c0: b3bb ad3e e97a 06bf 4d41 f83d 8c1f 883e
000003d0: dd44 943e 20c0 42be 2441 87bd 7d96 bb3d
000003e0: 84d7 583f d7c3 a5bf e09e ebbe 9190 ccbd
000003f0: 0614 9ebf d195 283e 30e6 123d eb88 ef3d

encoder.enc3.bias f4 [19]
0.12263812 0.09221924 0.036171816 0.13611476 0.045809463 -0.04614264 0.06262141 0.07062677
-0.034186546 -0.06742367 -0.25585634 0.08109125 0.09252693 0.06807164 0.075044535 -0.00014033366
0.07207311 -0.027375072 -0.021104207
00000000: b229 fb3d 71dd bc3d e628 143d ab61 0b3e
00000010: b4a2 3b3d 1100 3dbd a73f 803d c5a4 903d
00000020: 3107 0cbd 6c15 8abd 9aff 82be 2b13 a63d
00000030: c27e bd3d 2569 8b3d f3b0 993d 8826 13b9
00000040: 119b 933d b041 e0bc bbe2 acbc

encoder.enc4.weight f4 [7, 19]
0.70696604 0.52437866 -1.175511 0.44187152 0.035894204 -0.055366468 0.6422078 -0.63769114
-0.18199788 -0.24456781 -0.2629112 0.1708298 -0.8656613 -1.2359049 0.59912986 -0.20291904
-0.09267439 -0.4391024 0.03851172 0.5048018 0.3783419 -1.1259233 0.23126201 0.45998847
-0.20795119 0.5268737 -1.2507256 -0.06802498 -0.2876173 -0.2954024 0.47669193 -0.7446249
-0.43908906 0.5639553 -0.31000298 0.41837916 0.32847276 0.4550453 -0.13038306 -0.07515669
0.76466733 0.29653126 -0.5878096 0.42389902 -0.40366134 0.93258154 -0.038206052 0.14371112
0.12696525 -0.5024508 1.1371019 1.207733 -0.44593996 0.10684585 -0.67621124 -0.24121608
0.3659568 0.4918956 0.38091204 -0.11070829 0.17912073 0.1811366 0.23339185 0.017510835
-1.1772552 -0.115289055 -0.027376082 -0.2624986 0.039966874 -0.3724266 -1.1011523 0.10031963
0.094959415 0.19803762 0.40036836 0.25967246 -0.069339246 -0.17056887 -0.9891383 0.512739
0.5529866 -0.14929914 -0.20867002 -0.59463096 -0.19618084 0.2506913 -0.71450084 0.44860563
-1.0468988 -0.5144778 0.48830032 -0.2516755 0.24055731 0.34036744 -0.072306685 0.050475214
-0.26323235 -0.030978963 0.2730099 -0.5127078 -0.073831946 -0.08275136 0.6460786 0.11332463
0.4621531 -0.20006336 -0.40734366 0.7409645 0.15078393 0.026131436 -0.3450105 -0.5897806
0.5288951 -0.4662677 -0.26256904 -0.1763636 0.9455399 -0.57685846 -0.27699345 -0.105150655
-0.21145804 0.82333684 0.040775873 0.37447032 0.31217125 -0.62241125 0.53185326 0.66683567
-0.60265064 -0.002089734 0.027271502 0.3727067 0.2186863
00000000: bafb 343f ae3d 063f 2577 96bf fc3c e23e
00000010: cd05 133d f3c7 62bd bb67 243f ba3f 23bf
00000020: a75d 3abe fc6f 7abe 4c9c 86be 02ee 2e3e
00000030: fb9b 5dbf 2232 9ebf 9360 193f 02ca 4fbe
00000040: 12cc bdbd 08d2 e0be 77be 1d3d b13a 013f
00000050: 08b6 c13e 411e 90bf f3cf 6c3e 9c83 eb3e
00000060: 28f1 54be 32e1 063f c717 a0bf ae50 8bbd
00000070: 9342 93be fc3e 97be f710 f43e bd9f 3ebf
00000080: 48d0 e0be 605f 103f b6b8 9ebe cb35 d63e
00000090: 952d a83e b3fb e83e 2383 05be c0eb 99bd
000000a0: 3dc1 433f f2d2 973e b17a 16bf 4b09 d93e
000000b0: b3ac cebe aabd 6e3f f37d 1cbd 0229 133e
000000c0: 2e03 023e 9ea0 00bf 8e8c 913f ff96 9a3f
000000d0: 3e52 e4be ffd1 da3d 2e1c 2dbf 5901 77be
000000e0: b15e bb3e bdd9 fb3e e706 c33e 07bb e2bd
000000f0: 6d6b 373e df7b 393e 46fe 6e3e e272 8f3c
00000100: 4cb0 96bf ab1c ecbd ce43 e0bc 3766 86be
00000110: 4eb4 233d b3ae bebe 8ff2 8cbf 6174 cd3d
00000120: 157a c23d 60ca 4a3e 15fd cc3e caf3 843e
00000130: bc01 8ebd 9ba9 2ebe 2b38 7dbf dd42 033f
00000140: 8890 0d3f e0e1 18be 98ad 55be bc39 18bf
00000150: a1e3 48be 9c5a 803e 87e9 36bf a3af e53e
00000160: c800 86bf d1b4 03bf 8002 fa3e 9cdb 80be
00000170: a854 763e a444 ae3e 8715 94bd 19bf 4e3d
00000180: 64c6 86be 98c7 fdbc f4c7 8b3e d240 03bf
00000190: 3435 97bd 8c79 a9bd 6865 253f be16 e83d
000001a0: 559f ec3e 69dd 4cbe 598f d0be d9af 3d3f
000001b0: 1a67 1a3e 9811 d63c 37a5 b0be ddfb 16bf
000001c0: ab65 073f a4ba eebe 736f 86be a998 34be
000001d0: e70e 723f ffac 13bf 16d2 8dbe 3a59 d7bd
000001e0: 7588 58be 34c6 523f 9a04 273d 93ba bf3e
000001f0: e9d4 9f3e 5856 1fbf 8927 083f beb5 2a3f
00000200: 5047 1abf ebf3 08bb 7c68 df3c 6ad3 be3e
00000210: 4def 5f3e

encoder.enc4.bias f4 [7]
-9.7151504e-05 -0.036385883 -0.039668936 -0.018737618 -0.0026097703 0.0071684667 0.019134
00000000: d1bd cbb8 5d09 15bd e57b 22bd a27f 99bc
00000010: ae08 2bbb 75e5 ea3b e8be 9c3c

decoder.dec1.weight f4 [19, 7]
-0.41142783 -0.32550094 0.16583459 0.72433615 0.30579597 0.7725136 -0.042282976 -0.02569568
0.20335183 -0.22735472 -0.20662257 0.5796997 0.021089703 0.5158852 -0.06446632 -0.0020534482
0.3972589 -0.6018697 0.8432804 -0.30021057 -0.58893657 0.4963319 0.23869503 -0.43683437
0.19194385 0.12776774 -0.8753291 0.7296798 0.73188055 -0.46492812 -0.74779046 -0.24668865
0.8071315 -0.64678663 0.590104 0.022489838 0.10456695 -0.043862205 -0.8847481 0.6063378
-0.5591936 0.2922412 0.10245801 -0.2619003 0.8392183 0.533956 0.7847768 -0.5513087
-0.03886355 -0.78935134 -0.79313874 -0.58131 0.7805097 0.18145785 -0.90611225 0.56524587
0.6353769 -0.53334254 -0.77123356 0.80504715 -0.43218666 -0.88769406 0.54977137 -0.4639005
-0.5509038 -0.60463357 0.6805042 0.46981865 -0.03495424 0.08812146 -0.051923912 -0.17409536
-0.3547453 -0.67293054 0.33938217 0.28035527 -0.21263137 -0.52628887 0.007229828 0.39756915
-0.49471116 -0.2844978 0.21124707 -0.54642016 0.84276885 -0.68406576 -0.30088985 -0.3128668
0.45588046 0.89722496 -0.5707847 -0.71316314 0.9362269 0.7044046 -0.22956449 0.5420221
0.12109087 -0.0134126395 -0.4150933 -0.6366373 -0.7437095 0.5040769 0.6956221 -0.61062324
-0.6301814 -0.829983 0.9701077 0.44103417 0.59282035 -0.49927545 0.15750557 -0.062313028
0.51475763 0.65415406 0.2709959 0.17744832 -0.42135838 -0.019735133 -0.65233284 -0.4040466
0.6456784 0.22706349 0.6013456 0.82814133 0.14737251 -0.104088046 0.5097651 0.8799084
0.27000344 0.622383 -0.56866294 0.7707826 -0.03423834
00000000: aba6 d2be 0fa8 a6be 8bd0 293e 186e 393f
00000010: 4a91 9c3e 74c3 453f ea30 2dbd bf7f d2bc
00000020: 763b 503e adcf 68be de94 53be 3367 143f
00000030: 50c4 ac3c 0d11 043f eb06 84bd 2593 06bb
00000040: 8565 cb3e 2214 1abf 39e1 573f 33b5 99be
00000050: 8cc4 16bf 371f fe3e 786c 743e c1a8 dfbe
00000060: ee8c 443e 8cd5 023e 9115 60bf 4ccc 3a3f
00000070: 865c 3b3f 0f0b eebe 326f 3fbf f39b 7cbe
00000080: 2ca0 4e3f cf93 25bf 0e11 173f 9c3c b83c
00000090: 3227 d63d dba8 33bd da7e 62bf f438 1b3f
000000a0: 5027 0fbf a3a0 953e 81d5 d13d cc17 86be
000000b0: 03d7 563f 57b1 083f 22e7 483f 9122 0dbf
000000c0: 632f 1fbd ee12 4abf 240b 4bbf bbd0 14bf
000000d0: 7ccf 473f 16d0 393e f9f6 67bf f4b3 103f
000000e0: 0fa8 223f 2389 08bf 906f 45bf 9217 4e3f
000000f0: 9247 ddbe eb3f 63bf d1bd 0c3f 5e84 edbe
00000100: 0808 0dbf 44c9 1abf 8635 2e3f 128c f03e
00000110: 2d2c 0fbd 0679 b43d 2bae 54bd 0e46 32be
00000120: 2da1 b5be 2d45 2cbf 80c3 ad3e ba8a 8f3e
00000130: 0abc 59be deba 06bf 31e8 ec3b 2f8e cb3e
00000140: c84a fdbe b2a9 91be 2751 583e 31e2 0bbf
00000150: b3bf 573f ef1e 2fbf 3c0e 9abe 1430 a0be
00000160: 2a69 e93e 89b0 653f f21e 12bf dc91 36bf
00000170: 91ac 6f3f dc53 343f f412 6bbe f6c1 0a3f
00000180: 7dfe f73d b0c0 5bbc 1c87 d4be a9fa 22bf
00000190: bf63 3ebf 2f0b 013f 4a14 323f ce51 1cbf
000001a0: 9153 21bf c479 54bf fa58 783f 3bcf e13e
000001b0: 13c3 173f 08a1 ffbe 2449 213e f23b 7fbd
000001c0: 28c7 033f a476 273f f9bf 8a3e 03b5 353e
000001d0: 49bc d7be 93ab a1bc 49ff 26bf 32df cebe
000001e0: 2e4b 253f 5583 683e c9f1 193f 1201 543f
000001f0: d2e8 163e 1d2c d5bd f77f 023f ad41 613f
00000200: e43d 8a3e 7e54 1f3f e593 11bf 0252 453f
00000210: 803d 0cbd

decoder.dec1.bias f4 [19]
0.07846697 -0.0066052955 -0.0082568135 -0.035569634 -0.00032519893 -0.0009013541 -0.0015805352 -0.030758888
-0.017569944 -0.013567323 -0.02855187 0.03794639 -0.09598515 -0.005309523 -0.003212296 0.24787292
-0.047189172 -0.0069835884 -0.005801013
00000000: 4ab3 a03d 3c71 d8bb 9647 07bc 77b1 11bd
00000010: 767f aab9 da48 6cba f629 cfba 10fa fbbc
00000020: d8ee 8fbc 7a49 5ebc 9ce5 e9bc ad6d 1b3d
00000030: dd93 c4bd 82fb adbb 6285 52bb 66d2 7d3e
00000040: 6f49 41bd 96d6 e4bb 6d16 bebb

decoder.dec2.weight f4 [39, 19]
0.287032 0.2849126 0.067349054 0.4568573 -0.38319606 0.28432143 0.31932172 0.0123056425
0.47604132 0.17426889 1.0547162 0.28857365 0.2748116 0.5248051 -0.072566755 -0.055998612
-0.04217868 -0.30193612 -0.32425538 -0.3687338 -0.15484709 -0.019613054 0.09678947 -0.102082856
0.53268623 0.4776734 0.14754601 -0.07778801 -0.67889136 0.8000775 0.2689797 0.25534222
0.47316062 -0.10418792 0.17908248 0.3300392 -0.4291237 0.64055955 -0.24300057 0.14470296
0.047977783 0.04469319 0.39464512 -0.15682794 0.42987445 -0.29186624 0.22454545 0.5887282
-1.2340666 0.23066533 -0.009587153 -1.489053 -0.51654315 0.16062815 0.26967034 0.24409856
-0.30115762 -0.319988 -0.17252037 -0.49086568 0.36659217 -0.55864793 -0.443808 0.31197786
0.29104704 0.5440216 -0.07310041 -0.032026574 0.10659599 0.4066658 -0.52193123 0.06212065
-0.013448903 -0.46462917 -0.3208328 0.47029832 -0.43019775 -0.066101894 0.25121546 -0.3591094
-0.45976397 -0.36929196 0.61737186 0.29693887 -0.1847998 -0.83381176 0.34208116 0.030010482
0.46020982 0.54097784 0.22975725 0.036938522 0.53928316 -0.11774844 -0.45239332 0.031160153
-0.12927309 -0.22719035 -0.12849882 0.22097483 0.5196895 0.03570712 -0.40373394 0.12447923
0.009297547 1.2512789 0.46967357 -0.12742049 -0.079638965 0.36438394 0.32375613 -0.1726327
-0.16482785 0.48158538 -0.011941205 0.39796686 0.061228193 0.49419868 0.15203427 0.17431775
0.49789712 -0.31048578 -0.29556122 -0.2103428 0.5223584 -0.2617225 0.11050064 0.73929673
0.01398926 0.3398286 0.062393762 0.36588302 0.45281273 -0.23720649 0.42560732 0.48387018
0.29236597 -0.3970536 -0.36226073 0.22327247 -0.12839597 -0.14066082 0.12396485 0.43754917
-0.12810236 0.17123136 0.75406545 -0.4480928 0.20266734 0.3550708 0.4310864 -0.02711202
-0.40694192 0.09417306 -0.21237682 -0.17499983 -0.56556845 0.5360228 0.02944589 0.38791373
-0.3546608 0.30769598 -0.54401636 -0.08672264 0.26406035 0.18157208 0.41547102 -0.14162408
-0.21415271 0.3218419 -0.20892903 -0.5332144 -0.34461507 -0.38493496 -0.21457192 -0.3406993
0.06011611 -0.38426805 -0.10034849 0.24647714 -1.4513838 -0.4381909 -0.07929487 0.12337716
0.17342284 -0.0053819353 -0.8602239 0.33567 0.0476031 0.24495235 -0.60003144 0.35257962
0.28200614 0.4195332 -0.002261962 0.13779916 0.16155827 -0.3758986 -0.5874006 -1.3796079
0.8080411 0.26976612 0.2291878 -0.2381121 -0.2844588 0.45199946 0.17235473 -0.0913935
-0.33286455 -0.2900695 0.09661792 -0.42490262 -0.25131202 -0.1514368 0.4098168 0.07261002
0.22157899 -0.04180275 -1.933984 -0.6255864 0.33749613 -0.16837785 -0.06866131 -0.26640603
-0.0078074913 0.6649256 -0.065688245 0.07146428 0.4171788 0.01763842 -0.12438426 -0.5663216
0.15561916 0.18764605 -0.35749704 0.0045929467 -0.49625373 0.027411012 0.31325433 0.20246908
-0.48125488 0.35968843 -0.3821892 -0.39131522 -0.30754122 0.41769075 -0.39199108 0.3241674
-0.29125372 0.56132287 -0.5344494 -0.37961668 0.5064049 0.0045999973 -0.1152087 0.3874451
00000000: dcf5 923e 10e0 913e 4dee 893d 33e9 e93e
00000010: 4632 c4be 9492 913e 237e a33e 9b9d 493c
00000020: b0bb f33e 8b73 323e f100 873f edbf 933e
00000030: 1bb4 8c3e a159 063f e19d 94bd cd5e 65bd
00000040: 8dc3 2cbd 5f97 9abe cd04 a6be adca bcbe
00000050: 3c90 1ebe 8eab a0bc 8f39 c63d d110 d1bd
00000060: 205e 083f 9c91 f43e 4d16 173e 524f 9fbd
00000070: d3cb 2dbf e1d1 4c3f b5b7 893e 37bc 823e
00000080: 1c42 f23e 7a60 d5bd 6661 373e e6fa a83e
00000090: 1ab6 dbbe b6fb 233f 24d5 78be 032d 143e
000000a0: 5a84 443d 3510 373d ed0e ca3e 8197 20be
000000b0: 8118 dc3e 7e6f 95be 3eef 653e e4b6 163f
000000c0: e5f5 9dbf 8833 6c3e 6f13 1dbc 4a99 bebf
000000d0: 2c3c 04bf b57b 243e 3b12 8a3e f9f4 793e
000000e0: 5531 9abe 78d5 a3be 2ea9 30be bf52 fbbe
000000f0: f8b1 bb3e 8d03 0fbf cd3a e3be 90bb 9f3e
00000100: 1e04 953e 0045 0b3f abb5 95bd 4c2e 03bd
00000110: 004f da3d 8036 d03e 499d 05bf 3972 7e3d
00000120: ca58 5cbc e0e3 edbe 3244 a4be f1ca f03e
00000130: e142 dcbe 6e60 87bd 509f 803e 30dd b7be
00000140: 2f66 ebbe d613 bdbe 150c 1e3f 5f08 983e
00000150: 293c 3dbe b074 55bf 4325 af3e 8bd8 f53c
00000160: 9fa0 eb3e 867d 0a3f 7c45 6b3e d94c 173d
00000170: 760e 0a3f 1826 f1bd 19a0 e7be 9443 ff3c
00000180: 2a60 04be 96a4 68be 3295 03be 3a47 623e
00000190: 5f0a 053f a141 123d 37b6 cebe f7ee fe3d
000001a0: bd54 183c e829 a03f 0e79 f03e 847a 02be
000001b0: c119 a3bd 8890 ba3e 5dc3 a53e a0c6 30be
000001c0: a2c8 28be 5c92 f63e 0ba5 43bc 50c2 cb3e
000001d0: 6aca 7a3d 9c07 fd3e dfae 1b3e 5a80 323e
000001e0: 5fec fe3e fef7 9ebe cd53 97be 1a64 57be
000001f0: 48b9 053f 7e00 86be 294e e23d 8d42 3d3f
00000200: 3633 653c 04fe ad3e 9a90 7f3d 0555 bb3e
00000210: 12d7 e73e 42e6 72be 34e9 d93e d5bd f73e
00000220: feb0 953e 9c4a cbbe 3d7a b9be 8aa1 643e
00000230: 3c7a 03be 6409 10be 49e1 fd3d 7206 e03e
00000240: 442d 03be 4657 2f3e 6f0a 413f 6b6c e5be
00000250: 0788 4f3e d7cb b53e 5bb7 dc3e 071a debc
00000260: b15a d0be cedd c03d 4f79 59be 2833 33be
00000270: 18c9 10bf ca38 093f 8238 f13c a19c c63e
00000280: 1a96 b5be 548a 9d3e a844 0bbf a49b b1bd
00000290: eb32 873e 08ee 393e 9eb8 d43e e705 11be
000002a0: d94a 5bbe 76c8 a43e 7ef1 55be bd80 08bf
000002b0: 6371 b0be 3216 c5be beb8 5bbe 2370 aebe
000002c0: 4f3c 763d c8be c4be 8283 cdbd 8164 7c3e
000002d0: f2c6 b9bf 8f5a e0be 5965 a2bd 2aad fc3d
000002e0: c295 313e f25a b0bb a237 5cbf f0dc ab3e
000002f0: 78fb 423d cad4 7a3e a99b 19bf 5185 b43e
00000300: 1c63 903e 0ecd d63e 6d3d 14bb 391b 0d3e
00000310: 886f 253e c875 c0be e35f 16bf fe96 b0bf
00000320: c8db 4e3f c91e 8a3e 35b0 6a3e a9d3 73be
00000330: 95a4 91be 796c e73e c27d 303e 842c bbbd
00000340: 396d aabe fd83 94be 9edf c53d d68c d9be
00000350: f8ab 80be 4012 1bbe 82d3 d13e 90b4 943d
00000360: 9ae5 623e 5c39 2bbd ca8c f7bf 6e26 20bf
00000370: 4bcc ac3e 3e6b 2cbe 4d9e 8cbd 5f66 88be
00000380: fcd5 ffbb 9038 2a3f 8f87 86bd dd5b 923d
00000390: 7698 d53e 737e 903c 2dbd febd 74fa 10bf
000003a0: a15a 1f3e 4926 403e da09 b7be 6e80 963b
000003b0: f814 febe 0f8d e03c df62 a03e 0e54 4f3e
000003c0: 0a67 f6be 1529 b83e 4eae c3be 785a c8be
000003d0: 0b76 9dbe 90db d53e 0eb3 c8be 45f9 a53e
000003e0: 351f 95be dbb2 0f3f add1 08bf 1e5d c2be
000003f0: c0a3 013f 93bb 963b 8af2 ebbd 345f c63e

decoder.dec2.bias f4 [39]
-0.048322447 0.02318503 0.028974537 -0.019657863 -0.013239515 -0.015664367 -0.031591594 -0.019674163
-0.010790713 -0.04401609 0.021108475 0.08770379 0.0015198671 -0.083882764 -0.021539437 -0.03539994
-0.0063995183 -0.029686565 0.32925734 0.064836085 0.007592618 -0.00087457773 0.00288262 -0.019149492
-0.0038620618 -0.016347243 0.048568796 -0.027028376 0.019217642 0.0051724333 0.0005090999 -0.07113906
-0.010393516 0.040979695 -0.030543009 -0.021640265 -0.03005896 0.0010759251 0.0005145475
00000000: c2ed 45bd 88ee bd3c 025c ed3c 8709 a1bc
00000010: 8dea 58bc 8f52 80bc 3066 01bd b62b a1bc
00000020: 88cb 30bc 374a 34bd aeeb ac3c 0b9e b33d
00000030: 4736 c73a baca abbd 7973 b0bc 87ff 10bd
00000040: 0db3 d1bb 3d31 f3bc 6b94 a83e c8c8 843d
00000050: 7fcb f83b eb43 65ba 57ea 3c3b 65df 9cbc
00000060: a51a 7dbb a7ea 85bc 13f0 463d 9d6a ddbc
00000070: 516e 9d3c 847d a93b 1e75 053a 5bb1 91bd
00000080: 9149 2abc 53da 273d 5535 fabc ed46 b1bc
00000090: 353e f6bc 0e06 8d3a b3e2 063a

decoder.dec3.weight f4 [58, 39]
-0.19160232 0.31157464 -0.2382628 -0.30202356 -0.8377356 -0.23209418 -0.03287549 0.11735539
0.24546035 3.029382 0.0016770446 1.8389279 -0.25877228 -0.1832433 -2.3372095 0.070144504
-0.04891304 0.33916885 -0.2964237 -0.26264456 0.101896785 -0.27890784 -0.072458066 -0.72599554
-0.37564683 0.088802114 -0.33346686 0.27632955 0.4285246 -0.13820471 -0.2877859 -0.11755011
0.0715394 -0.06590397 0.36737758 0.008940859 1.3898337 -0.032269098 -0.17859904 0.1923458
0.12920663 -0.29835796 -0.0709369 -0.11088358 -0.14791757 0.16943637 -0.42156416 0.10589129
2.2112103 0.34517065 0.19954792 -0.20653471 0.15384051 -0.69989663 -0.07665016 0.41347262
-0.042997982 0.6116619 -0.19497275 -0.20581856 -0.2866393 0.16518588 0.022335313 0.34603995
0.32267296 -0.3981809 0.19076739 -0.1734886 -0.2712591 -0.1143761 -0.2136939 0.3439203
0.20548783 0.011044758 0.13932562 -2.7026622 0.10097116 0.034895338 0.19770375 -0.2659828
-0.083812274 -0.27001357 0.20164302 0.12834242 0.2536981 0.33809626 0.37715358 -1.2037907
-0.059997972 -0.08239171 -0.013718104 -0.33547172 0.45641708 0.05767582 -0.4650391 0.17152686
-0.3599985 -0.05337478 0.25913984 0.33403015 0.07385779 0.119459026 -0.07200439 0.34325612
-0.26307213 -0.33593237 -0.2208786 0.0031861516 0.12537515 0.026466986 -0.36367494 -0.30019146
-0.21152532 -0.12542199 2.2278996 -0.12855409 0.0046019913 -1.7435099 -0.19712053 -0.21408959
-0.15775791 1.0538151 -0.08273154 -0.26168823 0.079437 -0.12849954 -3.148529 -0.18831156
-1.5267897 -0.17859934 -0.12437085 1.5192857 -0.23577885 0.14931673 0.33607322 -0.88534325
-0.23761812 -0.025762634 0.32177 0.22779328 -0.80919856 0.3797988 0.10588108 0.71552217
0.33405334 0.16294393 -0.150622 0.16915245 -0.005400722 -0.3283309 0.34794897 0.001079736
0.067288704 -0.061771918 0.13681921 0.39597443 -0.04374453 -0.23965587 0.028578559 -0.21217516
2.0797677 -0.39719978 0.15138966 0.08866189 -0.2470553 -1.0764806 -0.3198708 0.6088847
-0.47141144 0.835404 -1.1998552 -0.2214755 -0.091795035 -0.27290326 -0.2320873 -0.16583769
0.14092083 -0.043381564 0.14614096 -1.126402 0.017706798 0.03919405 1.5778236 0.11392129
-0.28266156 -0.23069221 -0.057604026 -0.28582084 0.29471222 -0.11426917 0.33453953 0.044121884
-3.6070604 0.0672211 -0.18105944 0.19610432 -0.3141065 0.24571355 -0.20026588 -0.24057879
0.2022022 0.00056703226 -0.06117111 -0.2190236 0.080771685 0.16803436 -0.04539874 -0.36091584
0.2873846 0.037280355 -0.02561179 -0.29156137 0.18473846 -0.22258091 -0.008727179 0.34832567
0.17936619 0.2904549 -0.32707298 0.28771853 0.10061045 -0.022432445 0.34290585 -0.16153376
-0.004628917 -0.3379735 -0.016581193 -0.2546479 -0.044253964 -0.24703899 -0.27457425 -0.30653763
-0.068475075 0.14629236 0.16311559 0.122467145 -0.10042536 -0.2940104 -0.15510014 0.026290247
0.09275987 -0.06272716 0.4106435 -2.420599 0.32314932 0.030755274 0.106931284 -0.2420689
0.51137066 -0.28226605 0.010405407 -0.3374364 -0.1881068 0.073833585 -0.09466919 -0.020233683
00000000: 6633 44be b686 9f3e 2afb 73be d5a2 9abe
00000010: d775 56bf 19aa 6dbe 73a8 06bd 0658 f03d
00000020: f559 7b3e 65e1 4140 47d0 db3a fd61 eb3f
00000030: cd7d 84be 22a4 3bbe d794 15c0 eca7 8f3d
00000040: 0a59 48bd 8aa7 ad3e d9c4 97be 5979 86be
00000050: 43af d03d 02cd 8ebe e564 94bd d8da 39bf
00000060: c854 c0be e2dd b53d 2bbc aabe 117b 8d3e
00000070: 9467 db3e 8985 0dbe ac58 93be 1dbe f0bd
00000080: 4083 923d a9f8 86bd ea18 bc3e ae7c 123c
00000090: 12e6 b13f 9a2c 04bd abe2 36be 4cf6 443e
000000a0: be4e 043e 60c2 98be 5e47 91bd ee16 e3bd
000000b0: b477 17be ba80 2d3e 42d7 d7be 88dd d83d
000000c0: 7884 0d40 35ba b03e 4a56 4c3e d67d 53be
000000d0: 5e88 1d3e 6d2c 33bf c2fa 9cbd afb2 d33e
000000e0: a71e 30bd e095 1c3f f0a6 47be 1ac2 52be
000000f0: 63c2 92be 7d26 293e 8cf8 b63c 262c b13e
00000100: 6435 a53e 5ede cbbe 8758 433e ffa6 31be
00000110: 79e2 8abe 043e eabd 93d2 5abe 5216 b03e
00000120: 676b 523e 13f5 343c 60ab 0e3e 6bf8 2cc0
00000130: f8c9 ce3d 6aee 0e3d da72 4a3e e62e 88be
00000140: c5a5 abbd 383f 8abe 827b 4e3e 326c 033e
00000150: b8e4 813e f41a ad3e 461a c13e d015 9abf
00000160: 6fc0 75bd fcbc a8bd e6c1 60bc f3c2 abbe
00000170: 80af e93e 7b3d 6c3d 9b19 eebe bda4 2f3e
00000180: b951 b8be 839f 5abd faad 843e 0006 ab3e
00000190: c142 973d efa6 f43d 0a77 93bd 44bf af3e
000001a0: 64b1 86be 54ff abbe 002e 62be c1ce 503b
000001b0: 5862 003e 4bd1 d83c 9a33 babe b2b2 99be
000001c0: 189a 58be 9f6e 00be e895 0e40 afa3 03be
000001d0: 4dcc 963b 552b dfbf f7d9 49be 4d3a 5bbe
000001e0: 4a8b 21be 6ae3 863f 276f a9bd 00fc 85be
000001f0: deaf a23d 6295 03be 8081 49c0 bfd4 40be
00000200: d86d c3bf bfe2 36be 25b6 febd f477 c23f
00000210: 0370 71be 7ce6 183e ca11 ac3e dba5 62bf
00000220: 2a52 73be 290c d3bc 0abf a43e a442 693e
00000230: a327 4fbf fd74 c23e 2ed8 d83d 762c 373f
00000240: 0a09 ab3e c6da 263e a73c 1abe 4d36 2d3e
00000250: 8af8 b0bb fd1a a8be 5e26 b23e ee85 8d3a
00000260: a9ce 893d 8d04 7dbd 561a 0c3e 29bd ca3e
00000270: 772d 33bd 5968 75be 951d ea3c 7244 59be
00000280: ea1a 0540 c55d cbbe e405 1b3e 5d94 b53d
00000290: 11fc 7cbe 1eca 89bf 1bc6 a3be dedf 1b3f
000002a0: d75c f1be 09dd 553f db94 99bf 79ca 62be
000002b0: 09ff bbbd fab9 8bbe 4ba8 6dbe 5bd1 29be
000002c0: 8d4d 103e deb0 31bd faa5 153e f12d 90bf
000002d0: d90d 913c f189 203d 20f6 c93f 914f e93d
000002e0: 04b9 90be 943a 6cbe 33f2 6bbd 1c57 92be
000002f0: 85e4 963e f405 eabd c448 ab3e 26b9 343d
00000300: 14da 66c0 37ab 893d a567 39be 92cf 483e
00000310: 91d2 a0be 559c 7b3e 8012 4dbe 495a 76be
00000320: 180e 4f3e e4a4 143a 8f8e 7abd b947 60be
00000330: a06b a53d 3311 2c3e 07f4 39bd f6c9 b8be
00000340: 1324 933e 49b3 183d d1cf d1bc 8847 95be
00000350: 142c 3d3e 40ec 63be 71fc 0ebc be57 b23e
00000360: c5ab 373e 81b6 943e 1c76 a7be d84f 933e
00000370: da0c ce3d 3fc4 b7bc 5b91 af3e 1b69 25be
00000380: 2cae 97bb dd0a adbe 48d5 87bc 3661 82be
00000390: a543 35bd caf7 7cbe ff94 8cbe 80f2 9cbe
000003a0: a93c 8cbd aacd 153e c607 273e 0ed0 fa3d
000003b0: d0ab cdbd 8888 96be 92d2 1ebe a55e d73c
000003c0: e3f8 bd3d 1977 80bd dd3f d23e 18eb 1ac0
000003d0: d473 a53e 7cf2 fb3c cafe da3d e9e0 77be
000003e0: 30e9 023f 2d85 90be 717b 2a3c 77c4 acbe
000003f0: 129f 40be 1036 973d ece1 c1bd 1cc1 a5bc

decoder.dec3.bias f4 [58]
0.031732716 -0.0064763553 -0.011158124 0.047089342 -0.012279175 -0.031009465 0.04040407 -0.04111358
0.044277295 -0.024580985 -0.004295233 0.001290194 -0.012072762 0.0 -0.16927105 0.11032653
0.024884429 0.054944552 0.08735026 0.0022910964 -0.0045964587 0.08455141 -0.0034476032 -0.050970733
0.005147758 -0.019296449 0.01606933 -0.0105452435 -0.00014868198 0.0 -0.011335782 -0.0022823298
0.0141212465 -0.0104353735 -0.044814344 -0.036141276 -0.032196436 -0.026673049 -0.023080802 -0.1691619
-0.013356937 -0.03006746 -0.0011828082 0.0305412 0.07454032 -0.031229705 -0.021776812 -0.08920581
-0.011085217 -0.07761732 -0.013892409 -0.027599463 -0.025831388 0.0 0.026948897 -0.008273451
0.06485421 -0.009047285
00000000: 2afa 013d 9b37 d4bb 90d0 36bc c1e0 403d
00000010: 982e 49bc 9007 febc bd7e 253d b766 28bd
00000020: 1c5c 353d 105e c9bc 07bf 8cbb ba1b a93a
00000030: d5cc 45bc 0000 0000 6455 2dbe e0f2 e13d
00000040: 6eda cb3c 8a0d 613d b1e4 b23d 3826 163b
00000050: e49d 96bb 4a29 ad3d 2ff1 61bb b0c6 50bd
00000060: 86ae a83b 9613 9ebc d4a3 833c f5c5 2cbc
00000070: 84e7 1bb9 0000 0000 b7b9 39bc 2493 15bb
00000080: cd5c 673c 21f9 2abc 3f8f 37bd e008 14bd
00000090: 69e0 03bd 7081 dabc f313 bdbc c738 2dbe
000000a0: 0ed7 5abc 0950 f6bc 7508 9bba 8a31 fa3c
000000b0: 98a8 983d 70d5 ffbc 4965 b2bc 89b1 b6bd
000000c0: c59e 35bc d4f5 9ebd fd9c 63bc 4518 e2bc
000000d0: 599c d3bc 0000 0000 efc3 dc3c 5e8d 07bc
000000e0: 49d2 843d 103b 14bc

decoder.dec4.weight f4 [78, 58]
-0.40895382 0.21002862 0.1430458 -1.0364516 0.08028752 -0.025526663 0.18095613 -0.1312827
-0.25283918 0.18056847 0.2756003 -0.18203947 0.2580793 -0.1659529 -0.015931014 -0.16942053
0.28512412 -0.05240534 -0.13802202 -0.12866823 -0.27736193 0.14041631 -0.16742215 -0.046629287
1.0452163 0.1527861 0.13644065 0.117851496 0.32590413 0.2958954 0.048723888 -0.021451881
-0.13792661 -0.008400519 -0.30308536 -0.010173498 -0.16600524 0.3273291 0.08582009 -0.33958033
0.027099568 0.32746503 0.05728132 -0.2082201 0.65849084 -0.17654718 0.24378644 0.23094447
-0.28289562 -0.27389246 -0.035375156 -0.7586419 0.02535207 0.25209185 -0.19675817 0.23039511
-0.23659112 -0.15194167 2.4598079 0.25048122 -0.2965578 0.84395415 0.61526847 -0.09176233
-0.3167714 0.051263005 0.20402724 -0.24636327 0.7093593 1.138603 0.1378226 -0.24216941
-0.3657858 0.15506218 0.26462057 -0.27423802 1.4027237 -0.22573936 2.3700385 0.2295935
-0.17899291 -0.24017671 0.80431736 0.14309178 -0.069790155 0.30614406 -0.2059549 0.16893804
0.16761212 0.39737323 0.62757885 0.07617538 -0.28861636 -0.16015305 -0.21729955 0.49743906
-0.19837165 -0.23782927 -0.30861208 -2.356866 -0.2614354 0.9330998 -0.09260701 0.10792435
0.17365605 -0.08369646 0.44692674 -0.047967147 -0.034188718 -2.5665352 0.3068585 0.21277744
-0.3878054 -0.0616948 -0.051315814 0.20490569 3.3257377 0.2649808 -0.28388563 -1.1412822
0.017444117 -0.32112432 -0.3297061 -0.08021064 0.28578916 -0.039214794 -0.19786623 -1.2577548
0.21592781 0.1452382 -0.061545536 0.23571436 -0.48269933 -0.023474887 0.0702162 0.20132369
0.11023325 0.003115214 -0.28709817 -0.2191259 -1.8179178 0.14242083 -0.007848954 0.06790065
-0.1014193 -0.1099925 -0.23652379 -0.41933167 -0.9481932 0.06295961 0.17123073 -0.20045763
0.03558701 0.07544683 0.102712 0.37216547 0.021947047 1.22609 0.043611366 -1.988254
0.004124966 0.22493783 0.44392812 -0.15200074 -0.67467034 -0.12565076 0.19031185 -1.7845204
-0.24947076 -0.09347024 -0.01725831 0.069121115 0.04177188 -0.024262344 0.041906144 0.17719583
-0.12067393 -0.22304147 0.16233766 0.2922566 -0.081582956 -0.10069619 -0.16991517 0.17484318
-0.18304743 -0.13533376 0.12284817 0.18967141 0.012153044 -0.017143322 -0.122375354 -0.12593795
0.15183167 -0.3362106 -0.06986776 -0.15099303 0.10949355 0.025651677 0.012220544 -0.01991591
-0.066570655 -0.02433177 0.30583945 0.06294512 0.10722232 -0.09110381 0.18124555 -0.007822402
0.015687382 0.12394602 -0.22471829 0.24723981 -0.2046106 0.17096953 0.09186589 0.040365152
-0.023075338 0.023881823 -0.0661534 0.22810292 -0.16734143 0.18328562 0.21934316 0.22732161
0.2646067 -0.0006589182 -0.26689667 -0.2106721 -0.0876049 0.0037486777 0.06484087 0.06831657
-0.03123099 0.12701806 0.102422975 -0.2904574 -0.039828856 0.11848894 0.089681566 0.053925935
-0.25318855 -0.15483236 -0.18504861 0.11815243 -0.073765196 -0.13112159 0.0072307913 -0.1294143
-0.073180266 -0.026406523 0.053415157 -0.03532174 0.11620906 0.08445456 0.2172368 -0.15851009
00000000: 6562 d1be be11 573e 997a 123e 72aa 84bf
00000010: c96d a43d 4b1d d1bc 904c 393e f96e 06be
00000020: 2374 81be f1e6 383e 7c1b 8d3e 8e68 3abe
00000030: f822 843e 8fef 29be c281 82bc 937c 2dbe
00000040: cafb 913e fba6 56bd a555 0dbe 9bc1 03be
00000050: 6202 8ebe 4bc9 0f3e b670 2bbe 5afe 3ebd
00000060: a6c9 853f f673 1c3e 19b7 0b3e 205c f13d
00000070: e8dc a63e 9a7f 973e b392 473d dbbb afbc
00000080: a23c 0dbe 55a2 09bc 012e 9bbe beae 26bc
00000090: 47fd 29be ae97 a73e 71c2 af3d 79dd adbe
000000a0: eaff dd3c 7fa9 a73e d19f 6a3d a637 55be
000000b0: db92 283f c9c8 34be 27a3 793e b57c 6c3e
000000c0: b2d7 90be a23b 8cbe 8ae5 10bd 5b36 42bf
000000d0: 25af cf3c 2f12 813e f97a 49be b2ec 6b3e
000000e0: f144 72be 9996 1bbe 7e6d 1d40 133f 803e
000000f0: 6dd6 97be 610d 583f 3c82 1d3f e3ed bbbd
00000100: dc2f a2be 28f9 513d 84ec 503e a746 7cbe
00000110: 9298 353f bebd 913f 5e21 0d3e 42fb 77be
00000120: 4748 bbbe 9fc8 1e3e 597c 873e ed68 8cbe
00000130: 738c b33f 3828 67be b6ae 1740 8f1a 6b3e
00000140: eb49 37be e2f0 75be bee7 4d3f a786 123e
00000150: 24ee 8ebd eabe 9c3e d7e5 52be 18fe 2c3e
00000160: 83a2 2b3e 8174 cb3e 02a9 203f d601 9c3d
00000170: 86c5 93be 29ff 23be c683 5ebe 55b0 fe3e
00000180: f021 4bbe 8489 73be 6702 9ebe e4d6 16c0
00000190: dcda 85be a1df 6e3f bea8 bdbd 7107 dd3d
000001a0: e4d2 313e 0d69 abbd 95d3 e43e 3379 44bd
000001b0: 7809 0cbd 1d42 24c0 8f1c 9d3e 54e2 593e
000001c0: 6e8e c6be b0b3 7cbd 8830 52bd ccd2 513e
000001d0: e3d8 5440 90ab 873e 7559 91be 8915 92bf
000001e0: f7e6 8e3c 686a a4be 3dcf a8be 7a45 a4bd
000001f0: f552 923e b19f 20bd 729d 4abe 1cfe a0bf
00000200: 2e1c 5d3e 53b9 143e 2c17 7cbd 1b5f 713e
00000210: 5e24 f7be 684e c0bc 83cd 8f3d cc27 4e3e
00000220: f8c1 e13d 9e28 4c3b 88fe 92be 8a62 60be
00000230: 88b1 e8bf c4d6 113e e698 00bc 7f0f 8b3d
00000240: ecb4 cfbd bf43 e1bd 4b33 72be a4b2 d6be
00000250: cabc 72bf f8f0 803d 1c57 2f3e c444 4dbe
00000260: afc3 113d de83 9a3d ab5a d23d 798c be3e
00000270: 4bca b33c 84f0 9c3f d5a1 323d 1b7f febf
00000280: b92a 873b 1a56 663e 8c4a e33e 15a6 1bbe
00000290: 32b7 2cbf 98aa 00be 1ce1 423e 2a6b e4bf
000002a0: 4375 7fbe 536d bfbd 4d61 8dbc 5f8f 8d3d
000002b0: fe18 2b3d d3c1 c6bc c7a5 2b3d d372 353e
000002c0: e523 f7bd fc64 64be d83b 263e a8a2 953e
000002d0: f714 a7bd ce39 cebd 3efe 2dbe 170a 333e
000002e0: c970 3bbe ef94 0abe d297 fb3d 3939 423e
000002f0: 901d 473c 2770 8cbc ee9f fabd e1f5 00be
00000300: c379 1b3e cc23 acbe d416 8fbd eb9d 1abe
00000310: 283e e03d 7723 d23c ad38 483c b126 a3bc
00000320: 3256 88bd 6c53 c7bc fd96 9c3e 5fe9 803d
00000330: 6097 db3d a294 babd 6f98 393e 8829 00bc
00000340: d382 803c 69d7 fd3d 8d1c 66be 6f2c 7d3e
00000350: 7185 51be a312 2f3e 2f24 bc3d ee55 253d
00000360: 7e08 bdbc d0a3 c33c 6f7b 87bd d093 693e
00000370: 8d5b 2bbe 3aaf 3b3e 7e9b 603e ffc6 683e
00000380: 887a 873e 40bb 2cba aea6 88be 6dba 57be
00000390: 336a b3bd 60ac 753b 4acb 843d 8fe9 8b3d
000003a0: 22d8 ffbc 0611 023e 23c3 d13d d5b6 94be
000003b0: 9523 23bd 54aa f23d f8aa b73d 71e1 5c3d
000003c0: eea1 81be 608c 1ebe 627d 3dbe e7f9 f13d
000003d0: 3512 97bd bd44 06be 46f0 ec3b 2f85 04be
000003e0: 89df 95bd 7e52 d8bc dac9 5a3d 87ad 10bd
000003f0: 04ff ed3d 83f6 ac3d 5373 5e3e 7850 22be
