IDS_TA/initial_Models/CADE-m15.0-l0.1.pth (torch, 67910 bytes, 16 tensors)

encoder.enc1.weight f4 [58, 78]
00000000: 987b 04be 6aa0 42be c5e7 84be c2ae 1fbd
00000010: a2de 21be ad80 6e3b c218 10be d332 7bbd
00000020: 2e14 46be 03b0 1bbd b81c 1cbe b3f5 fbbd
00000030: ff32 1fbe 24a5 333d 87e4 17be d920 89be
00000040: d62d 7fbe da69 39be 8876 233e a7d2 213c
00000050: 1e79 b1be c6b6 4b3c 56e5 ccbe 0cdc 91be
00000060: a9ab 963d e5d0 adbe 75ea 993e 86bf 2dbe
00000070: 545f ffbc b9bb e23d ff67 05be 816a ab3e
00000080: d878 8ebd 29ee 15be 7d30 a2bd b651 f9bc
00000090: e209 993e 07c5 d53c f4a5 00be 6bbc 40bd
000000a0: 0599 9abc 5b21 273e fe58 423e 11dd 86be
000000b0: dab2 803d 5e7f 223e 2e9e efbc 4b4f a43e
000000c0: 6119 cabd 507d 1e3e 0374 adbd ca03 cb3d
000000d0: c9e3 10be 5e14 58be d2c1 d53c 6a4d 70bd
000000e0: c182 bebc 60ea b23e 1509 53be 6191 833e
000000f0: 3ef8 923d 0ff7 173d feb0 5b3e c423 063e
00000100: 49fb 38be e745 173d 7e79 4d3e 78b4 383d
00000110: fded 823e 55d1 7bbd d8f5 d7be 0a38 03be
00000120: 1bce d2be 1e9f 193d b54d 5bbe 8b74 87be
00000130: 7db1 e0bd 707f b6be 77e5 d13e 7ad6 10bd
00000140: 1769 a03d b1f0 2e3e fb62 003e 2315 c5bd
00000150: 5010 4bbe 28c4 23be 0b69 5cbe 7726 67be
00000160: 6f21 2a3e 2226 a0bd 1e20 5cbe d39b bdbb
00000170: c3ba 253e 5d12 603c 7926 0cbc 0b82 a13c
00000180: 96d3 943d df83 213d 45a1 5f3d 366d 0b3e
00000190: 92de 77bd 53d2 b13e 1c6f 0d3d e62e 103e
000001a0: cdbd 403d 74d8 713e ebcf 8d3e 42a8 15bc
000001b0: 9565 a63c 4b43 21be b323 42be 7010 60bb
000001c0: eb2c d4bd 15d2 1bbd 8d76 5d3e 9566 c43c
000001d0: 1ebc a03c 63dc 953d 6c97 a43c 9d9d e83d
000001e0: 5aee bfbc ddb4 1b3d 6537 d33d 6f0c 3a3e
000001f0: ca01 703e b68c 8fbe 604b 023e 5790 fc3d
00000200: 832a 8c3d 2b7a a53d 1ba0 31bd 64b2 2a3e
00000210: 0fc2 e53d 8432 2e3e 1d55 603e f702 d93e
00000220: 7ff3 9cb9 9eb4 043d dc32 593e 9046 933d
00000230: ecc8 09be c60b e33c 1220 273e ec7e dbbd
00000240: 9d34 2cbd 5b93 9d3d cb34 f13c e191 e5bd
00000250: ef63 783e 44b2 163e 62fd 81bd 914f 02be
00000260: a21b 883e 11da 12be 4f17 72bc 653c b83e
00000270: 7e0c 5c3d 6ecc 953d a8fa 29be 0854 653e
00000280: c0c5 1d3e fc9c 9c3d f0a9 e2ba db06 3fbe
00000290: eb56 d0bd e5ac 42bd af32 463e 02db 24be
000002a0: c70e 1dbe 5041 493b 5dff 243e 4aff 9f3d
000002b0: 596e 9d3e 6712 1d3e 1612 2f3b fc12 84bc
000002c0: 2507 f5bd 481b 6a3e 1182 383d ff10 9b3d
000002d0: 7f9f 34be c6b6 62be 6c1c 863e 478b 0dbd
000002e0: 6f18 5e3e 9635 a23c 81bd 3d3b b484 1dbe
000002f0: e01c bfbe d426 f3bd 690d 053e 6848 1a3d
00000300: 9a9d 8ebc 9a54 613e aaca 2ebe d28c 393e
00000310: a8f4 69bd 88a8 86be 4063 533a f748 04be
00000320: b467 443e adef e13d 8e6e e43d 321b bebc
00000330: 2fbd a6bd dcb1 243d e81b 873d 6d15 79bd
00000340: 95cf 8ebd 79da 403e 475e 493e 1948 6dbe
00000350: 7d38 9dbd 4d89 b03e 6682 853d 58c5 72be
00000360: cbbe 1b3e ac69 3abc 3630 483d d1f9 61bc
00000370: fa89 793e 2772 c3bc acaf 6e3d 9e88 683e
00000380: bb85 1abf 802f fbbd 0fb4 07be 5977 fc3d
00000390: d8d0 a63d 5bc0 723e 5b04 d2bc ec2b a63d
000003a0: 1425 cf3d d2c4 603e d5a2 91be cc77 cc3d
000003b0: 7b69 d7bd c255 b23e 45af 33bd a009 7fbe
000003c0: b37a 623e 72e5 2f3e cf14 8d3e 9f88 6d3e
000003d0: ccff 8f3d 962d 1b3e b242 1bbe 0252 c4bd
000003e0: 65e9 13be 77dc b43b 05e5 a43e fdbf b1be
000003f0: e333 663c d5ef 643e 7735 05be 0148 1a3e
-0.12937772 -0.19006506 -0.25958076 -0.03898502 -0.15807584 0.0036392615 -0.14071944 -0.061327767
-0.19343635 -0.038009655 -0.1524533 -0.12302723 -0.15546797 0.043858662 -0.1483327 -0.26782873
-0.24919829 -0.18106785 0.15963185 0.009876884 -0.34662718 0.012433713 -0.4001872 -0.28488195
0.0735696 -0.33948436 0.3006169 -0.16967592 -0.031173386 0.110709615 -0.13027953 0.33479694
-0.06956643 -0.14641632 -0.07919405 -0.03043447 0.29890352 0.026094927 -0.12563306 -0.04705469
-0.018871794 0.16321318 0.1897926 -0.26340535 0.06284113 0.15868899 -0.02925023 0.32091746
-0.09868122 0.1547749 -0.08469393 0.09912832 -0.14149393 -0.2110152 0.026093397 -0.058667578
-0.023255708 0.3494444 -0.20608933 0.25696853 0.07176255 0.037100848 0.21454236 0.13099581
-0.18064608 0.0369319 0.20065877 0.045093983 0.25572196 -0.06147893 -0.4217975 -0.12814346
-0.4117287 0.03750526 -0.21416362 -0.26456103 -0.10971353 -0.35644102 0.4099538 -0.03536079
0.07832544 0.17084004 0.12537758 -0.09623172 -0.19830441 -0.15992796 -0.21524446 -0.22573267
0.16614316 -0.07819773 -0.21496627 -0.005786398 0.16184525 0.013676253 -0.0085540945 0.01971533
0.07266919 0.039432403 0.054597158 0.1361588 -0.060514994 0.34730777 0.03452979 0.1408039
0.047056008 0.23617727 0.2769769 -0.009134354 0.02031211 -0.15748326 -0.1895893 -0.0034189485
-0.1036013 -0.038042147 0.21627255 0.023974696 0.019620951 0.07317426 0.020091735 0.11358187
-0.023429085 0.03801428 0.103133 0.18168806 0.23438182 -0.2803704 0.12724066 0.12332218
0.06844046 0.08079942 -0.04336558 0.16669613 0.11218654 0.17011458 0.21907468 0.42385074
-0.00029936057 0.032398812 0.21210808 0.07191193 -0.13455552 0.027715575 0.16320828 -0.10717568
-0.042042363 0.076941215 0.029444119 -0.11209465 0.24256872 0.1471644 -0.06347157 -0.12725665
0.26583582 -0.14340998 -0.014776065 0.35983577 0.05372285 0.073143825 -0.16599524 0.22395337
0.15407467 0.0764713 -0.0017293077 -0.18654959 -0.10172828 -0.047528166 0.19355272 -0.1609917
-0.15337668 0.0030709095 0.16113038 0.078123644 0.3074825 0.15339051 0.002671366 -0.016122334
-0.11964253 0.2286197 0.045045916 0.07571601 -0.17638968 -0.22140035 0.2619356 -0.034556653
0.21689008 0.019800942 0.0028952064 -0.15382653 -0.37326717 -0.1187264 0.12993397 0.03766671
-0.017409135 0.22004929 -0.17069498 0.18120125 -0.057118088 -0.26300454 0.00080638006 -0.12918459
0.19180185 0.11032043 0.11153899 -0.023206327 -0.08141553 0.040208682 0.065971196 -0.06081145
-0.06973187 0.1883334 0.1966487 -0.23172034 -0.0767679 0.34479752 0.06519012 -0.23708093
0.152095 -0.011377733 0.048874103 -0.013792471 0.2436904 -0.023858143 0.058273003 0.22708365
-0.60360307 -0.12264919 -0.1325228 0.12327451 0.081453025 0.2370619 -0.025636842 0.08113846
0.10114494 0.21950081 -0.28444543 0.09983787 -0.10518166 0.34831053 -0.043868322 -0.24906015
0.22117119 0.1717737 0.27554938 0.23196648 0.07031211 0.15154108 -0.15162161 -0.09585954
-0.14444502 0.0055194455 0.32205978 -0.34716788 0.014050457 0.22357114 -0.13008676 0.1506653

encoder.enc1.bias f4 [58]
00000000: b6db 443c 262e 703d 5856 353e 1fdc 193e
00000010: 41c1 233e 9921 493d d5fd f7bb a394 35bc
00000020: 5f29 fa3d bb80 6b3d 097d 803d 761a 663d
00000030: 85f6 c13d cccd d13d 4cb5 c43c d2a0 023e
00000040: a2f2 ca3d df3b 213c e7ce 5c3b 6b54 5d3d
00000050: 29c4 043e 72b1 183d ea0f fe3b 67bd b23d
00000060: b439 9b3c 3053 603b aa6d 853c 8941 b73d
00000070: 3611 143d 9044 18bc 09dc 043e 5fd3 6c3d
00000080: 4ebb 4c3d 7d7b 13bc d98d 82bb b10b 0bbd
00000090: 1d8c 903d 44f7 abbc dc89 da3d 2dae e63d
000000a0: a714 dd3d 3c6b 6eba ad66 27bc 9ed4 443c
000000b0: 051d ce3d 50d7 ec3d 855d 003e 891d 6037
000000c0: 9f02 a23d df4a 483d 26dc d33d fdac 98be
000000d0: c370 2b3c bed4 2a3e 2305 a4bb 1717 3abd
000000e0: 8993 c83d 9c16 6dbd
0.012015274 0.05863776 0.17708719 0.15025376 0.1599169 0.049104307 -0.007568101 -0.011082801
0.12214922 0.057495814 0.062738486 0.05617758 0.09470848 0.10244331 0.02401223 0.1275666
0.0990956 0.009840935 0.003369266 0.054035585 0.12965454 0.0372786 0.007753362 0.08727532
0.018948413 0.003422927 0.016287643 0.08948047 0.036149226 -0.00929369 0.12974562 0.057818767
0.049983315 -0.00900161 -0.0039841947 -0.033946697 0.070579745 -0.020991929 0.10670826 0.1126369
0.10794955 -0.00090949587 -0.010217351 0.0120135825 0.10064129 0.11564505 0.12535675 1.3358317e-05
0.07910656 0.048899528 0.10344724 -0.2981948 0.010463896 0.16682717 -0.005005495 -0.045432176
0.09793765 -0.05788289

encoder.enc2.weight f4 [39, 58]
00000000: 1a21 0c3d 86cd 22bd 60d6 42be 49d0 c9be
00000010: afb4 95be 5baa 003f fa7d 0e3f 1563 8f3e
00000020: e4d8 c73e 91a0 08be fffb 723c 32c8 2e3d
00000030: d788 9e3e fedd 943e 7c9c d43d 12b8 303e
00000040: 427e 653e e4a0 473e db16 d03d ffa5 9a3e
00000050: 4d15 123c a36f aa3d 4f0a c83d 15b0 22bd
00000060: e8fc 8c3e 1962 0bbe 62f8 e6bd c319 103d
00000070: 8cd6 80be 50d6 8cbe 6ce9 af3d b37b 85bc
00000080: 13af 6a3e 426a 713d 414d c33e e0f8 bd3e
00000090: eb06 1e3d 1c37 6ebe c938 8d3d 1fdc 1a3e
000000a0: 854c ba3e e585 edbd 1538 873d c9e3 c93e
000000b0: 3e1a b93e 0f5d 783e ce2a 2dbe 797d cabd
000000c0: e3cf a8be 5e3f c43e 6b0d 17be 1043 69bf
000000d0: 24b1 3d3e 3eb6 95be 5aff 8a3d b81c 6cbd
000000e0: ccc6 c83d c601 5cbe f60b f3bb bbdc 07be
000000f0: 6cb5 ffbd ce61 9b3d 0c99 1abe 6016 043e
00000100: 7a9d e23e 253e 64be c337 213e 540f 4cbe
00000110: 78de c73d 1537 383d b8a6 2c3d 0874 0cbd
00000120: c3de 363e 99b6 67ba dff8 473e 0cf1 62bd
00000130: a1a7 f1bc 6e2d d33e cae7 033e beab 343e
00000140: dd94 603e 476c 6cbe 9ef4 983e a52d 723e
00000150: e751 623e 45bc 18be ac8b 153e 08e9 d53d
00000160: ccec 983e 7c92 c7bd 3645 9dbd cdc0 783d
00000170: 06a5 383e 7f76 fc3e 606e e83d 73ba 853e
00000180: d276 153e c243 ed3e 16e5 31be bd0f b6bd
00000190: 5f4c 59bd 87f6 af3d d8de 83bd 875e a93e
000001a0: b5cd b23e dc92 64be a391 0cbe a0aa 8f3e
000001b0: bb06 69be 6fc1 e8bf 0f38 99be 8155 553e
000001c0: c327 bc3c 8cd1 e93e c110 9e3d 5c92 573e
000001d0: 0da2 cfbd c9e8 77be ac35 4fbe bf4a 033d
000001e0: 3100 0dbd ffbf 4c3e 4947 bd3e 46d1 d6bc
000001f0: 1ae3 f4bd f7d5 063e 6cf0 a53e 5b9c 073c
00000200: d9e0 86bd 80a6 8e3e 799d 813e a562 f5bd
00000210: 7ef9 36be 6ea1 41be 82d0 123e 2410 29be
00000220: 14f2 68ba a0e2 a4bc ccfd 96bd 2882 a03e
00000230: 3066 e0bd c7d8 a33e 390b 2bbf 818d d5bd
00000240: 3d01 f8bd 8577 71be 032f fdbd 11bf 0dbe
00000250: 5435 9abe 88aa ae3d 1a50 fc3b f3bd 3c3c
00000260: 69df b33e 42eb 873f e87c 443d 088e c63e
00000270: db19 27bd e569 66be caf2 6bbe a546 b8bd
00000280: e355 b73e 8d02 9ebe e0cc 4c3e 6b7b 953e
00000290: 028f 893e a7da aabd 68a7 4f3e b76a 59be
000002a0: 1da0 a7bc 2e4e 88bd eaf1 103e 7399 d73e
000002b0: e94e bdbe ed4d 40be 6b6f 023e cc3a e8bd
000002c0: 4acc 8d3e 5503 a63d cdbf b0bd 576b a43b
000002d0: 9898 60be abab 16bd 47ee 893d e417 373c
000002e0: cacd 63be 584f aebd ac20 39bd adaa 0b3c
000002f0: 349d 14be e5f8 a93e 3463 583e e337 8d3e
00000300: 2fa3 4abe a5ba a63e cb8e b43e da6e f53d
00000310: 5318 3e3e 8dd7 50be d39b 353d 1720 2b3d
00000320: 671b a9bd d865 b7bd 1ced 91bd 4d04 133d
00000330: d452 cb3e b530 80be 068a 09be b555 febc
00000340: 8554 ff3d 0741 cb3c a6c6 783e ff44 503e
00000350: 80e7 a43e 8240 ee3d fa04 51be 5269 733c
00000360: caa3 0ebe 669b 253e 6dd0 523e bee9 713e
00000370: 21cc d9bd 2298 36be 8f9a 923e 0d36 203e
00000380: 317f 883e 856f a1bf 25f7 d4bd 3ecc 8b3e
00000390: 5e9d b63d a2b2 4b3d 1e87 293e b174 dcba
000003a0: e9a2 acbc 151c af3e b23c 303e efdc 883e
000003b0: dedc 3cbe 6663 bd3e 55d1 b03e 77f1 a23e
000003c0: 02fc 493d 86c3 89bc fc30 ce3e 8840 7b3e
000003d0: e464 2a3e 0e85 c03e 782b d93e 3c00 c13d
000003e0: 31f0 633e de77 ad3e 4821 f43d 41dc ec3e
000003f0: d35d b8bb 2a6f 6a3e aff3 573d a908 f43c
0.034211256 -0.039746784 -0.1902709 -0.3941672 -0.29239413 0.5025994 0.55660975 0.2800528
0.39032662 -0.13342501 0.014830588 0.04267139 0.30963776 0.29075617 0.103814095 0.17257717
0.22411445 0.19494969 0.10160609 0.3020477 0.008916211 0.08322074 0.09767591 -0.039718706
0.27536702 -0.1361164 -0.11277844 0.03518082 -0.25163686 -0.27507257 0.085894436 -0.016294336
0.22918348 0.058939226 0.38144878 0.3710394 0.038580816 -0.2326321 0.068955965 0.15123032
0.36386505 -0.11597804 0.06602494 0.394316 0.36152834 0.24254249 -0.1691086 -0.09887213
-0.32971105 0.38329595 -0.14751212 -0.91117954 0.18524605 -0.29240602 0.06786986 -0.057644576
0.098035425 -0.21485052 -0.0074171973 -0.13267796 -0.12485775 0.07587014 -0.15097445 0.1289916
0.4426077 -0.22289331 0.15743928 -0.19927722 0.097592294 0.044974405 0.042151183 -0.034290344
0.17858414 -0.000883916 0.1952853 -0.05540566 -0.029498877 0.41245598 0.1288139 0.1764364
0.21931787 -0.2308818 0.29874128 0.23650225 0.22101556 -0.14915569 0.14604062 0.10444838
0.29868162 -0.097447366 -0.076792166 0.060730744 0.18031701 0.49309155 0.11349177 0.26118812
0.14596108 0.46340758 -0.17372546 -0.088897206 -0.05305135 0.08591943 -0.064389884 0.3307993
0.34922567 -0.22321647 -0.13727431 0.28059864 -0.22756474 -1.8184031 -0.29925582 0.20833398
0.022968179 0.45667684 0.07718039 0.21051925 -0.101383306 -0.24209894 -0.20235318 0.032053705
-0.03442401 0.19995116 0.3696845 -0.026222836 -0.11957379 0.13167559 0.3240999 0.008277024
-0.06585855 0.27861404 0.25315455 -0.119817056 -0.17868611 -0.18909237 0.14337352 -0.16510063
-0.000888617 -0.020127594 -0.07372627 0.313493 -0.10956991 0.32001325 -0.66814 -0.1042738
-0.12109611 -0.2358075 -0.123624824 -0.13842417 -0.3011881 0.0852862 0.0076999785 0.011519897
0.35131386 1.061867 0.047970682 0.38780236 -0.040796142 -0.22501333 -0.23041835 -0.089978494
0.35807714 -0.3086132 0.20000029 0.29195723 0.2686692 -0.08342486 0.20278704 -0.21232115
-0.02046209 -0.066555366 0.14154783 0.4210926 -0.36974266 -0.18779726 0.12737815 -0.113393396
0.27694923 0.08106104 -0.08630333 0.0050176787 -0.2193321 -0.03678481 0.06734901 0.01117513
-0.22246471 -0.08511227 -0.045197174 0.008524579 -0.14513093 0.33197704 0.21131593 0.275817
-0.19788812 0.32564273 0.35265192 0.11984034 0.18563966 -0.20394726 0.04433806 0.04177865
-0.0825718 -0.08954972 -0.07125303 0.035892773 0.3971163 -0.2503716 -0.13431558 -0.031046728
0.12467293 0.02481128 0.24294528 0.2033882 0.3220787 0.11633398 -0.20412055 0.014856653
-0.13929668 0.16172561 0.2058732 0.23624322 -0.106346376 -0.17831472 0.28633544 0.15645619
0.2665954 -1.2612158 -0.103987016 0.27304262 0.08916734 0.049730904 0.1655545 -0.0016819445
-0.021073775 0.34201112 0.17210653 0.2673106 -0.18443629 0.36989897 0.34534708 0.31824848
0.0493126 -0.016816866 0.40271747 0.24536335 0.16640049 0.37601513 0.42415977 0.09423873
0.22259595 0.33880514 0.119204104 0.4626179 -0.005626419 0.22893968 0.05272263 0.029789286

encoder.enc2.bias f4 [39]
00000000: 4673 aa3d 8f7a 353d a972 cc3d 5e2d eb3d
00000010: fdd1 07be a153 b73d 3204 863d 0f4d 943d
00000020: e17d ff3d 8d2e 113e 3674 fe3d c573 ddbc
00000030: b6a8 153d 3901 59bc 33dc 3b3d 0f55 f53d
00000040: f8c9 b1bd 4373 0e3e 6c01 b0bd f584 923d
00000050: f319 1d3e b1ab c53d 2593 843d 9f84 a23d
00000060: 23ce 32bd cf36 f63d 878c 1ebe d954 843d
00000070: af6c d93d 7c06 e63d 5d71 633b b805 f93d
00000080: b2ab b23d 6e0c f0bd ed2c 08be 517c cc3c
00000090: 2c44 603c 0581 633d 2d19 223e
0.08322768 0.044306334 0.09982807 0.114832625 -0.13263698 0.08951498 0.06543769 0.0724126
0.12475181 0.14177914 0.12424509 -0.027032742 0.03653785 -0.01324492 0.045864295 0.11979114
-0.086811006 0.13911156 -0.08594021 0.07154266 0.1534193 0.09651888 0.06473378 0.07935452
-0.04365362 0.12022173 -0.15483294 0.06461496 0.10616433 0.112317055 0.003470502 0.12159294
0.087241545 -0.11721121 -0.13298388 0.024961622 0.013688128 0.055542964 0.15829916

encoder.enc3.weight f4 [19, 39]
00000000: be2d 123e 4612 c33d 6d60 6cbe 25e9 813e
00000010: 3c13 a1be 968d eabd dbfd 49bd 7a77 ecbd
00000020: 0462 c63b 0503 e83e a011 ba3e 8490 043e
00000030: 4104 a03e f4bc d53e 9f77 e23e 4a40 053e
00000040: 347e 63bd 30a4 0dbe 7fad aabe 7fab a23d
00000050: b6d7 dfbd fcf2 9fbf 3676 cabf 6b47 aabf
00000060: 947d 873e e816 af3d 08d5 a8be e800 b7bf
00000070: e09d b2bf 7dfc 18be 9f17 6a3d f421 c63e
00000080: 7cca 82be 6368 8abe bbcb aabe 50ae 82bf
00000090: f986 073c 33a4 c93e 4a81 2c3e db39 a8bf
000000a0: 18a2 0cbf 7457 25be c9ef a93e ebca b3bf
000000b0: b460 3dbf 2a6f 963d 542e 00be fc6d 2a3e
000000c0: 0f67 7c3e a597 41bd df88 7b3e 3a86 56bf
000000d0: c08b 243c 03e5 a8be 3cb9 98bc a4c0 223e
000000e0: f1fb b8bc 6966 a5bf 06f0 0abf 1719 8b3e
000000f0: eae5 c23d b1de 203f 9c14 3f3f 16aa cc3e
00000100: 6606 21be 106f fabf f08e a03e 4339 7a3e
00000110: b4e0 f2bd dbd8 eabe 9fba d9bd f73a 14bf
00000120: 4d8d a43d 0b3f aebf 5b4b 153e 6bf8 26bf
00000130: a567 ccbe f962 573e e599 a13e 4fb4 903a
00000140: 4884 9dbe 7499 f5bd 515f 56be d42c abbe
00000150: b158 2fbe e3fa abbe 5759 2dbe 260d a8bd
00000160: 1d63 bfbe 5a27 bbbe 45e2 2d3d 7720 a13e
00000170: 9909 c03e 0087 a53e 78b2 773f d7aa 62bd
00000180: 498b f8bb d40c a63e 8f0d 913b 72c4 b1be
00000190: 3b05 0f3e 421e 86be 43a5 513e da1a a9bd
000001a0: 358a 09be bfcf 48be 0bb0 b43d 5060 a3be
000001b0: 87a4 e5bd 6fc5 6a3e b308 89be 9a15 89be
000001c0: ee6f 553e 6f9d 86bd fe4d c33d 685d b7be
000001d0: 2bce acbe 730d aa3e d205 02bd a775 9d3e
000001e0: de6c d33d 438c 03bf 05aa e93e f0f8 b3bd
000001f0: 0ada 05be ab48 343e bdec 2cbe ddc9 e1bd
00000200: fdda 543e 807e 083e 9497 6bbe 9b33 693e
00000210: 0c26 923e d1de 33be c5aa ec3e 2ab2 d237
00000220: 085d ab3c 3cbf d83e 4187 02c0 bf2d b1bf
00000230: 13e7 cdbf b173 92be 945d bb3e 60ad 43be
00000240: c60d c7bf abf4 dcbf 17c3 513e 1596 d93e
00000250: 91b6 8a3e 1718 c93e b0ca 61be f3bd c1be
00000260: 0a08 b7bf 725d ab3e e489 de3e f9cf d0bd
00000270: e9d3 b7bf 06a4 98be fb86 16be da04 9a3d
00000280: 8faa 00c0 89b0 c6be 8b3a 213f 1d81 dbbe
00000290: b3b7 35be 3700 f83e 1674 2b3e 6035 95bd
000002a0: 2be8 62bf 4cca 50bf 7b6e fabe 92b1 803d
000002b0: db15 6b3d d8f2 11be d0be 94bf a031 9cbe
000002c0: 2c93 ba3e 48c7 523f ee07 063f 0b64 743f
000002d0: 2164 213f d0cd 403e 595b d4bf 6cf1 723f
000002e0: d9a2 6a3f 13d2 42be da9f d4be 9978 12bf
000002f0: d61e 85bf a54f 1bbf 14df edbf cf52 233f
00000300: 5b29 2abe c179 47be 3519 853e 2cd8 d73e
00000310: c437 8a3e fca9 f33e 7985 d53b b84b 4cbc
00000320: c242 b93e df65 92bc 31e5 283e e813 d53e
00000330: 4120 34be 9c46 c43e 044c 213d bb39 813d
00000340: 4212 923d 1460 86be 053f a33e 2a95 b4be
00000350: 582a cd3e 363a d93b 6180 d63e 7b19 b03e
00000360: 1a61 48bf 8403 2cbf e1a2 61bf 070d aebe
00000370: 74fe af3e 5792 09bf 69dc e5be ce09 52bf
00000380: 8d66 603e b66a 823e 21fa c73d 1de9 24bd
00000390: ed9c ddbe 29d2 08bf cf8c 28be 8135 6abc
000003a0: 1bd6 ef3e c457 873e 85a2 9bbf 8ea1 933e
000003b0: a8e3 eabe 6e2e e53e 3a4d c0bf bb45 3cbf
000003c0: ce70 3fbd 4cfa d2be 90a3 0fbe 69a5 253f
000003d0: 70a0 aabe 6cf9 4f3e a218 9bbf 3d8d 04be
000003e0: 2392 58be 9e46 a6be e9ce 8b3d 183b 93bd
000003f0: 6ef1 59bf fcfc 3cbf 8d99 203e d851 d53d
0.14275262 0.0952497 -0.23083659 0.25373188 -0.31459987 -0.114527866 -0.04931436 -0.11546226
0.006054165 0.45314804 0.36341572 0.12945753 0.31253245 0.41745722 0.4423189 0.13012806
-0.05554028 -0.13832164 -0.33335492 0.079428665 -0.109298155 -1.2496028 -1.5817325 -1.3303045
0.26462996 0.08549291 -0.3297503 -1.4297152 -1.395443 -0.14940067 0.057151433 0.3869778
-0.25545108 -0.27032766 -0.3335856 -1.0209446 0.008271926 0.39383087 0.16846195 -1.3142656
-0.54934835 -0.16146642 0.33190754 -1.4046301 -0.7397568 0.073454216 -0.12517673 0.16643518
0.24648689 -0.04726376 0.24563931 -0.83798563 0.010043085 -0.32987222 -0.018643014 0.15893799
-0.022581073 -1.2921878 -0.54272497 0.2716758 0.09516509 0.628398 0.7464082 0.39973515
-0.15725097 -1.9565144 0.31359053 0.24435906 -0.11859265 -0.45868573 -0.10631298 -0.57902473
0.080347635 -1.3612989 0.14579527 -0.65222806 -0.39922825 0.21033849 0.31562725 0.0011040064
-0.30764985 -0.119921595 -0.20934798 -0.3343264 -0.17123677 -0.3358985 -0.16928612 -0.08205633
-0.37380305 -0.3655346 0.042452116 0.3147008 0.37507322 0.3232956 0.96756697 -0.055338707
-0.0075849635 0.32431662 0.004426665 -0.34720188 0.13966839 -0.2619496 0.20473199 -0.08257075
-0.13431628 -0.19610499 0.0882264 -0.31909418 -0.11213022 0.22926877 -0.2676445 -0.26774293
0.20843479 -0.06572997 0.0953636 -0.3581345 -0.33751044 0.33213386 -0.031743832 0.30753824
0.10323499 -0.513859 0.45637527 -0.087877154 -0.13071457 0.17605846 -0.16887183 -0.110248305
0.20786662 0.13329506 -0.23007041 0.22773592 0.28544652 -0.17565466 0.46224037 2.5116915e-05
0.020918384 0.423334 -2.0395052 -1.3842086 -1.6086143 -0.2860389 0.36594832 -0.19109106
-1.5551078 -1.7262167 0.20484577 0.42497316 0.27092412 0.39276192 -0.22049975 -0.37840232
-1.4299328 0.3346973 0.43464577 -0.10195918 -1.4361545 -0.2981264 -0.14699928 0.075204566
-2.01041 -0.3880656 0.62979954 -0.42871943 -0.17745857 0.48437664 0.16743502 -0.07285571
-0.8863551 -0.8155868 -0.48912415 0.06283869 0.05739389 -0.14252794 -1.1620731 -0.3050661
0.36440408 0.8233533 0.5235585 0.95465153 0.6304341 0.18828511 -1.6590377 0.9489963
0.91654736 -0.1902545 -0.41528207 -0.5721527 -1.0400035 -0.606684 -1.8583703 0.6379823
-0.16617338 -0.19480039 0.25995794 0.42157114 0.2699567 0.47590625 0.0065161553 -0.012469225
0.36183745 -0.017870842 0.1649368 0.4161675 -0.17590429 0.3833512 0.039379135 0.06309839
0.07132389 -0.26245177 0.31884018 -0.35270053 0.40071368 0.0066292537 0.4189482 0.3439444
-0.78273165 -0.67192864 -0.8813916 -0.33994314 0.3437382 -0.5373892 -0.44894722 -0.8204621
0.2191412 0.2547204 0.09764505 -0.040261377 -0.43283787 -0.5344568 -0.16459964 -0.014294983
0.46843037 0.26434147 -1.2158972 0.28834194 -0.45876813 0.44761986 -1.5023568 -0.735439
-0.04673844 -0.41206586 -0.14027238 0.6470552 -0.3332553 0.2030999 -1.2116892 -0.12944503
-0.21149497 -0.32475752 0.06826574 -0.071890056 -0.8513402 -0.73823524 0.15683575 0.10416001

encoder.enc3.bias f4 [19]
00000000: 0a3a 253e b3e9 033c 293b bc3d a5f8 003e
00000010: 8d09 a83d 9418 193e ae91 bc3d cafb d73d
00000020: 7716 163e 8f19 403d 4429 b9bc c926 093e
00000030: 2a79 813d 664f f33d 2007 393d da87 1cbd
00000040: a56d 8e3d d12f 023e 40a4 b63d
0.16135421 0.008051324 0.091909714 0.1259485 0.08204947 0.14950782 0.09207474 0.10546072
0.14657007 0.046899375 -0.022602685 0.13393702 0.06321938 0.118803784 0.04517281 -0.038215496
0.06954507 0.12713553 0.08918047

encoder.enc4.weight f4 [7, 19]
00000000: 0ca0 e13e 764a acb8 78d5 08bf 486a 79bd
00000010: c853 81be 7769 883e 39e2 43bf 9cf5 28be
00000020: 51f6 8abe 2d06 f63e d4de fcbd ccd5 033f
00000030: fbd4 4ebe 76d8 013f 65a1 1ebf c36d 6abe
00000040: 84e6 c13e 0f18 2bbf 9365 093f 5ee8 b33c
00000050: 0f03 843c 7d61 803d 2429 75be 0c6a fa3e
00000060: 16e7 443b 29b1 8a3e 67a4 383f 26b6 6dbe
00000070: 9a03 2a3e a929 bc3d e1a3 c5bd 891a 803e
00000080: b290 b0be e985 373f 1bae 573e ecb3 f2bc
00000090: 69b0 473e 3351 13bf 3fec 183f 928a f4be
000000a0: bf98 1dbf ced6 c93e 016d f8be 9dcb 153f
000000b0: 9c11 37bf 0714 c2be 2359 20bf 97b5 003f
000000c0: f2df 9cbe 2e29 0a3f d945 593e cc49 ca3e
000000d0: 6ac1 a6bd 8d4d c0be a866 973e 0dcb b9be
000000e0: 0d51 5b3b c848 983e b561 77bc 8e7e fbbe
000000f0: b899 c23e 5ec4 38bf adc1 4b3e 24d8 07bf
00000100: 6c65 4abf abd9 0fbf e629 063f c36a d6bd
00000110: d2a0 c5bc a91d 123f 9bf1 133e 9afe a6be
00000120: 7711 8abe 05f5 333e 5485 05bf 27c6 ec3d
00000130: 30cd 48be 593b cf3e d933 ab3e 246a aabe
00000140: 633f 523f ee8d e5be 2a7b 253f a3cf c03e
00000150: 3d9b 003f abe7 40bd 353c 853d 13c5 983d
00000160: 2bae 98be 5390 ac3c 8faf 4b3f af5d bb3e
00000170: b60c 26bf fec1 d33d b233 c1be 91a0 73be
00000180: 080b 3c3f 3ca8 fc3e 139e 83be 2a88 3d3e
00000190: 584a 26bf 7e13 7f3b 3575 5a3f 347f 0e3f
000001a0: 117f b3be 19d1 b3bd 1031 8b3e 7031 0cbf
000001b0: da7e 04be f8cd 60be 0d4e d03e 6229 11bf
000001c0: 4d10 263f 83b0 c1be 4757 6abd d460 23bf
000001d0: a44d 8dbe 5850 913c 2296 4abe 728a 073e
000001e0: 3fa3 0ebf 9c53 cabe 24ad 25be 3254 6fbe
000001f0: 673f 8c3e 7edc ee3e 0278 243f adf5 ea3e
00000200: 9fbc bcbe 0f79 1fbe 7eff ee3e fe27 43bf
00000210: 1289 913e
0.4406742 -8.2154686e-05 -0.5345073 -0.060892373 -0.25259233 0.26642963 -0.76517063 -0.16499943
-0.2714105 0.48051587 -0.123471886 0.51498103 -0.20198433 0.5072092 -0.6196502 -0.22893433
0.37871182 -0.66833586 0.53670615 0.021961387 0.01611474 0.062685944 -0.23941475 0.48909032
0.0030044965 0.27088287 0.7212586 -0.23214015 0.16602936 0.091876335 -0.09650398 0.25020245
-0.34485394 0.71688706 0.2106251 -0.029626809 0.19500889 -0.57545775 0.5973548 -0.4776197
-0.615612 0.39421695 -0.48520663 0.58513814 -0.71511245 -0.37905905 -0.6263601 0.50277084
-0.30639607 0.53969085 0.21218051 0.39509428 -0.081423596 -0.37559167 0.29570508 -0.36287728
0.0033465058 0.29743028 -0.015098979 -0.4911999 0.38007903 -0.7217463 0.198981 -0.5306418
-0.7906101 -0.5619151 0.5240768 -0.10469582 -0.024124537 0.5707651 0.14447634 -0.3261612
-0.2696645 0.17573936 -0.5215657 0.11561232 -0.19609523 0.40474966 0.33437994 -0.33284104
0.8212797 -0.44834846 0.6464106 0.37658414 0.50236875 -0.047095936 0.06505624 0.07459464
-0.2982038 0.021064913 0.79564756 0.36594912 -0.64863145 0.103397354 -0.37734753 -0.2379172
0.7345433 0.49347103 -0.2570654 0.18508974 -0.6495719 0.003892153 0.85335094 0.55662847
-0.3505788 -0.087801166 0.2718587 -0.54762936 -0.12939015 -0.21953571 0.40684548 -0.5670377
0.64868623 -0.3782998 -0.05721214 -0.63819623 -0.27598298 0.017738506 -0.19783834 0.13236406
-0.55717844 -0.39516914 -0.16179329 -0.23371962 0.27392122 0.46652597 0.6424562 0.4589056
-0.36862656 -0.15573524 0.466793 -0.762329 0.2842489

encoder.enc4.bias f4 [7]
00000000: 86cf 75bd f0f5 3f3c fb4e 2c3c b369 bcbb
00000010: 5389 31bc c5a7 813c 0a47 4d3d
-0.060012363 0.011716351 0.010516877 -0.005749905 -0.010835963 0.015827069 0.050116576

decoder.dec1.weight f4 [19, 7]
00000000: 616f 843e 4fff 1e3d 0b04 7fbc 3eb0 5cbf
00000010: 2876 ad3e 7d35 4dbe eb94 0ebf f2f1 b13e
00000020: b4b1 a23e 0087 283f 011a 28bf 0782 ef3e
00000030: aa43 0c3f 671a 853c 4764 483f 4081 49bf
00000040: 5f4b 26bf 43bc 283f f05b b2be b5c1 41bf
00000050: 0a27 70bf 3d8f 41be 302f bc3d 60ce 08bf
00000060: 325c 403e 67df 533f 7508 463f a279 5bbe
00000070: 2478 593f 7db0 e73e 87b3 413f e8b9 04bf
00000080: 6115 c73d 8fa0 85be 4183 53bf 6406 213e
00000090: 64ad a1be bacd 913d 27b9 953a 0c17 053f
000000a0: eacc 0e3f d027 b33e 4ef3 3f3d 7759 b1be
000000b0: 1a9e e8be c39d 9f3e 8eb7 5bbf 1d45 c33e
000000c0: b2b4 1b3f cabd 48bf b768 a93e 3ce6 4e3f
000000d0: 0dec a13e d7ca 64bf 921d 2c3f f376 1b3f
000000e0: c551 2e3f 19f5 883f 5aa2 dfbe 12ae bc3e
000000f0: 31b1 3bbf eca6 333f 5daf 413e 3140 2e3f
00000100: 917b aebe 240d 213e bbec b43d b1f3 54bd
00000110: 7b5b b7bd 7b0b 7cbe 321c 4abf 193b 5ebf
00000120: ab10 173f 7072 133e e178 263d 6e0d eebe
00000130: d060 69bc ad9e a0be 8859 dabe 581f 95bd
00000140: 1416 2bbe efa4 d13e b655 3bbe e727 ce3d
00000150: d9c9 613d 7077 ce3e cb6a e03e e97c 6dbf
00000160: 3a67 3cbf 7912 ab3e 9aec cd3b 3b99 623f
00000170: 1b5b f6be 0fc0 5cbf c61a 8e3e c128 a4be
00000180: 9659 0fbf 51ce 22bf 6835 1e3f 6e97 b6be
00000190: d66d 43be 5c5a 253f a6d0 093f 3469 163f
000001a0: 2b39 85be 9e21 c5bd 7771 ea3e 8119 33bf
000001b0: b163 4d3f 6d02 fe3e 1bea 46bf 415c fbbc
000001c0: 79e9 b6be ab0b 25bf 7cbb 2fbf f6fd 07bf
000001d0: 8138 4c3f 31b3 2ebf d198 4abf 90bd 703f
000001e0: 2c4c 8a3c 2dc0 103e 4bed 22bf d350 97bd
000001f0: be34 113f 9430 53bf b7a6 073e cbbb f1be
00000200: 86c2 2fbf 4f4e c2be 1fb5 48bf def2 ec3e
00000210: 2694 e83e
0.25866225 0.0388177 -0.015564929 -0.86206424 0.3387921 -0.20039935 -0.5569598 0.34754902
0.31776202 0.65830994 -0.6566468 0.4677889 0.5479075 0.016247941 0.7827801 -0.78712845
-0.6495876 0.65912265 -0.34835768 -0.756862 -0.9380957 -0.18902297 0.09188688 -0.53439903
0.1878517 0.8276276 0.77356654 -0.21433118 0.84948945 0.45251837 0.7566456 -0.5184617
0.097208746 -0.2609906 -0.8262215 0.15725094 -0.315776 0.07119317 0.0011422978 0.5198829
0.55781424 0.34991312 0.046862893 -0.3463857 -0.45433122 0.3117505 -0.8582696 0.38138667
0.60822594 -0.78414595 0.33087704 0.8082006 0.31625405 -0.8937201 0.6723262 0.6072838
0.6809352 1.0699798 -0.43678552 0.36851555 -0.7331725 0.7017658 0.18914552 0.680667
-0.3407865 0.15727669 0.08834215 -0.051990215 -0.089529954 -0.24613754 -0.7894927 -0.86808926
0.5900981 0.14399123 0.040642623 -0.4649462 -0.014244273 -0.3137106 -0.42646432 -0.07281369
-0.16707641 0.40946147 -0.18294415 0.100662045 0.055124138 0.403255 0.43831477 -0.9276872
-0.7359501 0.3341253 0.0062843086 0.8851506 -0.48116383 -0.8623056 0.27754802 -0.32062343
-0.5599607 -0.63596064 0.6180024 -0.35662407 -0.19084868 0.64591 0.53834 0.5875428
-0.26020178 -0.096255526 0.45789692 -0.6996079 0.8023024 0.49611226 -0.77700967 -0.030683639
-0.35725 -0.6447093 -0.68645453 -0.5312189 0.7977372 -0.68242174 -0.7913943 0.9403925
0.016882025 0.14135809 -0.6364333 -0.07388463 0.56721103 -0.82496 0.1324719 -0.47213587
-0.68656194 -0.3795037 -0.7840137 0.46279043 0.45425528

decoder.dec1.bias f4 [19]
00000000: b25b 8cbd a3bf e7ba ceed 58bd 2111 babc
00000010: b408 acbc c21f d43c f854 03bd d5ad 5ebc
00000020: 0919 cd3b cca1 ccbc c100 e8bc 5a41 623c
00000030: dedf 173d 59b9 a3bc c938 96bd fba2 19bc
00000040: 81df 51bd e3ec 2fbd 9d8b 1ebe
-0.06853427 -0.0017681014 -0.052961163 -0.022713246 -0.021000244 0.02589405 -0.032063454 -0.0135912495
0.006259088 -0.024979495 -0.028320672 0.013809526 0.03707873 -0.019985842 -0.0733505 -0.0093772365
-0.05123854 -0.042950522 -0.15482946

decoder.dec2.weight f4 [39, 19]
00000000: d97a cdbe 2000 f7be 7e1c d53e 340e dabe
00000010: 012e c1be 131c c0be 681e 113e d6ba 833e
00000020: 35e5 d03e 6b90 89be 5389 9f3e 46b2 023f
00000030: 31b8 c43f 02b6 e6be 829c b93d 0659 1c3e
00000040: b8fb 853d f451 a63e c6c6 7d3d ad4e 8bbe
00000050: 74e6 d33d 76c2 c5bd e18c d73e 294e 113e
00000060: f14a e03e 4810 8a3e c63f e43d dedc 7e3e
00000070: 45c6 40bd 17f1 fbbd 84ef d83e 0829 953e
00000080: 2b2c 71be 590c 7ebd 0359 7dbe 1b37 ae3e
00000090: 01c0 713e 1723 213f c684 eabe c040 e0be
000000a0: 0eb4 753e 666d b0be 630f e03e 74cb 0cbf
000000b0: 476a afbd 8a04 0dbf 5920 05bf c417 87be
000000c0: 1f43 173e 1a63 093f c92d edbe 0990 3abe
000000d0: 8085 88be 18c9 653c fdf6 473d f299 023f
000000e0: 7db3 8bbe 9181 debd 9a3c e23e 27d3 3dbd
000000f0: 2b0b e53e caf7 d6be 7ce4 ae3e f3df 0a3f
00000100: e166 c8bd c096 a5be b299 aebe 57e0 0b3f
00000110: bb4a 8d3e 7009 8a3d 5912 b4bd a282 04be
00000120: 5695 20bf 1cd4 16be b323 10bd 9ed9 02be
00000130: 7c3b 0fbf c04d bebe f3b2 d9be 4e70 f93e
00000140: 5e1b 0b3e 0e84 8abd 9f64 d43e 03dc 0a3e
00000150: 2469 153e 297b 0c3e 8f46 88bc fd1d 1b3e
00000160: 1473 1f3f 7b1e 693e 71b4 06bf aaf3 22bf
00000170: c480 0abe c10a 563e 239b a53e 82bd 68be
00000180: 5612 35be de9c dabd 1794 9ebe 3d78 32be
00000190: a253 133f 7b70 503e b7ac 8c3e c696 18be
000001a0: ada0 d9be fcad 803e e4b9 363f ff9d 873e
000001b0: 3ae5 d5bd f8bd 143f fc45 3e3f 1df3 853d
000001c0: 8b4d 013f 598a 7c3e ba0c b6be e4b8 163e
000001d0: 0fbb 9fbd b0b0 eb3e 31dd 8fbd ad97 aebe
000001e0: 8be3 04bd c025 8dbe 533a b3bb 4da8 273e
000001f0: 8836 91be cf59 dabe e7a9 023f e8cf 92be
00000200: 26b8 97be c169 8dbe 49be 653d 72e4 1abf
00000210: a8ad 02bf 08e0 a63e cd6e 26be b0a1 d33d
00000220: c907 843e 6f86 a43e ab06 d13e ad39 453b
00000230: c414 043f 5aa6 e73e 76f3 5cbe 7ac3 b03e
00000240: 0520 443e 53ce dbbe 467c bbbe 5f51 00bd
00000250: 27a8 69bf cfcf 653e f4a1 e1bd 27b6 a8be
00000260: 475d f73d 4b2a 0d3e 210f 69be 80ce 003f
00000270: 8e03 bd3d 6cbb d0bc d0c7 1cbe 0bfd 203d
00000280: d657 41bf 421b dc3e 489f 583e 98d1 ce3d
00000290: cbb9 403d 57ef efbe 9403 813e 3627 cb3d
000002a0: cefa c3be 0428 3b3e cc54 903e b624 54be
000002b0: 0f9f 98bd 9cf1 233e 1a2b 8ebe ea0c afbe
000002c0: 1e9c 1c3e 0f1e 833d 33b6 9f3e eef1 d63e
000002d0: d750 ae3d 8950 26bf 2bcd e73e ad36 c13f
000002e0: 9208 b23e 2727 1ebe 0f4a e93e 2928 7c3e
000002f0: 49c7 c1be adda 0bbf 3588 ea3e 0599 f9be
00000300: b0de 123f 8f36 dc3e 8daf 85be 916b 12bf
00000310: e50d f2bd 5a0f 49be 22b6 63be e4ba a0be
00000320: 7833 17bd b5f2 1bbf 996c a8be 8ddb 543e
00000330: f4a7 c7be 4ceb 81be 9dde 983e 4434 ecbe
00000340: ff6d 563e e792 c9bd 1124 e9be a863 883e
00000350: f6af b73d 911e 0f3d 9112 3d3e df35 9e3e
00000360: 4e71 53be 75a2 03bf e32a 82be 7a4a b73e
00000370: a2e8 053f c7d1 6abe 8ff9 1ebf 5908 ce3d
00000380: 386f 8abf 5376 d5be 1d8f c63e 7058 1c3f
00000390: 1ca9 ae3e 8177 f83d daf2 10be 30b5 d9be
000003a0: de0e 1d3e 1924 8b3e 5c70 c53d 0096 a43e
000003b0: 6f96 b6be ab6a 77be 7196 9e3e 00c4 0a3e
000003c0: c310 c83e db69 cb3e 1f72 f53d 8b52 433f
000003d0: 7ff4 653e f273 e33e 441f 8b3d 44ce a23e
000003e0: c6dc e83e 9953 b73e c73d 25be 1af8 f73d
000003f0: 1add 98bd 30ae 07bf 73db abbe d127 913d
-0.40132788 -0.48242283 0.416233 -0.4258896 -0.3773041 -0.3752142 0.14171755 0.25728482
0.4079987 -0.26867995 0.31159458 0.51053274 1.5368711 -0.45060736 0.090630546 0.15268335
0.06542152 0.324844 0.061957143 -0.27208462 0.1034669 -0.09656231 0.4209967 0.14189972
0.43807176 0.26965547 0.11144976 0.24888942 -0.047064085 -0.123018436 0.42370236 0.29132867
-0.23552005 -0.062023494 -0.24740987 0.34026417 0.236084 0.6294417 -0.45804423 -0.437994
0.23994467 -0.34458464 0.4376174 -0.54997945 -0.08565193 -0.5508505 -0.52002484 -0.2638532
0.14771698 0.5366684 -0.46323994 -0.18219008 -0.26664352 0.014024995 0.04881953 0.5101615
-0.27285376 -0.108645566 0.4418686 -0.04634395 0.44735083 -0.41985923 0.34158695 0.5424797
-0.097852476 -0.32341576 -0.34101635 0.5463919 0.27596077 0.06740081 -0.08792562 -0.12940457
-0.6272787 -0.14729351 -0.035190295 -0.12778327 -0.5595014 -0.37168694 -0.4251934 0.48718494
0.13584659 -0.06763469 0.41483018 0.1356049 0.14590889 0.13718857 -0.016635207 0.15148158
0.6228497 0.22765534 -0.5261908 -0.6365305 -0.13525683 0.2090254 0.32344922 -0.22728541
-0.17682776 -0.10674451 -0.3097236 -0.1742868 0.5754949 0.20355408 0.2747552 -0.14901266
-0.42505398 0.2513274 0.71377397 0.2648773 -0.10444112 0.5810237 0.7432554 0.06540511
0.50508946 0.2466215 -0.35556585 0.14718968 -0.077993505 0.4603324 -0.07024611 -0.34100094
-0.032443564 -0.27567863 -0.0054695993 0.16372795 -0.28361917 -0.42646644 0.510405 -0.28674245
-0.29632682 -0.27619746 0.056089673 -0.6050483 -0.5104623 0.32592797 -0.16253205 0.10333574
0.2578719 0.32133815 0.408254 0.0030094192 0.51594186 0.45244104 -0.21577248 0.34524137
0.1915284 -0.4293085 -0.3661825 -0.0313276 -0.91272205 0.22442554 -0.11017218 -0.3295147
0.12078338 0.13785665 -0.22759677 0.50315094 0.09229194 -0.025479995 -0.15310597 0.03930382
-0.7552465 0.42989546 0.21154511 0.100985706 0.047052186 -0.4686229 0.25198042 0.09919588
-0.38277286 0.18276983 0.28189695 -0.20717129 -0.07452213 0.16010135 -0.2776726 -0.3418954
0.15293929 0.064022176 0.31193694 0.41981453 0.08511513 -0.64966637 0.45273718 1.5094811
0.34772164 -0.15444623 0.45564315 0.24624695 -0.37847355 -0.5463055 0.45807043 -0.48749557
0.57371044 0.43010375 -0.26110497 -0.57195383 -0.118190564 -0.19634762 -0.22237447 -0.31392586
-0.03691432 -0.60917217 -0.32895353 0.20786877 -0.38995326 -0.2537483 0.2985734 -0.46133626
0.20940398 -0.098424725 -0.4553533 0.26638532 0.08969109 0.03494126 0.18464114 0.30900475
-0.20648691 -0.51419765 -0.25423345 0.3579901 0.52308095 -0.22931586 -0.62099546 0.10060186
-1.0815191 -0.41691837 0.38781062 0.61072445 0.34113395 0.121321686 -0.1415514 -0.42521048
0.15337703 0.27175978 0.096405715 0.3214569 -0.35661647 -0.24161784 0.30974153 0.1355133
0.39075288 0.397292 0.119846575 0.76297826 0.22456549 0.44424397 0.06793073 0.31797993
0.45480937 0.35805967 -0.16136847 0.121078685 -0.07464047 -0.53000164 -0.33565864 0.070876725

decoder.dec2.bias f4 [39]
00000000: 6141 3ebd 7a5f 87bc dd37 ab3c bb96 eebc
00000010: 1f59 8f3c 6766 633e 1005 713c f93c ebbc
00000020: 603c 7abc ccfb 9dbc 0eaa 3c3d 7622 a8bc
00000030: 6e0c 8e3c 6523 d23b 0ce5 83bc fa41 bcbb
00000040: 3e0f a639 ca02 9cbd c8a0 b5bc d303 c53c
00000050: 5db6 aebc 632a 953b e277 04bd bec6 3a3d
00000060: da58 7b3c 6a63 4c3d d3f9 22bd ec12 4f3e
00000070: 310b 943c c097 22bc a791 f5bc a7fd 903b
00000080: c5a2 983c 5606 273e 330f 05bd 3ae9 e13c
00000090: 35ce fdbc 05ef 3dbd 9e86 fabc
-0.04644907 -0.016525019 0.020900661 -0.029124608 0.017498551 0.22207032 0.01471068 -0.028715597
-0.015273184 -0.019285105 0.046060614 -0.020524245 0.017339911 0.0064129108 -0.016100429 -0.0057451697
0.00031673344 -0.076177195 -0.022171393 0.024049675 -0.021327192 0.004552172 -0.03234089 0.04559969
0.015341008 0.049899496 -0.039789032 0.20222062 0.018071743 -0.009923875 -0.029976679 0.004424769
0.018632302 0.1631101 -0.0324852 0.027577031 -0.030982116 -0.046370525 -0.030581769

decoder.dec3.weight f4 [58, 39]
00000000: cc20 38be 8310 3c3e 548e 54be ceef 8a3e
00000010: e02c 013e 8ac1 2bbe a8b7 1fbd 2a6e cfbc
00000020: 332f 083d 159c 0ebe ee93 463e 953c db3d
00000030: 12cd 7a3c 8d06 a43e 0a06 a9bc be4b 6b3f
00000040: 4f0e 9bbd d5bb c53e 81db 303e e3c1 fd3d
00000050: 39fe 403e 68cc 403e 1735 4abe 0ee4 8f3e
00000060: aef8 943d d001 793e d104 a0be ea1c 77be
00000070: e4c8 913e f2d6 afbe 95b1 a3be 1e0f a5bd
00000080: 56af a9be 5c8b 6d3e 30b9 393e b51d 19bf
00000090: 02d8 94be efab 993e 15b2 69be 61b7 c4be
000000a0: f333 583e bb9c 1bbe e6ef 67be eb69 d5be
000000b0: 9343 a1bd c6b9 1cbe 34c0 443e d3bd b5be
000000c0: 6018 d6be 4fac 29bd f689 44bf 294f 85be
000000d0: 1a6c b83d 4dd6 acbe ce00 9b3f 4597 c73d
000000e0: 1fb1 6e3e b071 a33e 3bf3 c03d 5a23 ad3e
000000f0: ce89 5c3e 6775 593e 9540 983e 02f2 283e
00000100: b9ab c83d 65d7 3e3e 569f 443e 7cc7 ca3e
00000110: ff54 903d dfbe a93d 0f23 533e ff93 2b3e
00000120: 56d3 97bc ff25 b6be edd7 5dbe 8bae 8cbe
00000130: 19d5 f33f 01ff 803e 3435 16be 40b0 1b3e
00000140: b04c a23e fab9 06be 050c 9a3e 7410 7ebe
00000150: a8c0 dcbd 6bb3 043c 7981 393e acbd 443d
00000160: 4129 683e bf29 22be 10f2 cfbc 2a77 7bbc
00000170: 82e9 5b3d 94cf 0140 ff40 84be 61f2 c43e
00000180: ddd4 523d 6999 a7bb 50d3 9c3e d119 1a3e
00000190: 904d d6be 6880 ecbc 2f4a 56be a2e0 883b
000001a0: daf4 76be ce4a 9c3d 826c d33d 1fdb 423e
000001b0: f11c 77bc 07cb 0a3c 1ae4 9abe 7245 1b3e
000001c0: e39e 543e f62b 5c3e 5118 80be 0861 4240
000001d0: e437 b4bd 499b 2b3d ab22 5a3f 3237 983e
000001e0: db2f 8d3e 21f2 073f b8a7 80bc 30bd 383e
000001f0: 2e95 db3d 5f88 8fbe c725 203e 87c7 a3bf
00000200: 6eb5 82be c306 84be d957 303d d26e 84be
00000210: 53e0 98bf 76ad e13e 94b7 77bd acce 59be
00000220: d99d 133f 3d1a 943c 1aae 8a3e bab6 01bd
00000230: 406b 443e 5e8e f43d 43b1 c1be 7e84 69be
00000240: 00bc 81be 4758 063f eda5 cd3d f32f 00c0
00000250: 789e 893d ab9d 2f3f d313 fc39 218d 07bf
00000260: 2c3e 2d3f 7177 84be 6178 96bf 6f5f 17bf
00000270: 61c4 8abe 3e12 8e3d ee57 983c 8223 6e3e
00000280: 78c1 1bbc dc8e a23d 41c3 eabe 3552 303d
00000290: 98cf 96be f2f0 883e 6168 12be 1eed 2d3f
000002a0: eae9 6f3e 2e89 9d3e c5db 21be 5583 593f
000002b0: 642d 5fbe 53b3 69be b61b 833e 52fd 973e
000002c0: 5b1c 5bbe ef69 943e 3788 90ba 83b7 8cbd
000002d0: a78b 8f3d 057e 5abe 727b 7d3e 6954 68be
000002e0: b6f0 a0be bb48 ccbd d6cc f1be 856d 8abe
000002f0: 5138 e7be d2a8 803e 801b c2be f9be 963e
00000300: 799d 383e fcfb 0ebd 6006 a93e 106f 84be
00000310: 7192 873d 8fee 853e aafe 8dbc f34b 653e
00000320: b3c2 45be a275 823e 731b 093e af49 973e
00000330: a593 1e3e be31 e0bd f86e 873c 9f17 d5be
00000340: e28e 97be d768 15bc 3bad 413e 1d5b 9bbe
00000350: aa34 c3be 159a 003d 971c abbe fd47 533e
00000360: a100 ab3e 2ea2 1fbe 6093 fcbd ee3f cebe
00000370: 0d25 a7be 357a 99be a7a3 b0be 5169 3a3d
00000380: f9ad 583e 1a2c 993e 106a a1be 6439 95be
00000390: 5082 9a3e 3457 76be ef9f 8e3d ca9f 883e
000003a0: 02b1 be3e 628a d1be 117c 7d3e afb8 5dbe
000003b0: 1b74 913e c1c4 d9bd 4e07 a0be 2c85 013f
000003c0: 418e 983e b138 6ebe d4ce 883e 957f 9e3e
000003d0: a24b 193f f9ac 43be 1ca9 dd3e 89f2 783e
000003e0: 9437 953e 6635 763d d08e 6abe 1819 38bd
000003f0: 1959 b9be 08c4 3bbe 5e59 76be ef31 bf3e
-0.17981261 0.18365674 -0.20757419 0.2713608 0.12614775 -0.16773048 -0.038993508 -0.025321085
0.033248138 -0.13926728 0.19392368 0.107049145 0.015307682 0.32036248 -0.020632762 0.9191245
-0.075710885 0.38619867 0.17271234 0.123904966 0.18846978 0.18827975 -0.19746815 0.2810368
0.072739944 0.24317098 -0.31253675 -0.24132124 0.2847358 -0.34343678 -0.31971422 -0.08059524
-0.33141583 0.23197693 0.1813705 -0.59810954 -0.2907105 0.30013987 -0.22821839 -0.38421157
0.21113567 -0.15196507 -0.22650108 -0.41682371 -0.07874217 -0.15305242 0.19213945 -0.35496387
-0.41815472 -0.041424092 -0.7677301 -0.26036957 0.09004994 -0.3375725 1.210962 0.09745649
0.23309754 0.31922674 0.094213925 0.33816034 0.21536943 0.21236192 0.29736772 0.16498569
0.097983785 0.18636854 0.19201407 0.3960532 0.07047462 0.08288359 0.20618843 0.16755675
-0.01853339 -0.35575864 -0.216644 -0.27476916 1.9049407 0.25194553 -0.14668733 0.15203953
0.31699133 -0.13156882 0.30087295 -0.24810964 -0.10778934 0.008099417 0.18115796 0.048032448
0.22671987 -0.15836237 -0.02538398 -0.015348235 0.053689487 2.0282946 -0.25830838 0.3846617
0.051472533 -0.0051147235 0.3062997 0.1504891 -0.4185605 -0.028869823 -0.20926736 0.004177169
-0.24116841 0.07631455 0.103234306 0.190289 -0.015082584 0.008471257 -0.30252153 0.1516321
0.20763735 0.21501145 -0.25018552 3.0371723 -0.08799723 0.04189614 0.8520915 0.2972961
0.27575573 0.53103834 -0.015704975 0.1804092 0.10721813 -0.2803373 0.15639411 -1.2795266
-0.25529045 -0.2578641 0.043052528 -0.258658 -1.1943458 0.44077653 -0.060477808 -0.21270245
0.5766273 0.018078918 0.27085954 -0.031668402 0.19181538 0.11941217 -0.37830552 -0.22804448
-0.25338745 0.5247845 0.100414135 -2.0029266 0.06719679 0.6859996 0.00048079956 -0.5294972
0.6767299 -0.25872377 -1.1755487 -0.59129995 -0.2710295 0.06937073 0.018596616 0.23255733
-0.009506576 0.079374045 -0.45852092 0.04304715 -0.29455256 0.26746327 -0.1429763 0.6793994
0.23429075 0.30768722 -0.15806492 0.8496602 -0.21794659 -0.22822313 0.2560708 0.29685456
-0.21397536 0.2898707 -0.0011026923 -0.068709396 0.070090584 -0.21337135 0.24754122 -0.2268845
-0.31433648 -0.0997481 -0.4722659 -0.27036682 -0.45160154 0.251288 -0.37911606 0.29442576
0.18028821 -0.03490828 0.33012676 -0.25865984 0.06619728 0.26158568 -0.017333347 0.22392254
-0.19312553 0.25480372 0.13389377 0.29548404 0.1548601 -0.109469876 0.016532406 -0.41619584
-0.29601198 -0.009119234 0.18913738 -0.3034295 -0.38126117 0.031396944 -0.3342025 0.2063293
0.33398917 -0.1558921 -0.12332797 -0.4028315 -0.32645455 -0.2997605 -0.34499857 0.045510594
0.21160115 0.2991646 -0.31526232 -0.29145348 0.30177546 -0.24056703 0.06964099 0.2668441
0.3724442 -0.4092589 0.24754359 -0.21652482 0.28408894 -0.10633231 -0.31255573 0.5059383
0.2979603 -0.23263814 0.26720297 0.30956712 0.5988103 -0.19108953 0.43293083 0.2431127
0.29143965 0.06010952 -0.22906041 -0.044945806 -0.3620079 -0.18336499 -0.24057528 0.37342784

decoder.dec3.bias f4 [58]
00000000: 6a3d bbbd 42c2 743d 4ec4 6c3d 00d2 80b9
00000010: 5ea6 0fbd 6ebe 10bd 7ca8 a23d 4cae 05bd
00000020: 29b0 0dbd 52e6 163e 5779 00bd 0148 3cbd
00000030: 067a 1ebd 6539 5fbd c59f 613c b18c 113d
00000040: 6bc6 e3bc 8cfd 65bb 89f9 bb3b 220f 933c
00000050: 6b9e 3cbd 7a69 c7bc 2363 2a3d b713 f03d
00000060: acf7 f4bb ea24 3d3d b8ce cabb 8f6b ec3b
00000070: 4695 093c 64bb 5a3b 50a0 a4bc 906f 343c
00000080: c69a 943d 6912 0f3e fe82 0abd c447 d73b
00000090: 5c2b 51bc 5123 80bb 37f1 ccbb e7dd 47bc
000000a0: dda8 8e3d 1110 a0bc 9490 a0bb b3ec 923c
000000b0: 7e40 d93c 4694 f1bc f6de cb3d 6162 acbb
000000c0: 40f9 6dbd 2b33 86bc 98f5 47bb faa9 f4bb
000000d0: 1233 e93c e4ac 3dbd 9f3e cdbb cb54 d1bc
000000e0: d314 77bd 031b 38bd
-0.09142573 0.05975557 0.0578044 -0.00024570525 -0.03507077 -0.035337858 0.07942292 -0.032636926
-0.034591828 0.14736298 -0.03136572 -0.045967106 -0.03869059 -0.054498095 0.013771002 0.035534564
-0.027804574 -0.0035093753 0.005736534 0.017951552 -0.046049517 -0.024342287 0.04159845 0.1172251
-0.007475814 0.046177782 -0.0061891936 0.0072149704 0.008397406 0.0033375854 -0.020095974 0.011012927
0.07256083 0.13971867 -0.03381633 0.0065698344 -0.012766685 -0.00391046 -0.006254341 -0.012198902
0.06965802 -0.019538911 -0.0049000476 0.017935133 0.02652001 -0.029489648 0.09954636 -0.005260751
-0.05809903 -0.01638182 -0.0030511376 -0.007466552 0.028466735 -0.04630746 -0.0062635685 -0.025553128
-0.060322594 -0.044947635

decoder.dec4.weight f4 [78, 58]
00000000: 5add cdbd a439 97be 02dc 203d d59a 933d
00000010: 8c60 36be c27c 993c 095a 81bc 89dc f6bd
00000020: aa17 953e 7139 1ebe 0fa6 6cbd 8240 d73e
00000030: 5db2 87bc 494b 4fbe 2cb4 403e e58f f13c
00000040: 6e39 073e 060c 35be d68f 71be 2b7f 413d
00000050: 2a50 ba3c 10ca a8bd 4dfb 793c 7f47 04be
00000060: 44b0 c73d e26a 1c3d 0288 023d c93d 4cbe
00000070: dec6 eb3c 6172 e23e 3f15 a23e 183e 1fbe
00000080: 4b58 bd3d 3b41 b1bd 6100 3ebe 7e38 8e3b
00000090: 69af 75be 13e3 57be c218 acbe 0e8a 833e
000000a0: fca5 283d 1b4c 5ebe 31e7 4abc 7c6c 93bd
000000b0: 1216 81be caab 943e 4f7f 17be 88a3 0a3e
000000c0: ccf3 f0bd e041 18be 590c 223e ab3e 023d
000000d0: 5a3e debb 50c7 dcbc 4548 5cbe 7fe1 0e3e
000000e0: 5101 483e 491c 7a3d 0076 21be be8a a13d
000000f0: 9ba8 3ebe f4f8 b53f 2f7f 63be 5e9b 253e
00000100: 1d58 6a3e 14de 093a 26b0 143e d4e4 85be
00000110: 244c 103e bff8 703c 4971 b5be e5a4 a33d
00000120: d60a 4ebd e372 0340 5621 a1bd b2ff 2d3e
00000130: b8f9 033e 91e3 2c40 7048 2e3f 2ab6 5abe
00000140: 369f 103f 18ee 3cbf 1406 89be 0459 ec3d
00000150: f110 da3e 497e 70be ee6d 733e f40b a4bf
00000160: 004f afbf cbe6 ba3e f0c0 86bd 97e1 083e
00000170: 08bb 6b3d 74a5 c33d 2492 b2bf c30f 463e
00000180: a5f6 7140 cc58 3dbd 53b7 1c3e c890 f23d
00000190: a3c9 25be 36d1 bb3e 9a87 893e e52b 94be
000001a0: 4991 11be 832d 4c3c e040 1bbe e7f5 e1bd
000001b0: d683 26be 5dae 573f 0cf2 873e a889 06bf
000001c0: ff09 21bd b4c8 263f 5863 93bd 89bf 33c0
000001d0: 6064 6bbe ff2e 98be 3d4b 6e3e ccf9 b23d
000001e0: 3398 fc3d 56b2 823e 5207 03bf 76f6 2c3d
000001f0: b5bf 863e 847a 2b3f daa5 8d3d 9cd1 cfbd
00000200: 8cc1 1dbe a829 0ebe 2ccd b83c 19d9 d9be
00000210: 5f6e e03d 1773 583e 2ded 263d 22e1 853d
00000220: 1163 d13f 6870 7e3f 2e16 a1be 90ea 80be
00000230: a150 06be 457c ac3e 3372 963e a94e 4fbd
00000240: 686f 1dbf 7a04 9c3f 4697 323f f187 073f
00000250: c7e2 15bf 344c 0e3d 4298 46bb c547 67be
00000260: adf8 d93e e809 693d a07c cd3f e85e 3bbe
00000270: 4925 cabe ff2f 93be 33de 08be 87b8 0d3d
00000280: 62ab 833e ade2 be3d 595c f0bd 73c8 c6be
00000290: 7fa8 573c dafb 123e 39cf 43be b10d 75bd
000002a0: d208 5cbd eea5 653e 0deb 75be 8ebf 81be
000002b0: 2548 9f3e dbf9 243e ec7f 94be e3bc a63e
000002c0: b720 823e 4407 f23d c87c 5bbe d32a 1abd
000002d0: 9e00 42bd e112 683e d2da 713e ae0d a3bd
000002e0: 2c08 573d 6c55 79be 51e8 0abe 5906 cb3c
000002f0: 2d26 fb3d 3f1b cabd ccde c83d 566e b5be
00000300: bb63 763e 4298 43bd 7508 a73b 7355 84bd
00000310: 6278 79be 6aaa 513e 0402 8ebd 7476 41be
00000320: 608b 70be d1c6 243e 2d47 0a3e 1bfe 963c
00000330: a36d 28be db83 e23d 292e 093e b7c1 23bd
00000340: 9646 283e 13b9 00be 7898 0f3e e3b6 dfbd
00000350: e6b3 343d a483 903e 3d97 a43d 5e76 49be
00000360: 0f3c 04be 2632 9dbd dc88 3bbe ec8a 25be
00000370: 52de 85bc 041a c73c 9fc7 44be 126d 283e
00000380: ca28 7bbe 64ee acbb 9091 0d3e e641 0abd
00000390: 8b92 a63d acf4 573e 7af9 5fbe 9051 2fbd
000003a0: 5240 383d 42e0 a13d efd9 163e 84b3 783c
000003b0: 32a8 9fbd 2e93 f23d 6aed 9abd 07e4 9ebd
000003c0: 6982 adbc 6a5b ddbc 4d0b 803e 5b2a 113d
000003d0: 34c6 673d 66dd b53b 921d 0fbe 2797 2d3b
000003e0: a340 013e 1839 3dbe 13ba 203d c1a2 a5bd
000003f0: 98f0 213d b341 123e 9cb7 a43e 8ed1 06be
-0.10051985 -0.29536164 0.039272316 0.07207266 -0.17810267 0.018736247 -0.015790002 -0.120537825
0.29119617 -0.154516 -0.057775553 0.42041403 -0.016564542 -0.20243563 0.1881873 0.02948756
0.13205501 -0.17680368 -0.23590025 0.047240417 0.022743303 -0.08241665 0.015257669 -0.12917899
0.09750417 0.03818787 0.03186799 -0.19945444 0.02878135 0.4422789 0.31656834 -0.1555103
0.09245356 -0.0865502 -0.18554832 0.0043402305 -0.23992695 -0.21082716 -0.3361264 0.25691265
0.04117392 -0.2170872 -0.012384222 -0.07198426 -0.2521215 0.29037315 -0.14794658 0.13538945
-0.117652506 -0.1486888 0.15825023 0.031798046 -0.006782335 -0.026950508 -0.21511944 0.13953207
0.19531752 0.06106213 -0.1576767 0.07887791 -0.18619005 1.42166 -0.22216485 0.16172549
0.22885175 0.00052592275 0.1452032 -0.26151145 0.14091545 0.014707743 -0.35437992 0.079904355
-0.050303303 2.0538871 -0.078676865 0.16992071 0.12888229 2.7013896 0.6807928 -0.21358553
0.56492937 -0.738008 -0.2676245 0.11540416 0.4259105 -0.23485674 0.23772404 -1.2816148
-1.3695984 0.36504206 -0.06579769 0.13367306 0.057551414 0.09553042 -1.3950849 0.1934195
3.780679 -0.04622726 0.15304308 0.11844021 -0.161902 0.36683053 0.26861268 -0.2893974
-0.14215578 0.012462023 -0.15161467 -0.1103323 -0.16261229 0.8425043 0.26551855 -0.52553797
-0.039316174 0.6515 -0.07196683 -2.8085654 -0.22987509 -0.29723355 0.23270889 0.08739051
0.12333717 0.25526685 -0.51183045 0.04222723 0.26318136 0.6698382 0.06916399 -0.10147402
-0.15405864 -0.13883078 0.022558771 -0.42548445 0.109585516 0.21137653 0.040753532 0.06537081
1.6358358 0.9939027 -0.31462234 -0.25178957 -0.13116695 0.3368856 0.29384002 -0.050612126
-0.6149812 1.2188866 0.69762075 0.52941805 -0.5854916 0.03474064 -0.0030303155 -0.22585972
0.42572537 0.056894213 1.6053658 -0.18297923 -0.3948157 -0.28747556 -0.13366012 0.034599807
0.25716692 0.09320579 -0.11736364 -0.38824806 0.013162731 0.14353886 -0.19122018 -0.05982751
-0.05371935 0.22426578 -0.24015446 -0.25341457 0.3110973 0.16110937 -0.29003847 0.32565984
0.25415584 0.11817792 -0.21434319 -0.037638497 -0.04736387 0.22663452 0.2361863 -0.079615936
0.052498028 -0.24348992 -0.13565184 0.0247833 0.12263141 -0.09868478 0.0980812 -0.35435742
0.24061482 -0.047752626 0.0050974437 -0.06461611 -0.24362329 0.20475164 -0.06933978 -0.18892843
-0.23490667 0.16091467 0.13503714 0.018431714 -0.16448073 0.11060306 0.13396515 -0.039979663
0.16433176 -0.125706 0.14023006 -0.10923555 0.044116877 0.28225434 0.08036659 -0.1967406
-0.12913536 -0.07675581 -0.18313926 -0.16166276 -0.016341362 0.024304397 -0.19216774 0.16447857
-0.24527279 -0.005277442 0.13825059 -0.033754252 0.081334196 0.21089429 -0.21872512 -0.042802393
0.044983216 0.07904102 0.14731573 0.015179519 -0.077957526 0.118444785 -0.075648144 -0.077583365
-0.021180348 -0.027021129 0.25008622 0.035440784 0.056585506 0.0055500744 -0.13976124 0.00264878
0.12622313 -0.18478811 0.039239954 -0.080876835 0.03953609 0.14282875 0.32171333 -0.13165876
