IDS_TA/initial_Models/CADE-m5.0-l0.01.pth (torch, 67910 bytes, 16 tensors)

encoder.enc1.weight f4 [58, 78]
0.4586325 -0.22430834 -0.43740118 0.26492083 -0.046375528 0.0034773157 -0.23425952 -0.593507
-0.26154584 0.3336535 0.11284879 -0.1061517 -0.06766051 -0.04851806 -0.23266834 0.1426498
-0.083894566 0.45954794 0.0047603496 -0.21162872 -0.562041 -0.25903925 0.37643006 -0.0755034
-0.2824157 -0.30743104 -0.4277265 0.65845275 0.2812507 -0.077239 -0.22515522 -0.33368033
0.10748377 -0.036666874 -0.23934673 0.24273938 0.19301704 0.094184965 0.0579525 -0.20868577
0.08594805 0.23239674 0.06353959 0.15028976 0.5016643 0.18841732 -0.25739267 -0.14644545
-0.06400174 0.03304922 0.2037476 -0.15981635 -0.4041171 0.082748845 0.40191844 -0.0202564
0.11892367 0.8007137 -0.13388136 0.1452583 0.10391611 0.22026664 0.11674154 0.21985258
-0.04299944 0.21035795 0.07123837 0.30264416 -0.25075343 -0.03794162 0.38794664 0.121891856
0.28919852 0.18289328 -0.23296489 -0.14738841 0.21384184 0.25345242 0.18811049 0.20452164
-0.03886076 -0.068807356 -0.045359593 0.20933738 0.013347374 0.110935874 -0.13166377 0.012866703
0.08392285 0.023173282 -0.20385338 0.04059575 -0.021101672 0.03008141 0.27162147 0.26388717
0.29798764 -0.19342536 -0.20550223 0.002905697 0.2537258 -0.13305877 -0.12764552 -0.06951248
0.042739023 0.25110164 0.09885738 0.071917206 0.024634328 -0.032891273 -0.12891348 0.27471778
-0.18600143 -0.08061781 -0.18285897 -0.055200003 0.04234205 -0.015241141 0.13426611 -0.07342036
-0.14491011 -0.036992412 0.11131558 -0.076778196 -0.2279629 -0.2214427 0.17338702 -0.07046569
0.22509475 -0.05522938 -0.020724941 -0.038240958 -0.08076593 0.24031574 -0.028953047 0.57765347
-0.08400534 -0.016524026 0.056437872 0.019989414 -0.33833736 0.008484624 0.12737761 -0.05424966
0.16123469 -0.058734015 0.12321036 -0.22895275 0.012016098 -0.036460303 0.10743258 -0.02881411
0.0484831 0.095868945 -0.0018074965 0.18683514 0.13034452 0.074133515 0.096158676 -0.028417783
0.11124346 0.09515315 0.045327753 -0.04959971 0.018808123 0.091916576 -0.0026121123 -0.22910172
0.05824386 -0.0007544725 0.09438615 -0.13037175 -0.095835984 0.17042273 0.10869584 -0.093952395
-0.0009379128 -0.022421714 0.14310297 -0.13437697 0.15608104 -0.21048777 0.031865187 0.041965347
0.15151063 0.0744309 0.108911656 -0.36410147 -0.0420458 -0.095008306 0.13537936 -0.25124353
0.011566094 0.13128732 0.12274438 -0.15798847 0.20769066 0.3367482 0.24181287 0.22687905
0.46156988 0.57493275 0.13513055 -0.3453335 0.013194415 0.2357104 -0.09737468 0.21879359
-0.03367958 -0.111963995 0.09994326 0.25738412 0.13076055 0.0007781134 0.011955947 -0.080098376
-0.045354355 -0.06701768 -0.3237166 -0.014635625 -0.09327499 -0.03156112 0.11380415 0.16724145
-0.22027367 -0.13416563 -0.17900325 0.18246886 0.11220312 0.05540248 0.16974418 0.011075777
0.08799893 0.004225264 -3.4802222 -0.05779252 -0.30046278 0.07473572 -0.010079595 0.17978278
-0.29772004 0.484593 -0.08210855 -0.094803415 -0.06920613 -0.13450319 -0.11674197 -0.2524255
0.3110007 -0.39983115 0.11491687 -0.97964233 0.039368127 0.17162561 -0.08270833 0.10613439
00000000: e1d1 ea3e 16b1 65be 0cf3 dfbe b4a3 873e
00000010: 44f4 3dbd ade3 633b bae1 6fbe 13f0 17bf
00000020: 56e9 85be a2d4 aa3e 441d e73d 1066 d9bd
00000030: 9891 8abd e0ba 46bd 9c40 6ebe ca12 123e
00000040: ead0 abbd de49 eb3e b5fc 9b3b 33b5 58be
00000050: ebe1 0fbf cba0 84be 71bb c03e 87a1 9abd
00000060: ca98 90be 9a67 9dbe f8fe dabe 5c90 283f
00000070: 1700 903e 7b2f 9ebd 178f 66be 26d8 aabe
00000080: 7320 dc3d 0130 16bd 4f17 75be ac90 783e
00000090: 42a6 453e 0ce4 c03d 9a5f 6d3d b9b1 55be
000000a0: 8805 b03d 69f9 6d3e 0b21 823d 8fe5 193e
000000b0: 126d 003f 78f0 403e f9c8 83be ccf5 15be
000000c0: 5813 83bd 9e5e 073d 36a3 503e e6a6 23be
000000d0: 70e8 cebe 3a78 a93d 41c8 cd3e c0f0 a5bc
000000e0: 418e f33d 93fb 4c3f 3218 09be 97be 143e
000000f0: f8d1 d43d 948d 613e 3016 ef3d 0921 613e
00000100: 2e20 30bd 1368 573e 6ce5 913d 2df4 9a3e
00000110: c162 80be ac68 1bbd f1a0 c63e 70a2 f93d
00000120: d411 943e 6048 3b3e 598e 6ebe fdec 16be
00000130: 5bf9 5a3e 84c4 813e 09a0 403e 1f6e 513e
00000140: 762c 1fbd dfea 8cbd fbca 39bd 8a5c 563e
00000150: f2ae 5a3c 5932 e33d ded2 06be ddce 523c
00000160: bedf ab3d e5d5 bd3c f1be 50be bb47 263d
00000170: 6add acbc 4a6d f63c f811 8b3e 381c 873e
00000180: d691 983e 4c11 46be 2d6f 52be 826d 3e3b
00000190: 59e8 813e 8f40 08be 82b5 02be 8f5c 8ebd
000001a0: 1d0f 2f3d 6590 803e bd75 ca3d 5449 933d
000001b0: eecd c93c 00b9 06bd e501 04be cfa7 8c3e
000001c0: 2977 3ebe f31a a5bd 623f 3bbe 6619 62bd
000001d0: db6e 2d3d fbb5 79bc 0e7d 093e 6a5d 96bd
000001e0: 5163 14be 5b85 17bd 6cf9 e33d e33d 9dbd
000001f0: 1b6f 69be e0c1 62be 5e8c 313e 5150 90bd
00000200: 3d7f 663e 3438 62bd 5ac7 a9bc 8da2 1cbd
00000210: 9c68 a5bd 5415 763e f12e edbc 19e1 133f
00000220: fe0a acbd 655d 87bc 662b 673d d7c0 a33c
00000230: 8e3a adbe 1803 0b3c 476f 023e e434 5ebd
00000240: b51a 253e 1493 70bd b755 fc3d 9772 6abe
00000250: 2bdf 443c 6657 15bd 9d05 dc3d 920b ecbc
00000260: 3796 463d f056 c43d 85e9 ecba b651 3f3e
00000270: 0979 053e 50d3 973d d7ee c43d 69cc e8bc
00000280: 9cd3 e33d a8df c23d 98a9 393d 1129 4bbd
00000290: 7e13 9a3c c23e bc3d f92f 2bbb a499 6abe
000002a0: 1d91 6e3d cbc7 45ba 874d c13d 2c80 05be
000002b0: a845 c4bd 4c83 2e3e ed9b de3d 1d6a c0bd
000002c0: 43de 75ba bead b7bc 9689 123e 1e9a 09be
000002d0: b5d3 1f3e 1b8a 57be 1285 023d dbe3 2b3d
000002e0: 9a25 1b3e 3a6f 983d 130d df3d 826b babe
000002f0: 3738 2cbd b793 c2bd e3a0 0a3e fea2 80be
00000300: b77f 3d3c 2f70 063e 6861 fb3d bbc7 21be
00000310: dcac 543e 436a ac3e cb9d 773e fb52 683e
00000320: e352 ec3e cb2e 133f aa5f 0a3e 8dcf b0be
00000330: 632d 583c 115e 713e 606c c7bd 6d0b 603e
00000340: 99f3 09bd 614d e5bd 0daf cc3d dac7 833e
00000350: 18e6 053e 4efa 4b3a e0e2 433c 9e0a a4bd
00000360: 7dc5 39bd 9140 89bd 2fbe a5be 43ca 6fbc
00000370: f506 bfbd 3c46 01bd 2612 e93d 5841 2b3e
00000380: 6c8f 61be b762 09be a14c 37be 1ed9 3a3e
00000390: c0ca e53d b6ed 623d 6bd1 2d3e 2d77 353c
000003a0: c838 b43d 1574 8a3b f6bb 5ec0 d9b7 6cbd
000003b0: 42d6 99be 0b0f 993d e324 25bc fa18 383e
000003c0: c36e 98be 931c f83e 8728 a8bd 4b28 c2bd
000003d0: f2bb 8dbd 34bb 09be 6a16 efbd ea3d 81be
000003e0: 7c3b 9f3e abb6 ccbe 8959 eb3d d7c9 7abf
000003f0: 7940 213d a0be 2f3e fc62 a9bd fd5c d93d

encoder.enc1.bias f4 [58]
0.19217901 0.013218612 0.025229355 -0.009367196 -0.05985537 0.00097451697 0.079288185 0.03900375
0.06190979 0.1639034 0.06572271 0.017483918 0.053453773 -0.00063773186 0.18735 0.11558885
-0.04626067 0.006939321 -0.06326161 0.05091385 0.0055115023 0.035998993 0.016277876 -0.02999183
-0.06585941 -0.0458839 -0.025245393 -0.01790706 0.053503275 0.06593567 0.019214822 0.012273318
0.02699917 0.11058535 -0.024885543 -0.01318878 0.076437406 0.056284864 -0.0020176528 0.090598635
0.08624971 -0.012828481 0.270277 0.003778421 -0.019047404 -0.01971564 0.014223192 0.026574366
0.09016122 0.012056394 0.10004271 -0.012389057 -0.012537988 0.043063737 -0.014624011 0.048759602
0.09574257 0.09523243
00000000: 93ca 443e e192 583c cbad ce3c de78 19bc
00000010: e82a 75bd ba76 7f3a d861 a23d 65c2 1f3d
00000020: 1f95 7d3d 4bd6 273e a199 863d 6f3a 8f3c
00000030: 58f2 5a3d 762d 27ba aed8 3f3e d9b9 ec3d
00000040: d47b 3dbd 3e63 e33b 4e8f 81bd 0b8b 503d
00000050: d599 b43b ae73 133d 2e59 853c 6db1 f5bc
00000060: 4ce1 86bd c2f0 3bbd 6dcf cebc d4b1 92bc
00000070: 4026 5b3d 4809 873d 6768 9d3c 0716 493c
00000080: 5d2d dd3c 927a e23d c4dc cbbc c115 58bc
00000090: 378b 9c3d f58a 663d 993a 04bb c78b b93d
000000a0: b0a3 b03d 8d2e 52bc bf61 8a3e 639f 773b
000000b0: 4d09 9cbc b282 a1bc 6408 693c 7cb2 d93c
000000c0: 72a6 b83d 2e88 453c 31e3 cc3d 79fb 4abc
000000d0: 226c 4dbc 9a63 303d 8c99 6fbc 26b8 473d
000000e0: ae14 c43d 3809 c33d

encoder.enc2.weight f4 [39, 58]
-1.0847112 -0.23363167 -0.6391083 0.15533592 -1.4344478 -0.6104334 -0.26188082 0.31592175
0.36230037 -1.9805678 -0.5575233 0.09361252 -0.34468332 -0.8556155 0.015860664 0.3558295
-0.00874739 0.031358127 -0.38971418 0.12675263 -0.17398421 -0.020452999 0.35701436 -0.08590376
-0.3091159 0.3043566 -0.31492242 0.4470603 -0.32889026 -0.5536537 0.048180632 -0.0826901
-0.13951279 -0.29361248 0.22679831 0.1986928 0.16775668 0.17415696 -0.027197508 0.23924449
-0.36641562 -0.15803885 0.29557827 -0.44387048 -0.019498724 0.04291387 0.09247602 0.030494427
-0.47924945 0.12227501 -0.42414442 0.06069523 0.34109005 0.37270334 0.07554272 0.95242274
-0.24471429 -1.8030199 -0.05343733 0.22421664 0.18453291 -0.19187398 0.4955544 0.2683577
0.032145526 0.013153186 0.15721886 0.43180785 0.3569782 -0.0020761094 0.0071365195 0.33192074
-0.037149996 0.075078666 0.06339685 -0.14712693 0.18133238 0.07628996 -0.28885496 0.08644523
-0.26210985 0.10271999 0.3347186 0.124407746 0.15939784 0.025194976 0.36478326 0.06731514
-0.034478527 0.045359768 0.25600526 0.19382593 0.009945083 -0.30116692 -0.18975052 -0.087584354
0.015591898 -0.25431797 -0.18636307 0.26980016 0.0554386 0.15170994 -0.14807822 -0.09241367
-0.15521578 0.19620828 0.025334353 -0.17971136 0.26926962 0.06778744 -0.3137592 0.3374303
-0.23876646 -0.2147638 -0.14573187 0.31880963 0.1491296 0.008193556 0.32841516 0.09029491
0.1824271 0.16809495 -0.14149204 0.0867088 0.12833382 0.07889689 0.20103143 -0.2292389
-0.124591276 0.02072574 0.09552376 0.16676268 0.0846445 0.30686092 -0.20081268 0.0014739442
-0.2570287 0.25239804 -0.27711642 -0.030848326 0.20756285 -0.43279284 0.20199032 -0.14311619
0.15492819 0.19167788 -0.0041842926 0.17056249 -0.25687465 -0.3541617 -0.12860487 -0.31446287
-0.11049311 0.12603076 -0.19532134 -0.27614722 -0.14799228 -0.16669472 0.101401314 0.2730843
-0.2153798 0.053498644 -0.03864174 0.27006558 0.35505053 0.056337778 0.12936752 -0.22610971
-0.19324298 -0.14197078 0.28680953 -0.4989959 -0.15155004 0.09169069 0.07224132 -0.1898228
0.030038094 0.043565057 -0.11076452 -0.24778032 0.33687714 -0.2492811 0.08380031 0.00792784
0.048371922 -0.24471794 -0.12677506 0.107475296 0.13930286 0.14409468 -0.23749185 -0.052004818
0.2904388 -0.024483543 -0.1752245 0.24741463 0.14988934 -0.30415475 0.2365655 0.07286484
0.019824848 -0.18528575 -0.1584982 0.13552485 0.024022738 -0.009199771 0.3205607 0.2726235
0.02069467 0.09259836 0.21272743 -0.22242622 -0.21133855 0.2136387 -0.17490484 -0.23464194
0.3033513 -0.08293208 -0.2557587 -0.1466839 -0.25358653 0.063117966 -0.027273541 0.2934091
0.26664713 -0.115887724 -0.071840145 0.08080685 -0.0406416 0.19776875 0.06905338 0.07944451
-0.16392432 -0.1291025 -0.44494995 -0.11064034 -0.6668552 -0.27443758 0.042147726 -0.32539895
-0.097319946 -0.34315023 -0.028681964 0.15203227 0.25694054 0.24812774 -0.0007203061 -0.27441928
0.30028716 0.19513394 0.25690326 -0.15909663 -0.30351126 -0.03198061 -0.1353714 -0.21698971
00000000: d1d7 8abf 243d 6fbe 9a9c 23bf 6110 1f3e
00000010: fc9b b7bf 5d45 1cbf 3e15 86be 7fc0 a13e
00000020: 6f7f b93e 3f83 fdbf d9b9 0ebf ecb7 bf3d
00000030: 557a b0be 9e09 5bbf 39ee 813c 492f b63e
00000040: 3651 0fbc 6171 003d 9e88 c7be 71cb 013e
00000050: eb28 32be 0c8d a7bc 96ca b63e 4fee afbd
00000060: 7044 9ebe a1d4 9b3e 833d a1be 16e5 e43e
00000070: 4e64 a8be 40bc 0dbf 0e59 453d 6d59 a9bd
00000080: 71dc 0ebe 6054 96be d13d 683e 2076 4b3e
00000090: 68c8 2b3e 3456 323e 4fcd debc 82fc 743e
000000a0: d49a bbbe f0d4 21be 0956 973e fe42 e3be
000000b0: cabb 9fbc 74c6 2f3d 1164 bd3d 73cf f93c
000000c0: 2f60 f5be 526b fa3d 7529 d9be 909b 783d
000000d0: 5ba3 ae3e f9d2 be3e 24b6 9a3d fad1 733f
000000e0: 6296 7abe 5bc9 e6bf 1ae1 5abd 0c99 653e
000000f0: 32f6 3c3e 9d7a 44be 4eb9 fd3e 2e66 893e
00000100: 07ab 033d 7680 573c fbfd 203e eb15 dd3e
00000110: d9c5 b63e 560f 08bb 77d9 e93b 84f1 a93e
00000120: 982a 18bd d8c2 993d 35d6 813d 71a8 16be
00000130: 32af 393e e93d 9c3d cce4 93be 320a b13d
00000140: 4333 86be dc5e d23d 3d60 ab3e 7dc9 fe3d
00000150: 3039 233e b265 ce3c dfc4 ba3e 85dc 893d
00000160: 5b39 0dbd 2acb 393d 1f13 833e 4e7a 463e
00000170: b4f0 223c 8d32 9abe f64d 42be 6d5f b3bd
00000180: 2975 7f3c f735 82be f6d5 3ebe 3f23 8a3e
00000190: 9613 633d da59 1b3e d1a1 17be 6143 bdbd
000001a0: e3f0 1ebe d3ea 483e fd89 cf3c 4106 38be
000001b0: b5dd 893e 24d4 8a3d 0ca5 a0be aac3 ac3e
000001c0: 327f 74be 0beb 5bbe bc3a 15be 043b a33e
000001d0: 6eb5 183e 443e 063c 0826 a83e 8aec b83d
000001e0: 2bce 3a3e 1521 2c3e 4ae3 10be 6294 b13d
000001f0: f169 033e b194 a13d 2fdb 4d3e 9abd 6abe
00000200: b629 ffbd 07c9 a93c f6a1 c33d d6c3 2a3e
00000210: 185a ad3d e01c 9d3e d7a1 4dbe 5c31 c13a
00000220: 4499 83be 513a 813e 34e2 8dbe a1b5 fcbc
00000230: 5b8b 543e 0697 ddbe 8dd6 4e3e 0d8d 12be
00000240: 7fa5 1e3e 3547 443e 641c 89bb efa7 2e3e
00000250: 1385 83be af54 b5be ffb0 03be 4701 a1be
00000260: 364a e2bd 350e 013e 5102 48be 2b63 8dbe
00000270: 4a8b 17be 05b2 2abe 7eab cf3d b5d1 8b3e
00000280: 868c 5cbe 6521 5b3d cd46 1ebd 0946 8a3e
00000290: 2fc9 b53e 71c2 663d eb78 043e 4e89 67be
000002a0: 7de1 45be ca60 11be b3d8 923e 647c ffbe
000002b0: ef2f 1bbe 54c8 bb3d 42f3 933d e860 42be
000002c0: 7312 f63c 4671 323d 82d8 e2bd 20ba 7dbe
000002d0: 297b ac3e 8b43 7fbe 7f9f ab3d c5e3 013c
000002e0: a321 463d 5797 7abe 52d1 01be 021c dc3d
000002f0: 69a5 0e3e 8e8d 133e 1031 73be 0103 55bd
00000300: 65b4 943e b691 c8bc 0d6e 33be 435a 7d3e
00000310: 977c 193e 2cba 9bbe 3a3e 723e 293a 953d
00000320: b867 a23c 8cbb 3dbe 5a4d 22be 07c7 0a3e
00000330: 55cb c43c a3ba 16bc 8820 a43e 4f95 8b3e
00000340: de87 a93c 35a4 bd3d 38d5 593e b3c3 63be
00000350: 2269 58be 1ac4 5a3e 411a 33be fa45 70be
00000360: dd50 9b3e 4bd8 a9bd cef2 82be 4e34 16be
00000370: 18d6 81be fe43 813d c36c dfbc b839 963e
00000380: f985 883e 8b56 edbd ed20 93bd 107e a53d
00000390: ce77 26bd e483 4a3e dc6b 8d3d ceb3 a23d
000003a0: c7db 27be 7233 04be 7bd0 e3be 6797 e2bd
000003b0: 06b7 2abf 1583 8cbe 18a3 2c3d b19a a6be
000003c0: ae4f c7bd 63b1 afbe 70f6 eabc 59ae 1b3e
000003d0: b68d 833e 3315 7e3e edd2 3cba af80 8cbe
000003e0: 3dbf 993e 31d1 473e d388 833e 3aea 22be
000003f0: d465 9bbe 1afe 02bd cd9e 0abe 8d32 5ebe

encoder.enc2.bias f4 [39]
0.018826215 0.004346527 0.0075545437 0.04090794 -0.047003403 0.06016024 -0.06644209 -0.024704853
0.08719779 0.058596905 -0.028025651 -0.030570071 0.009286459 0.0039588055 0.034880172 -0.03165518
0.060120635 0.0075045447 0.04841878 -0.011881203 -0.07097555 0.039643068 0.06908433 -0.024017269
0.00020105332 -0.0050744694 0.087686665 0.06661199 0.050372627 0.06523093 0.012167984 0.044925816
0.02093752 -0.009123547 0.06719569 0.03212117 -0.0044537676 0.09683205 0.21757539
00000000: 6f39 9a3c 506d 8e3b 1b8c f73b 168f 273d
00000010: a486 40bd 956a 763d ca12 88bd d561 cabc
00000020: c194 b23d 4f03 703d 0d96 e5bc 166e fabc
00000030: 3b26 183c deb8 813b 83de 0e3d dda8 01bd
00000040: 0e41 763d afe8 f53b c552 463d 61a9 42bc
00000050: a15b 91bd c560 223d 167c 8d3d ddbf c4bc
00000060: d7d1 5239 bc47 a6bb 1195 b33d de6b 883d
00000070: 8753 4e3d cb97 853d 395c 473c 2204 383d
00000080: 2985 ab3c ee7a 15bc e59d 893d 7d91 033d
00000090: e9f0 91bb e24f c63d 15cc 5e3e

encoder.enc3.weight f4 [19, 39]
0.46324432 -0.6127952 -0.05848013 -0.3421406 0.31784186 0.12727177 0.48541465 -0.37095144
-0.4367428 -0.07977163 -0.182928 0.2882549 -1.2816329 0.30975488 -0.027694792 -0.3465047
-0.17298874 0.052910242 -0.73324955 0.2665998 -0.7605355 -0.33257595 0.7344762 0.21880506
0.044256065 0.26924482 0.30849656 0.23224512 0.34962067 -0.48228183 -0.2586069 0.33022505
-0.67288 -0.20408571 0.51406205 0.1840003 -0.36851797 0.123216726 0.23882496 -0.053146932
0.086175665 0.28309834 -0.22172974 0.09035415 -0.38284716 0.34741738 -0.17557433 -0.26815593
-0.31355038 -0.21552913 -0.12596641 0.22884822 -0.37707192 0.16274698 -0.21911709 -0.059369486
0.25186887 -0.11168897 0.07936877 0.17498365 -0.16350712 -0.17261165 -0.26607427 0.18700168
0.25558722 0.06397604 -0.18748707 -0.36622566 -0.16745628 0.21624084 -0.035279553 -0.20349108
0.28639245 -0.13842207 0.3700321 0.32822195 -0.163597 0.33208853 -0.50897086 0.182527
0.10695546 -0.042117156 -0.044893224 0.06645075 -0.34332263 -0.075204745 -0.17925122 0.18836878
0.1755444 -0.11841347 -0.092215575 -0.4729499 0.26277867 -0.25297523 0.4460492 0.10864648
0.06285542 0.26201767 0.7720154 -0.14903308 -1.0384384 0.19487968 -0.27785468 0.3874572
0.25775582 -0.20164286 0.2868437 0.28210285 0.2882608 0.31839746 0.22449191 -0.01183231
-1.2476733 0.069442056 -0.31708458 0.5235535 0.53019756 -0.25669277 0.1325343 -0.36150068
-0.42866424 0.22637834 0.31603366 -0.26538023 0.2395589 0.14705113 -0.22957377 -0.18783452
-0.37947625 0.16423038 -0.11270991 0.061966214 0.33052778 0.16083969 -0.3030315 -0.116447225
-0.04211791 0.22351101 -0.053370137 -0.3482923 0.26893908 0.020088304 -0.34382161 -0.11065275
0.23421568 -0.29797065 -0.0853777 -0.16955557 0.045440752 0.005139296 0.36007237 0.20995426
0.13032661 0.3280044 0.054476265 -0.083538234 -0.1666732 0.20806722 0.06012387 0.3333149
0.095563345 0.18844345 -0.007839523 -0.33773458 0.29164216 0.17357038 -0.14548656 -0.100556135
0.22141242 -0.26151705 0.009870876 0.120225094 -0.14294042 -0.22215603 0.177998 0.3277081
0.44748774 0.26675242 -1.5442873 -0.17168951 -0.19674881 0.061289534 -0.06295261 0.15273207
0.19464114 0.40940362 0.022881843 0.15092337 0.3515626 0.07467723 -1.3251562 0.3746875
-0.107223265 -0.112333834 0.18674865 0.051261302 -0.17731088 0.07709674 0.073323354 0.054415908
-0.014974986 0.009822127 -0.09690463 0.033539586 -0.08013761 -0.091999196 0.21865334 0.435661
0.005360369 -0.13835727 0.27054363 -0.15358616 -0.41595152 0.47931454 0.061951764 0.3534286
-0.12277721 -0.7733755 -0.016044812 -0.105863065 0.042573296 -0.15666795 -0.15245494 0.14187407
0.39599907 0.32824627 0.041909557 0.7473365 -0.015569942 0.82711583 0.28903776 -0.35348225
-0.16508512 0.18614772 0.16846727 0.0384823 0.15251938 0.2807172 -0.27074593 0.107111424
-0.124082856 0.01760307 0.20733106 -0.2679659 0.08611138 0.007451342 -0.27460045 -0.38734317
-0.24829656 -0.18785077 -0.33105245 -0.33318245 -0.27958888 -0.16895756 -0.31229463 -0.19328791
00000000: 5c2e ed3e 25e0 1cbf dc88 6fbd 0d2d afbe
00000010: 2bbc a23e 8853 023e 4588 f83e 59ed bdbe
00000020: c19c dfbe 4f5f a3bd 7a51 3bbe 2596 933e
00000030: 8c0c a4bf 3198 9e3e 30e0 e2bc 1069 b1be
00000040: f623 31be 69b8 583d 3eb6 3bbf c57f 883e
00000050: 74b2 42bf 6547 aabe a206 3c3f 6f0e 603e
00000060: d945 353d 75da 893e 43f3 9d3e aad1 6d3e
00000070: 7b01 b33e a5ed f6be 2068 84be 4213 a93e
00000080: dd41 2cbf d8fb 50be 9299 033f 936a 3c3e
00000090: 63ae bcbe 0d59 fc3d 888e 743e 99b0 59bd
000000a0: de7c b03d 44f2 903e 1f0d 63be 990b b93d
000000b0: 8b04 c4be b1e0 b13e c2c9 33be bc4b 89be
000000c0: ad89 a0be abb3 5cbe 57fd 00be 3057 6a3e
000000d0: 920f c1be 25a7 263e 3b60 60be 6b2d 73bd
000000e0: f5f4 803e 30bd e4bd 188c a23d ea2e 333e
000000f0: 696e 27be 1cc1 30be e33a 88be 5e7d 3f3e
00000100: 54dc 823e df05 833d 9cfc 3fbe ee81 bbbe
00000110: a979 2bbe 3d6e 5d3e 4b81 10bd f75f 50be
00000120: 08a2 923e 84be 0dbe d974 bd3e b50c a83e
00000130: f985 27be 8207 aa3e ea4b 02bf 5ce8 3a3e
00000140: 770b db3d 0a83 2cbd f5e1 37bd 5517 883d
00000150: fcc7 afbe f204 9abd a28d 37be bfe3 403e
00000160: e9c1 333e c382 f2bd 85db bcbd 7d26 f2be
00000170: ed8a 863e f885 81be 9060 e43e 0c82 de3d
00000180: 58ba 803d 2e27 863e cda2 453f 219c 18be
00000190: 8deb 84bf 8a8e 473e f842 8ebe ca60 c63e
000001a0: 92f8 833e 777b 4ebe 2ddd 923e c96f 903e
000001b0: eb96 933e fe04 a33e 35e1 653e 4edc 41bc
000001c0: c2b3 9fbf a337 8e3d e958 a2be 9a07 063f
000001d0: 07bb 073f 3c6d 83be 12b7 073e 9e16 b9be
000001e0: e179 dbbe b9cf 673e 2acf a13e ebdf 87be
000001f0: ee4e 753e 9294 163e 6315 6bbe b157 40be
00000200: b64a c2be 022c 283e 74d4 e6bd 49d0 7d3d
00000210: f03a a93e 29b3 243e f226 9bbe e27b eebd
00000220: d483 2cbd 12e0 643e a59a 5abd 5e53 b2be
00000230: 62b2 893e 3a90 a43c 6309 b0be e99d e2bd
00000240: 3cd6 6f3e 9c8f 98be 81da aebd fa9f 2dbe
00000250: 1520 3a3d 8a67 a83b 685b b83e 40fe 563e
00000260: 5774 053e 31f0 a73e 8122 5f3d 1816 abbd
00000270: 61ac 2abe 930f 553e 7244 763d 40a8 aa3e
00000280: b7b6 c33d 52f7 403e 5871 00bc 8ceb acbe
00000290: 1f52 953e 6fbc 313e 6efa 14be 60f0 cdbd
000002a0: f0b9 623e 90e5 85be 74b9 213c 9338 f63d
000002b0: f95e 12be df7c 63be 1c45 363e 5bc9 a73e
000002c0: 1d1d e53e c693 883e 35ab c5bf 60cf 2fbe
000002d0: 8578 49be bc0a 7b3d 4ced 80bd cc65 1c3e
000002e0: 0250 473e 5a9d d13e b472 bb3c a88b 1a3e
000002f0: 0300 b43e 60f0 983d b89e a9bf 0ad7 bf3e
00000300: df97 dbbd 480f e6bd 0a3b 3f3e 5ff7 513d
00000310: fc90 35be e5e4 9d3d 8e2a 963d 37e3 5e3d
00000320: a559 75bc fdec 203c ef75 c6bd ce60 093d
00000330: 301f a4bd 136a bcbd a9e6 5f3e f50e df3e
00000340: 09a6 af3b 87ad 0dbe b284 8a3e b145 1dbe
00000350: 99f7 d4be b768 f53e 22c1 7d3d 98f4 b43e
00000360: 9e72 fbbd f0fb 45bf 6970 83bc bcce d8bd
00000370: 5661 2e3d 906d 20be 261d 1cbe 7047 113e
00000380: 64c0 ca3e e50f a83e 5ba9 2b3d 7251 3f3f
00000390: 1219 7fbc ddbd 533f c2fc 933e a0fb b4be
000003a0: 130c 29be 829d 3e3e af82 2c3e 9e9f 1d3d
000003b0: 0a2e 1c3e 2aba 8f3e 369f 8abe 3c5d db3d
000003c0: 271f febd 5034 903c 984e 543e d432 89be
000003d0: 2a5b b03d 632a f43b 6e98 8cbe d851 c6be
000003e0: 7441 7ebe f45b 40be b57f a9be e496 aabe
000003f0: 4626 8fbe 3603 2dbe 15e5 9fbe 44ed 45be

encoder.enc3.bias f4 [19]
0.07193027 -0.0068615554 0.046272755 -0.010771845 0.083071835 -0.008395649 -0.006730292 0.03236096
0.011895795 0.15015495 -0.025622804 0.0104617225 -0.006785066 0.011524197 0.033826545 0.03097337
-0.014007854 -0.0073814923 0.019221773
00000000: 2d50 933d e6d6 e0bb 8088 3d3d 647c 30bc
00000010: 9121 aa3d e78d 09bc c889 dcbb ed8c 043d
00000020: 95e6 423c 38c2 193e eae6 d1bc a567 2b3c
00000030: 4255 debb fccf 3c3c b48d 0a3d ddbb fd3c
00000040: 3381 65bc 72e0 f1bb fb76 9d3c

encoder.enc4.weight f4 [7, 19]
-0.32450005 -0.34445384 0.2726091 -0.23553948 0.34577712 -0.03194688 -0.015666012 0.011632916
0.017156227 0.063551016 -0.0027244636 -0.05086773 0.15347622 0.49585178 0.12147874 -0.24842848
-0.009235697 -0.27288324 -0.059529446 -0.60026425 -0.43401572 0.53065825 -0.18011291 0.5871204
-0.44531792 0.11819717 0.60453886 0.03466545 -0.8060664 0.2998382 -0.46579662 -0.41041717
0.34775338 -0.28171948 0.67974365 0.67777354 0.26573342 0.004787278 -0.2712151 -0.0047812075
0.07528471 -0.19673686 -0.056796078 0.19006695 -0.43636 -0.5070842 0.010280225 -0.06966044
-0.14648989 -0.24482368 -0.1673843 -0.20897312 -0.1735912 0.16119438 -0.16912141 0.15443338
0.13443607 0.33754256 -0.23783249 -0.14260188 -0.3392732 -0.5160158 0.27903578 0.26309627
-0.11628451 0.029824737 0.2594195 -0.41450587 0.5197106 -0.0061045294 -0.17881666 0.2175929
-0.42687294 0.27340898 -0.06402461 -0.12124535 0.64667225 -0.29549584 -0.6765594 -0.063490026
-0.46053767 0.22706418 0.367066 -0.054914497 -0.11378213 0.9282392 -0.17877592 0.43555665
0.35603598 0.18517289 0.18936698 -0.49266532 -0.20605287 0.42089 -0.6470407 -0.08305115
0.08547944 -0.19678421 0.24914487 -0.39925557 0.18997529 -0.40806246 0.08351687 -0.10537576
0.30772886 0.13728194 -0.27922055 0.21726523 -0.46192467 0.104730405 -0.023398567 -0.093106985
0.33887842 -0.50970584 -0.42898798 0.4504865 0.16308387 0.42081782 -0.15284318 -0.08243139
-0.046514865 0.33210024 0.18543875 -0.4231656 0.18145268 0.4325732 -0.1375335 0.045671187
-0.1388193 0.1312848 0.20377594 -0.2133174 0.019164056
00000000: df24 a6be 415c b0be 6c93 8b3e 4331 71be
00000010: b309 b13e bbda 02bd 0256 80bc fc97 3e3c
00000020: 378b 8c3c 0927 823d ea8c 32bb ae5a 50bd
00000030: df28 1d3e 49e0 fd3e d8c9 f83d 0964 7ebe
00000040: 5251 17bc 5ab7 8bbe 26d5 73bd ebaa 19bf
00000050: 4f37 debe 38d9 073f 856f 38be 864d 163f
00000060: b600 e4be 5c11 f23d 0fc3 1a3f 5cfd 0d3d
00000070: 5e5a 4ebf 6484 993e e57c eebe 3322 d2be
00000080: bb0c b23e 893d 90be ae03 2e3f 9182 2d3f
00000090: 360e 883e 99de 9c3b b5dc 8abe adab 9cbb
000000a0: df2e 9a3d 6375 49be 01a3 68bd e9a0 423e
000000b0: 946a dfbe 45d0 01bf 646e 283c 22aa 8ebd
000000c0: 7201 16be 0fb3 7abe ca66 2bbe 0dfd 55be
000000d0: e4c1 31be 2410 253e 2a2e 2dbe c923 1e3e
000000e0: 9ca9 093e 61d2 ac3e 5c8a 73be 3a06 12be
000000f0: 38b5 adbe 9d19 04bf c7dd 8e3e 8eb4 863e
00000100: 9326 eebd 0253 f43c a2d2 843e 1d3a d4be
00000110: c10b 053f 8108 c8bb b71b 37be acd0 5e3e
00000120: 178f dabe 43fc 8b3e 561f 83bd 7b4f f8bd
00000130: 508c 253f 3b4b 97be ff32 2dbf 0f07 82bd
00000140: 98cb ebbe 8383 683e 13f0 bb3e 06ee 60bd
00000150: 9b06 e9bd 16a1 6d3f 0911 37be 4801 df3e
00000160: 594a b63e f69d 3d3e 6be9 413e a13e fcbe
00000170: 86ff 52be e57e d73e 76a4 25bf b916 aabd
00000180: d80f af3d cd81 49be d51f 7f3e 3a6b ccbe
00000190: e288 423e 90ed d0be e50a ab3d 3fcf d7bd
000001a0: a38e 9d3e a393 0c3e fff5 8ebe c77a 5e3e
000001b0: 6481 ecbe e57c d63d 5aae bfbc e0ae bebd
000001c0: 7981 ad3e 157c 02bf 50a4 dbbe 2ba6 e63e
000001d0: 75ff 263e 6f75 d73e ec82 1cbe cad1 a8bd
000001e0: 5f86 3ebd 0b09 aa3e a8e3 3d3e 29a9 d8be
000001f0: bbce 393e 3c7a dd3e 95d5 0cbe b611 3b3d
00000200: a626 0ebe 866f 063e a4aa 503e e06f 5abe
00000210: f0fd 9c3c

encoder.enc4.bias f4 [7]
-0.03140911 -0.00069371884 0.01344222 -0.009126002 -0.039740484 0.016386548 -0.0027526906
00000000: d7a6 00bd afda 35ba c23c 5c3c 3a85 15bc
00000010: ebc6 22bd 153d 863c 7c66 34bb

decoder.dec1.weight f4 [19, 7]
-0.7396758 0.47882035 -0.30026573 -0.46046978 0.8311642 -0.8160136 0.06118289 -0.34128913
-0.6406053 0.26995027 -0.58558655 -0.22582966 0.0028670693 -0.5435094 -0.37791607 -0.105121955
0.9721195 0.6360742 0.089761406 0.079337105 0.5833045 0.31398767 0.4208959 -0.3110458
0.9466399 -0.42648983 -0.79463065 -0.7585613 -0.4086386 -0.020155592 -0.284393 0.15720434
-0.15607265 0.8313559 -0.17191164 0.011196063 -0.47660288 -0.6616409 -0.3464928 0.07594669
-0.79370785 0.63327795 0.61963564 -0.8585164 -0.21667439 0.428778 0.08534931 -0.92644256
-0.17372872 -0.5918875 0.67645127 -0.903289 0.32848144 0.41400927 -0.12217991 -0.27480835
0.9886789 -0.42594314 -0.76752925 -0.58664846 -0.5782219 0.92589676 -0.89177114 0.33597067
-0.024998518 0.2423297 -0.2637532 0.37275118 0.71218526 -0.16859882 -1.0214834 -0.6171552
-0.53024244 -0.3507962 -0.7734278 0.6073647 0.6561886 1.0290309 -0.51391876 0.6311961
0.2411192 -0.46156934 0.6536858 -0.26145008 0.81387675 -0.8124434 -0.65280163 0.24907565
0.13407922 -0.56922084 0.58608574 -0.7262126 -0.40822378 -0.42599174 0.25957042 -0.9135677
-0.6490573 -0.87123126 -0.16971064 0.34591404 0.8954142 -0.8756373 -0.23186304 0.6413735
-0.8242298 0.38595438 0.4828625 -0.7178277 0.83838654 0.026056664 0.21913841 0.111223765
0.18730333 0.40412658 0.0530196 -0.45187542 -0.33870378 -0.4514898 -0.62428015 0.8015524
0.4754474 -0.6653297 0.26881015 -0.39332202 0.8941717 0.27050012 0.3209654 0.8192345
0.57454306 0.16890302 0.33467323 0.36007512 0.5985324
00000000: 655b 3dbf f127 f53e 6ebc 99be b2c2 ebbe
00000010: 2dc7 543f 44e6 50bf e99a 7a3d 73bd aebe
00000020: b5fe 23bf ec36 8a3e 00e9 15bf e43f 67be
00000030: 71e5 3b3b 6f23 0bbf 377e c1be 2e4a d7bd
00000040: d3dc 783f c2d5 223f d4d4 b73d 7e7b a23d
00000050: 7253 153f fec2 a03e ab7f d73e 6541 9fbe
00000060: fe56 723f e05c dabe ea6c 4bbf 1331 42bf
00000070: 1439 d1be 571d a5bc f69b 91be 2dfa 203e
00000080: 82d1 1fbe bed3 543f 9b09 30be b16f 373c
00000090: 4b05 f4be 4c61 29bf 8167 b1be f089 9b3d
000000a0: 7030 4bbf 811e 223f 71a0 1e3f bbc7 5bbf
000000b0: e4df 5dbe ca88 db3e 9ecb ae3d 572b 6dbf
000000c0: f1e5 31be f085 17bf e92b 2d3f f33d 67bf
000000d0: b82e a83e 06f9 d33e 7639 fabd aeb3 8cbe
000000e0: 0f1a 7d3f 3815 dabe cc7c 44bf 982e 16bf
000000f0: 5a06 14bf 9207 6d3f 1d4b 64bf 5904 ac3e
00000100: b1c9 ccbc 4725 783e a90a 87be 3ed9 be3e
00000110: c651 363f 2ba5 2cbe f8bf 82bf e2fd 1dbf
00000120: f8bd 07bf 8f9b b3be 5dff 45bf 417c 1b3f
00000130: fafb 273f 49b7 833f 2e90 03bf 1196 213f
00000140: f4e7 763e d152 ecbe f457 273f c9dc 85be
00000150: 3a5a 503f 4afc 4fbf 021e 27bf b00d 7f3e
00000160: 104c 093e 75b8 11bf b709 163f 12e9 39bf
00000170: b502 d1be 971b dabe 6ae6 843e 93df 69bf
00000180: 9f28 26bf 0309 5fbf a0c8 2dbe a51b b13e
00000190: dd39 653f c429 60bf 816d 6dbe 0e31 243f
000001a0: b900 53bf d09b c53e c139 f73e 8ec3 37bf
000001b0: 80a0 563f c974 d53c d265 603e 49c9 e33d
000001c0: 72cc 3f3e aee9 ce3e 152b 593d 375c e7be
000001d0: 956a adbe ac29 e7be d3d0 1fbf 8a32 4d3f
000001e0: d76d f33e 0c53 2abf 7ca1 893e 8161 c9be
000001f0: 70e8 643f fe7e 8a3e 9455 a43e 5ab9 513f
00000200: 4115 133f eaf4 2c3e 4a5a ab3e c45b b83e
00000210: 6b39 193f

decoder.dec1.bias f4 [19]
0.046545576 0.02496476 -0.10161795 -0.033808343 -0.07604209 -0.009723378 -0.027328422 -0.07771126
-0.048549313 0.0574212 0.006236769 -0.271042 0.012351375 0.10030402 -0.022582484 0.024913328
-0.0035293605 -0.0029088974 0.04415373
00000000: 93a6 3e3d e582 cc3c 121d d0bd 9e7a 0abd
00000010: f5bb 9bbd ce4e 1fbc dbdf dfbc 1527 9fbd
00000020: a5db 46bd 7e32 6b3d cf5d cc3b 04c6 8abe
00000030: 6c5d 4a3c 326c cd3d e7fe b8bc 0917 cc3c
00000040: d84c 67bb 33a3 3ebb 8bda 343d

decoder.dec2.weight f4 [39, 19]
0.46414965 0.4998129 0.44512248 -0.42886826 -0.15333414 0.07171962 -0.34385958 0.2665551
0.5890937 0.40736255 0.662141 -0.1526375 -0.46113625 -0.4332699 -0.41551575 0.30572623
-0.025929963 0.38294488 0.42645097 -0.32703784 0.40365624 0.14831541 0.58680314 -0.3182651
-0.17429891 -0.55987394 -0.41281208 -0.8408359 0.23846215 -0.34770724 0.2130282 -0.2662326
-0.3695706 0.3944077 0.15873504 -0.22731143 -0.2737796 0.4686754 -0.28139934 -0.3584662
-0.025500838 -0.15131694 0.18668032 0.2837165 -0.3231599 -0.116741695 -0.25689554 -0.3361536
-0.40035984 -0.13762546 0.25801814 -0.66927594 0.24524114 0.139622 0.16258954 0.29906648
-0.05932318 0.16472793 0.3575288 0.26338542 0.3571029 -0.6236487 0.271991 0.43125328
-0.15955237 -0.065511875 -0.45596728 -0.030462518 -0.16778703 -0.09589152 -0.46650332 0.19650246
-0.46960348 0.27167502 -0.49415606 0.086518936 0.030162571 -0.60623366 0.042209737 -0.116941735
0.6756291 0.10080809 0.14642027 0.22918339 0.4661822 -0.35328567 0.191687 0.4253083
0.053548627 0.012465361 0.32600254 -0.55003124 0.059977323 -0.22813827 0.2271397 0.03569696
0.08459937 0.8061529 -0.00905182 -0.35410914 0.10560155 -0.4065609 0.31291705 -0.012412014
0.2297872 -0.3153647 -0.4978657 0.2451742 0.18842126 -0.27649358 0.76717746 -0.42495966
-0.46313944 -0.05431412 -0.7618584 0.32174283 -0.18131463 -0.40841088 -0.101181954 -0.58292615
0.09045854 -0.05931388 0.24723887 -0.33583385 0.51457864 0.29171133 0.21273303 0.4574604
0.15380165 -0.47219545 0.031363506 -0.040946875 0.20875557 0.63577485 -0.53648263 0.041726477
-0.29275733 -0.25832373 -0.26559132 0.042772032 -0.060565125 0.40333953 0.14421998 -0.55210495
0.1233752 0.29912117 0.21185328 -0.15398382 0.16615987 0.31080875 -0.07301013 0.035849262
-0.45482862 0.36053678 -0.2468536 -0.5306871 -0.2940598 0.49432862 -0.18650436 -0.15199134
-0.14774978 0.24958415 0.48053175 -0.4055967 0.20736824 0.11436963 -0.39688036 -0.49999934
0.21712959 0.051938023 -0.043236256 -0.02252477 0.23980883 -0.4140611 0.32018566 -0.704926
-0.13459124 0.06359948 -0.0822239 -0.06590338 0.28985763 -0.2684061 0.17927091 0.57365406
0.113973945 -0.49861813 0.11952152 0.3953397 0.31104532 -0.24539028 0.031462137 -0.16128264
-0.14866033 0.28206456 -0.30176434 -0.41294506 -0.18006466 0.3830135 -0.25746986 -0.5579001
-0.44733113 0.032155722 0.13405281 -0.37071234 -0.2987948 -0.24026969 -0.07997041 -0.34121996
0.3147493 0.40893498 -0.53798926 -0.4466797 -0.2746125 -0.16606207 -0.018429419 0.3752559
-0.55533457 0.12594174 -0.20354812 -0.5893359 -0.47824958 0.49340403 -0.35908392 0.17264213
-0.45707467 0.4506591 -0.38770863 0.45560697 -0.5469332 -0.23320222 0.20205928 -0.4941069
-0.35198578 0.5082321 0.055688668 0.3917813 -0.3177407 0.29591286 -0.11535645 -0.34717005
0.042102255 -0.014983729 -0.47660285 -1.1831506 0.46157074 0.08899799 0.028740278 0.50444037
0.0358183 -0.03945741 -0.47301802 0.041998815 0.7057279 -0.050334886 -0.16529724 0.016909895
00000000: 06a5 ed3e 7ae7 ff3e 18e7 e33e 9f94 dbbe
00000010: a003 1dbe bce1 923d 5d0e b0be e979 883e
00000020: d8ce 163f d391 d03e 1382 293f 014d 1cbe
00000030: 0d1a ecbe 8dd5 ddbe 7bbe d4be 2688 9c3e
00000040: 136b d4bc 5a11 c43e c857 da3e 8171 a7be
00000050: 08ac ce3e ffdf 173e bb38 163f a5f3 a2be
00000060: 6a7b 32be e653 0fbf 1b5c d3be 0641 57bf
00000070: 6c2f 743e af06 b2be 1124 5a3e a44f 88be
00000080: 5c38 bdbe ceef c93e 708b 223e 54c4 68be
00000090: d72c 8cbe 39f6 ef3e 9313 90be e288 b7be
000000a0: 22e7 d0bc d4f2 1abe 2029 3f3e 4a43 913e
000000b0: 3775 a5be 4516 efbd d087 83be 531c acbe
000000c0: f7fb ccbe b0ed 0cbe f41a 843e ab55 2bbf
000000d0: 7e20 7b3e 12f9 0e3e df7d 263e 3e1f 993e
000000e0: ddfc 72bd 70ae 283e 040e b73e 74da 863e
000000f0: 31d6 b63e 71a7 1fbf 6842 8b3e 3bcd dc3e
00000100: b261 23be 172b 86bd 8b74 e9be 888c f9bc
00000110: 5dd0 2bbe c662 c4bd 86d9 eebe f137 493e
00000120: de6f f0be fd18 8b3e 0602 fdbe d730 b13d
00000130: 7f17 f73c 2132 1bbf 1ee4 2c3d 267f efbd
00000140: 07f6 2c3f 7974 ce3d 32ef 153e 0daf 6a3e
00000150: 6faf ee3e dce1 b4be 9949 443e 02c2 d93e
00000160: ce55 5b3d 833b 4c3c cee9 a63e d9ce 0cbf
00000170: c8aa 753d 149d 69be 4f97 683e fa36 123d
00000180: 6f42 ad3d 0960 4e3f 164e 14bc cb4d b5be
00000190: a045 d83d c028 d0be aa36 a03e c35b 4bbc
000001a0: 564d 6b3e 7b77 a1be 41e8 febe f20e 7b3e
000001b0: 81f1 403e 9190 8dbe be65 443f 5094 d9be
000001c0: 9d20 edbe 7c78 5ebd 2709 43bf 7abb a43e
000001d0: 8baa 39be 3b1b d1be 7c38 cfbd a63a 15bf
000001e0: 5442 b93d 1cf3 72bd 302c 7d3e 6af2 abbe
000001f0: 6dbb 033f 305b 953e b0d6 593e 4038 ea3e
00000200: 2e7e 1d3e 9ac3 f1be 0577 003d e9b7 27bd
00000210: 05c4 553e 24c2 223f ed56 09bf 62e9 2a3d
00000220: 4ae4 95be 0243 84be 96fb 87be ba31 2f3d
00000230: 2313 78bd 8582 ce3e 67ae 133e c056 0dbf
00000240: 23ac fc3d 6926 993e 11f0 583e efad 1dbe
00000250: d025 2a3e 5322 9f3e 5686 95bd add6 123d
00000260: 4cdf e8be 4798 b83e 31c7 7cbe 1cdb 07bf
00000270: 028f 96be a418 fd3e 00fb 3ebe 9ea3 1bbe
00000280: b84b 17be fd92 7f3e 4208 f63e 5faa cfbe
00000290: 5758 543e a03a ea3d e733 cbbe eaff ffbe
000002a0: 3857 5e3e f7bc 543d 8018 31bd de85 b8bc
000002b0: 7290 753e d1ff d3be 60ef a33e 0876 34bf
000002c0: 49d2 09be 7240 823d 0165 a8bd 5af8 86bd
000002d0: 3868 943e 866c 89be cb92 373e feda 123f
000002e0: 2c6b e93d e04a ffbe b3c7 f43d f769 ca3e
000002f0: 5541 9f3e 9747 7bbe 71de 003d 4727 25be
00000300: 6a3a 18be c46a 903e db80 9abe 896d d3be
00000310: df62 38be 581a c43e 17d3 83be 8ad2 0ebf
00000320: 9608 e5be b8b5 033d 2445 093e 02ce bdbe
00000330: a2fb 98be 4209 76be 87c7 a3bd 62b4 aebe
00000340: d226 a13e ed5f d13e aab9 09bf 34b3 e4be
00000350: 029a 8cbe 2d0c 2abe 4bf9 96bc 8b21 c03e
00000360: 682a 0ebf dff6 003e eb6e 50be b8de 16bf
00000370: 21dd f4be 749f fc3e d9d9 b7be 19c9 303e
00000380: b105 eabe cabc e63e bf81 c6be 5145 e93e
00000390: d003 0cbf 90cc 6ebe a1e8 4e3e 94fb fcbe
000003a0: 7b37 b4be 801b 023f cd19 643d 8f97 c83e
000003b0: e9ae a2be e481 973e 0140 ecbd 46c0 b1be
000003c0: 6a73 2c3d 517e 75bc 4a05 f4be 7b71 97bf
000003d0: 0053 ec3e 9444 b63d bb70 eb3c 0123 013f
000003e0: 36b6 123d 189e 21bd 6b2f f2be f306 2c3d
000003f0: 95aa 343f f42b 4ebd ae43 29be 9f86 8a3c

decoder.dec2.bias f4 [39]
-0.019564794 0.0159949 -0.02333203 -0.032012504 -0.007848808 0.11587706 -0.018816669 -0.0056384094
-0.014904252 -0.028314754 -0.04406456 0.017430276 -0.039403662 -0.037425503 0.02739355 -0.01916131
0.0058560153 0.041347653 -0.06979549 -0.09120873 -0.05016519 -0.026024433 0.007837995 -0.07956042
-0.0635804 -0.053582955 -0.07689088 -0.028449012 0.027945291 0.024344774 0.028324096 -0.0037191764
-0.009570851 -0.02447399 -0.05557049 -0.011693757 -0.022421528 0.06954209 0.02718526
00000000: 5946 a0bc bd07 833c d022 bfbc 8b1f 03bd
00000010: 4998 00bc f450 ed3d 6a25 9abc 68c2 b8bb
00000020: f730 74bc 58f4 e7bc 0a7d 34bd f0c9 8e3c
00000030: bc65 21bd 7c4b 19bd 7068 e03c 2ef8 9cbc
00000040: d1e3 bf3b 285c 293d f0f0 8ebd a5cb babd
00000050: 047a 4dbd 3131 d5bc ef6a 003c 93f0 a2bd
00000060: 7136 82bd cd79 5bbd f778 9dbd e70d e9bc
00000070: 86ed e43c b16e c73c ef07 e83c 6dbd 73bb
00000080: 0fcf 1cbc ad7d c8bc e29d 63bd 2c97 3fbc
00000090: 5aad b7bc 156c 8e3d 9fb3 de3c

decoder.dec3.weight f4 [58, 39]
-0.2618196 0.043492865 -0.25941116 0.36804283 0.010912985 0.22681376 -0.3528952 -0.36390784
-0.33846456 0.35232854 -0.32394943 -0.2876683 -0.137183 0.3408321 -0.26920775 -0.23983184
-0.22272484 0.07479269 0.5054027 0.2520617 0.27031177 -0.1474956 0.80854994 0.7737405
-0.35025248 -0.061200954 -0.35871238 0.029954046 0.28174636 -0.16822511 0.1016538 0.17958279
-0.25627935 -0.20663442 0.22627425 -0.14593261 0.2963225 -0.29558474 0.291877 -0.4129311
0.19942947 -0.31400806 -0.38827205 0.039579324 0.17828195 0.14601734 -0.21333481 -0.07795681
-0.12685432 0.40137556 -0.11279123 0.38690785 -0.45942596 -0.08801512 0.10826561 -0.27487665
-0.2105265 0.05116843 -0.020908974 0.3010238 0.28347608 -0.0649762 0.27621147 0.11549762
0.10470368 0.017876578 0.08916557 0.12486618 0.36066955 -0.23399878 0.36017945 -0.43079787
0.6613134 0.25751835 0.28871948 0.034038596 -0.5057664 0.3382409 -0.044756196 0.2349929
0.16265619 -0.16035731 -0.2453387 0.05332366 -0.1371172 0.3987745 0.10317293 -0.08615229
-0.32279524 0.3947591 -0.10261901 -0.02216566 0.06210461 0.33641 -0.38373604 0.8614363
0.44631985 0.023639048 0.11518458 -0.102312975 0.3868351 -0.86970305 -0.11797333 0.35616952
0.18189323 0.17457594 0.31008068 0.014447244 -0.3774922 0.16898425 -0.34331068 -0.3523232
0.19741155 -0.054751944 0.3280944 0.15683612 -0.24945103 -0.26936704 -0.30579975 -0.24299145
0.0023047284 -0.15149376 0.107467614 -0.09970992 -0.3173828 0.07965981 0.028435063 0.0050826455
-0.387475 -0.16241467 0.003860818 0.33774713 -0.15329547 0.110800326 0.11887092 0.19514082
0.2644194 0.2788761 -0.18234225 0.38358122 -0.17306367 -0.0038000518 0.17352328 0.3310368
-0.07400791 0.10412532 0.17645916 0.09875694 -0.2562141 0.11767521 0.24608251 0.36267588
-0.17301041 0.18369184 0.6429174 -0.0019295458 -0.025858834 -0.89594734 0.58435285 0.3362347
-0.13092682 -0.16460778 0.088108405 -0.2907093 0.1444153 -0.12462702 -0.058835905 0.09181689
0.23443635 0.609341 0.25074825 0.3145594 0.07209868 0.6754206 1.068267 0.3450915
0.43544865 0.50494367 1.4380445 0.7173685 0.041518133 -0.06067355 0.12439413 0.4471199
-0.038989477 0.44765896 0.13398923 0.3421122 -0.072614476 -0.074116446 -0.13110685 0.22746259
-0.42650944 -0.4165343 -0.26062503 -0.01607227 -0.18612239 -0.28136984 0.22455113 0.34101433
-0.2294904 -0.41395992 -0.21794102 -0.27129394 -0.28307673 -0.014501103 -0.014783739 -0.05959142
-0.8247646 0.224316 0.054698113 0.24476007 -0.4923375 -0.094235465 -0.20993203 0.026432082
0.520154 -0.54921454 -0.592896 0.091487065 0.18115482 0.034232657 0.09097869 -0.3608099
0.29304364 -0.25320628 0.098402366 -0.24761476 -0.8614766 -0.24686821 -0.13205028 0.07325532
0.3303699 0.3036162 -0.17508835 -0.28004953 0.07605659 -0.113248296 0.026742475 0.07210519
-0.07845143 -0.17634921 0.16071455 -0.3749706 -0.12498996 0.03151382 -0.18087101 -0.35036904
0.113764085 -0.20611387 0.13743018 -0.33598423 -0.28576806 0.105032824 -0.33053094 -0.13532828
00000000: 380d 86be 9325 323d 8ad1 84be 1c70 bc3e
00000010: 60cc 323c de41 683e aeae b4be 2152 babe
00000020: 3a4b adbe 6864 b43e b3dc a5be 4249 93be
00000030: b379 0cbe 8c81 ae3e 99d5 89be 7a96 75be
00000040: fb11 64be e92c 993d 1262 013f 3b0e 813e
00000050: 4e66 8a3e 1609 17be 21fd 4e3f db13 463f
00000060: 4b54 b3be daad 7abd 26a9 b7be 3062 f53c
00000070: 0f41 903e 3443 2cbe de2f d03d 8de4 373e
00000080: 0c37 83be f997 53be 70b4 673e 5c6f 15be
00000090: 95b7 973e e256 97be e770 953e b56b d3be
000000a0: 3d37 4c3e aac5 a0be 98cb c6be ee1d 223d
000000b0: 8b8f 363e 9285 153e 7174 5abe d2a7 9fbd
000000c0: 19e6 01be 1981 cd3e 17ff e6bd c918 c63e
000000d0: e139 ebbe 4541 b4bd 5cba dd3d a2bc 8cbe
000000e0: 4294 57be fd95 513d 4c49 abbc cb1f 9a3e
000000f0: c723 913e 3e12 85bd 976b 8d3e 048a ec3d
00000100: e26e d63d e771 923c 709c b63d d7b9 ff3d
00000110: aea9 b83e 609d 6fbe 7169 b83e 8a91 dcbe
00000120: d64b 293f 72d9 833e 0ad3 933e 0e6c 0b3d
00000130: e879 01bf e92d ad3e 4652 37bd fba1 703e
00000140: 588f 263e b534 24be 113a 7bbe e969 5a3d
00000150: 7468 0cbe 2c2c cc3e 544c d33d 9d70 b0bd
00000160: 6b45 a5be dd1d ca3e ea29 d2bd c294 b5bc
00000170: 6761 7e3d ee3d ac3e 0d79 c4be 1787 5c3f
00000180: 0984 e43e ada6 c13c e5e5 eb3d 7789 d1bd
00000190: 400f c63e dca4 5ebf 009c f1bd da5b b63e
000001a0: 3842 3a3e 09c4 323e e5c2 9e3e 22b4 6c3c
000001b0: a846 c1be 350a 2d3e 6bc6 afbe b563 b4be
000001c0: 4126 4a3e 9343 60bd fdfb a73e a699 203e
000001d0: 1770 7fbe 7aea 89be c991 9cbe c0d2 78be
000001e0: ed0a 173b 2e21 1bbe fb17 dc3d b734 ccbd
000001f0: 0080 a2be af24 a33d a6f0 e83c 528c a63b
00000200: 2063 c6be 0850 26be c705 7d3b 31ed ac3e
00000210: 7df9 1cbe 48eb e23d 9972 f33d ffd2 473e
00000220: fb61 873e d9c8 8e3e edb7 3abe c264 c43e
00000230: 9a37 31be 4a0a 79bb 16b0 313e a87d a93e
00000240: 7691 97bd a83f d53d b6b1 343e 1441 ca3d
00000250: 7f2e 83be b3ff f03d 0efd 7b3e a7b0 b93e
00000260: a429 31be b719 3c3e 3c96 243f d0e8 fcba
00000270: e8d5 d3bc ce5c 65bf 2698 153f f426 ac3e
00000280: ae11 06be f18e 28be 2e72 b43d d9d7 94be
00000290: 9be1 133e 733c ffbd ebfd 70bd 7e0a bc3d
000002a0: 1510 703e c6fd 1b3f 1362 803e ee0d a13e
000002b0: 79a8 933d 5de8 2c3f f9bc 883f d5af b03e
000002c0: 20f3 de3e fd43 013f d811 b83f 76a5 373f
000002d0: eb0e 2a3d d484 78bd 5ac2 fe3d e6ec e43e
000002e0: 6eb3 1fbd 8e33 e53e 7934 093e 5529 af3e
000002f0: e6b6 94bd 5dca 97bd e040 06be f4eb 683e
00000300: 725f dabe fc43 d5be a570 85be fea9 83bc
00000310: de96 3ebe b50f 90be bbf0 653e 6e99 ae3e
00000320: 88ff 6abe 8ef2 d3be ee2b 5fbe 0ae7 8abe
00000330: 6fef 90be 0996 6dbc 7f37 72bc 2216 74bd
00000340: c623 53bf 18b3 653e 210b 603d 62a2 7a3e
00000350: a913 fcbe 86fe c0bd 6cf8 56be 1888 d83c
00000360: d028 053f 5399 0cbf 08c8 17bf 925d bb3d
00000370: a680 393e 8b37 0c3d 0953 ba3d 13bc b8be
00000380: d109 963e 41a4 81be 2e87 c93d b98e 7dbe
00000390: bb89 5cbf 05cb 7cbe 3038 07be e306 963d
000003a0: 3e26 a93e 9573 9b3e 5c4a 33be a762 8fbe
000003b0: 8fc3 9b3d b9ee e7bd 0913 db3c e3ab 933d
000003c0: 25ab a0bd e394 34be 5b92 243e 25fc bfbe
000003d0: bcfa ffbd a314 013d 4036 39be 9263 b3be
000003e0: 25fd e83d 840f 53be 7fba 0c3e 2006 acbe
000003f0: 3150 92be 731b d73d 5a3b a9be 7f93 0abe

decoder.dec3.bias f4 [58]
-0.0011580847 0.026605546 0.0012538428 -0.0104778 -0.025398165 -0.032069683 0.0 0.03896888
-0.00947896 -0.039676104 -0.034674745 0.006140394 -0.1338783 -0.010323321 0.059225637 0.0014781813
-0.0042629796 0.017142534 -0.079109795 0.009222375 0.0027125862 -0.002983932 -0.022044111 0.00043047997
0.03569565 0.016513474 0.018428626 -0.019342693 -0.021510951 -0.017037503 -0.018248998 0.026680697
-0.055715498 0.0046937303 -0.008401635 -0.032469098 -0.07143481 0.011038803 0.005829039 -0.018161962
-0.035387583 -0.04606156 -0.043193605 -0.020382626 0.059741784 -0.017340824 -0.01331424 0.06904078
0.055499353 -0.015721748 -0.050358035 0.06282515 -0.05273151 0.11549485 -0.0062139276 -0.020877723
0.017237507 -0.013677777
00000000: e0ca 97ba e0f3 d93c fc57 a43a 14ab 2bbc
00000010: d00f d0bc 805b 03bd 0000 0000 d59d 1f3d
00000020: a44d 1bbc 6983 22bd 1b07 0ebd 5c35 c93b
00000030: 6517 09be 2623 29bc 9596 723d 89bf c13a
00000040: 77b0 8bbb 806e 8c3c 5104 a2bd 7219 173c
00000050: a5c5 313b 128e 43bb da95 b4bc 0bb2 e139
00000060: 9a35 123d 4447 873c a1f7 963c 9174 9ebc
00000070: bc37 b0bc 3c92 8bbc ec7e 95bc 7a91 da3c
00000080: ef35 64bd ddcd 993b 03a7 09bc 51fe 04bd
00000090: 6a4c 92bd 18dc 343c 8601 bf3b 65c8 94bc
000000a0: 92f2 10bd 0cab 3cbd c7eb 30bd 77f9 a6bc
000000b0: cdb3 743d 580e 8ebc f823 5abc 4165 8d3d
000000c0: 4a53 633d e5ca 80bc 3a44 4ebd 79aa 803d
000000d0: fffc 57bd 9088 ec3d 349e cbbb c207 abbc
000000e0: ac35 8d3c c118 60bc

decoder.dec4.weight f4 [78, 58]
0.07664332 -0.039940383 0.06130925 -0.00860273 -0.7621008 -0.28939924 -0.2895802 0.09796058
-0.36825055 0.2877541 1.0227785 -0.6223153 -0.376686 -0.16274582 0.10300213 -0.1874425
-0.22302927 -0.18143798 0.14027712 0.074647374 -0.04152712 0.050269708 0.13593115 -0.5085899
0.06297107 0.05582075 -0.57854795 0.028852863 0.005378036 -0.17133765 0.012295539 -0.6840155
0.4338731 -0.11546293 0.20732799 0.18585758 0.51107794 -0.45756456 0.2838676 -0.16968259
1.0873235 0.87240064 -0.20924942 -0.40342715 0.16194609 0.027692076 0.060847126 -0.6425772
0.50145125 0.027208969 0.23826884 0.39475784 -0.08890976 -0.33661363 -0.090514116 -0.77104706
-0.14973895 -0.311896 0.16879135 -0.056770273 -0.16432776 0.2849993 0.20919862 -0.042783383
0.09582024 0.32901946 0.1651258 -0.3499512 0.3560921 -0.6678059 0.19162294 -0.08492948
-0.61945635 1.6465329 -0.05787208 0.34166446 0.32828546 -0.20707993 0.22649278 0.21788271
0.36491108 -0.25642613 0.28535876 -0.42878366 0.4562809 -0.23327532 0.22859311 0.044930723
-0.27866992 -0.15321085 -0.18190193 -0.023122229 0.16785651 -0.13292328 -0.16898613 0.54527295
-0.014702595 0.29932475 0.09332617 1.5693678 -0.17960826 -0.9667915 -0.22705996 -0.051797956
-0.21803914 -0.6389205 1.2431793 0.02225919 0.03493842 0.009078325 0.41619602 -0.18165073
0.16484298 -0.5822338 -0.05307882 1.6081415 0.27989134 -0.062802024 -0.4142698 0.19359873
1.3122879 -0.3325775 -0.29240322 -0.3605893 0.34532216 0.031736337 -0.14944747 0.40909132
-0.34872767 -0.26809144 0.320257 -0.016652223 -0.10846519 0.3836683 -0.29593292 -0.33743194
-0.31053606 -0.11645178 -0.4417276 0.49866086 -0.44613835 0.38032302 0.31438196 -0.10787699
0.17832848 -0.25954634 0.03222657 0.16858429 0.20284513 0.040668175 -0.09447479 0.053745028
-0.14991063 0.11344571 0.15661323 0.3334621 0.7043587 0.12591071 -0.3568041 -0.33325502
0.05596024 0.1416669 0.21992041 0.04283851 0.5301368 0.3440268 0.023800425 0.13386601
-0.29114524 0.32025373 -0.28563786 0.05181398 -0.22681114 -0.10529722 0.038318574 -0.105576366
0.1448513 -0.225341 0.03711668 0.15118386 0.2330438 -0.14184147 -0.09064464 0.051587302
0.07026751 -0.03698799 -0.08223054 -0.023045423 0.103281684 -0.00460567 0.22056663 0.06719014
0.06578171 0.011471131 -0.09041716 -0.033553693 0.17933327 -0.012755454 -0.012045258 -0.06418642
-0.10056541 0.27782825 -0.019365704 0.051060546 -0.111507386 0.0845341 0.033034936 0.28544775
-0.17756987 0.14580916 0.27346063 0.12625152 0.066793844 0.10573447 -0.17968632 -0.11197437
0.022990318 0.067606196 0.15901513 0.11325634 -0.06869161 -0.03248468 -0.14925715 0.23030849
-0.040748566 0.09099918 -0.2687087 0.021443466 -0.023830878 -0.047182553 -0.0048820437 0.1197271
0.15202318 0.14709999 0.15387927 0.27317274 0.09056382 -0.064980224 0.22105734 -0.22929282
-0.24887942 0.02813727 0.12401989 -0.20393065 0.2940338 -0.07264537 -0.1408657 0.037929818
-0.32129762 0.012629599 0.11798141 -0.058492642 0.13222384 0.04439129 -0.08020035 0.011710233
00000000: 2cf7 9c3d 8798 23bd 681f 7b3d 77f2 0cbc
00000010: 0a19 43bf 232c 94be db43 94be 8e9f c83d
00000020: 568b bcbe 8154 933e 68ea 823f 0e50 1fbf
00000030: fddc c0be d7a6 26be c8f2 d23d edf0 3fbe
00000040: c961 64be e1ca 39be cea4 0f3e b9e0 983d
00000050: 5718 2abd 9ce7 4d3d 8931 0b3e f332 02bf
00000060: faf6 803d 4ca4 643d b81b 14bf d75c ec3c
00000070: 3c3a b03b 2373 2fbe 3a73 493c a41b 2fbf
00000080: 9d24 de3e d477 ecbd ca4d 543e 7351 3e3e
00000090: 01d6 023f e745 eabe 1857 913e 46c1 2dbe
000000a0: 6b2d 8b3f a655 5f3f 7b45 56be 018e cebe
000000b0: 32d5 253e 7eda e23c d63a 793d f07f 24bf
000000c0: 1c5f 003f 58e5 de3c bffc 733e b31d ca3e
000000d0: 5216 b6bd 9f58 acbe 775f b9bd 5763 45bf
000000e0: 2b55 19be d5b0 9fbe a4d7 2c3e f287 68bd
000000f0: 8945 28be 6eeb 913e 2a38 563e a13d 2fbd
00000100: 673d c43d 3d75 a83e bd16 293e ce2c b3be
00000110: b451 b63e 54f5 2abf ce38 443e 82ef adbd
00000120: b194 1ebf 97c1 d23f 460b 6dbd a5ee ae3e
00000130: 0815 a83e c30c 54be b9ed 673e a51c 5f3e
00000140: a0d5 ba3e 494a 83be 8b1a 923e 8889 dbbe
00000150: a69d e93e badf 6ebe 5014 6a3e 4709 383d
00000160: d3ad 8ebe 4ee3 1cbe 8044 3abe d46a bdbc
00000170: 94e2 2b3e 0a1d 08be b30a 2dbe 0297 0b3f
00000180: 27e3 70bc 1841 993e cb21 bf3d 0be1 c83f
00000190: 3aeb 37be a67f 77bf 6882 68be 182a 54bd
000001a0: a745 5fbe 4b90 23bf 8020 9f3f e858 b63c
000001b0: 971b 0f3d 41bd 143c a517 d53e a602 3abe
000001c0: 99cc 283e 460d 15bf 2d69 59bd 95d7 cd3f
000001d0: eb4d 8f3e 599e 80bd 2c1b d4be bf3e 463e
000001e0: 0df9 a73f 9947 aabe e0b5 95be 299f b8be
000001f0: 11ce b03e f6fd 013d c208 19be 6b74 d13e
00000200: 6f8c b2be 4843 89be baf8 a33e 3e6a 88bc
00000210: ff22 debd 2c70 c43e 8584 97be e1c3 acbe
00000220: 95fe 9ebe 457e eebd 1f2a e2be 7a50 ff3e
00000230: 3f6c e4be b3b9 c23e acf6 a03e 9dee dcbd
00000240: be9b 363e 42e3 84be 0200 043d 5ca1 2c3e
00000250: a2b6 4f3e ac93 263d 007c c1bd bf23 5c3d
00000260: 2c82 19be 3956 e83d 385f 203e 8bbb aa3e
00000270: da50 343f bdee 003e 07af b6be 67a0 aabe
00000280: 9136 653d 2111 113e d132 613e 6f77 2f3d
00000290: 0cb7 073f 4824 b03e 1cf9 c23c 2c14 093e
000002a0: fd10 95be 4cf8 a33e 203f 92be e53a 543d
000002b0: 2e41 68be 12a6 d7bd f0f3 1c3d 6c38 d8bd
000002c0: e653 143e cbbf 66be a907 183d f1cf 1a3e
000002d0: 09a3 6e3e e43e 11be e6a3 b9bd 354d 533d
000002e0: 6ae8 8f3d b880 17bd 7c68 a8bd c1c9 bcbc
000002f0: 5985 d33d 29eb 96bb 38dc 613e fc9a 893d
00000300: 90b8 863d 69f1 3b3c a22c b9bd 996f 09bd
00000310: 24a3 373e 40fc 50bc 7959 45bc 2b74 83bd
00000320: 3df5 cdbd 813f 8e3e d3a4 9ebc dd24 513d
00000330: fc5d e4bd 3720 ad3d a44f 073d 3526 923e
00000340: e0d4 35be ff4e 153e 0803 8c3e 1448 013e
00000350: 36cb 883d 508b d83d b1ff 37be d252 e5bd
00000360: 3156 bc3c 1e75 8a3d ddd4 223e f1f2 e73d
00000370: 30ae 8cbd a80e 05bd ded6 18be fdd5 6b3e
00000380: f8e7 26bd c75d ba3d 3094 89be 35aa af3c
00000390: f938 c3bc 7e42 41bd 8df9 9fbb 7b33 f53d
000003a0: f7ab 1b3e 61a1 163e 8792 1d3e 4cdd 8b3e
000003b0: 8679 b93d 5a14 85bd db5c 623e bdcb 6abe
000003c0: 3fda 7ebe 2280 e63c 24fe fd3d 32d3 50be
000003d0: 998b 963e 19c7 94bd 193f 10be 4c5c 1b3d
000003e0: 1f81 a4be 61ec 4e3c 3da0 f13d fb95 6fbd
000003f0: b065 073e a4d3 353d 1540 a4bd 47dc 3f3c
