IDS_TA/initial_Models/CADE-m5.0-l0.1.pth (torch, 67890 bytes, 16 tensors)

encoder.enc1.weight f4 [58, 78]
0	0x40024540	2.0354767
1	0x3c917e85	0.017760525
2	0xbc920c3c	-0.0178281
3	0xbea77c48	-0.32712007
4	0x3e90dea0	0.2829485
5	0x3cad7027	0.021171642
6	0xbe28654c	-0.16444892
7	0xbebdcaba	-0.3706873
8	0xbc873113	-0.016502893
9	0xbd3e2383	-0.046420585
10	0x3e9b16b2	0.30290753
11	0x3e650af5	0.22367461
12	0x3e9726a1	0.2952166
13	0xbe304f79	-0.17217816
14	0x3a8a72fd	0.0010562834
15	0x3d3fa2c5	0.04678609
16	0xbe8d407d	-0.27588263
17	0x3ecd1685	0.40056244
18	0x3e62c10f	0.22143959
19	0xbe86acb1	-0.26303628
20	0x3e2d44f0	0.16920829
21	0xbed94c55	-0.4244105
22	0x3e823827	0.25433466
23	0x3e3e3a10	0.18576837
24	0xbd2c2f71	-0.04203743
25	0xbe4c69f1	-0.19962288
26	0xbecf2c51	-0.40463498
27	0x3f3281a5	0.6972907
28	0x3da86d80	0.082240105
29	0x3e199f4f	0.15002178
30	0x3d025472	0.031818815
31	0x3e841e2b	0.25804266
32	0x3f0b5f4a	0.54442275
33	0x3d9d944b	0.076943
34	0x3e813cd3	0.25241718
35	0x3e0a22e0	0.13489866
36	0xbe2e963e	-0.170495
37	0x3e1f1bc6	0.15537938
38	0x3dbddc50	0.09270537
39	0x3dedf127	0.11618262
40	0x3e9bd430	0.30435324
41	0x3e877782	0.26458365
42	0xbd13738a	-0.03599886
43	0x3d5b1222	0.05348409
44	0x3dbb19e8	0.091358006
45	0x3e9f7f0d	0.3115162
46	0x3b49e6a0	0.003080763
47	0x3ddac44e	0.106819734
48	0xbcd45eb9	-0.025924074
49	0x3e3b6f42	0.1830416
50	0xbe146df1	-0.14495064
51	0xbcf3a623	-0.029742306
52	0xbeba05c9	-0.3633254
53	0xbe28a5bf	-0.16469477
54	0x3d78af6a	0.060714163
55	0x3d375875	0.044762094
56	0x3ec0c67f	0.3765144
57	0x3f42ef1a	0.7614609
58	0xbde8da14	-0.1136972
59	0x3e0ba4ed	0.13637133
60	0x3dce4cd4	0.100732476
61	0x3e08f1ea	0.13373533
62	0x3e6274b6	0.22114834
63	0xbcb6e45c	-0.022325687
64	0x3d0569f4	0.032571748
65	0x3e16185e	0.14657733
66	0x3e802a95	0.25032488
67	0x3dadfae2	0.08495118
68	0x3e28c7aa	0.16482416
69	0x3e2f8121	0.17139103
70	0x3c95c74b	0.018283507
71	0x3def8bf1	0.116966136
72	0x3ec20105	0.37891403
73	0x3e96e851	0.29474118
74	0xbd91fbcb	-0.07128104
75	0x3e72166f	0.2364137
76	0x3eba331f	0.36367127
77	0x3cfdd865	0.030986974
78	0x3f61a7fc	0.8814695
79	0x3e9ef057	0.3104274
80	0x3c8aa9bc	0.016926639
81	0xbe5b3665	-0.21407469
82	0xbd9c4a8f	-0.076314084
83	0x3dae73a4	0.085181504
84	0x3ea14da8	0.3150456
85	0xbd8ad58f	-0.06779014
86	0xbe1a1593	-0.15047292
87	0x3e0838b3	0.13302879
88	0x3e91102f	0.2833266
89	0xbef7ecce	-0.48422855
90	0xbd9e0d46	-0.077173755
91	0xbd47f21c	-0.048814878
92	0x3d41c328	0.047305256
93	0x3d5f87be	0.054572813
94	0x3c984a17	0.018590016
95	0x3e81f529	0.25382355
96	0x3e5f0141	0.21777822
97	0x3de59455	0.11209933
98	0xbf215806	-0.6302494
99	0xbe085115	-0.1331218
100	0x3f264619	0.6495071
101	0x3eab515d	0.33460513
102	0xbdf6e147	-0.12054687
103	0x3d4beee6	0.04978838
104	0xbe93189c	-0.28729713
105	0x3ea9bb28	0.331506
106	0x3ea3789a	0.3192795
107	0x3deebcfd	0.116571404
108	0x3cf240b4	0.029571868
109	0xbeb13b5b	-0.34615597
110	0x3cbb5566	0.02286787
111	0x3e6a1db3	0.22862892
112	0x3e15733e	0.14594743
113	0x3d6215a2	0.055196412
114	0x3d89f80c	0.06736764
115	0x3ea249ec	0.31697023
116	0xbe1df7b9	-0.1542653
117	0xbe23b5ee	-0.1598737
118	0xbda49777	-0.08036702
119	0x3da7ca35	0.08192865
120	0xbdf49cde	-0.119439825
121	0xbe2e8db2	-0.1704624
122	0x3f0d0905	0.5509189
123	0x3e922306	0.28542346
124	0xbe586445	-0.21132
125	0x3c6a4838	0.014299445
126	0xbe136ddb	-0.14397375
127	0x3d9df3fb	0.07712551
128	0x3ed083c8	0.4072554
129	0x3ebdc5ac	0.37064874
130	0xbd834472	-0.06409539
131	0x3d9c0531	0.07618178
132	0x3d498369	0.049197588
133	0x3db62328	0.08893424
134	0x3ee93d32	0.455545
135	0x3f4e6651	0.8062487
136	0x3e941f8e	0.28930324
137	0xbe282fb0	-0.16424441
138	0x3e8e5628	0.27800107
139	0x3d7ded9c	0.06199418
140	0xbed4b287	-0.41542456
141	0x3eac7173	0.33680305
142	0x3e29363c	0.16524595
143	0x3d5bc384	0.053653255
144	0xbe256856	-0.16153082
145	0xbbc025a8	-0.005863864
146	0x3e104b9c	0.14091343
147	0xbe699e23	-0.2281423
148	0x3d42bb4c	0.0475419
149	0xbdfc82bb	-0.12329622
150	0x3cc039aa	0.023464996
151	0x3e27a059	0.16369762
152	0xbe89f772	-0.26946598
153	0xbd814f96	-0.06314008
154	0xbe88151d	-0.26578608
155	0xbe521398	-0.20515287
156	0xbd1ff6eb	-0.03905384
157	0x3e1e4991	0.15457751
158	0xbe6e9f96	-0.23303065
159	0xbe7ab441	-0.24482824
160	0x3e1ad4b5	0.15120204
161	0x3dc8b7ba	0.09800668
162	0x3e95cf60	0.29259777
163	0xbe117f49	-0.14208712
164	0x3ea8f0c0	0.32996178
165	0xbe120ad1	-0.14261939
166	0x3ded5c11	0.11589826
167	0x3e25f198	0.16205442
168	0xbe3cc684	-0.18435103
169	0xbce28b57	-0.027654333
170	0x3c81b39e	0.015832718
171	0xbd5209f9	-0.051279042
172	0xbe20f899	-0.15719832
173	0x3cd2ec93	0.025747573
174	0xbdd980b4	-0.10620251
175	0x3e0adc3b	0.13560574
176	0xbbfd0499	-0.0077214953
177	0x3e4a4335	0.197522
178	0xbe1222a6	-0.1427103
179	0x3ea6eb0c	0.32601202
180	0x3e0ac31e	0.13550994
181	0xbd9bcf9f	-0.0760796
182	0x3e4a135e	0.1973395
183	0xbe4c2392	-0.19935444
184	0x3d23ba0d	0.039972354
185	0x3d3a1c98	0.045437425
186	0x3cb5af34	0.02217827
187	0xbdcd2f88	-0.100188315
188	0xbdfaf7c5	-0.122542895
189	0xbe4a9810	-0.1978457
190	0xbe4ebeff	-0.20190047
191	0x3d805c49	0.06267602
192	0x3cec2c28	0.02882965
193	0x3a11b702	0.00055585813
194	0x3dea57d5	0.11442534
195	0xbe502dad	-0.20329924
196	0xbdde3977	-0.10850804
197	0x3e767941	0.24069692
198	0xbdca34fe	-0.09873389
199	0x3dc86887	0.09785562
200	0xbd65b693	-0.05608232
201	0x3cf462b7	0.029832227
202	0x3e8415db	0.25797924
203	0xbd17a802	-0.03702546
204	0xbd1e6403	-0.038669597
205	0x3d70d465	0.058796305
206	0x3d6c41a1	0.057679776
207	0xbdfe6f6f	-0.12423598
208	0x3dac5b1e	0.08415817
209	0x3d4a6123	0.049409043
210	0xbb0386ed	-0.0020069436
211	0xbdcd0fc5	-0.100127734
212	0xbe020777	-0.1269816
213	0x3e8b3c5f	0.27194497
214	0xbd46d66c	-0.048544332
215	0xbe026c89	-0.12736715
216	0x3d2a173d	0.041526068
217	0x3c2df71f	0.010618
218	0x3e1f2dab	0.15544765
219	0xbc072010	-0.00824739
220	0xbe85ff43	-0.26171312
221	0x3ca81404	0.020517357
222	0xbe5bc4c5	-0.2146178
223	0x3dc21500	0.09476662
224	0xbe3acd11	-0.18242289
225	0x3d9b12e3	0.07571962
226	0x3e77d29e	0.24201438
227	0xbc7308e6	-0.0148336645
228	0x3d2404c3	0.040043604
229	0x3dd084d5	0.10181586
230	0x3b4de53d	0.0031417154
231	0xbd5ed75b	-0.054404598
232	0x3e16c6f2	0.14724329
233	0x3e6f3433	0.23359756
234	0x3e7cc6e9	0.24685253
235	0xbddebd29	-0.10875923
236	0xbe566dcb	-0.2094032
237	0xbd86df79	-0.06585593
238	0xbd8ffcf7	-0.07030671
239	0x3e0ff8c4	0.1405974
240	0x3e18b36a	0.14912191
241	0xbd74cc53	-0.05976517
242	0x3e929de1	0.28636077
243	0xbd81c354	-0.06336084
244	0xbcd5de1c	-0.026106887
245	0xbe6435d7	-0.22286163
246	0xbccfc141	-0.025360705
247	0xbcf811fb	-0.030282011
248	0x3e64da96	0.22349009
249	0xbe541258	-0.20710123
250	0x3e0160b5	0.12634547
251	0x3e535461	0.20637657
252	0xbd4255f3	-0.04744525
253	0xbec66209	-0.3874667
254	0xbdc5150a	-0.096231535
255	0xbed69488	-0.41910195

encoder.enc1.bias f4 [58]
0	0xbc92b892	-0.017910276
1	0x3dc6d4db	0.09708568
2	0x3c03876f	0.008027895
3	0x3d29c535	0.041447837
4	0xbd109043	-0.03529383
5	0x3d31a364	0.043368712
6	0xbc906ded	-0.017630542
7	0xbc476046	-0.0121689495
8	0xbd168470	-0.036747396
9	0x3d0d6338	0.03451845
10	0x3cff4116	0.031158965
11	0x3dbe6bea	0.09297927
12	0x39a80595	0.00032047616
13	0x3c8f98c3	0.017528897
14	0xbcce38c3	-0.02517355
15	0x3d875103	0.06607249
16	0x3cc2f31a	0.02379756
17	0x3daa7e39	0.08324856
18	0xbc4b88e8	-0.012422778
19	0xbd8fb519	-0.070169635
20	0x3d0a641d	0.03378688
21	0x3d2697ab	0.040671986
22	0xbd51d99c	-0.05123292
23	0xb96c616a	-0.00022543003
24	0x3cbdc7ad	0.023166502
25	0x3d7983d3	0.060916733
26	0xbd97fab7	-0.07420867
27	0xbce4f011	-0.027946504
28	0x3e2d456e	0.16921017
29	0xbd692fec	-0.056930467
30	0x3bb8e6e3	0.005642758
31	0x3caa187a	0.020763624
32	0x3e2f8b0c	0.17142886
33	0x3d33536b	0.043780725
34	0x3b1a816b	0.0023575674
35	0xbd08e41d	-0.03342067
36	0x3d0466d4	0.032324627
37	0x3b1e191e	0.0024123858
38	0x3da8169e	0.08207439
39	0xbd0c5c08	-0.034267455
40	0xbd858ea5	-0.06521348
41	0x3cd3690e	0.02580693
42	0x3d2ac715	0.041693766
43	0x3c12a675	0.008950819
44	0x3bbc5c57	0.0057483125
45	0x3d3f011f	0.04663193
46	0xbd6212e6	-0.055193804
47	0x3c817d6e	0.01580688
48	0xbc4922c8	-0.012276359
49	0x3c111ecb	0.008857439
50	0xbcac621a	-0.021042872
51	0x3d21f213	0.0395375
52	0xbcd39fe4	-0.025833078
53	0x3c0bfff1	0.008544908
54	0xbbdd22c6	-0.00674853
55	0x3d2340b6	0.039856635
56	0x3d272fb5	0.04081698
57	0x3ce18fdb	0.027534416

encoder.enc2.weight f4 [39, 58]
0	0x3e1509f8	0.14554584
1	0x3e32a938	0.17447364
2	0x3e526905	0.20547874
3	0xbe9eefd0	-0.31042337
4	0x3f0f6eae	0.5602826
5	0x3dc67112	0.09689535
6	0x3ed028d0	0.40656137
7	0xbe40338a	-0.1876966
8	0xbedf27ea	-0.4358514
9	0x3dd9c15e	0.10632585
10	0x3e123b99	0.14280547
11	0xbe29805c	-0.16552871
12	0x3d286d86	0.041120075
13	0x3eb3dfc1	0.35131648
14	0xbbb87c3f	-0.0056300457
15	0xbd349e99	-0.044096563
16	0x3cffa7d1	0.03120795
17	0xbc9f0176	-0.019409876
18	0xbdbb458d	-0.09144125
19	0x3cc95b0a	0.024579544
20	0xbe2e266f	-0.17006849
21	0x3e12b01f	0.14324997
22	0x3e7673d3	0.24067621
23	0xbbc26190	-0.0059320405
24	0xbe4cd77b	-0.20004074
25	0x3e66bb16	0.22532305
26	0x3c310478	0.010804288
27	0x3d5b8dbe	0.053601973
28	0xbe1dd3ae	-0.1541278
29	0xbda29e23	-0.079403184
30	0x3e18c2b1	0.14918019
31	0x3eac95fa	0.33708173
32	0x3e50d50f	0.20393775
33	0xbe2ec5aa	-0.1706759
34	0xbe544aa6	-0.20731601
35	0x3df266ec	0.11836037
36	0xbe018625	-0.12648828
37	0xbd72df7b	-0.05929516
38	0x3ed17113	0.4090658
39	0x3c50b7b8	0.012739114
40	0xbe642b2b	-0.22282092
41	0x3d9cbe1e	0.076534495
42	0xbec7cfe8	-0.39025807
43	0xbe4097b1	-0.18807866
44	0x3e02393a	0.12717143
45	0xbec75ad7	-0.38936493
46	0x3dde14b5	0.10843793
47	0x3e44926b	0.19196479
48	0xbe6f261f	-0.23354386
49	0x3eb1fc31	0.3476272
50	0xbba5511a	-0.0050450685
51	0xbdc42933	-0.095781706
52	0x3ed5f78f	0.41790435
53	0x3e208181	0.15674402
54	0xbe4b0b96	-0.19828638
55	0x3ce77a6a	0.028256614
56	0xbde2934d	-0.11063252
57	0x3de651d4	0.11246076
58	0x3ea3b6c1	0.31975368
59	0x3e24f00b	0.16107194
60	0xbe89e553	-0.26932773
61	0xbe98d3f0	-0.29849195
62	0xbd9e4aa8	-0.07729083
63	0xbebcd95f	-0.3688459
64	0x3e631276	0.22175011
65	0xbe92bb19	-0.2865837
66	0xbe6e648b	-0.23280542
67	0xbd6273c8	-0.0552862
68	0x3c7eed0e	0.015559448
69	0x3c0a9094	0.008457322
70	0x3dcef10a	0.10104568
71	0x3e82e32f	0.25563952
72	0x3e2031ca	0.15643993
73	0x3e4def8a	0.20110908
74	0x3e9f855b	0.3115643
75	0xbd3ab5dd	-0.045583595
76	0x3e2ea76d	0.17056055
77	0x3e72e74d	0.23721047
78	0x3e8f6ce5	0.28012767
79	0xb93d9896	-0.00018081287
80	0xbdc5f202	-0.096653
81	0xbdfe1a6e	-0.12407385
82	0x3d8f29d3	0.06990399
83	0x3c259ff4	0.010108937
84	0x3d710e2a	0.0588514
85	0x3dee625d	0.11639855
86	0x3ea54711	0.32280782
87	0x3e21c406	0.15797433
88	0x3daf4d1d	0.0855963
89	0xbe3963bf	-0.18104456
90	0x3ed5c389	0.41750744
91	0x3db7a70f	0.08967411
92	0xbcb64ddb	-0.022253921
93	0x3e938ebd	0.28819838
94	0x3de9cb1f	0.114156954
95	0xbe0f0f0e	-0.13970587
96	0x3efa9dc6	0.48948497
97	0x3e00adb0	0.12566257
98	0x3e831ce1	0.2560797
99	0xbe882afe	-0.265953
100	0xbea3a461	-0.3196135
101	0xbdb8800b	-0.09008797
102	0xbcb204f5	-0.02173088
103	0x3e549c1f	0.2076268
104	0x3cfd5cfc	0.030928127
105	0x3df53425	0.119728364
106	0x3e896fc0	0.2684307
107	0x3e9a00bd	0.30078688
108	0xbe118860	-0.14212179
109	0x3e3f6d74	0.18694097
110	0x3ce30a92	0.027715001
111	0xbdd2a18a	-0.102847174
112	0xbe4224f2	-0.18959406
113	0xbe4b3640	-0.19844913
114	0xbe11a693	-0.142237
115	0x3e9cfb58	0.3066051
116	0xbe218af8	-0.15775669
117	0x3d8c4100	0.06848335
118	0xbbdc3d6a	-0.0067211883
119	0x3e8c8924	0.2744838
120	0x3e24570c	0.16048831
121	0xbe875f14	-0.26439726
122	0x3e58a062	0.21154931
123	0x3d93f28c	0.072239965
124	0x3d2b9c89	0.04189733
125	0x3e93cae0	0.2886572
126	0x3eb3a33d	0.35085478
127	0xbed30cca	-0.41220695
128	0x3e303929	0.17209305
129	0xbe1d5530	-0.15364528
130	0xbdccef6b	-0.10006603
131	0x3eaef8a6	0.3417408
132	0xbe0bd974	-0.1365717
133	0x3e3769be	0.17911431
134	0x3eaeabc1	0.34115413
135	0x3d5ba798	0.053626627
136	0x3e9a60c3	0.30151948
137	0x3de00a5e	0.109394774
138	0xbe35a4d5	-0.1773866
139	0x3e5974f9	0.21236028
140	0x3db9f8dc	0.09080669
141	0xbe935831	-0.28778222
142	0x3f24fb74	0.64446187
143	0xbe8a7a2f	-0.27046344
144	0xbce3da55	-0.02781407
145	0x3e1cf290	0.15326905
146	0xbd92e6a0	-0.071728945
147	0x3e24708a	0.16058555
148	0xbe98cdae	-0.2984442
149	0xbe607920	-0.21921206
150	0xbe42bdaf	-0.19017671
151	0xbc8b1c1e	-0.01698118
152	0x3ea45b3c	0.32100856
153	0x3d8d8633	0.06910362
154	0xbd905716	-0.0704786
155	0x3de20680	0.11036396
156	0xbe16b1dd	-0.14716287
157	0xbd0c8b96	-0.034312807
158	0x3e90a727	0.28252527
159	0x3e86c900	0.26325226
160	0x3d0e21a3	0.034700047
161	0x3ead1570	0.33805418
162	0x3e3aef74	0.18255407
163	0x3e5f619a	0.21814576
164	0x3e995e46	0.29954737
165	0xbe865535	-0.26236883
166	0x3e3c6c0c	0.18400592
167	0xbe5c8f39	-0.2153901
168	0xbe432217	-0.19055973
169	0xbcb5cac2	-0.022191409
170	0x3dcce568	0.10004693
171	0xbd7d29ae	-0.061807327
172	0xbcf6f774	-0.030147292
173	0x3e87f55b	0.2655438
174	0xbe284a6c	-0.1643464
175	0xbd8d185a	-0.0688941
176	0x3ed34ae1	0.41268066
177	0xbe87c843	-0.26519975
178	0xbdf0456d	-0.11731992
179	0xbe22d4da	-0.15901509
180	0xbe9c62fc	-0.3054427
181	0xbd88ed44	-0.0668588
182	0xbf27b687	-0.6551289
183	0x3e0920e2	0.1339145
184	0xbe294eca	-0.16533962
185	0x3e5182bf	0.20460032
186	0x3e4bad6c	0.19890374
187	0xbc720d80	-0.014773726
188	0x3ec706a7	0.38872263
189	0xbe1c78cc	-0.15280455
190	0x3e8e1ad4	0.27754843
191	0xbdec499e	-0.11537479
192	0x3d17a61d	0.037023652
193	0x3ec70753	0.38872775
194	0x3e6426d0	0.22280431
195	0xbbdddc35	-0.0067706355
196	0x3eaff6e6	0.34368056
197	0xbe80aeb9	-0.25133303
198	0x3e9b4db7	0.3033273
199	0x3ea71ff1	0.32641557
200	0xbe05741d	-0.13032575
201	0x3cca7a5e	0.024716552
202	0xbe6f78ed	-0.23385973
203	0xbabfde63	-0.001463842
204	0x3d72e2e8	0.059298426
205	0x3d6f8030	0.05847186
206	0x3ed79cf3	0.4211193
207	0x3e981265	0.29701534
208	0x3ea94171	0.3305774
209	0x3dcda5d0	0.10041392
210	0xbe552896	-0.20816264
211	0xbe2ec06a	-0.17065588
212	0x3e93cbac	0.28866327
213	0x3e043ed5	0.12914594
214	0xbe623e50	-0.22094083
215	0x3c7fbc89	0.015608915
216	0xbdfac387	-0.12244325
217	0x3ce6d492	0.028177533
218	0xbe3fa376	-0.18714699
219	0x3d4f2983	0.050576698
220	0x3e977cea	0.2958749
221	0xbe453130	-0.19257045
222	0x3d83bea4	0.06432846
223	0x3e2e523d	0.17023559
224	0x3e96b025	0.29431263
225	0x3e515ff8	0.20446765
226	0xbe3f02d0	-0.18653417
227	0x3e5b2ce3	0.21403842
228	0xbee77e73	-0.4521366
229	0x3c61ee86	0.013789779
230	0xbebe6c6c	-0.37192094
231	0x3c357230	0.011074588
232	0x3d107684	0.035269275
233	0x3e77c367	0.24195634
234	0x3da9fb62	0.082999006
235	0xbe641e68	-0.22277224
236	0x3e642455	0.22279485
237	0xbe9e9a88	-0.30977273
238	0x3e083407	0.13301097
239	0xbc09eaed	-0.008417827
240	0x3e7eaac7	0.24869834
241	0x3daec6d9	0.08534021
242	0xbe685ae0	-0.22690916
243	0x3e8c6540	0.27420998
244	0xbe41da3e	-0.18930909
245	0x3ec16e5a	0.37779504
246	0xbe795392	-0.24348286
247	0x3e5550e5	0.2083164
248	0x3e525390	0.20539689
249	0xbe5f923d	-0.21833129
250	0xbe845ce4	-0.2585212
251	0x3f1c2a8a	0.6100241
252	0xbe91ccbb	-0.2847651
253	0xbe92e1fc	-0.28688037
254	0x3ee1d07c	0.44104373
255	0xbd93411d	-0.07190154

encoder.enc2.bias f4 [39]
0	0x3be30689	0.0069282693
1	0xbb319771	-0.0027098323
2	0x3cfdd588	0.030985609
3	0x3cf2b398	0.029626653
4	0x3cb14c99	0.02164297
5	0xbb97118b	-0.0046102456
6	0x3b04b8e1	0.0020251798
7	0x3d242364	0.040072814
8	0x3d2fb96c	0.04290144
9	0x3d17a829	0.037025604
10	0xbc316b48	-0.0108288005
11	0x3d27d43f	0.040973898
12	0x3d107c09	0.03527454
13	0x3e080e69	0.13286747
14	0x3d4628c8	0.048378736
15	0x3c8e2ba1	0.017354788
16	0x3cc1011e	0.023560103
17	0x3ae39f89	0.0017366271
18	0x3dc8ac08	0.09798437
19	0x3dd427ff	0.10359191
20	0xbb87c2ca	-0.0041430937
21	0x3c90810f	0.017639665
22	0x3d04d5e3	0.03243054
23	0x3bacbd95	0.0052716234
24	0x3d33359c	0.043752298
25	0xbd0b77b4	-0.034049705
26	0x3b317c0b	0.0027081992
27	0x3d5556f9	0.052084897
28	0x3ce4cabf	0.027928708
29	0x3c847611	0.01616958
30	0x3da161cf	0.07879984
31	0xbaaa5990	-0.0012996662
32	0x3d2eac25	0.04264464
33	0x3c9dc691	0.019259723
34	0x3c79e159	0.015251481
35	0x3c55ba0f	0.013044848
36	0x3c58678a	0.013208279
37	0x3db74a14	0.08949676
38	0x3d26d763	0.040732753

encoder.enc3.weight f4 [19, 39]
0	0x3e923ff0	0.28564405
1	0xbe1b9832	-0.15194777
2	0xbd9bff30	-0.076170325
3	0x3dc5ed52	0.09664406
4	0x3ebd4f79	0.36974695
5	0x3eb6b1e1	0.35682586
6	0x3e6158a8	0.22006476
7	0x3e9a41ec	0.3012842
8	0xbd88f21b	-0.06686803
9	0x3e9e58a2	0.30926996
10	0xbe8ff235	-0.28114477
11	0x3bcd09d1	0.0062572737
12	0xbe62613b	-0.22107403
13	0xbdfee76a	-0.124464825
14	0x3ea7ff25	0.32811847
15	0xbdffa337	-0.12482303
16	0xbe25a606	-0.16176614
17	0xbefb4db8	-0.49082732
18	0xbd05013e	-0.032471888
19	0xbe1ede15	-0.15514405
20	0x3dc70582	0.097178474
21	0x3d1a1882	0.03762103
22	0x3e318cc7	0.17338859
23	0xbede7da0	-0.4345522
24	0xbe289a2c	-0.16465062
25	0xbd386522	-0.045018323
26	0xbdaa9b65	-0.083304204
27	0x3e8905b8	0.26762176
28	0xc0084846	-2.1294112
29	0xbdbbbcc6	-0.09166865
30	0x3dda8028	0.10668975
31	0xbd10ad32	-0.035321422
32	0x3df65489	0.120278426
33	0xbf14d318	-0.58134604
34	0x3d3712b0	0.044695556
35	0xbecea08c	-0.40356863
36	0x3ef1763a	0.47160512
37	0x3d9564db	0.07294627
38	0xbfd57591	-1.6676503
39	0xbe77a0eb	-0.24182479
40	0x3d8eb9e8	0.069690526
41	0xbe00b0cb	-0.12567441
42	0x3d49aa6a	0.049234785
43	0xbe009d70	-0.12560058
44	0xbe11863e	-0.14211366
45	0x3e6be3d0	0.23036122
46	0x3d9781eb	0.07397827
47	0xbaf2081a	-0.0018465549
48	0x3e4bc2f3	0.19898586
49	0xbe2a36c3	-0.16622452
50	0x3e0e0050	0.13867307
51	0x3e2b18cf	0.16708682
52	0x3df6580e	0.12028514
53	0x3dc8739d	0.097876765
54	0xbd9880c5	-0.07446436
55	0x3e20728c	0.15668696
56	0xbee59db7	-0.4484689
57	0x3ecde3eb	0.4021295
58	0xbc5ed722	-0.013601096
59	0xbddecea1	-0.10879255
60	0x3e684883	0.22683911
61	0xbdc7b66a	-0.097515896
62	0xbcd5ff21	-0.026122632
63	0xbc2cb8d0	-0.01054211
64	0xbd3f66f7	-0.046729054
65	0x3dba4116	0.090944454
66	0xbe90d2e3	-0.28285894
67	0xbf86d43e	-1.0533521
68	0x3e89d860	0.26922894
69	0x3ec5d8e3	0.38642034
70	0x3e3189da	0.17337742
71	0x3e520663	0.20510249
72	0xbead7eb7	-0.33885738
73	0xbc594000	-0.013259888
74	0xbe45ccdc	-0.19316429
75	0x3c351cd4	0.011054236
76	0x3ceb2380	0.028703451
77	0x3e28a899	0.16470565
78	0xbe8b5401	-0.27212527
79	0x3ea0ee82	0.31431967
80	0xbdfd922b	-0.12381395
81	0x3e3ccff3	0.18438701
82	0xbd00024f	-0.0312522
83	0x3e9c954e	0.3058266
84	0xbed85dd9	-0.422591
85	0xbe7f4783	-0.24929623
86	0xbe60a326	-0.21937236
87	0x3e8bba92	0.2729078
88	0xbe3cba26	-0.18430385
89	0xbec1bdff	-0.37840268
90	0xbee8ae9f	-0.45445725
91	0x3e18284b	0.1485912
92	0xbeaa94bf	-0.3331661
93	0xbddc67d1	-0.10761989
94	0xbe152a10	-0.14566827
95	0xbdc270b3	-0.09494152
96	0x3e24a434	0.16078264
97	0xbeebdb5e	-0.460658
98	0x3eac1a33	0.33613738
99	0x3e31d893	0.17367773
100	0xbe97c051	-0.29638913
101	0xbe2c7455	-0.16841252
102	0xbd3f9ab7	-0.046778407
103	0xbead5c78	-0.3385961
104	0x3de0f290	0.10983765
105	0x3e56c34a	0.20972934
106	0x3e2b08a5	0.16702516
107	0x3d4c2888	0.04984334
108	0x3ccc7b66	0.024961185
109	0x3e9897b0	0.29803228
110	0xbebee180	-0.37281418
111	0xbd6c86f2	-0.05774588
112	0xbeb21541	-0.3478184
113	0xbc87763a	-0.016535867
114	0x3e8616a4	0.26189148
115	0xbe997e83	-0.29979333
116	0x3dbb4720	0.091444254
117	0xbfffd88c	-1.998796
118	0x3dd16cf7	0.102258615
119	0x3e6235d2	0.22090843
120	0xbf03a53f	-0.5142402
121	0xbf8e600e	-1.1123064
122	0xbecf1123	-0.40442762
123	0xbe4b973a	-0.19881907
124	0x3f3e6553	0.7437336
125	0x3e1bc430	0.15211558
126	0x3e319eb5	0.17345698
127	0xbb72ea9a	-0.0037066103
128	0xbe3229ec	-0.17398804
129	0xbfa2898a	-1.2698224
130	0xc00348ec	-2.0513258
131	0xbef92ef1	-0.48668626
132	0x3e0e5cc2	0.13902572
133	0xbe9ced88	-0.30649972
134	0xbf23f212	-0.64041245
135	0xbfc87b77	-1.5662678
136	0xbfa041b1	-1.2520047
137	0xbe383379	-0.17988385
138	0x3db0fcf8	0.08642
139	0x3ed03e20	0.40672398
140	0xbfb706c8	-1.4298944
141	0xbe8b5bda	-0.27218515
142	0xbdd7d84f	-0.105393045
143	0x3e7864bf	0.24257182
144	0x3ed459ea	0.4147485
145	0x3fc975a4	1.5739026
146	0x3deec65b	0.11658927
147	0xbf4116c1	-0.75425345
148	0x3e9b1bfa	0.30294782
149	0xbe9687c9	-0.2940047
150	0xbf9482e8	-1.160245
151	0x3fb66ca9	1.425191
152	0xbf8a3b27	-1.0799302
153	0xbf06da71	-0.52677065
154	0xbf222292	-0.63334
155	0x3f2aebb2	0.6676589
156	0x3e94cd1c	0.29062736
157	0xbe3e9df1	-0.18614937
158	0xbe561b49	-0.20908846
159	0x3c428cf1	0.011874423
160	0x3b3d69dd	0.002890221
161	0xbe608183	-0.21924405
162	0x3e792ced	0.24333544
163	0xbe13cac8	-0.14432824
164	0x3c66c654	0.014085371
165	0xbe3ecf65	-0.18633802
166	0x3ea065c8	0.31327653
167	0x3e6a098a	0.22855201
168	0x3bd9c3f8	0.0066456757
169	0xbee4e042	-0.44702345
170	0xbecd4dea	-0.40098506
171	0x3e873108	0.26404595
172	0x3d560ead	0.05226009
173	0x3c9f8c74	0.019476153
174	0xbeaa5d10	-0.33274126
175	0xbdf6b00f	-0.12045299
176	0x3ea5b753	0.32366428
177	0xbc86d5d9	-0.016459392
178	0xbebc6971	-0.36799195
179	0x3d5ca854	0.053871468
180	0x3e0f33d4	0.13984615
181	0x3e6aa61b	0.22914927
182	0xbd9aa4b3	-0.07550945
183	0x3dd77346	0.105200335
184	0xbe6d7d41	-0.23192312
185	0x3cff7638	0.0311843
186	0xbee0e43c	-0.4392413
187	0x3ea8bb3b	0.32955346
188	0x3d9d4d95	0.07680813
189	0xbed1f2db	-0.41005597
190	0xbef7364e	-0.4828362
191	0x3e4e03a9	0.20118584
192	0x3ea991e8	0.3311913
193	0xba94d3cf	-0.0011354628
194	0x3e99a1c2	0.30006224
195	0xc01450cc	-2.3174314
196	0xbf156568	-0.5835786
197	0x3e48d769	0.19613422
198	0xbe0409cf	-0.12894367
199	0xbf2630a0	-0.64917946
200	0xbf5cf517	-0.8631148
201	0x3e22c7ad	0.15896483
202	0x3f43ff20	0.76561165
203	0xbd765177	-0.060136285
204	0x3e915a43	0.28389177
205	0x3d36727a	0.044542767
206	0xbdb8a966	-0.09016685
207	0xbf8cd19d	-1.1001469
208	0xbfeacf2c	-1.8344474
209	0xbf5d95af	-0.86556524
210	0x3ef96507	0.4870989
211	0xbd9cb302	-0.076513305
212	0xbc967017	-0.018363995
213	0xbf8e99da	-1.1140702
214	0xbfab7cae	-1.3397424
215	0x3ea1665d	0.3152341
216	0xbe8d0bed	-0.2754816
217	0x3ef0962d	0.46989575
218	0xbf96dd4a	-1.1786282
219	0xbe7cd855	-0.24691899
220	0xbe0a231f	-0.1348996
221	0xbe00d559	-0.12581386
222	0x3f096908	0.5367589
223	0x3f82d90f	1.0222491
224	0x3ccb3679	0.024806248
225	0xbf414bf1	-0.755065
226	0x3ead9fc4	0.33910954
227	0xbe701a86	-0.23447618
228	0xbf5fa5ca	-0.8736235
229	0x3f95252e	1.1651971
230	0xbfdea81a	-1.739505
231	0xbf53285c	-0.8248346
232	0xbf795eb9	-0.9741016
233	0x3f3095b1	0.6897841
234	0xbe5e620e	-0.21717092
235	0x3eb6f80e	0.35736126
236	0xbe982756	-0.2971751
237	0x3d82ac5e	0.06380533
238	0x3df379a7	0.11888438
239	0x3eb655c6	0.35612315
240	0x3e9a3ce4	0.3012458
241	0xbeb3fbfc	-0.35153186
242	0x3e818b0e	0.25301403
243	0xbdf17482	-0.117898
244	0xbe2968a7	-0.16543828
245	0xbcc44deb	-0.023962935
246	0xbd90bb84	-0.07067016
247	0x3e34e276	0.17664513
248	0x3e9bdb5e	0.304408
249	0xbe29b66d	-0.16573496
250	0x3bacbc4b	0.0052714697
251	0xbe61c131	-0.22046353
252	0xbe373e1c	-0.17894787
253	0x3e48c3fc	0.19606012
254	0x3e96cec9	0.2945464
255	0xbd076cef	-0.03306287

encoder.enc3.bias f4 [19]
0	0x3d910252	0.07080521
1	0x3d8811a2	0.06643988
2	0xbd28f1ba	-0.041246153
3	0x3d2e9f87	0.042632606
4	0xbd263684	-0.040579334
5	0x3d466d87	0.048444297
6	0xba82d438	-0.0009981459
7	0x3d9060bb	0.070497
8	0xbcb61db5	-0.022230962
9	0x3a670608	0.00088128494
10	0x3d22cd91	0.039746825
11	0xbb68a105	-0.0035496366
12	0x3c85d529	0.016336994
13	0x3d624bec	0.055248186
14	0x3d00bb06	0.03142836
15	0xbd2101d3	-0.03930838
16	0x3bc3f0ff	0.0059796567
17	0x3bc21a3f	0.005923539
18	0xbc2b8b75	-0.010470261

encoder.enc4.weight f4 [7, 19]
0	0x3ebceec5	0.36900917
1	0x3e3122ff	0.17298506
2	0xbdd520f0	-0.10406673
3	0xbf4a06e3	-0.7891676
4	0x3dfd76a4	0.123761445
5	0xbefeb234	-0.49745333
6	0xbf0dc1e4	-0.5537398
7	0xbe555dd2	-0.20836571
8	0x3e2ec635	0.17067797
9	0x3e4d4abe	0.20048043
10	0x3ec72c38	0.38900924
11	0x3ea89509	0.32926205
12	0x3e491b85	0.19639404
13	0x3f1321d7	0.5747351
14	0xbf37ae79	-0.717506
15	0xbd27d5ac	-0.040975258
16	0x3ddac6bb	0.10682436
17	0xbf01ee76	-0.5075449
18	0x3e9eb06e	0.3099398
19	0xbedb6744	-0.42852223
20	0xbebe0436	-0.37112588
21	0x3ec98e4e	0.39366382
22	0x3f8c4e15	1.0961329
23	0xbebd38d0	-0.36957407
24	0x3f48ab31	0.7838622
25	0xbab9f56e	-0.0014187524
26	0xbf0d321a	-0.55154574
27	0x3f0553cb	0.5208098
28	0x3b548488	0.0032427628
29	0xbf0baf49	-0.5456434
30	0xbe331f10	-0.17492318
31	0xbe723cf1	-0.2365606
32	0x3def266c	0.1167725
33	0x3f602804	0.8756106
34	0x3eff0f54	0.49816382
35	0xbdd477d9	-0.103744216
36	0x3f1c6b43	0.6110117
37	0x3f077310	0.52909946
38	0xbefad15d	-0.48987857
39	0xbf107898	-0.5643401
40	0x3c804c60	0.015661418
41	0x3f7b7c6b	0.9823672
42	0xbed140a8	-0.4086964
43	0x3f7b44db	0.9815194
44	0xbd1c7614	-0.038198546
45	0xbee1eeb4	-0.4412743
46	0xbe138e03	-0.14409642
47	0xbea4d059	-0.32190207
48	0xbea42dda	-0.32066232
49	0xbea7ddee	-0.32786506
50	0x3dcaf8c3	0.09910729
51	0x3ca5a63e	0.020220872
52	0x3f847105	1.0346991
53	0x3eb928cf	0.36163947
54	0x3cdf3fe3	0.027252143
55	0x3f65302c	0.8952663
56	0xbd0654e1	-0.03279579
57	0x3df6d637	0.12052577
58	0x3ef968b0	0.48712683
59	0x3d16f772	0.036857076
60	0xbddb2595	-0.107005276
61	0xbbb07da6	-0.005386072
62	0xbf0e2639	-0.55527073
63	0xbb52119f	-0.003205396
64	0x3ea24ce4	0.31699288
65	0xbd58554f	-0.05281573
66	0x3eadd212	0.33949333
67	0xbe742ab6	-0.23844418
68	0xbd4aa968	-0.049477965
69	0xbe8a403b	-0.2700213
70	0xbe4b1212	-0.19831112
71	0xbeb5afe4	-0.35485756
72	0x3cb2efa9	0.021842794
73	0xbd6853e8	-0.056720644
74	0xbf2be6a5	-0.6714881
75	0xbf01923b	-0.50613755
76	0xbe7237ae	-0.23654053
77	0xbf14665a	-0.57968676
78	0x3efc6814	0.49298155
79	0x3efb98ac	0.49139917
80	0xbe720a6f	-0.23636793
81	0x3eda3a55	0.4262263
82	0xbe82d734	-0.25554812
83	0xbeb2ab97	-0.34896538
84	0xbe0b66a6	-0.13613376
85	0x3d8ddfb7	0.06927436
86	0x3eca0927	0.39460108
87	0x3def0b9c	0.11672136
88	0xbdadcc8d	-0.084862806
89	0xbebad2d1	-0.36488965
90	0xbb4f1521	-0.0031598287
91	0xbc8e12f3	-0.01734302
92	0xbc36440e	-0.011124624
93	0xbe800848	-0.25006318
94	0x3f02c6df	0.51084703
95	0xbed80adc	-0.42195785
96	0xbe4ed2d4	-0.20197612
97	0x3e17d58e	0.14827558
98	0x3f2a720c	0.6658027
99	0xbee27cb7	-0.44235775
100	0x3ec4b764	0.38421166
101	0xbc3e587b	-0.011617775
102	0xbda3375e	-0.07969545
103	0x3c27a8b8	0.010233097
104	0xbe40a117	-0.18811451
105	0xbf072e81	-0.52805334
106	0xbea044c3	-0.3130246
107	0x3e50e580	0.20400047
108	0xbe62e0b4	-0.2215603
109	0x3f00d3fd	0.5032347
110	0x3eb5ed33	0.3553253
111	0x3d83dc65	0.06438521
112	0x3dbf5ef6	0.09344284
113	0x3ec3b287	0.38222143
114	0xbed765ee	-0.42069954
115	0xbe160081	-0.1464863
116	0x3dd292d6	0.10281913
117	0x3f436954	0.7633259
118	0xbe910338	-0.28322768
119	0x3ed2d555	0.41178384
120	0x3e811409	0.25210598
121	0xbdbeae17	-0.09310549
122	0x3ed9c7df	0.42535302
123	0xbe9da76d	-0.30791798
124	0xbf12064d	-0.57040864
125	0x3c6708e3	0.01410124
126	0xbca14a7f	-0.019688843
127	0xbe319656	-0.17342505
128	0xbd98a848	-0.07453972
129	0x3ea1a0bc	0.31567943
130	0x3d49e591	0.049291197
131	0x3d025d72	0.031827398
132	0xbc8b4b80	-0.017003775

encoder.enc4.bias f4 [7]
0	0x3c0733c5	0.008252089
1	0xbbdb5a70	-0.0066941306
2	0x3c076560	0.008263916
3	0xbc616210	-0.01375629
4	0xbc6434b3	-0.01392858
5	0x3c55e332	0.013054656
6	0xbbc21a05	-0.005923512

decoder.dec1.weight f4 [19, 7]
0	0xbf3c0316	-0.7344221
1	0x3f1fbc3a	0.62396586
2	0x3e0b130f	0.13581489
3	0x3f55ba83	0.8348772
4	0xbf3fe13b	-0.7495305
5	0xbed731a0	-0.42030048
6	0xbf0904b4	-0.535228
7	0x3e80488c	0.2505535
8	0x3ec6a378	0.38796592
9	0xbf1cdb64	-0.61272264
10	0xbe23ccac	-0.15996045
11	0xbf1a1fa4	-0.6020453
12	0x3ef2307c	0.47302616
13	0x3f2afd37	0.66792625
14	0xbf1d172c	-0.6136348
15	0xbf37da18	-0.7181716
16	0x3f44810a	0.767594
17	0x3eb1a329	0.34694794
18	0x3e23f70b	0.16012208
19	0xbf2bc47a	-0.67096674
20	0x3ef85eeb	0.48509917
21	0xbc81daa6	-0.01585133
22	0x3e73c2c8	0.23804772
23	0xbf049530	-0.5179014
24	0xbe380bbb	-0.17973225
25	0x3f40aae8	0.7526078
26	0xbededc3b	-0.43527398
27	0xbf224103	-0.6338045
28	0x3e67ba1a	0.22629586
29	0xbe8d18f7	-0.2755811
30	0xbe2b0c91	-0.16704012
31	0xbf5c9ca4	-0.86176515
32	0x3f606ad0	0.8766298
33	0xbf060495	-0.5235074
34	0x3f5d1307	0.8635716
35	0x3e3619e4	0.17783314
36	0xbea03b4f	-0.3129525
37	0xbf259525	-0.646807
38	0x3e10f89f	0.14157341
39	0x3ec2f17f	0.38074872
40	0x3f272738	0.6529422
41	0xbd8cec45	-0.06881002
42	0x3f015da0	0.50533485
43	0x3daadbbc	0.08342692
44	0xbf1e5a2e	-0.61856353
45	0x3f15456f	0.5830907
46	0x3ee5981f	0.44842622
47	0x3ea20bf4	0.31649745
48	0x3f741330	0.9534178
49	0xbed3dfee	-0.41381782
50	0x3c329e6a	0.010902027
51	0xbeff1edd	-0.49828234
52	0x3f5e5ae9	0.8685747
53	0xbe07f8ad	-0.13278456
54	0xbe0b709a	-0.13617173
55	0x3f16b947	0.5887646
56	0xbd914350	-0.07092917
57	0x3f65459f	0.8955936
58	0xbf419aab	-0.7562663
59	0x3eb1917f	0.34681317
60	0xbc69bc05	-0.014266019
61	0xbe8317d8	-0.2560413
62	0x3f263a71	0.64932925
63	0xbe60c1d1	-0.21948935
64	0xbf4d1ff2	-0.8012687
65	0xbf0c74ec	-0.5486591
66	0xbf67dd8a	-0.90572417
67	0xbdba23b5	-0.09088842
68	0x3f6a021d	0.91409475
69	0xbd343f76	-0.044005834
70	0x3f3db902	0.74110425
71	0xbf4db35a	-0.80351794
72	0x3f804b0e	1.0022905
73	0x3f7beb20	0.9840565
74	0xbd93b553	-0.07212319
75	0xbf40e4dd	-0.7534922
76	0x3f07d368	0.53056955
77	0xbf43adf6	-0.7643732
78	0xbebbef74	-0.36706126
79	0x3efe9c1a	0.4972847
80	0xbedf78e7	-0.4364693
81	0x3f31c1a4	0.694361
82	0x3f053d6b	0.5204684
83	0x3dd490ee	0.10379206
84	0x3eefb07f	0.46814343
85	0xbf569e7e	-0.8383559
86	0x3defbefe	0.11706351
87	0xbf7c9650	-0.9866686
88	0x3ed27c2c	0.4111036
89	0x3d3c7201	0.04600716
90	0x3f0f4f13	0.5598003
91	0x3f469991	0.77578074
92	0x3f2739df	0.6532268
93	0xbf35dd51	-0.7104083
94	0x3f0c57e5	0.54821616
95	0xbe4969e2	-0.19669297
96	0x3f2abddb	0.66695946
97	0xbdb9b09c	-0.09066889
98	0x3efa7fd5	0.48925653
99	0x3f515996	0.8177732
100	0xbf26b7d2	-0.6512424
101	0xbe973d3c	-0.29538906
102	0xbdfb1d95	-0.12261502
103	0xbea7d8b1	-0.3278251
104	0x3ec3477b	0.38140473
105	0xbf311351	-0.691701
106	0xbf078aa5	-0.5294593
107	0xbf4bc959	-0.7960411
108	0x3f3b8d42	0.7326242
109	0x3ef742ad	0.48293057
110	0x3dbdf7e8	0.092758
111	0x3f2550cc	0.6457641
112	0xbef66e0a	-0.48130828
113	0xbe62b6a4	-0.22139984
114	0x3e454c1a	0.19267312
115	0x3f59b14f	0.85036176
116	0xbf36a88a	-0.7135092
117	0xbe17f853	-0.14840822
118	0x3cb499a3	0.022045916
119	0xbf6baba9	-0.9205881
120	0x3f5e832b	0.86918896
121	0xbf5162e6	-0.8179153
122	0x3f197486	0.59943426
123	0x3f35a22f	0.709506
124	0xbf27067e	-0.6524428
125	0xbe898f35	-0.2686707
126	0x3d6cc81d	0.05780803
127	0x3f18193b	0.594135
128	0xbf445374	-0.7668984
129	0xbe67aaec	-0.22623795
130	0xbe620fb4	-0.22076303
131	0x3c6b4d3a	0.014361674
132	0x3f376f52	0.71654236

decoder.dec1.bias f4 [19]
0	0x3c9996c3	0.018748647
1	0x3c2cdf3b	0.010551269
2	0xbde58a12	-0.112079754
3	0xbcdd68ea	-0.027027566
4	0xbc3de305	-0.01158977
5	0xbd441948	-0.047875673
6	0xbcfa4723	-0.030551499
7	0xbc3a9501	-0.011388064
8	0xbc155d5b	-0.009116496
9	0xbc0e4720	-0.00868395
10	0xbdbe5826	-0.09294157
11	0x3da8630a	0.08222015
12	0xbc4c7c8b	-0.012480865
13	0xbc52ba41	-0.012861789
14	0x3aa10792	0.0012285581
15	0xbdc4cee1	-0.096097715
16	0xbd4fec4c	-0.05076246
17	0x3d571bdd	0.052516807
18	0xbc19ada6	-0.00937978

decoder.dec2.weight f4 [39, 19]
0	0xbf0c06fb	-0.5469815
1	0x3e8cf338	0.2752931
2	0xbedf3de5	-0.4360191
3	0xbedd4115	-0.43213716
4	0xbe0d9e1f	-0.1382985
5	0x3d74e29a	0.059786417
6	0xbf00c848	-0.50305605
7	0x3ed3d23c	0.41371334
8	0xbe76c5c6	-0.24098882
9	0xbf012559	-0.50447613
10	0xbcd7c259	-0.02633779
11	0x3b2ae2cc	0.0026075123
12	0xbe149a38	-0.14511955
13	0xbeb02de6	-0.34410018
14	0xbea66066	-0.3249542
15	0x3e46db80	0.1941967
16	0x3f076600	0.52890015
17	0xbe9026af	-0.28154513
18	0xbd8e0c83	-0.0693598
19	0xbdee51f8	-0.11636728
20	0xbf0dc368	-0.5537629
21	0xbe79dfb1	-0.24401738
22	0x3ecdd393	0.4020048
23	0x3f040960	0.51576805
24	0xbe09b996	-0.13449702
25	0xbed1a889	-0.40948895
26	0xbf2faced	-0.6862324
27	0xbde80f34	-0.11331025
28	0x3ee4dac0	0.44698143
29	0x3e8d74e3	0.2762824
30	0xbdb44d8f	-0.08803856
31	0xbee70e79	-0.4512823
32	0x3f06495b	0.5245568
33	0xbe926b58	-0.28597522
34	0x3fba2e7a	1.4545434
35	0x3b300786	0.0026859953
36	0xbc96cab2	-0.0184072
37	0x3ef5d7f8	0.48016334
38	0x3d54b354	0.051928833
39	0x3ea84b3b	0.32869896
40	0x3ed3922f	0.41322467
41	0xbe4a2c36	-0.19743428
42	0x3e165f7d	0.14684863
43	0x3db085f1	0.08619297
44	0xbe6f3a0f	-0.23361991
45	0xbfdb686e	-1.7141244
46	0x3e90e866	0.28302306
47	0xbb5c4291	-0.0033609013
48	0xbd1bd63e	-0.038046114
49	0x3ef41098	0.4766891
50	0x3f016c4c	0.5055587
51	0x3e367240	0.1781702
52	0xbf087fa5	-0.5331977
53	0x3f628b2a	0.884936
54	0x3ea189d7	0.31550476
55	0xbf0a5d25	-0.5404838
56	0xbea77800	-0.3270874
57	0x3dba9b0f	0.09111606
58	0x3ecb3d1b	0.39695057
59	0x3e9483b1	0.29006723
60	0xbecfe447	-0.4060385
61	0x3e24773c	0.1606111
62	0xbeab5e77	-0.33470508
63	0xbe564e64	-0.20928341
64	0xbf0689df	-0.52554125
65	0x3ed23383	0.41054925
66	0x3e001b6e	0.12510464
67	0x3df72d63	0.12069204
68	0x3ed59599	0.41715696
69	0xbe0942c2	-0.13404372
70	0xbec6871d	-0.38774958
71	0xbf04884f	-0.5177049
72	0x3e2c8818	0.1684879
73	0xbe2a30cc	-0.16620177
74	0xbdb8a16d	-0.090151645
75	0x3e02087e	0.12698552
76	0x3e6cd672	0.2312868
77	0x3e0ec1bd	0.13941093
78	0x3ecaf972	0.39643437
79	0x3e5a7644	0.21334177
80	0xbe5b4384	-0.21412474
81	0xbeb76804	-0.35821545
82	0xbea49f4d	-0.32152787
83	0x3eab5ff3	0.3347164
84	0xbf0232a0	-0.508585
85	0xbe2e4075	-0.17016776
86	0x3f00f063	0.503668
87	0xbe991f4e	-0.29906696
88	0x3e7fb009	0.24969496
89	0xbabde183	-0.0014486763
90	0xbf2c1621	-0.67221266
91	0xbf4e787d	-0.806526
92	0x3c313b87	0.010817415
93	0x3e4af077	0.19818293
94	0xbd253e5f	-0.040342685
95	0xbf93bfda	-1.1542923
96	0xbec39619	-0.38200453
97	0xbdb52a21	-0.08845926
98	0x3ebabcca	0.3647216
99	0x3ee8e424	0.45486557
100	0x3e09bd4c	0.13451117
101	0xbeb1fb10	-0.34761858
102	0x3fe7f1e9	1.81207
103	0xbea659a2	-0.3249026
104	0xbe950a05	-0.29109207
105	0xbec664aa	-0.38748676
106	0xbe3e030b	-0.18555848
107	0x3ec23097	0.37927696
108	0x3f0ff5e6	0.56234586
109	0x3f213762	0.6297513
110	0x3fb622c2	1.4229357
111	0xbe95a2ac	-0.2922567
112	0x3eb83b6e	0.3598284
113	0x3eb081b6	0.34473962
114	0x3ed43a93	0.4145094
115	0xbe273507	-0.16328822
116	0x3ebfd7b0	0.37469244
117	0xbeb0e37c	-0.34548557
118	0xbe8da11e	-0.27661985
119	0xbe42ba85	-0.19016464
120	0xbeaad5f6	-0.33366364
121	0x3ead95ba	0.33903295
122	0x3ea641f4	0.32472193
123	0x3f032a3c	0.5123632
124	0x3ed24c0f	0.41073653
125	0xbe0d5726	-0.13802776
126	0x3f33f6bf	0.7029838
127	0xbe89c5b6	-0.26908654
128	0xbface33d	-1.3506848
129	0x3fd13849	1.6345302
130	0xbe9816d5	-0.2970492
131	0x3efba237	0.49147198
132	0x3ef52ece	0.47887272
133	0x3f01084d	0.5040329
134	0xbe9a0317	-0.30080482
135	0x3f1570bf	0.5837516
136	0xbe13f06b	-0.14447181
137	0x3dd05cb9	0.101739354
138	0x3dae1980	0.085009575
139	0x3eb32959	0.34992483
140	0x3f9bc068	1.2168093
141	0x3e59ebf4	0.21281415
142	0x3f3acc42	0.7296792
143	0xbf075bff	-0.5287475
144	0xbe87a9f4	-0.2649685
145	0x3f299bab	0.66253155
146	0x3e3158e1	0.17319061
147	0xbeffa8d2	-0.49933487
148	0x3f871d36	1.055579
149	0x3f22690f	0.63441557
150	0x3f122036	0.570804
151	0x3ebea2f9	0.37233713
152	0x3eb1863f	0.34672734
153	0x3e6b5709	0.2298242
154	0xbc4f27f9	-0.012643808
155	0x3ea16d6f	0.31528804
156	0xbe518320	-0.20460176
157	0x3e89206d	0.2678255
158	0xbed0defd	-0.40795127
159	0xc024aaa8	-2.572916
160	0xbd84d490	-0.064858556
161	0xbebbbad9	-0.3666599
162	0xbe64741b	-0.22309916
163	0x3c86c306	0.016450416
164	0x3e6ea40b	0.23304765
165	0xbd626848	-0.05527523
166	0xbf0df3ff	-0.55450433
167	0x3fb6ad92	1.427172
168	0x3ef1670b	0.47148928
169	0x3ef54450	0.4790368
170	0x3de3773e	0.11106728
171	0xbf02fcf2	-0.51167214
172	0xbe8b91a1	-0.27259544
173	0x3e48483c	0.19558805
174	0xbe8427e7	-0.25811693
175	0x3edf9e44	0.43675435
176	0xbe9493b7	-0.29018947
177	0x3f067341	0.52519614
178	0xbe4b84e5	-0.19874914
179	0x3f037298	0.5134673
180	0xbe3aa96e	-0.18228695
181	0xbefdda7a	-0.49580747
182	0x3dbc922a	0.09207566
183	0xbd0cf7f5	-0.034416158
184	0x3f0aa72f	0.5416135
185	0x3eebef02	0.46080786
186	0x3f0716a5	0.5276893
187	0xbe1f1319	-0.15534629
188	0x3ee25e9f	0.44212815
189	0x3eee207d	0.46509162
190	0x3f146dec	0.5798023
191	0x3edbe9ca	0.42951804
192	0x3ea173bf	0.3153362
193	0xba8ab405	-0.0010582214
194	0xbedf52f2	-0.4361797
195	0xbe4ac62b	-0.19802158
196	0xbdf9fa71	-0.12205971
197	0xbfbe75f4	-1.4879746
198	0xbee906ee	-0.455131
199	0x3f5dd68b	0.8665549
200	0xbe43fc33	-0.19139175
201	0xbda913d9	-0.08255739
202	0x3f115ec0	0.567852
203	0xbf030591	-0.5118037
204	0xbf8ee4ee	-1.1163614
205	0x3f920dce	1.1410463
206	0xbf015859	-0.5052543
207	0xbe61b894	-0.22043067
208	0x3ea4d4aa	0.321935
209	0x3ec87c7c	0.39157474
210	0xbc8d7ce6	-0.01727147
211	0x3e7e3399	0.2482437
212	0xbed99b35	-0.42501226
213	0x3ef9aa8b	0.48762926
214	0x3cd6e0e9	0.026230292
215	0x3f063200	0.52420044
216	0x3fd42807	1.6574715
217	0xbe98d6db	-0.29851422
218	0x3daac9af	0.08339249
219	0x3f15654b	0.58357686
220	0xbe543575	-0.20723517
221	0xbeffe0f0	-0.499763
222	0xbd018bbe	-0.03162741
223	0xbf83f24d	-1.0308319
224	0x3ed4d21b	0.41566548
225	0x3e833a20	0.25630283
226	0xbe9b18c7	-0.3029234
227	0xbed74313	-0.4204336
228	0xbea1335d	-0.314845
229	0x3e2cf998	0.16892087
230	0x3e36cf7e	0.1785259
231	0xbc7bf036	-0.015377095
232	0xbe6e88e1	-0.23294403
233	0x3e2053f0	0.1565702
234	0x3d163f57	0.0366815
235	0xbf183ad3	-0.5946476
236	0xbd2099e2	-0.039209254
237	0x3f05506d	0.52075845
238	0xbef29907	-0.47382376
239	0xbe8a5a04	-0.270218
240	0x3f415437	0.75519127
241	0x3d92ca74	0.07167521
242	0x3f75a813	0.95959586
243	0x3fcec83c	1.6154857
244	0xbf15ae3f	-0.58469003
245	0xbe98933d	-0.29799834
246	0x3dfb439d	0.122687556
247	0xbe86fc23	-0.2636424
248	0x3e632c33	0.2218483
249	0xbed28a59	-0.41121176
250	0xbdd7fdd3	-0.1054646
251	0x3f0147e1	0.50500304
252	0xbd9e8c81	-0.07741643
253	0xbe7ace08	-0.24492657
254	0x3d993211	0.074802525
255	0x3e73b95b	0.23801176

decoder.dec2.bias f4 [39]
0	0x00000000	0.0
1	0xbc3c740b	-0.011502276
2	0xbcb6c7cb	-0.022312066
3	0x3cf55fe0	0.029952943
4	0x3d453987	0.048150565
5	0xbcd09638	-0.025462255
6	0xbcb0ee65	-0.02159805
7	0x3c0d23a1	0.008614452
8	0x3caa5432	0.0207921
9	0xbd21a16e	-0.039460592
10	0x3d80a224	0.06280926
11	0x3bc3169d	0.0059536234
12	0xbd516f52	-0.051131554
13	0xbcef56a2	-0.029216114
14	0xbc80a638	-0.01570426
15	0xbca66029	-0.020309525
16	0xbd05dd90	-0.032682
17	0xbc42f543	-0.011899295
18	0xbc5cc642	-0.013475003
19	0xbd6ae49b	-0.05734692
20	0xbd2c0590	-0.041997492
21	0xbc14a9ab	-0.009073655
22	0x3b50193b	0.003175332
23	0xbca1efc1	-0.019767644
24	0x3c0f3e0d	0.008742821
25	0xbb1a533c	-0.0023548147
26	0x3ce9bac7	0.028531445
27	0x3d069de0	0.032865405
28	0xbd1672e8	-0.036730677
29	0x3c1b22c6	0.00946874
30	0xbc48d2b3	-0.012257266
31	0xbafbf989	-0.0019224148
32	0xbccb05fa	-0.024783123
33	0xbc005f2b	-0.00783519
34	0xbda66e57	-0.081265144
35	0x3deb5cf5	0.114923395
36	0xbcc6ca79	-0.024266468
37	0xbdb2ac7a	-0.087243035
38	0x3d5d13e6	0.053974055

decoder.dec3.weight f4 [58, 39]
0	0xbea89073	-0.32922706
1	0xbdd24c2b	-0.10268434
2	0x3e8e2d55	0.2776896
3	0xbed3f664	-0.4139892
4	0x3ed7a549	0.4211829
5	0xbed12094	-0.40845168
6	0x3e1c1754	0.15243274
7	0x3e0b8ca9	0.13627876
8	0x3d748b83	0.05970336
9	0x3d7e9476	0.062153302
10	0xbbb009bb	-0.0053722537
11	0xc00bc255	-2.183736
12	0xbdf76521	-0.12079836
13	0x3d1cbede	0.038267963
14	0xc04a6e05	-3.162965
15	0xbf8aaf36	-1.083472
16	0x3e309d43	0.1724749
17	0x3f741263	0.95340556
18	0x3e168fc3	0.14703278
19	0x3ea35622	0.31901652
20	0xbfb7355e	-1.4313161
21	0x3f91cd4b	1.1390775
22	0xbe03fb4f	-0.12888835
23	0x3dc227c6	0.094802424
24	0xbd4f5597	-0.050618734
25	0xbe597165	-0.21234663
26	0x3e9e3cff	0.3090591
27	0xbddf02d2	-0.1088921
28	0x3daa2820	0.083084345
29	0x3e5ef3d9	0.21772708
30	0xbe21c22d	-0.15796728
31	0xbe13328d	-0.14374752
32	0xbd24bcc1	-0.040219072
33	0xbe90647c	-0.28201663
34	0x3e86bb4e	0.26314777
35	0x3ff70d17	1.930087
36	0xbe420db6	-0.18950543
37	0xbe08768f	-0.13326477
38	0xbeaa9b57	-0.3332164
39	0xbdcd367d	-0.100201584
40	0x3d050eb3	0.03248472
41	0x3dd3560e	0.10319148
42	0x3cd42b2e	0.025899496
43	0xbd8e6e97	-0.06954687
44	0x3ea067a8	0.31329083
45	0x3e521593	0.20516042
46	0x3e9203aa	0.2851842
47	0xbe8eb7a3	-0.2787448
48	0xbd64a841	-0.055824522
49	0x3da4151f	0.08011841
50	0xbfd96910	-1.6985188
51	0x3fd4eeb5	1.6635348
52	0x3e7c52f9	0.24641027
53	0xbf8dab87	-1.1067971
54	0xbdcf90a3	-0.10135009
55	0x3ec1d0a3	0.3785449
56	0xbf51a51e	-0.81892574
57	0x3ea7867e	0.32719797
58	0xbe12444e	-0.14283869
59	0x3f673bc2	0.9032556
60	0xbfe4068a	-1.7814496
61	0xbf0c3085	-0.54761535
62	0xbeb8c709	-0.36089352
63	0xbe7b1cfd	-0.24522777
64	0xbf0bb079	-0.5456615
65	0x3ec7b88f	0.39007995
66	0x3ecb495b	0.39704403
67	0x3bf61b93	0.0075106113
68	0xbe111b40	-0.14170551
69	0xbeb41246	-0.35170192
70	0x3e3b48f0	0.18289542
71	0xbd59d7ea	-0.053184427
72	0xbe39afeb	-0.18133514
73	0xbee79000	-0.4522705
74	0xbf3bdc5c	-0.73383117
75	0xbf287e12	-0.6581737
76	0x3ca1c0ac	0.019745193
77	0xbde0ef3f	-0.109831326
78	0xbe1bc1af	-0.15210603
79	0x3eb6939b	0.3565949
80	0x3effb7e7	0.49944994
81	0xbf0d0012	-0.5507823
82	0xbe942417	-0.28933784
83	0x3ecef607	0.4042208
84	0x3ef4215c	0.476817
85	0x3daa5dd9	0.08318681
86	0x3df1deb7	0.118100576
87	0x3e0c400d	0.13696308
88	0xbeb40303	-0.35158548
89	0xbe950fd2	-0.29113632
90	0xbfe634c6	-1.7984855
91	0x3e4a2193	0.1973937
92	0x3df678c2	0.120347515
93	0x3fc00985	1.5002905
94	0x3e0dfdd9	0.13866366
95	0x3dce6bfc	0.1007919
96	0x3f980b22	1.1878397
97	0xbeaafc84	-0.3339578
98	0xbe2ba566	-0.16762313
99	0xbdf45b67	-0.11931496
100	0x3e474c25	0.1946264
101	0xbe635e56	-0.22203955
102	0xbde6a1c9	-0.11261327
103	0x3ec88f8b	0.39172015
104	0xbec23864	-0.37933648
105	0x3deda7d1	0.11604274
106	0x3d3d87ed	0.046272207
107	0xbdebec47	-0.11519676
108	0xbe6303f9	-0.22169484
109	0xbbe73a00	-0.0070564747
110	0xbefe5b02	-0.49678808
111	0x3da125a4	0.078685075
112	0xbe099f1b	-0.134396
113	0xbf90b190	-1.1304188
114	0x3f2342af	0.63773626
115	0xbd14de53	-0.036344837
116	0xbd9333d4	-0.0718762
117	0xbeb6d8d9	-0.35712317
118	0x3daa8d61	0.08327747
119	0xbded98a1	-0.11601377
120	0xbbc845f6	-0.0061118556
121	0xbe94b6bd	-0.29045668
122	0x3f027e0b	0.50973576
123	0xbe418371	-0.18897797
124	0xbf07a4cf	-0.5298585
125	0x3eac41ea	0.33644038
126	0x3e2a1a29	0.16611542
127	0x3da42162	0.0801418
128	0xbfd7cd7b	-1.6859583
129	0xbd9917ee	-0.07475267
130	0xbe9eacd3	-0.3099123
131	0xbe2c0f19	-0.16802634
132	0x3fb29541	1.3951799
133	0x3dca79f7	0.09886544
134	0xbf3d3714	-0.7391217
135	0x3d6d620c	0.057954833
136	0x3e83d928	0.25751615
137	0x3f14f432	0.5818511
138	0x3f592965	0.8482879
139	0xbe8aa5ce	-0.27079624
140	0xbea91535	-0.33023992
141	0x3e4974db	0.19673483
142	0x3d9cea48	0.07661873
143	0x3e9d2f61	0.3070021
144	0x3e0ec3f1	0.13941933
145	0x3ef631da	0.4808491
146	0x3b23694d	0.002493459
147	0x3e75376e	0.23946926
148	0x3e255229	0.16144623
149	0xbe69e58c	-0.22841471
150	0x3ea527e4	0.32256997
151	0xbec4d2dd	-0.38442126
152	0x3f9d75ae	1.2301538
153	0x3f0fd130	0.5617857
154	0xbed264a0	-0.41092396
155	0x3e02580c	0.127289
156	0x3e56eab4	0.2098797
157	0xbd62faa2	-0.055414803
158	0xbf6d4a05	-0.9269107
159	0xbebc8d70	-0.36826658
160	0xbe9b240e	-0.30300945
161	0xbdae1cc8	-0.08501583
162	0x3ee944d3	0.4556032
163	0xbdadbd0b	-0.08483323
164	0xbddf9561	-0.10917164
165	0x3ec0d6f9	0.3766401
166	0xc013adf4	-2.3074923
167	0x3f3dfe5d	0.7421625
168	0x3f7f87f2	0.9981681
169	0xbe6be5c4	-0.23036867
170	0x3f746a61	0.9547482
171	0xbfaa7a43	-1.3318561
172	0x3da0021c	0.07812902
173	0xbcf3603b	-0.029708972
174	0xbe98ee95	-0.29869524
175	0x3e0becb3	0.13664512
176	0x3f136944	0.575825
177	0x3ebd91a8	0.3702519
178	0x3ebe08a8	0.3711598
179	0x3e8f2711	0.27959493
180	0x3eb208b1	0.34772256
181	0x3f1b5786	0.60680425
182	0x3d78807d	0.06066941
183	0xbef2c3b9	-0.4741495
184	0xbe9def88	-0.3084681
185	0x3e615f97	0.22009121
186	0xbe73b6dd	-0.23800226
187	0x3ec1bffc	0.37841785
188	0xbebd08fc	-0.36920917
189	0x3ea75429	0.32681397
190	0x3e0c1553	0.1368001
191	0x3f9b59ab	1.213674
192	0xbdeb1312	-0.11478247
193	0x3e6fb7bd	0.23409934
194	0x3ebb024e	0.36525196
195	0x3e44656f	0.19179319
196	0xbe0cab65	-0.13737257
197	0x3ebecd64	0.37266076
198	0x3d0f4fca	0.034988202
199	0x3e7b61b0	0.24548984
200	0xbea4b199	-0.32166746
201	0x3d2fcb78	0.042918652
202	0x3f29ba19	0.6629959
203	0x3e269beb	0.16270415
204	0xbe143b0b	-0.14475648
205	0x3d155598	0.03645858
206	0x3fe88626	1.8165939
207	0x3fa7e1fe	1.3115842
208	0xbe6c2938	-0.23062599
209	0xbfe79966	-1.8093688
210	0xbf1d18e1	-0.6136609
211	0xbea0e9fd	-0.3142852
212	0x3f07538a	0.52861845
213	0xbdda855b	-0.10669967
214	0xbec770d4	-0.3895327
215	0xbf6d7c8e	-0.9276818
216	0xbf6d14c9	-0.9260984
217	0x3de853a8	0.11344081
218	0xbe1b3381	-0.15156366
219	0x3efa3168	0.4886582
220	0x3e811a6f	0.2521548
221	0x3e6a7a03	0.22898106
222	0x3ea522b7	0.32253048
223	0xbe4f1502	-0.20222858
224	0x3eabcf6d	0.3355669
225	0xbdf1eebb	-0.11813112
226	0xbdc01933	-0.09379806
227	0x3e8c7bf8	0.2743833
228	0x3dad55f4	0.0846366
229	0x3e4026c2	0.18764785
230	0x3ee307fa	0.44342023
231	0xbf377b86	-0.71672857
232	0xbde39f94	-0.111144215
233	0xbde70bdf	-0.11281561
234	0x3d857b9e	0.06517719
235	0xbe75337f	-0.23945425
236	0x3d4e001b	0.05029307
237	0x3cd9d0b8	0.026588783
238	0x3ba29a3d	0.0049622343
239	0x3eaca644	0.337206
240	0xbed29091	-0.4112592
241	0xbf6c58db	-0.9232308
242	0x3e3f24da	0.18666402
243	0x3e86783f	0.26263615
244	0x3e26a22d	0.16272803
245	0xbe3d7d39	-0.185048
246	0xbd83eba9	-0.06441433
247	0x3da80a59	0.08205099
248	0xbeaf8a9a	-0.34285432
249	0x3e8b517f	0.27210614
250	0xbe90ef5d	-0.2830762
251	0xbe3c58a1	-0.18393184
252	0x3e73bdf7	0.23802935
253	0x3d84ab18	0.06477946
254	0xbec70780	-0.3887291
255	0xbe9fa18e	-0.31177944

decoder.dec3.bias f4 [58]
0	0x3d84d9f5	0.064868845
1	0xbc2568ea	-0.010095814
2	0x3b11b0a9	0.0022230542
3	0xb988b4fc	-0.00026074785
4	0xbc61d77b	-0.013784285
5	0x3df93145	0.121676005
6	0xbd3e51df	-0.046464797
7	0xbca1d5ae	-0.01975521
8	0x3cf07d56	0.02935664
9	0x3d41e205	0.04733469
10	0xbdac1586	-0.08402543
11	0xbd928c6e	-0.07155691
12	0xbd366e9e	-0.044539087
13	0xba169f8a	-0.0005745819
14	0x3e16c937	0.14725195
15	0x3cac040c	0.020998023
16	0x00000000	0.0
17	0xbcaaba6c	-0.020840846
18	0x00000000	0.0
19	0x3cc585f9	0.024111735
20	0x3cb33258	0.021874592
21	0xbc0c6bda	-0.008570636
22	0xbcae6a7f	-0.021291016
23	0x3c17a0ac	0.009254616
24	0x3d0181a9	0.031617794
25	0x3c47890d	0.012178672
26	0xbd03b655	-0.032156307
27	0x3da22b38	0.079183996
28	0xbd1d889c	-0.03846036
29	0xbc1836a1	-0.009290368
30	0x3be6ee44	0.0070474464
31	0xbbee6fd9	-0.007276517
32	0xbc67e046	-0.014152592
33	0xbc95a81e	-0.018268641
34	0x3d6884b5	0.056767184
35	0xbce59767	-0.028026296
36	0x3cbceb68	0.02306147
37	0xbd1ee495	-0.03879221
38	0x3cfa42ef	0.030549495
39	0x3c677b3d	0.014128503
40	0xbcb38133	-0.021912193
41	0xbdfbbca9	-0.122918434
42	0xbc2877a5	-0.010282432
43	0x3d4a3824	0.049369946
44	0x3a8a200a	0.0010538113
45	0xbd013b1d	-0.031550515
46	0x3cbe82c2	0.02325571
47	0x3ea1f7e8	0.3163445
48	0x3afb458f	0.001917051
49	0xbc13627b	-0.008995648
50	0xbc8b5e5a	-0.017012764
51	0x3dad2d61	0.08455921
52	0x00000000	0.0
53	0x3d8e6f9d	0.06954882
54	0xbd1fab4c	-0.03898172
55	0x3d4ffaad	0.050776172
56	0xbc14eeed	-0.0090901675
57	0xbd68d093	-0.056839537
