IDS_TA/initial_Models/CADE-m20.0-l1.0.pth (torch, 67910 bytes, 16 tensors)

encoder.enc1.weight f4 [58, 78]
0	0x3e893b5d	0.26803103
1	0x3e8b8086	0.27246493
2	0x3ca69ecd	0.020339394
3	0xbe9b6050	-0.30346918
4	0x3cdb7b8b	0.026792308
5	0xbe58753c	-0.21138471
6	0x3ddf78cd	0.10911713
7	0xbe23b7c6	-0.15988073
8	0xbdc6d836	-0.09709208
9	0x3c849ade	0.016187128
10	0x3e6e34b0	0.23262286
11	0x3e3f9e44	0.18712717
12	0xbe094896	-0.13406596
13	0x3c91df12	0.017806564
14	0x3e251548	0.161214
15	0xbcccf74f	-0.02502027
16	0xbda02688	-0.07819849
17	0xbb1d59b6	-0.002400977
18	0xbe58bc5a	-0.211656
19	0x3e425e9c	0.18981403
20	0xbe6835a2	-0.2267671
21	0x3e058b52	0.13041428
22	0xbe5b646e	-0.2142503
23	0xbbec765b	-0.0072162575
24	0xbd434b66	-0.047679327
25	0xbd8b488f	-0.06800949
26	0xbdf2baa1	-0.11852003
27	0x3dc38529	0.09546883
28	0x3d13c276	0.036074124
29	0xbe09649c	-0.13417286
30	0x3e884ad4	0.2661959
31	0xbea134c1	-0.3148556
32	0x3da88610	0.082286954
33	0x3e30b991	0.17258288
34	0xbcbecdca	-0.023291487
35	0x3e0e108b	0.13873498
36	0xbe4b2a94	-0.19840461
37	0x3e4771e5	0.19477041
38	0x3e50dd49	0.20396914
39	0x3de8e83f	0.113724224
40	0xbdf98e9c	-0.12185404
41	0x3dbde51b	0.09272214
42	0x3ddc1c0e	0.107475385
43	0xbe39a927	-0.18130933
44	0xbe2e3dcd	-0.17015763
45	0x3d01879a	0.03162346
46	0xbe421c53	-0.18956117
47	0x3db3db31	0.08782042
48	0x3e244a81	0.16044046
49	0x3e4dc366	0.2009407
50	0x3e4094a2	0.18806699
51	0xbdf9ddfc	-0.12200543
52	0xbe82489f	-0.2544603
53	0x3d2a9679	0.04164741
54	0x3c0ee5d8	0.008721791
55	0x3ea1c97d	0.31599036
56	0xbe8da212	-0.27662712
57	0x3e9d0e37	0.30674908
58	0xbe05b688	-0.13057911
59	0x3e3900e7	0.1806675
60	0x3dd88c5b	0.10573646
61	0x3d88026e	0.066410884
62	0xbcc10f02	-0.023566727
63	0x3e05b1b9	0.13056077
64	0x3cef073c	0.029178254
65	0x3e95f260	0.2928648
66	0x3e7a3cf0	0.24437308
67	0xbcba87a1	-0.022769751
68	0xbe93a05a	-0.28833276
69	0x3e287104	0.16449362
70	0x3e6059b9	0.21909226
71	0x3df75cf6	0.12078278
72	0xbd7c1a3d	-0.06154846
73	0x3d6e9173	0.05824418
74	0xbc11b20e	-0.008892549
75	0xbcee6748	-0.029101983
76	0x3dc3ce25	0.09560803
77	0x3e335104	0.17511374
78	0x3e3877b8	0.18014419
79	0xbe7b22b0	-0.24524951
80	0x3e384566	0.17995223
81	0x3e29b376	0.16572365
82	0x3bafb77a	0.0053624483
83	0x3e2d40e7	0.1691929
84	0xbe36053b	-0.17775433
85	0xbedd08d8	-0.4317081
86	0x3ddcb731	0.107771285
87	0xbf084cf7	-0.5324244
88	0xbe348f6f	-0.1763284
89	0x3ebb0a6b	0.36531386
90	0xbdbf8bf5	-0.093528666
91	0x3e0b4581	0.13600732
92	0x3e5197b1	0.20468022
93	0x3e96fd5d	0.29490176
94	0x3d11eaf1	0.03562445
95	0xbde73bd7	-0.112907104
96	0x3e0bc0c6	0.13647756
97	0x3ccd4158	0.025055572
98	0xbe48541c	-0.19563335
99	0x3eadfd94	0.33982527
100	0x3e626650	0.22109342
101	0x3e8f9fdc	0.2805165
102	0xbe102965	-0.14078291
103	0xbe0d9800	-0.13827515
104	0x3ebda7b6	0.37042016
105	0x3daf39fc	0.085559815
106	0x3e3cea32	0.18448713
107	0x3e2509a4	0.16116959
108	0xbe0e4add	-0.13895746
109	0x3d8ab6db	0.06773158
110	0x3df3cd2c	0.11904368
111	0x3dc340eb	0.095338665
112	0x3d887c38	0.06664318
113	0xbe2d2eed	-0.16912432
114	0xbdc6640a	-0.0968705
115	0x3df434eb	0.11924156
116	0xbc6e9f2a	-0.014564315
117	0xbe6ad9aa	-0.22934595
118	0x3d2fdb8a	0.04293398
119	0x3cac7886	0.021053564
120	0x3e0b00c6	0.13574514
121	0x3ef02d7c	0.46909702
122	0xbd8d3683	-0.06895163
123	0xbdfb352b	-0.12266
124	0x3f51263d	0.8169897
125	0x3e68324e	0.2267544
126	0x3cc2d5bc	0.023783557
127	0xbda02840	-0.07820177
128	0xbd63d98d	-0.055627394
129	0xbe51ca3c	-0.20487303
130	0x3e254aff	0.1614189
131	0x3df9e1fa	0.12201305
132	0xbe32eb36	-0.17472538
133	0x3c28d4b4	0.010304619
134	0x3ec35c0e	0.3815617
135	0xbe6faf34	-0.23406678
136	0x3ddd9ab7	0.10820525
137	0xbe90404f	-0.28174064
138	0xbe0e3156	-0.13886008
139	0x3e9806ab	0.29692587
140	0x3d6c9453	0.05775864
141	0xbe5cc414	-0.21559173
142	0xbe69edf1	-0.22844674
143	0x3e0f0da8	0.13970053
144	0xbe9ec7b2	-0.3101173
145	0x3ddf19ba	0.10893579
146	0xbe1c4902	-0.15262225
147	0x3d29ad7a	0.041425206
148	0x3e1534eb	0.14570968
149	0x3e74cb9c	0.23905796
150	0x3dd4018e	0.10351859
151	0x3e18847a	0.14894286
152	0xbdfb5ea1	-0.122739084
153	0xbc393f7d	-0.011306641
154	0x3d512635	0.051061828
155	0x3e5d386b	0.21603553
156	0x3efabaf6	0.48970765
157	0x3e3023b5	0.17201121
158	0xbddb11c5	-0.10696749
159	0xbd3e71cf	-0.046495255
160	0x3e876aba	0.26448613
161	0x3c545ad3	0.012961107
162	0x3e913b7f	0.28365704
163	0xbee6b879	-0.45062616
164	0x3de73e69	0.11291201
165	0xbdc23a63	-0.09483793
166	0xbc565a0a	-0.01308299
167	0xbe0cddbb	-0.13756458
168	0xbd0456c8	-0.032309324
169	0xbdc29ff1	-0.09503163
170	0x3de277a3	0.11057975
171	0x3e1a3915	0.15060838
172	0xbe40ea25	-0.18839319
173	0x3e51302b	0.20428531
174	0x3da8aee4	0.08236483
175	0x3e14de17	0.14537846
176	0x3e60c4e3	0.21950106
177	0xbe387942	-0.18015006
178	0xbcde99a9	-0.02717288
179	0x3e8539c0	0.26020622
180	0xbd95a96c	-0.07307705
181	0xbc3767fb	-0.0111942245
182	0xbdfa1c3d	-0.12212417
183	0x3d885bfd	0.0665817
184	0x3cb87220	0.022515357
185	0xbe0af880	-0.13571358
186	0x3e6f835e	0.23389956
187	0x3ec6c534	0.3882233
188	0xbd86f85f	-0.06590342
189	0xbd39be2f	-0.04534739
190	0x3e831b49	0.25606754
191	0xbcef73e8	-0.029230073
192	0xbe3b1fed	-0.18273897
193	0x3e09ccaa	0.1345698
194	0x3eafa679	0.34306696
195	0x3e27a881	0.16372873
196	0x3e8faf0e	0.28063244
197	0x3bb02973	0.005376035
198	0x3e43049e	0.1904473
199	0xbde909cc	-0.11378822
200	0x3d7f75b4	0.06236811
201	0x3e9b0914	0.30280364
202	0x3dfbddc1	0.122981556
203	0x3ee03281	0.4378853
204	0xbe510ffc	-0.20416254
205	0xbe3f2a10	-0.1866839
206	0x3d8b8218	0.06811923
207	0xbb7f0944	-0.0038915435
208	0xbd48ff60	-0.04907167
209	0xbbdc4ed0	-0.0067232624
210	0x3db5f4ba	0.088845685
211	0x3e564c1e	0.20927474
212	0x3dd8849a	0.10572167
213	0x3d845428	0.06461364
214	0xbcd5db22	-0.026105467
215	0xbd8fc12c	-0.070192665
216	0xbd0774d3	-0.033070397
217	0xbd9bbbb0	-0.07604158
218	0x3ccf74b4	0.025324203
219	0x3e9ce992	0.3064695
220	0xbe83f6f1	-0.2577434
221	0x3d92addb	0.071620665
222	0x3dd5166c	0.10404667
223	0xbc3d496f	-0.011553152
224	0x3d7d89ec	0.06189911
225	0xbe2ef9a0	-0.17087412
226	0x3e4eeebd	0.20208259
227	0xbd8fd334	-0.07022706
228	0x3e4b5aeb	0.19858901
229	0xbdae393b	-0.085070096
230	0x3e69fb14	0.22849685
231	0x3cc16cc2	0.02361143
232	0x3df4ffaf	0.1196283
233	0xbcecdc12	-0.028913531
234	0xbfd7d8e7	-1.6863068
235	0x3e9dcf79	0.30822352
236	0x3e08bf79	0.13354291
237	0x3e5a409a	0.21313706
238	0xbe56d7ec	-0.20980805
239	0xbe3e34d1	-0.18574835
240	0xbc623ada	-0.013807977
241	0x3e6a19b7	0.22861372
242	0x3db43b91	0.08800424
243	0x3da2a51c	0.07941648
244	0x3e298b5f	0.16557072
245	0x3e42e7cd	0.19033737
246	0x3da6bee4	0.08141878
247	0xbd8765ba	-0.066112
248	0x3de2f324	0.11081532
249	0x3d7d1dd5	0.06179603
250	0x3dbf9c50	0.09355986
251	0xbeaa18bd	-0.33222
252	0x3e66bdcf	0.22533344
253	0x3d95ea97	0.07320135
254	0x3d91c7a8	0.071181595
255	0x3ec5b1c1	0.38612178

encoder.enc1.bias f4 [58]
0	0x3da0e0c9	0.07855374
1	0x3e0e5be9	0.13902248
2	0x3da45be4	0.08025339
3	0x3df00eba	0.11721559
4	0x3de42ba3	0.111411355
5	0x3c513535	0.012769033
6	0x3dfa2a54	0.12215105
7	0xbd796dee	-0.060895853
8	0x3cc6a422	0.024248186
9	0x3dd1d36d	0.102454044
10	0xbd863b4d	-0.065542795
11	0x3db8f114	0.09030357
12	0x3dada8cc	0.08479461
13	0x3e0e58e2	0.13901094
14	0x3de07f24	0.1096175
15	0x3db73997	0.08946531
16	0xbd2bb59c	-0.041921243
17	0xbd1d1ae5	-0.038355727
18	0x3da576c9	0.08079297
19	0x3e1dc357	0.15406547
20	0x3d97421a	0.07385655
21	0x3e1fa382	0.15589717
22	0x3d55deeb	0.052214544
23	0x3d485f39	0.048918936
24	0x3dd9877e	0.10621546
25	0xba9bea18	-0.0011895327
26	0x3e200ded	0.15630312
27	0x3d8da151	0.06915534
28	0xbc644644	-0.013932768
29	0x3bb46e3c	0.005506305
30	0x3daa290d	0.08308611
31	0x3e06a543	0.1314898
32	0x3e259f20	0.16173983
33	0xbd661eea	-0.056181826
34	0x3c41ff2d	0.011840624
35	0x3d0c811b	0.034302812
36	0x3cf7cafd	0.03024816
37	0xbdabace5	-0.083825864
38	0x3d06ac93	0.032879423
39	0x3d932255	0.07184283
40	0x3dc43a2e	0.095814094
41	0xbb09f667	-0.0021051408
42	0x3c2c54ca	0.010518262
43	0x3d4613bd	0.048358668
44	0x3de0d08e	0.10977279
45	0x3d999d61	0.07500721
46	0xbc96d2dc	-0.018411092
47	0x3d394a89	0.045237098
48	0x3d3e6658	0.04648432
49	0x3e06bc4f	0.13157772
50	0x3df17662	0.11790158
51	0x3dc1ff39	0.09472508
52	0x3dd4cbe5	0.10390452
53	0x3d65c735	0.05609818
54	0x3d9d8f48	0.07693344
55	0xbd828aa4	-0.063741
56	0x3dce8c3d	0.10085342
57	0x3da29d78	0.07940191

encoder.enc2.weight f4 [39, 58]
0	0x3dda658b	0.10663899
1	0x3e8c6677	0.27421924
2	0xbce904ce	-0.028444674
3	0xbe57e79c	-0.21084446
4	0xbd38bf40	-0.045104265
5	0x3e9d6ef0	0.307487
6	0x3dc28743	0.094984554
7	0xbe89af2d	-0.2689146
8	0x3e4d211e	0.20032164
9	0xbc8dfa15	-0.017331162
10	0xbe017dff	-0.1264572
11	0xbec6c612	-0.3882299
12	0xbe44dd3e	-0.19225022
13	0xbe4b917b	-0.19879715
14	0x3dd059f5	0.10173408
15	0x3ebc391e	0.36762327
16	0xbea68e06	-0.3253023
17	0xbdec5b7e	-0.11540888
18	0xbe40c8af	-0.18826555
19	0x3d1a0add	0.037608016
20	0xbe4ae77b	-0.19814865
21	0x3e7c5004	0.24639899
22	0x3e967d04	0.29392254
23	0xbea5f57a	-0.32413846
24	0x3e079383	0.13239865
25	0x3e712901	0.23550798
26	0x3c6e5e36	0.014548829
27	0x3e10f81c	0.14157146
28	0xbe5e08bf	-0.21683024
29	0xbd601003	-0.05470277
30	0xbe1e899a	-0.15482178
31	0xbd1cb492	-0.038258143
32	0x3e9e1f23	0.3088313
33	0xbdabd16e	-0.08389555
34	0xbdcc47d1	-0.099746354
35	0x3df7aece	0.12093888
36	0x3ec5ef06	0.38658923
37	0x3e0e971f	0.13924836
38	0x3e230e4f	0.15923427
39	0x3e865abd	0.26241103
40	0xbcec20a5	-0.02882416
41	0x3e504fd3	0.2034295
42	0x3e45aba7	0.19303761
43	0xbe16b5fa	-0.14717856
44	0xbe4d0aaa	-0.200236
45	0xbe8eca4c	-0.27888715
46	0xbeb04c54	-0.34433234
47	0x3f00f850	0.50378895
48	0x3e3fdde9	0.18736996
49	0xbdd2a96e	-0.102862224
50	0x3e7d4b06	0.2473565
51	0x3d0458b1	0.032311145
52	0x3e333441	0.17500402
53	0x3e4fac35	0.20280536
54	0x3e605f20	0.21911287
55	0xbdfa192c	-0.122118324
56	0x3e991883	0.29901513
57	0x3e7f9b2c	0.24961537
58	0x3d60623c	0.054781184
59	0xbe01b2bb	-0.12665837
60	0xbd6c071f	-0.05762398
61	0x3e1b867e	0.15188023
62	0xbe47c765	-0.19509657
63	0x3e83f134	0.2576996
64	0x3cc7cbd5	0.024389187
65	0x3d48c9f6	0.04902073
66	0x3e93f408	0.2889712
67	0x3e85e6f6	0.26152772
68	0xbeb74309	-0.3579333
69	0x3e8098a8	0.25116467
70	0xbde50509	-0.11182601
71	0xbef5167b	-0.47868714
72	0xbdeb9226	-0.11502485
73	0x3e09642d	0.1341712
74	0xbcdb404e	-0.026764061
75	0xbdc1dd2a	-0.09466012
76	0x3e9f825a	0.31154138
77	0x3e1c2d07	0.15251552
78	0xbd9d5631	-0.07682455
79	0x3ea5482a	0.3228162
80	0x3d395b20	0.04525292
81	0xbe60cb58	-0.2195257
82	0x3e59d1a7	0.21271382
83	0xbdf26e71	-0.11837471
84	0x3ea20ef7	0.31652042
85	0xbde25e64	-0.1105316
86	0xbecf38bc	-0.40472972
87	0xbe5d616b	-0.21619193
88	0xbe236633	-0.15956955
89	0x3d76890d	0.060189296
90	0x3e936d6f	0.2879443
91	0xbe33100e	-0.17486593
92	0x3e9067b4	0.2820412
93	0xbe35b309	-0.17744078
94	0xbe03c9f6	-0.1287001
95	0xbe8d2b59	-0.27572134
96	0x3d6ad51a	0.057332136
97	0x3edf7d52	0.436503
98	0x3ec3fed5	0.3828036
99	0xbc8f653a	-0.017504323
100	0xbe54f16c	-0.2079522
101	0xbe8058de	-0.250678
102	0x3d8cc771	0.06873978
103	0x3e288eca	0.1646072
104	0xbcd76ff7	-0.026298506
105	0x3e18f661	0.14937736
106	0x3d526429	0.05136505
107	0x3eacb995	0.33735338
108	0x3e78a446	0.24281415
109	0x3dec9764	0.11552313
110	0xbe935069	-0.28772286
111	0x3d26ce4f	0.040724095
112	0xbe431f3f	-0.19054888
113	0xbdeabf71	-0.11462296
114	0x3e9c38d1	0.30512097
115	0x3e6dd98e	0.23227522
116	0xbe535880	-0.20639229
117	0x3e3b5735	0.18294986
118	0x3e01fc8c	0.12693995
119	0xbeab8aab	-0.33504233
120	0x3da8193b	0.08207937
121	0x3e3207bc	0.17385763
122	0xbdb63bcc	-0.08898124
123	0x3e4df70a	0.20113769
124	0x3e881f0d	0.2658619
125	0x3ede4ec6	0.43419474
126	0x3d0edb59	0.034877155
127	0x3e3d1384	0.18464476
128	0x3e29d3e4	0.16584736
129	0xbe8c14fc	-0.2735976
130	0x3e8e6b8f	0.27816436
131	0x3e243504	0.16035849
132	0x3baf0320	0.0053409487
133	0x3e4a1031	0.19732739
134	0x3ec72e73	0.38902625
135	0x3de3c0f0	0.11120784
136	0x3dadd9ca	0.084888056
137	0x3e449170	0.19196105
138	0x3d9ece87	0.07754236
139	0xbe875eff	-0.26439664
140	0xbd520b6d	-0.051280428
141	0x3e4ec64a	0.20192829
142	0xbe4e8325	-0.20167215
143	0xbe07f449	-0.13276781
144	0x3d1e19f8	0.038598984
145	0xbd88ac39	-0.06673474
146	0xbdb5950e	-0.088663206
147	0x3eb0380d	0.34417763
148	0x3e2b0680	0.16701698
149	0xbe704e8d	-0.23467465
150	0x3e914255	0.2837092
151	0x3e472c20	0.19450426
152	0x3ca50a99	0.020146655
153	0xbde09196	-0.10965268
154	0xbddd41b9	-0.10803551
155	0x3c72f2ec	0.014828425
156	0xbd741a02	-0.059595115
157	0x3e02c231	0.1276939
158	0xbe213d40	-0.15746021
159	0xbe5520b1	-0.20813252
160	0x3df0fcb4	0.11766949
161	0x3d5efa80	0.054438114
162	0xbcb25a32	-0.021771524
163	0x3e355b67	0.17710648
164	0x3ebd4804	0.36969006
165	0x3e7b521c	0.24543041
166	0x3ecff849	0.40619114
167	0xbe9f9031	-0.31164697
168	0x3c87d073	0.016578889
169	0x3e822ab6	0.2542321
170	0x3e3373a3	0.1752458
171	0x3e9286e0	0.28618526
172	0xbe243e03	-0.1603928
173	0x3cf09583	0.029368168
174	0xbe075311	-0.13215281
175	0x3ea02332	0.31276852
176	0x3ed8e286	0.42360324
177	0xbd937548	-0.07200104
178	0xbddca0b7	-0.107728414
179	0x3eda56d0	0.42644358
180	0xbdcaead6	-0.09908073
181	0x3e3bcd55	0.18340047
182	0x3ea2b904	0.3178178
183	0x3eb9a177	0.36256
184	0xbd8cc9f1	-0.06874455
185	0x3dd0530a	0.101720884
186	0x3db781b3	0.08960285
187	0x3d7d3b6d	0.06182425
188	0x3e9520a5	0.29126468
189	0x3ea38307	0.31935903
190	0xbe20c597	-0.15700375
191	0xbe193249	-0.14960589
192	0x3e47fda8	0.19530356
193	0xbc433eb4	-0.011916805
194	0xbec4cb5b	-0.38436398
195	0xbd590fce	-0.05299359
196	0xbe3558c7	-0.17709647
197	0xbe26526c	-0.16242379
198	0xbd99af2d	-0.07504115
199	0x3e7c66cd	0.2464859
200	0xbdd7b422	-0.105324045
201	0x3c64e779	0.013971203
202	0xbebf98c6	-0.37421244
203	0x3dc2c93e	0.0951104
204	0x3e949c7d	0.2902564
205	0x3ea20082	0.31641012
206	0x3e8b75f1	0.2723842
207	0x3df93e58	0.12170094
208	0x3e6a17cb	0.22860639
209	0x3ec152cd	0.37758484
210	0x3ec34ebe	0.38146013
211	0xbe830587	-0.25590155
212	0x3d811615	0.0630304
213	0x3ec1037b	0.37697968
214	0x3dc9e408	0.09857947
215	0x3ee327a9	0.44366196
216	0xbcd7f783	-0.02636314
217	0x3e211329	0.15729965
218	0xbe4a2163	-0.19739299
219	0x3d782afb	0.060587864
220	0x3e1a4cb4	0.15068322
221	0x3e01cfdb	0.12676947
222	0xbcaf3c99	-0.0213912
223	0x3e930a16	0.28718632
224	0xbd16aa3f	-0.036783453
225	0xbe2882ec	-0.16456193
226	0x3d6e162d	0.058126617
227	0x3f05c437	0.52252525
228	0x3e5dbd64	0.21654278
229	0x3e285429	0.16438355
230	0xbcad9b83	-0.021192318
231	0x3e8dfd51	0.27732328
232	0x3e602b1c	0.21891445
233	0x3df2b8b5	0.11851636
234	0xbe2c0b53	-0.16801195
235	0x3e20d0e3	0.15704684
236	0x3d36131f	0.04445183
237	0xbd4d7894	-0.05016382
238	0x3e0b82d7	0.1362413
239	0xbdff4365	-0.12464026
240	0x3bdcef0e	0.0067423647
241	0x3d954a10	0.07289517
242	0xbe5aa0ae	-0.21350357
243	0xbd5e01f1	-0.05420107
244	0x3e94c003	0.29052743
245	0xbed0989b	-0.4074143
246	0x3e77c1df	0.2419505
247	0x3ecff749	0.4061835
248	0xbc01d11b	-0.00792339
249	0xbc8e04ba	-0.017336238
250	0xbe0ad4cc	-0.13557738
251	0x3e99f6a0	0.30070972
252	0xbde7d223	-0.11319377
253	0xbdd2f141	-0.10299922
254	0x3e51eaa6	0.20499668
255	0xbe7e89a0	-0.24857187

encoder.enc2.bias f4 [39]
0	0x3d524326	0.05133357
1	0x3d63f8d4	0.055657223
2	0x3b0a45c2	0.0021098708
3	0xbd81ca3d	-0.06337402
4	0x3dd926d0	0.10603106
5	0x3d8e4ec6	0.069486186
6	0xbc98e7c1	-0.018665196
7	0x3d5ccbb4	0.053905204
8	0x3ce6274f	0.028094916
9	0x3dbcd428	0.09220153
10	0x3ddd2830	0.10798681
11	0x3c49bacb	0.012312601
12	0x3d5de827	0.054176476
13	0x3ddca65d	0.10773919
14	0x3d3280d7	0.043579902
15	0x3e0055d8	0.12532747
16	0xbc408772	-0.011751043
17	0x3d978b21	0.073995836
18	0x3d1a485e	0.03766667
19	0x3d80b0db	0.062837325
20	0x3c18898d	0.009310138
21	0x3dd15ac3	0.102223895
22	0x3dff8b3a	0.12477727
23	0xbdc54259	-0.096317954
24	0x3bdbd29f	0.0067084576
25	0x3d9b11fe	0.07571791
26	0x3de3b4f5	0.11118499
27	0x3da73233	0.081638716
28	0x3e0b41f2	0.13599375
29	0x3e172833	0.14761429
30	0x3de87ed5	0.11352316
31	0x3d7e4bd2	0.062084027
32	0xbe06dcdd	-0.1317019
33	0x3db63ee2	0.08898713
34	0x3e056225	0.1302572
35	0xbd7bbcc2	-0.06145931
36	0xbcb94a6c	-0.022618495
37	0x3b7fec21	0.0039050656
38	0x3d335b5d	0.043788303

encoder.enc3.weight f4 [19, 39]
0	0x3e819e02	0.25315863
1	0x3e65daa1	0.22446682
2	0xbc78ba35	-0.015181114
3	0xbeb8d6b2	-0.361013
4	0x3bf1cef7	0.0073794085
5	0xbf792640	-0.9732399
6	0xbf61d118	-0.88209677
7	0x3eaf0dd3	0.34190235
8	0x3e8f4c32	0.2798782
9	0xbd9b4733	-0.075819395
10	0x3e16ed42	0.14738944
11	0x3ea66704	0.3250047
12	0x3dd9e01b	0.10638448
13	0xbf8a6cf0	-1.0814495
14	0x3e8aa091	0.27075627
15	0xbb5f2742	-0.00340505
16	0x3e33dcbc	0.17564672
17	0xbfa489fb	-1.2854608
18	0x3debf5aa	0.11521466
19	0x3dca9652	0.098919526
20	0x3db3e534	0.087839514
21	0xbe7d0792	-0.24709919
22	0x3cf4b902	0.029873375
23	0xbebc299e	-0.367505
24	0xbe5951d3	-0.2122262
25	0xbd12bf57	-0.035827007
26	0xbdee05d9	-0.11622209
27	0x3e4c7bb4	0.19969064
28	0xbfbddddb	-1.483333
29	0x3be1b52a	0.0068880515
30	0x3e8c93b9	0.27456453
31	0x3dd82a4f	0.10554945
32	0x3d90b62f	0.07065999
33	0xbec041ef	-0.37550303
34	0x3e1a385f	0.15060566
35	0x3c2eaed5	0.0106618
36	0xbd499170	-0.049210966
37	0xbda3920a	-0.07986839
38	0xbe56e641	-0.20986272
39	0xbebf5526	-0.3736965
40	0xbe1a5f96	-0.15075526
41	0xbe436f31	-0.19085385
42	0xbfbae6c4	-1.4601674
43	0xbeb47be1	-0.35250762
44	0x3f51a48a	0.8189169
45	0x3f6e5cad	0.9311016
46	0xbd8c3a56	-0.06847064
47	0xbf066aab	-0.5250651
48	0x3da7938c	0.08182439
49	0x3da00043	0.0781255
50	0xbf010e46	-0.50412405
51	0x3f82cfd8	1.0219679
52	0x3ef535a3	0.47892484
53	0xbeb6279e	-0.355771
54	0xbdeeaee5	-0.11654452
55	0x3ec1267a	0.37724668
56	0x3f8a9bae	1.082876
57	0xbe629e0c	-0.22130603
58	0x3e076c15	0.13224824
59	0xbf22fdce	-0.63668525
60	0x3f678efe	0.90452564
61	0x3e037260	0.128366
62	0xbf6a77b1	-0.91588885
63	0x3f328956	0.6974081
64	0xbf57da06	-0.8431705
65	0xbf1d2fa5	-0.61400825
66	0xbe973098	-0.29529262
67	0x3f8ddbba	1.108268
68	0x3ec0d9d7	0.376662
69	0x3f20c1f9	0.6279598
70	0xbeda0ada	-0.42586404
71	0xbfd925e9	-1.6964694
72	0x3f277307	0.6540989
73	0x3f1b5f28	0.6069207
74	0xbfa117ae	-1.2585351
75	0x3f4bfaf1	0.7967978
76	0xbeaa9b97	-0.3332183
77	0xbf6958a7	-0.911509
78	0x3e8c3c66	0.2738983
79	0x3edec755	0.43511453
80	0x3e1af60e	0.15132925
81	0xbe5a7e4e	-0.21337244
82	0x3ea8ad06	0.32944506
83	0xbfa6c488	-1.3028727
84	0xbf583b6d	-0.84465677
85	0xbe98df38	-0.29857802
86	0x3c22ba21	0.009932072
87	0x3dab50ef	0.08365046
88	0x3e5fb81e	0.21847579
89	0x3e8d9b0f	0.27657363
90	0xbe8d9039	-0.27649096
91	0xbfcc0546	-1.5939109
92	0xbe80d9ca	-0.2516616
93	0x3ec85a11	0.39131215
94	0x3e9a82a4	0.30177796
95	0xbfc31389	-1.5240337
96	0x3e89e9ba	0.26936132
97	0x3ec7e90b	0.39044985
98	0x3eb9dc5e	0.3630094
99	0xbf3a13d1	-0.7268649
100	0xbcc8f8ad	-0.02453264
101	0x3de986e2	0.1140268
102	0xbeb8a3a9	-0.36062363
103	0xbd138f1d	-0.036025155
104	0x3e580089	0.21093954
105	0x3ebb1ca3	0.36545286
106	0xbfe4f2b5	-1.7886568
107	0x3e84d504	0.25943768
108	0xbe392b2f	-0.1808288
109	0xbe87878f	-0.2647061
110	0xbf0f0e3f	-0.5588111
111	0xbf7b76dc	-0.9822824
112	0x3e822d72	0.25425297
113	0xbf033563	-0.51253337
114	0xbe330df8	-0.17485797
115	0x3eeb2d46	0.45932978
116	0x3ec3688c	0.381657
117	0x3d52d956	0.0514768
118	0xbf1b1b37	-0.605884
119	0x3c9a9f07	0.018874658
120	0xbf38ae5a	-0.7214104
121	0x3e485e01	0.1956711
122	0x3f005905	0.50135833
123	0x3f35d4f8	0.7102809
124	0x3def0967	0.11671715
125	0xbf00382a	-0.500857
126	0x3e0c9e69	0.13732304
127	0xbd1c2a22	-0.03812612
128	0xbea61a61	-0.32442
129	0x3f64c821	0.8936787
130	0x3f6b3fdd	0.9189432
131	0xbebf74a5	-0.3739368
132	0xbe1553de	-0.14582774
133	0xbe818c45	-0.2530233
134	0x3efeea5b	0.49788174
135	0xbf207fb0	-0.62694836
136	0xbf124fae	-0.5715283
137	0xbee8cc4a	-0.4546836
138	0x3f313ff1	0.6923819
139	0x3ddce3b5	0.10785619
140	0xbf600297	-0.8750395
141	0x3f9317c7	1.1491631
142	0xbfa0b6ce	-1.2555788
143	0xbf5f87ce	-0.87316597
144	0x3ce00b2b	0.027349075
145	0x3fa1ae92	1.26314
146	0x3e9d6e47	0.30748197
147	0x3e815f0e	0.25267833
148	0xbf45f596	-0.7732786
149	0xbf25c44f	-0.6475267
150	0x3edccbb3	0.4312416
151	0x3f1a2be3	0.60223216
152	0xbfa25c4c	-1.2684417
153	0x3f5c9748	0.86168337
154	0xbf1da6c4	-0.6158259
155	0xbf6077ef	-0.87683004
156	0xbe711517	-0.23543201
157	0xbf3427cd	-0.7037323
158	0xbe87c081	-0.26514056
159	0xbfe26388	-1.7686625
160	0xbe31c3cb	-0.17359845
161	0x3f47109f	0.77759737
162	0x3ebca04e	0.36841053
163	0xbea150d5	-0.31506982
164	0xbf3bad5c	-0.733114
165	0xbccc1188	-0.024910703
166	0x3e55471b	0.20827906
167	0xbf082146	-0.5317577
168	0x3f24ad63	0.6432707
169	0x3f375a7c	0.71622443
170	0xbf58e506	-0.8472446
171	0x3e77a579	0.24184217
172	0x3e49bb1c	0.19700283
173	0x3eeca34f	0.46218345
174	0xbf09ea44	-0.53873086
175	0xbb8a5669	-0.0042217267
176	0xbe496bca	-0.19670025
177	0x3f8d9531	1.1061155
178	0xbaa21420	-0.0012365617
179	0xbf821dcc	-1.0165343
180	0x3f8bc50b	1.0919508
181	0xbf83cc06	-1.0296638
182	0xbf4788e2	-0.7794324
183	0xbebd73c4	-0.37002385
184	0x3f348fa3	0.7053167
185	0x3ed7c4af	0.42142245
186	0x3f36cce2	0.71406376
187	0xbf2b0a8b	-0.6681296
188	0xbfd75165	-1.6821715
189	0x3f525a75	0.82169276
190	0x3eac4023	0.33642682
191	0xbfb64530	-1.4239864
192	0x3f11683a	0.5679966
193	0xbf4b6645	-0.79452926
194	0xbf8745c7	-1.0568169
195	0x3ece92e1	0.40346435
196	0x3eaf11fb	0.34193406
197	0x3e6fd87e	0.23422429
198	0xbefd6bf6	-0.4949643
199	0xbe69a43a	-0.22816554
200	0xbfaeca08	-1.3655405
201	0xbf7494c4	-0.955395
202	0x3eae6dac	0.34068048
203	0xbe7ec6de	-0.2488055
204	0x3eceea72	0.40413243
205	0x3eaa3cdb	0.33249554
206	0x3ddd9ca9	0.10820896
207	0xbd29de63	-0.04147185
208	0xbfd97512	-1.6988852
209	0xbde9bda1	-0.11413122
210	0x3d501203	0.050798427
211	0x3ea6b47e	0.3255958
212	0xbf8a70ee	-1.0815713
213	0x3d842b3b	0.06453558
214	0x3b670716	0.0035252026
215	0x3ec19caa	0.37814838
216	0xbf53cbed	-0.8273304
217	0x3ed1ac1b	0.4095162
218	0xbe08856c	-0.13332146
219	0x3db06095	0.086121716
220	0xbbd72a51	-0.006566324
221	0x3e99b589	0.30021313
222	0xbc9e08d9	-0.019291328
223	0xbfc10f61	-1.5082818
224	0xbba9c8f0	-0.0051814243
225	0x3d9689ae	0.07350479
226	0x3ea954b8	0.33072448
227	0xbe22138d	-0.1582777
228	0xbf399b65	-0.7250274
229	0x3e168917	0.14700733
230	0xbf03c17f	-0.51467127
231	0xbe83dad2	-0.25752884
232	0x3de7940a	0.11307533
233	0xbe3a847e	-0.18214604
234	0x3e8c1425	0.2735912
235	0xbedee09c	-0.43530738
236	0xbe8ca0bc	-0.2746638
237	0xbf7717e1	-0.9652081
238	0xbd911aea	-0.070852116
239	0x3f36df69	0.71434647
240	0x3f0e99f5	0.5570367
241	0xbefdb79b	-0.49554142
242	0xbea05b41	-0.3131962
243	0xbe9ac3ec	-0.30227602
244	0x3ec0d860	0.3766508
245	0xbef2a358	-0.47390246
246	0x3f7f53e3	0.99737376
247	0x3f5b7cbb	0.857372
248	0xbf1ca000	-0.6118164
249	0xbe814f68	-0.25255895
250	0x3ea305c6	0.31840342
251	0x3f8f1e1a	1.1181061
252	0xbd9d53cc	-0.076819986
253	0x3e6272c4	0.22114092
254	0xbf0747a0	-0.52843666
255	0x3f4d8e1b	0.8029496

encoder.enc3.bias f4 [19]
0	0x3e124ac4	0.14286333
1	0x3de08a25	0.10963849
2	0x3dbb4055	0.0914313
3	0xbc7cbf8a	-0.015426526
4	0x3de5ee32	0.11227073
5	0x3df43c07	0.11925512
6	0x3d7c540b	0.061603587
7	0x3d3b268c	0.045691058
8	0xbc41506c	-0.011798959
9	0x3dff24cd	0.12458191
10	0x3bb08434	0.0053868536
11	0x3e0e53eb	0.138992
12	0xbb5acd52	-0.003338654
13	0x3df5834b	0.11987933
14	0x3d27ad8c	0.04093699
15	0x3c580331	0.013184355
16	0x3d533c4f	0.051571187
17	0x3cf0bd2b	0.029387077
18	0x3d733375	0.059375245

encoder.enc4.weight f4 [7, 19]
0	0xbebbcb39	-0.36678484
1	0x3f24685f	0.6422176
2	0xbf1a6bd1	-0.60320765
3	0x3f7f6605	0.99765044
4	0x3f77dce7	0.96821445
5	0x3e79320b	0.24335496
6	0x3f25e712	0.6480571
7	0x3f91fed3	1.1405891
8	0xbe37d78c	-0.17953318
9	0xbf255516	-0.64582956
10	0x3e95c250	0.2924981
11	0xbe9cf6cc	-0.3065704
12	0x3ebf8991	0.37409642
13	0xbebc5b4f	-0.36788413
14	0xbe7b5ef5	-0.24547942
15	0xbf0ea2fd	-0.5571745
16	0x3f87c600	1.06073
17	0x3ea07399	0.31338194
18	0x3f14ca71	0.581214
19	0xbe8c39a5	-0.2738773
20	0xbf5ea53f	-0.86970896
21	0xbcea3191	-0.028588088
22	0xbf849d41	-1.036049
23	0xbee1da67	-0.4411194
24	0x3e577871	0.21042039
25	0xbf818e05	-1.0121466
26	0xbef9f935	-0.48822942
27	0x3ec61386	0.3868677
28	0x3f0eefe7	0.5583481
29	0x3da3989a	0.07988091
30	0x3ec7c137	0.390146
31	0x3e25e331	0.16199948
32	0x3ecfb98b	0.40571246
33	0x3e1923d3	0.14955072
34	0x3f29aa25	0.66275245
35	0xbf7cdb2c	-0.9877193
36	0x3dd16b9f	0.10225605
37	0xbf87ea63	-1.0618404
38	0x3f12c3cf	0.5733003
39	0xbf39e446	-0.7261394
40	0x3f16b3f7	0.58868355
41	0xbf2518a5	-0.6449073
42	0xbf24d0ef	-0.6438131
43	0x3d9f0e41	0.077663906
44	0xbf809eb3	-1.0048431
45	0xbe81ba3b	-0.25337395
46	0x3e178ef8	0.14800632
47	0x3e3c1391	0.18366839
48	0x3db29e4f	0.08721601
49	0x3f0164b3	0.5054428
50	0xbe99d1c0	-0.3004284
51	0x3f11b532	0.5691711
52	0x3e70ec19	0.23527564
53	0x3ea5f2ab	0.32411703
54	0xbf93f170	-1.1558056
55	0xbdf66ff6	-0.120330736
56	0xbf54227d	-0.82865125
57	0xbf12ca3f	-0.57339853
58	0x3faa51e4	1.3306241
59	0xbf039d2f	-0.5141172
60	0x3f039e7d	0.5141371
61	0x3f8e73bc	1.1129069
62	0xbef70f8a	-0.48254043
63	0x3faa436c	1.3301826
64	0x3f715244	0.9426615
65	0x3da1bad3	0.07896962
66	0xbe11e0b8	-0.1424588
67	0xbf14ca3a	-0.58121073
68	0xbddb681f	-0.10713219
69	0x3e43aceb	0.19108932
70	0x3b803fa0	0.0039138347
71	0xbdda1a13	-0.106495045
72	0x3dcf144b	0.101112925
73	0x3f6a6ca1	0.91572005
74	0x3e9450aa	0.28967792
75	0x3f3d9206	0.7405094
76	0xbdedaf50	-0.11605704
77	0x3f8a5526	1.0807235
78	0xbe2fd329	-0.17170395
79	0x3f921329	1.1412097
80	0x3fab4aec	1.3382239
81	0xbee01eba	-0.43773443
82	0x3fac166f	1.3444346
83	0x3fa43d9c	1.2831302
84	0xbedd7fb4	-0.43261492
85	0x3dd4d671	0.10392464
86	0xbf184664	-0.5948241
87	0x3e19c35e	0.15015933
88	0xbf00c468	-0.5029969
89	0x3d283dc0	0.041074514
90	0xbe19946c	-0.14998025
91	0xbf1aa76e	-0.6041173
92	0x3f68a890	0.90882206
93	0xbc065828	-0.008199729
94	0x3f1aae3c	0.6042211
95	0x3ec9b710	0.39397478
96	0xbf12b0ee	-0.57301223
97	0x3ed8ff2e	0.42382187
98	0xbf4ffa64	-0.8124144
99	0xbf73b8d6	-0.9520391
100	0xbc7c8077	-0.015411488
101	0xbf08f747	-0.53502315
102	0xbf87689e	-1.0578802
103	0xbd1a1d46	-0.037625574
104	0x3e959e6c	0.2922243
105	0x3ec2d944	0.38056386
106	0x3d82ed5f	0.06392931
107	0xbdfa5033	-0.12222328
108	0x3f19fb3c	0.6014898
109	0x3e9e1c15	0.308808
110	0x3ef320ca	0.47485954
111	0xbf7a8bea	-0.9786974
112	0x3ef12c9f	0.47104356
113	0xbf0a1a90	-0.5394678
114	0xbd8d7657	-0.06907337
115	0x3ea1aeef	0.31578776
116	0xbeead8fb	-0.45868668
117	0x3d82f4c2	0.0639434
118	0x3eb3fdf7	0.35154697
119	0xbe30e5a0	-0.17275095
120	0x3f9043ea	1.1270726
121	0x3f61f6c7	0.8826718
122	0x3f015b85	0.5053027
123	0x3d9bc5b9	0.07606072
124	0x3e927cb4	0.28610766
125	0xbde5b8e7	-0.11216908
126	0xbf1c85c0	-0.61141586
127	0xbf2063c3	-0.62652224
128	0xbd9c40fb	-0.076295815
129	0xbf0783ad	-0.52935296
130	0x3e026b7b	0.12736313
131	0xbed52f18	-0.41637492
132	0x3f4a5376	0.790336

encoder.enc4.bias f4 [7]
0	0xbc62b744	-0.013837639
1	0x3c3c0126	0.011474883
2	0x3b8b1fce	0.004245735
3	0x3c1cc06b	0.00956736
4	0xbaee3046	-0.0018172346
5	0xbcc2b151	-0.023766192
6	0x3c90b6c5	0.017665276

decoder.dec1.weight f4 [19, 7]
0	0x3f298c18	0.6622939
1	0xbe72f2c3	-0.23725419
2	0xbf683125	-0.9069999
3	0x3e833e76	0.2563359
4	0x3f41ed5b	0.757528
5	0x3e2396e5	0.1597553
6	0xbc8f3a31	-0.017483803
7	0xbf69f0d3	-0.91383094
8	0xbf39d2ba	-0.7258717
9	0xbef6acd0	-0.4817872
10	0xbf376079	-0.7163158
11	0xbf259d6a	-0.6469332
12	0x3c26f402	0.010190012
13	0xbf00cc68	-0.503119
14	0x3f118e7f	0.56858057
15	0x3f3384a5	0.70124274
16	0x3eb38760	0.3506422
17	0x3eb9a5d7	0.36259338
18	0xbf44c4fb	-0.7686307
19	0xbf0d027c	-0.55081916
20	0x3e657ce4	0.22410923
21	0xbef5c68f	-0.4800305
22	0xbedfecb6	-0.43735284
23	0x3f54a4d7	0.83064026
24	0xbd890d88	-0.06692034
25	0xbe734924	-0.2375837
26	0xbf4ab7fc	-0.7918699
27	0x3e627538	0.22115028
28	0x3e4b9d4f	0.19884227
29	0xbf4aeb25	-0.7926505
30	0xbe85e89f	-0.26154038
31	0xbf490f3e	-0.7853888
32	0xbefa2fe6	-0.4886467
33	0xbe97048d	-0.2949566
34	0xbee4291c	-0.44562614
35	0x3ea3f2cb	0.32021174
36	0xbf55c77c	-0.83507514
37	0xbf671931	-0.90272814
38	0x3ebb6898	0.36603236
39	0xbe1cd4ea	-0.15315595
40	0x3ed4c38f	0.4155545
41	0x3d0f2e7b	0.034956437
42	0xbf74a776	-0.95568025
43	0xbee484ee	-0.44632667
44	0x3f0e62c2	0.5561944
45	0x3e31a103	0.17346577
46	0x3ec4b718	0.3842094
47	0xbf2a44b3	-0.66511077
48	0xbe2706f4	-0.16311246
49	0x3f2639b4	0.649318
50	0x3f4bdcd1	0.79633814
51	0xbe8a9e5e	-0.2707395
52	0x3d55aafd	0.05216502
53	0x3f249be1	0.6430035
54	0xbf2c583d	-0.6732214
55	0x3f524514	0.82136655
56	0x3dd30ac5	0.103047885
57	0x3eef7f31	0.46776727
58	0xbf19f250	-0.60135365
59	0x3ef27fa8	0.4736302
60	0xbc128e2b	-0.008945028
61	0xbf24b421	-0.64337355
62	0x3f3867f5	0.72033626
63	0xbdc504dd	-0.09620068
64	0xbe894a8d	-0.2681469
65	0xbf2f51b7	-0.6848406
66	0x3ee9ad88	0.45640206
67	0x3f0d0c80	0.550972
68	0xbe48b498	-0.19600141
69	0x3eeaf6bb	0.45891365
70	0xbe6d7343	-0.231885
71	0xbd6fe0eb	-0.058564108
72	0xbe5276ad	-0.20553084
73	0xbeb782a2	-0.35841852
74	0x3f3c9de5	0.7367843
75	0xbe535734	-0.20638734
76	0x3e6ecfed	0.23321505
77	0xbeb4cd6a	-0.35312968
78	0x3dccd2a7	0.10001116
79	0x3ec79fda	0.38989145
80	0x3f3d268e	0.73886955
81	0xbf1af38e	-0.60527885
82	0x3efb5409	0.4908755
83	0xbf093d14	-0.5360882
84	0xbf40a87f	-0.75257105
85	0x3eb17f92	0.3466764
86	0x3ea0556b	0.3131517
87	0xbf51f2d8	-0.82011175
88	0x3e10b400	0.14131165
89	0x3e9e6038	0.30932784
90	0x3e52faee	0.20603535
91	0xbec74c3c	-0.3892535
92	0xbf3d90e7	-0.7404923
93	0x3f3d326b	0.73905057
94	0xbe7efc85	-0.24901016
95	0x3d91aeae	0.07113396
96	0x3d7aeff2	0.061263986
97	0xbeaf5485	-0.3424417
98	0xbf508f68	-0.8146882
99	0x3eacf1c8	0.33778214
100	0x3f0b39f6	0.54385316
101	0xbf3ca1ae	-0.73684204
102	0x3eb72460	0.3576994
103	0x3e6f9f46	0.23400602
104	0xbe400131	-0.18750454
105	0x3ecad419	0.39614943
106	0x3f5df7ec	0.86706424
107	0x3f0d1ffc	0.5512693
108	0xbf3915e4	-0.7229903
109	0xbf4050c5	-0.75123245
110	0xbed7030d	-0.41994515
111	0xbe2c62dc	-0.16834587
112	0x3f49d4bb	0.78840226
113	0x3f32ce9d	0.69846517
114	0xbd996d82	-0.0749159
115	0xbe978b76	-0.29598588
116	0x3efdc902	0.4956742
117	0x3e907af2	0.282188
118	0x3ed9c6ac	0.42534387
119	0xbe634f02	-0.22198108
120	0x3f2a9f63	0.66649455
121	0x3ebfb9da	0.3744648
122	0x3e5f3fc0	0.21801662
123	0xbf2acd1a	-0.6671921
124	0x3f104b8f	0.56365293
125	0x3e220434	0.15821916
126	0x3f2ad508	0.6673131
127	0x3f6e540d	0.93097
128	0x3ef05207	0.46937582
129	0x3f2f2d89	0.68428856
130	0xbf539116	-0.8264326
131	0xbefe73d9	-0.4969776
132	0x3f40e607	0.75350994

decoder.dec1.bias f4 [19]
0	0x3b5ff7eb	0.003417487
1	0xba8d0b22	-0.0010760764
2	0xbd10bbf8	-0.03533551
3	0x3a85f0aa	0.0010218818
4	0xbc8327ad	-0.01601013
5	0xbd271c4a	-0.040798463
6	0xbcb0a4ba	-0.021562923
7	0x3d716b7d	0.0589404
8	0x3d4299b5	0.047509868
9	0xbd88e85b	-0.06684943
10	0x3d87d152	0.066317216
11	0x3c18b976	0.009321561
12	0xbcacaa21	-0.021077218
13	0xbcc41079	-0.023933636
14	0xbb9b262b	-0.0047347746
15	0xbc843783	-0.016139751
16	0xbd356c1f	-0.044292565
17	0xbd072195	-0.03299101
18	0xbc442909	-0.011972674

decoder.dec2.weight f4 [39, 19]
0	0x3ee0cd49	0.4390662
1	0x3ea69d9b	0.32542118
2	0xbd8e9e06	-0.06963734
3	0x3e80927f	0.25111768
4	0x3dc4c83d	0.09608505
5	0xbd06137f	-0.032733437
6	0x3ec12b62	0.3772841
7	0x3e6750d3	0.22589426
8	0xbd989191	-0.074496396
9	0xbf1108a9	-0.5665384
10	0xbe1374d1	-0.1440003
11	0x3f1bd5d1	0.6087313
12	0xbe9a6026	-0.3015148
13	0x3edbc0a0	0.429204
14	0xbe561f8a	-0.20910469
15	0xbe11223c	-0.14173216
16	0x3e60e996	0.21964106
17	0xbe889c17	-0.26681587
18	0x3efcc517	0.49369118
19	0xbeaafc77	-0.3339574
20	0x3e5bc62d	0.21462317
21	0x3ece3f68	0.4028275
22	0xbd362e99	-0.044478033
23	0x3ef9d84c	0.48797834
24	0xbd4ebb97	-0.05047187
25	0xbf0df39d	-0.5544985
26	0x3efcc2ed	0.49367467
27	0xbdcb0d52	-0.0991465
28	0xbeeeb063	-0.46618947
29	0x3e8be1f8	0.27320838
30	0xbea41394	-0.32046187
31	0x3e90c795	0.2827727
32	0x3e010e93	0.12603216
33	0x3ed73466	0.42032164
34	0x3ecfbfe5	0.4057609
35	0x3ec3e9ab	0.38264212
36	0x3e83f6d4	0.25774252
37	0x3ec39e3e	0.38206667
38	0x3d6c85fd	0.05774497
39	0x3eb9db89	0.36300305
40	0x3e265448	0.16243088
41	0x3baa6d59	0.0052010235
42	0x3e3db48b	0.18525903
43	0x3edddd88	0.43333077
44	0xbd2aa467	-0.041660693
45	0xbe8f6088	-0.28003335
46	0xbd57e706	-0.052710555
47	0xbe128f72	-0.14312533
48	0xbdf147af	-0.11781251
49	0xbe5fb9a6	-0.21848163
50	0xbdeb119a	-0.114779666
51	0x3edaebed	0.42758122
52	0xbe79e1fb	-0.24402611
53	0x3eba9d42	0.36448103
54	0x3ee149b4	0.44001544
55	0x3ef32a91	0.47493413
56	0x3d82d637	0.063885145
57	0xbebabef6	-0.36473817
58	0x3eb6fffd	0.3574218
59	0xbdf1fbad	-0.118155815
60	0x3e4a9285	0.19782455
61	0xbf08a105	-0.53370696
62	0x3ecb3a02	0.39692694
63	0x3dbc2348	0.09186417
64	0xbe840dc9	-0.25791767
65	0x3e49bcea	0.19700971
66	0xbef8c1f7	-0.48585483
67	0xbef8b1c3	-0.4857312
68	0xbece8fe0	-0.40344143
69	0x3ed60ea8	0.41808057
70	0x3f083459	0.53204876
71	0xbe4b597d	-0.19858356
72	0x3ef008f1	0.46881822
73	0x3ef462cf	0.47731635
74	0x3ecd9f4a	0.4016059
75	0xbe3f94a8	-0.18709052
76	0xbefa9907	-0.48944876
77	0xbead20f0	-0.33814192
78	0xbd97a24f	-0.07404005
79	0xbe81f8f4	-0.2538525
80	0xbe19864a	-0.14992633
81	0xbea99f18	-0.3312919
82	0xbf0b614b	-0.5444533
83	0xbe615b14	-0.220074
84	0x3df5e2ad	0.120061256
85	0x3ec44361	0.38332656
86	0xbe9b9dd8	-0.30393863
87	0xbe46a580	-0.1939907
88	0xbe95ebf8	-0.29281592
89	0xbe6e3391	-0.23261859
90	0xbe47a54b	-0.19496648
91	0xbed27baa	-0.41109973
92	0x3e2eb362	0.17060617
93	0x3cd0b3f5	0.025476435
94	0xbef2c8aa	-0.4741872
95	0xbe03face	-0.12888643
96	0xbf0e4f38	-0.5558963
97	0x3d47dc88	0.0487943
98	0xbdd76177	-0.10516637
99	0x3f04849b	0.5176484
100	0xbe8dc30f	-0.2768788
101	0x3ebbc3b3	0.36672744
102	0x3ef6281f	0.48077485
103	0x3ed3fa0d	0.4140171
104	0xbf09171d	-0.53550893
105	0xbef8e94a	-0.48615485
106	0xbf0f7d38	-0.56050444
107	0xbe83384d	-0.25628892
108	0xbedbd4fd	-0.42935935
109	0xbf08eb9b	-0.53484505
110	0xbe71a1ae	-0.23596832
111	0x3eb51d2c	0.3537382
112	0x3f072c92	0.52802384
113	0x3d84fada	0.06493159
114	0x3e0bdab1	0.13657643
115	0xbefaf294	-0.49013197
116	0xbee9990e	-0.45624584
117	0x3f754f61	0.9582425
118	0x3e64513e	0.22296616
119	0xbea2b73f	-0.3178043
120	0x3e8ebef2	0.27880055
121	0x3d5d212a	0.053986706
122	0xbea98864	-0.3311187
123	0xbe3daaec	-0.18522233
124	0xbe201217	-0.156319
125	0xbcafb827	-0.021450115
126	0x3ea22cd9	0.3167484
127	0x3da61a5f	0.08110499
128	0xbd7ef21f	-0.062242623
129	0x3e8d0062	0.27539355
130	0x3e8c34ab	0.27383932
131	0xbe808a20	-0.2510538
132	0xbf0565ab	-0.5210826
133	0xbed90d44	-0.42392933
134	0x3ee37435	0.44424596
135	0xbe6d920b	-0.23200242
136	0xbf56ed27	-0.83955616
137	0xbe0dd005	-0.13848884
138	0x3e1520c7	0.14563285
139	0xbf869512	-1.0514243
140	0xbe5b707c	-0.21429628
141	0x3e2c6501	0.16835405
142	0x3eb608e5	0.3555366
143	0xbd252421	-0.04031766
144	0xbe0ffe50	-0.14061856
145	0x3ead9575	0.3390309
146	0x3e507430	0.20356822
147	0xbd8cf61e	-0.06882881
148	0x3e01d1b8	0.12677658
149	0x3df41fe4	0.11920145
150	0x3e3bdd5e	0.18346164
151	0xbe6a5c3d	-0.22886749
152	0x3ea6d1a5	0.3258182
153	0x3e19b8a0	0.15011835
154	0xbecb7a0e	-0.39741558
155	0x3e713d52	0.23558548
156	0x3ec10a4c	0.37703168
157	0xbf0f77a9	-0.5604196
158	0x3ef4c24a	0.4780448
159	0x3dc81dc5	0.09771303
160	0x3dcfa23d	0.10138366
161	0xbe5f4d6d	-0.2180688
162	0x3da97693	0.08274569
163	0x3c80a522	0.015703741
164	0x3dfbee4c	0.12301311
165	0x3ef69115	0.48157564
166	0x3e7a18de	0.24423549
167	0xbef8ef6e	-0.4862017
168	0x3e6cde8c	0.2313177
169	0xbe4b0e84	-0.19829756
170	0xbef5d138	-0.48011184
171	0x3ccf3e44	0.025298245
172	0x3e389bef	0.18028234
173	0xbec4a137	-0.38404247
174	0x3eccb50f	0.39981887
175	0xbe8285c7	-0.2549269
176	0xbe8a52ca	-0.27016288
177	0xbdb640ae	-0.088990554
178	0xbe97c7ac	-0.29644525
179	0x3ecbaea7	0.39781687
180	0x3d981afe	0.07427023
181	0x3e6eb842	0.23312476
182	0x3f0b606a	0.5444399
183	0x3cc28b89	0.023748176
184	0x3de7b1e0	0.11313224
185	0x3df6867c	0.120373696
186	0xbecd4059	-0.40088156
187	0xbd97369f	-0.07383465
188	0xbeeac71b	-0.4585503
189	0xbd3b13b5	-0.04567309
190	0xbf03d66a	-0.51499045
191	0xbec4e78e	-0.38457912
192	0xbe2c7fc0	-0.16845608
193	0xbe7aad99	-0.24480285
194	0x3e8de3d0	0.2771287
195	0xbeb53458	-0.35391498
196	0xbfcd5307	-1.6040963
197	0x3ef7acdc	0.4837407
198	0xbef2a006	-0.47387713
199	0xbe1f296b	-0.15543143
200	0x3f07974e	0.5296525
201	0x3ec882e5	0.39162365
202	0x3d513f91	0.051086012
203	0xbe606d5f	-0.21916722
204	0x3dfc7853	0.123276375
205	0x3ea58b97	0.3233306
206	0x3f00e6d2	0.50352204
207	0xbef97e80	-0.48729324
208	0x3e5f642b	0.21815555
209	0xbe23a07a	-0.15979186
210	0xbf0083ca	-0.50201094
211	0xbaf2afbe	-0.001851551
212	0x3f49fa8b	0.78897923
213	0xbedd8b68	-0.4327042
214	0x3e6bd62f	0.23030923
215	0xbeeda612	-0.46415764
216	0x3e327d3d	0.17430587
217	0x3e0dea24	0.13858849
218	0xbf0bdb7a	-0.5463177
219	0xbe2d1a1f	-0.16904496
220	0x3ed54c30	0.4165969
221	0xbe8d83e3	-0.27639684
222	0x3daa06d2	0.08302082
223	0xbda9b887	-0.08287149
224	0x3e1391f2	0.14411142
225	0xbcad863a	-0.021182168
226	0x3e672ec5	0.22576435
227	0xbee58021	-0.44824317
228	0xbe644f91	-0.22295977
229	0x3e008514	0.12550765
230	0xbdcc9d4b	-0.09990939
231	0x3dfb8a0d	0.122821905
232	0x3d21a8c7	0.0394676
233	0x3ebe8faf	0.37218997
234	0x3fcd47e1	1.6037561
235	0xbeaab412	-0.33340508
236	0xbd45cdb3	-0.048291873
237	0xbecc1552	-0.39860016
238	0x3de30881	0.11085606
239	0x3caa0288	0.02075316
240	0x3eb37f58	0.35058093
241	0xbed5909a	-0.41711885
242	0x3ee7e2ff	0.45290372
243	0xbe9428a0	-0.28937244
244	0x3e8e1c8d	0.27756158
245	0xbf01ceef	-0.5070638
246	0x3d4769cc	0.04868488
247	0x3e58ee02	0.21184543
248	0xbee14f27	-0.440057
249	0x3ddcc211	0.10779203
250	0xbf49e9b1	-0.7887221
251	0xbcff7b27	-0.031186653
252	0x3ebb5188	0.3658564
253	0xbe9a6219	-0.30152968
254	0xbeadf29c	-0.3397416
255	0xbcf73031	-0.030174347

decoder.dec2.bias f4 [39]
0	0x3c94cf61	0.018165292
1	0xbcd7c612	-0.026339564
2	0xbc681ddd	-0.014167276
3	0x3d04c9c9	0.032419
4	0x00000000	0.0
5	0xbc0c9a2a	-0.008581677
6	0x3cafcfda	0.021461416
7	0xbb8795a4	-0.0041377116
8	0xbda1b823	-0.078964494
9	0xbc602aed	-0.013682109
10	0xbd6d8367	-0.057986643
11	0x3d5798e3	0.05263604
12	0x3ba84e04	0.0051362533
13	0xbd6303f2	-0.055423684
14	0xbcdf6c7d	-0.02727341
15	0x3c4faea6	0.012675917
16	0x3b262405	0.002535106
17	0xbc9ab784	-0.018886335
18	0xbd02d958	-0.031945556
19	0x3d96965c	0.073528975
20	0x3c9676b8	0.018367156
21	0x3c7854a9	0.015156903
22	0xb9933ef6	-0.00028084934
23	0x3c30f1df	0.010799854
24	0xbcac0a31	-0.021000953
25	0x3c8ff3cc	0.017572306
26	0xbbad76f2	-0.0052937204
27	0x3c041ec3	0.008063975
28	0xbc96d02f	-0.018409817
29	0xbc2bb5af	-0.010480328
30	0xb9e209e2	-0.00043113442
31	0x3a8e56ac	0.001085957
32	0xbd228a19	-0.03968248
33	0x3b25e496	0.002531325
34	0xbcac0af5	-0.021001318
35	0x3e04a61e	0.12953994
36	0x3d36e0a8	0.044647843
37	0x3d42f26f	0.047594484
38	0xbc6986bb	-0.014253314

decoder.dec3.weight f4 [58, 39]
0	0x3e54168b	0.20711724
1	0x3d952042	0.07281543
2	0xbc903206	-0.017601978
3	0x3da39955	0.0798823
4	0x3e48f54f	0.19624828
5	0x3c42ba3e	0.011885224
6	0xbf411361	-0.75420195
7	0x3ea704e1	0.3262091
8	0x3ec340bf	0.38135335
9	0xbed0ba7d	-0.4076728
10	0x3cca51da	0.024697233
11	0xbeb62566	-0.35575408
12	0x3e1e028d	0.1543066
13	0xbead5d89	-0.33860424
14	0xbec7e869	-0.39044502
15	0xbdf35fcc	-0.11883506
16	0x3e01c40f	0.12672447
17	0x3eabf9a0	0.33588886
18	0x3e9ad894	0.3024336
19	0x3dd72882	0.10505773
20	0xbe040958	-0.1289419
21	0x3e94d91f	0.290719
22	0x3d3f1ff7	0.046661343
23	0xbf42b06c	-0.7605045
24	0xbdf55821	-0.119797
25	0xbe12111b	-0.14264338
26	0x3ec323c5	0.38113227
27	0x3df9b85e	0.121933684
28	0xbf016498	-0.5054412
29	0xbdedd96d	-0.11613736
30	0xbdf1d772	-0.11808671
31	0xbe15dfc8	-0.14636147
32	0xbdc41ac6	-0.09575419
33	0xbeb605ff	-0.3555145
34	0x3e61c95c	0.22049469
35	0x3b3cda1a	0.0028816522
36	0xbd6f88e2	-0.05848015
37	0x4009221d	2.142707
38	0xbe13ffce	-0.1445305
39	0xba5db935	-0.0008458079
40	0x3eab88a4	0.33502686
41	0x3e2a43f0	0.16627479
42	0x3d57b111	0.052659098
43	0x3d93295f	0.07185625
44	0xbe8c342d	-0.27383557
45	0x3f46abdf	0.77606004
46	0xbe9a277e	-0.30108255
47	0xbdc1f53f	-0.09470605
48	0x3e80fae5	0.25191417
49	0x3eb5f143	0.3553563
50	0x3e8796c1	0.26482204
51	0xbf9337c9	-1.1501399
52	0xbeace222	-0.33766276
53	0x3e64b38e	0.2233412
54	0x3dec3dac	0.115352005
55	0xbe701d78	-0.23448741
56	0x3e4cae17	0.19988285
57	0xbe2343ca	-0.15943828
58	0xbe8ee2f5	-0.2790753
59	0xbe1a52d6	-0.15070662
60	0xbe511b17	-0.2042049
61	0x3e2cdf47	0.16882049
62	0xbfbc059d	-1.4689213
63	0x3e4cdca6	0.20006046
64	0x3e85d8d9	0.26142004
65	0xbe754b39	-0.23954476
66	0xbecb49b9	-0.39704683
67	0x3e078210	0.13233209
68	0xbe78387b	-0.24240296
69	0x3e246c82	0.16057017
70	0x3beb5ee7	0.007182944
71	0xbea76aa4	-0.32698548
72	0x3e2d292d	0.16910239
73	0xbdc178d3	-0.094468735
74	0xbe83012b	-0.2558683
75	0xbe99c019	-0.3002937
76	0x3f893044	1.0717854
77	0x3eb2ad74	0.3489796
78	0x3e82e7ca	0.25567466
79	0xbebf32b7	-0.3734338
80	0x3e43fb68	0.19138873
81	0x3de8c694	0.11366001
82	0x3d865624	0.06559399
83	0xbec6a919	-0.38800886
84	0xbcb6c209	-0.02230932
85	0x3eae72aa	0.34071857
86	0x3eee5f70	0.46557188
87	0xbd806628	-0.06269485
88	0xbda03699	-0.07822914
89	0xbd3ded61	-0.04636896
90	0xbea2a067	-0.31763002
91	0x3e88438a	0.26614028
92	0xbeb5acd0	-0.35483408
93	0x3e2ea28c	0.17054194
94	0xbe8b1dc5	-0.2717115
95	0xbe7c5c75	-0.24644645
96	0x3d6619a4	0.056176797
97	0x3e02c117	0.1276897
98	0x3e758fa3	0.23980574
99	0x3ec4ea83	0.38460168
100	0x3e6fb413	0.23408537
101	0xbe02af94	-0.1276229
102	0xbd190f57	-0.037368145
103	0xbeab9aa8	-0.3351643
104	0x3e3ba12f	0.18323205
105	0x3e4e64b5	0.20155604
106	0x3edb21e7	0.42799303
107	0xbeb336a1	-0.35002616
108	0xbdbe9800	-0.093063354
109	0xbe8942f5	-0.26808897
110	0x3e9d982c	0.3078016
111	0xbe7f3dcb	-0.24925916
112	0x3e730c64	0.23735195
113	0xbec8c6c4	-0.39214146
114	0xbe8544d4	-0.26029074
115	0xbda86762	-0.08222844
116	0xbc608e7f	-0.013705849
117	0x3d0728cf	0.032997902
118	0x3e73a447	0.23793136
119	0xbdc2151b	-0.09476682
120	0xbe971c73	-0.29513893
121	0xbcfb09e2	-0.03064436
122	0x3d88687e	0.06660555
123	0xbd68a406	-0.05679705
124	0x3eb572f5	0.35439268
125	0x3e5225d3	0.20522241
126	0xbd7d0cde	-0.06177985
127	0x3d61d918	0.055138677
128	0xbeaf4e01	-0.342392
129	0x3e825378	0.25454307
130	0x3e195fc2	0.14977935
131	0xbe04e619	-0.129784
132	0xbdb586f5	-0.08863632
133	0x3e80bd12	0.2514425
134	0xbc82cfb5	-0.015968183
135	0xbe20b7b8	-0.15695083
136	0x3debd595	0.11515347
137	0x3c8a1c73	0.016859269
138	0x3e52ae16	0.20574221
139	0xbcda3d81	-0.026640655
140	0x3e447961	0.19186927
141	0xbe97f919	-0.29682234
142	0x3e616a92	0.2201331
143	0x3eaeb87a	0.3412512
144	0xbdaff2fc	-0.085912675
145	0xbe796543	-0.24355035
146	0xbe2ed233	-0.17072372
147	0x3e973fdf	0.29540917
148	0xbdead16c	-0.11465725
149	0x3d34e476	0.04416319
150	0xbed4146c	-0.4142183
151	0xbe85c06b	-0.26123366
152	0x3e94daf8	0.2907331
153	0x3e858ec5	0.26085487
154	0xbe5c1afc	-0.21494669
155	0xbd0626a4	-0.032751694
156	0xbe446321	-0.1917844
157	0xbe07b18d	-0.13251324
158	0xbe4338c2	-0.1906462
159	0xbde0dafe	-0.109792694
160	0x3d7929d7	0.060830917
161	0x3ebcc051	0.36865476
162	0xbe673776	-0.2257975
163	0x3de2dc19	0.110771365
164	0xbe71cb47	-0.236127
165	0xbe911092	-0.28332955
166	0x3d120294	0.03564699
167	0x3c6d3c54	0.014479715
168	0x3e21582e	0.15756294
169	0xbecc03b5	-0.39846578
170	0xbec6ecba	-0.38852483
171	0xbd782f17	-0.060591783
172	0x3e1993a2	0.14997724
173	0x3e91fd49	0.28513554
174	0xbe51be2b	-0.204827
175	0xbec1e028	-0.3786633
176	0x3e465a07	0.1937028
177	0xbec7fcfb	-0.39060196
178	0x3e485a7f	0.19565772
179	0xbe94a6c3	-0.2903348
180	0xbe9368f0	-0.28790998
181	0x3eaeb12f	0.34119555
182	0xbe18f5db	-0.14937536
183	0x3dc79269	0.097447224
184	0xbec2a7a3	-0.38018522
185	0x3e67a7ac	0.22622555
186	0xbe8361c7	-0.25660536
187	0xbd63030f	-0.05542284
188	0xbe92eb74	-0.2869526
189	0xbd82f5bb	-0.063945256
190	0xbe01cea2	-0.1267648
191	0x3ea15723	0.31511793
192	0xbe8d28dc	-0.27570236
193	0x3e6e22d4	0.23255473
194	0xbd8c5fd0	-0.06854212
195	0xbf662224	-0.89895844
196	0x3e76b553	0.24092607
197	0x3bc9c26e	0.006157211
198	0xbe3a4875	-0.18191703
199	0xbd3ee444	-0.04660441
200	0x3ea071df	0.31336877
201	0xbe2e69da	-0.17032567
202	0xbeb0d446	-0.34536952
203	0x3eaf7f91	0.34277013
204	0xbe158c8f	-0.146044
205	0x3dba10d7	0.09085243
206	0xbed456d8	-0.41472507
207	0x3f7c6357	0.9858908
208	0x3e57bd54	0.21068317
209	0x3e98687c	0.29767215
210	0xbea78fbc	-0.32726848
211	0x3eba313b	0.36365685
212	0x3e777c60	0.24168539
213	0x3dd74410	0.10511029
214	0x3daeaa64	0.08528593
215	0x3e7f4ec7	0.24932395
216	0x3e9bf040	0.30456734
217	0xbea5fb95	-0.32418504
218	0x3e3820af	0.17981218
219	0x3ca19426	0.019723963
220	0xbe7a759f	-0.24458931
221	0xbe3828b8	-0.17984283
222	0xbbdc9e71	-0.006732755
223	0x3eb93da6	0.36179847
224	0xbde078bd	-0.10960529
225	0xbeab8815	-0.3350226
226	0xbddac9ce	-0.106830224
227	0x3e1949f0	0.14969611
228	0x3daeb545	0.08530668
229	0x3e4fc84b	0.2029125
230	0x3e5cdf77	0.2156962
231	0x3e4fc9d5	0.20291837
232	0xbdfe5a7d	-0.12419603
233	0xbe04565d	-0.1292357
234	0xbf2c70bc	-0.6735952
235	0x3dee7132	0.11642684
236	0x3e62f964	0.22165447
237	0xbea8039e	-0.3281526
238	0xbe6f1ec8	-0.23351586
239	0x3af48edd	0.0018658299
240	0x3f320871	0.6954413
241	0xbbffd3ea	-0.0078072445
242	0xbdb052b7	-0.086095266
243	0x3cf33987	0.029690517
244	0x3eb4ce2f	0.35313556
245	0x3e7df5f3	0.24800853
246	0xbfc1c83e	-1.5139234
247	0xbdb55f18	-0.08856028
248	0xbe1b4f8c	-0.15167063
249	0xbd8e1764	-0.06938055
250	0x3da0452d	0.07825694
251	0xbdd4dfb4	-0.103942305
252	0x3d92cf1c	0.07168409
253	0xbed41b88	-0.41427255
254	0xbdcbb63a	-0.09946866
255	0xbc87e522	-0.016588751

decoder.dec3.bias f4 [58]
0	0xbd21c18e	-0.03949123
1	0xbb21e3b3	-0.002470237
2	0xbb8a3a2f	-0.004218362
3	0xbc21fe28	-0.009887256
4	0xbcf0d682	-0.02939916
5	0xbd5a3ec4	-0.053282514
6	0x3ced468a	0.0289643
7	0xbd042987	-0.032266166
8	0xbcd1854a	-0.025576252
9	0xbc19902c	-0.009372752
10	0xbd9e2e7f	-0.07723712
11	0xbc517b04	-0.012785677
12	0x3d8f81d1	0.070071824
13	0x3db5f07a	0.08883758
14	0xbc33e70c	-0.010980379
15	0x3d03cca2	0.032177575
16	0xbbd3b72d	-0.0064610452
17	0x3ad25bcf	0.001604909
18	0xbc9b3f41	-0.01895106
19	0xbc9b759e	-0.018976983
20	0xbbf97d8f	-0.0076138447
21	0x3c8a6515	0.016893903
22	0x3ce60c38	0.028081998
23	0x3ad867ac	0.0016510389
24	0x3d559daa	0.052152313
25	0xbc13d05f	-0.0090218475
26	0x3c6cfbe1	0.0144643495
27	0x00000000	0.0
28	0xbbd87f28	-0.006606955
29	0xbc17f969	-0.009275773
30	0x3e0079ff	0.12546538
31	0xbad98b7d	-0.0016597357
32	0xbb01bf59	-0.001979789
33	0xbd6a5a35	-0.057214934
34	0xbcbf5979	-0.023358094
35	0xbbec9585	-0.0072199726
36	0xbbcfa6d6	-0.006337027
37	0xbc181063	-0.009281251
38	0xbce64af0	-0.028111905
39	0xbd301e0d	-0.04299741
40	0x3d271665	0.04079284
41	0xbd8d3ee7	-0.06896763
42	0x3caa1d68	0.020765975
43	0xbc78e276	-0.015190711
44	0x3c9b80f2	0.018982384
45	0x3cd582f2	0.026063416
46	0x3da07fcf	0.078368776
47	0xbb9e45d5	-0.004830102
48	0xbd3f4505	-0.04669668
49	0xbd0e6a96	-0.034769617
50	0xbc26af33	-0.010173607
51	0xbd1e7e18	-0.03869447
52	0xbd1cadd4	-0.038251713
53	0xbd741683	-0.05959178
54	0x3ca6b86d	0.020351613
55	0x3d3ba292	0.045809336
56	0xbd57d3d2	-0.052692242
57	0xbc90a4dc	-0.017656736
