IDS_TA/initial_Models/CADE-m1.0-l0.1.pth (torch, 67890 bytes, 16 tensors)

encoder.enc1.weight f4 [58, 78]
0	0xbf70e2d0	-0.9409609
1	0x3d2b93b9	0.041888926
2	0x3e395fe1	0.18102981
3	0x3d2dccb2	0.04243154
4	0x3e705789	0.23470892
5	0xbd8bee91	-0.06832612
6	0x3e581481	0.21101572
7	0x3dde12d9	0.10843439
8	0xbdacc976	-0.08436863
9	0xbe530c60	-0.2061019
10	0x3c6a93b8	0.014317445
11	0x3d90cd46	0.07070403
12	0xbdfefa32	-0.12450065
13	0xbd8fc7ab	-0.070205055
14	0xbe08a422	-0.13343862
15	0x3eabc61d	0.33549586
16	0xbc138928	-0.009004869
17	0xbea69746	-0.32537287
18	0xbd8b7384	-0.06809142
19	0xbd518fe0	-0.0511626
20	0xbe704ea6	-0.23467502
21	0x3e10e741	0.14150716
22	0x3dd5c917	0.104387455
23	0xbe58f79f	-0.2118821
24	0xbe6ca330	-0.23109126
25	0x3e390d47	0.18071471
26	0x3e0c741d	0.13716169
27	0xbd573d08	-0.05254844
28	0xbe391b14	-0.18076736
29	0x3bdc77ff	0.006728172
30	0x3e5ed872	0.21762255
31	0xbd81dca6	-0.063409135
32	0x3d275e54	0.040861443
33	0x3e2b5604	0.16732031
34	0x3e82a130	0.255136
35	0x3bbb1512	0.005709299
36	0x3d6635c6	0.056203626
37	0xbe93e45f	-0.2888517
38	0xbeb4b37a	-0.3529318
39	0x3c0680c5	0.008209412
40	0xbe73af59	-0.23797359
41	0xbe785834	-0.24252397
42	0x3c8dfcb5	0.017332414
43	0xbddd0b7c	-0.10793206
44	0xbde00780	-0.109389305
45	0x3ce06a8e	0.02739456
46	0x3ec4bdd0	0.38426065
47	0xbcda6517	-0.026659532
48	0xbe717e1a	-0.2358326
49	0xbe4aa61c	-0.19789928
50	0xbd504d8c	-0.050855204
51	0x3dc5d612	0.09659971
52	0xbe05234e	-0.13001749
53	0xbc179196	-0.009251019
54	0xbe9508ae	-0.29108185
55	0xbde6ca11	-0.1126901
56	0x3f06406c	0.5244205
57	0xbef07dcc	-0.46970975
58	0xbe2b5f0e	-0.16735479
59	0x3db55b9f	0.08855366
60	0x3d521819	0.051292513
61	0xbdb10738	-0.08643955
62	0xbe8fafc5	-0.2806379
63	0x3e018501	0.12648393
64	0xbe2fdd4e	-0.17174265
65	0x3e41d92a	0.18930498
66	0x3d516a27	0.051126625
67	0xbd0f6f17	-0.035018053
68	0x3ed4211c	0.4143151
69	0x3e2a5f3c	0.16637892
70	0xbd4cd484	-0.05000736
71	0x3ca1237a	0.019670237
72	0xbe588131	-0.21143033
73	0xbe95ad68	-0.2923386
74	0xbe0d8e9e	-0.13823935
75	0xbf001682	-0.50034344
76	0xbe5e6c66	-0.21721038
77	0xbe513f1a	-0.20434228
78	0x3e860e5d	0.26182833
79	0xbdcfb7a1	-0.10142446
80	0xbe56fa54	-0.2099393
81	0x3db43b13	0.0880033
82	0xbcd359f7	-0.025799735
83	0x3e839160	0.2569685
84	0xbcf220d7	-0.029556675
85	0xbea2a714	-0.31768095
86	0x3ec0c9d6	0.3765399
87	0x3e1fd34d	0.15607949
88	0xbd7e5884	-0.062096134
89	0x3d592bdb	0.05302034
90	0xbde1cb8d	-0.11025152
91	0xbd501ce3	-0.0508088
92	0xbe10b2cc	-0.14130706
93	0xbdb83992	-0.08995356
94	0xbca4b967	-0.020107938
95	0x3d6e6c91	0.058209006
96	0xbe20d553	-0.15706377
97	0x3e481891	0.19540621
98	0x3bf1332d	0.007360837
99	0xbe4d6d32	-0.20061186
100	0x3cabe67b	0.020983925
101	0xbe0d5dc3	-0.13805299
102	0xbe315b2c	-0.17319936
103	0xbc5cb413	-0.013470667
104	0x3e23191f	0.15927552
105	0x3e57843b	0.21046536
106	0xbdf3f8e0	-0.119127035
107	0x3d9efaae	0.07762657
108	0xbe1b60b8	-0.15173614
109	0x3da9d35c	0.08292267
110	0xbc8bf563	-0.017084783
111	0xbe717741	-0.23580648
112	0xbb91c691	-0.00444872
113	0x3d268a36	0.040659152
114	0xbda7d2e1	-0.08194519
115	0x3d8c0687	0.068371825
116	0xbda27e79	-0.07934279
117	0xbee598ff	-0.4484329
118	0x3e468dc8	0.19390023
119	0x3e5dbaa3	0.21653228
120	0x3ca069b9	0.019581662
121	0x3e2e6666	0.1703125
122	0xbb5b9dec	-0.0033510877
123	0x3d93783a	0.07200666
124	0xbd770011	-0.060302798
125	0x3e1a91ec	0.15094727
126	0x3e24d6e1	0.16097595
127	0xbe14c060	-0.1452651
128	0x3c6e0359	0.014527165
129	0x3e75e57d	0.24013324
130	0xbde16293	-0.1100513
131	0xbd0415a8	-0.032247216
132	0xbca0c6d3	-0.019626057
133	0x3d89db4d	0.067312814
134	0xbda51bf7	-0.080619745
135	0x3ebcc18b	0.36866412
136	0xbe0ed9bb	-0.13950245
137	0xbcd1f0c4	-0.025627501
138	0xbc5fbdfe	-0.0136561375
139	0x3e05083b	0.12991421
140	0x3d22837f	0.039676186
141	0x3ded1f91	0.115782864
142	0xbd2eccd8	-0.042675823
143	0xbe118385	-0.14210327
144	0x3cae12c1	0.021249177
145	0xbd1724b1	-0.036900226
146	0x3d120a50	0.035654366
147	0x3e75c1b8	0.23999679
148	0xbe2a077a	-0.16604415
149	0x3dbc4c17	0.091942005
150	0xbe7c985d	-0.24667497
151	0xbed8e836	-0.42364663
152	0x3e749c3a	0.2388772
153	0xbc533e6f	-0.012893303
154	0x3dcaf608	0.09910208
155	0x3dfb7a80	0.122792244
156	0xbe00c0ef	-0.12573598
157	0x3e08b567	0.1335045
158	0xbddb0d5d	-0.10695908
159	0x3e6db143	0.23212151
160	0xbe1fcfab	-0.15606563
161	0xbe9edf4a	-0.3102973
162	0xbd0c60a6	-0.03427186
163	0xbd811cd6	-0.06304328
164	0x3deba775	0.11506549
165	0xbe5d273b	-0.21596996
166	0xbd9d4966	-0.07680015
167	0x3d2ebc9d	0.042660344
168	0xbde939ba	-0.113879636
169	0x3d892ae8	0.06697637
170	0x3d49377e	0.049125187
171	0xbd6df395	-0.058093626
172	0xbd32eae5	-0.043681044
173	0xbdc3891e	-0.095476374
174	0xbe3bdca0	-0.1834588
175	0xbd46374d	-0.048392583
176	0x3d72c3f7	0.059268918
177	0x3dcf1418	0.101112545
178	0xbe129862	-0.14315942
179	0x3db36326	0.087591454
180	0x3e18cd9c	0.14922184
181	0xbe2ffd48	-0.17186463
182	0xbe36b4a7	-0.17842351
183	0x3d043bda	0.03228364
184	0xbde49e95	-0.111630596
185	0x3dcee618	0.10102481
186	0xbd940514	-0.07227531
187	0x3dcd6d8a	0.100306585
188	0xbdb6d25a	-0.0892684
189	0xbe8c1e9c	-0.27367103
190	0xbdc28d01	-0.094995506
191	0xbd90e5cd	-0.07075081
192	0x3e036192	0.12830189
193	0xbddba6d0	-0.10725176
194	0x3e107c81	0.14109994
195	0x3e125afe	0.14292523
196	0xbd0dac98	-0.034588426
197	0x38c88983	9.562357e-05
198	0x3e3c3f44	0.18383509
199	0xbe1e5ef3	-0.15465908
200	0x3e0718ec	0.131931
201	0x3d3fdac2	0.046839483
202	0xbd0750ad	-0.033035923
203	0x3d319c9e	0.043362252
204	0x3bb9dc44	0.0056720097
205	0xbe270262	-0.16309503
206	0xbe0aafcd	-0.13543625
207	0x3e2558ab	0.16147105
208	0x3e774729	0.24148239
209	0x3e3b3c2c	0.18284672
210	0xbb245e98	-0.0025080796
211	0xbe500a32	-0.20316389
212	0xbddf021a	-0.10889073
213	0xbe5b2fc2	-0.21404937
214	0x3de220ff	0.1104145
215	0xbe2697c4	-0.16268831
216	0x3dc8799a	0.09788819
217	0x3dee77fd	0.1164398
218	0xbe2301f9	-0.15918721
219	0x3e0c3f43	0.13696007
220	0xbe114817	-0.14187656
221	0xbe0b2f47	-0.13592254
222	0x3d329b1b	0.04360495
223	0xbcfdf9e9	-0.031002956
224	0xbd35a638	-0.04434797
225	0x3ddf5e8b	0.109067045
226	0xbdbc382f	-0.09190404
227	0xbd87c57d	-0.06629465
228	0x3d397afc	0.045283303
229	0xbcb69bc6	-0.022291075
230	0x3d9a8952	0.07545723
231	0xbdf06824	-0.11738613
232	0x3daa0dcd	0.083034135
233	0xbca9c624	-0.020724364
234	0x3e87ffe4	0.26562417
235	0xbe895095	-0.26819292
236	0x3ccf394c	0.025295876
237	0x3e349c67	0.17637788
238	0xbcd62617	-0.02614121
239	0x3d84e4ef	0.06488978
240	0x3e1e5a67	0.15464173
241	0x3bf69a0a	0.007525687
242	0xbe268766	-0.16262588
243	0xbca50ef9	-0.020148741
244	0xbdcbccf4	-0.09951201
245	0x3c8f2516	0.017473739
246	0xbdcea2f4	-0.100896746
247	0xbc889e25	-0.016676972
248	0x3d33c5d1	0.043889824
249	0xbe81c64e	-0.25346607
250	0x3e14a6bc	0.14516729
251	0xbe3c99ce	-0.18418047
252	0xbb8d93a7	-0.00432058
253	0x3de54c37	0.111961775
254	0x3ebf90d8	0.37415195
255	0x3d0d422d	0.03448694

encoder.enc1.bias f4 [58]
0	0xbc9b0b9d	-0.018926436
1	0xbcdc2a27	-0.026875569
2	0xbc297979	-0.010343903
3	0x3c9ba0e0	0.01899761
4	0x3d06753c	0.032826647
5	0xbc7987f4	-0.015230168
6	0xbcd2b468	-0.02572079
7	0xbc621d6b	-0.013800959
8	0x3c63d1be	0.013904987
9	0x3d38baf2	0.04510016
10	0x3bef24f0	0.0072981045
11	0x3ca01b47	0.019544257
12	0x3d9cbac4	0.0765281
13	0xbc86586c	-0.016399585
14	0x3cb85898	0.022503182
15	0x3daf9489	0.08573253
16	0xbc7acee1	-0.015308113
17	0x3d933d5f	0.0718944
18	0xbccd3bfb	-0.025053015
19	0x3d41871d	0.047247995
20	0xbd03dbc9	-0.032192025
21	0x3d422288	0.047396213
22	0xbd39f780	-0.04540205
23	0xbd039a81	-0.03212977
24	0x3cdae6f0	0.026721448
25	0x3b86f454	0.0041184817
26	0xbc217ee9	-0.009856918
27	0x3d7f23e8	0.062290102
28	0x3b9eff4c	0.004852211
29	0x3adff15c	0.001708548
30	0x3d329393	0.04359777
31	0x3bbccbe5	0.005761611
32	0x3d6d03f5	0.0578651
33	0x3d2b4281	0.04181147
34	0xbc1b2a6c	-0.009470563
35	0xbbb43fab	-0.005500754
36	0xbba54821	-0.005043999
37	0x3c7f789d	0.015592721
38	0x3cf514d3	0.029917156
39	0xbd5ade53	-0.05343468
40	0x3c00c495	0.007859369
41	0xbd02a3d9	-0.03189454
42	0xbcd6376f	-0.02614948
43	0xbd06ed85	-0.03294136
44	0xbc53327d	-0.012890455
45	0xbc8764b8	-0.016527519
46	0x3c2fa7f2	0.010721194
47	0x3d8e72a6	0.06955461
48	0xbcfd7098	-0.030937478
49	0x3b2c4a4c	0.0026289402
50	0x3bce5c1b	0.006297601
51	0x3ca4fe04	0.020140655
52	0xbb8fa6a7	-0.00438388
53	0xbd215ee0	-0.03939712
54	0x3bb9346a	0.005652
55	0x398293da	0.0002490569
56	0xbbb422b8	-0.005497303
57	0x3d95da5d	0.0731704

encoder.enc2.weight f4 [39, 58]
0	0xbea59ab8	-0.32344604
1	0x3d2e679e	0.042579286
2	0x3c22e96a	0.009943346
3	0xbe5206ef	-0.20510457
4	0x3ea809a1	0.32819846
5	0x3e85c76b	0.26128706
6	0x3cdaa996	0.026692193
7	0xbea491c9	-0.32142475
8	0xbe69b36b	-0.22822349
9	0xbdcf78bc	-0.1013045
10	0x3df7c926	0.12098913
11	0x3e638929	0.22220291
12	0xbe8d4bec	-0.27596986
13	0xbe4d23d7	-0.20033203
14	0xbe020545	-0.12697323
15	0xbdb49eda	-0.08819361
16	0xbe9ebaa8	-0.31001782
17	0x3dbe0a58	0.09279317
18	0x3d80752f	0.06272351
19	0x3f0bbb19	0.54582363
20	0xbcaa0f62	-0.020759288
21	0x3e5a9038	0.21344078
22	0x3e9a0bd3	0.30087146
23	0x3cd9d5dc	0.026591234
24	0x3dcb0f77	0.09915059
25	0x3e80594f	0.25068137
26	0x3e9949f2	0.29939228
27	0xbe49253f	-0.19643115
28	0xbe161159	-0.14655055
29	0x3cac03d4	0.02099792
30	0xbeb24c73	-0.3482395
31	0xbdb55125	-0.08853368
32	0xbe453e5f	-0.19262074
33	0x3e9bbe24	0.30418503
34	0xbd3d2923	-0.04618181
35	0x3c1c11d4	0.009525735
36	0xbdf11eed	-0.11773477
37	0xbdd3cea3	-0.10342147
38	0x3e10d627	0.14144193
39	0x3eae0089	0.33984783
40	0xbc812fec	-0.015769921
41	0x3e55aac9	0.2086593
42	0x3cf66b3a	0.030080426
43	0x3d61c81a	0.055122472
44	0x3e5dee39	0.21672906
45	0xbe6ee4bc	-0.23329443
46	0x3d230371	0.039798204
47	0x3e2a1a7c	0.16611665
48	0x3e9f8c93	0.31161937
49	0x3d9e9fcf	0.07745325
50	0x3e8faecb	0.28063044
51	0xbe1c032a	-0.15235582
52	0xbdf7b1c8	-0.12094456
53	0xbb19847a	-0.002342491
54	0x3e5d2d88	0.215994
55	0xbe69ab13	-0.22819166
56	0x3e88b08d	0.26697198
57	0xbe579e88	-0.21056569
58	0xbe65d9d3	-0.22446375
59	0x3e3993f3	0.18122844
60	0x3dfd9e01	0.123836525
61	0xbe0d5be2	-0.13804582
62	0x3d9dae74	0.0769929
63	0x3e7f2e0f	0.24919914
64	0xbd1d42a0	-0.038393617
65	0xbe0cb96f	-0.13742612
66	0x3a0f21e6	0.00054600684
67	0xbab4918c	-0.0013776287
68	0x3e5656a2	0.20931485
69	0x3eb1664d	0.34648362
70	0x3e15ac01	0.14616396
71	0x3ddefc3e	0.10887955
72	0x3dffaba2	0.12483908
73	0xbe775ab8	-0.241557
74	0x3c863b2c	0.016385637
75	0x3e20815a	0.15674344
76	0x3dc51cbd	0.09624622
77	0x3e017ccd	0.12645264
78	0xbde70fe8	-0.11282331
79	0xbe9b4060	-0.30322552
80	0xbe28c3d0	-0.16480947
81	0x3e3aed7f	0.1825466
82	0xbcbf1864	-0.02332706
83	0x3e814cca	0.25253898
84	0xbea152c9	-0.31508473
85	0x3e4719c4	0.19443423
86	0xbd63c3a7	-0.05560651
87	0xbd9b0497	-0.07569235
88	0x3e819ed8	0.253165
89	0x3e727a37	0.23679434
90	0xbb81ee36	-0.0039651645
91	0xbe9bdabf	-0.30440328
92	0xbea4a6b3	-0.3215843
93	0x3eae8a5a	0.3408993
94	0x3e5c9d93	0.21544485
95	0x3ddf1082	0.108918205
96	0xbe0cc602	-0.13747409
97	0x3ea9ae5f	0.33140847
98	0x3de588b1	0.112077124
99	0xbdd818c4	-0.10551599
100	0xbc2905ee	-0.010316355
101	0xbd7e300c	-0.06205754
102	0x3e1e635a	0.15467587
103	0x3dcc3af4	0.09972182
104	0xbe4338a2	-0.19064572
105	0x3e1dc4bc	0.1540708
106	0x3e7e13d2	0.24812248
107	0x3e302112	0.17200115
108	0x3e83cd8c	0.25742757
109	0x3e615148	0.22003663
110	0xbe6489e0	-0.2231822
111	0x3d2d08de	0.042244785
112	0x3d20721f	0.039171334
113	0xbd0595c7	-0.032613542
114	0x3e8ba5cf	0.2727494
115	0x3e68a17e	0.22717854
116	0xbd15c433	-0.036564063
117	0xbe3462b9	-0.17615785
118	0xbe1a6ba0	-0.15080118
119	0xbe2aedb2	-0.16692236
120	0xbeb049b6	-0.34431237
121	0x3e75d1ec	0.2400586
122	0xbca0dc9e	-0.019636448
123	0x3e38fffd	0.18066402
124	0xbd0c41eb	-0.03424255
125	0xbe201cd2	-0.15635994
126	0xbe48ca23	-0.19608359
127	0x3e84f734	0.2596985
128	0x3d666fd0	0.056258976
129	0x3ea3e28a	0.32008773
130	0xbdb7dfc3	-0.08978226
131	0x3e01c6d4	0.12673503
132	0xbdd75435	-0.10514108
133	0x3e93a6ec	0.2883829
134	0xbd2d37d6	-0.042289577
135	0x3eeaa764	0.45830834
136	0xbb8fc757	-0.004387777
137	0xbd7c5320	-0.06160271
138	0x3eb707e8	0.3574822
139	0xbd991c29	-0.07476074
140	0xbe5faaef	-0.2184255
141	0xbbea1fd5	-0.007144908
142	0x3e95ef46	0.29284114
143	0xbe6d93d5	-0.23200925
144	0x3e313cf4	0.17308408
145	0x3d55f665	0.052236933
146	0x3e14a17d	0.14514728
147	0xbd9bc594	-0.076060444
148	0xbe43df69	-0.19128193
149	0xbdd2345d	-0.10263894
150	0xbe5d31a2	-0.21600965
151	0x3eae6476	0.3406102
152	0x3ec59a07	0.38594076
153	0xbe8469af	-0.2586188
154	0xbe80ba4a	-0.25142127
155	0x3f542147	0.8286328
156	0xbddb0716	-0.10694711
157	0x3e21de1f	0.15807389
158	0xbe651674	-0.22371846
159	0xbe84f9c0	-0.25971794
160	0x3de3ef5a	0.11129637
161	0xbe8ea7c3	-0.27862367
162	0x3e2110bf	0.15729044
163	0xbd873739	-0.0660233
164	0x3e04f9f9	0.12985982
165	0x3e50189f	0.20321892
166	0x3e1cb77a	0.15304366
167	0x3e68ddc3	0.22740845
168	0xbd95f097	-0.073212795
169	0x3e2cae2f	0.16863321
170	0x3e65665f	0.22402333
171	0x3cfad769	0.030620294
172	0x3e8d3154	0.27576697
173	0x3e6d370d	0.23165531
174	0x3d80ae98	0.06283301
175	0xbcc98f96	-0.0246046
176	0x3daf3886	0.08555703
177	0xbc57c35a	-0.013169134
178	0x3e0b7e8c	0.13622493
179	0x3e900298	0.2812698
180	0x3e9065b3	0.2820259
181	0x3e1ac809	0.1511537
182	0xbe32a646	-0.17446241
183	0x3d0362ae	0.03207653
184	0x3e23bd23	0.15990119
185	0xbc0fefc6	-0.008785194
186	0xbd434a3d	-0.04767822
187	0xbe65134c	-0.22370642
188	0x3baa83ab	0.0052036843
189	0x3e1345a2	0.14382032
190	0x3e85d19d	0.26136485
191	0xbd8c16d9	-0.06840295
192	0xbe5b0923	-0.21390204
193	0xbdfc1b49	-0.12309892
194	0x3b647d87	0.003486486
195	0xbe6bf244	-0.23041636
196	0xbdd3c1a3	-0.10339668
197	0x3ca2cd51	0.019873293
198	0x3de42b8e	0.1114112
199	0x3e6c4bce	0.23075792
200	0xbd8c9da5	-0.06866006
201	0xbdff2e2a	-0.12459977
202	0xbe8addee	-0.27122444
203	0x3e8e8a3c	0.2783984
204	0xbe5cb3a0	-0.21552896
205	0xbe3833f9	-0.17988576
206	0x3e8cbd15	0.27488008
207	0x3e638ecc	0.22222441
208	0x3e471ed1	0.1944535
209	0x3bf73bb2	0.007544958
210	0xbe8fa835	-0.2805802
211	0xbe570073	-0.20996265
212	0xbe1a93cb	-0.15095441
213	0x3e87aa0a	0.26496917
214	0xbe67f745	-0.2265292
215	0x3d7c0c24	0.061535016
216	0x3e80d631	0.25163415
217	0x3dbac4fe	0.091196045
218	0xbc34c1c4	-0.011032525
219	0xbe3c3094	-0.18377906
220	0x3d1a023a	0.03759978
221	0xbe828b54	-0.25496924
222	0x3e0a53e4	0.13508564
223	0xbb6ceeba	-0.0036153034
224	0x3d51ef31	0.0512535
225	0x3d7e37fa	0.062065102
226	0xbc9c711e	-0.019096907
227	0xbdd4636c	-0.10370526
228	0xbe0f0a12	-0.13968685
229	0xbd8baf83	-0.068205856
230	0xbe1fbe98	-0.1560005
231	0xbe73dc47	-0.23814498
232	0x3e101d03	0.14073567
233	0x3e5ee27d	0.21766086
234	0x3d13ea03	0.036111843
235	0xbe3a8a16	-0.18216738
236	0xbe87ef9c	-0.26549995
237	0xbeab6afd	-0.33480063
238	0xbe66a057	-0.22522102
239	0x3dd3696e	0.103228435
240	0xbf16719a	-0.5876709
241	0xbf1d0418	-0.6133437
242	0x3d80d4aa	0.062905625
243	0x3e56fd04	0.20994955
244	0xbeb26e05	-0.34849563
245	0x3d89e295	0.0673267
246	0x3e4d21c5	0.20032413
247	0xbeb8505b	-0.35998806
248	0xbd8fc9a1	-0.070208795
249	0x3e5b9a55	0.21445592
250	0x3eaa8ea9	0.33311966
251	0x3ef44ec5	0.47716346
252	0xbe825507	-0.25455496
253	0xbc715a0e	-0.014730943
254	0x3ecb34ae	0.3968863
255	0x3e633b9e	0.22190711

encoder.enc2.bias f4 [39]
0	0x3bd92eed	0.0066279084
1	0xbc65325e	-0.013989059
2	0x3cd7b0e6	0.026329469
3	0xbcc70ca5	-0.024298022
4	0xbd151513	-0.03639705
5	0xbc3e0b1c	-0.011599328
6	0xbd87ea21	-0.066364534
7	0x3ce86bec	0.028371774
8	0x3bc0b47a	0.0058808895
9	0x3d70e086	0.058807872
10	0x3d6528a7	0.055946972
11	0x3d938cde	0.07204603
12	0xbaea78f5	-0.0017888831
13	0x3d031b8a	0.032008685
14	0x3d7a3690	0.06108719
15	0xbbcddb5e	-0.006282254
16	0xbc65292d	-0.013986868
17	0x3c6649e3	0.014055702
18	0xbc359321	-0.011082442
19	0xbcab6f06	-0.020926964
20	0x3cdc8823	0.026920384
21	0xbd285f61	-0.041106585
22	0xbc8ebbc8	-0.017423525
23	0x3c708f03	0.014682534
24	0xbcf2e17f	-0.02964854
25	0x3d53e363	0.051730525
26	0xbb4dd0f2	-0.0031405059
27	0x3d2b98f5	0.041893918
28	0x3c57bd78	0.013167731
29	0x3ca2c7cd	0.019870663
30	0x3b5a2e49	0.0033291748
31	0xbb1fe34f	-0.002439696
32	0xbd155609	-0.036459003
33	0xbd169621	-0.036764268
34	0x3db0c16e	0.08630644
35	0xbc895c12	-0.016767535
36	0x3a630a7a	0.0008660924
37	0xbb9a3397	-0.004705857
38	0x3b479668	0.003045464

encoder.enc3.weight f4 [19, 39]
0	0x3e8f3f8c	0.2797817
1	0xbd22388d	-0.039604712
2	0x3deec489	0.1165858
3	0x3cea4a7d	0.028599972
4	0xbd8fedc1	-0.0702777
5	0x3e97572f	0.29558703
6	0xbc9c0342	-0.019044522
7	0xbcc92276	-0.024552565
8	0x3d9305af	0.071788184
9	0xbceda995	-0.029011527
10	0xbdc1db64	-0.094656736
11	0x3c8fc9c2	0.01755226
12	0xbddc5acc	-0.10759506
13	0xbe4b3185	-0.19843109
14	0xbd7c915a	-0.061662056
15	0x3e8316c6	0.25603312
16	0x3e96be74	0.2944218
17	0xbe12c0a1	-0.14331295
18	0xbe0a2099	-0.13488998
19	0x3d0afc5f	0.033932086
20	0xbc41e89a	-0.011835242
21	0x3e808849	0.25103977
22	0x3e912813	0.28350887
23	0xbe9d1e1f	-0.30687043
24	0xbddff501	-0.10935403
25	0x3e438969	0.19095387
26	0xbcbd4a9c	-0.023106866
27	0x3cb0092c	0.021488748
28	0xbd09d93f	-0.033654448
29	0xbe40085a	-0.18753186
30	0xbe6c13ea	-0.23054472
31	0xbd8ebb63	-0.06969335
32	0x3e9257c7	0.28582594
33	0x3d3088e3	0.043099295
34	0xbdb164ad	-0.086617805
35	0x3daa1fb9	0.08306832
36	0x3d64b98f	0.055841025
37	0x3dc70ccc	0.09719238
38	0xbe19e657	-0.15029274
39	0xbdcb043e	-0.099129185
40	0xbe779bbf	-0.24180506
41	0xbb13b28a	-0.0022536837
42	0xbe78df5c	-0.24303955
43	0xbc3609c2	-0.011110725
44	0x3e82ddc8	0.2555983
45	0x3b786662	0.0037902822
46	0x3dbab0a3	0.09115722
47	0x3e3cf3bb	0.18452351
48	0xbe4dc470	-0.20094466
49	0x3dab6d6b	0.08370479
50	0x3c91c515	0.017794171
51	0x3c76b50b	0.015057812
52	0x3e08cdce	0.13359758
53	0x3e405089	0.18780722
54	0x3e8433e8	0.2582085
55	0xbe84d5ab	-0.25944266
56	0xbf9bd9e6	-1.2175872
57	0xbd90e9f6	-0.070758745
58	0x3dbbbf78	0.09167379
59	0x3bff10c6	0.007783982
60	0xbea36897	-0.31915733
61	0x3c872ab5	0.016499856
62	0xbdf3b650	-0.11900008
63	0xbe09791b	-0.13425104
64	0xbd50910b	-0.050919574
65	0x3d5bd1b4	0.053666785
66	0xbe0a5c6f	-0.13511823
67	0xbdea9daf	-0.11455857
68	0x3e376bc4	0.17912203
69	0xbe042741	-0.12905599
70	0xbe10989a	-0.14120713
71	0x3b074ecc	0.0020646332
72	0xbe655b14	-0.22398025
73	0xbe1d2e8f	-0.15349792
74	0x3d5d2924	0.053994313
75	0x3ea4c171	0.32178834
76	0xbdd50053	-0.104004525
77	0xbe537a17	-0.20652042
78	0x3e46929f	0.19391869
79	0xbd9d85b3	-0.07691517
80	0xbebc0862	-0.36725146
81	0x3e838357	0.25686142
82	0xbedd0bb9	-0.43173006
83	0xbe32c409	-0.17457594
84	0xbebe7289	-0.37196758
85	0x3d259a6f	0.040430482
86	0xbe03bda4	-0.12865311
87	0xbe5da28e	-0.21644041
88	0x3c42e8d6	0.011896333
89	0x3e376353	0.17908983
90	0xbc9ae55f	-0.0189082
91	0x3d93e8cc	0.07222137
92	0xbde9a71e	-0.11408828
93	0xbe9490ed	-0.2901682
94	0xbe88c8ec	-0.2671579
95	0x3cebd8ec	0.02878996
96	0xbe822d2b	-0.25425085
97	0xbea2e4b3	-0.3181511
98	0xbe35ab3d	-0.17741103
99	0x3df8c07a	0.12146087
100	0xbf407f3c	-0.75194144
101	0x3e761bc5	0.2403403
102	0x3d870266	0.06592254
103	0x3e6e772d	0.2328765
104	0xbc02232b	-0.007942955
105	0xbe6b1896	-0.22958598
106	0xbdd5978f	-0.10429298
107	0x3d8a13ea	0.067420796
108	0xbec70c08	-0.38876367
109	0x3e79ebd5	0.24406369
110	0x3e9ac9d7	0.30232117
111	0xbcdf8ee9	-0.027289825
112	0x3e79f70c	0.24410647
113	0x3dffa3bc	0.12482402
114	0x3e9f14c8	0.31070542
115	0xbd977d72	-0.07396974
116	0x3e4f56e8	0.20247996
117	0xbdc35c67	-0.09539109
118	0x3e9b9852	0.3038965
119	0xbec84064	-0.39111626
120	0xbea446c1	-0.3208523
121	0x3c54dc72	0.012992011
122	0x3e23bfde	0.1599116
123	0xbe08347d	-0.13301273
124	0x3e0d5558	0.13802087
125	0xbe593c53	-0.21214418
126	0xbe2fcf49	-0.17168917
127	0x3e76e4d2	0.24110726
128	0x3e8b5613	0.27214107
129	0xbe916f97	-0.2840545
130	0xbc5e29e1	-0.013559789
131	0xbcb7323c	-0.02236282
132	0x3e6022bc	0.2188825
133	0x3d9be9ed	0.07612977
134	0xbc55e641	-0.013055385
135	0xbe974cfa	-0.29550916
136	0x3e067e87	0.13134204
137	0xbebcd409	-0.3688052
138	0x3d93a30e	0.072088346
139	0x3e80f542	0.25187117
140	0x3e0d80c0	0.13818645
141	0x3d37cd08	0.044873267
142	0xbe8ace6e	-0.27110618
143	0xbd9c00c8	-0.076173365
144	0xbd5718b5	-0.052513797
145	0xbd422170	-0.04739517
146	0xbec120de	-0.37720388
147	0x3cc89bc6	0.024488341
148	0x3ea1cf5b	0.31603512
149	0x3c9278c3	0.01787985
150	0xbe490afb	-0.19633095
151	0xbf0389d3	-0.5138218
152	0x3e84b9b3	0.25922927
153	0x3dd7d505	0.10538677
154	0x3e920adc	0.2852391
155	0x3cbbc638	0.022921667
156	0xbe6c09ac	-0.23050565
157	0xbe8412a2	-0.25795466
158	0x3db89a6b	0.09013828
159	0x3e4805b0	0.1953342
160	0x3e77beb5	0.24193843
161	0xbeb29d4e	-0.3488564
162	0x3ea34371	0.3188739
163	0x3c30abc0	0.010783136
164	0xbe187a68	-0.14890444
165	0x3e0c8f0c	0.13726443
166	0xbe87bf84	-0.26513302
167	0xbed71a0a	-0.42012054
168	0x3dff4566	0.124644086
169	0x3d353ef7	0.0442495
170	0x3e4b6093	0.19861059
171	0x3dfc82d8	0.12329644
172	0x3e4cbd98	0.199942
173	0xbee53115	-0.4476401
174	0xbe1d6d69	-0.15373768
175	0x3e87f4bc	0.26553905
176	0xbe9de1ca	-0.30836326
177	0xbd71bf29	-0.059020195
178	0x3d986367	0.074408345
179	0x3c4dacf2	0.01255344
180	0xbdf998c1	-0.121873386
181	0x3e7ef491	0.24897982
182	0xbdc76593	-0.097361706
183	0xbd4119a4	-0.047143593
184	0xbde1f077	-0.11032193
185	0xbe337b4e	-0.17527506
186	0xbe7405ef	-0.23830388
187	0xbea2eba1	-0.31820396
188	0x3c60e5a2	0.013726624
189	0x3d66aba3	0.05631603
190	0xbd809574	-0.06278506
191	0x3e722f8a	0.23650947
192	0x3e29dc24	0.16587883
193	0x3e2e4598	0.17018735
194	0xbe724877	-0.23660456
195	0xbed1a4a9	-0.40945938
196	0xbeb118c8	-0.3458922
197	0x3de88be1	0.11354805
198	0xbda9398e	-0.08262931
199	0xbf57c94b	-0.84291524
200	0x3e15c4fb	0.14625923
201	0x3dca26a2	0.0987065
202	0xbf9bd338	-1.2173834
203	0x3e81786b	0.25287184
204	0x3e797199	0.2435974
205	0xbf0ae14d	-0.5425003
206	0xbece03e6	-0.4023735
207	0x3eb9011b	0.36133656
208	0x3db504fd	0.08838842
209	0xbaad4d1c	-0.0013221833
210	0xbea094bf	-0.31363484
211	0x3e997cf0	0.29978132
212	0x3f1bc597	0.60848373
213	0xbea7c617	-0.32768318
214	0xbe3684c3	-0.17824082
215	0xbdb29a9b	-0.08720895
216	0xbec281e0	-0.37989712
217	0xbeb15da1	-0.34641746
218	0x3e81cacd	0.25350037
219	0x3e262909	0.16226591
220	0xbcbb2916	-0.02284674
221	0xbed18bfe	-0.40927118
222	0x3dd513b1	0.104041465
223	0x3f107911	0.5643473
224	0xbe91ac89	-0.28451946
225	0xbe36b25c	-0.17841476
226	0x3efebadf	0.49751946
227	0xbe58439c	-0.21119541
228	0xbe32ac45	-0.17448528
229	0xbe97050a	-0.29496032
230	0x3e5614e4	0.20906407
231	0x3e9fd79b	0.3121918
232	0xbebfb5c8	-0.37443376
233	0x3ebbab5c	0.36654174
234	0x3e93ff9f	0.2890596
235	0xbe8e830d	-0.2783436
236	0x3e831c42	0.25607497
237	0xbeb72336	-0.3576905
238	0xbeb9892b	-0.36237463
239	0x3e97ef46	0.2967474
240	0x3eb612f7	0.35561344
241	0x3e0d6bff	0.13810728
242	0xbe6e1411	-0.23249842
243	0x3e49db98	0.19712675
244	0xbde58cf1	-0.11208523
245	0x3e1528c4	0.14566332
246	0xbdd2c34e	-0.10291158
247	0xbe83e5cf	-0.25761268
248	0xbdc34c00	-0.0953598
249	0xbe9c747f	-0.3055763
250	0xbe697589	-0.22798742
251	0x3c9c6dbd	0.019095296
252	0xbda3695e	-0.079790816
253	0xbd823409	-0.06357581
254	0x3e996ced	0.29965916
255	0x3e9e0151	0.3086038

encoder.enc3.bias f4 [19]
0	0xbcf1c3bc	-0.029512279
1	0x3da664fe	0.081247315
2	0xbd3a25f9	-0.04544637
3	0xbd15d804	-0.03658296
4	0xbbd51309	-0.0065025133
5	0x3cd821ae	0.026383247
6	0xbd3b7e94	-0.04577501
7	0x3c1eb4c6	0.009686654
8	0xbd24435b	-0.040103298
9	0xbc565942	-0.013082804
10	0xbc260b89	-0.010134586
11	0x3c151717	0.009099743
12	0x3bb92810	0.005650528
13	0xbd041edc	-0.032255992
14	0xbbfc2e47	-0.0076959464
15	0x3e07540f	0.1321566
16	0x3c7ad296	0.015308997
17	0x3d2140b9	0.039368365
18	0xbc8e1f59	-0.017348932

encoder.enc4.weight f4 [7, 19]
0	0x3e52adb7	0.2057408
1	0xbeb9f365	-0.36318508
2	0xbeb1321b	-0.3460854
3	0xbef14cf0	-0.4712901
4	0x3e95982a	0.29217654
5	0x3f139421	0.576479
6	0xbde371a6	-0.11105661
7	0xbe825b4d	-0.25460282
8	0x3f09a5c9	0.53768593
9	0xbdf3dd75	-0.11907474
10	0x3d8f1ca1	0.069878824
11	0x3e36a0d4	0.17834789
12	0xbe78ae48	-0.24285233
13	0x3e2bd117	0.1677898
14	0x3d34d022	0.044143803
15	0x3f58fac2	0.84757626
16	0x3e059e3b	0.13048641
17	0xbe62adc4	-0.22136599
18	0x3e29b78a	0.16573921
19	0xbea4b1e4	-0.3216697
20	0x3e52bbc8	0.20579445
21	0xbe206880	-0.15664864
22	0xbe8b0f64	-0.2716018
23	0xbe11d70c	-0.1424219
24	0xbf2e102b	-0.6799342
25	0xbdfc7f7e	-0.12329005
26	0x3e56c74f	0.20974468
27	0xbf0b54fa	-0.5442654
28	0x3e2f25a3	0.17104201
29	0x3eb0c67d	0.34526435
30	0x3bb4e43e	0.0055203727
31	0x3d97475a	0.07386656
32	0xbe523551	-0.20528151
33	0xbd3dc8b1	-0.046333972
34	0xbf31ccd1	-0.6945315
35	0x3e4f1bd9	0.20225467
36	0x3bf8da01	0.0075943475
37	0x3eb74b6b	0.35799727
38	0xbea613ea	-0.32437068
39	0xbcf6fc84	-0.030149706
40	0x3d3f8cbb	0.04676507
41	0x3ce7792c	0.028256021
42	0x3c844f16	0.016150992
43	0xbe6330ae	-0.22186539
44	0xbd0a9fed	-0.033843923
45	0xbe3bc3c4	-0.18336397
46	0xbec01abc	-0.37520397
47	0xbe607138	-0.2191819
48	0x3d50f1d6	0.051011883
49	0x3ea4c740	0.32183266
50	0xbeb600ae	-0.35547394
51	0x3e57626e	0.21033642
52	0xbe302df9	-0.17205037
53	0x3df95061	0.12173534
54	0x3dcdc806	0.10047917
55	0x3e01ba3b	0.12668698
56	0xbed4a9b3	-0.4153572
57	0xbe94883a	-0.29010183
58	0x3f279d5c	0.65474486
59	0x3ecf88b6	0.4053399
60	0xbd847cee	-0.06469141
61	0xbed8bce3	-0.4233161
62	0xbed4d66e	-0.41569847
63	0xbee2e21f	-0.44313142
64	0x3eeac0f8	0.45850348
65	0xbec427af	-0.38311526
66	0x3f05ec1d	0.52313405
67	0x3d6e3f4b	0.05816583
68	0xbc33ab20	-0.010966092
69	0x3e4e996b	0.20175712
70	0xbeaff6cd	-0.34367982
71	0xbd5f9061	-0.05458105
72	0xbf497b84	-0.78704095
73	0xbf137a15	-0.5760816
74	0x3ead3197	0.33826897
75	0xbd9fe412	-0.07807173
76	0xbec425aa	-0.38309985
77	0xbc6dbfdb	-0.014511074
78	0x3e2703a4	0.16309983
79	0x3e83e876	0.2576329
80	0xbcaa0181	-0.02075267
81	0xbe653e42	-0.2238703
82	0x3ef31b9e	0.47482008
83	0xbda4e53a	-0.08051534
84	0xbe02a1b6	-0.12757
85	0xbe2f6a5e	-0.1713042
86	0xbcb41dd7	-0.021986885
87	0x3e825e60	0.25462627
88	0xbe84447c	-0.258335
89	0xbf017a2e	-0.50577056
90	0xbe0152b8	-0.12629211
91	0xbe7b3efb	-0.24535744
92	0x3d86e5eb	0.06586822
93	0x3db631ca	0.08896215
94	0xbd3e87b9	-0.046516154
95	0xbd1902ff	-0.037356373
96	0x3e007b5c	0.12547058
97	0xbd2e8eb9	-0.04261658
98	0xbddd6151	-0.10809577
99	0xbdaaf70f	-0.08347904
100	0xbea3459d	-0.31889048
101	0xbd2c91b8	-0.042131156
102	0xbcfdd07a	-0.030983198
103	0x3da6317b	0.081149064
104	0xbe9d903a	-0.307741
105	0x3ea0b7e7	0.31390306
106	0xbd9a5521	-0.07535768
107	0x3daa098c	0.08302602
108	0x3d9eafef	0.077484004
109	0x3d45c8cc	0.048287198
110	0xbf0c7899	-0.5487152
111	0xbd01e5b5	-0.031713206
112	0x3e9b3cee	0.30319923
113	0x3ca42fe3	0.020042365
114	0x3e40c7e6	0.18826255
115	0xbefa719b	-0.489148
116	0xbed867a0	-0.4226656
117	0x3ebd88fe	0.3701858
118	0x3e88ab6d	0.26693287
119	0xbd68c01b	-0.05682383
120	0x3eec66aa	0.46172076
121	0xbeddda3e	-0.43330568
122	0x3ef28fdb	0.47375378
123	0x3e8eb938	0.27875686
124	0x3d49c9dc	0.049264774
125	0x3dca6c3f	0.098839276
126	0xbe511cab	-0.20421092
127	0x3cfb45c5	0.030672917
128	0xbd81c3f3	-0.063362025
129	0x3f5cbaca	0.8622252
130	0x3f0c0352	0.54692566
131	0xbe02d057	-0.12774788
132	0x3e0c49a5	0.13699968

encoder.enc4.bias f4 [7]
0	0x3c9b2a2a	0.018941004
1	0xbc523cba	-0.012831861
2	0xba535dd9	-0.00080629956
3	0x3c5b9f43	0.01340467
4	0xbb6c04c5	-0.0036013585
5	0x399a8bf1	0.00029477433
6	0x3abbb37a	0.0014320456

decoder.dec1.weight f4 [19, 7]
0	0x3f490386	0.78521
1	0x3efa0814	0.48834288
2	0xbf7298bb	-0.947643
3	0x3f4523dd	0.7700785
4	0x3f2b4f09	0.66917473
5	0xbf043cf9	-0.51655537
6	0x3eda10c2	0.4259091
7	0x3ed5fcba	0.41794378
8	0xbd423772	-0.047416158
9	0xbf8ce8fb	-1.10086
10	0x3f273f18	0.6533065
11	0x3fac1e11	1.3446676
12	0xbf901ab4	-1.1258149
13	0xbf44fb6f	-0.7694616
14	0x3dadcb85	0.08486084
15	0xbe76c997	-0.24100338
16	0xbd319c8d	-0.04336219
17	0xbf4678fa	-0.77528346
18	0xbed13d17	-0.4086692
19	0x3f5d4b0a	0.86442626
20	0x3eef9e80	0.46800613
21	0xbf03b6ee	-0.51451004
22	0xbe0bf76f	-0.13668607
23	0x3f1fd211	0.6242991
24	0xbeea8067	-0.45801088
25	0xbd60bc8b	-0.05486731
26	0xbf1e57a3	-0.61852473
27	0x3f45983d	0.7718542
28	0x3e0d288a	0.13784996
29	0xbe8f20cf	-0.27954718
30	0xbe60d5d6	-0.21956572
31	0xbf58a76c	-0.84630466
32	0x3e6eb150	0.23309827
33	0xbefaaaad	-0.4895834
34	0xbeb35853	-0.35028324
35	0x3e98a38b	0.29812273
36	0x3f2ff5ea	0.6873461
37	0xbecb6876	-0.39728135
38	0xbf4d50c0	-0.8020134
39	0x3ee15ecb	0.44017634
40	0x3f241f26	0.6411003
41	0x3f3b7bfd	0.73236066
42	0xbf703691	-0.9383326
43	0x3ef4457c	0.47709262
44	0x3f8b38c0	1.0876694
45	0x3f5c2784	0.85997796
46	0xbe7fa229	-0.24964203
47	0x3ee80878	0.4531896
48	0xbcb9a8c5	-0.022663483
49	0xbf329693	-0.6976101
50	0xbef73940	-0.48285866
51	0x3e0b3e5d	0.13598008
52	0xbef60ff4	-0.48059046
53	0x3c5aa70c	0.013345491
54	0xbf86bac2	-1.0525744
55	0xbf2c77e1	-0.6737042
56	0xbe7ca876	-0.24673638
57	0x3eace984	0.33771908
58	0xbf1d7eac	-0.6152141
59	0xbf61b0a8	-0.8816018
60	0xbf2759d2	-0.6537143
61	0xbec798fe	-0.3898391
62	0x3e19f96c	0.15036553
63	0x3f452762	0.7701322
64	0x3f169859	0.58826214
65	0xbf1225cf	-0.5708894
66	0xbe279923	-0.16367011
67	0x3eeaa0f5	0.45825925
68	0xbe41ac04	-0.18913275
69	0xbd2f4ce9	-0.042797957
70	0xbed9e28e	-0.4255566
71	0xbef7e42c	-0.4841627
72	0x3f4fe356	0.8120626
73	0x3e03cd1d	0.12871213
74	0xbf4c875d	-0.7989405
75	0x3c881711	0.016612561
76	0x3efd0905	0.49420944
77	0xbf77266d	-0.9654301
78	0x3f87bc80	1.0604401
79	0xbf8b773e	-1.0895765
80	0xbf6fe02f	-0.9370145
81	0x3efb4e71	0.49083284
82	0x3ef2d7df	0.47430322
83	0xbf24c7f2	-0.6436759
84	0xbdbc5104	-0.0919514
85	0x3dcc036e	0.09961592
86	0xbfbdaf55	-1.4819132
87	0x3e9718ff	0.29511258
88	0xbe023b38	-0.12717903
89	0x3f1eecf5	0.6208032
90	0xbf0631bb	-0.5241963
91	0x3eb52b74	0.35384715
92	0xbef4c338	-0.4780519
93	0x3ea20009	0.31640652
94	0xbe38daee	-0.18052265
95	0x3f9b6c8a	1.2142498
96	0x3f639b8b	0.88909215
97	0xbe1be460	-0.15223837
98	0xbe9a5249	-0.30140904
99	0xbf538846	-0.8262981
100	0xbe56d45b	-0.20979445
101	0xbf2edcd4	-0.68305707
102	0xbdb3729f	-0.087620966
103	0x3f1aea22	0.6051351
104	0x3e4f0d33	0.20219879
105	0xbf2a8b69	-0.66618973
106	0xbefd7d5a	-0.49509698
107	0xbf99e1f5	-1.2022082
108	0x3df455c3	0.1193042
109	0xbd8ffc53	-0.07030549
110	0x3f62f10d	0.88649064
111	0x3f88bd90	1.068285
112	0x3f4ef90e	0.8084878
113	0xbcfe25ba	-0.031023849
114	0x3d44d189	0.04805139
115	0x3efca735	0.4934632
116	0xbf6a4615	-0.91513187
117	0xbf285739	-0.6575809
118	0xbf060cfd	-0.5236357
119	0x3daecdb5	0.08535329
120	0xbe9e9c71	-0.3097873
121	0x3ef230e4	0.47302926
122	0xbf444425	-0.7666648
123	0x3de78a79	0.113057084
124	0xbf182d83	-0.59444445
125	0x3e881381	0.2657738
126	0xbf1bd3f5	-0.60870296
127	0x3da639a1	0.081164606
128	0xbe2127a8	-0.15737784
129	0x3d61023a	0.054933764
130	0xbecf1eb3	-0.4045311
131	0xbdd7f70d	-0.10545168
132	0x3f1dfcf6	0.6171411

decoder.dec1.bias f4 [19]
0	0xbc842155	-0.016129175
1	0xbc8e8525	-0.017397473
2	0xbbd71609	-0.006563906
3	0xbd8063e6	-0.06269054
4	0x3c200642	0.009767117
5	0xbad541e3	-0.0016270246
6	0xbcdeb83b	-0.027187457
7	0x3cf65316	0.030068915
8	0x3c91ad5e	0.017782863
9	0x3bd5a604	0.0065200347
10	0xbd50a3c5	-0.050937433
11	0xbc88402d	-0.016632164
12	0xbc9cea55	-0.019154707
13	0x3daef0a4	0.08541992
14	0x3c3656b0	0.011129066
15	0x3c0f6646	0.008752411
16	0x3bce2d17	0.006291996
17	0xbcd045bb	-0.025423875
18	0x3b36a6ba	0.0027870373

decoder.dec2.weight f4 [39, 19]
0	0x3e92177e	0.28533548
1	0x3ec6ec60	0.38852215
2	0x3eb37490	0.35049868
3	0xbe1e13fa	-0.15437308
4	0x3e814c16	0.2525336
5	0x3ea912f1	0.33022264
6	0xbee67b05	-0.4501573
7	0x3e5bcb1a	0.21464196
8	0x3e76d597	0.24104916
9	0x3efbb961	0.4916487
10	0xbe8e2aba	-0.27766973
11	0xbefa7564	-0.48917687
12	0xbe8c6786	-0.27422732
13	0xbeeb92a4	-0.46010315
14	0x3e2e297a	0.1700801
15	0xbf076113	-0.528825
16	0xbeb901bc	-0.36134136
17	0xbe08b7e5	-0.133514
18	0xbecf3c57	-0.40475723
19	0xbf25d35a	-0.6477562
20	0xbe8bb2b8	-0.2728479
21	0xbea7f2e0	-0.32802486
22	0xbe5b8b54	-0.21439868
23	0xbea21211	-0.3165441
24	0x3e64bbde	0.2233729
25	0xbd78ea31	-0.060770217
26	0xbe165d06	-0.14683923
27	0x3d9dc481	0.07703496
28	0x3dbcd318	0.092199504
29	0xbf0017ad	-0.50036126
30	0x3f4a9810	0.7913828
31	0x3e4eeacd	0.20206757
32	0xbf787474	-0.97052693
33	0xbed6130d	-0.4181141
34	0xbed19ced	-0.40940037
35	0x3e49d562	0.19710305
36	0x3eefdc84	0.46847928
37	0xbe556f25	-0.2084318
38	0xbf09f0ec	-0.5388324
39	0x3f3f2099	0.74659115
40	0xbedb2ffd	-0.4281005
41	0xbd65d1d6	-0.05610832
42	0xbf113f76	-0.5673746
43	0xbea3b3e4	-0.31973183
44	0xbeafa24a	-0.34303504
45	0x400c1d8a	2.189303
46	0x3ed57da7	0.41697428
47	0x3ef7e7ee	0.48419136
48	0x3edeb6c0	0.43498802
49	0x3e81aa54	0.25325263
50	0x3eb2bf43	0.34911546
51	0x3ead315a	0.33826715
52	0x3e143f24	0.14477211
53	0xbf08d790	-0.5345392
54	0xbeb2de92	-0.34935433
55	0xbba6a183	-0.0050851717
56	0x3dec58db	0.11540385
57	0xbf4f532b	-0.8098628
58	0x3ce516be	0.027964946
59	0x3e2f1666	0.17098388
60	0x3e059cbf	0.13048075
61	0x3ec16a5c	0.37776458
62	0x3ec82690	0.3909192
63	0x3e2a3d0e	0.16624853
64	0xbe36a52d	-0.17836447
65	0x3c153b97	0.009108446
66	0x3aaf286c	0.0013363487
67	0x3e93b192	0.28846413
68	0xbfb52c47	-1.4154137
69	0xbe632f76	-0.22186074
70	0x3f6c5160	0.9231167
71	0xbdd116c5	-0.10209421
72	0x3e9c2ef9	0.30504587
73	0x3ebf8cc1	0.37412074
74	0x3d96f45e	0.07370828
75	0x3ef778e8	0.48334432
76	0x3f1feca7	0.6247048
77	0x3e4ed16a	0.20197073
78	0xbdd5944d	-0.10428677
79	0xbe12f101	-0.14349748
80	0xbea492a2	-0.32143122
81	0x3c8fdd1d	0.01756149
82	0x3f21c9bb	0.6319844
83	0xbecd4b8f	-0.4009671
84	0xbf022c4c	-0.5084884
85	0x3e462121	0.19348575
86	0xbd579245	-0.052629728
87	0xbe9df01b	-0.30847248
88	0xbec8db81	-0.39229968
89	0x3f5e3ba0	0.8680973
90	0x3edb82c3	0.428732
91	0xbee71f19	-0.45140913
92	0x3edc46c0	0.43022728
93	0x3ee202cf	0.44142768
94	0x3e980133	0.29688415
95	0xbe96a96e	-0.2942614
96	0x3f10b213	0.5652172
97	0x3ef1b681	0.47209552
98	0x3ef5942d	0.47964612
99	0xbeb0b944	-0.34516346
100	0x3ee0e9a5	0.43928257
101	0xbd506ba7	-0.050883915
102	0x3f972495	1.1808039
103	0x3e97fa36	0.29683083
104	0x3dc70107	0.09716993
105	0xbf01465c	-0.50497985
106	0xbf252c9e	-0.64521205
107	0x3daac33d	0.0833802
108	0x3ee3bd4d	0.44480363
109	0x3eef87e8	0.46783376
110	0x3c36809f	0.011139064
111	0x3ef4112d	0.47669354
112	0xbe9e96d3	-0.30974445
113	0x3f00bb82	0.50286114
114	0x3deb8d46	0.11501555
115	0x3cacf46e	0.021112647
116	0xbf09deb1	-0.53855425
117	0x3e8fad3c	0.28061855
118	0xbeefc2fb	-0.46828446
119	0xbd657011	-0.056015078
120	0xbef29a41	-0.4738331
121	0x3e839fa3	0.2570773
122	0x3e96d120	0.29456425
123	0xbd09c717	-0.033637132
124	0xbe97a2f0	-0.296165
125	0x3d0ac3a3	0.03387798
126	0xbed87a74	-0.42280924
127	0x3ea05b43	0.31319627
128	0xbe84fc1f	-0.25973603
129	0x3e59ca29	0.21268524
130	0xbd9e87a7	-0.077407174
131	0xbeecffa0	-0.46288776
132	0x3d2bbfe0	0.041931033
133	0xbef8598a	-0.48505813
134	0xbed1324f	-0.40858695
135	0xbe32db31	-0.17466427
136	0x3c92d5c7	0.017924203
137	0xbf0469ff	-0.5172424
138	0xbef930bb	-0.4866999
139	0xbeacef87	-0.33776495
140	0x3e848a4e	0.25886768
141	0xbe91cafb	-0.28475174
142	0xbeb2586e	-0.34833091
143	0x3ee99f68	0.4562943
144	0x3c1d6c59	0.009608352
145	0x3e52ff3b	0.20605175
146	0xbd17a102	-0.037018783
147	0xbea6edcb	-0.32603297
148	0xbe4729b7	-0.19449507
149	0xbefb7d9c	-0.4911927
150	0x3eb149da	0.34626657
151	0x3d06a153	0.032868695
152	0xbfdbabb3	-1.7161773
153	0x3e9bd245	0.3043386
154	0xbe9f3d2c	-0.31101358
155	0x3c1a3abf	0.00941342
156	0x3d946323	0.07245471
157	0xbeee480f	-0.4653935
158	0x3e3a86d1	0.18215491
159	0x405399f4	3.3062716
160	0xbf1e5a41	-0.61856467
161	0xbde98e48	-0.11404091
162	0xbe868b1b	-0.26278004
163	0xbe03f6d3	-0.12887125
164	0x3d41ee59	0.047346447
165	0xbf1eef16	-0.62083566
166	0xbf151510	-0.58235264
167	0xbfaf9301	-1.3716737
168	0xbd1beac6	-0.038065694
169	0xbeb76c21	-0.35824683
170	0xbe10e8fa	-0.14151374
171	0x3f31e3a8	0.69488
172	0x3f3befc5	0.73412734
173	0x3dea67a2	0.11445548
174	0x3e96d0ba	0.2945612
175	0x3f011fbb	0.5043904
176	0xbe4661b7	-0.19373213
177	0x3d8c1837	0.06840556
178	0x40022667	2.033594
179	0xbeaab427	-0.3334057
180	0xbe649ac3	-0.22324662
181	0xbd230fa3	-0.039809834
182	0xbe1cfb37	-0.15330206
183	0x3e17e598	0.14833677
184	0x3e3a724a	0.1820766
185	0xbe928366	-0.28615874
186	0x3f9b7b16	1.2146938
187	0xbf078250	-0.52933216
188	0xbede36c2	-0.43401152
189	0xbcf9f0ed	-0.03051039
190	0x3ed3433c	0.41262233
191	0x3ed2a31d	0.4114007
192	0x3d0a3935	0.033745963
193	0x3ee296d4	0.44255698
194	0x3e059cab	0.13048045
195	0x3d6eae2d	0.058271576
196	0x3edbee1a	0.42955095
197	0x4015f6fa	2.3431993
198	0xbf0d5fdc	-0.55224395
199	0xbdf75d36	-0.120783255
200	0x3d91c4fd	0.07117651
201	0x3ef1ae95	0.47203508
202	0xbefa0acd	-0.48836365
203	0x3ef3c773	0.47613105
204	0xbdff1fde	-0.1245725
205	0x3f686246	0.90774953
206	0xbfa2c21a	-1.2715485
207	0xbe3a5e8a	-0.18200126
208	0x3e81c3d6	0.25344723
209	0xbebb5976	-0.3659169
210	0x3eb77f11	0.3583913
211	0xbda9c73c	-0.08289954
212	0x3e705764	0.23470837
213	0xbde84a59	-0.11342306
214	0x3e8301bc	0.2558726
215	0xbef251b5	-0.47327963
216	0x3f4821cf	0.7817659
217	0xbe7add72	-0.24498537
218	0xbee27d73	-0.44236335
219	0xbe5bda4a	-0.2146999
220	0x3d009705	0.031394023
221	0xbe36d6f9	-0.17855443
222	0x3eecfeec	0.4628824
223	0xbc3e0428	-0.011597671
224	0x3e805341	0.25063518
225	0xbedb0c2b	-0.4278272
226	0x3e8c0572	0.27347904
227	0x3ed6435d	0.4184827
228	0xbfa2e573	-1.2726272
229	0xbf7ff055	-0.9997609
230	0x3e08f308	0.13373959
231	0xbd501f48	-0.050811082
232	0xbdfe4017	-0.12414568
233	0x3e4e7352	0.20161179
234	0x3f0df004	0.5544436
235	0xbec61ca0	-0.38693714
236	0x3e26a90c	0.16275424
237	0xbee385c1	-0.44437984
238	0xbeab359b	-0.33439335
239	0x3e2834e5	0.16426428
240	0xbdc8580d	-0.09782419
241	0xbe3ce7ee	-0.18447849
242	0x3ee2b201	0.4427643
243	0x3dbadb1f	0.09123825
244	0xbd9347b0	-0.07191408
245	0x3e345930	0.17612147
246	0xbec42a58	-0.38313556
247	0x3ebc1e34	0.36741793
248	0x3ecaf8e0	0.39643002
249	0xbdd7b550	-0.105326295
250	0x3ea3bc3c	0.3197955
251	0xbdba0f85	-0.09084991
252	0xbe90705a	-0.28210717
253	0xbf0153ba	-0.5051838
254	0xbe46b7fb	-0.1940612
255	0xbd303aaf	-0.043024715

decoder.dec2.bias f4 [39]
0	0x3c969aca	0.018384356
1	0x3d5f87fd	0.054573048
2	0xbd019f04	-0.03164579
3	0xbc394e07	-0.011310107
4	0xbcc9e429	-0.024644928
5	0xbcd3ece0	-0.025869787
6	0xbcc3ee7c	-0.02391743
7	0x00000000	0.0
8	0x3d6ca54f	0.057774838
9	0xbd541ce4	-0.051785365
10	0xba2ebeb8	-0.00066659926
11	0xbd5a062e	-0.05322855
12	0x3bf08d8f	0.007341094
13	0x3c295e34	0.010337401
14	0x3c10cd18	0.008837961
15	0x3d99d9b0	0.07512224
16	0xbd36acd4	-0.044598415
17	0x3ccaa83c	0.024738424
18	0x3da3cff5	0.07998649
19	0x3d235e87	0.03988507
20	0xbc74a8eb	-0.014932851
21	0xbd10eac3	-0.035380136
22	0xba0e88c9	-0.00054372527
23	0xbd05adf3	-0.032636594
24	0x3cc9fc06	0.024656307
25	0x3bff2363	0.007786201
26	0xba83711b	-0.0010028215
27	0x3e0c77da	0.13717595
28	0xbd499ab2	-0.049219795
29	0x3da10740	0.07862711
30	0x3bb415fe	0.0054957857
31	0x3d057af4	0.03258796
32	0xbd70aa2a	-0.05875603
33	0xbbcbd5d9	-0.006220561
34	0x3c1bb3bc	0.009503301
35	0xbc9090ff	-0.017647265
36	0xbdc67c38	-0.096916616
37	0xbcf84051	-0.030304106
38	0x3bd07396	0.006361435

decoder.dec3.weight f4 [58, 39]
0	0xbd9c091d	-0.07618926
1	0x3dd9368b	0.10606106
2	0x3e7479ce	0.2387459
3	0x3e32e2d9	0.17469348
4	0x3ebde4e3	0.3708869
5	0x3e9f318b	0.31092486
6	0x3dd9de18	0.10638064
7	0xbea7c4ac	-0.32767236
8	0x3ea49253	0.32142887
9	0x3de9363c	0.113872975
10	0xbdb59d51	-0.08867896
11	0xbe67c3b0	-0.22633243
12	0xbdd08313	-0.101812504
13	0xbe9bbeec	-0.304191
14	0xbe9e2cff	-0.30893704
15	0xbe9c1006	-0.30480975
16	0xbe808c13	-0.25106868
17	0xbdb0442f	-0.08606755
18	0x3c9db9ea	0.01925369
19	0x3ebd65b6	0.36991662
20	0xbebdd171	-0.37073854
21	0xbe55e9ed	-0.20890017
22	0xbe46b11c	-0.194035
23	0x3e510027	0.20410214
24	0x3eb2c3c5	0.34914985
25	0xbda4c8e5	-0.0804613
26	0x3ebf5a14	0.37373412
27	0xbe709bf3	-0.2349699
28	0x3eac6ed3	0.33678302
29	0xbf192f48	-0.5983777
30	0xbedabbde	-0.42721456
31	0xbd179f10	-0.03701693
32	0x3ea782a5	0.3271686
33	0x3eddaa45	0.43293968
34	0x3dd17198	0.102267444
35	0x3dbe8b07	0.09303861
36	0xbe02b2b3	-0.12763481
37	0xbe4841c3	-0.19556336
38	0x3e2e9505	0.17049034
39	0x3d641eae	0.05569332
40	0x3e82a7a4	0.25518525
41	0x3ba4c5ea	0.005028476
42	0xbe81eb3e	-0.25374788
43	0xbe7462d8	-0.23865831
44	0xbe1a3f87	-0.15063296
45	0x3daeec1f	0.0854113
46	0xbc9b2702	-0.018939499
47	0x3f04e343	0.51909274
48	0xbf14f07b	-0.58179444
49	0x3e0781ae	0.13233063
50	0xbebbff31	-0.36718133
51	0xbe82919e	-0.25501722
52	0x3e78f8d4	0.2431367
53	0x3e9faf22	0.31188303
54	0xbebcd88a	-0.36883956
55	0xbeb0f42c	-0.34561288
56	0x3e81b180	0.25330734
57	0x3f1e5f2b	0.61863965
58	0x3f210975	0.62905055
59	0xbe1d503f	-0.15362643
60	0xbea029c9	-0.3128188
61	0xbe208f64	-0.15679699
62	0x3e548590	0.20754075
63	0xbd8587d4	-0.06520048
64	0x3e40c9d9	0.18826999
65	0xbc46770b	-0.012113343
66	0x3e061cdb	0.13096945
67	0xbd29783d	-0.041374434
68	0x3ef2cffc	0.47424304
69	0x3eb302bb	0.3496302
70	0xbd3b01aa	-0.045655884
71	0xbe2a6cc9	-0.1664306
72	0x3d9960ea	0.07489188
73	0x3ec9a044	0.39380085
74	0xbcb4cbe6	-0.022069883
75	0xbf3b03f1	-0.7305289
76	0x3e42c536	0.19020543
77	0xbe112d0a	-0.14177337
78	0x3d67d86b	0.056602877
79	0xbe869f80	-0.26293564
80	0x3e59c90e	0.21268103
81	0x3ecfd1f1	0.4058986
82	0x3e2066e2	0.15664247
83	0xbdbd3901	-0.09239388
84	0xbd85c1f5	-0.06531135
85	0xb7f201df	-2.884952e-05
86	0xbeb42f17	-0.35192177
87	0x3f1dec33	0.61688536
88	0x3f3a718f	0.72829527
89	0xbe39c165	-0.1814018
90	0x3e50b1d8	0.20380342
91	0xbc6d39c1	-0.014479102
92	0xbe48cf0b	-0.1961023
93	0x3ee11f47	0.43969175
94	0x3f1690df	0.58814806
95	0xbbc210f8	-0.005922433
96	0xbf2fddaf	-0.6869764
97	0xbe809e67	-0.2512085
98	0xbea8f8da	-0.3300236
99	0xbf055b96	-0.52092874
100	0x3d9ddf69	0.07708628
101	0x3eaaf0de	0.33386892
102	0xbe036dfd	-0.12834926
103	0x3cbb5766	0.022868823
104	0x3e88f9c1	0.26753047
105	0x3e52ba32	0.2057884
106	0xbd7006c7	-0.058600213
107	0xbfa7cd6d	-1.3109566
108	0x3e05b02b	0.13055484
109	0xbe7fbb0f	-0.24973701
110	0xbeb6c7bd	-0.35699263
111	0xbe287f62	-0.16454843
112	0xbf15cafc	-0.58512855
113	0xbb8547af	-0.0040673832
114	0x3ef947c3	0.48687562
115	0xbec42e37	-0.3831651
116	0xbdb6cc7a	-0.089257196
117	0xbebddd1c	-0.37082756
118	0x3e75702e	0.23968574
119	0x3d2b0fec	0.04176323
120	0xbca7770e	-0.020442512
121	0xbe238746	-0.15969571
122	0x3d6b1c98	0.057400316
123	0xbd78d232	-0.060747333
124	0x3eb4b07c	0.35290897
125	0xbba967eb	-0.0051698587
126	0x3e2b4ea4	0.16729218
127	0xbd91057d	-0.07081125
128	0xbe828d32	-0.25498348
129	0xbde7e67f	-0.113232605
130	0xbde0a6c8	-0.10969311
131	0x3d6f1483	0.05836917
132	0xbdbb9fd1	-0.09161342
133	0x3e9a277d	0.30108252
134	0x3e947d4f	0.29001853
135	0x3efb74ee	0.49112648
136	0x3dca88b4	0.09889355
137	0xbe6acb6e	-0.22929165
138	0x3d405680	0.046957493
139	0xbe6f3a5d	-0.23362108
140	0x3e58e4d8	0.21181047
141	0x3cd94c39	0.026525604
142	0xbe4f9beb	-0.20274322
143	0x3e8265c6	0.25468272
144	0xbd9b5136	-0.07583849
145	0xbdc9d87b	-0.098557435
146	0xbe3032a1	-0.17206813
147	0xbe9694b5	-0.2941033
148	0x3ebc2aa0	0.3675127
149	0xbeb8973f	-0.36052892
150	0x3c823b45	0.015897403
151	0x3e53b235	0.2067345
152	0xbd85f7cc	-0.06541404
153	0xbe9e4c60	-0.30917645
154	0xbe972076	-0.29516953
155	0xbe1367de	-0.14395091
156	0xbdeecf7d	-0.11660669
157	0x3e35a7f0	0.17739844
158	0x3e1364bb	0.14393894
159	0xbfba7f5b	-1.4570116
160	0xbe2d2d67	-0.16911851
161	0xbedf9be7	-0.43673632
162	0xbea82f46	-0.32848567
163	0xbeb5b672	-0.35490757
164	0x3e455965	0.19272383
165	0x3dcf3579	0.10117621
166	0x3eaef4a2	0.34171015
167	0x3eb89a02	0.36055
168	0xbedadbf1	-0.42745927
169	0x3e2b46ad	0.1672618
170	0x3e44ebaa	0.19230524
171	0x3ed6f271	0.41981843
172	0x3e2599d8	0.16171968
173	0xbc8e352d	-0.01735934
174	0xbe6f1335	-0.2334717
175	0xbee7264e	-0.45146412
176	0x3e4e52c4	0.2014876
177	0x3fd04c15	1.6273218
178	0x3ee34a4b	0.4439262
179	0xbcdeaf44	-0.027183183
180	0xbd95ef05	-0.0732098
181	0xbedcf6d2	-0.4315706
182	0x3e9826a6	0.29716986
183	0xbca5f08b	-0.020256301
184	0xbec55914	-0.38544524
185	0xbfe2530b	-1.7681593
186	0xbdd8a442	-0.10578205
187	0x3ddab006	0.10678105
188	0x3e5f6bf0	0.21818519
189	0xbe8b4a90	-0.27205324
190	0xbe2024d5	-0.1563905
191	0xbd113af9	-0.03545663
192	0xbf07bd9c	-0.53023696
193	0x3de6194f	0.11235296
194	0xbe84b796	-0.25921315
195	0x3e05a0fe	0.13049695
196	0x3d24bc8d	0.04021888
197	0x3b8b1584	0.004244508
198	0x3e063419	0.13105811
199	0xbe3b1725	-0.18270548
200	0xbe9253d8	-0.28579593
201	0x3e79ca5a	0.24393597
202	0x3b974f4a	0.0046176063
203	0xbf34d322	-0.70634663
204	0xbdf7877d	-0.12086389
205	0x3f30b622	0.6902791
206	0xbef9d3c0	-0.48794365
207	0x3f1c988a	0.61170256
208	0xbcaf0143	-0.021362906
209	0x3d96ee3b	0.073696576
210	0x3ee65ff7	0.4499509
211	0x3ecf49b5	0.40485922
212	0xbd2cea54	-0.04221566
213	0xbdc1a77d	-0.09455774
214	0xbee9ff16	-0.45702428
215	0x3e021723	0.12704138
216	0x3f6f611b	0.93507546
217	0x3ede467d	0.43413153
218	0x3e9b7687	0.30363867
219	0x3d644e06	0.05573847
220	0xbdae8f7f	-0.085234635
221	0x3e574c73	0.21025257
222	0x3eb31cda	0.3498295
223	0x3e4717bc	0.19442648
224	0x3de4456a	0.11146052
225	0x3deaef0f	0.11471378
226	0x3e47c51c	0.19508785
227	0xbd2f0bda	-0.042735912
228	0x3ead6680	0.33867264
229	0xbf390508	-0.722733
230	0x3da0c1fd	0.078495
231	0xbf8e652d	-1.1124626
232	0x3e804d58	0.2505901
233	0x3bcec353	0.0063099056
234	0x3e9d5a5b	0.30732998
235	0xbe34384a	-0.17599598
236	0xbed79349	-0.42104557
237	0x3dd6da2c	0.10490832
238	0x3ecbd61d	0.39811793
239	0xbb426090	-0.0029659607
240	0xbe89f4d1	-0.26944593
241	0x3eaf82f9	0.34279612
242	0xbf314c95	-0.6925748
243	0x3d9f3cb5	0.07775251
244	0x3e59f865	0.21286161
245	0x3b86d248	0.004114423
246	0x3f21fcda	0.63276446
247	0xbe4ee3db	-0.20204107
248	0x3ea608de	0.3242864
249	0x3f547fdb	0.8300759
250	0x3ef87a7e	0.48530954
251	0xbe051795	-0.12997277
252	0x3da2a2f9	0.07941241
253	0xbefef158	-0.49793506
254	0xbd01b125	-0.03166308
255	0xc01cf4c0	-2.4524384

decoder.dec3.bias f4 [58]
0	0xbbdad56e	-0.006678275
1	0x3d612a25	0.054971833
2	0x3d812c78	0.0630731
3	0xbc86712a	-0.016411383
4	0x3c948e5b	0.018134287
5	0x3c6fe244	0.014641348
6	0x3c31a7cf	0.010843231
7	0xbb8c7365	-0.004286217
8	0xbc9708f5	-0.018436888
9	0xbd88541d	-0.06656668
10	0x3c335c52	0.010947304
11	0x3de3707f	0.11105441
12	0xbcf300d3	-0.029663479
13	0xbd005eb9	-0.031340335
14	0x3c85cfbb	0.016334405
15	0x3ce7fb71	0.028318139
16	0xbc923521	-0.0178476
17	0xbcf35cd0	-0.029707342
18	0xbcbe4f81	-0.02323127
19	0x3ca928da	0.020649362
20	0xbdca9f38	-0.0989365
21	0x00000000	0.0
22	0xbc921fa1	-0.017837347
23	0x00000000	0.0
24	0xba220849	-0.0006181044
25	0xbd3abddc	-0.04559122
26	0x3cdbdfa7	0.026840044
27	0xbdc5c378	-0.09656423
28	0x3c9eb198	0.019371793
29	0xbd8e19ee	-0.069385394
30	0x3dda438a	0.10657413
31	0x3d4b1c07	0.049587276
32	0xbb7fbca4	-0.003902235
33	0x3da203f3	0.079109095
34	0x3ce3be7a	0.027800787
35	0x3d389645	0.045065183
36	0xbdc63f0d	-0.09679995
37	0x3be1a7ff	0.006886482
38	0xbc3fa65c	-0.011697378
39	0xbb46784c	-0.0030284105
40	0x3d53b400	0.051685333
41	0x3d2d9836	0.042381488
42	0xbc5d9fd3	-0.013526875
43	0xbd6b96a3	-0.057516705
44	0x3cc905b6	0.024538856
45	0xbd8f6180	-0.070010185
46	0x3d08d9d5	0.033410866
47	0xbd879377	-0.066199236
48	0x3cd8c8e5	0.026462981
49	0x3b546acd	0.003241229
50	0x3c8bf717	0.017085595
51	0x3d089860	0.03334844
52	0xbd575e38	-0.05258009
53	0xbc1f0683	-0.009706142
54	0xbe22356f	-0.15840696
55	0x3d79671b	0.060889345
56	0xbe106ba7	-0.14103566
57	0xbd5be34c	-0.053683564
