IDS_TA/initial_Models/CADE-m1.0-l0.1.pth (torch, 67890 bytes, 16 tensors)

encoder.enc1.weight f4 [58, 78]
000000 fc 6e 73 bf fa e5 35 3d 9e aa 2b 3e a2 d2 29 3d
       -0.95091224 0.044408776 0.16764304 0.04146064
000010 c4 86 6f 3e 97 9e 57 bd 45 b3 56 3e c0 f7 cb 3d
       0.23391253 -0.052641477 0.20966823 0.09959364
000020 cf 7a cd bd 0c 2f 52 be 15 db 60 3c 0d ab 96 3d
       -0.100331895 -0.2052576 0.013724108 0.07356844
000030 24 1d e5 bd 46 e2 85 bd 58 06 0f be 31 44 b8 3e
       -0.11187199 -0.06537299 -0.13967264 0.35989526
000040 99 b6 07 bc fc db a9 be 1f 17 04 bd 12 f0 3e bd
       -0.008283281 -0.33175647 -0.032248612 -0.046615668
000050 a2 37 84 be 37 1e 01 3e cd f2 eb 3d 1d 51 0c be
       -0.25823694 0.12609182 0.1152092 -0.13702817
000060 35 c3 6d be 56 5a 4d 3e 09 85 06 3e 26 6c 5b bd
       -0.23218997 0.20053992 0.13136686 -0.053569935
000070 c0 4d ed bd 47 bb 09 3b b9 c4 70 3e fe 5a 8d bd
       -0.11587095 0.0021016167 0.23512544 -0.06902121
000080 91 59 2f 3d 04 56 2b 3e 30 a1 82 3e df ff 81 3b
       0.042810027 0.16732031 0.255136 0.00396727
000090 62 0d 5b 3d 14 9a 89 be 75 38 a9 be c0 71 12 bc
       0.05347956 -0.26875365 -0.33050886 -0.008938253
0000a0 a2 f4 76 be 39 21 72 be 03 51 b8 3c 43 98 8b bd
       -0.24116758 -0.23645486 0.022499567 -0.06816151
0000b0 2c 01 d7 bd 64 bf 6e 3c 45 81 c1 3e 25 ed e6 bc
       -0.104982704 0.014571998 0.37793937 -0.028189251
0000c0 54 6c 72 be 1c a6 4a be f0 a5 3e bd d8 6a b8 3d
       -0.23674136 -0.19789928 -0.04654497 0.09004754
0000d0 c1 83 0d be b6 6a 50 bb e6 99 94 be ac e4 dc bd
       -0.13819791 -0.0031801886 -0.29023665 -0.10785803
0000e0 c3 59 1c 3f 6b 77 e5 be bf c9 16 be 9d e6 c2 3d
       0.61074466 -0.4481767 -0.14725398 0.09516642
0000f0 84 33 76 3d f5 1f ac bd c5 af 8f be 82 e2 04 3e
       0.060107723 -0.08404533 -0.2806379 0.12977031
000100 4e dd 2f be 50 5b 45 3e 4f 01 42 3d 5b 49 db bc
       -0.17174265 0.19273114 0.04736453 -0.026768377
000110 6a a4 d3 3e 28 42 28 3e 81 af 85 bd 19 0e 10 3c
       0.41336375 0.16431487 -0.06527615 0.008792424
000120 6b dc 2e be 24 db 92 be 94 a0 0d be 4c 30 26 bf
       -0.1707627 -0.28682816 -0.13830787 -0.64917445
000130 9b 1b 6a be 4a af 4c be 6f 84 8f 3e 20 c9 dc bd
       -0.22862093 -0.19988742 0.28030726 -0.10780549
000140 bf 6c 5a be b8 ec c1 3d 84 53 9f bc 5f 28 72 3e
       -0.21330546 0.09468979 -0.019449003 0.23648213
000150 28 6a b6 bc af ae 99 be 21 50 c9 3e d0 93 17 3e
       -0.022267416 -0.30016086 0.39318946 0.1480248
000160 a6 f5 8e bd 95 e4 59 3d bf 45 ad bd a9 bf 37 bd
       -0.069804475 0.05319651 -0.08460569 -0.044860516
000170 f1 86 0a be 61 96 34 be 2c 9b b7 bc ab 78 68 3d
       -0.13528039 -0.1763549 -0.022412859 0.056755703
000180 7d db 2c be 64 72 4d 3e 2d 57 fa 3b 70 02 4c be
       -0.16880603 0.20063168 0.0076397867 -0.19922805
000190 7a bf a4 3c a0 9a 0a be 1a c7 22 be a2 db 7c bc
       0.020110834 -0.13535547 -0.15896264 -0.015433224
0001a0 aa fd 1f 3e ae 87 4f 3e 20 7e 05 be 51 3e c3 3d
       0.15624109 0.20266601 -0.13036394 0.0953337
0001b0 09 88 21 be 33 07 ad 3d 06 a1 41 bd 41 77 71 be
       -0.1577455 0.08448639 -0.047272705 -0.23580648
0001c0 91 c6 91 bb e1 4b 47 3d 82 7a 9a bd 58 22 58 3d
       -0.00444872 0.04865635 -0.07542898 0.052767128
0001d0 58 ee fc bd 34 48 f8 be a7 6e 3d 3e d3 56 5d 3e
       -0.12350148 -0.48492587 0.18499242 0.21615152
0001e0 b8 40 22 3c 4c 95 2a 3e b1 21 9d bc b8 43 5b 3d
       0.009903125 0.16658515 -0.019181104 0.05353138
0001f0 ee 4a 57 bd 22 09 09 3e d9 98 2b 3e 60 c0 14 be
       -0.052561693 0.1338239 0.16757526 -0.1452651
000200 4f 33 84 3a 53 13 70 3e 06 ca ca bd 0f a3 05 bd
       0.0010086092 0.23444872 -0.09901814 -0.032626208
000210 3a c7 e2 bc 4d 0a 96 3d b5 b1 1d bd 65 51 e0 3e
       -0.02768289 0.073261835 -0.038499553 0.438121
000220 c2 2e 15 be 21 fe 20 bd 0f 9f 30 bd 2f 67 ff 3d
       -0.14568618 -0.039304856 -0.04312044 0.124708526
000230 ed e9 39 3d 4e 6b d5 3d d8 cc 2e bd 49 c0 0a be
       0.045389105 0.10420857 -0.042675823 -0.13549913
000240 bd aa b1 3c e8 44 8b bc b9 c9 28 3d 8a b4 72 3e
       0.02168786 -0.01700063 0.041208003 0.23701683
000250 cd fc 0a be f9 22 1b 3e bc f8 71 be f9 ea d8 be
       -0.13572998 0.1515006 -0.23630041 -0.4236677
000260 08 08 72 3e 36 9a 86 3a 81 b6 d5 3d 1b 15 f3 3d
       0.23635876 0.0010269347 0.104352005 0.1186926
000270 8f 10 d1 bd 34 62 07 3e c0 78 d4 bd a9 ee 6d 3e
       -0.102082364 0.13221055 -0.10374594 0.23235573
000280 5d d3 20 be 41 7d 8e be 0c df 0c bd 82 58 83 bd
       -0.15705629 -0.27829936 -0.0343924 -0.06413366
000290 9e d5 eb 3d 2b 40 5e be 40 78 98 bd e8 7b d3 3c
       0.115153536 -0.21704166 -0.07444811 0.025815919
0002a0 cd c0 f6 bd e7 cf 98 3d c7 cd 00 3d dd f0 56 bd
       -0.120484926 0.07461529 0.031446245 -0.0524758
0002b0 5d 51 34 bd 56 1f 9a bd 56 4c 3c be f6 43 39 bd
       -0.044022907 -0.07525508 -0.18388495 -0.04523083
0002c0 2c fe 58 3d c4 42 ca 3d df a5 f4 bd 62 6b 94 3d
       0.052976772 0.09876016 -0.119457 0.07247044
0002d0 e8 c3 08 3e 40 65 25 be ac fd 34 be b6 a5 23 3d
       0.13355982 -0.16151905 -0.17674893 0.039952956
0002e0 f9 d1 d7 bd 3b e0 da 3d d7 f2 b6 bd 3a b6 06 3e
       -0.10538096 0.106873 -0.08933037 0.13155451
0002f0 8f 3e b2 bd 9c 1e 8c be 01 8d c2 bd bf 8e a0 bd
       -0.08703338 -0.27367103 -0.094995506 -0.07839727
000300 6f 37 f5 3d e5 51 d1 bd b3 a8 05 3e 41 a8 0f 3e
       0.11973464 -0.10220698 0.13052635 0.14029028
000310 66 4b d2 bc 55 6b c1 3a c2 36 2f 3e 55 78 05 be
       -0.025670718 0.0014756719 0.17110732 -0.13034184
000320 4e 82 09 3e ed 64 a5 3d 4b bb 01 bc 4d e8 70 3d
       0.13428614 0.08075891 -0.007918189 0.05881529
000330 ce 48 e4 3b 62 02 27 be 01 f7 12 be 8a 4f 28 3e
       0.006966687 -0.16309503 -0.14352037 0.16436592
000340 df 1c 70 3e fe a5 3c 3e 24 b4 6a bb aa 37 48 be
       0.23448513 0.18422696 -0.0035812939 -0.19552484
000350 db fb e1 bd 86 10 16 be f9 b4 d3 3d 0f b3 2b be
       -0.11034366 -0.1465474 0.10337252 -0.16767524
000360 e6 e5 b9 3d ff 47 e0 3d 36 de 1e be dd c4 06 3e
       0.09077053 0.10951232 -0.15514454 0.13161035
000370 4a 47 13 be db 5f 03 be 7b 6e 2c 3d fb dc da bc
       -0.14382663 -0.12829535 0.04209755 -0.0267167
000380 ea 28 41 bd 25 2e da 3d ae fe e3 bd ac de 38 bd
       -0.04715816 0.106533326 -0.11132561 -0.04513423
000390 78 00 69 3d 97 c0 47 bd 13 6d a3 3d cd fd 03 be
       0.056885213 -0.048767652 0.07979789 -0.12889786
0003a0 41 6c a5 3d 3e 00 4c bc 49 4e 88 3e f6 f2 88 be
       0.080772884 -0.01245123 0.26622227 -0.26747864
0003b0 33 be cd 3c aa 6f 36 3e 82 58 c6 bc 03 f3 35 3d
       0.025115108 0.17816034 -0.024212126 0.044421207
0003c0 e8 44 23 3e f4 c0 ac 3b de 5b ee bd 6f 34 db bc
       0.15944254 0.0052720252 -0.11638616 -0.0267584
0003d0 f7 29 ec bd 22 37 e8 ba 45 ee 04 be 56 6c d9 bc
       -0.11531442 -0.0017716626 -0.12981518 -0.026540916
0003e0 cd 1d e8 3c 8b 38 9a be d9 7f 14 3e 62 a1 41 be
       0.028334523 -0.30121264 0.14501895 -0.18909219
0003f0 4b ac 25 bc 07 55 e4 3d bc 53 c1 3e 8d 55 18 3d
       -0.010111879 0.1114903 0.37759197 0.037190963

encoder.enc1.bias f4 [58]
000000 52 87 95 bc 58 a2 ed bc ad 65 2e bc 15 5c 9a 3c
       -0.018253002 -0.029008076 -0.010644359 0.018842736
000010 6b ad 01 3d 82 e6 80 bc 27 5a d2 bc 9f ed 83 bc
       0.031659525 -0.015734915 -0.025677754 -0.016104518
000020 52 11 59 3c 8c 0a 3f 3d 6c 47 37 3c a0 17 9a 3c
       0.013248758 0.046640918 0.011186462 0.018810093
000030 a6 0c a1 3d 39 45 7c bc 0f 56 b6 3c e2 f1 b0 3d
       0.078637406 -0.015397363 0.022257833 0.086398855
000040 c4 cf 8d bc 7e db 92 3d e8 14 e0 bc 7a 5e 40 3d
       -0.017310984 0.07170771 -0.027353719 0.0469651
000050 72 18 10 bd 24 aa 42 3d 36 92 44 bd 81 9a 03 bd
       -0.035179563 0.04752554 -0.047991 -0.03212977
000060 87 e3 dd 3c 1c cf 17 3b a7 81 3f bc fd 5b 7e 3d
       0.027086033 0.0023164218 -0.011688626 0.062099446
000070 18 27 a1 3b e3 c2 32 bb 09 79 60 3d 02 cc 87 3b
       0.0049179904 -0.0027276806 0.054802928 0.0041441927
000080 60 01 62 3d ae 45 38 3d 65 5b 15 bc 29 f9 ff bb
       0.055177093 0.044988327 -0.009116028 -0.0078116846
000090 1a 42 f0 bb 84 10 7c 3c a7 16 e6 3c be 29 5e bd
       -0.0073320987 0.015384797 0.028086973 -0.054239027
0000a0 3f c7 0f 3c d9 a3 02 bd 24 0a cb bc 23 f3 19 bd
       0.008775531 -0.03189454 -0.024785109 -0.03758539
0000b0 0c f2 55 bc 1f fb 83 bc 4f ce 0d 3c b7 28 8e 3d
       -0.013058197 -0.016110955 0.008655145 0.069413595
0000c0 9d 64 0b bd e4 60 2d 3b 40 a7 f0 3b 7b cf b0 3c
       -0.0340315 0.0026455456 0.0073441565 0.02158331
0000d0 e3 c0 ae bb be d3 22 bd ac ba 36 3b 6a 90 37 bb
       -0.0053330525 -0.039752714 0.0027882261 -0.0028009661
0000e0 b8 22 b4 bb af 81 98 3d
       -0.005497303 0.0744661

encoder.enc2.weight f4 [39, 58]
000000 d6 13 a8 be 42 ee 2f 3d 03 ba ed 3b 53 24 45 be
       -0.32827634 0.04295183 0.0072548403 -0.19252138
000010 9c ab a9 3e dd 7d 86 3e 36 a9 a6 3c 92 a0 a1 be
       0.3313874 0.262679 0.020344358 -0.31567818
000020 59 46 64 be 08 b3 19 be be 41 fc 3d 32 54 62 3e
       -0.2229246 -0.15009701 0.12317227 0.2210243
000030 4e 15 8b be 8c 07 49 be c7 6d e9 bd 56 f8 cd bd
       -0.27164692 -0.19631785 -0.113978915 -0.10057132
000040 d7 19 a1 be 04 ef b1 3d d6 44 6c 3d d6 0f 06 3f
       -0.31465027 0.08688167 0.057682835 0.52367914
000050 fd 2b 8b bc ee 44 49 3e cb 55 9e 3e dc d5 d9 3c
       -0.016988749 0.19655201 0.3092483 0.026591234
000060 f8 ad c4 3d dc b9 7e 3e 16 3d 9a 3e a5 b0 3e be
       0.096034944 0.24875587 0.3012473 -0.18622072
000070 3f 7e 19 be 43 2b d4 bb 37 f1 b8 be b9 e5 9e bd
       -0.14989565 -0.0064748838 -0.36121532 -0.0775866
000080 eb a8 49 be b6 1e 8f 3e 79 4d 3a bd d3 f7 a1 3c
       -0.19693343 0.27953118 -0.04548404 0.019771492
000090 33 bf f2 bd 62 1b ce bd 88 88 0b 3e 54 d2 b8 3e
       -0.118528746 -0.100638166 0.13626301 0.36097968
0000a0 ce 6d 94 bc c9 aa 55 3e b3 42 d4 3c e2 bc df 3c
       -0.018118765 0.2086593 0.02591071 0.027311746
0000b0 ef 12 61 3e 42 91 67 be e5 70 1e 3d 6b 7f 28 3e
       0.21979879 -0.22614005 0.038681883 0.16454856
0000c0 42 0c a0 3e 8d 35 91 3d 9b 65 8d 3e 5a 83 18 be
       0.31259352 0.07090292 0.2761658 -0.14893857
0000d0 19 6f f6 bd bf d2 c8 3a 42 4f 59 3e f4 c3 6b be
       -0.12032909 0.0015321596 0.2122164 -0.23023969
0000e0 8d b0 88 3e 67 e3 53 be 65 ff 5c be 13 2f 46 3e
       0.26697198 -0.20692216 -0.215818 0.19353895
0000f0 72 35 01 3e 4e 67 14 be ba 8d 94 3d f7 49 83 3e
       0.12618044 -0.14492533 0.07253595 0.25642368
000100 27 c9 38 bd e5 05 07 be 6c 26 f9 b9 38 13 fd ba
       -0.04511371 -0.13185842 -0.00047521607 -0.0019308096
000110 02 81 59 3e 18 c7 ae 3e 7b 05 13 3e a5 0a ea 3d
       0.21240619 0.3413627 0.1435756 0.114278115
000120 3c d3 03 3e de a7 79 be 0d bf 8f 3c 03 f2 1e 3e
       0.12873548 -0.24380443 0.017547155 0.15522008
000130 67 a7 ae 3d eb 3a 06 3e e6 79 d6 bd 34 80 94 be
       0.08528023 0.13108413 -0.10472469 -0.2900406
000140 72 4a 1d be 7f ed 3a 3e df a8 a5 bc 18 50 82 3e
       -0.1536043 0.1825466 -0.020222126 0.25451732
000150 dc ea 9f be d4 e9 43 3e 96 10 4e bd d8 aa 95 bd
       -0.3123387 0.19132167 -0.050308786 -0.073079765
000160 bc 31 84 3e f5 4a 69 3e 77 5c 80 bc 65 30 98 be
       0.25819194 0.227825 -0.01566909 -0.29724422
000170 e2 fc a2 be 52 d2 a9 3e 94 0e 58 3e 7b 5e ee 3d
       -0.3183356 0.33168274 0.21099311 0.116391145
000180 57 2a fb bd 66 38 ab 3e ab a2 d7 3d c4 18 d8 bd
       -0.12263935 0.33441466 0.10529073 -0.10551599
000190 02 20 11 bc f0 e4 81 bd 25 75 19 3e ee 5f d9 3d
       -0.008857729 -0.063424945 0.14986093 0.10614
0001a0 8f d5 3e be 09 24 1c 3e 82 7a 78 3e 10 4e 2b 3e
       -0.18636154 0.15248121 0.24265483 0.16728997
0001b0 ec ba 81 3e 7c a9 61 3e 5c fa 62 be 04 f5 1e 3d
       0.25337923 0.2203731 -0.22165817 0.038807884
0001c0 9b fe 1c 3d 96 69 05 bd cf a5 8b 3e e4 44 67 3e
       0.03832875 -0.032571398 0.2727494 0.22584873
0001d0 48 a7 2e bd 5b 54 28 be e7 ba 16 be 3e d3 23 be
       -0.04264 -0.16438429 -0.14719735 -0.15998551
0001e0 64 85 ad be 9f c1 76 3e 5d 0e ad bc 6a b2 43 3e
       -0.3389083 0.24097298 -0.021125013 0.19111028
0001f0 42 a2 df bc 09 f5 20 be ec 2f 48 be 94 21 84 3e
       -0.02729905 -0.15718473 -0.1954953 0.25806868
000200 d3 ef 47 3d ea 57 a4 3e b7 c3 c7 bd 7b 20 01 3e
       0.0488127 0.32098323 -0.097541265 0.12610047
000210 ed d7 de bd c6 87 90 3e 1c 41 1d bd f2 27 e3 3e
       -0.10881028 0.28228587 -0.03839217 0.44366413
000220 38 22 ad bb 3e da 62 bd 19 f2 b4 3e 29 1c 99 bd
       -0.00528362 -0.055383913 0.35340956 -0.07476074
000230 ec ed 5a be 25 7d e0 bb 2b e3 94 3e cd 07 71 be
       -0.21379822 -0.006850856 0.29079565 -0.23538132
000240 f7 76 32 3e ad 38 6d 3d 3d a6 10 3e 16 bf 95 bd
       0.17428194 0.05791538 0.14125915 -0.073118374
000250 5a 92 48 be ba 95 d7 bd 7d d3 5c be 29 5e ac 3e
       -0.19587079 -0.10526605 -0.21565051 0.33665588
000260 40 c7 c1 3e 57 bc 85 be 75 ca 84 be 8b 09 52 3f
       0.37847328 -0.26120254 -0.25935712 0.8204581
000270 3f 34 dc bd 1f de 21 3e b1 52 61 be b7 43 86 be
       -0.10752153 0.15807389 -0.220042 -0.26223537
000280 78 1e e5 3d 70 80 8c be 0f 99 1f 3e fd ee 84 bd
       0.11187452 -0.2744174 0.15585731 -0.06490896
000290 23 df 04 3e 77 3f 51 3e 3a 4d 1c 3e 1a 2e 67 3e
       0.12975745 0.20434366 0.15263835 0.2257618
0002a0 48 b0 96 bd 9e a8 2b 3e 6b 77 68 3e 17 92 01 3d
       -0.07357842 0.16763541 0.22701804 0.031633463
0002b0 54 31 8d 3e 68 d8 66 3e 84 0b 74 3d bb 63 de bc
       0.27576697 0.2254349 0.059581295 -0.027147165
0002c0 66 e2 ad 3d b2 19 ff bc 82 fa 17 3e 6d 5d 90 3e
       0.08490448 -0.031140182 0.14841655 0.28196278
0002d0 57 32 90 3e 17 7d 16 3e 2b 03 2e be cd 14 18 3d
       0.28163406 0.14696155 -0.16993396 0.037129212
0002e0 1d c1 20 3e dc bf 48 bc 25 bf 3f bd 28 3c 6b be
       0.15698667 -0.012252774 -0.04681315 -0.22972167
0002f0 b9 c6 12 bb d8 4f 1b 3e 7b f5 84 3e 6d 59 8c bd
       -0.002239628 0.15167177 0.25968537 -0.06852994
000300 23 7a 5c be 02 3c dd bd 5e 77 cb 3b 93 c5 61 be
       -0.21530966 -0.10802461 0.006209298 -0.22048025
000310 83 36 b1 bd 51 cd a2 3c 07 e8 e2 3d fd 73 6b 3e
       -0.086529754 0.019873293 0.11079412 0.22993465
000320 8b 76 93 bd 14 b8 01 be a7 e0 89 be bb 78 8e 3e
       -0.07200345 -0.12667876 -0.2692921 0.27826485
000330 f4 41 51 be 22 a7 37 be fa 2d 9a 3e 99 57 61 3e
       -0.20435315 -0.1793485 0.30113202 0.22006072
000340 74 97 44 3e 52 ed 5f 3c 95 d6 8c be 96 d3 57 be
       0.191984 0.013667421 -0.27507463 -0.21076807
000350 af 20 11 be 52 7c 7f 3e c5 ac 68 be 24 0c 7c 3d
       -0.14172624 0.24949768 -0.22722156 0.061535016
000360 af 8b 81 3e 8d dc 8e 3d 56 7d 5d bc 4c 83 3b be
       0.25301883 0.069756605 -0.013518652 -0.18311805
000370 ac 4d 1b 3d 14 d9 80 be bf ae 0a 3e f8 8f 35 bb
       0.03791587 -0.25165617 0.13543223 -0.002770422
000380 b6 7f 52 3d 48 2b 81 3d 5b d3 b6 bc a6 73 e1 bd
       0.051391326 0.06307083 -0.022317579 -0.11008386
000390 43 e0 0d be a2 87 80 bd 98 be 1f be a3 b3 68 be
       -0.1385508 -0.0627587 -0.1560005 -0.22724776
0003a0 b0 b7 10 3e b4 e1 5e 3e 85 43 0e 3d c1 47 3e be
       0.14132571 0.21765786 0.03473236 -0.1858206
0003b0 ba 65 6a be 1c 5f a5 be 8f 05 63 be 51 d1 cd 3d
       -0.22890368 -0.32299125 -0.22170089 0.100496896
0003c0 0b b0 20 bf c3 97 2b bf 05 9f 80 3d e4 51 66 3e
       -0.6276862 -0.67028445 0.062803306 0.22492176
0003d0 bb 00 c4 be 9f bb 8e 3d 17 3e 53 3e 45 a0 bd be
       -0.38281807 0.0696938 0.20629154 -0.37036338
0003e0 e7 8e 8f bd b9 9f 83 3e 4b 2e a5 3e 9e 90 f3 3e
       -0.07009678 0.25707796 0.3226188 0.47571272
0003f0 18 95 7f be c3 18 1f bd 9d 27 cd 3e 9e 3b 63 3e
       -0.24959219 -0.038841974 0.40069285 0.22190711

encoder.enc2.bias f4 [39]
000000 18 0b 62 3b b5 c5 6e bc ce 46 c9 3c 2d 5d c8 bc
       0.0034491476 -0.014573504 0.024569895 -0.024458492
000010 48 2f 14 bd c6 ac 45 bc e9 de 84 bd c9 b4 d7 3c
       -0.036177903 -0.012065118 -0.06487829 0.026331322
000020 2e 7d 90 3b 93 27 7c 3d 0d d9 60 3d f8 d4 93 3d
       0.004409454 0.06156118 0.054894496 0.07218355
000030 ef ca ab ba e9 d3 01 3d e6 d2 6c 3d fe db 17 bc
       -0.0013106744 0.031696234 0.057818316 -0.009268759
000040 2d 29 65 bc 6c 3d 45 3c 4a fe 23 bc 30 07 89 bc
       -0.013986868 0.01203857 -0.010009358 -0.01672706
000050 21 fc dc 3c ab de 12 bd 6a 07 b0 bc e6 2b 99 3c
       0.026975693 -0.035856884 -0.02148791 0.01869769
000060 dc 75 e9 bc 04 08 5f 3d cf fc 32 bb 8d 8c 29 3d
       -0.028498583 0.054451004 -0.002731133 0.041393805
000070 e7 9a 82 3c ed 15 a7 3c 6b 47 db 3b e2 75 34 bb
       0.015943004 0.020396197 0.0066918633 -0.0027536084
000080 53 a7 1a bd 23 aa 18 bd eb d6 b0 3d 88 7e bb bc
       -0.03775723 -0.03727163 0.08634742 -0.022887483
000090 2c 94 60 3b aa ba a2 bb f8 83 04 3b
       0.0034268005 -0.0049660997 0.002022026

encoder.enc3.weight f4 [19, 39]
000000 13 57 8c 3e 1a e2 fe bc 8e dd f1 3d a3 b7 6b 3c
       0.27410182 -0.031113673 0.11809836 0.014387044
000010 f4 ec 3c bd 17 1e 9e 3e d3 d9 a1 bc 96 79 bc bc
       -0.046124414 0.30882332 -0.019757187 -0.023007195
000020 2f 4f 8b 3d 5e 6a 86 bc cd 17 c4 bd 32 97 32 3c
       0.068022124 -0.016408142 -0.09574852 0.010900306
000030 9d 4b db bd 12 44 4c be eb 48 7a bd d2 98 83 3e
       -0.107077815 -0.19947842 -0.061104696 0.2570253
000040 74 be 96 3e 3c d5 85 bd f0 ea 0a be 1a a7 2f 3d
       0.2944218 -0.06534812 -0.13566184 0.04288397
000050 b1 79 5e 3c dc c0 6e 3e ce 24 91 3e 53 d9 a3 be
       0.013578818 0.23315758 0.28348392 -0.32001743
000060 48 06 d5 bd 12 5c 47 3e d9 ed aa bc 8b 89 e9 3c
       -0.10401589 0.19468716 -0.020865368 0.028507968
000070 ea 33 3d bd 7b 0d 3e be 4f e4 6c be 98 e4 82 bd
       -0.046192087 -0.1855983 -0.23133968 -0.06391257
000080 27 e3 8d 3e 58 b6 d4 3b 77 69 bd bd 67 6a 7c 3d
       0.27712366 0.0064914636 -0.092486314 0.06162491
000090 b6 d6 8b 3d 9d d5 a0 3d 7f 40 f8 bd ee f8 c9 bd
       0.06828062 0.078532435 -0.12121677 -0.09861933
0000a0 a4 92 7a be b0 2c ae bb 1a 83 6d be b1 07 cf bc
       -0.24470001 -0.0053153858 -0.23194543 -0.025272222
0000b0 23 4a 83 3e 14 00 9b 3b 8a 88 9b 3d 18 1f 33 3e
       0.256425 0.004730234 0.07594402 0.1749233
0000c0 6d 4c 5d be 93 24 b2 3d 43 d6 58 3c 15 83 0a 3c
       -0.21611185 0.08698382 0.013234678 0.008454104
0000d0 1c d2 0a 3e a1 fc 2f 3e 30 c1 7d 3e ab d5 84 be
       0.13556713 0.17186214 0.24780726 -0.25944266
0000e0 6a aa aa bf a6 2f b3 bd 0b 19 95 3d fb e2 03 3c
       -1.3333256 -0.087493226 0.07280167 0.008049722
0000f0 fe 4c 98 be f1 17 9d 3c 5b 4b b9 bd 6f d6 ee bd
       -0.2974624 0.019176455 -0.09047576 -0.11661994
000100 c4 3e 1b bd ed 43 56 3d a4 5b 0b be 1c 63 d8 bd
       -0.037901655 0.052310873 -0.13609177 -0.105657786
000110 5a ee 2a 3e 64 a3 0c be fe 01 02 be ac 89 7f 3c
       0.16692486 -0.13734204 -0.12696072 0.015596788
000120 30 6c 59 be 7b 85 15 be dc 42 ab 3c 1f 6b a3 3e
       -0.21232677 -0.146017 0.020905904 0.31917664
000130 84 d5 b6 bd d8 bf 55 be 71 52 42 3e 09 9b 98 bd
       -0.089274436 -0.20873964 0.18976761 -0.074514456
000140 ac 47 bb be 15 aa 71 3e 75 7d e9 be c3 0e 57 be
       -0.3657812 0.23600037 -0.4560353 -0.21001725
000150 8e 16 bf be 24 d1 14 3d a5 ef d6 bd e2 c9 6b be
       -0.37321895 0.036332265 -0.10494927 -0.23026231
000160 2c b5 01 3c aa 6e 3b 3e a7 0f 8e bc dc ac 95 3d
       0.00791673 0.18303934 -0.017341448 0.07308361
000170 ca ea ef bd 7f 00 96 be ec c8 88 be 3d 96 a0 b9
       -0.11714704 -0.29297253 -0.2671579 -0.00030629514
000180 e7 e2 81 be b3 e4 a2 be 4e d8 21 be 77 6b 06 3e
       -0.25368425 -0.3181511 -0.1580517 0.13126932
000190 b8 16 52 bf c5 1b 76 3e 73 b3 89 3d 1c 26 6d 3e
       -0.82065916 0.2403403 0.0672368 0.23159069
0001a0 a0 30 5b bc 83 75 5f be 80 3b a4 bd 63 42 86 3d
       -0.013378292 -0.21822171 -0.08019161 0.06555631
0001b0 2f 1c d0 be 97 9a 77 3e ce 06 97 3e c9 35 15 bc
       -0.40646502 0.24180065 0.2949738 -0.009107062
0001c0 5f 8b 7a 3e a8 14 fc 3d 44 df 9f 3e b9 fc 8e bd
       0.24467228 0.12308627 0.31225026 -0.06981797
0001d0 ae a0 47 3e 67 5c c3 bd 52 98 9b 3e 64 40 c8 be
       0.19494888 -0.09539109 0.3038965 -0.39111626
0001e0 c1 46 a4 be 72 dc 54 3c de bf 23 3e 7d 34 08 be
       -0.3208523 0.012992011 0.1599116 -0.13301273
0001f0 58 55 0d 3e 53 3c 59 be 49 cf 2f be d2 e4 76 3e
       0.13802087 -0.21214418 -0.17168917 0.24110726
000200 13 56 8b 3e 97 6f 91 be e1 29 5e bc 3c 32 b7 bc
       0.27214107 -0.2840545 -0.013559789 -0.02236282
000210 bc 22 60 3e ed e9 9b 3d 41 e6 55 bc fa 4c 97 be
       0.2188825 0.07612977 -0.013055385 -0.29550916
000220 87 7e 06 3e 09 d4 bc be 0e a3 93 3d 42 f5 80 3e
       0.13134204 -0.3688052 0.072088346 0.25187117
000230 c0 80 0d 3e 08 cd 37 3d 6e ce 8a be c8 00 9c bd
       0.13818645 0.044873267 -0.27110618 -0.076173365
000240 b5 18 57 bd 70 21 42 bd de 20 c1 be c6 9b c8 3c
       -0.052513797 -0.04739517 -0.37720388 0.024488341
000250 5b cf a1 3e c3 78 92 3c fb 0a 49 be d3 89 03 bf
       0.31603512 0.01787985 -0.19633095 -0.5138218
000260 b3 b9 84 3e 05 d5 d7 3d dc 0a 92 3e 38 c6 bb 3c
       0.25922927 0.10538677 0.2852391 0.022921667
000270 dc 75 74 be ad 2c 82 be c6 c9 b7 3d da 80 50 3e
       -0.23873085 -0.2542471 0.08974032 0.20361653
000280 7e ca 6f 3e 03 e5 b9 be 53 4a 9b 3e 61 5d a9 ba
       0.23417088 -0.36307535 0.30330142 -0.0012921506
000290 de 95 1e be 0c 8f 0c 3e ab 95 7f be d1 d7 f0 be
       -0.15486857 0.13726443 -0.24959438 -0.47039655
0002a0 c0 b9 11 3e 85 2e 4c 3d e1 b0 49 3e 15 fb 03 3e
       0.14231014 0.049849052 0.1969638 0.12888749
0002b0 98 bd 4c 3e d8 b6 17 bf 5a b4 41 be a7 6b 7e 3e
       0.199942 -0.5926337 -0.18916455 0.24845754
0002c0 b5 2c 9c be 41 6a fe 3c 53 e1 1e bd c4 f5 a7 3b
       -0.3050286 0.031056525 -0.038789105 0.005125733
0002d0 86 eb ec bd 6d 4e 63 3e 3b ba 71 bd 95 bd 29 bd
       -0.1156836 0.22197886 -0.059015494 -0.041440565
0002e0 f4 6b 1f be 21 d5 30 be 32 8a 72 be ee 11 a3 be
       -0.15568525 -0.17268802 -0.2368553 -0.31849617
0002f0 45 c5 7e 3c a3 ab 66 3d b3 88 a5 bd 77 90 85 3e
       0.015549962 0.05631603 -0.08082714 0.2608678
000300 24 dc 29 3e fb 23 21 3e 52 37 82 be d1 7a bd be
       0.16587883 0.15736382 -0.2543283 -0.37007764
000310 80 f0 af be 63 af eb 3d 6a c5 8c bd f8 11 5f bf
       -0.34363174 0.11508062 -0.06873591 -0.87136793
000320 fb c4 15 3e 9c 29 d9 3d b6 ed aa bf 0e 69 7d 3e
       0.14625923 0.106036395 -1.3353794 0.24747106
000330 99 71 79 3e a8 aa 04 bf 2f cb 96 be f2 d3 b9 3e
       0.2435974 -0.518229 -0.29451892 0.36294514
000340 79 c6 b9 3d 74 44 0d 3c 01 90 9f be f0 7c 99 3e
       0.09071059 0.0086222775 -0.31164554 0.29978132
000350 76 6e 21 3f 95 9a a6 be 7d 4a 36 be 28 89 b2 bd
       0.63059175 -0.32539812 -0.17801853 -0.08717567
000360 e0 81 c2 be a1 5d b1 be cb ee 7f 3e be 09 31 3e
       -0.37989712 -0.34641746 0.24993436 0.17288873
000370 a5 17 db ba a8 97 cc be 1d 93 d0 3d a1 a2 13 3f
       -0.0016715421 -0.39959455 0.1018431 0.57670027
000380 28 6e 8c be db d3 5a be 76 75 01 3f dd 3b 66 be
       -0.27427793 -0.21369879 0.50569856 -0.22483774
000390 36 04 12 be 42 d0 96 be 5c 9d 52 3e 9b d7 9f 3e
       -0.14259419 -0.29455763 0.2056784 0.3121918
0003a0 c8 b5 bf be a9 d1 b8 3e ec 86 93 3e c8 09 8f be
       -0.37443376 0.36097458 0.28813875 -0.2793715
0003b0 ca a4 82 3e 36 23 b7 be 2b 89 b9 be ea 91 97 3e
       0.2551635 -0.3576905 -0.36237463 0.2960351
0003c0 3b 88 b5 3e 9e 79 0c 3e 11 14 6e be 98 db 49 3e
       0.35455498 0.13718268 -0.23249842 0.19712675
0003d0 33 64 e7 bd f9 3e 14 3e 22 b3 d4 bd c0 74 84 be
       -0.11298408 0.14477147 -0.10385729 -0.25870323
0003e0 43 25 c5 bd 02 22 9d be 89 75 69 be bd 6d 9c 3c
       -0.09626248 -0.30690008 -0.22798742 0.019095296
0003f0 5e 69 a3 bd 09 34 82 bd f0 f1 98 3e f0 8d 9d 3e
       -0.079790816 -0.06357581 0.29872084 0.30772352

encoder.enc3.bias f4 [19]
000000 f7 13 ec bc b2 3e a3 3d 18 95 21 bd 04 d8 15 bd
       -0.028818114 0.079709426 -0.039448828 -0.03658296
000010 db d9 6c bb 61 8f d7 3c b0 33 3f bd 1f 11 17 3c
       -0.0036140594 0.026313486 -0.046680152 0.009220391
000020 5b 43 24 bd 1b 39 71 bc f3 6e 2d bc 22 86 ee 3b
       -0.040103298 -0.014723088 -0.010585534 0.0072791735
000030 7a e7 e9 3b dc 1e 04 bd 1f 31 05 bc 45 ea 11 3e
       0.00713819 -0.032255992 -0.008129387 0.14249523
000040 d6 f5 9a 3c e7 34 21 3d fc 5d 95 bc
       0.018916052 0.039357092 -0.018233292

encoder.enc4.weight f4 [7, 19]
000000 12 0c 4c 3e 9b f4 b9 be 8a 03 aa be f0 4c f1 be
       0.1992648 -0.36319432 -0.33205825 -0.4712901
000010 a7 d7 8f 3e 21 a6 13 3f d0 24 e5 bd 11 05 84 be
       0.28094217 0.5767537 -0.11188662 -0.25785115
000020 c9 a5 09 3f bd 17 dd bd 24 11 79 3d 4f 30 31 3e
       0.53768593 -0.10795543 0.060807362 0.17303585
000030 8d 72 75 be 17 d1 2b 3e 7e 7e 07 3d ff 47 58 3f
       -0.23969479 0.1677898 0.033079617 0.8448486
000040 46 f6 06 3e 23 6d 5f be a6 b3 29 3e 62 1e 99 be
       0.13179883 -0.21818976 0.16572437 -0.29905993
000050 91 15 52 3e 26 85 0d be 64 0f 8b be dd 15 07 be
       0.2051604 -0.13820323 -0.2716018 -0.13191934
000060 8b 1a 2d bf 68 b0 f9 bd 35 a8 4c 3e fa 54 0b bf
       -0.67618626 -0.1219185 0.19986041 -0.5442654
000070 20 8b 2c 3e 98 a2 9f 3e a1 12 f5 3a d5 96 94 3d
       0.16849947 0.31178737 0.0018697568 0.072553314
000080 51 35 52 be 80 41 26 bd 1b 3a 33 bf 65 68 52 3e
       -0.20528151 -0.04058981 -0.70010537 0.20547636
000090 8c 90 4e 3c 10 4f b7 3e 01 cc a0 be cf f9 e8 bc
       0.012607705 0.35802507 -0.31405643 -0.02843943
0000a0 dc f8 53 3d 2c 79 e7 3c ab f3 3e 3c 40 11 63 be
       0.051751003 0.028256021 0.011654775 -0.22174549
0000b0 7e 4b f2 bc dc 43 37 be bc 1a c0 be 56 56 4d be
       -0.029577013 -0.1789698 -0.37520397 -0.20052466
0000c0 9d 4d 67 3d bc 11 a2 3e 13 26 b2 be 6e 62 57 3e
       0.056470502 0.31654155 -0.34794673 0.21033642
0000d0 2e 8d 2f be c9 90 02 3e f7 a3 c7 3d 5e 14 00 3e
       -0.171437 0.12750544 0.09748071 0.1250777
0000e0 2b 9c d4 be c5 0c 95 be 4d 78 26 3f 03 7a ca 3e
       -0.41525397 -0.29111305 0.65027314 0.39546213
0000f0 ee 7c 84 bd ce 55 d9 be 14 d8 d5 be 89 c0 e1 be
       -0.06469141 -0.42448276 -0.41766417 -0.44092205
000100 0f 77 e5 3e af 27 c4 be e4 46 04 3f cd 9d 96 3d
       0.44817397 -0.38311526 0.5167067 0.07354317
000110 52 46 b8 bc 25 0d 4e 3e cd f6 af be 49 b4 37 bd
       -0.022494469 0.20122202 -0.34367982 -0.044849668
000120 b9 97 4b bf e7 f0 12 bf a5 d6 ac 3e 28 fa 9f bd
       -0.79528385 -0.5739884 0.3375751 -0.078113854
000130 28 d8 bd be 76 85 47 bc 47 da 24 3e 76 e8 83 3e
       -0.37078977 -0.012177816 0.16098891 0.2576329
000140 d2 33 61 bc 9d e6 65 be 69 f4 f0 3e 01 57 ab bd
       -0.013745265 -0.22451253 0.4706147 -0.08366204
000150 b6 a1 02 be 3e a5 40 be a2 43 00 bc c6 d4 7c 3e
       -0.12757 -0.18813035 -0.007828625 0.24690542
000160 df 31 81 be 2e 7a 01 bf bd a4 f9 bd d1 60 7d be
       -0.2523336 -0.50577056 -0.121896245 -0.24743964
000170 32 c5 92 3d fa 7f b3 3d e6 99 3e bd 26 41 62 bd
       0.07166518 0.08764644 -0.046533488 -0.05523791
000180 4f 58 fc 3d 79 bc f4 bc 51 61 dd bd 12 03 d3 bd
       0.12321531 -0.029875027 -0.10809577 -0.1030332
000190 e7 3e a3 be 6d 08 34 bd 43 1a bd bc 7b 31 a6 3d
       -0.31883928 -0.043953348 -0.023083812 0.081149064
0001a0 6c 22 a2 be 75 7d 89 3e d8 f3 98 bd bf 23 a4 3d
       -0.31666887 0.2685353 -0.074683845 0.080146305
0001b0 ef af 9e 3d 3a ba 27 3d 06 84 0c bf 20 91 30 bd
       0.077484004 0.040949084 -0.5488895 -0.043107152
0001c0 21 7b 95 3e 58 94 a4 3c 9f 0d 46 3e 02 7a f9 be
       0.29195502 0.020090267 0.19341134 -0.48725897
0001d0 64 19 d0 be fe 88 bd 3e fa 73 8a 3e de db 54 bd
       -0.40644372 0.3701858 0.27041608 -0.051967494
0001e0 cf db ee 3e 79 a6 d9 be db 8f f2 3e d9 99 83 3e
       0.46652076 -0.4250982 0.47375378 0.25703314
0001f0 5e 30 0b 3d 38 7e c2 3d f5 f8 51 be c5 45 fb 3c
       0.033981673 0.094967306 -0.20505126 0.030672917
000200 b7 05 86 bd 87 45 5d 3f f0 bd 0b 3f 49 2c 02 be
       -0.06544059 0.86434215 0.54586697 -0.12712206
000210 19 46 0c 3e
       0.13698615

encoder.enc4.bias f4 [7]
000000 f4 aa a3 3c 57 8e 4c bc d9 0e 61 ba 0f d1 58 3c
       0.019978978 -0.012485108 -0.00085852813 0.013233437
000010 49 21 88 bb 5a 0f 87 3a 4f ff db 3a
       -0.0041543585 0.0010304258 0.0016784462

decoder.dec1.weight f4 [19, 7]
000000 32 6f 49 3f 01 a9 fd 3e fd ac 78 bf 10 0b 46 3f
       0.78685296 0.49543002 -0.9713896 0.7736063
000010 45 31 32 3f f2 af 05 bf a4 74 da 3e 07 66 d5 3e
       0.6960643 -0.52221596 0.42667115 0.41679403
000020 06 82 4c bd 0c 2b 90 bf 62 f2 27 3f 9a 2d b3 3f
       -0.049928688 -1.1263137 0.6560422 1.3998291
000030 16 23 91 bf b0 5d 46 bf 9e 5a ae 3d e4 3c 77 be
       -1.1338832 -0.77486706 0.085133776 -0.24144322
000040 d8 d5 52 bd d1 8d 46 bf 04 ec d1 be 5f 65 5d 3f
       -0.05147347 -0.77560145 -0.41000378 0.86482805
000050 8b a8 ef 3e 47 fd 02 bf 00 c8 0e be eb 61 1e 3f
       0.46808276 -0.5116772 -0.13943481 0.6186816
000060 4f 2d ec be d0 5c 6e bd b4 d7 1e bf 0b 56 46 3f
       -0.46128318 -0.05819398 -0.62047887 0.7747504
000070 fb 82 0d 3e d8 75 8f be 2f 1d 5a be 16 7c 58 bf
       0.13819496 -0.28019595 -0.21300195 -0.8456434
000080 55 3f 6e 3e 6e 11 fb be 75 54 b3 be 76 2c 99 3e
       0.23266347 -0.49036735 -0.35025373 0.29916734
000090 9f 9b 2f 3f a2 a5 cd be cf 69 4d bf 6c 57 e0 3e
       0.68596834 -0.4016543 -0.80239576 0.43816698
0000a0 f3 02 24 3f d1 9c 3b 3f f2 11 73 bf 80 83 f6 3e
       0.64067 0.7328616 -0.9494926 0.48147202
0000b0 50 7f 91 3f 6d 2f 5e 3f 47 3f 8f be 4d 1e f2 3e
       1.1366978 0.86791116 -0.27977964 0.47288743
0000c0 fe 23 d5 bc 1d 62 32 bf 4d 8b f8 be f1 98 0d 3e
       -0.026018139 -0.6968096 -0.48543778 0.13827874
0000d0 b9 ad f5 be 8c 9f 07 3d 78 f8 87 bf aa e4 2c bf
       -0.47984102 0.03311114 -1.0622702 -0.67536414
0000e0 05 d6 7c be 32 b5 ac 3e 16 25 1b bf f9 28 61 bf
       -0.24691017 0.3373199 -0.60603464 -0.87953144
0000f0 80 68 27 bf dd db c7 be 9f 33 19 3e df db 44 3f
       -0.6539383 -0.3903493 0.14961098 0.76897997
000100 7a da 16 3f 0f d0 11 bf 31 65 26 be 28 ee ea 3e
       0.5892712 -0.569581 -0.16249539 0.45884824
000110 73 d2 40 be 7c de 31 bd 51 d8 d9 be bf 34 f8 be
       -0.1883028 -0.04342507 -0.4254785 -0.48477742
000120 79 23 50 3f 45 dc 05 3e c7 38 4d bf 31 ed 81 3c
       0.81304127 0.13072307 -0.8016476 0.015860172
000130 20 e5 fc 3e 5d b7 77 bf c4 e0 8a 3f 83 56 91 bf
       0.49393559 -0.96764165 1.0849843 -1.1354526
000140 66 13 72 bf c1 49 f9 3e a3 96 f2 3e 84 17 24 bf
       -0.9456085 0.48689082 0.47380552 -0.6409838
000150 b1 de a6 bd 4a a1 a3 3d ab 67 c6 bf 4a 4e 94 3e
       -0.08147944 0.07989748 -1.5500387 0.2896598
000160 f2 78 3c be 17 2c 1e 3f 78 a4 05 bf 7a 90 b6 3e
       -0.18405512 0.61786026 -0.52204084 0.35657102
000170 7b 7b fa be ff 37 ad 3e 12 47 3a be 73 d2 9f 3f
       -0.48922333 0.33831784 -0.18191174 1.2486099
000180 46 94 65 3f cf 41 1b be 82 c1 99 be dc e7 53 bf
       0.8967937 -0.15161823 -0.30030447 -0.82775664
000190 23 95 59 be 60 cf 2e bf 6f e8 b7 bd 1d bf 1a 3f
       -0.21248297 -0.6828518 -0.0897988 0.60447866
0001a0 ac 11 4f 3e d2 ee 2a bf c4 d1 ff be 03 18 9c bf
       0.20221585 -0.6677066 -0.49964726 -1.2194828
0001b0 f4 99 f3 3d 24 1a aa bd e9 c8 64 3f 7b 24 89 3f
       0.118945986 -0.08305767 0.89369065 1.0714258
0001c0 ff 94 4f 3f 95 f6 e9 bc b2 03 32 3d 7b fb fc 3e
       0.81086725 -0.028559962 0.043460555 0.49410614
0001d0 1a ba 70 bf a1 8c 2a bf 49 65 06 bf bc cb ae 3d
       -0.9403397 -0.6662083 -0.524983 0.08534953
0001e0 dd bb 9e be ee d0 f2 3e de e2 43 bf ea 81 e5 3d
       -0.31002703 0.47425026 -0.76518047 0.1120642
0001f0 f8 4e 18 bf 9b a5 87 3e ea 07 1c bf e5 f2 a6 3d
       -0.59495497 0.26493534 -0.60949576 0.08151797
000200 de 27 25 be e1 92 67 3d 88 79 cf be 88 4c d7 bd
       -0.1612849 0.05653656 -0.40522408 -0.10512644
000210 c1 c6 1d 3f
       0.616314

decoder.dec1.bias f4 [19]
000000 b9 90 88 bc fa fd 90 bc a6 8a 54 3b 14 0d 48 bd
       -0.016670572 -0.01769923 0.0032431274 -0.048840597
000010 28 57 0c 3c e3 6b 59 3c dd 58 eb bc 0b 24 eb 3c
       0.008565702 0.013270351 -0.028728897 0.02870371
000020 03 4f 98 3c a9 ff 7d 39 09 4d 1e bd bc e9 8f bc
       0.018592363 0.00024223201 -0.038647685 -0.017567508
000030 5a 30 45 bc f2 b6 ae 3d 3f 55 e1 3c 97 ac fa 3b
       -0.012035454 0.08530988 0.027506469 0.007649969
000040 c9 c8 c8 3b b7 65 98 bc 1a e1 6a 3b
       0.006127451 -0.018603189 0.0035839737

decoder.dec2.weight f4 [39, 19]
000000 9d 49 95 3e 60 ec c6 3e eb c6 b5 3e 27 02 18 be
       0.29157725 0.38852215 0.35503325 -0.14844571
000010 a0 08 84 3e 16 57 ab 3e 05 7b e6 be aa 19 62 3e
       0.2578783 0.3346488 -0.4501573 0.22080103
000020 1f 0f 7b 3e 60 79 fe 3e d3 3a 8b be 64 75 fa be
       0.24517487 0.49701977 -0.27193317 -0.48917687
000030 86 67 8c be 7d df f6 be d8 91 32 3e 96 9e 33 bf
       -0.27422732 -0.48217383 0.17438447 -0.7016386
000040 24 6e b6 be 75 fd 02 be 51 1e 06 bf 4a 05 34 bf
       -0.35630906 -0.12791999 -0.5239001 -0.7032057
000050 ba c3 91 be e0 f2 a7 be 54 8b 5b be 14 3d a5 be
       -0.2846964 -0.32802486 -0.21439868 -0.3227316
000060 de bb 64 3e d7 d4 78 bd 91 6a 9a 3c 0e 80 9b 3d
       0.2233729 -0.060749855 0.018849643 0.07592784
000070 18 d3 bc 3d 1f 2c 01 bf 80 17 51 3f 2e bb 4f 3e
       0.092199504 -0.5045795 0.81676483 0.20286247
000080 4a 5e 80 bf ad 11 df be 89 62 d5 be 87 06 53 3e
       -1.0028775 -0.43568173 -0.4167674 0.20607959
000090 ab 38 ef 3e 21 c6 18 be 82 fc 05 bf fa e7 44 3f
       0.46722922 -0.1491933 -0.5233842 0.7691647
0000a0 e0 d9 fa be 28 1d 66 bd 9b f4 28 bf e4 b3 a3 be
       -0.4899435 -0.05618015 -0.6599824 -0.31973183
0000b0 2d 8f af be 31 6b 22 40 b3 c8 ac 3e 74 4b ee 3e
       -0.34288922 2.5377924 0.3374687 0.4654194
0000c0 03 74 b5 3e 57 eb 8d 3e 12 f8 b6 3e 51 50 b3 3e
       0.35440072 0.27718613 0.35736138 0.35022214
0000d0 47 fe 19 3d 6a ec 10 bf 9a e8 b6 be 75 71 a5 bd
       0.037596013 -0.5661074 -0.35724336 -0.08078281
0000e0 b0 6f 7a 3d f8 08 74 bf 57 6c 83 3c 75 3f 2d 3e
       0.06114167 -0.95326185 0.016042871 0.16918738
0000f0 43 e9 05 3e c3 27 c0 3e 97 7f c9 3e e4 99 39 3e
       0.13077264 0.37530336 0.39355156 0.18125111
000100 00 7e 3d be af 0e fd 3b 16 c8 46 39 d0 79 92 3e
       -0.18505096 0.0077226977 0.0001895729 0.2860856
000110 b7 04 ca bf 4d 63 67 be 57 58 76 3f 54 dc d7 bd
       -1.5782689 -0.22596474 0.96228546 -0.10540071
000120 25 05 a0 3e de 8e c0 3e 02 76 92 3d 85 63 11 3f
       0.31253925 0.37609 0.071514145 0.5679248
000130 54 54 26 3f 59 9a 62 3e a5 9e d4 bd 1a 41 15 be
       0.64972425 0.22129191 -0.103818215 -0.14575616
000140 8a 23 a4 be 80 26 86 3c 1f 33 26 3f 59 12 d2 be
       -0.32058364 0.01637578 0.64921755 -0.41029623
000150 39 cd 01 bf 62 10 47 3e 01 55 60 bd 2b 85 a2 be
       -0.5070377 0.19439843 -0.054768566 -0.31742224
000160 bb 39 cb be a2 12 65 3f 7b 2b dc 3e 19 d8 0b bf
       -0.39692482 0.89481556 0.43001923 -0.54626614
000170 72 d8 d7 3e bb cd e1 3e 9c 8e 60 3e fe 19 94 be
       0.42157322 0.44102272 0.21929401 -0.2892608
000180 77 ae 13 3f b1 8e f1 3e 39 4b f3 3e 66 c1 b0 be
       0.5768809 0.47179177 0.47518328 -0.3452255
000190 53 f5 de 3e 09 d2 67 bd 98 b7 9a 3f 13 98 98 3e
       0.43546543 -0.05659679 1.2087278 0.29803523
0001a0 85 71 c4 3d 42 e2 01 bf 56 e9 2c bf 2b 44 a3 3d
       0.09591965 -0.5073587 -0.6754354 0.079719864
0001b0 d9 5c ec 3e 26 47 f0 3e 41 9e 13 bc 22 19 f6 3e
       0.46164587 0.46929282 -0.009009899 0.4806605
0001c0 75 70 9f be 7d 0d 0c 3f 46 8d eb 3d 6e f4 ac 3c
       -0.31140485 0.5470808 0.11501555 0.021112647
0001d0 b1 de 09 bf 3c ad 8f 3e fb c2 ef be 11 70 65 bd
       -0.53855425 0.28061855 -0.46828446 -0.056015078
0001e0 41 9a f2 be a3 9f 83 3e 20 d1 96 3e 17 c7 09 bd
       -0.4738331 0.2570773 0.29456425 -0.033637132
0001f0 f0 a2 97 be a3 c3 0a 3d 74 7a d8 be 43 5b a0 3e
       -0.296165 0.03387798 -0.42280924 0.31319627
000200 1f fc 84 be 29 ca 59 3e a7 87 9e bd a0 ff ec be
       -0.25973603 0.21268524 -0.077407174 -0.46288776
000210 e0 bf 2b 3d 8a 59 f8 be 4f 32 d1 be 31 db 32 be
       0.041931033 -0.48505813 -0.40858695 -0.17466427
000220 c7 d5 92 3c ff 69 04 bf bb 30 f9 be 87 ef ac be
       0.017924203 -0.5172424 -0.4866999 -0.33776495
000230 4e 8a 84 3e fb ca 91 be 6e 58 b2 be 68 9f e9 3e
       0.25886768 -0.28475174 -0.34833091 0.4562943
000240 59 6c 1d 3c 3b ff 52 3e 02 a1 17 bd cb ed a6 be
       0.009608352 0.20605175 -0.037018783 -0.32603297
000250 b7 29 47 be 9c 7d fb be da 49 b1 3e 53 a1 06 3d
       -0.19449507 -0.4911927 0.34626657 0.032868695
000260 b5 d2 eb bf a5 cc 9c 3e dd a5 a9 be c5 ce 95 3c
       -1.8423678 0.3062488 -0.33134356 0.018287072
000270 c1 dc 37 3c 0f 48 ee be 17 7c 38 3e ae 2f 72 40
       0.011222065 -0.4653935 0.18016087 3.7841601
000280 e1 c9 2b bf be be 0b be 78 11 8d be a9 04 01 be
       -0.6710492 -0.13646981 -0.2755239 -0.12599434
000290 6e 12 40 3d 7e 53 22 bf 98 30 25 bf aa 8a b7 bf
       0.046892576 -0.6340865 -0.64527273 -1.4339192
0002a0 ca 93 e0 bc 0a 1a c3 be 91 01 f9 bd 1a 76 44 3f
       -0.027414221 -0.38105804 -0.12158502 0.7674271
0002b0 2a ce 3f 3f a2 67 ea 3d ba d0 96 3e bb 1f 01 3f
       0.74923956 0.11445548 0.2945612 0.5043904
0002c0 b7 61 46 be 78 47 92 3d 50 bc 0b 40 27 b4 aa be
       -0.19373213 0.07142538 2.1833687 -0.3334057
0002d0 c3 9a 64 be a3 0f 23 bd 39 e3 0c be 46 34 1e 3e
       -0.22324662 -0.039809834 -0.13758554 0.15449628
0002e0 77 02 42 3e 66 83 92 be 8a f6 a3 3f fe 05 09 bf
       0.18946253 -0.28615874 1.2809613 -0.5352477
0002f0 c2 36 de be 44 19 2e 3d 1d 25 f2 3e 13 0b db 3e
       -0.43401152 0.042504564 0.4729394 0.42781886
000300 35 39 0a 3d d4 96 e2 3e ab 9c 05 3e 2d ae 6e 3d
       0.033745963 0.44255698 0.13048045 0.058271576
000310 ed 38 e1 3e f9 66 20 40 dc 5f 0d bf 36 5d f7 bd
       0.43988743 2.506285 -0.55224395 -0.120783255
000320 fd c4 91 3d 0c 35 ff 3e d6 02 f8 be 7c c4 fd 3e
       0.07117651 0.4984516 -0.48439664 0.49563968
000330 de 1f ff bd c9 32 76 3f 47 1d a5 bf 8a 5e 3a be
       -0.1245725 0.9617124 -1.289956 -0.18200126
000340 0f 99 97 3e f2 8b bb be 11 7f b7 3e 70 3f b2 bd
       0.29608962 -0.36630207 0.3583913 -0.08703506
000350 e0 ea 6c 3e 35 6f f0 bd fa c2 80 3e b5 51 f2 be
       0.23136473 -0.11739961 0.25148755 -0.47327963
000360 15 1c 47 3f 4d c7 7f be f9 a2 e4 be 5e b3 5e be
       0.77777225 -0.24978371 -0.44655588 -0.2174811
000370 05 97 00 3d f9 d6 36 be 40 dd 15 3f 01 1e 81 bc
       0.031394023 -0.17855443 0.58540726 -0.015761377
000380 41 53 80 3e 68 93 dc be ff 44 8a 3e 21 80 c2 3e
       0.25063518 -0.43081212 0.27005765 0.3798838
000390 a6 38 ac bf 40 c3 82 bf fb 1a 07 3e bb 8f 50 bd
       -1.3454788 -1.0215836 0.13193886 -0.050918322
0003a0 51 b8 ff bd ce 0b 4b 3e be 59 0e 3f 0d ab e5 be
       -0.124863274 0.19828722 0.55605686 -0.44857064
0003b0 ff 48 24 3e c3 31 e4 be 8a b0 aa be d4 40 39 3e
       0.16043471 -0.44569215 -0.33337814 0.18091136
0003c0 ae 99 c0 bd 3a 81 3c be e8 cd e1 3e 8b e1 66 3e
       -0.09404312 -0.18408671 0.44102407 0.22546975
0003d0 60 f1 9a bd e5 36 34 3e 00 b4 fd be 85 06 c7 3e
       -0.0756557 0.17599066 -0.49551392 0.38872162
0003e0 10 c3 c6 3e 12 80 d5 bd c2 db a4 3e ee a9 b8 bd
       0.38820696 -0.10424818 0.32198912 -0.090167865
0003f0 80 2c 8f be 89 9a 04 bf 88 d0 41 be 6d b4 2c bd
       -0.27963638 -0.517983 -0.18927205 -0.042164255

decoder.dec2.bias f4 [39]
000000 ad ac 5d 3c 9d 12 68 3d 62 ef 10 bd c7 a7 9f bc
       0.013529939 0.056658376 -0.035384543 -0.019489182
000010 11 de 06 bd 20 1b df bc 7c ee c3 bc 00 00 00 00
       -0.032926623 -0.027234614 -0.02391743 0.0
000020 2c e4 63 3d 88 be 53 bd f2 11 15 bb 3b 59 52 bd
       0.055637524 -0.051695377 -0.0022746292 -0.051354628
000030 40 25 01 3c e1 1f 78 3c f7 68 14 3c 0b b5 99 3d
       0.007882416 0.015144319 0.009058229 0.07505234
000040 3a ae 28 bd 5d bb ad 3c 0b 5c a8 3d 50 5f 26 3d
       -0.04118178 0.021207506 0.08220681 0.04061824
000050 eb a8 74 bc e9 48 03 bd e4 49 05 ba 5c d5 fb bc
       -0.014932851 -0.032051954 -0.0005084558 -0.030741386
000060 ee 44 a4 3c 3f 52 a4 bb 1b 71 83 ba 73 9e 07 3e
       0.0200524 -0.0050146873 -0.0010028215 0.13244037
000070 90 4b e9 bc da 08 98 3d 71 03 4f 3b 83 3a 48 3d
       -0.028478414 0.07423563 0.0031587745 0.048883926
000080 2a aa 70 bd c9 17 6d bb 08 f9 3f 3c 35 2f 54 bc
       -0.05875603 -0.0036177507 0.0117170885 -0.012950708
000090 c8 5e bf bd 51 40 f8 bc 96 73 d0 3b
       -0.0934425 -0.030304106 0.006361435

decoder.dec3.weight f4 [58, 39]
000000 60 da 9a bd d2 a6 d9 3d e7 71 72 3e 32 74 32 3e
       -0.07561183 0.106275216 0.23676263 0.17427137
000010 ce d1 bb 3e 83 34 9f 3e 18 de d9 3d ac c4 a7 be
       0.36683506 0.3109475 0.10638064 -0.32767236
000020 f5 1a 28 3e 3c 36 e9 3d 51 9d b5 bd e1 63 44 be
       0.16416533 0.113872975 -0.08867896 -0.19178726
000030 ff 16 cd bd e9 2a 9c be fb b5 9d be 06 10 9c be
       -0.10014152 -0.30501488 -0.30802903 -0.30480975
000040 13 8c 80 be aa 1e af bd 09 a0 05 3e eb b8 bd 3e
       -0.25106868 -0.085507706 0.1304933 0.37055144
000050 71 d1 bd be ed e9 55 be cf f5 4f be 32 b9 99 3e
       -0.37073854 -0.20890017 -0.20308612 0.30024105
000060 38 d3 b2 3e 08 8b a2 bd 14 5a bf 3e c6 68 72 be
       0.34926772 -0.07936674 0.37373412 -0.2367278
000070 bf fe ac 3e 84 9c 27 bf ea ba da be 49 9f 15 bd
       0.33788106 -0.654732 -0.4272073 -0.03652886
000080 a5 82 a7 3e e6 49 dd 3e 5f d9 dd 3d 73 93 bc 3d
       0.3271686 0.43220443 0.10832476 0.09207811
000090 b3 b2 02 be c3 41 48 be 05 95 2e 3e 0f 7c 5f 3d
       -0.12763481 -0.19556336 0.17049034 0.05456167
0000a0 8b b5 93 3e 5e cc 05 3d 17 71 84 be 33 d5 74 be
       0.28849444 0.032665603 -0.2586753 -0.23909454
0000b0 3b ce 17 be 1f ec ae 3d 02 27 9b bc 01 c3 13 3f
       -0.14824764 0.0854113 -0.018939499 0.5771943
0000c0 66 9c 17 bf a0 f2 bd 3d f5 dc bb be 57 5f 83 be
       -0.5922302 0.09274793 -0.36692014 -0.25658676
0000d0 aa 4b 78 3e 54 3e 9f 3e 25 26 ce be 71 59 b2 be
       0.24247614 0.3110224 -0.40263477 -0.34833863
0000e0 e0 94 81 3e 0d 28 22 3f a4 7a 22 3f 3f 50 1d be
       0.25308895 0.6334236 0.63468385 -0.15362643
0000f0 40 17 81 be 83 92 1d be a5 28 e2 3d 73 20 91 bd
       -0.2521305 -0.15387921 0.110429086 -0.07086267
000100 cc a9 42 3e 0b 77 46 bc 2f 48 fa 3d 58 7c 49 bd
       0.19010085 -0.012113343 0.12220799 -0.04919085
000110 a4 cb 02 3f e4 56 b6 3e 66 a9 7c bd c9 6c 2a be
       0.5109198 0.35613167 -0.06168499 -0.1664306
000120 96 bb a4 3d e5 71 cf 3e 67 e2 9a bc f6 18 5c bf
       0.08043592 0.40516582 -0.018906785 -0.8597559
000130 36 c5 42 3e 0a 2d 11 be 92 24 70 3d 09 74 9b be
       0.19020543 -0.14177337 0.058628626 -0.30361965
000140 97 79 5f 3e 7b 65 d3 3e e5 54 1b 3e 56 5c ba bd
       0.21823727 0.4128836 0.15169103 -0.09099643
000150 f5 c1 85 bd df 01 f2 b7 71 66 c4 be 21 9f 23 3f
       -0.06531135 -2.884952e-05 -0.38359407 0.63914686
000160 34 3f 42 3f d9 84 4b be 3d a0 52 3e a2 8f 19 bc
       0.7587769 -0.19874896 0.20568939 -0.009372624
000170 58 4d 4a be dc 6b f5 3e df 4b 19 3f 6c 98 30 bc
       -0.19756067 0.47933853 0.59881395 -0.010778528
000180 41 6f 38 bf 50 a2 86 be da f8 a8 be 0a 72 4a bf
       -0.7204476 -0.2629571 -0.3300236 -0.7908026
000190 f2 83 9f 3d 72 ca c6 3e 89 39 02 be 8d 28 c6 3c
       0.077888384 0.3882633 -0.1271726 0.024189258
0001a0 c1 f9 88 3e f4 c8 58 3e fa 86 70 bd 12 8a bd bf
       0.26753047 0.21170408 -0.058722474 -1.4807761
0001b0 33 0f 04 3e df 57 79 be bd c7 b6 be f3 2f 29 be
       0.12896423 -0.24349926 -0.35699263 -0.16522197
0001c0 71 97 19 bf a9 ae 70 bb b2 67 f9 3e 37 2e c4 be
       -0.59996706 -0.00367252 0.48711926 -0.3831651
0001d0 7a cc b6 bd 0f ad bc be 2e 70 75 3e a2 d2 37 3d
       -0.089257196 -0.36850783 0.23968574 0.04487861
0001e0 b4 7b ad bc af c7 2a be 84 bb 6d 3d 32 d2 78 bd
       -0.02117715 -0.16677736 0.058040157 -0.060747333
0001f0 7c b0 b4 3e be f7 5f 3e a4 4e 2b 3e 7d 05 91 bd
       0.35290897 0.2187185 0.16729218 -0.07081125
000200 4a fc 85 be 1f 97 db bd b8 d2 e7 bd 98 50 72 3d
       -0.26169044 -0.107221834 -0.11319488 0.05915889
000210 d1 9f bb bd 7d 27 9a 3e 3f 61 94 3e de 18 f4 3e
       -0.09161342 0.30108252 0.28980443 0.47675222
000220 9c d0 cc 3d 6e cb 6a be 80 56 40 3d c0 d9 78 be
       0.100007266 -0.22929165 0.046957493 -0.24301815
000230 06 38 8a 3e 45 6b d7 3c 9a 93 4b be c6 65 82 3e
       0.26995867 0.026296267 -0.19880524 0.25468272
000240 a6 0f a0 bd 80 48 d1 bd a0 c5 20 be b5 94 96 be
       -0.07815485 -0.102189064 -0.15700388 -0.2941033
000250 2d a1 ba 3e 3f 97 b8 be fd 90 99 3c 91 90 60 3e
       0.36451092 -0.36052892 0.018745894 0.21930148
000260 99 ed 8b bd 60 4c 9e be 76 20 97 be de 67 13 be
       -0.068324275 -0.30917645 -0.29516953 -0.14395091
000270 7d cf ee bd 38 cc 2b 3e de b5 08 3e 21 9f e4 bf
       -0.11660669 0.16777122 0.13350627 -1.7861062
000280 18 af 26 be dc 47 dd be 46 2f a8 be 72 b6 b5 be
       -0.1627773 -0.43218887 -0.32848567 -0.35490757
000290 2f e4 49 3e f0 70 e5 3d 52 22 bb 3e 02 9a b8 3e
       0.19715951 0.11203182 0.36549622 0.36055
0002a0 01 0e 02 bf a1 5e 28 3e fe bc 47 3e f1 db e3 3e
       -0.5080262 0.16442348 0.19505689 0.4450374
0002b0 03 4a 46 3e 0f 74 69 bc 7e 03 75 be 60 de e8 be
       0.1936417 -0.014248862 -0.23927113 -0.4548216
0002c0 c4 52 4e 3e 26 0a ef 3f 7c 50 e5 3e 44 af de bc
       0.2014876 1.8674972 0.44787967 -0.027183183
0002d0 7d 57 2b be d2 f6 dc be a6 26 98 3e b3 cb 55 be
       -0.16732593 -0.4315706 0.29716986 -0.20878486
0002e0 14 59 c5 be 78 ab 05 c0 2e 9b cc bd f2 9f 06 3e
       -0.38544524 -2.0885906 -0.09990536 0.13146952
0002f0 f0 6b 5f 3e 90 4a 8b be 15 50 21 be 4c 3a e2 bc
       0.21818519 -0.27205324 -0.15753205 -0.027615689
000300 e1 36 09 bf 4f 19 e6 3d 96 b7 84 be 20 c1 06 3e
       -0.53599364 0.11235296 -0.25921315 0.13159609
000310 a2 cf 31 bb 5e b7 8a 3b cf 5a 04 3e 9b e9 42 be
       -0.0027131815 0.004233285 0.12925266 -0.19034426
000320 c0 2f 93 be 5a ca 79 3e 4a 4f 97 3b 2b 9e 3c bf
       -0.28747368 0.24393597 0.0046176063 -0.73678845
000330 53 f4 db bd 53 97 39 3f 54 2b ee be 20 5f 1f 3f
       -0.107399605 0.7249653 -0.46517432 0.62254524
000340 e3 5b 83 bc de fd 91 3d a1 0e f8 3e 66 39 ce 3e
       -0.016035026 0.071284994 0.4844866 0.40278167
000350 28 8c 3b bd a6 bb f5 bd 95 4f f1 be 23 17 02 3e
       -0.04578796 -0.11998682 -0.4713103 0.12704138
000360 a2 3f 7d 3f 43 fd dd 3e 96 3e 9e 3e 11 e9 66 3d
       0.9892522 0.43357286 0.30907124 0.056374613
000370 95 9e ad bd 73 4c 57 3e 49 fb b6 3e e1 22 47 3e
       -0.08477513 0.21025257 0.3573859 0.19446899
000380 e2 d1 bf 3d c3 53 e0 3d e8 7e 40 3e da 0b 2f bd
       0.09366204 0.10953476 0.18798411 -0.042735912
000390 57 82 ad 3e 0b 6e 3e bf 76 55 9e 3d 8f 58 a6 bf
       0.33888504 -0.7438666 0.07731144 -1.2995776
0003a0 58 4d 80 3e 53 c3 ce 3b 03 86 9c 3e 28 6b 39 be
       0.2505901 0.0063099056 0.30570993 -0.18107283
0003b0 96 21 eb be 42 27 d7 3d 95 62 cf 3e a8 89 f0 bb
       -0.45924062 0.10505535 0.405049 -0.0073406287
0003c0 d1 f4 89 be f9 82 af 3e 03 1a 3c bf a3 bd be 3d
       -0.26944593 0.34279612 -0.7347719 0.09313514
0003d0 1f 01 82 3e 3f 77 cf bc 24 65 27 3f e7 4f 4f be
       0.2539148 -0.025325416 0.65388703 -0.20245324
0003e0 ee 9e a8 3e e3 96 61 3f f7 48 fb 3e dc 99 04 be
       0.32933754 0.8812086 0.49079105 -0.12949318
0003f0 5c a5 92 3d c7 6e 00 bf 25 b1 01 bd 08 d7 3f c0
       0.07160446 -0.5016903 -0.03166308 -2.9974995

decoder.dec3.bias f4 [58]
000000 0a d5 52 bc 3a b6 85 3d 01 e7 86 3d 12 84 b8 bc
       -0.012868175 0.065288976 0.06587029 -0.022523914
000010 74 77 be 3c ff e3 92 3c a3 36 31 3c 65 73 8c bb
       0.023250319 0.017930983 0.010816249 -0.004286217
000020 7f a8 89 bc 37 dc 82 bd c0 f6 00 3c a0 bf e5 3d
       -0.016803978 -0.06389659 0.00787133 0.1121819
000030 2f 3a fe bc 22 35 fd bc 63 6f 46 3c 6a ce 11 3d
       -0.031033603 -0.030909125 0.012111518 0.035597242
000040 22 22 a3 bc e5 08 96 bc 26 2e fd bc 76 95 66 3c
       -0.019913737 -0.018314788 -0.030905794 0.01407372
000050 70 d3 e0 bd 00 00 00 00 de 5b a8 bc 00 00 00 00
       -0.109778285 0.0 -0.020551618 0.0
000060 8a 0a e4 bb 2c 17 3a bd 87 b2 e3 3c f0 9c d3 bd
       -0.006959264 -0.045432255 0.02779509 -0.10332668
000070 56 51 61 3c 62 9e 91 bd f1 e2 ce 3d fe da 62 3d
       0.013752302 -0.07110287 0.101018794 0.05538463
000080 b9 27 45 bc fe c0 95 3d d1 2f 14 3d 43 f4 44 3d
       -0.012033396 0.07312201 0.036178414 0.04808451
000090 17 56 ba bd d4 8b 43 ba bf 2e 58 bc 32 17 a1 bc
       -0.090984516 -0.00074594957 -0.013194739 -0.01966438
0000a0 7c 50 3c 3d a0 dd 41 3d d3 9f 5d bc cc cd 6c bd
       0.045975193 0.0473305 -0.013526875 -0.05781345
0000b0 07 6d ef 3c 0f 7d 7f bd 6e dc f8 3c 3f c6 88 bd
       0.029226793 -0.062375125 0.030378547 -0.066784374
0000c0 9d 27 eb 3c da 21 a3 3b 8e 27 d6 3c 88 0f 8e 3c
       0.028705413 0.0049784007 0.026141908 0.01734139
0000d0 8a 1a 66 bd c4 96 c6 bb a3 ab 22 be db 6a 8c 3d
       -0.056177653 -0.006060453 -0.15885787 0.068563186
0000e0 92 24 0f be ea c6 58 bd
       -0.13978794 -0.052924074
