IDS_TA/initial_Models/CADE-m10.0-l0.1.pth (torch, 67910 bytes, 16 tensors)

encoder.enc1.weight f4 [58, 78]
000000 05 dd 46 3d 9a e1 06 3e c8 e0 1b 3c 02 ed d6 3d
       0.048550624 0.13171998 0.009514041 0.104944244
000010 a4 99 51 be 13 22 88 3e c8 51 11 3d fe d3 ed 3d
       -0.20468765 0.26588497 0.035478383 0.116127
000020 ef 20 d2 3d 65 7e 2e 3d f3 85 8c bd 22 bd b4 bc
       0.10260188 0.042601008 -0.06861486 -0.022062842
000030 94 49 80 bc 58 6c aa 3e 9e 42 f6 3d c5 60 01 3e
       -0.015660085 0.33285785 0.12024425 0.12634571
000040 ba be 00 3e c1 df 5c 3e a6 ce 0a be eb 96 5b be
       0.12572756 0.2156973 -0.13555393 -0.2144429
000050 16 1b ec 3d 52 1e 41 3d c2 8b ad 3d 5a 49 89 3e
       0.11528604 0.047148056 0.08473922 0.26813775
000060 b1 f3 6b 3e 5b b9 85 be 92 3d 05 be bd b2 b4 3e
       0.2304218 -0.26117977 -0.13011768 0.35292616
000070 6d b8 36 3e 07 95 7c 3d 97 f8 b8 bd 5f 4f be be
       0.1784379 0.06166556 -0.0903179 -0.3716993
000080 23 c6 3d be 0a 63 8b 3e 8e 14 0d 3e 43 ed 8b bd
       -0.18532614 0.27223998 0.13777372 -0.068323635
000090 18 89 01 3e 4f 98 78 be 50 1f 3c 3e 55 0c 85 3d
       0.12649953 -0.24276851 0.1837132 0.06496493
0000a0 7d 4c 01 3c 64 8d c7 3d 68 7e 60 3e 95 68 95 bd
       0.007891771 0.09743765 0.2192322 -0.07295338
0000b0 02 2f 71 3e 77 f9 18 3e 3d f6 a2 bd 0d 21 59 be
       0.23553088 0.14938913 -0.079571225 -0.21204014
0000c0 fd 6b 44 be db 6d 14 be db 34 a9 3c cf a6 9b 3d
       -0.1918182 -0.14495032 0.020655086 0.076001756
0000d0 59 c4 50 be 01 c3 d8 3c f8 73 d8 bd 9a fd 38 3d
       -0.203874 0.026460173 -0.10568994 0.04516373
0000e0 cb 08 99 3d 25 9f 9e bc 05 d6 6a 3d b8 8e 4a 3d
       0.0747238 -0.019362995 0.05733301 0.049452513
0000f0 40 fc 6e be c8 38 3b 3e 0b 1c 81 3c 11 d6 3a 3e
       -0.23338413 0.18283379 0.015760442 0.18245722
000100 aa 12 0d 3e 42 aa 4e bd 4a 5e 30 3c bd 8c 1f 3e
       0.13776651 -0.05045534 0.010764668 0.15581031
000110 81 03 08 be 2f 66 40 be 86 2a 42 3e 9c 4e 22 be
       -0.13282587 -0.1878898 0.18961534 -0.158503
000120 1a 57 86 3e 86 95 32 3d a9 98 5e 3c 33 c9 9d bb
       0.26238328 0.043599628 0.013586202 -0.0048152446
000130 96 99 f4 3d 25 b8 9c bd a1 c6 65 3f 0e d4 78 be
       0.11943357 -0.0765231 0.8975621 -0.24299642
000140 fe 94 e4 be 76 f8 84 be 51 8c e2 be ca 91 b4 3d
       -0.44644922 -0.2597081 -0.44247678 0.088168696
000150 bf ae 14 3d 26 c7 2b be 27 45 02 3e dc 76 a4 3e
       0.036299463 -0.16775188 0.12721692 0.32121933
000160 09 a9 41 3f 79 db e4 bd c8 60 79 be 37 3b 0c bf
       0.7564855 -0.111746736 -0.24353325 -0.54777855
000170 60 a2 04 be 08 0e 89 3d 50 73 3d 3d b8 1d 65 3f
       -0.12952566 0.066921294 0.04625255 0.8949847
000180 b1 51 83 3e ce 98 dc 3c f7 9c c6 3e 7f a1 cb ba
       0.25648263 0.026928332 0.3879163 -0.00155358
000190 98 67 aa 3e 90 b8 c9 3c a0 44 b7 be fb 67 81 be
       0.3328216 0.02462414 -0.35794544 -0.25274643
0001a0 06 55 c9 be d5 a6 6d 3f d7 24 28 3e db 1a 22 3e
       -0.3932268 0.9283269 0.16420303 0.15830557
0001b0 34 61 97 bd db 50 03 bf 62 55 96 be 66 e0 dd bc
       -0.07391587 -0.5129525 -0.29362017 -0.02708454
0001c0 15 26 5e 3b b0 2a eb be 2f 3c 00 be 02 11 61 3d
       0.003389721 -0.45931005 -0.12522958 0.05494786
0001d0 ac eb 30 3e 37 d2 11 bf 68 d5 3f be e7 a0 17 be
       0.17277402 -0.5696139 -0.18733752 -0.14807473
0001e0 06 e6 03 bd 93 37 07 bf b5 d9 70 3e 66 ae e2 3d
       -0.03220179 -0.52819175 0.23520549 0.1106842
0001f0 82 a8 76 bf e3 37 2b be ba 07 d5 be a2 11 16 bd
       -0.9635087 -0.16720538 -0.41607457 -0.03663791
000200 b2 46 8d 3c 8d be 07 3e 41 df 5f be e8 81 54 be
       0.017245624 0.13256283 -0.21862508 -0.2075268
000210 0c 0d d4 3e 20 f4 1b bf 5b 82 0b 3c b2 e0 06 3f
       0.41416204 -0.6091938 0.008514966 0.5268661
000220 a0 30 8a 3e 5d d9 90 3d de f1 64 3f e8 85 95 bd
       0.26990223 0.07072709 0.8943156 -0.07300931
000230 52 00 59 3d ba 83 dc 3e 03 c5 b7 bd 3a 91 b7 be
       0.05297882 0.4306925 -0.08973124 -0.35852987
000240 38 cf 76 be d0 85 d7 bd aa b4 c2 be f0 07 9b 3e
       -0.24102485 -0.105235696 -0.3802846 0.30279493
000250 2c 47 2d bc 96 a8 38 be fd 1d 49 3e 64 30 ad 3e
       -0.010576051 -0.1803306 0.19640346 0.33825982
000260 cc ed 8e be 6b e1 0c 3d d5 fb 90 be a1 ff b7 be
       -0.279158 0.034394663 -0.28317133 -0.35937217
000270 10 78 23 3d da 4e 18 3e c2 55 47 3e cb 99 14 3d
       0.039909422 0.1487383 0.19466308 0.03627948
000280 83 3f 5d 3e 37 a7 a1 3d 51 02 0b bc 9a f2 8b 3e
       0.21606259 0.07893222 -0.008484439 0.27333528
000290 40 67 d8 3d 2e fd aa 3d 6c 92 44 3d 5e 85 57 3e
       0.105665684 0.083490714 0.0479912 0.2104697
0002a0 52 f1 08 be bb c5 ae bd de bc 41 3e 60 5e 6c bd
       -0.13373306 -0.08533808 0.18919703 -0.05770719
0002b0 f6 2d 33 3e 3d c2 6b be 77 f1 e1 bd 2d 52 0b be
       0.17498001 -0.23023315 -0.11032384 -0.13605566
0002c0 4a 3a 4d 3d 30 e3 43 bd 26 1a 60 3d 43 08 28 bc
       0.050104417 -0.047824085 0.054712437 -0.010255876
0002d0 9c a2 de bc b5 91 1c 3e e1 83 8a 3e 26 d2 2a 3d
       -0.027177148 0.15289958 0.2705374 0.04170432
0002e0 85 cf 81 bd 9e d3 89 be 4a b9 7e bd b6 c5 7d 3e
       -0.06338409 -0.26919264 -0.062188424 0.24782452
0002f0 a4 2c e4 3d 23 97 58 3e dc f3 58 be 50 b7 e9 bc
       0.11141327 0.21151404 -0.21186775 -0.028529793
000300 75 f3 15 3e 0a 85 94 3d 87 ee 93 3e 50 bb 28 bd
       0.14643653 0.07251938 0.2889292 -0.04119426
000310 d2 df a3 bd ad 32 49 3e c0 9c 53 3e fe 06 80 bd
       -0.08001675 0.19648238 0.20665264 -0.06251334
000320 78 c2 5a bd 09 2a 24 3d 53 7f 4d 3d 29 77 46 3e
       -0.053408116 0.04007915 0.050170254 0.19381393
000330 d3 97 20 be e7 2d 8b bd 10 e3 4e bd 8b 7c 0c 3e
       -0.15682916 -0.067958646 -0.050509512 0.13719384
000340 ad 03 02 be 30 53 8d 3e b2 34 95 3d 29 50 d7 bc
       -0.12696715 0.2760253 0.072854415 -0.02628334
000350 85 71 50 be 90 fe d8 3d 4c b9 cc bd 1b 3c eb 3d
       -0.20355804 0.10595429 -0.0999628 0.114860736
000360 c9 89 59 be df c5 19 be 40 46 ce bd 44 b5 65 bc
       -0.21243967 -0.15016888 -0.10071993 -0.014020268
000370 4a 4a 7f bd e8 9a 0e 3e 44 b4 21 3d 18 b5 f1 bd
       -0.062326707 0.1392628 0.039478555 -0.11802119
000380 5e 3b 40 be 14 f4 1d 3d d1 07 3f be db a0 b7 be
       -0.18772647 0.03856285 -0.18655325 -0.3586491
000390 d8 a1 57 3e 63 74 96 3d 65 02 45 3e 34 24 3d bd
       0.21057832 0.07346418 0.19239195 -0.046177104
0003a0 f3 d9 7c 3e ad 94 23 3e eb ef 82 3e 73 2c 81 bc
       0.24692516 0.15974684 0.25573668 -0.015768265
0003b0 78 b3 62 3e 9a 4b 86 be 2d ad 59 3d d6 b8 55 3d
       0.22138774 -0.26229554 0.05314367 0.052178226
0003c0 30 8f c5 3d 63 8e fe bd d2 c3 9a bb b7 17 f0 bc
       0.096464515 -0.12429502 -0.0047230506 -0.029308183
0003d0 e2 39 3b 3e 74 cd 79 bc dc 8d a3 bd 6d ed 84 3e
       0.182838 -0.015246738 -0.07986042 0.25962391
0003e0 5d ac 9e 3e ec 3f 70 be d3 d4 57 be 2d c0 5e 3e
       0.30990878 -0.23461884 -0.2107728 0.21752997
0003f0 dd 85 68 3e d6 47 39 bd 60 88 5c 3d 29 e0 ad bd
       0.22707315 -0.045234524 0.053840995 -0.08490021

encoder.enc1.bias f4 [58]
000000 c6 4f 0b 3e fe 07 0b 3d e7 61 fd 3d 31 d0 13 3c
       0.1360465 0.03394317 0.12372189 0.009021805
000010 ad 69 4f 3d c2 61 87 3d 4e 55 eb 3d d5 8a cf bc
       0.05063789 0.06610443 0.1149088 -0.025334755
000020 c5 f9 5a 3d 2b 16 cd 3d 00 f7 0b 3d 77 ba 3a 3d
       0.053460855 0.10013994 0.034171104 0.045587983
000030 c5 ef 6d 3d 91 93 ad 3c 18 17 95 3d f5 b1 32 bd
       0.05808999 0.02118853 0.072797954 -0.043626744
000040 64 e7 10 bd 34 e0 21 bd 3b 64 ba 3d 93 51 b0 3c
       -0.03537692 -0.039520457 0.09101149 0.021523273
000050 c9 41 fe bc fc ef 0b 3e 5e 49 bc 3c 80 2c 12 3d
       -0.031037228 0.13665766 0.022984203 0.03568697
000060 4e 65 a6 3d d8 9e e8 3d 28 c8 15 3d 7c 71 91 3d
       0.08124791 0.11358422 0.036567837 0.071017236
000070 2e 47 09 3e 86 99 0f bd 27 77 dd bd 93 b1 0f 3d
       0.13406059 -0.03505852 -0.10813742 0.035081457
000080 e2 40 88 bd d4 df 50 bd 57 de f2 3c 48 0b fc 3d
       -0.066530004 -0.05099471 0.029647036 0.12306839
000090 06 8e ef 3d 98 5e 32 3d f8 36 3e bc 82 a6 09 3e
       0.11697011 0.043547243 -0.011609785 0.13442424
0000a0 4f 66 68 3d bb 3a fb bc 8c dc c8 3d 33 b4 02 3e
       0.056738194 -0.030667653 0.09807691 0.12764053
0000b0 a6 63 8f bc eb 7e 71 3d 44 e8 53 be 46 1d 27 3d
       -0.01750357 0.05895893 -0.20694071 0.0407994
0000c0 5d a7 8c 3d b7 35 96 bc 7b 38 4e 3d c6 93 01 3e
       0.068678595 -0.01833616 0.050346833 0.12654027
0000d0 9a 17 9e 38 a3 b0 5d bd bf e3 b9 3c 6b be 0f be
       7.538423e-05 -0.054123532 0.022691606 -0.14037482
0000e0 91 1e 27 3d 52 53 c1 3d
       0.040800635 0.0943972

encoder.enc2.weight f4 [39, 58]
000000 d9 77 ec bc 36 4b 79 bf 14 86 c0 3d d3 55 15 bf
       -0.028865742 -0.9738039 0.094005734 -0.5833408
000010 38 d7 da bd 09 e6 8a 3e d0 3b 4c 3f 4f 8d 71 bf
       -0.10685581 0.27128628 0.79778767 -0.94356245
000020 8f 85 b5 3c e5 67 b9 3e 78 de 7f be 13 c7 1f be
       0.022158412 0.36212078 -0.24987209 -0.15603285
000030 de 1d dd 3d 2f e2 46 be 7c d5 3b bf 63 68 a5 3e
       0.10796712 -0.1942222 -0.73372626 0.32306203
000040 1c 9b 23 bf 3d 47 bf 3c 1c 41 87 be c2 18 8b 3e
       -0.63908553 0.023349399 -0.26416862 0.27167326
000050 8a e7 a8 3e 3f c0 ad 3d f0 50 4d be 05 3d a4 be
       0.3298915 0.08483934 -0.20050406 -0.32077804
000060 f3 84 56 3f 46 be 82 bf 4d b3 0c 3e 48 96 80 be
       0.83796614 -1.0214317 0.13740273 -0.25114655
000070 3c 68 a0 3e fd cb 8a 3e 66 94 45 bf 13 2e be be
       0.31329525 0.27108756 -0.77179563 -0.37144527
000080 f2 85 e4 be af 71 b3 be 1c 94 46 3e 27 ec e1 bc
       -0.44633442 -0.3504767 0.19392437 -0.027578427
000090 78 22 45 bf d2 20 56 bf 6f df 8f bf 9e 00 5a bd
       -0.7700572 -0.8364383 -1.1240062 -0.053223245
0000a0 cd f6 70 bf 63 13 23 bf 98 b2 37 3e d1 a2 00 bf
       -0.9412659 -0.63701457 0.17939222 -0.5024844
0000b0 48 34 a5 be c5 e5 e0 bc 04 08 1e 3b 96 0b 1d 3e
       -0.3226645 -0.027453313 0.0024113664 0.15336451
0000c0 59 e8 61 bf 86 16 d2 bd 42 ae 94 bd 27 e4 ba be
       -0.8824516 -0.10258202 -0.072597995 -0.3650219
0000d0 ae 15 7f be 20 58 a5 be 75 6f dd be eb 18 9e 3d
       -0.24910614 -0.32293797 -0.43249097 0.077195965
0000e0 fe e2 67 3e 37 e1 b9 be 8d bd 2a 3e 94 97 f4 3d
       0.22645184 -0.36304638 0.1667387 0.11942974
0000f0 c4 b8 1a be 6c b6 5a be e6 7d fa 39 60 cd 9e 3d
       -0.15109545 -0.21358651 0.00047777517 0.07754016
000100 9f d9 fb 3d e0 77 93 3d f0 b9 7a 3e 78 64 8c 3e
       0.12297367 0.07200599 0.24484992 0.27420402
000110 9a 29 81 3d 77 1c 9e be 48 7d b3 bd f2 74 80 bc
       0.06306763 -0.30881092 -0.0876413 -0.015680764
000120 8c 7d aa 3e 2c 13 65 be 85 03 7b be 37 77 b4 3d
       0.3329891 -0.22370595 -0.24513061 0.08811801
000130 c8 2b 2f 3e bc 68 d1 3d 71 82 9f 3e e2 b9 2e be
       0.17106545 0.102250546 0.31154206 -0.17063096
000140 85 2b ac bd 13 eb 0b bd b6 74 27 3d a0 36 0e be
       -0.08406738 -0.03415973 0.04088279 -0.13888025
000150 72 94 ad 3d 9e 02 0d 3e 1f 5c 1a 3d 7a c5 98 be
       0.08475579 0.1377053 0.03768551 -0.29838163
000160 06 7f 74 3d 5a 14 1a 3e 52 79 80 bd cf 44 6b 3e
       0.05969145 0.15046826 -0.0627314 0.22975467
000170 35 af cd bd 25 50 a5 3e d4 3f a4 3e cf ee a4 bd
       -0.10043184 0.32287708 0.32079947 -0.080533616
000180 20 e3 52 3e fb f8 c7 3d 6d 8a 47 3e 5f 0d ad 3e
       0.20594454 0.09764286 0.19486399 0.33799264
000190 4c 86 1c 3e fb f1 9d 3d 93 2d dc bd 12 2d 41 be
       0.15285605 0.0771217 -0.1075088 -0.18864849
0001a0 84 44 5c 3f 59 95 80 3c b8 b1 fa bc 84 0b 66 3e
       0.86042047 0.015696215 -0.030602321 0.2246533
0001b0 99 e7 4e 3e b5 6f bb 3e 07 91 94 be 15 40 2d be
       0.20205535 0.36608663 -0.29016897 -0.16918977
0001c0 75 87 30 bc 12 4b 3c bd 77 6f 1f 3e 5a b6 33 3e
       -0.010774483 -0.04597003 0.15569864 0.1755003
0001d0 4b d1 b8 be ea 50 75 3e c3 58 51 be d2 69 c1 3c
       -0.36097178 0.23956648 -0.20444016 0.02361003
0001e0 9a 60 a9 be f9 5e cd 3d 01 a0 36 3d 1a 76 4d bd
       -0.33081514 0.1002788 0.044586185 -0.05016146
0001f0 c6 f9 90 3e c2 95 8b bd 77 40 8d be 53 84 aa be
       0.28315562 -0.068156734 -0.27588245 -0.3330408
000200 9b 2e ae 3b ed c5 17 3e d7 ec 33 3e 50 ef 52 3e
       0.0053156144 0.14821596 0.17570816 0.20599103
000210 a8 fa 14 be 09 42 10 3d f7 da 96 bd 95 3c 27 3e
       -0.14548743 0.035219226 -0.07365983 0.16331704
000220 25 4f 72 3d 13 75 2b 3e b6 05 50 be 86 41 37 3e
       0.05915751 0.16743879 -0.20314679 0.17896089
000230 66 69 dd be ec 10 89 bd 9a a2 8d be 4f 2d 85 3d
       -0.43244475 -0.06692681 -0.27663118 0.065027826
000240 c5 28 b5 3c 38 d1 e6 3d 64 ff a0 3d 37 8d 99 3d
       0.022114167 0.11270374 0.07861212 0.07497638
000250 46 1e 91 3e a2 d2 30 3e 7c 13 0e 3e cd bf 00 3e
       0.2834341 0.1726785 0.1387462 0.12573166
000260 99 f7 01 3e b0 c2 96 3e 00 fe c0 3e f4 a7 89 3e
       0.12692107 0.2944541 0.37693787 0.2688595
000270 ff 9b 15 be 53 22 14 bc 9d ff e6 3d ba 55 6c be
       -0.14610289 -0.009041387 0.11279223 -0.23079577
000280 6b f4 c7 bd 7b e0 bb 3d f7 ab 97 be 69 fe 38 bc
       -0.09763416 0.091736756 -0.29623386 -0.011291125
000290 00 e8 96 3d f3 f4 0f be b3 93 09 be 00 2e 25 3e
       0.07368469 -0.14058284 -0.13435249 0.16130829
0002a0 01 f9 4d 3e f5 b6 45 be 44 a3 a9 3e 4f 58 76 3d
       0.20114519 -0.19308074 0.33132374 0.06014281
0002b0 11 0c 03 be bf b2 00 3a d9 7c 15 3e e3 c2 0b bd
       -0.12797572 0.0004909448 0.14598407 -0.034121405
0002c0 ff 4d c8 3d 1c 8a d7 bd de cc 94 bd cd c7 9a 3e
       0.097805016 -0.10524389 -0.07265638 0.3023056
0002d0 f0 ac 5d be 26 d8 65 be c2 f5 c1 bc 27 8d b6 bd
       -0.21648002 -0.22445735 -0.023676757 -0.089136414
0002e0 ef e4 01 be fe ab 96 be 53 36 ba bd 51 c7 00 be
       -0.12684987 -0.29428095 -0.09092393 -0.12576033
0002f0 9c 05 21 3e 3f 46 0a 3e e8 b3 59 be 78 cc ec 3e
       0.15724796 0.1350336 -0.21260035 0.46249747
000300 84 5d 3d be 04 16 45 3e eb 25 c7 bd 6f 6f e2 3d
       -0.18492705 0.1924668 -0.09724029 0.110564105
000310 9d 99 96 3e 19 41 b2 bc fa 64 98 3e d1 55 e1 bd
       0.29414073 -0.021759557 0.2976454 -0.11002696
000320 40 dc e8 bd 24 7e 8b bd 09 2c 8a 3e 67 e9 5e 3e
       -0.11370134 -0.06811169 0.2698672 0.21768723
000330 b4 a6 90 be 45 db 8c 3e d7 12 b4 bd 63 0b c1 3e
       -0.28252184 0.2751104 -0.08792656 0.37704
000340 cd d0 ae 3d 71 9c f7 bd 00 39 ca bc 33 da 4f be
       0.08535919 -0.12090386 -0.024685383 -0.2029808
000350 b8 c0 26 be c8 49 11 3d 49 47 ab 3d a6 0f b7 bd
       -0.16284454 0.035470754 0.08363206 -0.089385316
000360 50 e3 8a 3d b6 72 56 be ef a4 cb bc 93 18 14 3e
       0.06781638 -0.20942196 -0.02485892 0.144625
000370 d6 96 94 be 3d 43 25 3e 03 38 3f be 39 4b 2e be
       -0.2902133 0.1613893 -0.1867371 -0.17020883
000380 a9 cb f0 bd 1d 4d 2f 3e af 20 b5 3e 02 18 d7 3d
       -0.11757595 0.1711926 0.35376498 0.10502626
000390 e6 37 95 3e e7 99 6c be 8a 0f 40 be 25 88 4c bd
       0.2914421 -0.23105584 -0.18755928 -0.049934525
0003a0 f6 25 47 3e 9f d3 01 3f d3 f0 13 be 94 c3 a2 be
       0.19448075 0.50713533 -0.14447336 -0.3178984
0003b0 a5 61 0d be e6 c7 89 be 56 13 4e 3e 91 c6 a5 bc
       -0.1380678 -0.26910323 0.20124564 -0.020236285
0003c0 8c 66 22 3e d2 4e 9c 3d 10 0d a2 3d 4f 27 0a be
       0.15859431 0.07632221 0.07912648 -0.13491558
0003d0 ba e7 98 bd 75 94 1e be 68 fe f3 3e 51 82 cf bd
       -0.07466073 -0.1548632 0.47655034 -0.10132278
0003e0 aa 41 97 bd b3 b1 5a be 98 0c 13 3e a5 79 5f bd
       -0.07385571 -0.2135685 0.14360273 -0.05455937
0003f0 f8 aa 8a be 6d 30 b7 be 05 88 30 3e 88 c1 49 3e
       -0.27083564 -0.35779133 0.17239387 0.19702733

encoder.enc2.bias f4 [39]
000000 ca ed d9 3d ea 04 9c 3d de 65 e5 3c 5d f4 0c 3d
       0.10641058 0.07618125 0.028002676 0.03441273
000010 3d 1e ad 3d e7 24 a2 3d d3 01 44 3d 45 d9 cc 3d
       0.08453033 0.07917195 0.047853302 0.100023784
000020 49 f9 96 3d b2 54 e6 3c a6 23 09 bd 8e bb 41 bc
       0.07371766 0.028116558 -0.033481263 -0.011824502
000030 80 8e 12 3d 45 09 76 bd 30 4f bb 3d ee f1 88 bd
       0.03578043 -0.060067434 0.09145963 -0.066867694
000040 5d 18 8f 3d 5a 2b 63 3d ae 5a 35 bc e8 d3 78 3d
       0.06987069 0.055461265 -0.011068983 0.060748965
000050 a0 43 5d 3b c7 a3 2a bd bc 63 65 bc 0a da 01 3e
       0.0033762231 -0.041660096 -0.014000829 0.12680832
000060 e7 c7 f6 3d d5 97 be 3c 4e 9c b8 3c 73 b2 6c bd
       0.12049847 0.023265759 0.02253547 -0.05778737
000070 f5 e1 dd 3d 73 50 15 3d 65 d5 c8 3c f9 b8 4c 3d
       0.108341135 0.036453675 0.024515817 0.04998109
000080 13 4a 3b 3e 82 ff ff 3c 0c cb da bc aa 02 5b bd
       0.18289976 0.031249765 -0.026708148 -0.053469338
000090 69 3f 1c 3e 7d f2 87 3c 11 0f 0a 3b
       0.15258564 0.01659512 0.002106611

encoder.enc3.weight f4 [19, 39]
000000 fc 3f 84 bf 94 3a d0 bd 70 be 8e 3e 5e 21 6a bd
       -1.0332026 -0.10167423 0.27879667 -0.057160728
000010 d2 31 2c 3d 5c 61 78 3e 11 82 ea be 89 01 a4 3e
       0.0420397 0.2425589 -0.45802358 0.3203242
000020 e5 55 a5 bd 30 7f e8 bd 4c 17 93 be 53 e1 7b be
       -0.08073024 -0.11352384 -0.28728712 -0.24597673
000030 70 46 d7 bd 6d 6e a3 3e f0 44 1c 3f b9 c8 1c 3e
       -0.10511482 0.31920186 0.6104269 0.15310945
000040 d3 b5 08 3e b9 96 ca bf 51 52 2c be 3a 94 2d 3c
       0.1335061 -1.5827247 -0.16828276 0.010594422
000050 7c 0f 2a 3d b6 a2 58 3d e8 a8 19 3e 51 41 44 be
       0.041518673 0.05288955 0.15005839 -0.19165541
000060 c7 26 ec 3d 63 d4 49 be 78 19 ca 3e 4c 97 dd be
       0.11530834 -0.19709925 0.39472556 -0.43279493
000070 d2 cb 93 bf 23 2b 71 be 5c 9b 87 bf 7b 7c cc 3e
       -1.1546576 -0.23551612 -1.0594287 0.3993872
000080 21 5e b3 bd d9 94 a5 bf 58 e1 b7 3e 29 f4 0f 3d
       -0.08758188 -1.293605 0.3591411 0.03514496
000090 54 fe 9c 3e 65 5b 97 3e 3e ac fb 3e 6f 19 db bd
       0.30662787 0.29561916 0.49154848 -0.106982104
0000a0 98 ef 49 be 1a c9 df 3d 86 06 b6 3e d0 35 4e be
       -0.19720304 0.10927029 0.35551852 -0.20137715
0000b0 4f 71 94 3e dd 0b 8b bc 93 30 a0 3e 25 45 e0 3d
       0.28992698 -0.01697343 0.3128706 0.10950688
0000c0 7b 15 7c be 52 1b c3 be 4b 71 82 3e 29 b1 82 be
       -0.24617569 -0.3810678 0.2547706 -0.25525787
0000d0 d1 8d 9a 3e 4c 0f 4f bd c9 bf 80 be 54 99 41 bd
       0.30186322 -0.050551698 -0.2514632 -0.047265366
0000e0 1c 56 90 be 84 5e 9f be 1e 75 24 be c2 69 48 bd
       -0.28190696 -0.31126797 -0.16060302 -0.048928984
0000f0 d5 90 d8 bc 85 1d b3 bd ac 57 e5 3c 2c 3d 6c be
       -0.026436249 -0.08745865 0.027995907 -0.2307021
000100 00 37 54 3c fc a3 00 3e ce 89 34 3e d4 17 0b 3d
       0.012952566 0.12562555 0.17630693 0.03395827
000110 57 15 99 3e 29 81 93 be c5 00 19 3b ea 88 c5 be
       0.29899094 -0.2880948 0.0023346406 -0.3858102
000120 ad 0b b7 3e 4c 7c 3b be b0 85 5d be 2a 35 b8 be
       0.35751095 -0.18309134 -0.21633029 -0.3597806
000130 e3 a2 b3 3e aa 5f 2f 3e d6 67 91 bf f5 83 8c be
       0.3508521 0.17126337 -1.1359813 -0.27444425
000140 1a c8 a5 3c f9 44 0d bd 0b c1 a2 3d bc 58 a6 3e
       0.020237017 -0.034489606 0.07946976 0.32489574
000150 a7 a2 0a 3e 3a 58 1c be c7 1c 06 3e 36 89 99 3d
       0.1353861 -0.15268031 0.13096915 0.07496874
000160 0c 08 77 bd 3a a7 00 3e 19 f3 38 3e c0 6a f6 3d
       -0.06031041 0.12563792 0.18061484 0.1203208
000170 ab be 97 be ca ce 57 3d 11 fd 9d 3d 06 2c 70 be
       -0.29637656 0.052687444 0.07714284 -0.23454294
000180 99 1c 89 3e 1c 46 08 be 24 4a 7f 3e c5 4e 95 b8
       0.2677963 -0.13307995 0.24930626 -7.1195456e-05
000190 b4 7b 7c 3e d6 d5 35 3e ec 95 36 be a7 cb bc bd
       0.24656564 0.17757353 -0.17830628 -0.09218531
0001a0 cb 6f a1 be 8f 03 55 3e 0b 20 4f bf fa e6 14 be
       -0.31530604 0.20802139 -0.8090827 -0.14541236
0001b0 73 ea cd be e7 47 af be c3 09 c0 bd 99 ee 09 bf
       -0.40217933 -0.34234545 -0.09376862 -0.53879696
0001c0 5a 26 d6 3d 17 c8 84 be 9a e9 31 3b 28 d8 a5 bd
       0.10456534 -0.25933906 0.0027147294 -0.08097869
0001d0 9c 37 23 bd ac 49 0a 3f 8a 8c c0 bc 92 60 a2 be
       -0.039847955 0.54018664 -0.023504514 -0.31714302
0001e0 dd 7e 0c 3f fa 68 fe be 7e 02 30 3e 41 7d 2f 3f
       0.5488108 -0.49689466 0.1718845 0.685505
0001f0 69 77 ba 3e 8c 2a 0d 3f 37 f6 71 bf a9 ef b7 bf
       0.36419228 0.55143046 -0.9451632 -1.4370013
000200 bc b9 89 3e da 8a 05 bf 3c e4 b5 bf 26 c6 d7 3e
       0.26899517 -0.52164996 -1.4210277 0.42143363
000210 0a 11 c2 bf c1 8b e2 be f8 0f e0 3e 01 48 83 bf
       -1.516145 -0.4424725 0.43762183 -1.0256349
000220 15 54 24 bf b9 6a c3 bf 5f d3 35 bf 4b 15 b6 bf
       -0.641908 -1.5266944 -0.7102565 -1.4225248
000230 40 4b 8b 3e 4e 00 79 be dc c9 e3 be 31 83 d1 be
       0.2720585 -0.24316522 -0.44489944 -0.40920404
000240 ad 44 bd bf 31 ba 1f 3f 19 44 85 bf fe 13 42 3f
       -1.4786583 0.6239348 -1.0411407 0.75811756
000250 01 52 56 be 8f e0 9b 3e 53 c3 d1 3d eb ca 4f bf
       -0.2092972 0.30444762 0.10242333 -0.81169003
000260 03 8f 0f c0 07 b8 db 3e 91 05 dd bf 41 07 86 be
       -2.2431037 0.4291384 -1.7267324 -0.2617741
000270 91 4c d2 3e 0d cf d7 3d 02 b6 08 bf 79 bd 4b 3e
       0.4107404 0.10537539 -0.5340272 0.19896497
000280 a8 f1 f8 be 96 e3 83 bd eb 1c 4a 3f 46 7f 0f 3f
       -0.4862187 -0.06439893 0.78950375 0.5605358
000290 fe d7 c1 3e 0d e8 a1 bf f2 55 98 bf c1 71 78 3c
       0.378601 -1.2648941 -1.1901228 0.01516384
0002a0 c2 dc 2b be d4 39 82 bf ce db 14 3f 9d 18 c3 bf
       -0.16783431 -1.0173898 0.58147895 -1.5241886
0002b0 78 21 1e bf 19 ca 9a 3e 45 61 81 bf 88 a4 44 be
       -0.6176982 0.30232313 -1.0107809 -0.19203389
0002c0 84 99 a2 bf 03 be 84 bf 2f a9 ad bf dd 21 bb 3e
       -1.2703099 -1.0370487 -1.3567256 0.36549273
0002d0 ff 37 d4 3c 40 fa 38 bf ba 8e 96 be f1 d3 a9 bf
       0.025905607 -0.7225685 -0.29405767 -1.3267804
0002e0 d8 bd 96 3d 26 6e a2 bf 71 35 07 3e 06 6c 8b 3e
       0.073604286 -1.2689865 0.1320398 0.27230853
0002f0 d9 99 ad 3e ae e5 8b 3e f4 47 2a bf 87 0a 09 c0
       0.3390644 0.2732367 -0.6651604 -2.1412675
000300 87 2e 0d 3f 3c d1 c3 bf 22 e3 c5 3c 0a 7b d7 bf
       0.5514912 -1.5298228 0.024156157 -1.6834424
000310 d5 f4 dc bd 9f 47 f3 bd 95 2b a7 bd 70 16 81 3e
       -0.107888855 -0.11878895 -0.081626095 0.2521243
000320 6b 17 9e 3e e6 c5 11 bf d2 5f b8 be ba 4f 97 3e
       0.30877241 -0.56942594 -0.36010605 0.29553014
000330 bb 18 5b bd b9 c9 4e be 50 06 7e bd 81 42 2b be
       -0.05349038 -0.20194139 -0.06201774 -0.16724588
000340 ec 47 72 3e 3d 9e 45 be 63 e0 0d be 0d a6 bb 3e
       0.23660249 -0.19298644 -0.13855128 0.36650124
000350 a0 df a9 bf a8 3c db bd 26 56 c4 3e 39 22 12 3e
       -1.327137 -0.10704929 0.38346976 0.14270867
000360 e1 78 86 3e dd 3e 92 3e 1f 45 a1 3e 5a 4b f7 3d
       0.26264098 0.28563586 0.31498048 0.12074919
000370 a2 2a 86 bd 05 76 89 3d 7e 2d a3 be 18 5d d8 bf
       -0.065511 0.067119636 -0.31870645 -1.690341
000380 51 31 02 3e de 14 aa bf 92 02 c6 3c 9a 3c f8 3d
       0.12714125 -1.3287618 0.024171147 0.12120934
000390 f4 31 b3 bf b0 ea 37 3d e0 61 b8 be 72 27 72 bc
       -1.399962 0.04490155 -0.36012173 -0.014779912
0003a0 47 ae a4 bd fa f7 b9 bd 10 e4 86 be 39 1c 8f 3e
       -0.08041053 -0.09080501 -0.26345873 0.2795122
0003b0 c9 3b 0a bd 54 ef 32 bd bb 85 18 3d 0b 63 b3 bd
       -0.03374842 -0.043685272 0.03723691 -0.08759125
0003c0 b9 35 7b be d8 57 61 be 2d 92 91 3e 8b df b8 3e
       -0.24532212 -0.22006166 0.28431836 0.3610805
0003d0 ad 75 9c be 04 ca de be a7 b3 70 3d 8e b8 49 3e
       -0.3055853 -0.435135 0.05876508 0.19699308
0003e0 2b bd dc 3d e5 c2 c3 be 54 75 c1 3e 1d 0d 19 bf
       0.107782684 -0.3823463 0.37784827 -0.59785634
0003f0 aa 8a 19 bc 2f 63 53 3e 18 c5 fa 3d 2c 99 8c bd
       -0.009371439 0.20643304 0.12244624 -0.06865153

encoder.enc3.bias f4 [19]
000000 ec ae 54 3e a5 9f 81 bb e2 47 d1 bb 81 d5 4b 3e
       0.20769852 -0.0039557987 -0.006386743 0.19905664
000010 71 60 fd 3d 9d 67 4a 3e 01 ac 2e 3d ac 04 a4 3d
       0.1237191 0.19766088 0.042644504 0.080087036
000020 04 9d ab 3c d2 fd a2 3c 1f c7 7a bc 40 f0 2d 3e
       0.020948894 0.019896422 -0.015306263 0.1698618
000030 f0 dc 4d 3d e3 d0 9b 3d ca bb a9 3d 5e 2d 11 3e
       0.05025953 0.07608201 0.08287771 0.14177462
000040 96 39 89 3c 35 67 cb 3d 8a 77 83 3c
       0.016751092 0.099317946 0.016048212

encoder.enc4.weight f4 [7, 19]
000000 f8 e9 c6 3e 41 ed e8 3e 5d a9 d1 3d 54 62 41 bf
       0.3885038 0.4549351 0.102373816 -0.7554066
000010 0c a5 c8 3d 5b 8c 97 3e 5f 92 f5 3e 3a db 8d bd
       0.09797105 0.2959927 0.47963235 -0.0692658
000020 80 b2 0c 3d 67 10 cc 3e 7e 0f 91 bc 3f f8 c8 3d
       0.03434992 0.39856264 -0.017707583 0.09812974
000030 d2 db 84 3d 39 cd ee 3e d5 4f 1c bf 2e 2a 58 3e
       0.0648724 0.46640947 -0.61059314 0.2110984
000040 68 28 a4 3c a9 d6 10 bf 42 16 59 be d8 01 30 3e
       0.020038798 -0.56577545 -0.21199897 0.17188203
000050 a1 b0 bf bd a0 52 7b be b7 0c 77 be 3a 8b 2a be
       -0.09359861 -0.24543238 -0.24125944 -0.16654673
000060 66 24 32 3e 3a 75 64 be 3f 04 ce be fa 22 81 3d
       0.17396697 -0.22310343 -0.40237615 0.063054994
000070 bb 7f ac be dd 6b e6 be 90 3a 45 be 8c c4 03 3f
       -0.336912 -0.45004168 -0.19260621 0.5147178
000080 0c 8d d3 3d ac 49 18 3d 12 3d 2c 3d 75 a2 90 3e
       0.10329637 0.037179634 0.04205043 0.28248945
000090 56 f1 3a 3e d7 73 88 3e d0 72 57 3e 12 a8 cc be
       0.18256125 0.2665088 0.21039891 -0.39971977
0000a0 fb 3b 74 be fb 68 3b bf c9 76 d3 3d b1 2f 4c 3e
       -0.23851006 -0.7320706 0.10325391 0.19940068
0000b0 ec e8 9d 3e 82 bd 2c bf da 5b 3a bd 35 86 8d 3e
       0.30841768 -0.67476666 -0.045497753 0.27641454
0000c0 c2 da dd be 14 05 fb 3e 4f 33 cd 3e d8 0f df 3e
       -0.4333096 0.49027312 0.40078208 0.43566775
0000d0 62 28 06 bf ee 17 c4 3d 56 42 2f bd 94 9e 33 bf
       -0.5240537 0.09574877 -0.042787872 -0.70163846
0000e0 e2 e9 b7 be 6d 30 86 bf 04 3d ec be 51 22 f7 3e
       -0.35920626 -1.0483528 -0.461403 0.4826837
0000f0 d7 88 4d 3f 5c 3a 6d 3f 6a 5b bf be 44 5a e7 be
       0.80286926 0.92667174 -0.3737443 -0.45186055
000100 6a 71 70 3f 6c 65 24 bf 43 5f 0c be 5b 27 11 bc
       0.93923056 -0.6421726 -0.13708214 -0.008859481
000110 ea 55 c8 bd a3 a2 b8 be de d5 26 bf 53 f8 10 3e
       -0.09782012 -0.36061582 -0.65170085 0.14157228
000120 fc dc 13 bf cb d9 e8 3c 39 48 46 3f fb 84 32 bf
       -0.5775907 0.028424164 0.77453953 -0.6973416
000130 f9 b4 96 be 43 aa 9a 3e 12 bb 2c bd a0 4a c1 bd
       -0.29434946 0.30208024 -0.04217059 -0.09438062
000140 b8 52 37 3f 12 a7 a8 3d a3 e3 a4 3c a9 37 8b 3d
       0.71610594 0.08234991 0.020128077 0.06797726
000150 dd 04 83 be ad 2d 71 be d9 dd 85 3e 8b cb a2 be
       -0.25589648 -0.2355258 0.2614582 -0.31795916
000160 d2 58 12 bf 70 0f 3c be 38 e3 a9 bd 90 52 a7 bc
       -0.5716678 -0.18365264 -0.08295292 -0.020425111
000170 38 4d c3 be 52 06 16 be f5 8f 81 3e 52 a8 11 3f
       -0.3814485 -0.14650849 0.25305143 0.5689746
000180 f3 3d da be 55 b5 0f 3c 05 99 08 bf f2 38 fe be
       -0.42625389 0.00877126 -0.5335849 -0.4965282
000190 32 60 4f 3d a7 04 1e 3f 7d 1c 62 bf 49 54 8c 3d
       0.05062885 0.6172585 -0.8832472 0.068520136
0001a0 64 26 c3 3e 31 19 93 be 7f 47 15 3e 78 c5 4f be
       0.38115227 -0.28730157 0.14578055 -0.20290172
0001b0 5f fe 89 3e 1f 72 5b bf bd 40 cb 3e 75 92 72 be
       0.26951882 -0.8572101 0.3969783 -0.23688681
0001c0 6b 61 88 be 4c 59 e1 3e c9 45 06 bf 9b 77 0c 3f
       -0.26636824 0.4401344 -0.52450234 0.54870003
0001d0 dc b2 6d 3e 58 11 57 3f 3d 95 1a 3e 35 b8 87 be
       0.2321276 0.8401084 0.15095992 -0.26507726
0001e0 ce 9f 7d 3e 7b 1a 42 3f f9 b2 89 be 8c 1e 47 be
       0.24767992 0.75821656 -0.26894358 -0.19445246
0001f0 c0 99 a8 be fe 9a 81 3d 4d 1e b1 be f5 78 8e bb
       -0.32929802 0.063283905 -0.3459343 -0.0043479153
000200 ed f0 35 3e c0 7d 81 be 5f 60 20 bd 90 8a cf 3e
       0.17767687 -0.25291252 -0.039154407 0.40535402
000210 07 d8 ae be
       -0.3414919

encoder.enc4.bias f4 [7]
000000 de 30 77 bc cb 67 96 3c 24 44 ab 3c ff b7 72 3d
       -0.015087334 0.01836004 0.020906515 0.059257504
000010 5a 04 15 3a 58 17 81 bc 73 a7 8c bc
       0.00056845474 -0.015758201 -0.01716969

decoder.dec1.weight f4 [19, 7]
000000 da dd a2 bd 70 46 4e 3f 12 17 62 3e 01 dc 26 3f
       -0.07952471 0.8057623 0.22079113 0.6517945
000010 ea 3f 7b bf ee b1 5a 3f 48 5b 23 3f 7b 34 43 3f
       -0.981444 0.8542775 0.6381116 0.76251954
000020 df bd ea be e2 4a 17 bf d2 03 92 bd 4e 4c 3d 3f
       -0.45847985 -0.5909864 -0.07129635 0.73944557
000030 b6 fe 9d be f3 4c 09 3f 2c dd e1 bd b4 d1 69 bf
       -0.30858392 0.5363304 -0.11028513 -0.91335607
000040 de b4 43 3f 4d 80 96 3e e2 a1 5e bf a0 54 46 bf
       0.76447856 0.2939476 -0.86965764 -0.7747288
000050 4c 33 59 bf 5e a5 86 3e c8 04 6f 3e 86 21 98 be
       -0.848439 0.2629804 0.23341668 -0.29713076
000060 ea 15 9b be 3c 8e 56 3f 4f f7 3d 3f fd 13 e5 3d
       -0.30290157 0.8381078 0.7420549 0.11185453
000070 1d ae 18 3f ce 75 dd 3e d5 2a 7e 3e 00 7c a3 be
       0.59640676 0.4325394 0.24821027 -0.31930542
000080 93 21 f1 3e 89 9e 48 bd 88 a7 b7 3e ec ad 01 bf
       0.47095928 -0.048979316 0.35870004 -0.5065601
000090 90 84 96 3e 21 44 e9 bb 36 45 d4 be b9 26 0b 3f
       0.29398012 -0.0071187173 -0.41459054 0.5435596
0000a0 85 d3 8a 3e de 83 9f bd 48 3b ea be 30 f8 87 3e
       0.27114502 -0.077888235 -0.45748353 0.2655654
0000b0 51 2a 63 3e e6 7e 9a 3e e3 68 c6 3d 87 f2 1d bf
       0.22184111 0.3017494 0.09687974 -0.6169819
0000c0 48 69 3b 3f 5e 4b 77 3e b0 35 55 3f 80 b2 1f bf
       0.7320752 0.24149844 0.83285046 -0.62381744
0000d0 5d 37 1c bf 5f 29 45 3f 25 86 ea 3d 67 50 2b bf
       -0.6102198 0.7701625 0.11451367 -0.6691956
0000e0 76 16 34 3e ae ee 43 be 2c 6d dd be ed 95 ca bd
       0.17586693 -0.19134018 -0.43247354 -0.09891877
0000f0 b5 2b 5d 3e 34 4e d6 3e 2b 3b 69 bf 0c ac 90 be
       0.21598704 0.4185654 -0.9110591 -0.2825626
000100 64 2e 25 3d 91 17 ac be 91 6c 48 bf e6 52 5d 3f
       0.040327445 -0.3361173 -0.7829066 0.8645462
000110 95 d0 cb 3e b5 97 ee 3e 81 c6 ea be 8a 00 82 be
       0.39807573 0.46600118 -0.4585457 -0.25391036
000120 96 14 01 3f 1c af 40 3e db b5 04 3f ed 09 ef 3e
       0.50422037 0.18816799 0.5183999 0.4668726
000130 a7 bb d6 be 7b 29 37 bf a4 95 9e 3e 5a 1d 18 3f
       -0.41940042 -0.7154767 0.30973542 0.59419787
000140 d6 81 6e 3d 34 7b d1 be c3 d8 11 3f a8 0f 51 bf
       0.05822929 -0.4091431 0.5697138 -0.81664515
000150 71 c4 69 be 22 c5 ba be e0 da 18 be d2 6e 29 3e
       -0.22828843 -0.36478525 -0.14927244 0.16546181
000160 26 5c 58 bf 39 82 67 3e 22 ff 5a 3f 2a fd 56 bf
       -0.8451561 0.2260827 0.8554555 -0.8398005
000170 04 5f 3f 3f 2f d9 54 bf d6 d2 35 3e b0 7b 40 3f
       0.7475436 -0.83143896 0.17756209 0.7518873
000180 a9 1a 0a 3f 62 b1 73 bf 26 35 65 3f 0f 9b e6 be
       0.5394693 -0.9519254 0.89534223 -0.45040175
000190 f5 f7 2e bf 2a ac 87 bd 45 82 e6 3e 34 51 20 bf
       -0.683471 -0.066246346 0.45021263 -0.62623906
0001a0 aa 60 1e bf b2 17 70 bf e1 a9 6a 3d 56 86 34 3f
       -0.6186625 -0.93786156 0.057290915 0.7051748
0001b0 fe 15 88 be ef 1b 02 3f 46 6e 67 bd 4e 33 75 3f
       -0.2657928 0.50823873 -0.05650165 0.9578141
0001c0 df 88 08 3f 07 eb 62 be b3 37 2f bf e4 6f 31 3d
       0.5333385 -0.22159968 -0.68444365 0.043319598
0001d0 3a b6 20 bf e2 76 83 3e ba 72 cf 3e 1d d0 a8 be
       -0.62778056 0.25676638 0.40517217 -0.32971278
0001e0 bd 8c 57 bf 35 98 a3 be 08 58 59 3e 89 7e 36 bf
       -0.84199125 -0.31952062 0.21224988 -0.7128683
0001f0 66 c3 a3 3e 66 b4 25 bf 99 38 08 be 7f cb 01 3e
       0.31985015 -0.6472839 -0.1330284 0.12675284
000200 75 7e 00 3f ea 59 b4 be d4 78 78 3f 64 3e 39 bd
       0.5019296 -0.3522485 0.9705937 -0.045225516
000210 ca fb f4 3e
       0.4784835

decoder.dec1.bias f4 [19]
000000 af 65 16 3d 06 35 a4 3d c4 de 3a bc bb e2 2c bd
       0.036718067 0.08017926 -0.0114056505 -0.042208415
000010 8c 45 6f bc 0d 29 15 bd a5 aa 5c 3d 04 0a 27 3b
       -0.014603984 -0.036416102 0.053873677 0.0025488148
000020 89 90 ae 3c e8 4c 0e bd b0 37 5c bd 9f 3d 7f 3c
       0.021309154 -0.034741312 -0.053764045 0.015578656
000030 60 ce be bc c0 9f 9c 39 a0 18 f1 3c 3c c5 8a 3d
       -0.023291767 0.00029873662 0.029430687 0.06775901
000040 a6 33 a6 bc ae 99 d4 bb 85 91 59 bd
       -0.0202883 -0.0064880466 -0.053117294

decoder.dec2.weight f4 [39, 19]
000000 ee 0e b9 be b5 db d5 be 09 68 bd 3d 81 bd a1 3e
       -0.36144203 -0.41769186 0.09248359 0.31589893
000010 0e 5e fe be 2e b5 d3 3e b1 59 e5 3e f0 b5 37 3e
       -0.49681133 0.41349167 0.44794992 0.17940497
000020 6b d7 5a 3d 06 3f 45 3e 7c 00 06 40 e2 5a 87 3e
       0.053428095 0.19262323 2.0937796 0.26436526
000030 b8 1e f8 3e 87 77 cc 3e b2 7a 8c 3e c4 5e 87 3e
       0.48460937 0.39934942 0.2743736 0.26439488
000040 65 00 d5 3e 22 b4 45 3f b2 03 69 3f 80 88 5a bf
       0.41601864 0.77227986 0.91021264 -0.8536453
000050 04 d5 63 be 43 65 55 be 74 35 02 bf c8 26 66 be
       -0.22249228 -0.2083941 -0.50862813 -0.22475731
000060 71 ef f0 3e 5b 8f 49 bd 03 fd d7 bc 89 49 e6 3e
       0.4705768 -0.04920898 -0.026365763 0.44977978
000070 36 24 f6 3e 8c 88 dc 3e e6 5c 24 be 1c 5b 0a 3e
       0.48074502 0.43072927 -0.16051063 0.13511318
000080 e6 54 e6 3e 49 3b e6 3e 0d e5 90 be 8f 79 7f be
       0.44986647 0.44967106 -0.28299752 -0.24948715
000090 df c9 cd 3e 76 53 d7 3f 51 a8 1b be a0 fd f8 3e
       0.40193078 1.6822345 -0.15200926 0.48631
0000a0 90 da ee be 9e 4e 5c be ed 5c e2 be 65 7a 6d be
       -0.46651125 -0.21514365 -0.44211522 -0.23191221
0000b0 48 d6 d2 be d6 8b 64 3d e7 e5 07 3f 47 5f ed be
       -0.4117911 0.05579742 0.5308518 -0.46361753
0000c0 e3 a6 99 3e 5b 0e 97 3e 2b 99 62 be 43 2c 81 be
       0.30010137 0.2950314 -0.22128741 -0.25229082
0000d0 b1 8c 64 3e 7b 21 ed be b9 58 a9 3d 09 67 b6 3f
       0.22319295 -0.46314606 0.08268876 1.4250194
0000e0 89 b9 c9 bf b9 92 0b bf a0 e8 a2 3e 26 72 ac 3e
       -1.5759746 -0.54520756 0.31818104 0.33680838
0000f0 38 aa 6c be 69 67 06 be c4 fa c8 3e d7 6c 9b 3e
       -0.23111808 -0.13125385 0.3925382 0.30356476
000100 88 7d e9 3e fb 49 22 be c3 aa 82 3e d1 08 d8 3f
       0.45603585 -0.15848534 0.25520906 1.687769
000110 99 90 87 be 83 30 8b 3e bc ea fd 3e 90 dc 4b 3d
       -0.26477507 0.2718545 0.4959315 0.04977089
000120 16 d0 ab be e0 4d 06 bf 51 09 26 bf eb b3 01 40
       -0.33557194 -0.5246258 -0.64857966 2.0266063
000130 fe a1 10 bf 3d 20 9f 3c 84 54 b4 3e fc 2b 61 3e
       -0.5649718 0.019424552 0.3522073 0.21989435
000140 71 7a 86 3e 32 61 64 3e d2 09 b5 3e f3 d4 b0 bd
       0.2626529 0.22302702 0.35359055 -0.08634367
000150 12 3b 06 3e 5f 8c c8 3d 80 35 a4 bf 28 5f 3d 3e
       0.13108471 0.09792399 -1.2828827 0.1849333
000160 df 78 6a 3e 11 09 4b be 4c c2 0f bf db 73 4c be
       0.22897671 -0.19827677 -0.5615585 -0.1996607
000170 2c a0 bf 3e 40 3c 60 bd 6e 83 0f bf 0a 44 88 bf
       0.3742689 -0.05474496 -0.5605992 -1.0645764
000180 68 ba 1f 3e 57 62 df 3e 52 1d af be e8 6e 8e bd
       0.15598452 0.43629715 -0.34202057 -0.069547474
000190 5f 10 51 3e 9c e4 48 bd 19 c9 1a be 4f 25 b6 3e
       0.20416401 -0.049046144 -0.15115775 0.3557534
0001a0 33 f9 b7 be ee f0 8f 3f d8 64 82 3e 82 39 17 be
       -0.3593231 1.1245401 0.25467563 -0.14768031
0001b0 4d 1e 13 be 71 c5 9e 3d ff c0 03 3e a0 43 14 be
       -0.14367028 0.07752503 0.12866591 -0.14478922
0001c0 da ef 4f 3f 92 5b 8b bd 04 d7 95 3e 73 40 22 bd
       0.8122536 -0.06804575 0.29265606 -0.039612245
0001d0 ed ab f7 3e 9a db ad 3e a4 74 38 3d 97 f9 ce 3e
       0.48373356 0.33956605 0.045033112 0.40424797
0001e0 dd 95 96 bc 9a 5f a0 3d 4f 50 6a 3e 9e 58 15 3e
       -0.018382007 0.078307346 0.22882198 0.14584586
0001f0 95 6d f0 3f 89 a9 e4 3d bf 44 9a be 8a db eb be
       1.8783442 0.11165149 -0.30130574 -0.46065933
000200 d5 13 26 3d 1d 5b 9b be 54 9d e6 be 91 d2 24 3f
       0.040546257 -0.3034295 -0.45041907 0.643838
000210 46 34 11 3f 1a 5b 4e 3f 8d 55 8b be e6 51 09 3f
       0.5672039 0.8060776 -0.27213708 0.5364059
000220 14 35 a6 3e b9 08 0f bf c0 5b b5 be d9 a4 81 be
       0.3246237 -0.55872685 -0.35421562 -0.2532108
000230 34 b5 1d be 2d 1d f4 3e ce 6f 01 bf 29 14 d7 3e
       -0.15401155 0.4767851 -0.50561225 0.42007568
000240 27 ce 91 3e d3 b0 00 bf d2 9d d9 be 72 93 c8 be
       0.28477594 -0.5026981 -0.4250322 -0.39174992
000250 88 56 ec 3e 97 b7 0a 3f e2 48 55 3f 32 7a ab bf
       0.46159768 0.54186386 0.83314335 -1.3396666
000260 d2 09 3d 3e 97 b3 44 3e bf 6f de be f0 2e 9b be
       0.18460777 0.19209133 -0.4344463 -0.30309248
000270 2f e3 22 be fd 8a 45 ba 59 fd 98 be 43 ec b6 3d
       -0.15906976 -0.00075356645 -0.2988079 0.08931782
000280 58 99 00 3f e7 d0 b7 3d 25 ed d0 bf e0 a3 96 bd
       0.50233984 0.08975392 -1.6322371 -0.073554754
000290 b7 1f a1 3e f5 fa 6a 3e b8 58 c0 3e cf 15 22 3f
       0.3146951 0.22947295 0.37567687 0.6331453
0002a0 10 ab 0b 3f 75 ca c3 be 98 f4 82 3e b1 55 cc 3e
       0.54557896 -0.382404 0.25577235 0.39909127
0002b0 03 77 16 3d a2 b0 9f bc 0b 1b d6 ba a1 48 20 3e
       0.036734592 -0.019493405 -0.0016334964 0.15652706
0002c0 e5 61 bb be 71 70 d8 bc 3d d9 97 3e ff ff cd 3e
       -0.36598125 -0.026420804 0.29657927 0.40234372
0002d0 a7 e0 cb be 85 3b 37 bf 3c 13 4b 3e 5c 17 99 3d
       -0.39819834 -0.71575195 0.19831556 0.074751586
0002e0 da 6e 4b 3d 56 7d 6a be c1 d2 29 be da c1 94 3e
       0.049666263 -0.22899374 -0.16584302 0.29054147
0002f0 b1 09 3d 3c ae 52 03 bf ef 9f 20 bf 31 ac fe bd
       0.011537955 -0.51298034 -0.6274404 -0.12435187
000300 aa f9 f6 3e f1 98 bf 3d 0b 87 81 3b 55 3d b9 be
       0.48237354 0.09355343 0.003952866 -0.36179605
000310 a6 75 50 be e2 f5 24 3e dd 0f 5b bc 4b 1d 15 3e
       -0.2035738 0.16109422 -0.013370481 0.14561956
000320 5c 1e 45 bf 3b 89 60 3e ab 19 94 be 62 63 18 3e
       -0.7699945 0.2192735 -0.28925833 0.14881662
000330 23 53 10 bf 30 c3 8a 3e 4b 74 87 be 04 4c 87 be
       -0.56376857 0.2710204 -0.26455912 -0.26425183
000340 9f a1 47 bf 71 00 1c bd 1b 63 c4 be 51 06 ee 3d
       -0.7798099 -0.03808636 -0.3835686 0.116222985
000350 93 7c 9f bd bc e3 c9 be 3d 05 08 3d 6b cd d4 bd
       -0.077874325 -0.3943156 0.03320812 -0.10390743
000360 7b c4 46 3e 87 78 05 3f 16 62 a5 3e 54 a1 23 3f
       0.19410889 0.52137035 0.32301396 0.6391804
000370 67 9e cc bd 75 16 32 bd 96 33 dc bb 0f 74 1b bf
       -0.0999115 -0.043478448 -0.0067200167 -0.60723966
000380 a9 04 17 3e d9 98 83 be 26 06 58 be c2 9e 19 3f
       0.14747871 -0.2570255 -0.21096095 0.6000787
000390 df df 9a bd 21 b3 05 3f 23 6a 57 3f db 5f 94 3e
       -0.07562231 0.52226454 0.84146327 0.28979382
0003a0 1e 7d be 3e ee 34 f2 be b4 4e 60 be 3d 3f cf 3d
       0.37204832 -0.47306007 -0.21905023 0.101194836
0003b0 1f 1c 23 3e b8 18 da 3c 71 94 14 c0 f9 5c 11 bf
       0.15928696 0.026623115 -2.3215601 -0.5678249
0003c0 1a ab fb bd 69 5d bf 3c d3 dc 38 3d db 8b 84 bc
       -0.122884944 0.023359971 0.04513247 -0.01617997
0003d0 38 a1 26 3f 8d 5e d2 bd a2 ad 55 bf 07 c7 ce be
       0.6508975 -0.102719404 -0.8346807 -0.4038622
0003e0 39 03 92 bd 9d 04 09 3d 9f 51 d9 3e c6 3f 89 bd
       -0.07129521 0.033451665 0.42445084 -0.06701617
0003f0 70 b3 b5 be 10 43 53 3e 4b 40 c5 3e 77 cd b3 3d
       -0.35488462 0.20631051 0.38525614 0.08779424

decoder.dec2.bias f4 [39]
000000 db ec 43 3d 2d fa c8 3c 1e bc 8f bc fc f5 ac 3c
       0.047833305 0.024533356 -0.017545756 0.021113388
000010 9d f6 76 bc 57 51 8f bc 6c e9 55 3b f6 dd ec bc
       -0.015073446 -0.01749484 0.003264035 -0.028914433
000020 a4 29 56 bb ab e5 04 3d ec cd 81 bd fd 0b 61 3d
       -0.0032678628 0.03244559 -0.063381046 0.054943074
000030 9a 15 f7 3c f6 c5 69 bd aa fd ab 3d b9 9b 15 3e
       0.030161668 -0.057073556 0.08397992 0.14610185
000040 5d 47 8a bc 18 1d 81 3d 6f e9 da bc f1 4a 30 3e
       -0.016879732 0.06304377 -0.026722638 0.17216088
000050 27 80 3d bd 51 9d f2 3c 27 b8 f5 bc f8 4a 02 bc
       -0.046264794 0.02961603 -0.029995037 -0.007952444
000060 6d 62 02 3d a2 a1 3f bd 75 ee 78 3c 24 91 33 bb
       0.031832147 -0.046785004 0.015193571 -0.0027399743
000070 97 7c d3 bb ef e1 82 bb 58 e4 55 bc b5 39 b1 3d
       -0.0064540613 -0.0039942185 -0.01305493 0.08653585
000080 d2 e1 0b 3c 52 c4 ca bc 03 47 9c bc 47 43 7b bd
       0.0085377265 -0.024751816 -0.01907683 -0.061343458
000090 3d 31 d7 bc 7f f6 8f 3c d7 8f c7 bc
       -0.026268596 0.017573593 -0.02436058

decoder.dec3.weight f4 [58, 39]
000000 97 23 b1 3c 79 d3 d9 bd 41 62 b1 3d 3a 91 fc be
       0.021623416 -0.10636038 0.086613186 -0.4932955
000010 ae b7 b9 3e b3 7e 0f 3e 93 8c 83 3e cd bf 41 3f
       0.3627295 0.14013176 0.25693187 0.7568329
000020 99 ca 2a be 83 46 40 bd 30 89 a8 3d a9 94 2e bc
       -0.16678847 -0.046942245 0.082292914 -0.0106555605
000030 72 bf ae 3e 33 a2 e7 bd 80 03 46 be 0e 3c c4 be
       0.34130436 -0.11310234 -0.19337273 -0.38327068
000040 01 dc 41 be e4 be 07 be c6 29 4e 3f 90 3e ac 3e
       -0.18931581 -0.13256413 0.8053249 0.3364148
000050 c3 ff 48 3e 2e d8 a2 3e 1d f2 47 3e 88 c7 bc be
       0.19628815 0.31805557 0.19525953 -0.3687098
000060 1d 2d 78 be fe 1c a8 3e ce a0 0f 40 6c f3 a3 be
       -0.2423596 0.3283462 2.2441897 -0.32021654
000070 0c d6 8e be ba 4d b0 3e f1 8f 3c 3b 63 67 52 bf
       -0.2789768 0.344343 0.002877232 -0.82189006
000080 be a9 73 3e 8a c5 59 be 13 1f 3b be 0b d2 03 be
       0.2379522 -0.21266761 -0.18273573 -0.12873094
000090 1e 88 fc 3d 12 fa ad 3e 84 ac 2e be 90 ed 40 be
       0.1233065 0.3397985 -0.17057997 -0.18840623
0000a0 30 8c a2 be 2b 29 90 3e c5 1f 1b bd a0 83 53 3e
       -0.3174758 0.2815641 -0.037872095 0.2065568
0000b0 73 6f ff 3e 33 4d db bc 6d b9 8b 3e 51 c7 78 bd
       0.49889717 -0.02677021 0.27289906 -0.060736958
0000c0 20 6c dd be 8d e9 5a 3c 08 78 b4 3e 3e ea 62 3e
       -0.43246555 0.013361347 0.35247827 0.22159669
0000d0 6f 8f bd be 51 bd 3a 3d e6 f6 f9 bd 93 e2 22 be
       -0.37023494 0.045590702 -0.12205295 -0.15906744
0000e0 79 ce e9 3d 34 01 92 3e 23 ac 45 3e bb 1c cf 3e
       0.11416335 0.28516543 0.19303946 0.40451607
0000f0 14 08 73 3e 56 10 2d be 8f 61 f3 3d 20 ae 18 be
       0.2373355 -0.16900763 0.11883842 -0.14910173
000100 cd 5f a6 3d cc dd 25 3e 9f 78 31 bd 30 08 5a be
       0.08123741 0.1619789 -0.043327924 -0.21292186
000110 ff 78 c8 bd 12 1d 59 bd a5 b3 4b be fd d6 52 3e
       -0.09788703 -0.05300624 -0.19892748 0.20589824
000120 82 bc 28 3d 46 4d 11 bd d3 f5 0e 3e b5 5c e5 3d
       0.0411954 -0.035474084 0.13960962 0.11199323
000130 2d 4e 90 be 84 98 79 3e d5 45 51 be 8b c9 8c bd
       -0.28184643 0.24374586 -0.20436795 -0.06874379
000140 7c c7 fc bc fd e6 ac be be c0 53 3e 3e 60 6a be
       -0.03085684 -0.3376998 0.20678994 -0.22888276
000150 9f eb 25 be 0a c4 7f 3c 1a 18 9a be cc bc ad be
       -0.16203164 0.015610704 -0.30096513 -0.33933103
000160 ee a0 3d 3e 88 15 4d be 6c 27 d2 3d 4f 99 cf bd
       0.18518421 -0.20027745 0.102614254 -0.10136663
000170 3e 1f a7 bd e9 a2 80 3d 26 4f 93 be fe ad a8 be
       -0.08160256 0.06281073 -0.28771323 -0.32945246
000180 89 b3 8f 3d 14 14 ad be 91 b2 98 be 7f e2 b8 3d
       0.070166655 -0.3380438 -0.29823735 0.09027576
000190 7a bc 93 be 7e 0f e2 3d 2c cd e7 be dd c8 84 be
       -0.28854734 0.11038111 -0.4527372 -0.25934497
0001a0 5b 46 92 3e d4 43 03 be e7 b5 c1 3e 18 85 bb 3d
       0.28569302 -0.12818843 0.37834093 0.09156245
0001b0 1e c0 30 3e ae cc 0b bd a4 b4 89 3e c0 97 05 be
       0.17260787 -0.034130745 0.2689563 -0.1304617
0001c0 22 04 b7 bd e5 4c 30 bd 00 86 97 3e 35 d0 40 bc
       -0.08936335 -0.043042082 0.2959442 -0.01176839
0001d0 a2 6f 84 be d1 5a f4 3b d6 83 57 bf b7 63 1b 3e
       -0.2586642 0.007457115 -0.8418554 0.15174757
0001e0 cf 2b 10 bd 92 f3 c0 3e db 01 eb bf 9b 7e 92 be
       -0.03519803 0.3768583 -1.8359941 -0.28612217
0001f0 eb 84 be 3d 8f 16 1c bd ae a9 01 3e 79 38 bd bd
       0.09302696 -0.03810745 0.12662384 -0.09239287
000200 cf 71 ad 3e e6 69 60 3d c5 9e 64 be 56 86 fe 3d
       0.33875892 0.054788493 -0.22326191 0.12427966
000210 61 25 81 be af 0a 10 3e 14 8b fc 3d d5 8a 31 bf
       -0.2522383 0.14066575 0.123312145 -0.69352466
000220 fb 80 ee 3e 41 20 6e be 31 61 bc 3c 74 d6 8a be
       0.4658278 -0.23254491 0.022995563 -0.2711674
000230 21 61 65 be eb 42 10 bd 9f ec b0 be 79 88 b2 be
       -0.22400333 -0.035220068 -0.34555528 -0.34869745
000240 54 24 12 3e 0e 39 b9 be ea 12 43 3c 39 f4 db 3d
       0.1427167 -0.36176342 0.011906365 0.10739941
000250 fe 1a c8 bf 77 aa ab 3e 55 ba 99 3e fd 69 d7 bc
       -1.5633237 0.33528492 0.30024973 -0.026295656
000260 74 d3 91 3e a2 7e 54 3e 4b e2 af 3d 2c a6 48 3e
       0.28481638 0.20751432 0.08588084 0.1959464
000270 a0 df b8 be db bf cc be 13 6f 33 be d8 d9 99 be
       -0.36108112 -0.39990124 -0.1752284 -0.30049014
000280 23 c0 87 3e 28 d0 27 c0 83 68 25 be 33 ad f5 3d
       0.26513776 -2.6220798 -0.1615315 0.11995926
000290 78 cd 65 3d 11 28 d4 3b 38 a7 2f 3e ca 0e 7d 3d
       0.056104153 0.006474503 0.17153633 0.061781682
0002a0 a3 09 b4 3e 1d ce 23 3e d8 dc b3 3e 2a 6b e2 3c
       0.35163602 0.15996595 0.35129428 0.02763899
0002b0 4f 8d b7 3e dd 33 95 be 92 92 86 bf 0a 83 d6 3e
       0.35849997 -0.2914113 -1.051348 0.4189685
0002c0 9a 67 a5 3d 4b 32 99 3d 88 de 04 3e be 90 81 3f
       0.08076401 0.07480296 0.12975514 1.0122297
0002d0 84 d3 b1 bd 7b ce 97 be 4a aa 02 bf 13 16 a6 bd
       -0.086829215 -0.2964972 -0.5104109 -0.08109679
0002e0 f3 34 10 3d 30 c8 70 3e 1d bf ab 3e ca 33 5b be
       0.035206746 0.23513865 0.33544245 -0.21406475
0002f0 78 e6 f9 bd 83 20 8b be b9 bd fc 3c 40 c2 25 be
       -0.122021616 -0.27173242 0.030852186 -0.16187382
000300 f0 15 29 be 97 5e a6 3e 25 2a 4b bd 6a 94 87 be
       -0.16512275 0.3249404 -0.04960074 -0.26480418
000310 79 4d 08 be aa 91 ab 3e 49 e0 a6 3e b2 7e 80 3e
       -0.13310803 0.3350957 0.3259299 0.2509666
000320 26 03 a4 3e 8a c1 7b bd 22 8d 26 bd 21 02 94 be
       0.32033652 -0.06146387 -0.04066194 -0.28907874
000330 6a 5c 1c 3d ab 5c 69 bd b7 58 c5 be c1 30 dd bc
       0.03817407 -0.05697314 -0.38544247 -0.027000787
000340 62 e8 81 be af 3a 5b 3e 04 4b e4 3d 25 53 b0 bc
       -0.25372607 0.21409105 0.111471206 -0.021524021
000350 f0 df d7 bd d7 cd 35 3f 5b 06 87 3e 98 53 9c 3e
       -0.105407596 0.7101721 0.26372036 0.30532527
000360 c9 76 9b bc 34 3d f2 bc 12 c4 09 3e 19 a6 68 3e
       -0.01897754 -0.0295702 0.13453701 0.22719611
000370 12 e2 cf 3b a4 6f 7e be 67 2d 73 be 09 21 aa be
       0.0063440884 -0.24847275 -0.23747788 -0.3322833
000380 88 c3 62 be 6c f3 91 bd 89 f9 e7 be c2 ed dc 3d
       -0.22144902 -0.07126507 -0.45307568 0.10787536
000390 5e 58 d0 3e ff 32 20 be b6 b8 d1 bd 2e e4 56 3e
       0.4069242 -0.15644453 -0.10240309 0.20985481
0003a0 72 38 ea 3e 84 35 6e be e7 3d 37 3e b7 b4 c1 3e
       0.4574619 -0.23262602 0.17894708 0.37833187
0003b0 c8 dd e9 be 19 9a 8d 3e e9 4c 8a be 88 1b ea bf
       -0.45677018 0.2765663 -0.27011803 -1.8289652
0003c0 eb 9c 39 be 99 81 ed be ce 5f 4a 3d 34 5e 87 3e
       -0.18126266 -0.46387938 0.049407773 0.2643906
0003d0 d5 6b 5e be 6b 88 47 be 3c 20 fd 3e 94 a7 94 bd
       -0.21720822 -0.19485633 0.49438655 -0.072585255
0003e0 7c 39 de 3d d4 18 0a 3e fa da 8a 3e 11 49 13 bd
       0.10850808 0.13486034 0.2712019 -0.035958353
0003f0 5b ee 0a 3d 56 46 c6 3e 2d 57 11 3d 27 7d 19 bd
       0.03391872 0.38725537 0.035483528 -0.03747287

decoder.dec3.bias f4 [58]
000000 bd da 4b bb c5 9b 11 bd b9 05 09 bd a3 f9 60 bd
       -0.003110572 -0.035548944 -0.033452723 -0.054925572
000010 86 ea ed 3d 60 a4 01 3d a9 26 b2 3d 23 fb 4d 3c
       0.116169974 0.0316509 0.0869878 0.012572083
000020 c7 b5 13 3d 29 cb 00 bc 60 75 5a 3c db b8 dc 3b
       0.03606203 -0.007860937 0.013333648 0.0067359037
000030 cb 01 89 bc 36 b7 35 3d e8 ff d3 3c 98 2d 58 3d
       -0.016724488 0.044364177 0.025878862 0.052777857
000040 9b f1 77 bc 7e 2b dc bb a1 a0 4b bd 6c 1e c3 bc
       -0.015133287 -0.006719052 -0.049713735 -0.023818217
000050 47 77 c5 bd c5 ab 9f 3c 84 28 89 3c da 90 8a bc
       -0.09641891 0.019491086 0.016742952 -0.016914774
000060 64 3e 5c 3d 23 c7 8f bc 7e cb b9 3d a5 b1 5a bd
       0.053770438 -0.01755101 0.09072016 -0.05339207
000070 17 55 09 bd 07 b7 3d 3d d1 6e 26 bd fd 21 8f bc
       -0.033528414 0.046317127 -0.040633027 -0.017472262
000080 73 fb a0 bc 67 2b 89 3c ff 34 af 3d 39 9f 3b bd
       -0.01965115 0.016744329 0.0855503 -0.045806143
000090 a3 5f a6 bb aa c9 3f 3d 00 00 00 00 8e 34 5b bc
       -0.0050773188 0.04682318 0.0 -0.013379229
0000a0 b5 f6 ce b8 ae 9f 92 3d 22 36 a5 bc 76 26 8a bb
       -9.868798e-05 0.07159363 -0.020167414 -0.0042160107
0000b0 a9 b1 85 3c 32 ae e2 bb 49 ab 36 3e 36 bf 3d 3b
       0.016320067 -0.0069177384 0.17838778 0.0028953082
0000c0 ed f6 48 3d 03 1c ce 3d b4 ea a6 bd e0 44 8f 3c
       0.04906361 0.100639366 -0.08150235 0.017488897
0000d0 ed 7e db 3d 74 b0 19 bc 0f 3d db 3c b1 84 13 3d
       0.107175685 -0.009380449 0.026762513 0.036015216
0000e0 0a da 1c bb 83 7c 6a bc
       -0.0023933672 -0.0143119125
