IDS_TA/initial_Models/CADE-m10.0-l0.01.pth (torch, 67994 bytes, 16 tensors)

encoder.enc1.weight f4 [58, 78]
-0.046645507 0.08702535 0.14917862 -0.019040797 -0.07166511 0.035455868 -0.12720124 0.17807512
-0.004458794 0.11814431 0.07336887 0.08760495 0.11660183 0.10095989 0.19820534 0.2168371
-0.13848136 0.18236138 0.09785772 0.14570817 0.12795013 -0.19373928 0.041742563 -0.03276132
0.16626355 0.002627946 -0.0617005 -0.13256434 -0.06241687 -0.09383756 -0.24129389 0.20971626
-0.036448855 0.057681963 0.21613866 0.27051458 -0.01445529 -0.04876985 -0.012748263 0.09009581
-0.1478257 0.22869267 -0.20478411 -0.12995252 0.12159796 -0.015627932 -0.024889652 0.029230414
0.16887455 0.007634113 0.11932443 0.08897131 -0.109826714 -0.016271582 -0.33255643 -0.074382566
0.21450666 -0.14877392 0.026646039 0.19221997 -0.14812501 -0.0150484005 -0.0039504333 -0.103648126
0.2043988 -0.14774339 -0.06342638 0.11576294 0.027503924 -0.02377763 0.12230471 0.030341247
0.03345534 -0.16129105 -0.10710619 0.06421363 -0.08940555 0.26479807 0.04178097 -0.12941614
-0.30744272 -0.20174697 0.007547861 -0.041754406 0.2865269 -0.2867115 -0.19674258 -0.19386952
0.07486122 -0.10662689 -0.24069525 0.094468765 0.038097102 -0.16532157 0.020176971 -0.29220992
-0.14944534 -0.1577097 0.27148414 -0.27577773 0.22711757 0.0016197559 -0.12810351 -0.2439774
-0.36785933 -0.5382514 -0.5668398 -0.02083276 0.20243566 0.11268922 0.11134039 0.06492636
-0.08590237 0.22506657 0.104392715 -0.2043908 -0.4057785 0.25044084 0.24835722 -0.14983355
0.26397848 0.19466665 0.0058002765 0.04915553 -0.43840528 0.11125293 -0.035099227 0.16045825
0.23669699 0.04773413 0.1964227 0.2482221 -0.10711364 -0.07213782 -0.1495897 0.009892828
0.032182414 -0.06690076 0.07453577 0.086359255 0.025889881 -0.16467644 -0.14653184 0.263254
-0.24636017 -0.07812283 0.584516 -0.09527815 -0.29376996 -0.64986336 0.12829797 -0.2521522
-0.096323945 -0.2737326 0.1800731 0.39969784 -0.19855925 0.1200232 0.28622264 -0.12359792
0.16098192 0.07567117 -0.18032798 0.12287217 -0.12403926 0.17987454 0.16505642 0.09518647
0.09194848 0.12427402 0.026389621 -0.09089005 -0.021848993 -0.32010174 -0.19873968 0.06925838
-0.3516607 -0.1814666 -0.20855953 0.11453502 -0.16411652 0.22109975 -0.14984985 -0.067829795
-0.056948002 0.093843885 0.18935338 0.14536594 0.05286561 -0.23342457 -0.095508546 0.20426264
0.18477169 -0.39931718 0.021070804 -0.13054633 -0.16667712 0.038315278 -0.046353433 -0.011127394
-0.03989011 0.17796867 0.3014768 -0.123758204 -0.19372365 -0.26648116 -0.11372253 -0.0077972137
0.025026897 0.1330108 -0.3031952 -0.27689508 0.41001728 0.053225234 0.085549824 -0.01579852
0.088640556 -0.08580863 -0.011670085 -0.09890424 -0.0058227433 0.12963071 0.18465348 -0.082115486
-0.18225384 0.15917142 -0.010027426 -0.0728702 0.035311185 -0.13365018 0.08447129 0.10737295
0.04989123 0.13098615 0.5002279 -0.060801316 0.13355021 -0.13936661 0.26022714 0.0063874
-0.25561693 -0.303195 0.12791939 0.00227099 -0.09987304 -0.21116737 0.14129876 -0.2787454
0.0487238 -0.0839639 0.13779487 0.28438872 0.0690112 0.068066366 0.1908245 -0.09313085
00000000: 5c0f 3fbd 593a b23d 48c2 183e 72fb 9bbc
00000010: 28c5 92bd 2c3a 113d 0b41 02be 5359 363e
00000020: 131b 92bb a5f5 f13d 6b42 963d 396a b33d
00000030: f1cc ee3d 0fc4 ce3d 57f6 4a3e 8b0a 5e3e
00000040: 0fce 0dbe f1bc 3a3e a169 c83d 8634 153e
00000050: 5c05 033e 9763 46be 40fa 2a3d bc30 06bd
00000060: fe40 2a3e 9e39 2c3b aab9 7cbd f2be 07be
00000070: d5a8 7fbd e82d c0bd bf15 77be dcbf 563e
00000080: 654b 15bd ec43 6c3d 7453 5d3e e380 8a3e
00000090: e1d5 6cbc e5c2 47bd 17de 50bc 2784 b83d
000000a0: 9f5f 17be 692e 6a3e edb2 51be 4612 05be
000000b0: 5a08 f93d 2606 80bc 62e5 cbbc 9f74 ef3c
000000c0: 73ed 2c3e 9527 fa3b 5e60 f43d 9736 b63d
000000d0: d4ec e0bd fb4b 85bc d644 aabe e355 98bd
000000e0: a2a7 5b3e 3158 18be cb48 da3c 50d5 443e
000000f0: 15ae 17be 918d 76bc a372 81bb 7845 d4bd
00000100: eb4d 513e 0b4a 17be b1e5 81bd 1f15 ed3d
00000110: e94f e13c 4ec9 c2bc e47a fa3d 358e f83c
00000120: 7708 093d 7b29 25be 7d5a dbbd 7082 833d
00000130: 421a b7bd 9d93 873e 8622 2b3d aa85 04be
00000140: 2269 9dbe c296 4ebe 0c54 f73b ab06 2bbd
00000150: a7b3 923e dacb 92be e376 49be bb85 46be
00000160: d750 993d 335f dabd d178 76be d778 c13d
00000170: b50b 1c3d 0f4a 29be 2d4a a53c 8a9c 95be
00000180: 3308 19be a77e 21be f8ff 8a3e bd32 8dbe
00000190: 8291 683e fd4d d43a 912d 03be 36d5 79be
000001a0: 0f58 bcbe d8ca 09bf 6a1c 11bf 77a9 aabc
000001b0: 4b4b 4f3e 9bc9 e63d 6e06 e43d 1df8 843d
000001c0: 95ed afbd da77 663e d9cb d53d d24b 51be
000001d0: 33c2 cfbe c839 803e 5b51 7e3e f76d 19be
000001e0: 3028 873e b256 473e 3f10 be3b 4f57 493d
000001f0: a876 e0be 93d8 e33d 35c4 0fbd 2b4f 243e
00000200: b260 723e dd84 433d 0823 493e ef2d 7e3e
00000210: 655e dbbd febc 93bd 0b2e 19be 8715 223c
00000220: b5d1 033d 4403 89bd 36a6 983d 1fdd b03d
00000230: 0417 d43c f1a0 28be 710c 16be 3ac9 863e
00000240: d745 7cbe ddfe 9fbd d7a2 153f 3121 c3bd
00000250: 0469 96be 725d 26bf 8b60 033e 181a 81be
00000260: 7d45 c5bd ae26 8cbe 1565 383e 32a5 cc3e
00000270: 1e53 4bbe b9ce f53d c68b 923e e820 fdbd
00000280: 72d8 243e 7df9 9a3d e6a7 38be 67a4 fb3d
00000290: 4c08 febd 0831 383e 8d04 293e 20f1 c23d
000002a0: 7c4f bc3d 6183 fe3d 0c2f d83c 9024 babd
000002b0: a9fc b2bc 60e4 a3be 6a82 4bbe 56d7 8d3d
000002c0: df0c b4be 61d2 39be a190 55be 5691 ea3d
000002d0: 290e 28be f967 623e 3d72 19be 59ea 8abd
000002e0: 4f42 69bd 3931 c03d dae5 413e cfda 143e
000002f0: 9c89 583d da06 6fbe fc99 c3bd 3a2a 513e
00000300: ca34 3d3e 4d73 ccbe ae9c ac3c f0ad 05be
00000310: 68ad 2abe 7bf0 1c3d 19dd 3dbd ac4f 36bc
00000320: d063 23bd 6b3d 363e 2b5b 9a3e f174 fdbd
00000330: 7e5f 46be 3870 88be 5ce7 e8bd c57f ffbb
00000340: 3505 cd3c fc33 083e 673c 9bbe 31c5 8dbe
00000350: c9ed d13e b402 5a3d bf34 af3d e66b 81bc
00000360: 2e89 b53d 6fbc afbd e233 3fbc 4e8e cabd
00000370: b6cc bebb eabd 043e cd15 3d3e 2a2c a8bd
00000380: c0a0 3abe d5fd 223e 134a 24bc f93c 95bd
00000390: 76a2 103d 98db 08be 49ff ac3d 59e6 db3d
000003a0: bf5a 4c3d 3c21 063e f00e 003f cd0a 79bd
000003b0: 63c1 083e 1fb6 0ebe 7e3c 853e 654d d13b
000003c0: 39e0 82be 603c 9bbe 4dfd 023e e4d4 143b
000003d0: 3d8a ccbd 423c 58be 9fb0 103e b8b7 8ebe
000003e0: 9b92 473d 44f5 abbd 191a 0d3e 669b 913e
000003f0: be55 8d3d 6166 8b3d 7f67 433e 63bb bebd

encoder.enc1.bias f4 [58]
-0.030788794 0.082197465 -0.00982383 0.013725124 0.08330486 0.12638652 -0.041838773 0.028065538
0.0023676164 0.07929137 -0.046860103 -0.039684907 -0.014223154 -0.037939247 0.0119635435 -0.041502252
-0.019724384 -0.04333558 0.04492817 0.04577448 0.115311675 -0.07979349 0.08190362 0.06985205
0.1572153 0.01578821 -0.08498104 0.069626756 0.042855192 0.0086281905 -0.019874545 -0.0049430407
0.063145466 0.04221359 -0.07044195 0.06777257 0.076059334 0.15956035 0.011244735 0.031462334
0.02070618 -0.0043435097 0.13800666 0.12837413 0.08385319 -0.039736386 0.18771496 0.06559863
0.0210661 0.09125195 0.1357055 -0.022068424 0.038697686 0.033772837 -0.046677187 0.14652084
0.0023103515 0.011321003
00000000: c838 fcbc 2557 a83d 21f4 20bc 58df 603c
00000010: bd9b aa3d 786b 013e 225f 2bbd b3e9 e53c
00000020: 032a 1b3b 8463 a23d 61f0 3fbd a48c 22bd
00000030: 3b08 69bc 2f66 1bbd bd02 443c 44fe 29bd
00000040: 0895 a1bc a680 31bd 9a06 383d 057e 3b3d
00000050: 8728 ec3d c56a a3bd 16bd a73d 970e 8f3d
00000060: 0cfd 203e 4756 813c 8a0a aebd 7998 8e3d
00000070: ed88 2f3d 415d 0d3c f1cf a2bc 3bf9 a1bb
00000080: 6952 813d 28e8 2c3d de43 90bd 58cc 8a3d
00000090: ffc4 9b3d ca63 233e d63b 383c a6de 003d
000000a0: 02a0 a93c 0054 8ebb 9e51 0d3e 8274 033e
000000b0: 39bb ab3d 9fc2 22bd 5a38 403e 9358 863d
000000c0: d092 ac3c 4de2 ba3d 62f6 0a3e d7c8 b4bc
000000d0: 7781 1e3d 6355 0a3d 9430 3fbd 8f09 163e
000000e0: 4469 173b ba7b 393c

encoder.enc2.weight f4 [39, 58]
0.11100864 0.12511861 0.20612715 -0.08718234 -0.08790865 0.43781474 0.13083912 -0.2698582
-0.18588042 0.34695724 0.088778764 -1.2900916 -0.9897279 -1.4483348 0.031121725 -2.0492194
0.1959351 -0.6492584 -0.28249294 -0.20424032 -0.8815125 -0.82448536 -0.13566408 -0.5131292
-0.44700843 0.27734 -2.501699 -0.15203522 -0.58814013 -0.36516026 -0.8191025 -0.22636217
0.09429172 -0.8347896 -0.87778354 0.00772713 -0.6115733 0.29574686 0.24868165 -0.3740035
0.2802458 0.02817894 -0.4356656 0.24079202 -0.027843716 -0.25132972 0.1799196 -0.051335055
0.014206297 0.29074553 -0.3860786 -0.41113523 -0.3187543 -0.61127615 0.035191502 -0.39122263
-0.038723342 -0.051785048 -0.24294044 0.089663155 -0.24975368 -0.2744124 0.068547405 0.089445755
-0.3202755 0.051011544 0.10042822 -0.16787522 -0.07479557 0.24325638 -0.09265542 -0.051432077
0.14012714 0.123289496 0.031386506 0.05016254 0.05754468 -0.5409077 0.17007485 0.07227661
-0.2287249 -0.1552153 0.31294692 -0.09796671 -0.1467763 0.089944206 0.13266984 0.076768026
0.4728108 -0.10619357 -1.1058455 0.04303282 0.20215592 0.0040271496 -0.17159808 -0.13057359
-0.080168426 -0.039967604 -0.14850615 -0.25759733 -0.29985026 -0.21599813 -0.023203243 0.08319228
-0.19846837 0.09055077 -0.25831896 -0.10944482 0.11874338 -0.4752494 -0.1787891 0.07389781
-0.42037648 -0.025480345 0.17889148 -0.0411965 -0.024455773 0.51483387 -0.21492891 0.60212535
0.03424202 0.38799426 0.03584529 -0.68185437 0.1582435 -0.18470412 0.20368615 -0.04161303
-0.39174128 -0.608376 -0.15032625 -1.8421599 0.3645092 0.19943503 0.11885803 0.30626196
-0.9123501 -0.5508274 0.05852145 -0.32829925 -0.5400677 0.41339186 -0.32713205 1.3116307
0.010245007 -0.66653484 -0.3512336 0.01850455 0.09629156 -0.39579362 -0.23477697 0.15941784
-0.2837435 -0.047904514 -0.13221897 -0.058632318 0.19948621 0.23298809 -0.22947034 0.5470867
0.62449706 -0.27965826 1.044164 0.15096723 0.16738863 -0.12683532 -0.16538176 -0.22798514
0.0680522 -0.49082205 -0.040766302 -0.37832084 0.29993087 0.13623591 0.14730908 -0.039387178
-0.2595908 -0.12969056 -0.38140592 -0.11415278 -0.3433232 0.23255426 0.12840484 -0.07018312
0.2468454 0.20326203 0.1716635 0.4160236 0.17916237 1.5456223 -0.14204596 0.16159114
-0.027763942 -0.10038067 -0.006564611 0.3295673 0.09070037 0.18310007 0.5892806 -0.13618521
0.90161633 0.23686591 0.117944054 -0.19783221 0.24507506 -0.14774214 0.032594025 0.39834628
0.5018136 0.060871042 0.80381864 -0.3017471 0.1416448 0.5725668 -0.03822774 -0.066105604
-0.53203523 0.061141036 -0.37429225 0.26348478 0.022954345 0.22259584 0.16009177 -0.2089711
0.371084 0.475263 0.19207205 -0.07665956 0.14881608 0.39498642 -0.028331112 0.14710422
-0.20399627 -0.25275862 0.057409782 -0.036417186 -0.16538632 0.26575357 0.14000154 0.18655944
0.055165578 0.20901246 -0.27506822 -0.12857862 0.24293469 0.18917711 -0.32898965 -0.20549174
-0.23878644 -0.12757483 0.26528066 -0.23561898 0.24374856 -0.20685628 0.01801289 0.18011655
00000000: 7f58 e33d 181f 003e ff12 533e a88c b2bd
00000010: 7309 b4bd 4129 e03e b1fa 053e db2a 8abe
00000020: 7057 3ebe 61a4 b13e a4d1 b53d b921 a5bf
00000030: cf5e 7dbf 0963 b9bf fdf2 fe3c 6926 03c0
00000040: 36a3 483e cc35 26bf eaa2 90be 6024 51be
00000050: ceaa 61bf 7911 53bf 86eb 0abe 6f5c 03bf
00000060: 4ade e4be 82ff 8d3e d61b 20c0 1faf 1bbe
00000070: 5a90 16bf 49f6 babe b4b0 51bf 7ccb 67be
00000080: 041c c13d c5b4 55bf 6cb6 60bf dd33 fd3b
00000090: 1190 1cbf 226c 973e 67a6 7e3e 637d bfbe
000000a0: 617c 8f3e 85d7 e63c 900f dfbe 2f92 763e
000000b0: 8118 e4bc 4aae 80be d83c 383e b544 52bd
000000c0: 87c1 683c 99dc 943e 18ac c5be 5180 d2be
000000d0: c333 a3be 987c 1cbf f724 103d 554e c8be
000000e0: 5e9c 1ebd 8f1c 54bd 61c5 78be 51a1 b73d
000000f0: 6ebf 7fbe c87f 8cbe 9562 8c3d 562f b73d
00000100: 26fb a3be 7bf1 503d 50ad cd3d 7be7 2bbe
00000110: 6b2e 99bd 3318 793e 20c2 bdbd 71aa 52bd
00000120: 7d7d 0f3e 347f fc3d 238f 003d 3c77 4d3d
00000130: f8b3 6b3d ed78 0abf 1a28 2e3e c205 943d
00000140: dc36 6abe c2f0 1ebe 943a a03e c5a2 c8bd
00000150: 874c 16be ab34 b83d 9ada 073e 8e38 9d3d
00000160: 4214 f23e 047c d9bd 588c 8dbf 2f43 303d
00000170: f601 4f3e 2ef6 833b 68b7 2fbe 15b5 05be
00000180: 582f a4bd 12b5 23bd ff11 18be cce3 83be
00000190: f985 99be 9d2e 5dbe ba14 bebc b760 aa3d
000001a0: 4b3b 4bbe af72 b93d 6242 84be 9b24 e0bd
000001b0: bb2f f33d e453 f3be 7d14 37be bc57 973d
000001c0: 963b d7be 28bc d0bc 542f 373e a9bd 28bd
000001d0: 7957 c8bc 27cc 033f 5316 5cbe e324 1a3f
000001e0: 5c41 0c3d 2fa7 c63e 83d2 123d 028e 2ebf
000001f0: 960a 223e 1423 3dbe 1a93 503e 6d72 2abd
00000200: 5092 c8be 88be 1bbf 20ef 19be e5cb ebbf
00000210: f3a0 ba3e b238 4c3e d76b f33d 5ece 9c3e
00000220: c78f 69bf 0603 0dbf 30b4 6f3d d716 a8be
00000230: e041 0abf 19a8 d33e da7d a7be 84e3 a73f
00000240: adda 273c 07a2 2abf e4d4 b3be db96 973c
00000250: 8234 c53d 76a5 cabe 6069 70be 6e3e 233e
00000260: d446 91be 8637 44bd 6964 07be 7128 70bd
00000270: 1d46 4c3e 6e94 6e3e 46fa 6abe e00d 0c3f
00000280: 0adf 1f3f 5e2f 8fbe 2aa7 853f 2797 1a3e
00000290: ed67 2b3e 1ee1 01be d659 29be f074 69be
000002a0: f45e 8b3d 074d fbbe 91fa 26bd 45b3 c1be
000002b0: 8a90 993e 6d81 0b3e 31d8 163e 7354 21bd
000002c0: 16e9 84be 9acd 04be a347 c3be efc8 e9bd
000002d0: 0fc8 afbe b422 6e3e 8f7c 033e 2bbc 8fbd
000002e0: 0ac5 7c3e ec23 503e 8ec8 2f3e 0c01 d53e
000002f0: 5776 373e f4d6 c53f 7f74 11be 2678 253e
00000300: 3571 e3bc 6194 cdbd f31b d7bb 0cbd a83e
00000310: 1ec1 b93d 967e 3b3e 18db 163f 2374 0bbe
00000320: 54d0 663f fa8c 723e a78c f13d 8794 4abe
00000330: f5f4 7a3e b749 17be 5081 053d 0bf4 cb3e
00000340: db76 003f ea53 793d 0fc7 4d3f 997e 9abe
00000350: 560b 113e bd93 123f b194 1cbd 6062 87bd
00000360: 7633 08bf 066f 7a3d 3ca3 bfbe 7ae7 863e
00000370: c00a bc3c 2af0 633e 19ef 233e 85fc 55be
00000380: b9fe bd3e ac55 f33e 89ae 443e b0ff 9cbd
00000390: 3e63 183e a93b ca3e a616 e8bc 7da2 163e
000003a0: 66e4 50be 9469 81be 8526 6b3d 302a 15bd
000003b0: 085b 29be da10 883e 905c 0f3e 7009 3f3e
000003c0: 4df5 613d 5d07 563e bed5 8cbe 1daa 03be
000003d0: dfc3 783e a5b7 413e 5571 a8be 6d6c 52be
000003e0: 6f84 74be faa2 02be ded2 873e 1a46 71be
000003f0: 3999 793e 22d2 53be c58f 933c 7970 383e

encoder.enc2.bias f4 [39]
0.037921906 0.20814149 0.039316803 0.0150162745 -0.036180444 0.10404033 0.0295256 0.068779126
0.0018332201 0.00333811 0.065820925 -0.031835306 0.020564701 0.033591423 0.03584026 0.046493083
0.019882964 0.15150805 0.058736302 0.004166035 0.006914984 0.009887102 0.0034155555 0.075504094
-0.025342157 -0.07730878 -0.037122946 0.024875239 0.0062142275 0.026202928 0.097153954 0.073814645
-0.019534277 0.05448377 0.01714718 -0.013617955 0.10785835 0.019150825 0.06711475
00000000: 0054 1b3d 0b23 553e a80a 213d d206 763c
00000010: f231 14bd 1913 d53d acdf f13c 12dc 8c3d
00000020: a948 f03a 31c4 5a3b 1fcd 863d bd65 02bd
00000030: 4e77 a83c 2997 093d 3dcd 123d 886f 3e3d
00000040: 99e1 a23c ed24 1b3e 7a95 703d 3c83 883b
00000050: 1797 e23b 83fd 213c 83d7 5f3b e4a1 9a3d
00000060: 5b9a cfbc 1154 9ebd 3b0e 18bd 28c7 cb3c
00000070: b8a0 cb3b 86a7 d63c a7f8 c63d 222c 973d
00000080: 5906 a0bc 602a 5f3d 3e78 8c3c d81d 5fbc
00000090: d7e4 dc3d 31e2 9c3c 7573 893d

encoder.enc3.weight f4 [19, 39]
0.40169096 -0.09166082 0.2083977 -0.66452426 0.3233636 0.5179298 -0.058236413 0.23063332
-0.41156492 -0.06192153 0.53901297 -0.010745531 -0.86450297 0.53943175 -0.20898034 0.2667008
0.41552302 -1.3173225 -1.2581657 -1.4903282 0.19959044 -1.0496701 0.07916531 -1.3790396
-0.65654165 0.14755674 0.09611342 0.11489613 0.22653688 -0.6556624 0.67128474 0.5085495
0.16668577 0.21901125 0.077121235 0.23961069 0.3600122 0.40231076 0.50367194 0.1729804
0.08194276 0.33919874 -0.06110513 -0.04297494 0.20744361 0.015080516 0.079071894 -0.35910174
-0.07504991 0.43942997 -0.16591926 -0.0026386546 0.08706003 0.36395717 0.060896043 -0.019064812
-0.17264599 -0.061921787 0.26936886 0.21781152 0.031800393 -0.10485838 0.4580574 -0.2603397
0.037930552 -0.123335406 -0.015270407 0.046818044 0.20509256 0.45244545 0.042822476 -0.27570817
0.16407874 0.204983 0.08093059 -0.0680389 0.05657085 0.22560677 -0.18425861 0.33220696
0.30669016 -0.010124799 0.13749745 0.12934771 0.23541541 0.048707385 -0.033141546 -0.28129444
0.16481954 0.20272923 -0.27573103 0.16992806 -0.22708963 0.3366507 -0.085480206 0.50923604
-0.21905963 -0.31203687 0.3075033 0.078382194 0.03093673 0.32047933 -0.04103965 0.08968259
-0.2606938 -0.13370854 0.04686019 -0.30823454 0.055287283 0.14262386 0.12441994 0.48509267
0.26090157 -0.4779985 -0.20110045 -0.23645942 -0.13036256 0.6586484 0.0735543 0.3149698
-0.4757464 -0.20819688 0.3038242 0.25823975 0.058458477 0.30170724 0.13754727 0.37354138
-0.3270242 0.33447614 -0.3004559 -0.013545984 0.019174028 -0.059139434 0.06400204 -0.21324208
0.31586388 0.31469002 -0.41186294 0.25998178 0.46012303 0.012235588 0.2268625 0.034479607
-0.24973199 -0.13443793 -0.32298464 0.36134008 -0.034075316 -0.14650907 0.42037734 0.012506816
0.26334321 -0.02445754 -0.31398055 -0.05999669 0.25261465 0.28369662 0.49362403 -0.7945283
-0.16468902 0.6058984 -0.012493428 0.30960304 0.11292738 -0.28993568 0.16226836 0.27395236
-0.625463 -0.14388958 0.20898668 0.5688858 0.24784149 -1.4761343 -1.430846 -1.3343132
0.13720794 -1.2520235 0.35334456 -1.9773017 -0.72878796 0.2972456 0.12723248 0.41953748
0.025168309 -0.52094716 0.20745066 0.5938715 -0.08178343 0.5865875 0.38604298 -0.334204
0.25932202 -0.62139636 0.2963931 -0.26494932 -0.057633765 -0.09941888 -0.0851656 -0.23109938
-0.2627826 -0.31080422 0.07687638 0.17884153 0.041624747 -0.8008466 0.23091595 0.3165324
-0.19692281 -0.26740748 -0.0033155105 0.027081044 -0.21510915 0.12899451 0.022298213 0.02308328
0.0003885002 -0.080703884 -0.4687389 0.28177828 -0.15282139 0.11323097 0.119966626 -0.17585671
0.09229909 -0.6866616 0.15122452 -0.027923428 -0.6576212 -0.031243538 -0.19345975 0.014782781
0.24953267 0.08763041 -0.28953645 0.036404416 -0.035528887 0.016253663 0.31952977 -0.016515221
-0.034875188 0.082825415 0.043484755 -0.028822688 -0.06311675 0.2745704 0.20923126 -0.073460124
-0.11387598 0.26346603 0.07630101 0.13344732 -0.10256275 0.017023144 0.013002196 0.10560196
00000000: 70aa cd3e abb8 bbbd 3566 553e 431e 2abf
00000010: ea8f a53e 0c97 043f 4e89 6ebd 242b 6c3e
00000020: a3b8 d2be 6ea1 7dbd c1fc 093f 060e 30bc
00000030: 1150 5dbf 3318 0a3f f1fe 55be 028d 883e
00000040: 6fbf d43e 069e a8bf 930b a1bf 13c3 bebf
00000050: 7061 4c3e 975b 86bf 6c21 a23d 5f84 b0bf
00000060: 1d13 28bf 1d19 173e 1dd7 c43d aa4e eb3d
00000070: 49f9 673e 7ed9 27bf 51d9 2b3f 4d30 023f
00000080: adaf 2a3e 7c44 603e bdf1 9d3d 815c 753e
00000090: 8553 b83e adfb cd3e a5f0 003f c621 313e
000000a0: 9bd1 a73d 75ab ad3e 5f49 7abd 7e06 30bd
000000b0: 196c 543e 4514 773c 72f0 a13d 2fdc b7be
000000c0: c4b3 99bd f7fc e03e bde6 29be 47ed 2cbb
000000d0: 874c b23d 9858 ba3e 216e 793d cf2d 9cbc
000000e0: 1cca 30be b3a1 7dbd b7ea 893e fc09 5f3e
000000f0: 2141 023d febf d6bd 8086 ea3e 3f4b 85be
00000100: 115d 1b3d 4697 fcbd bb30 7abc 47c4 3f3d
00000110: c903 523e eea6 e73e 9f66 2f3d 9f29 8dbe
00000120: 4204 283e 10e7 513e f0be a53d fb57 8bbd
00000130: d6b6 673d 7605 673e 4aae 3cbe 0817 aa3e
00000140: 7e06 9d3e 7ce2 25bc 22cc 0c3e ba73 043e
00000150: bd10 713e 6581 473d 6ebf 07bd d305 90be
00000160: 74c6 283e 4098 4f3e 9e2c 8dbe 9f01 2e3e
00000170: 2f8a 68be 7b5d ac3e 3f10 afbd 4b5d 023f
00000180: 2b51 60be 4cc3 9fbe 1371 9d3e d886 a03d
00000190: 066f fd3c de15 a43e 3119 28bd 81ab b73d
000001a0: a879 85be e4ea 08be 78f0 3f3d ebd0 9dbe
000001b0: eb74 623d fd0b 123e e2cf fe3d 115e f83e
000001c0: e494 853e 38bc f4be 47ed 4dbe 6b22 72be
000001d0: c37d 05be 2e9d 283f a3a3 963d b943 a13e
000001e0: 0895 f3be 9031 55be d88e 9b3e 0038 843e
000001f0: 2872 6f3d 5f79 9a3e 31d9 0c3e d140 bf3e
00000200: b76f a7be 7540 ab3e 5bd5 99be faef 5dbc
00000210: da12 9d3c 313c 72bd 8013 833d 225c 5abe
00000220: e9b8 a13e 0d1f a13e b3df d2be 551c 853e
00000230: 3f95 eb3e c777 483c a54e 683e 7d3a 0d3d
00000240: beb9 7fbe 19aa 09be 3e5e a5be 9101 b93e
00000250: 8f92 0bbd 7906 16be b33b d73e 63e9 4c3c
00000260: ecd4 863e 2e5b c8bc 0fc2 a0be 17bf 75bd
00000270: b556 813e af40 913e 4abc fc3e 3566 4bbf
00000280: 3da4 28be 281c 1b3f 3cb1 4cbc 4a84 9e3e
00000290: 7846 e73d 7372 94be ad29 263e 7c43 8c3e
000002a0: 581e 20bf ca57 13be 9b00 563e 80a2 113f
000002b0: 29ca 7d3e f8f1 bcbf f625 b7bf c6ca aabf
000002c0: 3d80 0c3e 4e42 a0bf 94e9 b43e 3918 fdbf
000002d0: d991 3abf 9330 983e 3b49 023e 9ecd d63e
000002e0: c52d ce3c cb5c 05bf f26d 543e f607 183f
000002f0: 127e a7bd 992a 163f 6da7 c53e c91c abbe
00000300: dbc5 843e d513 1fbf d6c0 973e 70a7 87be
00000310: 6211 6cbd 209c cbbd 4d6b aebd 51a5 6cbe
00000320: 718b 86be bb21 9fbe 5d71 9d3d 3c22 373e
00000330: b67e 2a3d 4804 4dbf 3b75 6c3e 8910 a23e
00000340: 22a6 49be a2e9 88be 0949 59bb 11d9 dd3c
00000350: 9345 5cbe 2317 043e beaa b63c 2619 bd3c
00000360: 9daf cb39 1448 a5bd 8cfe efbe 3e45 903e
00000370: 367d 1cbe a4e5 e73d 10b1 f53d c813 34be
00000380: 4e07 bd3d 0ec9 2fbf 9ada 1a3e acbf e4bc
00000390: dd59 28bf 73f2 ffbc 501a 46be 7a33 723c
000003a0: 7e85 7f3e 9377 b33d 1f3e 94be cc1c 153d
000003b0: bd86 11bd 6726 853c 6899 a33e ee4a 87bc
000003c0: 49d9 0ebd 5fa0 a93d 121d 323d 8f1d ecbc
000003d0: 5b43 81bd 7e94 8c3e b840 563e 4372 96bd
000003e0: cf37 e9bd 05e5 863e b443 9c3d 6aa6 083e
000003f0: 6b0c d2bd 1f74 8b3c 2a07 553c d745 d83d

encoder.enc3.bias f4 [19]
0.017828718 0.018174121 -0.011575614 -0.021673756 0.011695304 0.18254681 0.008063325 0.00053283956
-0.013910825 -0.022767937 -0.012535035 0.045737576 -0.016351601 0.04834281 -0.015914923 0.0806104
0.007213334 -0.029940898 0.0152354315
00000000: 880d 923c e5e1 943c a5a7 3dbc 298d b1bc
00000010: a99d 3f3c 8ded 3a3e 091c 043c 42ae 0b3a
00000020: 3bea 63bc d383 babc bf5f 4dbc 5357 3b3d
00000030: cbf3 85bc 1c03 463d 0360 82bc 1117 a53d
00000040: d55d ec3b 9d46 f5bc 089e 793c

encoder.enc4.weight f4 [7, 19]
0.3576095 0.3739248 0.42549098 0.68318284 0.60895425 0.48405266 -0.41827828 0.28289562
-0.615455 0.4756945 -0.017366353 0.59994465 -0.044453885 0.7667474 -0.51846546 -0.057039015
-0.04065785 0.19067548 0.26842827 0.11864216 0.40184292 0.17686966 -0.26841187 0.37144774
0.31300977 -0.16860071 0.37525502 -0.20957404 -0.17715243 0.2048556 0.4856994 -0.40216702
-0.4757899 -0.5045596 -0.031552553 -0.28476757 0.120283075 -0.25423878 0.4588558 0.019434826
0.1993667 -0.011725946 0.36112782 0.1769297 -0.29162884 -0.15015423 -0.18095475 -0.06335317
-0.22546086 -0.35381314 -0.07807487 0.31468722 -0.30138552 -0.013728721 0.022975562 0.10713367
-0.14912128 0.7758021 0.2762148 0.16908896 -0.016781885 0.5575775 0.2756173 0.08810287
0.5388535 -0.45162117 0.08941902 -0.39179656 0.5306431 -0.51593643 0.2974252 -0.120217204
0.034312304 0.054112192 -0.11472546 0.6684643 0.6244211 -0.034302805 -0.024632385 0.39438307
0.5478654 -0.03348211 -0.16785738 -0.268059 0.04002631 0.16031395 0.1703086 0.21571314
-0.22245178 0.29725307 0.37588298 -0.00196602 0.020182202 -0.0004956693 0.61060226 -0.03496831
0.24809778 0.052484814 -0.26909572 0.17749359 0.15526193 0.087188885 -0.5368396 0.19153441
-0.39092177 -0.49784604 -0.6493105 0.4450765 -0.34090853 -0.41575193 0.0030976082 -0.4142338
-0.15105115 -0.26672506 -0.058842555 0.25839218 0.17707306 -0.49027595 -0.7132409 0.20380317
-0.1692604 -0.37642315 0.037385732 -0.18158564 0.31913447 -0.34036785 -0.12415177 -0.59914666
-0.53829896 -0.008874406 -0.37180433 0.018430024 -0.46507862
00000000: 9818 b73e 1273 bf3e f4d9 d93e 12e5 2e3f
00000010: 6de4 1b3f c0d5 f73e 9228 d6be b2d7 903e
00000020: 758e 1dbf 3b8e f33e e243 8ebc f995 193f
00000030: 4715 36bd 8f49 443f 27ba 04bf bea1 69bd
00000040: d988 26bd 6f40 433e 6e6f 893e a9fa f23d
00000050: 5bbe cd3e 521d 353e 486d 89be 662e be3e
00000060: d142 a03e aaa5 2cbe 6d21 c03e 949a 56be
00000070: 7267 35be abc5 513e 97ad f83e d6e8 cdbe
00000080: bc9a f3be d12a 01bf 403d 01bd 0ecd 91be
00000090: f956 f63d 962b 82be 26ef ea3e c935 9f3c
000000a0: c926 4c3e 2f1e 40bc bfe5 b83e 0f2d 353e
000000b0: 6050 95be 08c2 19be 344c 39be 4fbf 81bd
000000c0: 36df 66be ff26 b5be b8e5 9fbd af1e a13e
000000d0: 344f 9abe 6eee 60bc 3f37 bc3c e668 db3d
000000e0: 40b3 18be f79a 463f 076c 8d3e a825 2d3e
000000f0: 2a7a 89bc 66bd 0e3f b61d 8d3e 476f b43d
00000100: 4ef2 093f e43a e7be 5221 b73d 8f99 c8be
00000110: 3ad8 073f 6914 04bf 1e48 983e 7034 f6bd
00000120: 0f8b 0c3d bfa4 5d3d 2ff5 eabd 7a20 2b3f
00000130: 10da 1f3f 1981 0cbd dbc9 c9bc 94ec c93e
00000140: e840 0c3f 8924 09bd cee2 2bbe 073f 89be
00000150: a1f2 233d 5729 243e 6165 2e3e e8e3 5c3e
00000160: 66ca 63be 8e31 983e bc73 c03e 58d8 00bb
00000170: 2555 a53c ceef 01ba 6e50 1c3f ee3a 0fbd
00000180: 580d 7e3e 51fa 563d eac6 89be e1c0 353e
00000190: fcfc 1e3e 1690 b23d 526e 09bf 9921 443e
000001a0: e626 c8be ade5 febe 3739 26bf 11e1 e33e
000001b0: 908b aebe 70dd d4be 3e01 4b3b 7416 d4be
000001c0: 27ad 1abe 3090 88be e404 71bd fb4b 843e
000001d0: a452 353e 7305 fbbe f596 36bf c7b1 503e
000001e0: 9952 2dbe 89ba c0be c821 193d 96f1 39be
000001f0: 9865 a33e b244 aebe 4843 febd ad61 19bf
00000200: f6cd 09bf f565 11bc 235d bebe 90fa 963c
00000210: c91e eebe

encoder.enc4.bias f4 [7]
0.0109204175 -0.005989622 0.0016831647 0.015592817 0.020296587 -0.0055796774 -0.0036170585
00000000: 8deb 323c 9744 c4bb a39d dc3a 0479 7f3c
00000010: 0745 a63c bad5 b6bb 2c0c 6dbb

decoder.dec1.weight f4 [19, 7]
0.81720054 0.47732827 1.1171801 -0.8612402 -0.22693752 -0.6982852 0.9603611 0.5541668
0.7376273 -1.0878304 -0.9855193 0.74006164 0.11488009 -0.028836038 -0.6970582 -0.36832583
0.0900543 0.009442626 -0.22249436 0.40776187 -0.4737987 -0.80288047 -0.5899299 0.86818206
-0.22828683 -0.25386938 -0.31469098 -0.4563667 0.6307743 0.6034349 0.2704091 0.62713367
-0.9456182 -0.92199224 0.09301938 0.5870062 0.26903644 -0.51500773 -0.9165503 -0.4409163
-0.6922641 -0.7145173 0.92940116 -1.28635 1.1524314 0.15675947 -0.69666314 0.43765867
0.56891257 -0.7861569 0.5385897 0.80312014 0.012656063 0.60756737 0.54141635 -0.42903435
0.09810559 0.018074013 0.024908941 0.51909316 0.74581707 0.15108241 0.6112715 -0.049090493
-0.40676293 -0.59273463 0.5777873 -0.15900493 0.7939553 -0.75935316 -0.7368847 0.72833264
-0.40158918 0.31273222 -0.9534429 0.02429085 -0.08142836 -0.62739104 -0.19471167 1.45704
0.52167404 -0.7754536 0.66641206 0.08745613 -0.36702964 -0.5629337 1.0251639 0.83216
-1.1141075 -0.6475787 0.32636282 -0.5311005 0.16126212 0.6518089 -0.591861 -2.0010464
-0.40110365 1.0081832 -0.52648044 -0.09535754 0.3568979 0.08492836 0.5322738 -0.0791468
-0.72349554 0.81271 1.0573529 -0.5276847 0.11859938 -0.5912944 0.52700007 0.33866224
0.9496044 -0.21728054 -0.8954924 -0.5607214 -1.1187 0.23410976 -0.6432274 0.040543046
-0.07557783 -0.054875936 0.1219745 -0.2067214 -0.543132 0.11663729 0.37334907 0.6036626
-1.0091373 -0.85516113 -1.8307447 -0.89065754 0.08670356
00000000: 0e34 513f 5f64 f43e c2ff 8e3f 3d7a 5cbf
00000010: 4f62 68be d2c2 32bf 3ada 753f e0dd 0d3f
00000020: 25d5 3c3f 073e 8bbf fe4a 7cbf ae74 3d3f
00000030: 4146 eb3d 8e39 ecbc 6872 32bf 3495 bcbe
00000040: 646e b83d 3eb5 1a3c 90d5 63be 2ac6 d03e
00000050: be95 f2be 9389 4dbf a505 17bf 2e41 5e3f
00000060: 06c4 69be 2bfb 81be 2d1f a1be e5a8 e9be
00000070: 6d7a 213f b67a 1a3f 1073 8a3e d58b 203f
00000080: 0914 72bf af07 6cbf f280 be3d 0a46 163f
00000090: 25bf 893e 8cd7 03bf 0aa3 6abf c8bf e1be
000000a0: 3838 31bf 9bea 36bf 3ced 6d3f 1ea7 a4bf
000000b0: df82 933f 8e85 203e 8458 32bf cc14 e03e
000000c0: 41a4 113f 9441 49bf 04e1 093f 4899 4d3f
000000d0: 605b 4f3c 8989 1b3f 439a 0a3f 64aa dbbe
000000e0: 95eb c83d f40f 943c d60d cc3c 4ae3 043f
000000f0: deed 3e3f 59b5 1a3e 4a7c 1c3f 1d13 49bd
00000100: 3b43 d0be 75bd 17bf dee9 133f 30d2 22be
00000110: a840 4b3f f864 42bf 7aa4 3cbf 0274 3a3f
00000120: 199d cdbe 701e a03e d514 74bf 9bfd c63c
00000130: e9c3 a6bd b39c 20bf 7f62 47be 4980 ba3f
00000140: 6e8c 053f 2184 46bf fb99 2a3f 331c b33d
00000150: 4feb bbbe 6c1c 10bf 9238 833f 7008 553f
00000160: 139b 8ebf b8c7 25bf 0719 a73e 34f6 07bf
00000170: e621 253e f3dc 263f 3484 17bf 2511 00c0
00000180: 755d cdbe 260c 813f 6cc7 06bf d04a c3bd
00000190: 52bb b63e ecee ad3d 1943 083f b817 a2bd
000001a0: 0137 39bf c30d 503f 5757 873f 5816 07bf
000001b0: 3be4 f23d 125f 17bf 7ae9 063f 2365 ad3e
000001c0: 4619 733f ca7e 5ebe fd3e 65bf 708b 0fbf
000001d0: 9031 8fbf 78ba 6f3e 8daa 24bf 7710 263d
000001e0: 8dc8 9abd 97c5 60bd c4cd f93d c6ae 53be
000001f0: b30a 0bbf 88df ee3d 9c27 bf3e a289 1a3f
00000200: 692b 81bf d7eb 5abf d855 eabf 2202 64bf
00000210: a391 b13d

decoder.dec1.bias f4 [19]
-0.020143554 -0.010162257 -0.0016849522 -0.014545126 0.015638871 0.07324489 0.024070911 0.031870633
0.03749519 0.010290098 0.022829363 -0.01725258 0.005994521 0.07649385 0.0699615 -0.031450026
0.00012247768 0.006770595 0.0812309
00000000: 1804 a5bc 987f 26bc 9dd9 dcba ae4e 6ebc
00000010: 171d 803c 6b01 963d 5c30 c53c c88a 023d
00000020: 8e94 193d cd97 283c a504 bb3c 4855 8dbc
00000030: b06d c43b cfa8 9c3d fa47 8f3d bed1 00bd
00000040: 5a6d 0039 dedb dd3b 635c a63d

decoder.dec2.weight f4 [39, 19]
0.20366135 0.2109521 -0.40836498 -0.0748312 0.08511756 -0.6803553 0.76467615 -3.6520677
-0.47853664 0.23906624 0.453436 0.9466917 0.7120004 0.7335114 0.4685352 -0.2922255
-0.4644469 -1.0870028 0.12482109 -0.5707147 0.4912677 -0.49175975 0.2553941 0.07312967
-0.100187644 -0.28839928 -0.07478972 0.50392354 -0.003123799 -0.12070502 -0.44511312 -1.397237
-0.47186908 -0.013902582 -0.0020096938 0.35759667 -0.43301353 0.35263845 0.7230713 0.09593285
0.37212363 -0.5144863 0.4424429 0.59386617 -0.1338945 -0.7577147 -0.32092932 -1.2317332
0.063012786 0.23555066 0.5128552 -0.37865517 0.45490807 -0.4922918 0.59818405 0.20162183
0.014636162 -0.95424354 0.3892624 0.31510323 -0.1702485 -0.19646467 0.73237056 -0.77644783
0.5927874 0.12981352 -0.072264105 0.1871235 0.082901485 -1.2667032 -0.19917461 -0.024673421
0.79969865 0.7360022 0.4662663 0.3753067 0.22732635 0.40521982 0.5341301 -0.37988973
0.16502178 -0.54844296 -0.18417087 0.39896247 -0.532363 0.18700741 0.03493374 -0.3188666
-0.024700768 0.22956121 0.2260885 -0.47080827 -0.37382057 -0.2017785 -0.28458717 0.06860369
0.21851431 0.0032787062 0.058832232 -0.2685719 0.0991625 -0.52796584 -0.14143349 -0.5157218
0.21363798 0.08376988 0.1145974 -0.33073506 -0.37831602 0.20010453 -0.15330118 -0.5095904
0.55015063 0.11492549 0.27477354 0.23413014 0.55104804 -0.3507535 -0.39308804 -0.42737538
-0.4777991 -0.4979748 -0.19515552 -0.5111345 0.30806655 -0.51202524 -0.0035620504 -0.09881918
-0.2996951 -0.34541237 0.14497638 0.18812956 0.19902217 0.709749 0.855502 -0.3833983
-0.23899566 0.28516325 -0.4730641 0.712662 -0.46728015 0.4556685 0.3888574 -1.3395618
-0.30048013 -0.6971989 0.37555334 0.21216677 0.16956617 1.006159 -0.47152415 -0.032696214
-0.14119826 0.6086966 -0.011499092 0.482303 0.47103056 -0.0055113076 0.6895649 -0.28879592
0.26851624 0.32338023 -1.5602336 -0.26054266 -0.772769 0.43041787 0.22976628 -0.2521338
0.8399979 0.40772536 0.10782942 -0.8479694 -0.6961401 0.22398444 0.022454876 0.46978453
0.44944838 0.23431313 0.35648727 0.17738576 -0.042497203 -0.054265864 1.4540513 0.9965672
0.39257038 -0.5061986 0.4394474 -0.55660886 -0.41865858 -0.23512165 0.09050377 0.8312322
0.4111536 0.5123497 -0.32090846 -0.6324565 -0.39433926 -1.0074351 0.04376839 0.35810515
0.28346556 -1.1031497 -0.4339658 -0.2667412 0.43749395 0.6755306 1.2372007 -0.86334497
0.51761127 -0.15174223 -0.31968984 -0.17946497 0.53538555 -0.07901877 0.8242602 -0.28053916
0.1107584 -0.5034722 0.48524153 -0.3683962 0.675384 0.17502101 0.37717062 0.18825956
-0.5064724 0.8961108 0.11327599 -0.08303965 -0.464247 0.25517583 0.020760419 0.4244898
0.16788143 0.11732722 -0.23454651 0.31950575 0.41020504 -0.40260836 -0.60467285 -0.2960581
-0.10854603 0.10345231 0.33640563 0.027162904 -0.22449654 0.48831108 0.23429953 -0.31466588
1.0278403 -0.123301744 0.012481072 -0.14099258 0.890488 0.11502343 0.73259336 -0.35716596
00000000: 9a8c 503e d403 583e 3715 d1be 1a41 99bd
00000010: 1e52 ae3d c42b 2ebf d1c1 433f 7abb 69c0
00000020: c102 f5be c8cd 743e c328 e83e 635a 723f
00000030: a945 363f 67c7 3b3f d9e3 ef3e 959e 95be
00000040: fccb edbe e822 8bbf 33a2 ff3d 5c1a 12bf
00000050: 7187 fb3e efc7 fbbe 04c3 823e 02c5 953d
00000060: 2e2f cdbd 12a9 93be 5a2b 99bd 2201 013f
00000070: a7b8 4cbb 3234 f7bd dee5 e3be a9d8 b2bf
00000080: d398 f1be a8c7 63bc 11b5 03bb e916 b73e
00000090: f3b3 ddbe 078d b43e 331b 393f 7178 c43d
000000a0: fd86 be3e 60b5 03bf e087 e23e 9d07 183f
000000b0: a41b 09be 97f9 41bf d950 a4be 6fa9 9dbf
000000c0: d90c 813d 3134 713e 7a4a 033f 17df c1be
000000d0: b6e9 e83e ac0d fcbe 9722 193f f475 4e3e
000000e0: 83cc 6f3c 4e49 74bf 674d c73e 3655 a13e
000000f0: 9f55 2ebe 092e 49be a37c 3b3f 49c5 46bf
00000100: eac0 173f d6ed 043e 34ff 93bd 4e9d 3f3e
00000110: 41c8 a93d 5523 a2bf 6ef4 4bbe ea1f cabc
00000120: 0db9 4c3f a46a 3c3f 75ba ee3e 3328 c03e
00000130: 3dc8 683e f978 cf3e c0bc 083f e880 c2be
00000140: 78fb 283e c266 0cbf 4a97 3cbe cf44 cc3e
00000150: f148 08bf df7e 3f3e ae16 0f3d 7c42 a3be
00000160: 4459 cabc 1812 6b3e be83 673e c80d f1be
00000170: 6965 bfbe 069f 4ebe 69b5 91be 1780 8c3d
00000180: 37c2 5f3e 90df 563b 11fa 703d 4282 89be
00000190: b515 cb3d c528 07bf f1d3 10be 5806 04bf
000001a0: eac3 5a3e 8b8f ab3d 0bb2 ea3d 1b56 a9be
000001b0: a3b2 c1be 34e8 4c3e fcfa 1cbe 8474 02bf
000001c0: acd6 0c3f 0e5e eb3d 1eaf 8c3e d0bf 6f3e
000001d0: 7c11 0d3f f695 b3be d642 c9be f2d0 dabe
000001e0: 15a2 f4be 8ef6 febe d9d6 47be b6d9 02bf
000001f0: e6ba 9d3e 1614 03bf 4a71 69bb b661 cabd
00000200: a371 99be e4d9 b0be b074 143e 09a5 403e
00000210: 78cc 4b3e 1cb2 353f 2e02 5b3f c84c c4be
00000220: 47bb 74be eb00 923e 7535 f2be 0471 363f
00000230: 583f efbe 624d e93e 5118 c73e c376 abbf
00000240: 88d8 99be a17b 32bf 8748 c03e 3f42 593e
00000250: c1a2 2d3e d1c9 803f 9d6b f1be 77ec 05bd
00000260: 4796 10be 8ad3 1b3f b066 3cbc 6bf0 f63e
00000270: eb2a f13e 3398 b4bb 5387 303f 0fdd 93be
00000280: f67a 893e 1892 a53e bcb5 c7bf d965 85be
00000290: 30d4 45bf bb5f dc3e da47 6b3e ae17 81be
000002a0: 1a0a 573f 61c1 d03e acd5 dc3d 8614 59bf
000002b0: 3d36 32bf 2d5c 653e 4af3 b73c 9987 f03e
000002c0: 191e e63e c8ef 6f3e 8085 b63e 9da4 353e
000002d0: 8c11 2ebd e245 5ebd 5a1e ba3f 071f 7f3f
000002e0: fcfe c83e 3b96 01bf 40ff e03e eb7d 0ebf
000002f0: 6b5a d6be bbc3 70be 0a5a b93d a2cb 543f
00000300: ba82 d23e 5a29 033f 1d4e a4be abe8 21bf
00000310: d6e6 c9be a2f3 80bf 7c46 333d 8f59 b73e
00000320: 6622 913e 0234 8dbf c430 debe 4d92 88be
00000330: 35ff df3e 93ef 2c3f 985c 9e3f 2d04 5dbf
00000340: 2c82 043f 5162 1bbe 63ae a3be aac5 37be
00000350: 070f 093f 98d4 a1bd b702 533f d4a2 8fbe
00000360: 4dd5 e23d 8ee3 00bf 9471 f83e 6d9e bcbe
00000370: f7e5 2c3f b538 333e 821c c13e 1dc7 403e
00000380: 2da8 01bf 8467 653f 3efd e73d b110 aabd
00000390: c8b1 edbe 68a6 823e c111 aa3c ba56 d93e
000003a0: 1ce9 2b3e 4149 f03d f62c 70be 4296 a33e
000003b0: 6506 d23e af22 cebe d7cb 1abf ed94 97be
000003c0: 624d debd cede d33d 5c3d ac3e bd84 de3c
000003d0: 6ce2 65be e903 fa3e 37ec 6f3e e31b a1be
000003e0: 4590 833f a085 fcbd 697d 4c3c 5c60 10be
000003f0: 06f7 633f 6791 eb3d 3d8b 3b3f 75de b6be

decoder.dec2.bias f4 [39]
-0.03572372 0.021706656 -0.010908999 0.08876887 0.10590087 -0.005337001 0.0 -0.015750982
-0.025983935 0.103405945 -0.028383538 0.16681431 -0.0400444 0.0956514 0.009986333 0.0
-0.028258841 0.1054548 0.036137175 0.022056893 0.027256034 -0.04378897 0.17730738 0.030812614
-0.0028343059 -0.033156577 0.15181811 0.07702797 -0.058033776 0.10354533 -0.0028585591 -0.01265055
0.174171 0.035935614 -0.0064099194 0.14632197 0.014622679 0.05278458 -0.0026475664
00000000: 0953 12bd 28d2 b13c a8bb 32bc 74cc b53d
00000010: 8ee2 d83d 02e2 aebb 0000 0000 3408 81bc
00000020: 43dc d4bc 7fc6 d33d 9884 e8bc 5fd1 2a3e
00000030: 9905 24bd e2e4 c33d b79d 233c 0000 0000
00000040: 167f e7bc b0f8 d73d 9304 143d a8b0 b43c
00000050: 0c48 df3c 105c 33bd 1190 353e bc6a fc3c
00000060: c3bf 39bb 31cf 07bd 3576 1b3e d7c0 9d3d
00000070: d3b4 6dbd 930f d43d aa56 3bbb 4144 4fbc
00000080: e259 323e 3931 133d 4d0a d2bb 6dd5 153e
00000090: f693 6f3c a534 583d cb82 2dbb

decoder.dec3.weight f4 [58, 39]
-0.88774174 -0.24968894 -0.33119592 0.63127416 -0.4617843 0.3922613 0.33935034 -0.016647173
-0.3270517 -0.056352627 0.892089 -0.22344089 0.2748779 -0.1379715 0.4764 -0.35490194
0.51173836 0.38513157 0.30789676 0.014283309 0.12787703 0.14635053 0.34520516 -0.25337896
-0.27845106 0.31344092 -0.41594344 -0.7046372 -0.51326376 0.41928053 0.22744034 -0.121801324
-0.058998562 -0.13893351 0.091224484 -1.3441999 -0.105535306 0.5629631 0.2029114 0.2823853
-0.14386111 0.08633761 -0.053059556 0.052398983 0.10572132 -0.10961565 0.33367524 0.19199137
-0.0027180144 -0.19306573 0.5790824 -0.082021095 0.14415313 -0.19096394 0.23686475 -0.12446391
0.11944955 -0.16351356 -0.2561666 -0.09799063 0.032962035 -0.092345536 -0.22722107 0.009851602
0.24893269 0.25692302 0.6349631 0.44021535 -0.15834162 0.111047395 -0.37643772 -0.5313448
0.27979073 0.24298586 0.5965419 0.43820918 0.18896692 -0.29243535 -0.49313876 0.1953176
-0.7413544 0.68849 -0.42627987 -0.11907104 0.16103427 -0.1533654 -0.10451279 0.32995242
1.0487404 0.4770801 0.32343128 0.18713075 0.29182702 -0.18183562 0.31101212 0.10682661
-0.22379583 -0.20096163 -0.03723653 -0.05583857 -0.06677586 -0.19961238 -0.24740513 0.044602662
-0.19275855 0.17855717 -0.8572991 -0.4871849 0.014013228 -0.022710346 1.2351786 -0.11865548
0.19881254 0.16121833 -0.15250228 -0.14204265 0.24683027 0.35170537 0.16029418 0.24264905
-0.20156741 -0.06706802 -0.34222144 -0.3346217 0.2745205 -0.1378618 -0.028911987 -0.03499895
-0.7267737 -0.12788452 -0.1937712 0.0064041964 -0.060594466 -0.3571936 -0.28250626 0.05732202
-0.14110655 -0.084141694 0.35931647 -0.05456089 -0.093447424 0.33896363 0.19454516 0.16496949
0.23116183 0.13217038 0.37207863 0.34835157 0.11249404 -0.0038362218 0.001872921 0.36708623
0.032346494 -0.09244947 -0.082943894 -0.0983804 -0.40130538 0.14824428 -0.22450688 0.32301822
0.12500492 0.043314606 0.36491832 -0.4603562 -0.69789255 0.33431336 0.124840215 -0.54351497
0.22438687 0.12933318 -0.042940516 -0.006152242 -0.60474074 0.1709078 0.083074234 0.19618176
0.3087452 -0.637623 -0.09919573 0.36489367 -0.67492205 0.31706733 0.28513455 -0.89069295
-0.34040546 0.032515757 0.0138894 0.05833486 0.5496668 -0.26421905 -0.09508749 0.049044233
0.19352475 0.29969442 0.46310154 0.056112766 0.47725692 0.19150032 0.17821647 0.13692309
-0.19900382 0.03625225 -0.19930935 0.21495277 -0.29720163 0.6431735 0.6554816 0.14892866
0.8349753 0.83958125 0.11553274 -0.11053736 -0.22554332 0.33630553 0.04780131 0.21351348
0.092359655 0.811919 0.04635677 0.6845303 -0.35023698 0.5299851 -0.20634012 -0.13435614
-0.04244923 0.07101778 -0.09729079 -0.067268826 0.070233084 0.12429533 1.0759327 -0.13814527
-0.73733675 -0.1706099 0.20656733 0.05990315 0.16142401 -0.9418995 0.27107766 -0.13287291
-0.27702987 -0.19860753 0.24044725 -0.43195102 -1.299236 0.30055082 0.18673995 -0.11808613
0.24026139 -0.15598033 -0.2726182 -0.47295052 -0.1557527 0.088290974 -0.3660238 -0.15311268
00000000: 0b43 63bf 75ae 7fbe 8392 a9be 2f9b 213f
00000010: fe6e ecbe 79d6 c83e 54bf ad3e a75f 88bc
00000020: 5273 a7be 03d2 66bd f25f 643f b0cd 64be
00000030: ccbc 8c3e 6748 0dbe b3ea f33e b5b5 b5be
00000040: 4901 033f f72f c53e a5a4 9d3e 8a04 6a3c
00000050: 32f2 023e eadc 153e bbbe b03e e3ba 81be
00000060: 2391 8ebe 547b a03e 8af6 d4be 1b63 34bf
00000070: 4165 03bf f0ab d63e 1fe6 683e f972 f9bd
00000080: 7aa8 71bd 9644 0ebe e7d3 ba3d be0e acbf
00000090: e522 d8bd 5a1e 103f 02c8 4f3e ce94 903e
000000a0: 5450 13be c6d1 b03d fa54 59bd 51a0 563d
000000b0: 6b84 d83d 2b7e e0bd 7bd7 aa3e 6399 443e
000000c0: b720 32bb 06b3 45be bf3e 143f adfa a7bd
000000d0: e19c 133e 0d8c 43be ac8c 723e efe6 febd
000000e0: f7a1 f43d 1970 27be 4528 83be 50af c8bd
000000f0: 3303 073d a81f bdbd a4ac 68be 9d68 213c
00000100: 36e8 7e3e 6a8b 833e f18c 223f e863 e13e
00000110: 4e24 22be d16c e33d 72bc c0be 3606 08bf
00000120: bb40 8f3e 49d1 783e f8b6 183f f45c e03e
00000130: 8b80 413e 16ba 95be af7c fcbe 5601 483e
00000140: 67c9 3dbf e140 303f 5b41 dabe 84db f3bd
00000150: 2be6 243e d20b 1dbe cd0a d6bd 86ef a83e
00000160: 203d 863f d843 f43e c998 a53e 349f 3f3e
00000170: 5a6a 953e 1e33 3abe fb3c 9f3e e9c7 da3d
00000180: bc2a 65be e3c8 4dbe 5585 18bd fcb6 64bd
00000190: c8c1 88bd 3067 4cbe c557 7dbe 48b1 363d
000001a0: 7f62 45be b1d7 363e f477 5bbf 4d70 f9be
000001b0: bd97 653c 0c0b babc 551a 9e3f a501 f3bd
000001c0: 8495 4b3e 6b16 253e 8f29 1cbe a173 11be
000001d0: 13c1 7c3e ba12 b43e 2824 243e fe78 783e
000001e0: b067 4ebe f55a 89bd a637 afbe 8953 abbe
000001f0: f38d 8c3e a52b 0dbe d5d8 ecbc 0f5b 0fbd
00000200: d70d 3abf 29f4 02be f56b 46be 4bda d13b
00000210: e731 78bd 14e2 b6be a9a4 90be 7fca 6a3d
00000220: 3c7e 10be 7b52 acbd 54f8 b73e 3d7b 5fbd
00000230: 5d61 bfbd a48c ad3e d936 473e c3ed 283e
00000240: b0b5 6c3e ac57 073e 1781 be3e 235b b23e
00000250: 4663 e63d 1f69 7bbb cd7c f53a baf2 bb3e
00000260: c27d 043d 2656 bdbd 7dde a9bd aa7b c9bd
00000270: e677 cdbe 59cd 173e 22e5 65be a562 a53e
00000280: 4a01 003e a86a 313d 93d6 ba3e cfb3 ebbe
00000290: 16a9 32bf 1f2b ab3e 3aac ff3d cc23 0bbf
000002a0: acc5 653e eb6f 043e 65e2 2fbd bf98 c9bb
000002b0: 4ad0 1abf 7402 2f3e d322 aa3d dfe3 483e
000002c0: da13 9e3e 433b 23bf 2227 cbbd 58d3 ba3e
000002d0: b1c7 2cbf a656 a23e 28fd 913e 7404 64bf
000002e0: a049 aebe 3e2f 053d 5e90 633c 89f0 6e3d
000002f0: f7b6 0c3f b847 87be 3bbd c2bd 9be2 483d
00000300: 5a2b 463e 8c71 993e a51b ed3e 80d6 653d
00000310: 055b f43e a918 443e 617e 363e 9135 0c3e
00000320: a8c7 4bbe 3d7d 143d c017 4cbe 941c 5c3e
00000330: d02a 98be 05a7 243f a4cd 273f c180 183e
00000340: f1c0 553f ccee 563f 6e9c ec3d 6961 e2bd
00000350: d4f4 66be 3d30 ac3e 4ecb 433d 47a3 5a3e
00000360: 0f27 bd3d ecd9 4f3f 99e0 3d3d 613d 2f3f
00000370: 4352 b3be 1aad 073f d34a 53be a894 09be
00000380: 3edf 2dbd c571 913d 6540 c7bd 3dc4 89bd
00000390: 5dd6 8f3d 8d8e fe3d 2ab8 893f f475 0dbe
000003a0: 1ac2 3cbf 5db4 2ebe 6386 533e 015d 753d
000003b0: 564c 253e 5320 71bf b1ca 8a3e d60f 08be
000003c0: dcd6 8dbe c65f 4bbe ce37 763e af28 ddbe
000003d0: 5e4d a6bf cce1 993e c238 3f3e 24d7 f1bd
000003e0: 1507 763e 4fb9 1fbe 9d94 8bbe 9226 f2be
000003f0: a37d 1fbe e6d1 b43d 7967 bbbe 92c9 1cbe

decoder.dec3.bias f4 [58]
0.024878947 0.005331963 -0.0032453078 -0.062920064 0.15897608 0.02025412 -0.025393862 -0.07118166
-0.0043686223 -0.05074196 0.040891293 0.018025558 0.004716922 -0.02992536 0.08369658 0.08519562
-0.0100899795 0.032525647 -0.03435933 -0.0023844228 0.04842005 -0.04441068 0.032474115 0.11408779
0.13264877 0.025077408 -0.066247284 0.03545626 0.0038568606 0.13464694 -0.0035221463 0.15705967
-0.008550722 0.047726367 0.040222473 -0.017166384 -0.030525148 -0.059742454 -0.016333204 0.0013620903
-0.0071602743 0.08967117 0.023444938 0.07048028 0.065241136 -0.022843163 -0.030689366 -0.0026382857
0.057982657 -0.016246995 0.04043762 -0.011080287 -0.009961133 0.12567052 -0.012511371 0.02035789
-0.008502191 -0.09284997
00000000: efce cb3c bfb7 ae3b 3baf 54bb 3cdc 80bd
00000010: a0ca 223e f8eb a53c ca06 d0bc b1c7 91bd
00000020: a926 8fbb cdd6 4fbd a17d 273d 56aa 933c
00000030: 6990 9a3b 0726 f5bc 1d69 ab3d 0b7b ae3d
00000040: 7150 25bc 9d39 053d 5ebc 0cbd fa43 1cbb
00000050: 1a54 463d f9e7 35bd 9403 053d dca6 e93d
00000060: 14d5 073e 236f cd3c a8ac 87bd 953a 113d
00000070: 62c3 7c3b e3e0 093e cfd3 66bb 40d4 203e
00000080: 5418 0cbc b97c 433d 52c0 243d 84a0 8cbc
00000090: e00f fabc 81b4 74bd 36cd 85bc 2b88 b23a
000000a0: bca0 eabb 85a5 b73d 990f c03c f757 903d
000000b0: 259d 853d 9621 bbbc 4468 fbbc 17e7 2cbb
000000c0: 397f 6d3d 6b18 85bc eba1 253d 188a 35bc
000000d0: 0534 23bc c6af 003e 7efc 4cbc 97c5 a63c
000000e0: c64c 0bbc 2028 bebd

decoder.dec4.weight f4 [78, 58]
0.42356867 -0.11865752 -0.0045453883 0.19798389 -0.23722185 -0.09896638 0.5088957 0.2720907
0.13421278 -0.29331177 0.140907 0.07387977 -0.022238072 -0.19758019 -0.001555535 -0.27599308
-0.25266206 -0.18065183 -0.118374825 0.24279667 -0.05531869 0.4069435 0.18165992 -0.18054649
0.12556186 -0.15174639 -0.08907891 -0.067811996 0.13328904 -0.27374226 0.1317323 0.10812135
0.03310268 -0.30263242 -0.019393824 0.18901508 -0.12993552 -0.041978005 -0.06319936 -0.29538932
0.28835046 0.35054812 -0.25055835 0.05707322 0.09134277 -0.014454272 -0.004158705 0.30139413
0.009866538 0.041630298 0.034598395 0.3037886 -0.2820154 0.12934949 -0.035090033 0.21446007
-0.17845938 -0.11863981 -0.8710124 -0.028628474 0.79181117 0.22637443 -0.5912614 0.010315742
-0.43376115 -0.5884453 -0.04019167 0.0848995 0.036827277 1.1384223 0.12113455 -0.15489648
0.6373387 0.8764457 -0.066144295 0.20640077 -0.96824586 -0.22633195 0.20756713 -0.20410867
0.115643404 0.78176326 0.21785183 0.13401575 -0.25299737 -0.10368865 0.45905954 -0.4680109
-0.13640325 -0.41772595 -0.046638038 -0.43298373 -0.49220753 0.318546 0.009367214 -0.22665364
-0.37889764 0.17695741 -0.09259659 0.5580607 0.49622628 -0.06503578 0.41381878 0.20589846
0.072665796 0.11979695 0.33121806 0.013055628 0.11301901 -0.1331101 0.21696927 -0.2665386
-0.062603995 -0.07475772 -0.24462432 -0.23623706 0.5533396 -0.3317556 0.76210004 -0.21107483
0.007304482 0.23339552 -0.2272277 0.2921056 0.030059276 0.1734751 0.46643656 -0.5908709
-0.16228165 0.09710223 0.13863634 0.0015159574 -0.10211503 0.06519001 -0.45612454 0.3208806
-0.0811433 0.11870246 -0.5186668 0.15444271 -0.4180142 0.11272726 0.20633082 -0.3191221
0.42326954 -0.21215358 -0.16019663 -0.14444552 0.053372215 -0.3656934 0.14917444 0.23532848
0.17396979 -0.07489172 0.50442964 0.039550323 0.026200466 -0.5913257 -0.078087956 -0.008035994
0.2370285 -0.026388854 -0.1969077 0.2806286 0.48177466 -0.2869143 0.29329243 -0.13023804
0.2945737 0.613419 -0.28501427 -0.105780475 -0.13860519 0.73147434 0.092298865 -0.11014452
-0.08487393 0.12673521 0.15951052 -0.122067384 -0.037244532 -0.047980364 -0.21276242 0.06019947
-0.19637197 -0.018003512 -0.07679743 -0.25534943 0.059987575 -6.766193e-05 -0.15219069 0.12995128
-0.051615942 -0.09443333 -0.022825273 -0.006501975 -0.08904616 0.025595296 -0.1891311 0.22967713
-0.018308554 -0.12308305 0.17886372 0.25589395 0.289284 -0.1018463 0.00078608526 -0.105562404
-0.105816886 -0.16136622 -0.044647653 -0.14236856 0.060957205 -0.22332986 -0.13784395 0.3076272
0.010417426 -0.02782651 -0.28384206 -0.119586915 -0.035789657 0.12621741 0.115470596 -0.12339479
0.058581866 0.31461704 -0.13257074 0.13467711 0.03950168 0.02765657 -0.25942945 0.11360516
0.037207015 0.12951353 -0.02672396 0.16584252 0.0624809 -0.015871849 -0.15976459 -0.09393935
-0.035562854 -0.060138267 -0.039454293 -0.14994268 -0.20766135 -0.063507885 0.25562713 -0.14902367
0.11509522 0.009974662 -0.058457304 -0.07252047 -0.013696667 0.03745334 0.06395094 0.045180093
00000000: fedd d83e b702 f3bd 7bf1 94bb 4abc 4a3e
00000010: 49ea 72be e3ae cabd fd46 023f 794f 8b3e
00000020: 136f 093e f62c 96be ed49 103e 474e 973d
00000030: 9e2c b6bc 7652 4abe 18e3 cbba f74e 8dbe
00000040: ec5c 81be cbfc 38be 806e f2bd b19f 783e
00000050: da95 62bd e65a d03e 0f05 3a3e 2ee1 38be
00000060: 4a93 003e 6863 1bbe 016f b6bd 04e1 8abd
00000070: ec7c 083e f227 8cbe d5e4 063e ba6e dd3d
00000080: ad96 073d a3f2 9abe ccdf 9ebc 2b8d 413e
00000090: d10d 05be 21f1 2bbd ab6e 81bd 453d 97be
000000a0: aca2 933e 0b7b b33e 2f49 80be 9cc5 693d
000000b0: eb11 bb3d 9cd1 6cbc bf45 88bb 5550 9a3e
000000c0: 43a7 213c 8884 2a3d 0cb7 0d3d 2e8a 9b3e
000000d0: 5364 90be 3174 043e 91ba 0fbd 6c9b 5b3e
000000e0: 0ebe 36be 6ef9 f2bd abfa 5ebf 4386 eabc
000000f0: 23b4 4a3f b3ce 673e e85c 17bf 5c03 293c
00000100: f115 debe 5aa4 16bf 05a0 24bd cadf ad3d
00000110: 33d8 163d d2b7 913f 6415 f83d 2f9d 1ebe
00000120: a128 233f bf5e 603f a976 87bd b95a 533e
00000130: f6de 77bf 90c3 67be 7a8c 543e dd01 51be
00000140: 73d6 ec3d a321 483f 8d14 5f3e 6d3b 093e
00000150: df88 81be b75a d4bd da09 eb3e 209f efbe
00000160: 4bad 0bbe 2de0 d5be 8707 3fbd 0bb0 ddbe
00000170: a002 fcbe 7618 a33e f178 193c e417 68be
00000180: dffe c1be 5334 353e 48a3 bdbd 11dd 0e3f
00000190: 5f11 fe3e 7b31 85bd 0ee0 d33e 0cd7 523e
000001a0: ced1 943d 1a58 f53d 6a95 a93e 46e7 553c
000001b0: 8376 e73d 044e 08be 312d 5e3e bf77 88be
000001c0: 8636 80bd 931a 99bd cc7e 7abe 21e8 71be
000001d0: aaa7 0d3f dfdb a9be fd18 433f 0024 58be
000001e0: 705a ef3b 3cff 6e3e 61ae 68be dd8e 953e
000001f0: df3e f63c 75a3 313e c6d0 ee3e 5143 17bf
00000200: 292d 26be 89dd c63d aff6 0d3e 17b3 c63a
00000210: af21 d1bd 5782 853d 2889 e9be 764a a43e
00000220: 752e a6bd 461a f33d 59c7 04bf 3b26 1e3e
00000230: f505 d6be 8ddd e63d 6348 533e f963 a3be
00000240: c9b6 d83e ca3e 59be 960a 24be 87e9 13be
00000250: d39c 5a3d 2a3c bbbe 2fc1 183e f3f9 703e
00000260: 2325 323e d560 99bd 4d22 013f 85ff 213d
00000270: 5ca2 d63c 1f61 17bf 94ec 9fbd 67a9 03bc
00000280: 99b7 723e 702d d8bc 2ca2 49be 8dae 8f3e
00000290: 2bab f63e 6ee6 92be 6d2a 963e 1f5d 05be
000002a0: 5dd2 963e 0709 1d3f 64ed 91be 6fa3 d8bd
000002b0: 85ee 0dbe e741 3b3f 3007 bd3d 7393 e1bd
000002c0: 62d2 adbd e0c6 013e ba56 233e 77fe f9bd
000002d0: b98d 18bd 0f87 44bd 64de 59be b893 763d
000002e0: bc15 49be 1a7c 93bc f947 9dbd 29bd 82be
000002f0: 88b5 753d b9e5 8db8 e0d7 1bbe f311 053e
00000300: 3d6b 53bd 4366 c1bd 11fc babc 850e d5bb
00000310: d55d b6bd 3aad d13c 95ab 41be 7b30 6b3e
00000320: d2fb 95bc f712 fcbd 0d28 373e 8804 833e
00000330: 081d 943e cb94 d0bd 4a11 4e3a 1a31 d8bd
00000340: 86b6 d8bd 303d 25be 75e0 36bd 10c9 11be
00000350: 43ae 793d 95b0 64be f726 0dbe 5081 9d3e
00000360: daad 2a3c 6cf4 e3bc bf53 91be fce9 f4bd
00000370: 2d98 12bd 233f 013e d97b ec3d 68b6 fcbd
00000380: 8af3 6f3d 7c15 a13e a0c0 07be cce8 093e
00000390: 83cc 213d 0890 e23c f0d3 84be d2a9 e83d
000003a0: 6266 183d 329f 043e 35ec dabc 9fd2 293e
000003b0: f9eb 7f3d ae05 82bc 5499 23be 4663 c0bd
000003c0: 5baa 11bd 8b53 76bd d39a 21bd 938a 19be
000003d0: 2da5 54be 6c10 82bd 8fe1 823e a999 18be
000003e0: 0bb7 eb3d c46c 233c ed70 6fbd 9d85 94bd
000003f0: fc67 60bc ac68 193d b6f8 823d c30e 393d
