IDS_TA/initial_Models/CADE-m20.0-l0.01.pth (torch, 67994 bytes, 16 tensors)

encoder.enc1.weight f4 [58, 78]
000000 63 9d 58 3f e6 b0 7f 3e 45 3c 04 3e 8a 55 64 3e
       0.84615153 0.24969825 0.12913616 0.22298256
000010 b2 f3 09 be 2b 3f aa 3c dd 46 ea bd ae a8 f4 be
       -0.13471869 0.020782074 -0.11439297 -0.47784942
000020 47 5b b9 bd 74 d0 1f bc 08 cc a7 3d 49 00 b5 bc
       -0.09050613 -0.009754289 0.08193213 -0.022094863
000030 62 8a a2 3d 1b 86 6e 3d e0 34 a1 3d 23 f7 d3 3d
       0.07936551 0.05823336 0.07871413 0.10349872
000040 bb b6 c2 3e 14 4d e4 3d ac 04 19 3e f4 dc a6 3d
       0.38030037 0.11147514 0.14943188 0.08147612
000050 3d 30 8d 3e 43 ee 15 3d 66 ff d8 3d 31 60 0c 3e
       0.27575865 0.036604177 0.105955884 0.13708569
000060 eb 10 a8 bd aa ff 08 3b 2a b0 08 be 80 3d 43 3e
       -0.08206352 0.002090434 -0.13348451 0.19066429
000070 3f 06 6a 3e dd 47 5c 3d 8b 38 68 3d 2d b0 e7 bc
       0.22853945 0.05377947 0.05669455 -0.02828225
000080 0e 72 8c 3d e4 99 3e 3d c5 26 5f be 3a e5 8e 3e
       0.06857692 0.04653348 -0.21792133 0.2790926
000090 75 1b d7 3d a4 d4 35 bc 87 46 9a bd 29 ac 08 be
       0.10503284 -0.011098061 -0.07532983 -0.13346924
0000a0 f1 ef f1 3d 2d ce aa 3e 19 1f 95 3d 8c 49 b1 3e
       0.11813343 0.33360425 0.07281322 0.34626424
0000b0 89 b0 cf 3e fd 95 0e bd cc 28 20 bf b4 f1 30 be
       0.40564373 -0.03481101 -0.6256225 -0.17279702
0000c0 cf 9f d4 bd 1a 56 d5 3d 30 fc e9 bd ce b7 83 bb
       -0.103820436 0.10416813 -0.11425054 -0.004019714
0000d0 1f 03 64 be 2a e3 1c bb 1a 26 af bd 3e 25 e2 3d
       -0.22266816 -0.0023939111 -0.08552189 0.1104226
0000e0 a5 30 d7 3e ca ab 33 3f f6 05 81 be dc 2a f4 3c
       0.420293 0.70184004 -0.2519986 0.029805593
0000f0 13 6b f9 3b d9 97 c2 3c ff 03 cf 3c 96 d8 e2 3e
       0.007611641 0.023754047 0.02527046 0.44305867
000100 12 33 54 3e 8e 04 2d 3e 85 70 c8 3d bf 2a 45 3e
       0.20722607 0.16896269 0.097870864 0.19254588
000110 9d d9 88 be 91 b3 d0 bd 72 af f4 bc 4e 99 00 be
       -0.26728526 -0.101904996 -0.029868815 -0.12558481
000120 04 6a aa 3e e2 ed c7 3e a9 fa c6 3e 23 4d 50 3e
       0.33284009 0.39048678 0.38863114 0.20341925
000130 97 98 6e 3b 58 cf 7e bd db 2c 23 40 cc 9f cf 3d
       0.0036406869 -0.062209457 2.5496128 0.10137901
000140 d8 11 ef be 9c 19 6f bd ab 17 b1 bd 87 17 87 be
       -0.466933 -0.058374032 -0.086470924 -0.26385137
000150 80 16 65 3e 0b c2 66 bf 11 f4 b2 3b ea 95 48 3e
       0.22371864 -0.90139836 0.005461224 0.19588438
000160 68 f5 cc bd 98 a9 00 be 16 23 41 be 1d 3b a2 be
       -0.10007745 -0.12564695 -0.1886104 -0.31685725
000170 f9 15 53 be 62 ef a4 3e 2e 09 bc bd 10 db 20 3f
       -0.2061385 0.32213885 -0.091814384 0.6283426
000180 e0 62 89 3e bd 4e 94 bd ae 99 22 3f 1c 27 ca be
       0.26833248 -0.07241581 0.63515747 -0.39482963
000190 6a 55 3f 3e 60 05 89 3e 17 04 fd be bf 3e 6d 3d
       0.18684927 0.26761913 -0.49417183 0.057921167
0001a0 68 a2 14 bf 72 1b 14 3f 28 2d c9 3e a5 af 03 be
       -0.5806031 0.5785438 0.39292264 -0.12859972
0001b0 36 d2 be 3e dc e7 8a be b2 59 35 3e d5 29 37 3e
       0.37269753 -0.2713002 0.17709997 0.17887051
0001c0 2c 8d 74 3e e2 93 b0 bd b4 e0 03 be ff 93 d8 bd
       0.23881978 -0.086219564 -0.12878686 -0.10575103
0001d0 99 63 18 be d8 19 e7 3d 1f 90 ae 3d 2c 5c 7b bd
       -0.14881743 0.11284226 0.08523583 -0.0613672
0001e0 86 6c e7 3e f1 8e 7d 3e 08 99 36 3e 05 bc f4 3d
       0.45199984 0.24761559 0.17831814 0.119499244
0001f0 ea 94 04 bf a1 62 46 be b5 42 93 3e 30 11 11 be
       -0.51789725 -0.19373561 0.2876183 -0.14166713
000200 35 c4 39 bd 99 59 e4 3d ea 16 ab be 31 8f 29 3c
       -0.045353133 0.11149902 -0.3341592 0.010349081
000210 10 9b b3 bd d7 b2 ca 3d e3 de 6e 3f a2 88 c2 3f
       -0.0876981 0.09897392 0.9330885 1.5197947
000220 8b 09 e8 bc 42 8a 05 3e 31 71 18 3f 8c d9 09 3e
       -0.028324863 0.13041022 0.59547716 0.13461894
000230 e6 c2 e5 bd 7f 71 68 3d 3b b2 0d bb 40 e3 c4 3d
       -0.112188146 0.056748863 -0.0021621126 0.09613657
000240 5c 08 a0 3e 9f 55 58 bc 4e 6c de bc d8 27 db bd
       0.31256378 -0.013204007 -0.027151253 -0.10700959
000250 43 99 c8 3d fa 4d c3 bd a1 56 0e 3e 69 14 c4 3d
       0.09794857 -0.09536357 0.13900234 0.095742054
000260 49 c3 4c 3e 21 24 18 3f bb 89 b1 bd c8 94 f5 3d
       0.1999637 0.5943013 -0.08668848 0.119912684
000270 e8 0d 68 3f 54 c2 0d 3d 62 24 88 bd 45 9e 76 be
       0.9064622 0.034609154 -0.066475645 -0.24083813
000280 de 1e 47 3e 08 70 1b 3e bf 71 5e 3e 2f 9d b2 be
       0.19445369 0.15179455 0.21723078 -0.34885547
000290 2d cb bd 3a 5e 2f 9b 3d ac da 87 bc af 7a 15 be
       0.0014480107 0.07577394 -0.016583763 -0.14597581
0002a0 66 3c 1e be f6 1c eb 3d bb 1d 41 be 30 5c 34 3e
       -0.15452728 0.11480133 -0.18858998 0.17613292
0002b0 f5 e9 f2 bc 1e d3 8b 3b 77 20 1a be dc 84 2e 3e
       -0.029652575 0.0042671105 -0.15051447 0.1704287
0002c0 ff c1 17 3e 31 06 64 3d 09 ce 34 3e a5 3f 49 3e
       0.14820097 0.055669967 0.17656721 0.19653185
0002d0 66 84 00 bd d3 41 d1 3c 5d 3a a6 bd cb 7d 24 bd
       -0.031376265 0.025544083 -0.08116601 -0.040159028
0002e0 92 5e 4b 3e 1e ac 36 3e 69 ac 1a 3e a8 0d 00 3e
       0.19860294 0.17839095 0.15104832 0.1250521
0002f0 51 03 b0 bc f0 f0 38 3e 60 a5 ce 3d 05 c0 83 bd
       -0.021485956 0.1806066 0.100901365 -0.06433109
000300 88 85 8a bd dd d6 a5 bd a9 4d df bc f4 43 65 be
       -0.0676375 -0.080976225 -0.027258711 -0.22389203
000310 2c b8 7c 3b 7c 4a bd bc 99 66 5d 3e 1f 0e 1e 3d
       0.0038561923 -0.023106806 0.21621169 0.038587686
000320 c9 6b 8c 3e 5f c6 8b be 73 6e 93 bf 95 40 32 be
       0.27425984 -0.27299783 -1.1518081 -0.17407449
000330 21 bb f1 bd ab 18 46 3d aa d4 7e be 1f 28 4b be
       -0.1180327 0.04836337 -0.24885812 -0.19839524
000340 88 d6 89 3d 19 42 d2 bb 60 cf 0a 3d 07 b3 e9 3d
       0.06730372 -0.006416571 0.033889174 0.114111
000350 a9 ad 15 3f f9 19 99 3e 56 14 1a 3d 89 57 e3 bd
       0.5846811 0.29902628 0.03761705 -0.111006804
000360 5c 60 b4 3d 1e 45 26 3e 1d 3f 86 3c 9d d1 58 3e
       0.088074416 0.16237304 0.016387517 0.21173711
000370 02 70 c7 3d 69 2d 46 3b 65 da 2f be 6c f9 7a bb
       0.09738161 0.003023947 -0.17173155 -0.003829564
000380 58 04 57 3e 7c 6b 8e be 40 14 d8 3d 4e d2 67 bc
       0.20997751 -0.2781638 0.105507374 -0.014149262
000390 99 dd 4e 3e d6 1b dc bd 5b 29 9d 3e 25 35 32 3e
       0.2020172 -0.10747497 0.30695614 0.17403086
0003a0 f8 83 42 be 18 63 88 3e 61 98 36 3d df 2a 69 be
       -0.18995655 0.26638103 0.044578914 -0.2277026
0003b0 e0 4c 90 bc 07 c8 15 be 2d 18 b5 3d c1 8f e5 be
       -0.017614782 -0.14627086 0.08842502 -0.44836238
0003c0 21 54 3e bd 59 04 c1 be 9f 6e 29 bd 9e 3b f7 3d
       -0.04646695 -0.3769863 -0.041365262 0.12071918
0003d0 38 be 78 3d 5d 5e e3 bd 2a c9 4a 3d fd f0 f9 3d
       0.06072828 -0.11101983 0.04950825 0.12204168
0003e0 63 99 09 3c dd c5 06 be f8 fe 69 be 31 22 47 3e
       0.008398387 -0.13161416 -0.22851169 0.19446637
0003f0 01 77 ad 3b 87 15 1b be af 21 31 be a6 7d aa 3d
       0.0052937274 -0.15144931 -0.17298006 0.08324747

encoder.enc1.bias f4 [58]
000000 8a f2 0e 3e 63 81 b2 3d 66 2a e5 3c 5c 3e 05 bd
       0.13959709 0.08716085 0.027974319 -0.032530174
000010 26 90 04 3d e1 ad 6d bd cf 33 e2 3d 3b f5 14 3d
       0.032364033 -0.058027152 0.11045038 0.036366682
000020 c1 a1 04 3d bf ca 0e 3d ab ff bc bc a1 dc 1e 3e
       0.032380823 0.034861322 -0.02307113 0.15513851
000030 17 d9 d6 3d 28 4f 9f 3d 8f 7f bc 3d 98 f6 81 3d
       0.10490625 0.0777877 0.09204017 0.06345862
000040 59 ec b1 3d ac 23 8e 3d 97 5d f8 3c c8 62 ce 3d
       0.08687658 0.069403976 0.030318065 0.10077435
000050 28 3d 59 3e 11 00 f7 3d 10 41 92 bd 2b da b4 bc
       0.21214736 0.120605595 -0.07141316 -0.022076687
000060 a3 8c 69 bd 55 3d 21 3c a1 3a 18 3d 94 8b cd 3b
       -0.057018887 0.009841283 0.037165288 0.0062727425
000070 38 22 9d 3d 9a 8e 9f 3d f2 b2 97 bc 0c 77 14 bd
       0.07672542 0.07790871 -0.018517945 -0.036246344
000080 11 7a 3e 3d 7f 7f a4 3d 1f 50 63 bd 5a c7 5c 3d
       0.04650313 0.080321305 -0.05549633 0.053901054
000090 8e 73 82 bc 81 d5 19 bd a5 8c ad 3c 86 a9 12 3e
       -0.015924241 -0.03755713 0.021185229 0.1432248
0000a0 6a 16 cc 3d 1f 5a 63 3d 89 b4 48 3d 36 c0 13 bd
       0.09965213 0.055505868 0.049000297 -0.03607198
0000b0 e8 ce bd 3c 35 84 d2 3d ab e5 76 3e 1b 53 d1 3c
       0.02316995 0.10279123 0.24111049 0.025552323
0000c0 dd 51 8a 3e d1 b5 8a bd e5 2a 4e bd 0a f1 0d 3d
       0.27015582 -0.0677296 -0.050333876 0.0346537
0000d0 88 09 3d 3b 34 fc 1b 3e 08 0d 0e 3e f2 ca 60 3d
       0.0028844792 0.15232927 0.13872159 0.054881044
0000e0 be fc 77 3e ea a8 59 3d
       0.24217507 0.053139605

encoder.enc2.weight f4 [39, 58]
000000 38 59 32 3e 87 bd dc be e0 d1 ea bc 0c 02 5c be
       0.17416847 -0.43113348 -0.02866453 -0.21485156
000010 c2 66 82 be fa 73 ff 3d 63 49 ad bd 1a 7d a7 bc
       -0.25469023 0.12473293 -0.08461263 -0.020445395
000020 21 2a 08 bf be 4f 2c be 58 6f 45 be cf 3e 60 bf
       -0.53189284 -0.16827294 -0.19280756 -0.8759584
000030 25 3e 12 3e 77 69 15 3f 98 1a 10 3d d2 d7 1f bf
       0.14281519 0.5836405 0.03518161 -0.6243869
000040 0b ae 5e 3e 38 d3 27 be bb be cd 3d 92 31 ca 3e
       0.2174608 -0.16389167 0.100461446 0.39490944
000050 3f e4 7c bf e9 c4 3c bf d8 a6 4e bf 24 25 5a be
       -0.98785776 -0.7373796 -0.80723333 -0.2130323
000060 02 21 ab be c6 07 42 be 75 1b 83 be c5 bf c1 3e
       -0.3342362 -0.18948278 -0.25606886 0.3784162
000070 0d 17 5b 3e 03 36 c3 3b 02 28 38 bf db aa fe be
       0.21395512 0.0059573664 -0.7193605 -0.49739727
000080 de 42 ef 3e 40 87 86 bf cc 8c 89 3e 96 62 6c 3e
       0.46730703 -1.0510025 0.26865232 0.23084483
000090 5e bc 06 bf bc f6 e5 be ec 00 aa 3e 10 4f c5 3e
       -0.52631176 -0.44914806 0.33203828 0.38536882
0000a0 22 04 5a be ea 92 06 3f 26 c8 b5 3e 00 ee fe be
       -0.21290639 0.52567923 0.35504264 -0.49790955
0000b0 e5 9d b1 3e c7 7e de 3e b9 e2 ac 3e 37 08 44 bf
       0.34690776 0.43456098 0.33766726 -0.76575035
0000c0 7a 02 3c bf d6 e1 8b bf 1c 1e 03 bf 5e 77 28 3f
       -0.7344128 -1.0928295 -0.5121782 0.6580714
0000d0 b6 f0 fa be aa ee a0 3e ab 65 17 3f f3 93 8f 3d
       -0.49011773 0.31432086 0.5913951 0.07010641
0000e0 c9 cb f9 bd ab b3 f2 3d 60 9c 89 bd 9c a5 52 bd
       -0.12197072 0.11850675 -0.06719279 -0.05142747
0000f0 e5 71 03 3f af ce 49 3e 28 bd cc 3d 09 1a 00 bd
       0.51345664 0.1970775 0.09997016 -0.03127483
000100 03 1f 78 3e d5 9d 69 be dd d6 24 bf 85 94 97 3e
       0.2423058 -0.22814114 -0.64390355 0.296055
000110 55 26 ed bc 08 36 09 bf 5a 96 41 be 8e b7 a0 3e
       -0.028948942 -0.5359807 -0.18905011 0.3139004
000120 ce 93 e9 3d 55 63 c0 be fd 6f f0 3e 6c 3c af 3e
       0.11405145 -0.37575784 0.4696044 0.34225786
000130 8f d1 7d be 0d ec da 3e 06 91 25 bf f2 1a 17 bd
       -0.24786972 0.42758217 -0.64674413 -0.03689093
000140 34 05 33 bf 25 69 59 be fe 76 60 be 4f 6d c9 bc
       -0.69929814 -0.21231516 -0.21920392 -0.024588255
000150 5f 86 a7 3d c4 a8 e2 3d 6b 5e 3f bc c9 21 3c bd
       0.08179926 0.11067346 -0.011680226 -0.045930658
000160 69 f1 86 be f2 3d f3 3e af 6d 3e 3e 5c ac 02 bf
       -0.26356056 0.47508198 0.18596528 -0.5104425
000170 53 8d b8 3d 74 2a f1 3d 46 ca c4 bc 14 cd 9a bd
       0.090113305 0.117756754 -0.024022233 -0.07558647
000180 62 90 dc 3e f2 af 22 3f e2 5f 25 bf 05 1c cc 3e
       0.43078905 0.6354972 -0.6459943 0.39865127
000190 bc 83 b1 bd 19 11 11 bf 2f 15 aa 3e ae 67 a9 3c
       -0.086677045 -0.56666714 0.33219287 0.020679321
0001a0 13 68 14 bd 50 33 15 bf ec 5a 4f bf 57 a1 28 bf
       -0.036232065 -0.5828142 -0.8099811 -0.65871185
0001b0 f2 d8 4c be 5c 11 d2 3e 5f 3f 82 bc 6e 0f ad 3e
       -0.20004633 0.4102887 -0.015899358 0.33800834
0001c0 b7 1c 91 3e 0f 59 a5 3e 50 e6 ac bc 2e fb 53 bd
       0.2834222 0.3229451 -0.021105915 -0.051753215
0001d0 72 64 40 be 20 73 2e bf 58 21 54 be df 90 ed bc
       -0.18788317 -0.68144417 -0.20715845 -0.028999744
0001e0 cd 99 9c bd 77 7f b3 bd bb 2f 83 3d 4e dd 3b bd
       -0.07646523 -0.08764546 0.06405588 -0.04586535
0001f0 7a 0b 55 bf 73 6a 90 3e 8c 44 29 be 39 97 8e bf
       -0.83220637 0.28206214 -0.16530055 -1.11399
000200 de b4 2c 3e 9f 19 b3 3e 59 5d 02 3f 85 fe d2 be
       0.1686587 0.34980485 0.5092369 -0.41209808
000210 8b 6a 09 3e 74 f7 3c 3c b0 18 81 bd b8 cc 07 3f
       0.13419549 0.011533607 -0.06303537 0.5304675
000220 fc 6c 65 bf 7b 9f 1e bf 01 2d c2 bf b1 6d 90 3e
       -0.8961942 -0.619621 -1.5169984 0.28208688
000230 d4 ac 74 bf d4 d7 68 bd f4 a0 1f 3d ac 72 66 ba
       -0.95576215 -0.056846455 0.038971856 -0.0008790891
000240 da da 49 3d 5b 14 3e be 9d 97 b0 bf 54 e6 cb be
       0.04928098 -0.18562452 -1.3796269 -0.39824164
000250 0a 45 53 3e 75 a6 90 bf b0 06 34 be ca 8c 68 3d
       0.20631805 -1.1300799 -0.17580676 0.056774892
000260 7a 3e bb be d6 12 2b be 42 61 e6 3e 77 fc bb 3e
       -0.36571103 -0.16706404 0.44996077 0.36716053
000270 de ed e1 be 76 1b 8d 3e ed dd 69 be d7 db 16 bf
       -0.4412679 0.27560014 -0.22838564 -0.589292
000280 56 ac 84 3d d0 4c a7 be d1 30 d4 3e f3 57 12 bf
       0.06478183 -0.3267579 0.41443494 -0.5716545
000290 d4 12 05 bf 4a 86 bf bf ae b3 1e bf 59 02 74 3f
       -0.51981854 -1.4962857 -0.6199292 0.9531608
0002a0 06 5e ee be e6 6a 09 3e 12 bc 12 3f 00 0a 61 3e
       -0.4655611 0.13419685 0.5731822 0.21976471
0002b0 ee 72 8e be e7 6b bf bc 3e ea fc 3d 74 50 20 3f
       -0.2782206 -0.023366882 0.12349366 0.6262276
0002c0 c6 0f 4c be 7f e7 b1 be d1 34 33 3e a7 a1 d6 bd
       -0.19927892 -0.3474693 0.17500617 -0.104800515
0002d0 4d bd 81 3e 0d 6a bc 3e 0a 62 2e 3f 68 ab 62 3e
       0.25339738 0.3679966 0.68118346 0.22135699
0002e0 2e 7d c0 bd c8 c1 1a 3f 6d d4 01 3e 4a 1f 51 be
       -0.09398876 0.60451937 0.1267869 -0.20422092
0002f0 35 22 dd be ec b2 91 3e d1 f3 48 be eb 5c 7d be
       -0.4319016 0.2845682 -0.19624259 -0.24742477
000300 45 86 84 be f6 03 58 be 5c 74 f3 3e 2a 77 a9 bd
       -0.2588369 -0.21095261 0.47549713 -0.08274682
000310 c9 81 29 3f 45 f2 aa 3e e0 97 12 3f 5e 64 a0 be
       0.6621366 0.33387962 0.5726299 -0.31326574
000320 f0 c9 93 3e 1b 37 09 3e 4c c2 f4 bd 38 61 ac 3e
       0.28865004 0.13399927 -0.11951122 0.33667922
000330 02 e8 ac 3e fe 87 0e 3e bd 78 83 3d 2f d7 8f 3e
       0.33770758 0.13919064 0.064195134 0.2809386
000340 19 e7 09 3d 6f 25 21 be e4 4b 88 3e b1 ca aa be
       0.033667658 -0.15736936 0.266204 -0.33357766
000350 69 0c 9b be 2d 2b 9f be ac 87 23 bc 4b 2a cc 3d
       -0.30282906 -0.31087628 -0.009981077 0.09969004
000360 27 c0 9a be cf 24 35 3e ba 0c 08 be 3a 35 ea bc
       -0.30224726 0.17689823 -0.13286105 -0.028589834
000370 be 5c 08 be 79 76 0d be 85 23 39 3e c5 66 84 3e
       -0.13316628 -0.13814725 0.18079956 0.25859657
000380 91 7c bb 3e bc c1 55 bf 09 cf 6a 3e b4 a9 8e be
       0.36618474 -0.8349874 0.2293054 -0.27863848
000390 66 5e 25 bc 0f bd 6e 3e 15 e5 d4 3d a1 97 80 3e
       -0.010093307 0.23314308 0.103952564 0.25115684
0003a0 87 41 4f 3e 30 e4 ad 3d 6f fa b2 3e e2 9d d1 bc
       0.2023984 0.08490789 0.3495669 -0.02558798
0003b0 ef 90 8e bd ff 3c 3f bf c1 d5 93 3d f8 23 3d be
       -0.06961238 -0.7470245 0.07218505 -0.18470752
0003c0 64 a6 ef 3d ba 14 7d bd 60 a3 4b be f3 1f 35 3e
       0.11701658 -0.061787345 -0.19886541 0.17687969
0003d0 78 3d 88 bd 52 f3 30 3e 36 1f cd bd 3a 5d 1e 3e
       -0.06652349 0.1728032 -0.10015719 0.1546525
0003e0 35 2f d1 3e eb 1c e9 3d 56 5f 87 be ac e0 e3 be
       0.4085633 0.11382469 -0.26439923 -0.4450735
0003f0 8d 1d 9d bd e9 f3 ac 3d bc 88 16 bd 5b 15 b3 3c
       -0.07671652 0.0844496 -0.036751494 0.021860769

encoder.enc2.bias f4 [39]
000000 29 75 c7 3d 64 6f ce 3d b6 c2 13 3d a7 0b 75 3c
       0.097391434 0.1007984 0.036074363 0.014956391
000010 cd c1 a0 bd 25 1d c5 3c 6d cb dd bc 00 00 00 00
       -0.078494646 0.024061749 -0.02707454 0.0
000020 10 9b 1e 3c 68 b0 9f bc 60 4f 84 bd 46 79 41 bb
       0.0096805245 -0.019493297 -0.06460452 -0.0029521747
000030 2b b4 53 3c 88 fb 04 3d 85 34 46 3e df fc 27 3d
       0.012921373 0.03246644 0.19355972 0.04101264
000040 f8 81 fc 3d 77 51 94 bc d7 f8 7a 3c 09 25 d3 3b
       0.12329477 -0.018105252 0.015318117 0.006443624
000050 00 a0 44 3d af 50 ab bc 77 09 12 3d 74 9d 21 3d
       0.04800415 -0.020912496 0.035653558 0.0394568
000060 0d 9f 1d 3b 50 f7 11 3e 68 4c 2e 3d 37 fc 71 3d
       0.00240511 0.14254498 0.042553335 0.05907842
000070 70 22 c2 3d dd c2 46 3d 99 41 c7 3d 96 27 19 3d
       0.09479225 0.04852568 0.09729309 0.037391268
000080 ac af 4c bd b7 b6 30 3d a9 b8 6c 3c 35 d0 47 3b
       -0.04997222 0.043143 0.014448323 0.0030489091
000090 e9 66 03 3d 90 62 3a 3e 80 96 40 3d
       0.032080565 0.18201661 0.047018528

encoder.enc3.weight f4 [19, 39]
000000 83 ed eb bc 5f 4e 1f 3e 95 38 07 bf 4a 6f d3 3d
       -0.028799778 0.1555724 -0.5282071 0.10323961
000010 e0 f3 66 3c 09 35 92 3e fd 3f 3e 3c 7f e1 ad 3e
       0.01409623 0.28556088 0.011611936 0.33961102
000020 a6 c3 ac bb 13 d3 c7 3e cb 3d 93 3e 56 31 06 be
       -0.0052723465 0.39028224 0.28758082 -0.13104758
000030 5b a9 5f be e8 7c e9 3c 7b 47 d3 bd 3c b0 42 be
       -0.21841948 0.028501943 -0.10316368 -0.1901254
000040 c3 7f 4b be 24 58 26 bc b4 2f 6e 3e 9c 55 4b be
       -0.19872956 -0.01015285 0.23260385 -0.19856876
000050 52 81 3d 3d 6d b2 c9 3c f4 51 35 3e 47 16 81 be
       0.046265908 0.024621213 0.17707044 -0.2521231
000060 b0 0b 5c be 86 52 34 3d 51 f3 24 bd 37 e5 25 be
       -0.21488833 0.044024013 -0.040271107 -0.1620072
000070 ae 3c 29 3e 69 f3 9d be 96 d0 94 3d f6 fa cb bd
       0.16527054 -0.3084977 0.07266347 -0.099599764
000080 1e f2 03 3d 76 81 94 3e 6a b6 8c 3c c8 54 1d bd
       0.032213323 0.2900502 0.017176826 -0.03841093
000090 9e e8 3c bd 9d 1a 61 3e 72 e5 4c be a7 12 6e 3e
       -0.04612028 0.21982808 -0.20009401 0.23249303
0000a0 3b d2 60 be 5f c7 01 c0 69 b0 eb 3e 79 ac e1 be
       -0.21955197 -2.0277936 0.46033028 -0.440769
0000b0 3b 7f 92 bd 21 cf 5c 3e 8b 18 60 3e 4f c6 34 bd
       -0.071531735 0.21563388 0.21884362 -0.044134434
0000c0 f2 a0 1e 3e f7 33 8a 3d e7 e1 e3 be a2 3d 0c bf
       0.15491083 0.06748193 -0.44508287 -0.54781544
0000d0 bf dc 8d 3e c7 69 ac 3e 03 77 f4 3a 7f 2d a4 be
       0.27707478 0.33674452 0.0018651191 -0.3206596
0000e0 a4 13 66 be 40 fa 1e be 54 d0 6a be 6f 97 cb 3e
       -0.2246843 -0.1552515 -0.22931033 0.39763972
0000f0 c2 8c f0 3e a5 6e 98 3c 00 4a aa be 4b 94 47 be
       0.4698239 0.018607447 -0.33259583 -0.19490163
000100 04 ac 1f bd ce 83 84 be c8 77 a3 bd c8 4e 05 3f
       -0.038982406 -0.2588181 -0.07981831 0.52073336
000110 1a f0 e8 3e 2a 6e b3 3e e9 8d 6f bd b9 d3 8b bc
       0.45495683 0.35044986 -0.058484945 -0.01706873
000120 f3 e5 b4 3e cb 1e f0 be dc b7 97 be 83 9e b2 be
       0.35331687 -0.46898493 -0.2963246 -0.3488656
000130 05 eb 6d be 96 bf ea be 49 05 bd 3e e0 f0 91 3d
       -0.23234184 -0.45849293 0.36918095 0.071260214
000140 24 f9 6a be a2 96 5f 3e 2d 05 cc bd 76 9c 92 be
       -0.22946602 0.21834806 -0.09961925 -0.28634995
000150 fd 72 5e be 64 0b 1d 3e 0d 85 4b be a7 e9 43 3e
       -0.21723552 0.15336376 -0.19874974 0.191321
000160 36 36 b9 3e 40 9e 03 3e 6f 6f 81 3e fe 96 3b 3e
       0.36174172 0.12853336 0.2528033 0.18319318
000170 b1 dc b8 be d5 e4 d8 be 3a 4c b4 be e5 bf a0 be
       -0.36105874 -0.42362085 -0.35214406 -0.31396404
000180 31 66 ca bc eb ec 4e 3e c6 24 70 3e ae 87 cb be
       -0.024706932 0.20207565 0.23451528 -0.39751953
000190 b2 50 97 be 86 2a ba 3e 18 3f df bd 00 8e a6 be
       -0.29553753 0.36360568 -0.10900706 -0.32530212
0001a0 e9 67 62 be b1 59 65 3d 43 c3 82 3e 3f 73 ac be
       -0.22109951 0.05599374 0.25539598 -0.33681676
0001b0 7b 53 75 3e 6b 88 d4 be bc 4e 0b 3e 57 4b 31 be
       0.23957627 -0.4151033 0.13604254 -0.17313896
0001c0 39 68 be be c4 c0 af 3e 18 54 dc bd 85 a0 db be
       -0.3718889 0.34326756 -0.10758227 -0.42895904
0001d0 c9 07 62 3d d1 ae 4b be 6b 0c 1d 3e 5e bb d2 be
       0.055183206 -0.19890906 0.15336768 -0.41158575
0001e0 d7 e8 c4 bc b3 12 12 bf 35 af 18 3e bc fd 47 be
       -0.024036808 -0.5705978 0.14910586 -0.19530386
0001f0 fb d1 13 be 1c b0 b4 3d ba 29 92 be 20 69 00 3e
       -0.1443557 0.08822653 -0.2854746 0.12540102
000200 7f ad 69 be de 31 de be 97 63 8e 3d f3 e6 ff 3d
       -0.2282009 -0.4339742 0.06952589 0.12495222
000210 a3 67 0f 3e 5a e9 ed bd bf e9 b1 be a8 8e 61 3e
       0.14004378 -0.11616774 -0.34748647 0.22027075
000220 17 fc 4b 3d 96 b1 1d be 18 dd 92 3e 09 5e 0a bd
       0.04980096 -0.15399775 0.28684306 -0.033781085
000230 9c f2 32 bd 6a d8 b1 3e a0 04 cf 3d 89 64 8a be
       -0.0436884 0.34735423 0.10108304 -0.27029827
000240 20 dd 9e 3e 3c 18 96 bb 89 d1 a8 3e ba 4c 0a 3f
       0.3102808 -0.0045805257 0.32972363 0.54023325
000250 13 fe 90 3e 7b 32 aa 3d c4 82 91 be 94 e4 d8 be
       0.28318843 0.0831041 -0.2842008 -0.4236189
000260 ec 20 6f 3e e0 58 46 3d 2b be 05 3f e8 d7 07 bf
       0.23352402 0.0484246 0.522433 -0.5306382
000270 55 7a bf be 3e 7b b8 bd 65 8f b4 3e 76 31 85 3e
       -0.3739802 -0.090078816 0.3526565 0.26014298
000280 20 05 3c 3e 6e 3a 93 be fd 78 4c 3e 32 2a 33 be
       0.1836133 -0.28755516 0.19968028 -0.17496565
000290 15 78 4c be 0e a4 40 3e b0 8c 7e 3e 65 df b9 be
       -0.19967683 0.18812582 0.24858356 -0.3630325
0002a0 1e cf 90 3e a0 b3 88 be b0 7e 5f bc 5e 67 43 3e
       0.28283018 -0.26699543 -0.0136410445 0.190824
0002b0 79 a9 dc be 9b 69 67 bd 86 68 5e 3e f3 f0 00 be
       -0.43098047 -0.056497198 0.2171956 -0.12591915
0002c0 8d 44 89 3e 33 e8 48 bd bf dc 59 be 4c 25 0c bd
       0.26810113 -0.049049567 -0.21275614 -0.034215257
0002d0 e7 54 b2 3e 05 18 b7 3b c4 02 5d bd 1e 5d d6 bd
       0.348304 0.00558758 -0.053957716 -0.104669794
0002e0 6f af 9c be 56 71 d7 be f8 c0 91 be ac 36 8f bd
       -0.30602595 -0.42078656 -0.28467536 -0.0699285
0002f0 63 65 9a be c4 0a 8b be 28 a6 0f 3e 19 1f 22 be
       -0.30155477 -0.2715665 0.14028227 -0.15832175
000300 09 fb a2 3e 58 64 91 3d 36 bb 5f 3d b4 5a 97 3e
       0.3183215 0.07099217 0.054621898 0.29561388
000310 70 b3 8f bd 3d 0e 45 be b0 71 5a bd 66 87 68 3e
       -0.07016647 -0.19243713 -0.053331077 0.227079
000320 86 91 38 3e 25 d1 2b be 75 2c 84 3d 44 47 83 3e
       0.18024263 -0.16779001 0.06453792 0.2564031
000330 26 28 b3 3e e6 9d 85 bd 44 49 cc bd f8 21 90 3e
       0.34991568 -0.06524257 -0.09974912 0.28150916
000340 3f 1e 86 be 0a ae ab be f8 76 33 bd 05 c1 a9 bd
       -0.2619495 -0.3353122 -0.04381463 -0.08288769
000350 34 29 b2 be 4e 97 8c 3e c6 14 df 3d 0a dd 37 3d
       -0.3479706 0.27459186 0.10892634 0.044888534
000360 ff ae 89 3e d6 b2 b7 bd c2 63 a7 3d 99 6c b3 3e
       0.26891324 -0.08969657 0.08173324 0.3504379
000370 c4 12 35 bc cd 8a 84 be 73 6d a7 3c 5a 64 d6 be
       -0.011051837 -0.25887147 0.020437932 -0.41873437
000380 b4 05 b1 be cd 82 3d be 70 38 1b be fb 83 0b 3e
       -0.34574664 -0.18506928 -0.15158248 0.13624565
000390 6f c7 91 be 6b ea 23 3e c5 b6 92 be 29 79 a2 be
       -0.28472468 0.16007392 -0.28655067 -0.31733063
0003a0 9d 8d 98 3d 98 3a da bd c6 6e f2 3d d4 56 ea 3d
       0.074488856 -0.10655707 0.118375346 0.114423424
0003b0 55 64 34 bf 2c 91 32 3e 92 5a 9b 3e af 90 1d 3e
       -0.70465595 0.17438191 0.30342537 0.15387224
0003c0 f5 b0 8d 3e dc 9c b4 be 17 03 1d be ba 9d b9 3e
       0.2767407 -0.35275924 -0.1533321 0.36253148
0003d0 11 db a5 be 1f 21 57 bd dc 08 9c be ca a2 cd 3e
       -0.32393697 -0.05252182 -0.3047551 0.4016326
0003e0 33 1d 80 be c0 29 a8 3e 7d 27 79 bd b4 e3 16 3e
       -0.25022277 0.32844353 -0.060828675 0.147353
0003f0 6c bd 06 bd 45 45 9a be 74 74 a4 3e d7 86 27 3c
       -0.03289549 -0.30130973 0.32120097 0.010225019

encoder.enc3.bias f4 [19]
000000 98 9e 4d bc 8f d4 e0 3d 72 47 57 bd 18 0c 54 3c
       -0.012550019 0.10978042 -0.05255837 0.0129423365
000010 38 ed a1 3c 53 54 94 bb ba fe 52 3d f4 5b 5d bc
       0.019766435 -0.004526654 0.051512457 -0.013510693
000020 fb e7 3b 3e 6f 29 cf bb 15 c2 d0 3d 31 eb 8c 3c
       0.18350212 -0.006322078 0.10193268 0.017201992
000030 51 3b 40 3d ef fb f4 3c 92 16 8a 3d 6d a7 da 3b
       0.04693157 0.029905288 0.06742586 0.0066727907
000040 d8 dd 9d 3d fa 3c a9 bb db ce 03 3e
       0.07708329 -0.0051647397 0.12871878

encoder.enc4.weight f4 [7, 19]
000000 a6 d4 03 bd 04 77 27 3e 3d ff b9 3d 83 dd 4c 3e
       -0.03218522 0.16353995 0.09081886 0.20006375
000010 2f dd ab bd 6a ec 07 bf 65 a2 fd bd 23 44 9e be
       -0.08391797 -0.53095114 -0.1238449 -0.3091136
000020 99 de 0d bf 67 09 dc 3d e4 5a 38 bf eb 34 d2 3d
       -0.5541778 0.10743981 -0.7201369 0.102639996
000030 73 e5 c5 3d 88 75 86 3d 9c 6a 18 be 68 60 c0 bd
       0.096629046 0.06565386 -0.14884418 -0.09393388
000040 f3 b6 e5 be 14 a0 90 be 1f 71 c0 be 7b 2c 25 bc
       -0.44866142 -0.2824713 -0.37586305 -0.010081406
000050 2f 90 c1 3e 74 ef 22 ba 81 ca c5 3e b2 e3 a6 bd
       0.37805316 -0.0006215491 0.3863106 -0.08148898
000060 01 ee 9f be 10 5a 29 3e 9a 4c 0b be 8f 1a 89 bd
       -0.3123627 0.16538262 -0.1360344 -0.06694519
000070 f0 69 58 bb 7c 35 17 bf 10 94 b2 3e 3e a7 a3 be
       -0.0033022128 -0.59065986 0.34878588 -0.31963533
000080 46 83 1d bd e2 df ce 3e da 40 ed 3d c3 75 c6 3e
       -0.03845527 0.40405184 0.11584635 0.3876172
000090 b3 49 a4 be d6 92 41 3d 30 ef d9 be c1 f8 ae be
       -0.32087478 0.047259174 -0.42565298 -0.3417416
0000a0 fe b8 40 3e b4 a0 bd bd 50 d8 fd bc e9 99 31 be
       0.18820569 -0.09259167 -0.030986935 -0.17343868
0000b0 45 0f b9 3e eb de 9f be a2 7d 25 3f 7f 53 01 bf
       0.36144462 -0.3122476 0.64644825 -0.5051803
0000c0 9d 10 21 3f c7 b8 cc be f1 db 89 3d 30 bb e4 3e
       0.62915975 -0.39984724 0.067314036 0.44674063
0000d0 f9 0d 7f 3e 53 3c d7 be e7 32 37 3e 4c 5f a5 3e
       0.24907674 -0.4203821 0.17890511 0.32299268
0000e0 ed b9 77 3e 50 8c 0e be 6e 1b 2c 3f e9 59 53 3e
       0.24192019 -0.13920712 0.67229354 0.20639767
0000f0 f1 8c 18 3f ba 96 ad bd 62 ea 3f be 95 91 ac be
       0.5959006 -0.084760144 -0.18741754 -0.3370482
000100 a8 75 db be e9 9b 40 bf b2 bd 83 3d b0 23 15 bf
       -0.42863202 -0.752379 0.06432666 -0.5825758
000110 14 9c 6c 3e 2a 5e c6 3c 84 d3 a7 bc ec ea f9 be
       0.23106414 0.024214823 -0.0204866 -0.48812044
000120 79 fa e3 3e ac c9 3c bf 44 3e 66 be 71 c7 37 bf
       0.44527033 -0.73745227 -0.2248469 -0.717887
000130 f0 44 73 bc dc b8 06 3f 3e 14 59 be 1e ec c0 3e
       -0.014847979 0.52625823 -0.21199128 0.37680143
000140 e9 07 88 3e aa 72 80 be 56 3e 13 bd 78 93 b9 be
       0.26568535 -0.25087482 -0.03594812 -0.36245322
000150 5b 9f 4e bf 9a f6 a9 be e9 3a 47 bf e6 fe b8 be
       -0.8071191 -0.33195955 -0.77824265 -0.36131972
000160 7d b7 1d be e1 7e d3 bd 4f 16 39 be 4a 62 6c 3e
       -0.15402026 -0.103269346 -0.18074916 0.2308437
000170 5f 99 17 bf 74 d4 ba 3e 64 bc d5 3d 86 dc 56 bd
       -0.592184 0.36490214 0.10436323 -0.0524564
000180 3d ce 1d bf ba f0 d9 3b df 1f 25 bf db 1c 80 be
       -0.6164282 0.0066510113 -0.64501756 -0.25022015
000190 36 ea ef 3e 8b 6c 5e be f6 8d f2 3e 9d c5 25 3f
       0.46858376 -0.21721093 0.47373933 0.6475466
0001a0 3e 32 ad 3e c0 a0 28 3f c2 46 6d 3e f7 1a e3 3e
       0.33827394 0.65870285 0.23171523 0.4435651
0001b0 7f 14 4a bc 60 96 9c 3e 57 5d 10 bf 61 8d 81 3e
       -0.012333988 0.30583477 -0.56392425 0.25303176
0001c0 cd 68 36 be 10 fc 0d 3f 94 17 72 be fb 40 0a 3f
       -0.17813416 0.5546274 -0.23641807 0.540054
0001d0 90 f7 8f 3e 19 dc 40 be 28 67 9b 3e db 74 24 be
       0.28118563 -0.1883396 0.3035214 -0.16060202
0001e0 5f 76 e0 be e8 bd 42 be af 7c 30 bf 0b 48 03 3f
       -0.4384031 -0.19017756 -0.6894025 0.51281804
0001f0 26 c1 13 bf a6 77 5c 3e bd e7 8f 3e 96 29 44 bd
       -0.57716596 0.21530017 0.2810649 -0.047891222
000200 a9 53 15 bf d2 6c 60 3e 85 ed 98 be 19 4d e5 bd
       -0.5833078 0.21916512 -0.29868713 -0.11196346
000210 ee a0 05 bf
       -0.52198684

encoder.enc4.bias f4 [7]
000000 f8 e8 1a 3c 60 42 85 bc 0d 3d 1e 3d 7e 28 06 bd
       0.009454958 -0.016267002 0.03863244 -0.03275346
000010 29 1d fa bc e3 7c 29 ba f9 de 01 3b
       -0.030531483 -0.0006465448 0.001981674

decoder.dec1.weight f4 [19, 7]
000000 b0 4c aa be 9b 84 80 3c d0 62 0c 3f 09 ce 03 3f
       -0.33261633 0.015688231 0.54838276 0.5148626
000010 90 f8 d3 be cb 67 05 bf f0 6d b7 3b 39 18 33 bf
       -0.41400576 -0.521115 0.0055978224 -0.69958836
000020 98 b8 ed be d5 9e 28 bf be f6 63 be d3 9a 56 3e
       -0.46429896 -0.6586736 -0.22262093 0.20957498
000030 05 2a 13 3f fe 5e 45 3f 52 80 db 3d 66 70 96 be
       0.5748599 0.7709807 0.107178345 -0.29382628
000040 58 8f c2 3e 6a f0 29 bf 74 73 40 3e bf 18 6b bf
       0.37999988 -0.6638247 0.18794042 -0.91834635
000050 89 5f f2 be 16 3b 59 be 78 b6 a3 3e 49 31 0b 3f
       -0.47338513 -0.21213946 0.3197515 0.5437208
000060 aa 8c f9 be 1b 5c c4 be d4 b2 16 bf 08 8e 68 be
       -0.4874013 -0.3835152 -0.5886662 -0.2271043
000070 9a 7a 93 3e f4 81 50 be d3 f3 23 bf 8b c9 e3 3e
       0.28804475 -0.20362073 -0.6404392 0.44489703
000080 4a 3e 3e bf 17 ac 71 be 28 61 0d 3f 6d 0f 2b 3e
       -0.74313796 -0.23600803 0.55226374 0.16705103
000090 de de 88 be d3 56 6d be fe 99 79 3e b1 b7 26 bf
       -0.26732534 -0.23177652 0.2437515 -0.6512404
0000a0 b0 d2 16 bf a7 c6 13 bf 87 ed ca 3c 96 70 0c 3f
       -0.58915234 -0.57724994 0.024771465 0.5485929
0000b0 e9 91 0d 3f f3 6c 3d bd af b1 e4 3e cf 43 3d 3f
       0.55300766 -0.04624648 0.44666812 0.7393159
0000c0 eb 71 ba 3d fe 2e b5 3e ab 8a 87 be 69 2e 75 3e
       0.091037594 0.35387415 -0.26472983 0.23943485
0000d0 68 f0 f1 3e a5 a2 5e bf c3 56 48 bf b0 7a 12 3f
       0.47253728 -0.86966926 -0.7825739 0.57218456
0000e0 4d e2 cb be 2b c2 5f be 15 50 92 3e 59 d2 da be
       -0.3982109 -0.21851413 0.28576723 -0.42738608
0000f0 5b a5 dc bd 9a c4 a8 be 5c c4 eb 3e 0b e3 49 3f
       -0.107737266 -0.32962495 0.46048248 0.78862065
000100 69 f6 23 3f e8 b5 e4 3e e6 00 e7 3d 2c 68 1c be
       0.6404787 0.44670033 0.11279468 -0.15274113
000110 fb 99 48 3f dd 03 3a be c3 20 43 bf 86 d6 44 3f
       0.78359956 -0.18165536 -0.76221865 0.76889837
000120 88 d4 5f be c9 12 1b 3f da 1b 23 3f a2 70 fa bd
       -0.21858418 0.6057554 0.63714373 -0.12228514
000130 97 3b 42 3f 1e 14 0e be 79 15 93 be 4f 68 18 bf
       0.75872177 -0.13874862 -0.2872732 -0.5953416
000140 94 cb 0c 3d 83 fc 1f bf 5a 6e 0e bf f9 79 f2 3d
       0.034373835 -0.6249468 -0.55637133 0.11839671
000150 f5 d2 33 bf 02 b8 3a bf 6e 00 68 3f c8 b2 31 3f
       -0.7024377 -0.72937024 0.90625656 0.69413424
000160 85 f8 a8 bd 9e c0 63 bf e9 84 3a bf 16 4e 0a 3f
       -0.08250526 -0.88965786 -0.72859055 0.540254
000170 30 b6 ca be 10 7f 64 bf 49 e4 43 3e f2 3a a4 be
       -0.39592123 -0.8925638 0.19130053 -0.32076222
000180 47 e8 f0 be d0 64 1b 3f 04 99 1c 3f 97 05 6c 3e
       -0.47052214 0.607007 0.61170983 0.23049007
000190 f8 56 42 3f c0 39 f9 3e 7b c9 38 3e f6 eb 3b 3f
       0.75913954 0.48676872 0.18045609 0.7340692
0001a0 a1 a8 0f bd 96 95 f5 3e ec 93 22 3f 27 5d 9b bc
       -0.035072926 0.47965688 0.6350696 -0.018965317
0001b0 7f ca 1a 3f d4 dd 1f bf d9 66 60 3e 7b c1 33 bf
       0.60465235 -0.6244786 0.21914233 -0.702171
0001c0 b9 34 38 bf 29 dc fe bd 96 84 37 bf 9f f7 ed be
       -0.7195545 -0.12444336 -0.71686685 -0.46477982
0001d0 95 1a 36 bf 36 73 b5 be e2 ac 41 bf 63 34 57 3e
       -0.7113431 -0.3543946 -0.75654423 0.21016078
0001e0 3d dd 3b 3d ee f1 2d bf 1f b5 fc bd df 3c 23 3e
       0.045865286 -0.6794728 -0.123392336 0.15941189
0001f0 9d be 2d 3f ce 0e be bd f6 6b 3a 3e 39 fa 54 3f
       0.6786898 -0.092801675 0.18205246 0.8319431
000200 8e 53 60 3d 2b 39 28 bf 52 a4 7c 3f 27 94 1d bf
       0.054767184 -0.6571223 0.9868823 -0.6155419
000210 1d dc c7 be
       -0.3903512

decoder.dec1.bias f4 [19]
000000 85 20 54 bd 13 2b 14 bd fe ce 1e 3c 03 8a 60 3d
       -0.051788826 -0.03617389 0.0096929055 0.05481912
000010 9a b6 af bd 8d 2a da bc bf 50 61 3c 59 a7 c2 3d
       -0.0857975 -0.026631618 0.0137521615 0.09504575
000020 d6 7c 03 3d 01 e0 46 bd c3 c5 83 bd 6b 8f cd 3c
       0.032101475 -0.04855347 -0.064342044 0.025092801
000030 4f ea fb bb d6 de cc bd ca 4a 33 bc 8b 0d 8d 3b
       -0.007687844 -0.1000344 -0.010943124 0.004304593
000040 bc 8d ea bb f6 ef a2 bc bd e0 0e bd
       -0.0071580093 -0.019889813 -0.034882296

decoder.dec2.weight f4 [39, 19]
000000 00 30 18 3f 77 6e d1 3e 81 9e 68 3e c1 72 f4 3e
       0.5944824 0.4090459 0.22716714 0.477438
000010 39 16 17 bd 46 90 0c 3d ad fb 7c bc 97 0c 6c bd
       -0.036886428 0.034317277 -0.015440864 -0.057629194
000020 51 cd 8e 3e d5 d6 7a be 90 5d b8 3e b5 ca 4a be
       0.2789102 -0.24496014 0.36008883 -0.19803889
000030 15 55 55 be 32 aa ae 3e 37 75 f8 3e 86 9d a4 be
       -0.20833237 0.34114224 0.48526928 -0.3215143
000040 7d 10 f4 bd d7 61 c5 3e ab 2a 1d be b5 56 a8 be
       -0.119172074 0.38551208 -0.15348308 -0.32878652
000050 01 3d 24 be 1c b4 47 3e 56 e5 44 3e 9a 2d c8 be
       -0.16038896 0.195023 0.1922811 -0.3909729
000060 8c b4 ca 3e 5e aa 18 be 74 54 2c be 89 1f 94 be
       0.3959087 -0.1490874 -0.16829091 -0.2893031
000070 97 d0 69 3e 02 c3 88 3e c9 5f ce be 5e b3 26 be
       0.22833477 0.2671128 -0.40307453 -0.1627936
000080 4f 4a c2 bd d9 42 03 be 22 5d 60 3e 8a bb e9 bd
       -0.094868295 -0.12818469 0.21910527 -0.11412723
000090 c7 70 a7 bd 10 b6 9b 3e 43 af c0 3e f1 1e e9 bb
       -0.081758074 0.3041234 0.37633714 -0.007114284
0000a0 02 d8 b9 bd de e5 ac 3e 50 51 02 bf 0a 79 50 bf
       -0.09074403 0.33769125 -0.50905323 -0.8143469
0000b0 dc a5 c3 3d 41 2c 08 3e 22 21 8e be b8 c2 31 be
       0.095531195 0.13298132 -0.27759653 -0.17359436
0000c0 d4 b9 6f 3e af 79 93 3d 95 5b 06 3e d9 74 ac 3d
       0.23410732 0.07200944 0.13120873 0.084207244
0000d0 a7 e7 5b be d7 c8 07 be 7c 24 92 be 0d 38 d5 be
       -0.21475087 -0.13260208 -0.2854346 -0.41644326
0000e0 98 97 b4 3d 61 e1 0d 3e d3 44 f1 be 9d 7f da be
       0.08817977 0.13855506 -0.4712282 -0.42675486
0000f0 7a 61 10 bf 25 bf 7d 3e 0c 5e 11 be c1 d7 ca be
       -0.5639874 0.24779947 -0.14196032 -0.39617732
000100 b4 dc bb be b4 85 ea 3e 42 de 89 3d 87 6b e4 3d
       -0.3669182 0.45805132 0.067318454 0.11153322
000110 c4 42 d2 3d 4c 29 ed bd b9 80 35 be 99 e5 0c bf
       0.10266641 -0.115801424 -0.17724885 -0.5503784
000120 c0 ce 22 be 48 9f 04 bc c8 1b 31 3d 07 51 0e bf
       -0.15899181 -0.008094616 0.043239385 -0.5559239
000130 75 d8 31 3e 15 2e f9 bd d2 f5 c0 be 18 e0 69 bd
       0.17367728 -0.121669926 -0.37687546 -0.057098478
000140 1d 43 8e 3b b8 3e 0f 3f 66 0f a3 3d b5 09 04 be
       0.0043414966 0.55955076 0.079619214 -0.12894328
000150 b7 14 3a 3e 59 a7 cc bd 54 70 94 3d 54 48 8d bd
       0.18171965 -0.099928565 0.072479874 -0.06898561
000160 d6 8a 14 3f 25 ae b8 3d ce d2 b3 be 71 fb ab bd
       0.58024347 0.090175904 -0.3512177 -0.08397568
000170 ab dd a1 3e 5b ff c2 be 59 66 6f be aa 6e d0 be
       0.31614432 -0.38085446 -0.23378886 -0.4070943
000180 59 fb bc be 0a e3 0c bf 27 9d dc be 55 c6 0f 3c
       -0.36910513 -0.55033934 -0.43088648 0.008775313
000190 12 58 0d bf c3 6b be bd f4 86 04 3e e2 ec 0f be
       -0.5521251 -0.09297898 0.12942106 -0.14055207
0001a0 9b d1 14 bd 01 06 b3 be 8c 57 eb 3e c9 05 0c 3e
       -0.036332708 -0.34965518 0.4596523 0.13674082
0001b0 41 61 af 3e 16 3b ae 3e b1 6d 90 3e 6c bb cf 3e
       0.34253886 0.34029454 0.28208688 0.4057268
0001c0 49 15 66 3e fd bb fe be c9 f4 bf be 28 f5 03 be
       0.22469057 -0.497528 -0.37491444 -0.12886488
0001d0 ca 8f d7 be 33 c2 47 3f 48 e8 d0 3e 3b 78 4b 3e
       -0.4210189 0.780307 0.40802217 0.19870083
0001e0 d9 a4 93 be 78 7f eb 3d d9 23 0d 3e b5 9a 99 be
       -0.28836706 0.11498922 0.13783206 -0.30000845
0001f0 dd 5a 8c 3e e0 01 ce 3c 0d 89 bf be be a1 c5 3e
       0.27413073 0.025147378 -0.3740925 0.38599962
000200 1b 4d 0d 3f 4e 9f fe 3e d0 d2 be be 40 dc dc 3d
       0.5519578 0.49730915 -0.37270212 0.10784197
000210 f2 b2 84 bd 39 7e e4 be f0 2e 58 bc 8f db ff 3e
       -0.064794436 -0.4462755 -0.0131947845 0.49972197
000220 36 9d c2 bc 80 1b 9d be 48 bf 0f 3e 28 02 1d 3e
       -0.023756605 -0.30685043 0.14037812 0.15332854
000230 99 03 a2 be 2d 98 ac bd f6 c8 ba be e1 99 8a 3e
       -0.3164337 -0.08427463 -0.36481446 0.27070525
000240 1e 42 ef bd b6 74 fb 3d 73 38 5e 3e 5a bc 85 bd
       -0.11682533 0.1227812 0.21701221 -0.06530066
000250 57 0c 85 bd 68 78 c1 3e 04 97 03 bf 21 80 3e bd
       -0.06496494 0.37787175 -0.51402307 -0.046508912
000260 73 32 dc be 6d cc 7e 3d 8f 27 a7 bf 10 d8 de 3e
       -0.4300724 0.062206674 -1.3058947 0.43524218
000270 3f 94 a3 3e 81 42 58 bf 2d e8 97 be 85 3f 5f be
       0.3194904 -0.84476477 -0.29669324 -0.21801575
000280 b5 46 3c be fc a8 87 bd 47 0b 2c 3e 43 7b 74 be
       -0.18386348 -0.06624028 0.16801177 -0.23875146
000290 d4 c0 35 be 76 7a 1e be 8c a9 2a 3f 61 65 e6 3e
       -0.1774934 -0.15476403 0.6666496 0.4499922
0002a0 56 3e 0e bf 76 12 fd 3e 9d b4 83 3e 40 dd 22 3f
       -0.5556387 0.49428147 0.25723734 0.6361885
0002b0 9e 5b 07 3f 55 86 9c be 0c 84 d4 3a d8 66 1f 3e
       0.5287417 -0.30571237 0.001621367 0.15566576
0002c0 ad 17 c4 bd ec 05 c2 3e 46 51 09 3e d1 56 fb bd
       -0.09574828 0.37895143 0.1340991 -0.12272418
0002d0 ca 02 14 3e 32 f0 4d 3e 0b 73 1e be ef ec ce be
       0.14454189 0.20111158 -0.15473573 -0.4041514
0002e0 ff 99 8b 3c 68 bb aa 3e 44 ad ec 3e 2b 46 44 3e
       0.017041204 0.33346105 0.4622594 0.19167392
0002f0 e5 f4 a0 bd 86 de 99 be ca 1a f7 3a 94 3f e9 be
       -0.0785921 -0.30052584 0.0018852588 -0.4555632
000300 a8 ab 97 be 79 21 a1 be 96 db cc be f1 e5 24 be
       -0.2962315 -0.3147085 -0.4001128 -0.1610334
000310 bc ed b3 3d 13 62 d6 be be fa 81 3d 40 a6 89 3e
       0.087855786 -0.418717 0.063466534 0.2688465
000320 ec fa bc 3e 5b 88 01 3f 46 cf 99 be 96 1d 0d bf
       0.36910188 0.50598687 -0.3004095 -0.5512327
000330 16 28 7e be 3b e4 e4 bb 80 b4 85 3e 73 dc 60 bc
       -0.24819979 -0.006985215 0.26114273 -0.013724434
000340 b1 80 86 3d af 31 78 3d 5c 54 ff bd 13 3b 81 3e
       0.06567515 0.060594257 -0.12467262 0.25240383
000350 8f f4 a9 be 63 cc 65 be 07 65 ad 3e 39 a1 d2 3d
       -0.33194396 -0.22441249 0.3386614 0.10284657
000360 9f 5c cf be 79 c0 4a 3e 76 58 3b bd 61 3a c8 bd
       -0.40500352 0.19799985 -0.04573866 -0.0977676
000370 e3 e6 77 be 8f 8f e3 3e 44 97 22 3e a8 5e 81 bf
       -0.2420917 0.44445464 0.15878016 -1.0107012
000380 3f 59 e7 bd 65 5c a5 bc 96 e3 4e bb a3 49 ef 3e
       -0.11296319 -0.020185659 -0.0031568757 0.46735868
000390 c1 c2 05 bf 07 75 b9 be 34 41 82 3e 86 00 bf be
       -0.52250296 -0.36222097 0.2544037 -0.37305087
0003a0 88 9f 73 be 73 c4 83 be c4 e3 87 be 8d 54 f2 bd
       -0.23791325 -0.25735816 -0.2654096 -0.11832533
0003b0 53 b9 e5 3e 66 b1 0e 3f 7e 1b fd 3c e1 f9 b4 be
       0.44867954 0.5573944 0.030896898 -0.35346892
0003c0 15 45 50 3b d2 39 39 3e 59 09 92 be e2 a0 56 bd
       0.0031779457 0.18088463 -0.28522757 -0.052399524
0003d0 fd d6 d1 bc 23 f2 6c 3e f9 b1 2c be 45 ce 95 bd
       -0.02561521 0.23139243 -0.16864766 -0.073147334
0003e0 98 39 19 be 74 b0 86 be cb 3a 95 3e 52 3e 29 3d
       -0.14963377 -0.26306498 0.29146418 0.0413192
0003f0 c9 89 8d be d0 42 c3 bd 23 db 8c be d1 36 0a 3e
       -0.27644184 -0.09534228 -0.27510938 0.13497473

decoder.dec2.bias f4 [39]
000000 2d 49 8d bd d4 a8 ac bc 4e ef 78 bd 93 a9 a2 bc
       -0.06898723 -0.021076597 -0.060775094 -0.01985625
000010 70 e0 c1 bc 96 6d c0 bb a3 dd a9 3d bd 39 2f 3c
       -0.02366659 -0.0058724387 0.08294227 0.010694918
000020 c7 e0 4a bd 9e a1 9b 3b be e2 89 bc c9 9e 96 bd
       -0.04953077 0.004749491 -0.016831752 -0.073545046
000030 fd 57 83 bb ad 5f 5f bd 59 d0 61 bd d4 37 06 bc
       -0.0040082918 -0.054534603 -0.055130336 -0.008192021
000040 88 6c 54 bd 0b 62 21 bd 44 58 24 bb 63 f1 9f bd
       -0.051861316 -0.03940014 -0.0025077024 -0.07809713
000050 1f 70 c6 bb 53 1e 13 3b 5c 0e b9 bd 41 f9 f4 bc
       -0.0060558463 0.0022448495 -0.09035942 -0.02990401
000060 ce 8b ca 3b d0 c3 dc 3c 69 e8 0f 3c b8 a0 db bd
       0.006181217 0.02694884 0.008783438 -0.10724014
000070 05 e5 71 3b bf 04 11 bd 38 d9 ac bc ca dc 1e 3d
       0.0036910188 -0.035404917 -0.021099672 0.03878478
000080 ce 9b 19 bd 5b 27 b2 bb a2 9f 4b 3d 2d 50 39 bd
       -0.037502103 -0.0054368204 0.049712785 -0.045242477
000090 c9 cf 9f 3b 0c 2d e2 3c 5b 73 cb bd
       0.004877065 0.02760937 -0.09934112

decoder.dec3.weight f4 [58, 39]
000000 1d 96 94 3e f2 b2 aa 3e 84 61 93 3e 87 f3 c0 3e
       0.29020777 0.3333965 0.28785336 0.37685797
000010 99 81 cb bc 05 4e 7b 3e 36 e5 68 be ad bf c6 3d
       -0.02484207 0.24541481 -0.22743687 0.09704528
000020 87 ce 95 3c 70 89 64 3e ce 93 c5 3e 9e 70 4a 3e
       0.018286956 0.22318053 0.3858933 0.19769523
000030 3b 4e a1 bd d4 2d c5 be fc 92 05 bf 5b 07 82 bf
       -0.078762494 -0.38511527 -0.52177405 -1.0158495
000040 95 e9 83 3e 13 69 81 3e 97 64 0b be 30 d8 63 3f
       0.25764146 0.25275478 -0.1361259 0.8900175
000050 fe 64 ac 3d 17 eb 67 be de 4e 97 bd 20 19 d6 bb
       0.084177 -0.22648273 -0.073880896 -0.006533757
000060 d4 05 09 be d7 3a 81 bd d8 2c 56 be 73 ff ff 3d
       -0.1338113 -0.06310051 -0.20915544 0.12499895
000070 fb 19 d4 3d 9d 0c cf 3e 14 9f 03 3e d4 6f ed bd
       0.10356518 0.4043931 0.12853652 -0.11593595
000080 3f 71 95 be 3d a9 81 be 6e 0f f2 be e4 11 60 be
       -0.29187962 -0.2532443 -0.47277397 -0.21881825
000090 e0 a2 49 be 9f d1 c8 3e 63 ce 86 be 19 a1 b2 3e
       -0.19691038 0.39222428 -0.26329336 0.34888533
0000a0 0c c7 20 bf 89 44 2e 3d 78 1a 49 3e b6 b9 cf be
       -0.6280372 0.04254583 0.19639003 -0.40571374
0000b0 e7 72 93 3e 50 bf 85 3e 9e 20 21 3e 3f 89 d9 3e
       0.287986 0.26122522 0.15735099 0.42487523
0000c0 6e 4d b0 3e 93 2f be 3c 88 db 01 bf 55 b4 80 bd
       0.34434074 0.023216045 -0.50725603 -0.062843956
0000d0 0f d6 c6 be f4 58 1c 3d 58 7d 13 3f 39 84 e1 bd
       -0.3883519 0.03817077 0.57613134 -0.110115476
0000e0 b7 17 09 bf f4 57 83 3e 94 6e 3d be 93 f8 0e 3f
       -0.5355181 0.2565304 -0.18499213 0.55848044
0000f0 d2 f0 b4 be 85 5a c7 be 00 c1 6d be 4a a7 a3 be
       -0.3533998 -0.38936248 -0.23218155 -0.3196357
000100 82 ac 27 be 3f 0d b9 3b 24 af 35 bf 52 e3 b2 3e
       -0.163744 0.005647331 -0.7097037 0.34939057
000110 8b 79 a5 3e 63 d5 98 3e c1 35 68 3e 52 0d 14 c0
       0.32319292 0.298503 0.22676755 -2.313313
000120 08 46 8b bd 0e a6 9c 3e 32 91 fa bd 16 8f 06 3d
       -0.06800467 0.3059544 -0.12234725 0.0328513
000130 66 e6 b6 be eb be 37 3f 57 c7 6c be b5 41 e1 3d
       -0.35722655 0.7177569 -0.23122917 0.10998861
000140 63 42 ca bd d9 cc b4 3e 39 01 ba 3d 6a 09 a8 bd
       -0.098759435 0.35312536 0.090822645 -0.082049206
000150 75 f7 3c 3e 65 12 85 be a1 d3 6b bf db 9b 9a be
       0.18453772 -0.25990596 -0.92119795 -0.30197033
000160 b3 91 23 be d0 77 65 bc 3f cd ad 3e 6b 73 b0 be
       -0.15973549 -0.014005616 0.33945653 -0.34463057
000170 13 61 5d 3e b3 69 11 3e 7e 77 61 bd 83 7e 8c be
       0.21619062 0.14200477 -0.055045597 -0.2744027
000180 e3 25 11 3e 28 e6 c4 3c 00 1b 26 be 7c 42 22 be
       0.14174609 0.024035528 -0.16221237 -0.15845674
000190 08 41 20 3e f8 6d 55 3e 1e 4c 82 3e 77 3c 92 3e
       0.15649807 0.20842731 0.25448698 0.28561756
0001a0 0c c2 34 be 11 bd 0a be 0a a4 16 3e 2f 34 dc be
       -0.17652148 -0.13548686 0.14711013 -0.43008563
0001b0 96 22 49 3c 38 8e 9a 3d 59 c1 39 3f 99 8c a2 3e
       0.012276312 0.07546657 0.7256065 0.31747892
0001c0 2b fc dd 3d 59 a2 87 bd 91 cd 0b be 5d 89 97 3e
       0.10839113 -0.06622762 -0.13652636 0.29596987
0001d0 69 e3 a4 3f 30 ac ad 3e fe a2 b7 be 56 4d b4 be
       1.28819 0.3392043 -0.3586654 -0.35215253
0001e0 a8 3e 08 3e 0b d7 16 3e f1 60 17 be 97 d8 95 3d
       0.13305151 0.1473047 -0.14783074 0.07316702
0001f0 21 54 ac be 80 e8 45 bf 02 d7 71 be 73 56 bf be
       -0.33657935 -0.7730789 -0.23617175 -0.37370643
000200 3a 5b 69 be 50 82 2d be 53 71 19 3c 39 0a d8 bd
       -0.22788706 -0.16944242 0.0093653975 -0.10548825
000210 c3 47 2c 3e 57 3c c0 3e 9a 75 d9 bd 27 b6 a1 3e
       0.1682425 0.37546036 -0.10618134 0.31584284
000220 1f e7 18 be 36 3d 91 be 58 70 a4 3e 2d 1a 36 3d
       -0.14931916 -0.28367013 0.3211696 0.044458557
000230 b2 99 f9 bb 2c f4 b2 bd 93 74 5f 3e fb 3f 7d be
       -0.007617199 -0.08737978 0.21821813 -0.24731438
000240 3e 13 ff bc f5 14 4c 3e 05 7c 2a 3f a6 c0 bb 3e
       -0.031137105 0.1992987 0.6659549 0.36670417
000250 e1 32 30 3e c9 03 ba 3e 0d e4 b7 3e a1 78 bb be
       0.17206909 0.36331013 0.35916176 -0.3661547
000260 b1 a4 b1 3e 53 3e 5e 3e bd 36 03 3e 67 34 08 3f
       0.34695962 0.21703462 0.1281385 0.5320496
000270 5c 40 eb bd da 04 58 be 77 45 b1 be 49 97 ac be
       -0.11486885 -0.210956 -0.3462331 -0.3370917
000280 81 6e f3 be 2d 2e c4 be fb 95 5f be de 28 9f bb
       -0.47545245 -0.3831648 -0.21834557 -0.0048571667
000290 ea b6 6c 3e 66 1f 8a 3e 4a f7 9a 3e 7c c7 30 bd
       0.23116651 0.2697708 0.30266792 -0.043158993
0002a0 12 fd de bd 43 94 2a be 14 96 9a be 8b 13 cf be
       -0.10888113 -0.1665812 -0.30192626 -0.40444598
0002b0 a3 c0 61 3e 4c 6b 70 3e 83 2b 27 3e 6f 8a 9f be
       0.22046141 0.2347843 0.16325192 -0.31160304
0002c0 d8 e0 d4 be 6d d3 9e 3e 1f e4 90 be 7b 92 7c 3e
       -0.41577792 0.3102068 -0.28299043 0.24665253
0002d0 4f b3 93 3e f8 75 bb 3d e2 0c 49 be 7b 37 20 bd
       0.2884774 0.0915336 -0.1963382 -0.03911541
0002e0 f3 03 98 3e 3f d7 5e 3e 3b 2f 54 be 0a 24 aa be
       0.29690513 0.21761797 -0.20721142 -0.3323062
0002f0 84 28 80 bd 19 95 8a 3a 74 b4 25 bd 59 af 1b be
       -0.06257728 0.0010572999 -0.040455297 -0.15203609
000300 1f 0f f7 bd 49 c2 0d 3e 94 f2 80 3d ac ab af be
       -0.12063431 0.13843645 0.06296268 -0.34310663
000310 10 c9 48 bd 7a 9b 5c 3e a9 6d 4b 3c 29 c2 c0 be
       -0.049019873 0.21543685 0.012416282 -0.37648132
000320 79 dc 8c be 98 c1 64 3e ca af 0c 3d 6c 71 0a 3e
       -0.27511957 0.22339475 0.034347333 0.1351983
000330 f5 38 59 be f9 c9 1b 3e 2a 13 92 bc a5 17 93 be
       -0.21213134 0.15213765 -0.017831404 -0.28728977
000340 30 fd 4f be d8 ba 78 bd db b0 de 3d f8 70 b5 bc
       -0.20311427 -0.060725063 0.10873576 -0.022148594
000350 75 58 8a be bd e6 2e bd 80 82 bf be 86 39 4c 3e
       -0.27020612 -0.042700518 -0.3740425 0.19943818
000360 67 5f b8 3e 7a 8c 31 be d7 af ab be 2e fb 8d be
       0.36010286 -0.17338744 -0.33532593 -0.27730697
000370 72 76 2e be 12 68 c7 be b9 ed 98 bd 46 bb bc 3e
       -0.17037371 -0.38946587 -0.07467217 0.36861628
000380 dc 9f 1b be 40 2c 4e 3c 24 0c f0 bd 2d a2 3f be
       -0.151977 0.012583792 -0.11721066 -0.18714209
000390 61 43 bd 3e 8f 97 af be c2 c5 28 bd e7 a7 50 be
       0.3696547 -0.34295318 -0.04120422 -0.2037655
0003a0 1b 4e 0f bd cf 22 d0 bd a7 f9 c2 be a1 32 93 bc
       -0.034986597 -0.10162889 -0.38081095 -0.017968478
0003b0 1a 6d 68 3d 34 3b 5a 3e aa f5 d0 3d 15 84 4d 3e
       0.056744672 0.21311647 0.10203107 0.20069917
0003c0 28 61 9c be 19 44 07 3e 23 9c 1f 3e 49 bf a4 3d
       -0.30542874 0.13209571 0.15586905 0.08044297
0003d0 43 75 9c be 60 78 a3 bd 12 ef b8 3e 6b c2 b1 3d
       -0.30558214 -0.07981944 0.36119896 0.086796604
0003e0 27 26 48 be a4 e7 76 be 00 6d a3 3e 6b 40 06 bd
       -0.19545804 -0.24111801 0.31919098 -0.032776278
0003f0 2f d1 9f 3e 4f 85 fb 3e fd c9 3b 3e 39 63 16 3e
       0.31214282 0.49125144 0.18338771 0.14686288

decoder.dec3.bias f4 [58]
000000 2e 05 a3 3c 81 ad db bc 3e 8c ce 3c 8e 07 ea bc
       0.01989993 -0.026816132 0.025213357 -0.028568055
000010 b3 9d bf bc a1 47 5f bc 10 cc 14 bd 03 9d 9f 3c
       -0.023390627 -0.0136279175 -0.03632742 0.019484049
000020 63 8e 96 3c 9d 89 3f bd 07 03 83 bb c1 b0 f9 bc
       0.018378442 -0.046762098 -0.0039981636 -0.03047979
000030 00 96 c0 bc 45 84 fa 3d ab e2 b0 bc 64 26 19 3e
       -0.023509026 0.1223226 -0.021592459 0.14956051
000040 06 4a 83 3c 3c 60 b4 3c e7 fb 0c 3d 9b c6 c8 bc
       0.016026508 0.022018544 0.03441992 -0.024508765
000050 e2 09 f5 bc 23 a1 45 bc c6 11 28 bd 56 7b 59 3c
       -0.029911939 -0.012062344 -0.041032575 0.0132740345
000060 09 28 8d bc 86 39 5e bb a3 7a 60 bd 57 fb a4 bd
       -0.017231004 -0.0033908798 -0.054804455 -0.08055752
000070 a3 95 1d 3c 89 11 ad 3c c2 aa 82 bc 20 d3 22 bc
       0.009618196 0.021126525 -0.015950564 -0.009938031
000080 4b 0b 94 3c 28 ea a4 3c da a0 a8 bb 1b e7 20 3c
       0.018071791 0.020131186 -0.005146128 0.009820725
000090 3e ba cf 3c eb 12 aa 3c d6 01 85 bb ef 90 dd bd
       0.025357362 0.020760974 -0.0040590568 -0.108186595
0000a0 f0 16 77 3d b1 93 7d bc ce 94 ae 3c b0 5f 85 3d
       0.06032461 -0.015477107 0.02131119 0.065123916
0000b0 b8 31 fd bc 70 bc 18 3d 1e bd 53 bc 18 de 9c 3d
       -0.030907497 0.037289083 -0.012923507 0.076595485
0000c0 f6 2a 27 bd 20 b1 98 3d 95 87 02 3d 27 66 62 3d
       -0.040812455 0.07455659 0.031867582 0.0552732
0000d0 1b 7d 2d 3a b7 43 4e bd 54 72 96 3c 4b 84 10 3e
       0.00066180684 -0.050357547 0.018365063 0.14112966
0000e0 c6 73 7a bd cb c5 86 3b
       -0.061145566 0.004112934
