IDS_TA/initial_Models/CADE-m1.0-l1.0.pth (torch, 67890 bytes, 16 tensors)

encoder.enc1.weight f4 [58, 78]
0.037620608 -0.07781555 -0.014130009 0.13329369 0.15489696 0.2804389 0.030826401 -0.116007276
-0.09355981 -0.1681677 0.09726771 -0.003062073 -0.21888979 0.112974934 -0.012065571 0.010308712
-0.057558645 0.19811958 0.14832653 -0.17844102 -0.0030356667 0.108301125 0.04684204 0.1790631
-0.16928065 0.05042203 0.22403975 -0.19759753 -0.045826968 0.17924577 0.16156675 0.41484377
-0.06181657 0.1644034 -0.23837095 -0.17433214 0.021314744 -0.48106784 -0.007908576 -0.04546928
0.119245335 -0.13387443 -0.025416834 -0.05067605 0.07232331 0.021321585 0.21988015 -0.13746214
-0.22709942 0.1435729 0.23114821 -0.031547956 0.18393658 0.040443614 -0.08128556 0.12007641
0.18370746 -0.04305266 -0.09379406 -0.0404802 -0.19425766 0.027374888 -0.06439881 0.2383825
0.18110938 0.18574682 0.1196795 0.012819967 -0.03417709 -0.19519973 -0.11893961 -0.20059219
0.12627773 0.0018565599 -0.0072474736 0.021873549 0.2568687 -0.0066895857 0.4546127 -0.23615713
-0.19775467 -0.3044788 -0.043049596 -0.085368395 -0.20229894 -0.053807564 -0.10555663 0.16825144
0.3426383 -0.46147195 -0.061012298 -0.21620362 0.11223516 0.19426939 0.19249041 0.23316592
0.12551323 -0.32277656 0.19336961 0.033760905 0.3289166 0.044125855 -0.042490873 -0.24857895
-0.081696406 0.4444129 0.21875633 -0.09646802 -0.0046722274 -0.20795831 -0.20958549 0.2149075
-0.16297327 -0.074333556 -0.14356872 0.04981957 0.08733385 -0.20165195 0.009097465 -0.05873505
-0.19587697 -0.051282674 0.17198461 -0.1313884 -0.40432942 0.024057968 -0.5179815 0.039663743
-0.0033278752 -0.20368494 0.13136578 -0.21073246 0.097615175 -0.05007838 0.11428277 0.19733824
-0.17594196 0.1579853 0.97057796 0.15761875 0.21343364 0.30548435 -0.08288163 -0.019334054
0.2043918 -0.000377725 -0.03342244 0.002843919 0.11606874 -0.038714807 -0.1089958 0.40539822
0.044984043 -0.14156356 0.08907834 -0.19163655 0.2873985 -0.088220954 0.25142118 0.10320896
0.046981897 -0.022918256 0.13814948 0.05039496 0.04998775 -0.07990705 0.114590995 -0.09598579
-0.055762067 0.024601795 0.14609697 0.09077218 -0.035480276 0.17783755 -0.04729094 0.21319279
-0.30636474 0.12758917 -0.23475665 0.1594563 0.1772178 0.17587936 -0.03492001 0.011379756
0.0062970896 -0.07261683 0.1679737 0.2020895 0.17040478 -0.11296248 0.19394033 -0.18978181
-0.2789467 -0.028351063 0.057349853 0.11501881 0.18412331 0.15165077 0.0063893753 0.049687058
0.057413083 -0.12548575 0.26999718 0.074244745 0.04707716 0.10838828 0.12833731 0.017418101
0.05267174 -0.04392092 -0.15466158 -0.05338167 -0.12948784 0.47880653 -0.050320525 0.28603634
-0.1731898 0.13901086 0.02434675 -0.12819849 0.025067624 -0.15245768 -0.17117849 0.013580066
0.035835095 0.10788566 0.12030999 -0.30160925 0.21590339 -0.28187883 -0.007765496 0.005444418
-0.085395396 -0.04487585 -0.23060952 0.09032349 0.0007773008 0.26786056 0.11743365 -0.041936252
-0.15257746 0.03387612 -0.011753519 -0.059945475 0.14932814 0.23305273 -0.14195882 0.013780576
0.021892758 -0.028544234 -0.030294025 0.099922895 0.07927359 -0.24952184 -0.35025358 0.03900833
00000000: 1118 1a3d c25d 9fbd 8e81 67bc 247e 083e
00000010: 4f9d 1e3e b095 8f3e a687 fc3c 3995 edbd
00000020: 499c bfbd 2734 2cbe 4b34 c73d 0fad 48bb
00000030: a524 60be 675f e73d acae 45bc dfe5 283c
00000040: 9dc2 6bbd dcdf 4a3e e9e2 173e 3eb9 36be
00000050: 09f2 46bb fbcc dd3d 70dd 3f3d 515c 373e
00000060: e857 2dbe 5587 4e3d ad6a 653e 0257 4abe
00000070: 0fb5 3bbd 348c 373e c171 253e 6766 d43e
00000080: 5f33 7dbd 5d59 283e 8417 74be 2084 32be
00000090: 429c ae3c 864e f6be f992 01bc ff3d 3abd
000000a0: e636 f43d 6116 09be f736 d0bc b191 4fbd
000000b0: 3e1e 943d 9baa ae3c 4328 613e e0c2 0cbe
000000c0: c08c 68be c604 133e 1eb2 6c3e 6e38 01bd
000000d0: df59 3c3e 34a8 253d 0b79 a6bd 9fea f53d
000000e0: cf1d 3c3e fc57 30bd 1a17 c0bd 91ce 25bd
000000f0: 7beb 46be 4d41 e03c 86e3 83bd 8b1a 743e
00000100: bd74 393e 6a34 3e3e 871a f53d d70a 523c
00000110: 47fd 0bbd 70e2 47be 9c96 f3bd 0a68 4dbe
00000120: f34e 013e d057 f33a 377c edbb 2830 b33c
00000130: 4b84 833e 5034 dbbb ffc2 e83e 2dd3 71be
00000140: 3380 4abe a5e4 9bbe c654 30bd a0d5 aebd
00000150: 7427 4fbe 5265 5cbd 132e d8bd 1b4a 2c3e
00000160: 4a6e af3e 0d46 ecbe 08e8 79bd 7b64 5dbe
00000170: 8cdb e53d 8eee 463e 351c 453e 0cc3 6e3e
00000180: 8a86 003e f842 a5be af02 463e e048 0a3d
00000190: c267 a83e 50bd 343d e90a 2ebd 7b8b 7ebe
000001a0: 7250 a7bd 168a e33e a901 603e 0691 c5bd
000001b0: 7c19 99bb 06f3 54be 949d 56be b610 5c3e
000001c0: 77e2 26be 313c 98bd ae03 13be 9b0f 4c3d
000001d0: 17dc b23d d97d 4ebe 890d 153c 2a94 70bd
000001e0: f993 48be c80d 52bd bc1c 303e ae8a 06be
000001f0: 4404 cfbe 3715 c53c 709a 04bf 7376 223d
00000200: 7b18 5abb c992 50be c084 063e 40ca 57be
00000210: 77ea c73d fd1e 4dbd 160d ea3d 0913 4a3e
00000220: 212a 34be e6c6 213e cc77 783f cf66 213e
00000230: 598e 5a3e 7268 9c3e d8bd a9bd 7362 9ebc
00000240: 164c 513e 6409 c6b9 f8e5 08bd 0b61 3a3b
00000250: 73b5 ed3d 6b93 1ebd 3139 dfbd 5b90 cf3e
00000260: 3041 383d 0af6 10be b46e b63d 5f3c 44be
00000270: e525 933e 30ad b4bd 47ba 803e 385f d33d
00000280: 1770 403d 11bf bbbc 0f77 0d3e f26a 4e3d
00000290: f4bf 4c3d 4fa6 a3bd afae ea3d 3394 c4bd
000002a0: c466 64bd b489 c93c 729a 153e c4e6 b93d
000002b0: c453 11bd 0c1b 363e 25b4 41bd 364f 5a3e
000002c0: d7db 9cbe bca6 023e 0c64 70be 8348 233e
000002d0: 9578 353e b819 343e 4908 0fbd 2872 3a3c
000002e0: d157 ce3b 22b8 94bd 4c01 2c3e 8df0 4e3e
000002f0: 977e 2e3e df58 e7bd 4b98 463e 2a56 42be
00000300: 1ad2 8ebe 7d40 e8bc aee7 6a3d fb8e eb3d
00000310: d28a 3c3e 574a 1b3e f75d d13b a884 4b3d
00000320: fb29 6b3d 567f 00be 123d 8a3e a10d 983d
00000330: fbd3 403d adfa dd3d db6a 033e 68b0 8e3c
00000340: 53be 573d 6ce6 33bd 9b5f 1ebe bda6 5abd
00000350: 7698 04be 2126 f53e e51c 4ebd 5b73 923e
00000360: ab58 31be dd58 0e3e d672 c73c 7746 03be
00000370: 9e5a cd3c de1d 1cbe 6a49 2fbe ed7e 5e3c
00000380: d2c7 123d 28f3 dc3d 1665 f63d 876c 9abe
00000390: c715 5d3e 6c52 90be b475 febb 1767 b23b
000003a0: c8e3 aebd bdcf 37bd e724 6cbe 86fb b83d
000003b0: c6c3 4b3a 0525 893e 0e81 f03d 59c5 2bbd
000003c0: 443d 1cbe b0c1 0a3d d591 40bc 6389 75bd
000003d0: 7ae9 183e 60a5 6e3e a75d 11be edc7 613c
000003e0: 7158 b33c 99d5 e9bc 2d2b f8bc 60a4 cc3d
000003f0: 315a a23d a782 7fbe 7054 b3be 33c7 1f3d

encoder.enc1.bias f4 [58]
8.63319e-05 -0.04880037 0.04159028 -0.004566572 -0.0010961108 0.043667067 -0.03176416 -0.013629028
0.017007606 0.0063451645 -0.0038012795 0.037265714 -0.0013566999 0.06264197 0.001257575 -0.013868189
0.008866538 0.0073341955 -0.029326934 0.0032259624 0.020589642 -0.048541963 -0.04741523 -0.010120689
0.022696747 -0.03077825 -0.016230593 -0.0024415653 0.017219916 0.04691839 0.0069312803 0.038273755
0.076270245 0.03230581 0.015103553 -0.030729638 0.030394545 -0.0059149144 0.03492834 0.012717116
0.056502484 0.05142363 -0.012572015 0.0007819555 0.0047271987 -0.044549346 0.04439519 -0.000375014
0.0800455 0.015059603 0.02382493 0.012006962 0.036713317 0.028117262 0.02426247 0.027154133
0.0001837711 -0.0246164
00000000: 160d b538 e6e2 47bd 925a 2a3d 2fa3 95bb
00000010: 60ab 8fba 3ddc 323d 231b 02bd 494c 5fbc
00000020: 8953 8b3c 19eb cf3b e31e 79bb efa3 183d
00000030: 4bd3 b1ba 6f4a 803d 37d5 a43a 6737 63bc
00000040: f544 113c b153 f03b 0a3f f0bc ab6a 533b
00000050: 9cab a83c f0d3 46bd 7936 42bd 3fd1 25bc
00000060: 87ee b93c ab22 fcbc 05f6 84bc ab02 20bb
00000070: c810 8d3c 7f2d 403d cb1f e33b f1c4 1c3d
00000080: 9333 9c3d 1953 043d e574 773c b9bc fbbc
00000090: fbfd f83c e6d1 c1bb 0511 0f3d 735b 503c
000000a0: 266f 673d 96a1 523d dafa 4dbc 25fc 4c3a
000000b0: 9ee6 9a3b 6079 36bd bbd7 353d 879d c4b9
000000c0: e5ee a33d 8ebc 763c 802c c33c d9b8 443c
000000d0: b460 163d 2c56 e63c 16c2 c63c 5872 de3c
000000e0: aeb2 4039 55a8 c9bc

encoder.enc2.weight f4 [39, 58]
0.22521326 0.23543872 -0.21976146 0.19376299 0.050818842 0.25632694 0.062168278 0.14729758
-0.017829964 -0.11027814 -0.33942124 -0.22140373 0.27499598 0.25239977 0.31652233 0.196879
-0.19092739 -0.21051458 0.07258916 -0.27636668 -0.013121025 0.06592918 -0.10752145 0.04312096
0.058542296 -0.15915817 0.023559676 0.07008688 -0.15515874 0.32975197 0.2772932 -0.35079744
-0.025376331 -0.017016672 0.0071291155 -0.055600245 0.100157425 0.109603584 -0.21097395 0.0496922
0.0042858687 0.05518838 -0.0363688 -0.089509666 0.14321627 0.21385778 0.05650502 -0.292146
0.068381 -0.24574727 0.11660026 0.27978805 -0.14288826 -0.08502001 0.28324902 0.11092812
0.22592425 -0.1407704 -0.0612774 -0.088341966 0.01760038 0.11615713 0.44915715 0.34399313
-0.06411879 0.21898504 -0.07091047 -0.17524797 -0.0182912 0.28547257 0.23812039 -0.26301682
-0.051035583 0.2776056 0.12834969 -0.027546024 -0.24291736 0.21718031 0.2435791 0.21536681
0.09062115 -0.1486575 -0.2838572 0.28340104 0.2571942 0.035876326 0.30795813 0.13350925
-0.20556547 0.10347696 -0.03693649 -0.12499706 -0.046842575 -0.03435132 -0.052669905 0.17641175
-0.47126162 -0.27066007 0.13518326 -0.2350606 -0.14854532 -0.2707696 -0.13427396 -0.29491135
-0.075364225 -0.22977483 0.2801939 -0.35904425 0.3080886 0.27802008 -0.059185017 -0.058018334
-0.18047707 -0.10070997 -0.2763821 0.039235655 0.2784328 -0.18695632 -0.27157828 -0.030256333
-0.44521347 -0.13520674 -0.26595718 -0.21868014 0.22115006 0.27304322 0.09083797 0.0753164
0.2676748 0.16112074 -0.052727807 0.079992786 -0.08964136 0.11932252 0.06784214 0.07988807
-0.28289032 -0.09016848 0.16497263 0.1064598 -0.004568466 -0.14231575 0.0141268475 -0.08489392
-0.15331969 -0.48635742 -0.0010002763 -0.15272963 0.123104356 -0.1385582 -0.054067165 0.2272942
-0.16594866 -0.18305254 0.45168084 0.034522645 -0.01762978 0.2728854 -0.25702372 0.11959214
0.06615233 -0.10578315 0.01166748 -0.016178587 -0.0730727 -0.03705628 -0.18392655 0.27533305
0.12789467 0.043734554 0.14125521 -0.043441225 0.18421033 0.040820412 0.22093078 -0.38713688
0.0030251124 -0.20844994 -0.51937085 -0.19522858 -0.2207262 0.11629497 0.75139785 0.07632387
-0.28427324 0.1255661 0.27869466 0.10698449 -0.30483386 -0.07678844 0.29923373 -0.13859071
-0.24218127 0.31820023 0.24100558 -0.028199172 0.3154967 -0.26239955 0.20428003 -0.30936146
-0.29991448 0.24466012 -0.23923941 -0.5532854 0.088656455 0.36872944 0.018570751 -0.4884134
0.16325021 0.24592683 -0.33467665 -0.34221023 0.47881034 0.05840666 -0.27725166 0.014965774
0.049139958 0.0566044 0.21690103 0.14600414 -0.032702025 0.2361282 -0.4994682 0.060828958
-0.023440538 -0.19576752 0.0139563 -0.028280087 -0.31867433 0.105410144 0.21904832 -0.22609986
-0.032249466 -0.0734332 -0.17483191 0.14485349 -0.30794245 0.31514323 -0.26294973 -0.02902861
-0.22739342 -0.20706047 0.24648738 -0.05745196 0.14766262 -0.1074548 0.004713848 -0.16295666
0.27641568 -0.3109755 -0.015734872 0.27959242 -0.22504638 -0.05023024 0.057902955 0.31520218
00000000: 4e9e 663e d916 713e 2609 61be ce69 463e
00000010: 6b27 503d 493d 833e 2aa4 7e3d 2dd5 163e
00000020: 2510 92bc 81d9 e1bd 9fc8 adbe a9b7 62be
00000030: 46cc 8c3e 8b3a 813e 370f a23e a69a 493e
00000040: 7882 43be 2291 57be a0a9 943d ef7f 8dbe
00000050: 91f9 56bc e105 873d 3534 dcbd 9b9f 303d
00000060: 0cca 6f3d 5cfa 22be 3900 c13c b689 8f3d
00000070: efe1 1ebe 40d5 a83e 60f9 8d3e b99b b3be
00000080: 06e2 cfbc 8c66 8bbc 5b9b e93b 15bd 63bd
00000090: 561f cd3d d877 e03d 8e09 58be 0c8a 4b3d
000000a0: 7970 8c3b 360d 623d 73f7 14bd d850 b7bd
000000b0: 49a7 123e 89fd 5a3e cf71 673d 2994 95be
000000c0: 560b 8c3d 2ca5 7bbe 1ecc ee3d 6140 8f3e
000000d0: 4d51 12be f91e aebd 0406 913e 482e e33d
000000e0: b058 673e 1e26 10be 03fe 7abd a2ec b4bd
000000f0: ac2e 903c cae3 ed3d edf7 e53e de1f b03e
00000100: b650 83bd 9d3d 603e 8239 91bd 3474 33be
00000110: 6dd7 95bc 7629 923e d5d5 733e 24aa 86be
00000120: b00a 51bd 5222 8e3e 1a6e 033e 33a8 e1bc
00000130: 54bf 78be 8464 5e3e cd6c 793e 1e89 5c3e
00000140: 9597 b93d ac39 18be bb55 91be f119 913e
00000150: f5ae 833e 0ef3 123d b0ac 9d3e a6b6 083e
00000160: c17f 52be baeb d33d b84a 17bd 75fe ffbd
00000170: 00de 3fbd f8b3 0cbd 66bc 57bd 48a5 343e
00000180: 3449 f1be f593 8abe 7b6d 0a3e bab3 70be
00000190: 441c 18be 50a2 8abe 1d7f 09be 9ffe 96be
000001a0: 8f58 9abd 184a 6bbe 9375 8f3e a6d4 b7be
000001b0: cabd 9d3e a658 8e3e fd6b 72bd a2a4 6dbd
000001c0: fbce 38be 0741 cebd f481 8dbe 91b5 203d
000001d0: be8e 8e3e 7a71 3fbe 4f0c 8bbe 21dc f7bc
000001e0: 05f3 e3be a373 0abe 8a2b 88be b0ed 5fbe
000001f0: 2975 623e 52cc 8b3e 4209 ba3d 7c3f 9a3d
00000200: ac0c 893e d6fc 243e 1df9 57bd 42d3 a33d
00000210: e495 b7bd 5e5f f43d d2f0 8a3d 5b9c a33d
00000220: 00d7 90be 41aa b8bd 96ee 283e 9807 da3d
00000230: 12b3 95bb 38bb 11be 4b74 673c dddc adbd
00000240: d6ff 1cbe d703 f9be b41b 83ba 2865 1cbe
00000250: 231e fc3d 33e2 0dbe 8875 5dbd d0bf 683e
00000260: 72ee 29be 2072 3bbe b642 e73e 9e67 0d3d
00000270: 546c 90bc a3b7 8b3e 9d98 83be b9ec f43d
00000280: df7a 873d d6a4 d8bd f528 3f3c f588 84bc
00000290: 24a7 95bd 53c8 17bd 3e57 3cbe 74f8 8c3e
000002a0: d2f6 023e 0123 333d 35a5 103e 6def 31bd
000002b0: a2a1 3c3e 4e33 273d ae3b 623e ce36 c6be
000002c0: f740 463b e773 55be 7df5 04bf 00ea 47be
000002d0: 0d06 62be 0f2c ee3d 9c5b 403f b04f 9c3d
000002e0: 438c 91be 6694 003e 11b1 8e3e af1a db3d
000002f0: 2f13 9cbe 4243 9dbd 2a35 993e b9ea 0dbe
00000300: 5efe 77be 24eb a23e 2bca 763e f301 e7bc
00000310: c988 a13e 3c59 86be c92e 513e a064 9ebe
00000320: 648e 99be 2f88 7a3e 2dfb 74be 1da4 0dbf
00000330: 8491 b53d 1bca bc3e b021 983c 5211 fabe
00000340: 102b 273e 3ed4 7b3e bd5a abbe 2e36 afbe
00000350: a126 f53e d23b 6f3d eef3 8dbe 0133 753c
00000360: fb46 493d 04da 673d 4e1b 5e3e 1c82 153e
00000370: 8ff2 05bd 97cb 713e 4cba ffbe c927 793d
00000380: 5f06 c0bc 4877 48be f7a8 643c a4ab e7bc
00000390: 4829 a3be 46e1 d73d 344e 603e b986 67be
000003a0: 0418 04bd 2564 96bd 2307 33be 7954 143e
000003b0: a2aa 9dbe 745a a13e 59a1 86be 68cd edbc
000003c0: d2d9 68be a907 54be 3067 7c3e bf52 6bbd
000003d0: df34 173e 4311 dcbd 9f76 9a3b 1cde 26be
000003e0: 5b86 8d3e 2e38 9fbe 6be6 80bc bd26 8f3e
000003f0: 8f72 66be 39be 4dbd a62b 6d3d 2e62 a13e

encoder.enc2.bias f4 [39]
0.032727942 -0.00057357346 -0.011660915 -0.0070130276 0.004705418 0.0005786294 -0.016522534 0.009404251
0.017170109 0.009661924 0.033496667 -0.009377632 -0.030511213 0.02281513 -0.0025373464 -0.035314593
0.023691218 -0.02254531 0.006237039 -0.025652405 -0.01927973 0.014287282 -0.08899066 -0.0069816005
-0.05347501 0.020589946 0.014152606 -0.0035856103 -0.010204794 0.090326324 -0.023818342 -0.033665482
0.014420845 -0.035169866 0.011102544 -0.042508233 -0.015015155 0.024024313 -0.023642814
00000000: bc0d 063d dd5b 16ba 6c0d 3fbc 8acd e5bb
00000010: e82f 9a3b 29af 173a 445a 87bc 4a14 1a3c
00000020: 54a8 8c3c 0c4d 1e3c cd33 093d a4a4 19bc
00000030: a7f2 f9bc cce6 ba3c 9c49 26bb 09a6 10bd
00000040: 1614 c23c f1b0 b8bc 1360 cc3b fe24 d2bc
00000050: 86f0 9dbc 3415 6a3c bc40 b6bd e9c5 e4bb
00000060: 9d08 5bbd 3fac a83c 55e0 673c 8ffc 6abb
00000070: 0232 27bc 02fd b83d af1e c3bc d1e4 09bd
00000080: 6845 6c3c 470e 10bd 72e7 353c 1d1d 2ebd
00000090: 2002 76bc a3ce c43c 93ae c1bc

encoder.enc3.weight f4 [19, 39]
-0.10460445 -0.13376097 0.3190158 -0.17311609 -0.13923213 -0.123655856 0.31248137 -0.2740984
0.385686 -0.011247512 -0.23494987 0.150314 0.3112644 -0.11030541 0.23607694 -0.20764878
-0.18389474 0.23583804 0.19749787 -0.2987312 -0.26562247 -0.3197499 -0.089508526 -0.007487499
0.10501988 0.11651065 -0.26643842 -0.008113131 -0.26284176 0.02562606 0.1118523 -0.5352818
0.38069558 0.1309144 -0.38159177 -0.35971695 0.36461914 0.030576138 -0.31630144 -0.19835097
-0.3546287 0.10973074 -0.20570551 0.37061527 0.101573214 -0.21423334 0.27397642 -0.08471195
-0.26120925 -0.31860787 -0.17974737 0.15565416 0.08912318 -0.12925425 -0.13615528 -0.10840241
-0.26505813 0.36281914 -0.34827125 -0.045445427 0.044423778 0.0017547241 -0.017141664 -0.3112028
-0.1790296 -0.21802063 0.34782183 -0.12870842 -0.28161335 -0.28222206 -0.2851056 -0.080536366
-0.16536179 -0.2920839 -0.1448171 0.30466163 -0.35805446 -0.039010525 0.30851194 0.15292326
-0.019909998 0.07143085 -0.11431267 -0.17082097 -0.19908741 -0.22461708 0.22395882 0.11495019
-0.24493726 -0.1051442 0.013632921 0.091269724 -0.034493204 0.062534675 -0.11786446 0.08413259
0.15254122 0.0713721 -0.020541646 0.19787773 0.1848551 0.0047688712 0.12143786 0.20801748
-0.08522965 0.04859407 0.0292009 0.084047996 0.016266702 -0.15189312 0.26318917 -0.098542534
-0.1504459 -0.0062199687 0.13134672 -0.21395385 -0.062113572 0.18714033 -0.29163334 0.45584333
0.44992408 0.13247429 -0.016976334 0.27717978 -0.108071506 0.044353418 0.28894314 -0.80843186
-1.0831554 0.3515103 0.3005987 -0.3377118 0.08450347 -0.086929366 -0.34529176 0.16438423
-1.0237463 0.309986 0.047930457 -1.0004969 0.3427002 -1.1213114 -0.044905614 0.19898142
-0.048742805 0.42248565 0.26939654 -0.27168676 0.10880259 0.29072922 -1.6031753 0.5995911
0.036150724 0.13271755 -0.51833785 0.14152125 -0.1971373 -0.037078485 -0.0770588 -0.09243364
0.0015028219 -0.04144987 -0.04818357 0.052855458 0.081576176 -0.15667781 -0.1129817 0.0054252427
0.13034579 0.071339875 0.28396535 0.22161259 0.068425745 -0.16269371 0.12912902 -0.002804618
0.0287501 -0.19286966 0.099239826 -0.029983398 -0.018147506 -0.33159116 -0.038191084 -0.033381414
-0.14222744 -0.010111761 -0.21972908 0.11690144 0.12154217 -0.10992266 -0.06180121 0.12895322
-0.27333617 0.26443428 -0.13425185 -0.18191141 -0.21685453 -0.055635326 0.082238525 0.1352782
-0.35182565 0.06356664 0.34285834 0.04026451 0.028607616 -0.31762123 0.17455605 0.025782399
0.3262582 -0.18958153 0.30918276 -0.1973546 -0.48943806 0.032327652 0.023834374 0.078623906
-0.06782683 0.3256426 -0.35636258 0.069405496 0.10301617 0.024336176 -0.5045581 0.16272107
-0.42098865 -0.12385746 -0.028655985 0.035564087 0.24380825 -0.16935502 0.10750839 -0.29502395
0.1925702 -0.1301633 -0.059469838 -0.23876967 -0.010354752 -0.18427883 -0.36570615 0.18567921
0.08751361 -0.27234936 0.3724785 0.087888 0.16982204 -0.20592304 -0.34616002 -0.23594192
-0.27591768 0.35298258 0.30682883 -0.05926519 -0.44691548 0.040811844 0.08706561 0.20483895
00000000: dc3a d6bd a3f8 08be 0a56 a33e 5845 31be
00000010: de92 0ebe 483f fdbd 8ffd 9f3e a056 8cbe
00000020: a378 c53e 7c47 38bc b396 70be eaeb 193e
00000030: 0c5e 9f3e cee7 e1bd 27be 713e e2a1 54be
00000040: e74e 3cbe 877f 713e e23c 4a3e 4cf3 98be
00000050: abff 87be 42b6 a3be 3f50 b7bd b259 f5bb
00000060: aa14 d73d 239d ee3d 9e6a 88be f0ec 04bc
00000070: 3293 86be beed d13c d212 e53d 3a08 09bf
00000080: 88ea c23e 6d0e 063e ff5f c3be d22c b8be
00000090: 5caf ba3e cf7a fa3c 43f2 a1be 841c 4bbe
000000a0: e591 b5be 83ba e03d 77a4 52be 49c1 bd3e
000000b0: 9e05 d03d fc5f 5bbe a346 8c3e 757d adbd
000000c0: 38bd 85be 9220 a3be b20f 38be ce63 1f3e
000000d0: 3786 b63d 3a5b 04be 4a6c 0bbe 1502 debd
000000e0: b3b5 87be 6ec3 b93e 9c50 b2be fc24 3abd
000000f0: b5f5 353d c5fe e53a ad6c 8cbc f955 9fbe
00000100: 8953 37be cd40 5fbe b415 b23e 24cc 03be
00000110: a02f 90be 697f 90be 5cf9 91be 40f0 a4bd
00000120: 9a54 29be 058c 95be ef4a 14be 9cfc 9b3e
00000130: ea52 b7be 80c9 1fbd 47f5 9d3e ea97 1c3e
00000140: 4b1a a3bc 564a 923d c31c eabd b1eb 2ebe
00000150: 92dd 4bbe 0502 66be 7655 653e 016b eb3d
00000160: d5d0 7abe d855 d7bd 9d5c 5f3c 9feb ba3d
00000170: bf48 0dbd 2e12 803d ec62 f1bd b54d ac3d
00000180: c433 1c3e 892b 923d f446 a8bc 76a0 4a3e
00000190: a84a 3d3e 3144 9c3b 6ab4 f83d 8902 553e
000001a0: e28c aebd 930a 473d ba36 ef3c 5b21 ac3d
000001b0: bf41 853c df89 1bbe bbc0 863e abd0 c9bd
000001c0: 7d0e 1abe e1d0 cbbb c17f 063e b816 5bbe
000001d0: cd6a 7ebd b7a1 3f3e f750 95be 4c64 e93e
000001e0: 735c e63e 57a7 073e f411 8bbc 82ea 8d3e
000001f0: 9854 ddbd eeab 353d 5bf0 933e 64f5 4ebf
00000200: d6a4 8abf 28f9 b33e 13e8 993e 90e8 acbe
00000210: 2810 ad3d 0608 b2bd 15ca b0be 5754 283e
00000220: 1e0a 83bf 7cb6 9e3e ba52 443d 4810 80bf
00000230: 6776 af3e 2287 8fbf f3ee 37bd c9c1 4b3e
00000240: 89a6 47bd 0a50 d83e 58ee 893e 871a 8bbe
00000250: e4d3 de3d 76da 943e d934 cdbf cd7e 193f
00000260: c812 143d 1ce7 073e cab1 04bf f2ea 103e
00000270: 5cde 49be 9cdf 17bd 01d1 9dbd d94d bdbd
00000280: 56fa c43a 57c7 29bd 235c 45bd f77e 583d
00000290: 6911 a73d 2670 20be f362 e7bd 3cc6 b13b
000002a0: 5e79 053e a41a 923d e863 913e 69ee 623e
000002b0: cc22 8c3d 2e99 26be 663a 043e afcd 37bb
000002c0: 5485 eb3c a07f 45be 403e cb3d be9f f5bc
000002d0: 14aa 94bc 51c6 a9be 416e 1cbd f3ba 08bd
000002e0: 12a4 11be cdab 25bc a900 61be 066a ef3d
000002f0: 1aeb f83d 221f e1bd 4423 7dbd 500c 043e
00000300: b8f2 8bbe ee63 873e 5179 09be fc46 3abe
00000310: 1d0f 5ebe dee1 63bd ac6c a83d 5e86 0a3e
00000320: 7e22 b4be 3a2f 823d 218b af3e 66ec 243d
00000330: 855a ea3c 409f a2be d2be 323e 9c35 d33c
00000340: 510b a73e a921 42be 344d 9e3e 5317 4abe
00000350: a097 fabe 006a 043d 4e40 c33c 9205 a13d
00000360: cbe8 8abd a0ba a63e 2875 b6be 7824 8e3d
00000370: 24fa d23d a95c c73c b82a 01bf 5aa0 263e
00000380: d38b d7be fba8 fdbd f5bf eabc a6ab 113d
00000390: dfa8 793e 676b 2dbe 5c2d dc3d 610d 97be
000003a0: 1f31 453e 8749 05be a596 73bd 0980 74be
000003b0: faa6 29bc 97b3 3cbe d63d bbbe b122 3e3e
000003c0: 563a b33d 6071 8bbe 80b5 be3e a0fe b33d
000003d0: d4e5 2d3e 7ddd 52be e33b b1be c29a 71be
000003e0: 1545 8dbe 22ba b43e ab18 9d3e 0ec0 72bd
000003f0: 1bd2 e4be 522a 273d 744f b23d 4dc1 513e

encoder.enc3.bias f4 [19]
-0.016681861 -0.009430165 0.004148627 0.0018987671 0.039360452 0.001694549 -0.0071625705 -0.04814874
-0.011561202 -0.00296968 -0.017505161 -0.038268477 0.050860595 0.023244929 0.017369805 0.008788776
0.019808792 0.014445789 0.006759319
00000000: 66a8 88bc fb80 1abc 35f1 873b 0de0 f83a
00000010: 6d38 213d a11b de3a ffb3 eabb 9d37 45bd
00000020: 326b 3dbc f69e 42bb fc66 8fbc 68bf 1cbd
00000030: 3353 503d 266c be3c 1f4b 8e3c ccfe 0f3c
00000040: 0c46 a23c 08ae 6c3c 477d dd3b

encoder.enc4.weight f4 [7, 19]
0.15730682 -0.48474282 -0.17886928 -0.80782723 -0.041291695 -0.079797626 -0.00941794 -0.07563136
0.017708851 -0.7221951 0.08065389 -0.39401457 -0.93363947 -0.23194009 -0.32946014 -0.26953986
0.28045475 0.1663545 -0.06426573 0.42425114 -0.071248636 0.24636477 -0.60461676 -0.25515038
0.095958926 0.20094217 -0.3203385 0.19054453 -0.58825976 -0.2677246 -0.21691677 -1.0383558
0.29081962 0.2489448 -1.0255227 -0.25902554 0.2349895 0.4254849 0.2292283 0.35076788
0.019167697 0.5260022 -0.25020045 -0.059471395 -0.08919837 0.08669662 -0.14226224 -0.045492716
0.14055663 0.2889031 0.39043605 -0.020414405 0.049071826 -0.26670888 -0.4816243 -0.2868357
0.29989505 0.10183685 0.15436625 0.14056508 -0.7528164 0.14179376 0.25443938 0.23486185
0.3465908 0.10815708 -0.97772795 -0.5117726 -0.08434811 -1.0212172 0.329972 0.391282
-0.13002977 0.31819016 0.112559944 -0.12134307 -0.46926782 -0.25778046 -0.095505685 0.6168927
-0.34225115 -0.27539042 -0.2535586 0.2186922 0.12590894 1.067003 0.33667114 0.536853
1.0107443 -0.3948396 -0.54212123 0.7134431 -0.36476627 0.08960979 0.37311482 -0.020459859
-0.11735227 -0.21124248 -0.05136365 0.1622288 -0.22867037 0.07696784 0.09629178 -0.03337835
0.8364864 0.042478066 0.18234204 0.53618616 -0.36491138 -0.39436686 0.8780906 -0.011472619
-0.18116476 -0.27217117 -0.04955416 -0.4265585 -0.009762541 0.38667688 0.16906592 0.08919216
-0.10918073 -0.4816186 0.08196252 -0.11150775 -0.072464734 0.13369039 -0.054400016 0.08001619
0.07859636 0.22845882 0.21469225 0.065578386 -0.19458327
00000000: 0a15 213e 3630 f8be 8229 37be c4cd 4ebf
00000010: 7b21 29bd f06c a3bd b44d 1abc 9de4 9abd
00000020: 2712 913c c7e1 38bf de2d a53d 47bc c9be
00000030: ff02 6fbf b481 6dbe 00af a8be 2101 8abe
00000040: c497 8f3e d658 2a3e c09d 83bd 7237 d93e
00000050: ceea 91bd 0c47 7c3e 2ac8 1abf 12a3 82be
00000060: 1d86 c43d c9c3 4d3e 6803 a4be 1b1e 433e
00000070: 3198 16bf 3313 89be 6e1f 5ebe d8e8 84bf
00000080: 4fe6 943e 63eb 7e3e 5444 83bf ff9e 84be
00000090: 16a1 703e 28d9 d93e d3ba 6a3e d997 b33e
000000a0: 9305 9d3c 15a8 063f 461a 80be 4798 73bd
000000b0: a3ad b6bd ff8d b13d 31ad 11be 9256 3abd
000000c0: 14ee 0f3e 1beb 933e 3ce7 c73e 1c3c a7bc
000000d0: 8aff 483d 118e 88be 7697 f6be 21dc 92be
000000e0: d88b 993e d78f d03d 3012 1e3e 4bf0 0f3e
000000f0: 93b8 40bf 6232 113e e145 823e a07f 703e
00000100: 5974 b13e 7681 dd3d 614c 7abf 8703 03bf
00000110: b4be acbd 3fb7 82bf 17f2 a83e 1d56 c83e
00000120: 8626 05be d2e9 a23e d485 e63d b782 f8bd
00000130: df43 f0be cdfb 83be 7c98 c3bd aeec 1d3f
00000140: 8b3b afbe f9ff 8cbe 6fd2 81be d9f0 5f3e
00000150: 46ee 003e 8e93 883f 2960 ac3e 336f 093f
00000160: 1260 813f 6b28 cabe 75c8 0abf 35a4 363f
00000170: a5c2 babe 5685 b73d e808 bf3e 6f9b a7bc
00000180: 6356 f0bd f34f 58be b162 52bd 4e1f 263e
00000190: 9128 6abe 51a1 9d3d a034 c53d bdb7 08bd
000001a0: f923 563f 7bfd 2d3d dfb7 3a3e 7f43 093f
000001b0: aad5 babe 74ea c9be 8cca 603f a7f7 3bbc
000001c0: 4183 39be 055a 8bbe 4ef9 4abd e065 dabe
000001d0: 11f3 1fbc 83fa c53e 9e1f 2d3e 61aa b63d
000001e0: 269a dfbd b796 f6be f7db a73d 2d5e e4bd
000001f0: 6468 94bd 22e6 083e 8dd2 5ebd 87df a33d
00000200: 21f7 a03d 1cf1 693e 49d8 5b3e f64d 863d
00000210: d640 47be

encoder.enc4.bias f4 [7]
0.013927723 -0.0009662819 0.0011693112 0.003282804 0.012366476 -0.0021909152 -0.006722691
00000000: 1b31 643c 154e 7dba 9343 993a 5024 573b
00000010: c29c 4a3c 7595 0fbb 054a dcbb

decoder.dec1.weight f4 [19, 7]
-0.12897255 -0.53604037 -0.40026817 0.70799685 0.38515317 -0.32752642 -0.16804689 0.37862223
-0.21539107 0.8073287 0.47436574 -0.75542355 0.55927384 0.6872394 -0.63813627 0.0891159
0.2009659 -0.01451216 0.05860123 0.14870393 -0.85077715 -0.64501256 0.4153298 0.46563983
-0.63836384 0.5914321 -0.17519103 0.6092715 -0.43828765 0.33147293 0.82539475 0.3877975
-0.8520449 -0.089523 -0.9440297 0.18993583 0.0075049167 0.34197432 -0.3224049 -0.13080373
0.81634706 0.39672005 -0.4586061 -0.1604801 -0.48109284 0.84610724 -0.073813416 0.041871376
-0.93641627 0.7495054 -0.3437053 0.60875106 -0.832818 -0.5398023 0.19994572 -0.8151113
1.2972745 0.5580306 0.96290016 0.14494628 -0.8146163 0.034326777 -0.3997718 0.606946
-0.76369137 -0.46986204 -0.6742778 -0.48147535 0.20734525 -0.500702 0.7619594 -0.7521087
-0.34667748 -0.7350281 0.7900027 -0.14233756 0.5323619 -0.30220783 -0.35543388 0.49522716
0.32950857 0.09719238 -0.8668328 -0.05629019 -0.47440535 0.7544671 0.49336463 0.09824318
-0.87611735 1.036959 0.113799796 -0.4258794 -0.11258592 0.7621304 0.027434383 -0.565133
-0.36221924 1.0770372 -0.040312037 0.14684044 -0.863972 0.10610299 0.67297804 0.38255614
1.1343315 -0.0018850255 0.80131936 -0.624354 -0.05299028 -0.05157426 -0.77098286 -0.40891805
-0.6596733 0.11629523 -0.5884285 0.07471562 -0.5622115 0.80685323 0.55223536 0.85899764
0.515687 -0.6349606 -0.65918255 0.4405955 -0.74013835 0.7753046 0.3016467 -0.73306173
0.2136564 0.47692013 0.636532 -0.88476753 -0.34135598
00000000: 6111 04be f139 09bf f3ef ccbe 483f 353f
00000010: cc32 c53e 8bb1 a7be 7c14 2cbe c6da c13e
00000020: 7a8f 5cbe 18ad 4e3f 11e0 f23e 7063 41bf
00000030: 922c 0f3f ecee 2f3f e65c 23bf 6682 b63d
00000040: 01ca 4d3e 69c4 6dbc d807 703d d845 183e
00000050: 88cc 59bf 8b1f 25bf 1ca6 d43e 5868 ee3e
00000060: d06b 23bf 1868 173f 4765 33be 38f9 1b3f
00000070: 3d67 e0be d2b6 a93e 124d 533f 658d c63e
00000080: 9d1f 5abf d657 b7bd eeab 71bf 8a7e 423e
00000090: ceeb f53b 4217 af3e 4112 a5be 6af1 05be
000000a0: 1ffc 503f e41e cb3e 6bce eabe e554 24be
000000b0: cd51 f6be 7c9a 583f 7d2b 97bd 5281 2b3d
000000c0: fab8 6fbf 96df 3f3f 24fa afbe 1cd7 1b3f
000000d0: 8f33 55bf 7c30 0abf 92be 4c3e 22ab 50bf
000000e0: 170d a63f 18db 0e3f a080 763f cc6c 143e
000000f0: b28a 50bf 3c9a 0c3d e4ae ccbe d060 1b3f
00000100: 4781 43bf c291 f0be 789d 2cbf f083 f6be
00000110: 5052 543e 022e 00bf c50f 433f 328a 40bf
00000120: b67f b1be cd2a 3cbf 9e3d 4a3f f0c0 11be
00000130: df48 083f fcba 9abe 6efb b5be 6a8e fd3e
00000140: 59b5 a83e cc0c c73d c1e8 5dbf 8b90 66bd
00000150: 42e5 f2be c224 413f 4a9a fc3e b833 c93d
00000160: 3a49 60bf 13bb 843f de0f e93d dd0c dabe
00000170: 7293 e6bd fa1a 433f 12be e03c 8eac 10bf
00000180: cd74 b9be 5bdc 893f 3c1e 25bd 575d 163e
00000190: 452d 5dbf 864c d93d 4a48 2c3f 66de c33e
000001a0: c631 913f f612 f7ba 4423 4d3f aad5 1fbf
000001b0: 560c 59bd 883f 53bd 225f 45bf b55d d1be
000001c0: 59e0 28bf 322c ee3d 40a3 16bf 8104 993d
000001d0: 18ed 0fbf ef8d 4e3f 4c5f 0d3f 45e7 5b3f
000001e0: 1004 043f c78c 22bf 30c0 28bf bc95 e13e
000001f0: b579 3dbf 5d7a 463f 7071 9a3e efa9 3bbf
00000200: bec8 5a3e e02e f43e c3f3 223f 2080 62bf
00000210: 36c6 aebe

decoder.dec1.bias f4 [19]
0.0072084772 -0.007974903 -0.060910504 -0.051120903 -0.017196428 -0.014224713 -0.013642586 -0.004928752
0.032537337 0.025316708 0.034057405 -0.014347415 -0.02362333 -0.004703435 0.023343368 -0.017890755
-0.009838082 -0.010211393 -0.0043062074
00000000: 1735 ec3b 2ba9 02bc 4b7d 79bd 2764 51bd
00000010: 86df 8cbc c50e 69bc 2785 5fbc 5e81 a1bb
00000020: df45 053d fc64 cf3c c77f 0b3d 6c11 6bbc
00000030: b785 c1bc 461f 9abb 973a bf3c a28f 92bc
00000040: e82f 21bc b04d 27bc 161b 8dbb

decoder.dec2.weight f4 [39, 19]
-0.052395485 -0.26442248 0.015679251 -0.50643027 0.29037094 0.13325766 0.06063953 -0.25944784
0.16332142 -0.026558535 -0.67161363 0.6466142 -0.8936351 0.44835013 -0.40998912 0.55929065
0.4401013 0.16671318 0.35561815 0.35161912 0.2497983 -0.40205854 -0.40567777 0.48598123
-0.108145855 -0.58878917 -0.34092966 -0.12993917 -0.54143864 -0.22226498 0.25284827 -0.94831103
-0.061299093 -0.039800353 0.58581394 -0.36376867 1.0688213 0.16832262 0.44643158 0.3325443
-0.34341666 0.3277092 -0.2656608 -0.38612187 -0.079265624 -0.15208821 0.045373924 -0.03150458
-0.8621633 0.2255326 -1.1485164 -0.17198944 0.27060091 0.18552291 -0.24624002 -1.2597325
1.5965371 -0.4039214 0.10709389 0.30879694 -0.15087983 -0.15276748 0.47960785 -0.19005941
-0.13859299 -0.37524778 -0.6669078 0.48084682 -0.026752152 0.7640454 0.20410292 0.5245573
-0.2797039 -0.11753881 0.6305243 -0.80464774 0.0017908008 0.3785195 0.2735612 -0.052463487
-0.37553152 -0.030240439 0.21234524 -0.23508374 0.05803282 -0.19610451 0.4525693 0.045987897
0.12999064 0.5673211 0.4907203 -0.53023005 0.29881552 -0.8367948 0.38285986 -0.5193583
0.6226705 0.27102157 -0.106993884 0.49599358 -0.26856834 -0.15364192 0.145965 0.3395231
0.43241414 -0.5238558 0.0033885287 0.78441876 -0.16103858 0.15085825 -0.061022077 -0.018430395
0.6410566 -1.5327706 -0.26600382 0.42781585 0.4882927 -0.08683287 0.4675492 -0.2989469
0.50669956 0.3099234 0.23833779 0.15908258 -0.05124924 0.4266568 -1.0545442 -0.3426304
0.3372312 -0.30801222 -0.31775862 0.2761259 0.6350897 0.2661708 0.42442322 -0.27283618
0.53692687 -0.36766386 -0.008005835 -0.29008552 -0.4513059 0.082224146 -0.16090721 0.35258752
-0.394342 0.20969206 -0.4354684 0.117881924 -0.097964875 0.14306448 -0.0048905695 -0.508489
-0.6165391 -0.17566295 -0.5967396 -0.029516201 0.26775604 0.41507825 -0.040681545 0.10932908
0.3509555 -0.032901682 0.14093125 -0.15230413 0.943164 0.48183417 -0.08179418 0.45416874
0.25986928 1.0448421 -0.83431476 -0.02684047 0.33532265 0.11830686 -0.015353202 0.6624964
-0.21022478 0.2821246 -0.054145154 -0.120307475 -0.5701891 0.45742235 -0.44298467 -0.17854932
0.3325519 -0.8513831 0.62901354 -0.501215 0.38936397 0.68954486 -0.038351405 0.2277332
0.2791994 0.376671 -0.05882716 0.07787075 -0.09849012 0.20920518 0.17740266 0.3455612
-0.13825515 0.3170597 -0.58170867 0.6266403 -0.9131502 -0.17751944 -0.30163848 0.7268389
1.1130509 -0.34956044 0.346929 -0.06136908 -0.27690277 -0.03154008 0.09956506 -0.07202321
-0.26466116 0.27798948 0.2315592 0.21619053 -0.046335455 0.10731564 -0.22195362 -0.38289118
-0.41788834 0.41624454 -0.22204427 -0.3421527 -0.43451938 0.73589724 -0.3595279 -0.41296175
-0.2070143 0.38871193 -0.070162795 0.3119796 0.48813403 -0.016510617 0.32411578 -0.5373843
0.75335246 0.46587852 0.3159934 -0.252266 -0.20601535 0.021051193 -1.3069113 0.04157367
-0.05489848 0.25122735 0.018921766 -0.17463648 -0.023530701 0.19546992 0.51205266 0.19131584
00000000: a69c 56bd 6262 87be c671 803c 6aa5 01bf
00000010: 80ab 943e b274 083e 2861 783d 59d6 84be
00000020: bb3d 273e 4991 d9bc dfee 2bbf 8288 253f
00000030: 45c5 64bf 268e e53e 18ea d1be ac2d 0f3f
00000040: f554 e13e dcb6 2a3e 9513 b63e 6c07 b43e
00000050: 20cb 7f3e 9eda cdbe ffb4 cfbe 88d2 f83e
00000060: 937b ddbd e3ba 16bf 558e aebe c60e 05be
00000070: b99b 0abf 6e99 63be 5475 813e 83c4 72bf
00000080: c214 7bbd b205 23bd e7f7 153f e33f babe
00000090: 23cf 883f c45c 2c3e ae92 e43e 3f43 aa3e
000000a0: 4fd4 afbe 80c9 a73e b104 88be c4b1 c5be
000000b0: 0456 a2bd 03bd 1bbe 02da 393d f20a 01bd
000000c0: bcb6 5cbf 05f2 663e 9602 93bf 001e 30be
000000d0: 348c 8a3e b8f9 3d3e 5826 7cbe ea3e a1bf
000000e0: 545b cc3f c9ce cebe 0b54 db3d a21a 9e3e
000000f0: 3e80 1abe 146f 1cbe 298f f53e ef9e 42be
00000100: 52eb 0dbe 7a20 c0be 78ba 2abf 8e31 f63e
00000110: 5427 dbbc 7b98 433f 5b00 513e 6349 063f
00000120: 5935 8fbe 30b8 f0bd 0a6a 213f 65fd 4dbf
00000130: 4eb9 ea3a 4fcd c13e 3710 8c3e f4e3 56bd
00000140: ab45 c0be ccba f7bc 0871 593e cbb9 70be
00000150: d2b3 6d3d 9fcf 48be 2ab7 e73e ce5d 3c3d
00000160: 441c 053e f53b 113f b13f fb3e 28bd 07bf
00000170: 59fe 983e 2f38 56bf 3506 c43e aaf4 04bf
00000180: 5567 1f3f 57c3 8a3e 9c1f dbbd dff2 fd3e
00000190: ca81 89be 4f54 1dbe d977 153e f9d5 ad3e
000001a0: 6365 dd3e 6a1b 06bf 1412 5e3b abcf 483f
000001b0: 4ce7 24be 967a 1a3e 49f2 79bd 57fb 96bc
000001c0: 491c 243f d431 c4bf a731 88be ae0a db3e
000001d0: 8001 fa3e 6fd5 b1bd 9c62 ef3e 910f 99be
000001e0: 10b7 013f 48ae 9e3e d20e 743e 8be6 223e
000001f0: b9ea 51bd c372 da3e 4efb 86bf 406d afbe
00000200: 91a9 ac3e c7b3 9dbe 42b1 a2be 6060 8d3e
00000210: 3d95 223f 8a47 883e 004e d93e 2fb1 8bbe
00000220: 0a74 093f 703e bcbe e82a 03bc 1786 94be
00000230: 9111 e7be 2265 a83d dcc4 24be 5a86 b43e
00000240: 32e7 c9be 84b9 563e b7f5 debe 146c f13d
00000250: cfa1 c8bd 7f7f 123e 1241 a0bb 562c 02bf
00000260: 82d5 1dbf fde0 33be edc3 18bf f6cb f1bc
00000270: 5217 893e 2385 d43e b1a1 26bd ede7 df3d
00000280: 70b0 b33e eac3 06bd 4850 103e 9df5 1bbe
00000290: 3273 713f f8b2 f63e b583 a7bd ce88 e83e
000002a0: 960d 853e 63bd 853f a795 55bf 8ce0 dbbc
000002b0: 69af ab3e de4a f23d ff8b 7bbc 5d99 293f
000002c0: 2a45 57be a372 903e 4fc7 5dbd c463 f6bd
000002d0: eaf7 11bf 4333 ea3e e3ce e2be a2d5 36be
000002e0: 3e44 aa3e 3ef4 59bf 0807 213f a04f 00bf
000002f0: b75a c73e 0386 303f 5d16 1dbd e432 693e
00000300: 39f3 8e3e 05db c03e c0f4 70bd b37a 9f3d
00000310: 30b5 c9bd e239 563e 0ba9 353e 66ed b03e
00000320: c292 0dbe a655 a23e dcea 14bf 806b 203f
00000330: 36c4 69bf a8c7 35be 5c70 9abe 1d12 3a3f
00000340: 7478 8e3f 96f9 b2be aea0 b13e 255e 7bbd
00000350: 33c6 8dbe 2c30 01bd c4e8 cb3d e880 93bd
00000360: ab81 87be a354 8e3e db1d 6d3e 0d61 5d3e
00000370: 3fca 3dbd 4dc8 db3d cf47 63be 500a c4be
00000380: 76f5 d5be 011e d53e 935f 63be a42e afbe
00000390: 5379 debe c363 3c3f 0a14 b8be b96f d3be
000003a0: 8ffb 53be 4005 c73e 83b1 8fbd cabb 9f3e
000003b0: b4ec f93e 4641 87bc 81f2 a53e 0492 09bf
000003c0: b5db 403f a187 ee3e e3c9 a13e 0229 81be
000003d0: b0f5 52be 8d73 ac3c df48 a7bf 2749 2a3d
000003e0: 3bdd 60bd dfa0 803e d201 9b3c e8d3 32be
000003f0: 75c3 c0bc 4429 483e e215 033f 4de8 433e

decoder.dec2.bias f4 [39]
-0.012978647 -0.0278467 -0.01251477 0.08458749 0.043104693 -0.02286122 0.011543011 0.0026682536
0.014291207 -0.023955122 -0.032939833 -0.025733838 0.0035409506 -0.0208718 0.0031848082 0.006503321
0.062250648 0.02177841 -0.007313411 -0.038118314 -0.0117471395 0.026061269 0.03177887 0.05119399
-0.031049117 -0.013263728 -0.01591936 -0.013577977 0.024430117 -0.03152474 -0.020979885 0.043432325
0.023229074 -0.0037953286 -0.020536471 0.08107604 -0.021309251 -0.014315696 0.0021531216
00000000: 64a4 54bc c31e e4bc c00a 4dbc 353c ad3d
00000010: 8c8e 303d 7447 bbbc e61e 3d3c dedd 2e3b
00000020: ab25 6a3c 883d c4bc ebeb 06bd c5cf d2bc
00000030: 4b0f 683b 56fb aabc 37b8 503b d019 d53b
00000040: 89fa 7e3d a368 b23c 57a5 efbb f321 1cbd
00000050: 1377 40bc 717e d53c 8f2a 023d cab0 513d
00000060: b85a febc 1b50 59bc 5169 82bc 2a76 5ebc
00000070: ab21 c83c 1620 01bd 02de abbc 18e6 313d
00000080: e64a be3c 0cbb 78bb 1a3c a8bc 320b a63d
00000090: bd90 aebc 628c 6abc 631b 0d3b

decoder.dec3.weight f4 [58, 39]
0.0036961474 0.2711385 -0.8251876 -0.109148584 -0.49616706 -0.42484766 -0.21866369 -0.16992474
0.39926642 0.21748605 -0.44737673 0.30431977 -2.5100431 0.43815234 -0.022329397 0.11628589
0.0128046265 -1.4682114 -0.962579 -0.121681154 0.17288919 -0.08715002 1.297205 0.16689064
-0.20248984 0.54552597 -0.10695096 -0.16279015 0.18114778 0.9169844 0.82840747 0.35209358
0.11447679 -0.017706715 0.16691642 1.940272 -0.6040982 -0.68065935 0.49616534 0.034471847
0.03292973 0.24054599 -0.49823278 -0.1576101 -1.0766561 0.17050812 -0.2846642 0.30091414
-0.3547498 -3.7092314 0.2520373 -0.63877094 0.09385373 -0.08739104 -0.22671585 0.05452274
-1.2217369 -2.2769315 0.19089554 -0.046343625 0.44502088 -1.3506262 -0.16468437 0.7564296
-0.2645866 -3.4191477 -0.0615615 0.3160901 1.438913 0.15399486 -0.2089059 -2.0694928
0.37692097 -0.08404883 -1.6846833 -1.410317 -1.3284099 0.63465405 -0.31003046 0.323097
0.24353647 0.06563578 0.006628918 0.08313156 -0.19879155 0.17002207 0.0924629 -0.048121847
-0.103764795 -0.005876623 -0.064161845 -0.26269385 0.2855056 -0.08699688 -0.25229472 -0.085584804
0.16964574 0.18165807 0.09974829 -0.62534404 0.13329679 0.46831524 0.1654896 -0.1551257
0.017547885 -0.40849563 -0.389214 0.20827569 -0.13902363 0.36903915 -0.06466282 0.25441793
0.21774723 -0.2877577 0.00537331 -0.038468514 -0.41358182 0.0077490187 -0.019285778 -1.6966715
0.29181695 -0.18500446 2.2613995 -0.2655425 0.14585218 0.2623119 0.206738 2.44666
-0.27986306 2.170859 0.14969447 0.12504512 0.17461662 0.8484267 0.412878 1.9676156
-0.22383349 -0.4759277 -0.50453883 -0.25337544 0.26400027 0.011604241 -1.4038093 0.35486066
-0.17401518 -0.08787013 2.315283 -0.6142245 -0.39579397 -0.2962445 -1.8668698 0.10049479
-0.22609116 0.259689 0.9032927 -0.108976275 0.3408371 -0.31778857 0.94354546 -0.17259397
0.37266517 -1.3594726 0.29195598 0.3289698 0.27815843 -0.006523542 0.7403979 -0.06221273
-0.6350137 -0.10651725 0.34496307 -0.1465023 -0.39197683 0.47564745 -0.31794357 -0.40233964
0.17912084 0.41808048 -0.59670115 0.56444186 -0.353955 0.5961387 -0.10311921 0.14614496
0.41097924 -0.061402578 0.3455105 -0.46069553 0.25438347 0.27889255 -0.08038806 0.18530038
0.3925256 -1.5098006 -0.084614895 0.49594858 0.29195374 0.33832452 -0.49152765 -0.2638271
0.5796495 -0.13893674 -0.26058787 0.0071035884 -0.07891752 2.2726789 -0.36251047 0.11369419
0.37778297 -0.2957286 -0.1467777 0.055558693 0.31994954 0.3795915 -2.7269612e-05 -0.32093188
0.32581362 -0.49768844 0.018800635 -0.8144501 0.59910536 1.6292495 -0.50789315 2.8802864e-05
-0.035297718 0.69841117 0.28557178 0.6962706 -0.44116575 0.012955287 1.4425039 0.4370168
0.54268163 0.58994025 0.23389551 0.14154847 -1.0068679 1.1573325 -0.16480917 0.7905556
-0.13144459 0.08229625 0.3881656 0.050471853 -1.6734508 0.24767354 -0.9811349 -0.0014544065
0.36797047 -0.32551554 0.107398726 -0.630622 -0.2276074 0.29888937 0.013160846 -0.026464455
00000000: 103b 723b aad2 8a3e 7f3f 53bf 4b89 dfbd
00000010: 9c09 febe a285 d9be 60e9 5fbe c000 2ebe
00000020: a66c cc3e aab4 5e3e 900e e5be cdcf 9b3e
00000030: 8ca4 20c0 8155 e03e 24ec b6bc 4c27 ee3d
00000040: 7fca 513c 5aee bbbf 946b 76bf f833 f9bd
00000050: dd09 313e b67b b2bd d00a a63f 61e5 2a3e
00000060: 7f59 4fbe 97a7 0b3f 1b09 dbbd 76b2 26be
00000070: ce7e 393e 7dbf 6a3f 8312 543f 9c45 b43e
00000080: cf72 ea3d ac0d 91bc 23ec 2a3e d55a f83f
00000090: 2ea6 1abf b13f 2ebf 6209 fe3e 5a32 0d3d
000000a0: 53e1 063d b051 763e 5e18 ffbe 8b64 21be
000000b0: decf 89bf ae99 2e3e 82bf 91be 6b11 9a3e
000000c0: c4a1 b5be 0c64 6dc0 080b 813e 7e86 23bf
000000d0: 6236 c03d 13fa b2bd 3328 68be 3d53 5f3d
000000e0: e061 9cbf 3fb9 11c0 1f7a 433e d0d2 3dbd
000000f0: c7d9 e33e 52e1 acbf 05a3 28be 5fa5 413f
00000100: e577 87be 51d3 5ac0 e927 7cbd 90d6 a13e
00000110: 4d2e b83f d4b0 1d3e 6eeb 55be 9272 04c0
00000120: c9fb c03e cb21 acbd b4a3 d7bf 4485 b4bf
00000130: 5609 aabf b078 223f 50bc 9ebe f86c a53e
00000140: a061 793e 0d6c 863d 6537 d93b e140 aa3d
00000150: 0390 4bbe 441a 2e3e 305d bd3d 6a1b 45bd
00000160: a382 d4bd b090 c0bb 4967 83bd cf7f 86be
00000170: ca2d 923e 6c2b b2bd c62c 81be 1647 afbd
00000180: 9db7 2d3e 9304 3a3e d548 cc3d 8c16 20bf
00000190: f47e 083e 04c7 ef3e 1b76 293e 46d9 1ebe
000001a0: 95c0 8f3c 5726 d1be 0f47 c7be 3946 553e
000001b0: 365c 0ebe b3f2 bc3e f16d 84bd 1143 823e
000001c0: 21f9 5e3e fa54 93be 9712 b03b 2991 1dbd
000001d0: ffc0 d3be 7beb fd3b 35fd 9dbc 882c d9bf
000001e0: 0869 953e cf71 3dbe c5ba 1040 30f5 87be
000001f0: 465a 153e bf4d 863e 20b3 533e 1496 1c40
00000200: 364a 8fbe 5bef 0a40 8249 193e d40b 003e
00000210: b3ce 323e 7e32 593f bf64 d33e d4da fb3f
00000220: 9b34 65be ccac f3be 7529 01bf 6dba 81be
00000230: 0b2b 873e b71f 3e3c 06b0 b3bf 4cb0 b53e
00000240: 0931 32be 41f5 b3bd 992d 1440 d13d 1dbf
00000250: 82a5 cabe 5cad 97be 97f5 eebf 36d0 cd3d
00000260: 7184 67be f5f5 843e 313e 673f f42e dfbd
00000270: 3382 ae3e 2fb5 a2be 328c 713f 79bc 30be
00000280: f8cd be3e 3303 aebf 417b 953e bb6e a83e
00000290: c86a 8e3e 70c3 d5bb b78a 3d3f c7d2 7ebd
000002a0: 4290 22bf b725 dabd 009f b03e b304 16be
000002b0: 30b1 c8be 1088 f33e 80c9 a2be 76ff cdbe
000002c0: 746b 373e a50e d63e 68c1 18bf 437f 103f
000002d0: 9739 b5be 8c9c 183f 2a30 d3bd 06a7 153e
000002e0: df6b d23e 4581 7bbd c1e6 b03e 49e0 ebbe
000002f0: 8d3e 823e 01cb 8e3e 7fa2 a4bd 62bf 3d3e
00000300: 1ef9 c83e 2541 c1bf 934a adbd f9ec fd3e
00000310: f67a 953e df38 ad3e 83a9 fbbe 5814 87be
00000320: e963 143f 6f45 0ebe c66b 85be 38c5 e83b
00000330: 829f a1bd 9273 1140 f99a b9be 80d8 e83d
00000340: c56c c13e bd69 97be e54c 16be 8391 633d
00000350: 6dd0 a33e d159 c23e 0cc1 e4b7 2f51 a4be
00000360: 0bd1 a63e 05d1 febe ca03 9a3c cd7f 50bf
00000370: f85e 193f 3f8b d03f 4905 02bf ae9d f137
00000380: 5794 10bd 13cb 323f 7736 923e ca3e 323f
00000390: 7ae0 e1be 6942 543c f8a3 b83f aac0 df3e
000003a0: 2fed 0a3f 5306 173f 4e82 6f3e 15f2 103e
000003b0: 0ce1 80bf 7923 943f bcc3 28be da61 4a3f
000003c0: 6999 06be f08a a83d a4bd c63e 93bb 4e3d
000003d0: a333 d6bf 229e 7d3e a82b 7bbf c9a1 beba
000003e0: a066 bc3e f9a9 a6be ddf3 db3d 7270 21bf
000003f0: ea11 69be 0708 993e 97a0 573c fccb d8bc

decoder.dec3.bias f4 [58]
-0.014122312 0.030830955 -0.062661804 -0.010790032 0.029034296 -0.014683009 -0.008507281 -0.0005815642
0.016802693 -0.055981353 0.038591046 -0.01054253 0.029728444 0.016796332 0.025180858 0.037893586
0.114372596 0.013335174 -0.018206757 0.018029178 -0.03157239 0.007125152 0.015315866 -0.0049864952
0.04126175 -0.008751959 0.07167264 0.079474166 0.054923512 -0.023953427 0.05186285 -0.03802375
-0.016944291 -0.050021328 0.026796008 -0.040527396 0.09435139 -0.03869117 -0.037516676 0.0251432
-0.021091009 -0.010937944 -0.00505614 0.016979663 -0.015214765 -0.037086945 0.12132624 0.062367994
3.0787254e-05 0.020649359 0.0012995643 -0.05149793 -0.03288302 0.0069711832 0.012640289 0.009511826
-0.039444312 0.0133027965
00000000: 4561 67bc 3391 fc3c d554 80bd adc8 30bc
00000010: 55d9 ed3c 0191 70bc 1f62 0bbc 1d74 18ba
00000020: cda5 893c b44c 65bd a511 1e3d 93ba 2cbc
00000030: 1189 f33c 7698 893c 1648 ce3c 4e36 1b3d
00000040: 2e3c ea3d c67b 5a3c 5626 95bc edb1 933c
00000050: 0d52 01bd 1b7a e93b 66ef 7a3c c165 a3bb
00000060: 1502 293d 6064 0fbc 1bc9 923d 5ac3 a23d
00000070: 7af7 603d fa39 c4bc 246e 543d cbbe 1bbd
00000080: c1ce 8abc 2ae3 4cbd 4d83 db3c 0e00 26bd
00000090: 4d3b c13d a27a 1ebd 16ab 19bd 1df9 cd3c
000000a0: 0dc7 acbc 1035 33bc faad a5bb ef18 8b3c
000000b0: 5a47 79bc 7be8 17bd e479 f83d 9575 7f3d
000000c0: 9021 0138 d828 a93c 2456 aa3a 7eef 52bd
000000d0: 58b0 06bd 866e e43b 3719 4f3c 7dd7 1b3c
000000e0: 5c90 21bd f9f3 593c

decoder.dec4.weight f4 [78, 58]
-0.2501652 -0.0029638724 0.11731421 -0.052298192 -0.056476504 -0.12097399 -0.16818573 -0.18083437
-0.22538859 -0.049030706 -0.032427732 0.22900014 0.07067618 0.028853448 -0.33865294 -0.36408305
-0.079141036 -0.15508176 0.23383337 0.2926439 -0.06486925 0.138973 -0.00808073 -0.044705868
0.21134984 0.043933455 0.16715074 0.21661973 -0.13791673 -0.39924276 -0.027575575 -0.4515679
0.046285223 -0.05586564 0.031718887 0.26881972 -0.08569249 0.47767106 -0.22207803 0.22758408
-0.054714415 -0.051736794 0.062712505 0.296331 -0.1402849 -0.005564591 0.17055894 0.19975089
0.16389138 0.0029581902 0.04639817 -0.11610146 0.20056783 0.15868203 -0.40389818 0.30743337
0.26036918 0.054945108 0.5904381 1.28969 -0.14993043 3.8113475 0.41830054 0.031029133
-0.16063365 0.0011629098 -1.3026886 -0.3463055 -1.2643769 -2.3493607 0.9439158 0.7401716
-2.225585 -0.6902923 0.7144915 -0.4312805 -0.12888476 -2.779291 -0.021205073 -0.3261772
-1.5772314 0.013399993 0.09494153 0.16588886 0.6724747 0.77271825 -0.46959072 1.067111
0.45460135 0.33820963 -0.47180924 3.3981364 -0.56219906 -1.0350894 -0.1775377 -3.242714
0.031879853 -0.6741123 0.61361563 -0.8970296 0.8137094 2.603079 0.16208364 0.15556125
0.14443214 -0.9501308 1.0085018 1.8385124 0.90580076 -0.82651424 -0.19565512 0.26788837
3.1307487 -0.17360598 -0.58167094 0.55732363 0.14788531 -1.1993406 -0.21366528 -0.7235547
-0.30159914 0.8925348 -0.9699006 -0.040255953 0.416616 -0.09320199 1.6615075 0.6217473
-0.29903656 0.3106888 0.6618176 -0.56288576 -0.059602797 -0.4317779 0.5382011 -0.25580397
-0.18829052 0.27698082 1.3224663 -0.33782285 -1.0369953 0.20193356 -0.57829076 -0.18232222
0.9120563 0.45041704 0.29171696 2.0223067 0.49879062 0.7927693 -0.1874351 1.3604916
0.23956233 0.5396516 0.96171683 0.95689017 0.32962528 -0.33012474 -0.08136349 -0.22282052
0.10504947 -0.159803 0.24935062 -0.6666669 0.5337588 -0.1774092 1.8063049 0.63925076
0.0054214206 0.3087911 -0.09422544 0.06440272 1.1497777 -0.13283493 0.13330619 -0.04266307
-0.08603989 0.09358922 0.023630312 0.08259093 0.078630075 0.29485396 0.33160388 0.060664043
-0.10045803 0.14373861 -0.19126801 0.03274563 0.18855754 -0.023631027 0.23121865 -0.058750264
0.22205485 -0.31652784 0.17155558 0.08449675 0.069791004 -0.0778359 -0.010127165 0.29177013
0.2004709 -0.13549723 0.13871194 0.14921214 0.11645316 0.21927795 -0.22603102 -0.030614767
-0.2061777 -0.19737063 -0.03519273 -0.12680171 -0.15259683 -0.123470776 0.01516972 0.12617025
-0.14034271 -0.14884429 -0.056274403 0.076160625 -0.2115317 0.247171 -0.25316352 0.12829608
0.05567129 -0.11334258 0.00233646 0.30423853 -0.05346972 -0.1577034 0.20993058 -0.3337433
-0.060323328 0.057614774 -0.028171055 -0.0068330895 0.14211643 0.14252983 0.0069804643 0.18264239
0.23003915 0.11025814 0.0135422265 -0.06427917 0.018782523 0.21048968 0.09529228 0.107171714
0.04977989 -0.15559213 -0.10227757 -0.2694001 -0.15132101 0.026196763 -0.08866561 0.21901596
00000000: a715 80be 873d 42bb 6f42 f03d a136 56bd
00000010: e853 67bd 36c1 f7bd e138 2cbe a52c 39be
00000020: 44cc 66be 6cd4 48bd f1d2 04bd 037f 6a3e
00000030: acbe 903d 115e ec3c eb63 adbe 1869 babe
00000040: b214 a2bd c1cd 1ebe 0472 6f3e 6cd5 953e
00000050: 2bda 84bd f04e 0e3e 0a65 04bc 801d 37bd
00000060: 186c 583e 91f3 333d 9029 2b3e 90d1 5d3e
00000070: 0b3a 0dbe 8c69 ccbe 2ce6 e1bc e833 e7be
00000080: 9395 3d3d 5fd3 64bd aaeb 013d bda2 893e
00000090: 8b7f afbd 4d91 f43e 6c68 63be cd0b 693e
000000a0: 391c 60bd f6e9 53bd 6a6f 803d b2b8 973e
000000b0: d8a6 0fbe 2c57 b6bb 01a7 2e3e 7f8b 4c3e
000000c0: 24d3 273e 32de 413b 020c 3e3d 9ac6 edbd
000000d0: a761 4d3e 8b7d 223e becb cebe e867 9d3e
000000e0: 1c4f 853e 1f0e 613d f426 173f 9014 a53f
000000f0: 5d87 19be 1eed 7340 7d2b d63e cf30 fe3c
00000100: 267d 24be c76c 983a 80be a6bf f44e b1be
00000110: 1ad7 a1bf ed5b 16c0 77a4 713f e37b 3d3f
00000120: fc6f 0ec0 ffb6 30bf eae8 363f ccd0 dcbe
00000130: 5efa 03be e7df 31c0 43b6 adbc b300 a7be
00000140: b8e2 c9bf a58b 5b3c b470 c23d c5de 293e
00000150: 4d27 2c3f ddd0 453f 326e f0be 1897 883f
00000160: 82c1 e83e d029 ad3e fb90 f1be 117b 5940
00000170: 47ec 0fbf cf7d 84bf 71cc 35be a088 4fc0
00000180: 7394 023d a092 2cbf ea15 1d3f bba3 65bf
00000190: 424f 503f d998 2640 41f9 253e 734b 1f3e
000001a0: 05e6 133e c63b 73bf 9616 813f 6054 eb3f
000001b0: 8fe2 673f 7096 53bf d159 48be aa28 893e
000001c0: 305e 4840 c4c5 31be 63e8 14bf c3ac 0e3f
000001d0: 3f6f 173e fe83 99bf 12cb 5abe e13a 39bf
000001e0: 346b 9abe 297d 643f 684b 78bf 6de3 24bd
000001f0: b14e d53e afe0 bebd 47ac d43f d52a 1f3f
00000200: 521b 99be 9a12 9f3e e16c 293f 4819 10bf
00000210: 1022 74bd fe11 ddbe 8cc7 093f bdf8 82be
00000220: 3bcf 40be 6ed0 8d3e 9346 a93f 1ef7 acbe
00000230: 43bc 84bf acc7 4e3e dd0a 14bf adb2 3abe
00000240: 867c 693f 109d e63e ed5b 953e 796d 0140
00000250: 7c61 ff3e eef2 4a3f fdee 3fbe 9724 ae3f
00000260: d44f 753e 9b26 0a3f 1333 763f c1f6 743f
00000270: a5c4 a83e 1c06 a9be e7a1 a6bd 102b 64be
00000280: 2d24 d73d 66a3 23be c555 7f3e afaa 2abf
00000290: 6ba4 083f c2aa 35be 0035 e73f f0a5 233f
000002a0: 2ca6 b13b de19 9e3e 44f9 c0bd 93e5 833d
000002b0: ea2b 933f e105 08be 6b81 083e 79bf 2ebd
000002c0: af35 b0bd b4ab bf3d 5b94 c13c 6f25 a93d
000002d0: ce08 a13d 19f7 963e fcc7 a93e dc7a 783d
000002e0: f1bc cdbd 3730 133e c3db 43be 4820 063d
000002f0: 3a15 413e db95 c1bc 95c4 6c3e 1ea4 70bd
00000300: 5962 633e f00f a2be 44ac 2f3e a20c ad3d
00000310: 96ee 8e3d 6e68 9fbd 69ec 25bc e562 953e
00000320: 3e48 4d3e c9bf 0abe 810a 0e3e 11cb 183e
00000330: ff7e ee3d 668a 603e ad74 67be d2cb fabc
00000340: 3f20 53be 871b 4abe 4126 10bd 4fd8 01be
00000350: 5842 1cbe 3fde fcbd 6b8a 783c c632 013e
00000360: 00b6 0fbe a36a 18be fd7f 66bd 1afa 9b3d
00000370: c49b 58be 651a 7d3e a69e 81be 0c60 033e
00000380: 9407 643d 2820 e8bd 4b1f 193b 27c5 9b3e
00000390: 1103 5bbd 007d 21be 0bf8 563e 67e0 aabe
000003a0: 9815 77bd 78fd 6b3d fcc6 e6bc 1ce8 dfbb
000003b0: f886 113e 57f3 113e 61bc e43b 9b06 3b3e
000003c0: 628f 6b3e 05cf e13d 37e0 5d3c cca4 83bd
000003d0: cedd 993c 9b8a 573e 9928 c33d d87c db3d
000003e0: ffe5 4b3d 8b53 1fbe e776 d1bd cfee 89be
000003f0: e5f3 1abe 989a d63c 5196 b5bd b845 603e
