IDS_TA/initial_Models/CADE-m15.0-l1.0.pth (torch, 67910 bytes, 16 tensors)

encoder.enc1.weight f4 [58, 78]
000000 36 ce ff be 18 1a 6e bd 20 c8 cc 3e c0 dd e7 bd
       -0.49962014 -0.058130354 0.39996433 -0.11321592
000010 bc 1b 04 3e 95 04 8d 3d 53 f3 c1 3d c5 4d c8 3d
       0.12901205 0.068856396 0.094702385 0.09780458
000020 47 95 f7 be 3d 50 bb 3c f9 8b 43 be 85 56 21 3e
       -0.48356077 0.022865409 -0.19096364 0.15755661
000030 24 05 eb bc 9b 94 12 be 5c 4b 89 be ae de 1c be
       -0.028688975 -0.14314501 -0.26815307 -0.1531932
000040 a3 3f c0 3d fa 7f 35 be 92 3d ff bd 23 a2 45 bd
       0.09387138 -0.177246 -0.124629155 -0.04825033
000050 4d 80 0b bf e2 b6 b6 3e be 25 af be 97 f5 df bc
       -0.54492646 0.35686404 -0.34208483 -0.027338786
000060 41 f0 f9 bd 48 b6 06 3d 83 53 01 3e d0 68 70 bd
       -0.12204028 0.03288868 0.12629513 -0.058693707
000070 96 31 94 bd 25 80 2f 3e 77 b3 44 be 7e b7 aa 3e
       -0.0723602 0.17138727 -0.19209085 0.33343118
000080 f4 7b a8 3e 8f 29 80 3e 25 50 cb bd 27 f8 e6 bd
       0.3290707 0.25031707 -0.09927396 -0.112778
000090 1a 83 b1 bc 9c 17 2c 3e 5e a2 38 3e df d3 7f be
       -0.02166896 0.16805881 0.18030688 -0.24983166
0000a0 cb 68 e4 3c f5 a6 71 3e 2a 76 47 bb 9c 1f 7a be
       0.027882 0.23598845 -0.0030435422 -0.2442612
0000b0 9c cc 10 be 4d 99 a3 3d 7a 65 3a 3f 10 d0 71 bc
       -0.14140552 0.07988224 0.7281109 -0.014759079
0000c0 f9 9b 7b be 9c 51 20 3e 32 38 b9 be 1e bd c4 be
       -0.24571218 0.15656132 -0.36175686 -0.38425535
0000d0 0d 12 eb 3e 1b a1 22 be 7d 0e 57 bd 80 55 97 bd
       0.4591221 -0.1588177 -0.05250405 -0.07389355
0000e0 6e e5 dc be ba 15 ec be 33 d9 05 bd 82 41 18 be
       -0.4314379 -0.46110326 -0.03267784 -0.14868739
0000f0 6e 9c 2b 3d 41 27 d4 bc b4 05 76 bd d7 c7 a6 bd
       0.04189723 -0.025897624 -0.060064033 -0.08143585
000100 f0 84 86 bd 50 9b cf bd b1 49 54 be 4e 2b 7b bd
       -0.065683246 -0.101370454 -0.20731236 -0.061320595
000110 88 ac d4 3e 4d 69 45 3e a3 20 44 be 3e e2 c3 be
       0.4153788 0.1927845 -0.19153075 -0.38258547
000120 e6 4e 48 be e3 fc 39 be f8 eb e3 bd 5a f2 be 3d
       -0.19561347 -0.18162875 -0.11128992 0.09323569
000130 22 0c c9 be da 2b 36 bd 47 66 bf 3f 6a 73 3b be
       -0.3926707 -0.044475414 1.4953088 -0.18305746
000140 1d 7d 1d be f1 d3 9d be 0d 42 9d 3e 52 57 a7 3d
       -0.15379758 -0.3082576 0.30714455 0.08170952
000150 fd f9 87 3e ed 00 0e bf 87 8f be 3c 15 31 21 3e
       0.26557913 -0.5547016 0.023261799 0.1574138
000160 09 73 83 be f9 9a 88 be 64 cc 16 3e 6c 97 8c be
       -0.25673702 -0.26680735 0.14726406 -0.27459276
000170 8b 15 13 be 71 d5 e6 bd 35 39 57 3d a9 7f 96 3e
       -0.14363687 -0.112711795 0.05254479 0.29394272
000180 e1 98 0c be 47 59 3f be f8 73 ae 3e 33 6f 96 be
       -0.13730194 -0.186864 0.34072852 -0.29381713
000190 c1 0b 0e 3e 70 02 6b bd da 95 ad be c2 8a 62 3e
       0.13871671 -0.05737537 -0.3390339 0.22123244
0001a0 92 5d e0 be b5 4a 21 3f 14 e0 88 3d 48 aa 4b be
       -0.43821388 0.6300462 0.066833645 -0.19889176
0001b0 e2 aa 3a 3e 2f 01 6c 3e bb 7c af bc 17 c3 71 3e
       0.18229249 0.23047327 -0.02142178 0.23609577
0001c0 67 fa 55 be fe e8 14 3d 92 26 e9 3e 74 1f 2d be
       -0.20896302 0.03635501 0.4553724 -0.1690653
0001d0 18 8c 15 bd 24 6a 57 be 2d ba b6 ba 9e 24 78 be
       -0.036510557 -0.21036583 -0.0013940983 -0.24232718
0001e0 e3 bb 3e 3e 7c f4 59 3e f8 a3 96 3e 4c 46 0c 3a
       0.1862636 0.2128467 0.29421973 0.0005351051
0001f0 b1 10 34 bf 73 d7 e0 bd 3d df 1a 3e 63 fb 06 3e
       -0.7033797 -0.10978594 0.15124221 0.13181834
000200 e5 b5 22 be 48 7b 68 3e 5c 1b 68 bc bb d8 86 3e
       -0.158897 0.22703278 -0.014166679 0.26337227
000210 e1 db 0e 3d f2 24 1a 3e 01 61 c9 be 83 88 50 3f
       0.03487766 0.15053156 -0.3933182 0.814583
000220 64 6e 92 be 2d 98 86 3e 0d 63 37 3f 4a f3 1f 3e
       -0.28599846 0.26287976 0.71635514 0.15620151
000230 26 d4 a9 3d f5 da 3e 3e f2 97 58 be cb e5 e3 bc
       0.08292417 0.18638213 -0.21151713 -0.027819535
000240 fa 45 b0 be 2a 15 40 bd f3 b2 5c bd a8 99 ac 3e
       -0.34428388 -0.046895184 -0.053881597 0.3371098
000250 48 46 8e 3d 8d d7 f6 3e e6 4e c9 bc 1d 89 1b 3e
       0.06946999 0.48211327 -0.024573755 0.15189023
000260 82 a9 82 bc 5f ac a8 be 36 cc 97 3e 4f e7 f0 3c
       -0.015949968 -0.3294401 0.29647988 0.029407172
000270 2e e1 00 3f 84 de 24 be 74 a2 57 3b db 16 68 be
       0.50343597 -0.16100508 0.0032903226 -0.22664969
000280 ce 68 ec bd fb 23 06 be ed ed 85 be b0 5d 95 bd
       -0.115434274 -0.13099663 -0.26158085 -0.0729326
000290 ed c2 39 3d 09 9a 8b 3e 13 ef 16 be 12 89 e1 bd
       0.04535191 0.27265957 -0.14739637 -0.11012472
0002a0 09 e0 25 be 07 cf 76 be 77 82 a4 3d 6f a1 51 3e
       -0.16198744 -0.24102412 0.08032697 0.20471738
0002b0 e0 82 74 bd 93 ee f4 bd c9 a6 25 bc a5 f3 92 3d
       -0.059695125 -0.11959567 -0.010110565 0.07175378
0002c0 e4 a3 d5 3c 4a d9 17 be 4a fc 66 3d cb f6 4f 3e
       0.026079126 -0.14828983 0.056392945 0.20308988
0002d0 6c 1d ce bc 2b 4f 2a be f3 48 78 be c4 d8 94 3e
       -0.025160514 -0.16631763 -0.24246578 0.2907163
0002e0 7b 31 01 3e f7 67 47 be d8 93 e1 3d a2 b2 23 3c
       0.12616532 -0.19473253 0.11014527 0.00999132
0002f0 24 b9 11 3d ff be 6d 3e ab 97 9e bd 07 fc a3 be
       0.035576954 0.2321739 -0.07743772 -0.3202822
000300 eb d0 8f 3d 68 32 a9 be e6 35 6b be 27 c9 40 be
       0.0702227 -0.3304627 -0.2296978 -0.18826734
000310 51 a3 1f bd 98 dc 92 3e ba 16 ab bd 72 da 64 be
       -0.03897411 0.28683925 -0.08353944 -0.22348955
000320 63 2f 11 3f ee d3 12 3f 79 d4 2a bf b1 74 36 3e
       0.5671293 0.5735463 -0.6673046 0.17817952
000330 9d 75 19 bb c8 3d 49 be 38 e8 dc bc 03 35 56 3e
       -0.002341605 -0.19652474 -0.0269662 0.2091866
000340 46 36 95 3d 19 e2 02 be bb 61 83 3d ab 21 a7 3d
       0.072857425 -0.12781562 0.06415125 0.081607185
000350 28 df 62 be 4a 1c 26 3e 72 42 7a 3d 0b 57 ae 3d
       -0.2215544 0.16221729 0.061098523 0.08512696
000360 24 37 8f 3e 34 b4 93 bd de a8 cf bd da 60 62 3e
       0.27971756 -0.072121054 -0.10139631 0.22107258
000370 f6 7a f4 bc 7f ff 04 3e a6 50 6a be a2 87 10 3c
       -0.029843789 0.12988089 -0.22882327 0.0088214
000380 36 62 93 bd 9a ae 19 3e 95 b2 d5 3e 73 52 00 3e
       -0.071964666 0.15008011 0.4173781 0.12531452
000390 9e b6 3e 3e 3c 77 95 bd 46 9a c6 3e 11 cc b0 3c
       0.1862435 -0.07298133 0.38789576 0.021581681
0003a0 6c e3 3b 3e d1 f5 aa 3e be 60 d6 be 90 d7 c4 bc
       0.18348473 0.33390668 -0.41870683 -0.02402857
0003b0 a1 2f 26 bd 0b 10 35 bc 12 0a 88 3e c8 ab b9 3d
       -0.040572766 -0.011051188 0.26570183 0.09065968
0003c0 75 df 83 bd 38 85 6a 3e 62 20 62 bd 33 3e 50 be
       -0.064391054 0.22902381 -0.055206664 -0.20336227
0003d0 49 c7 7b be 21 3f 83 3d 7a c3 90 3e ff b5 d5 bd
       -0.2458774 0.06408525 0.28274137 -0.104351036
0003e0 1d 72 10 be 70 03 ef bc 07 b7 b6 3e 61 bc 51 3e
       -0.14106031 -0.029176444 0.35686514 0.20482017
0003f0 97 06 84 be 14 e3 4f 3e 30 7e 48 be a9 cd 2b 3e
       -0.25786278 0.20301467 -0.19579387 0.16777672

encoder.enc1.bias f4 [58]
000000 18 75 c6 bd c5 f6 fc 3d 21 74 11 3d 1b 1b 16 3e
       -0.096903026 0.12351755 0.03551114 0.14658777
000010 99 5d 09 3c 86 91 e3 3c e5 71 c8 3c db 89 02 bd
       0.008384132 0.027779352 0.024468372 -0.03186975
000020 95 28 e1 3d f4 aa a3 3d 89 41 42 3e 0e 55 e8 3c
       0.109940685 0.07991591 0.18970312 0.02836087
000030 16 03 d6 3d 5b bb 76 3d 06 e7 d9 3d 5a 5a c9 bc
       0.10449807 0.06023727 0.10639767 -0.024579216
000040 a9 70 c9 3d e3 bc 8a 3d 4e 3d 1a 3e 86 23 1b 3e
       0.09835941 0.067743085 0.15062448 0.1515027
000050 44 04 75 3d b0 be ba 3d 02 65 b9 3c 30 e1 85 bc
       0.05981852 0.09118402 0.022631172 -0.01634273
000060 65 0d 10 3e ec e8 a8 3d c7 1c 22 3d 71 cc 1b 3e
       0.1406761 0.08247551 0.039578225 0.15214707
000070 fc 87 5d 3d 3b eb 42 bd 33 4d be 3d 5c 08 95 3d
       0.054084763 -0.047587615 0.09292068 0.07276985
000080 3c 28 14 3e ed 92 c4 3d 85 52 cf 3d 61 13 a8 3d
       0.14468473 0.09598336 0.10123161 0.08206821
000090 d3 c5 8f 3d e7 61 65 bc 3a 30 d6 3d 28 06 96 bd
       0.07020154 -0.0140003925 0.10458417 -0.07325393
0000a0 cf 72 c6 3d bd b0 28 bc f9 94 8f 3d e9 32 5b 3d
       0.09689867 -0.010296044 0.07010836 0.05351535
0000b0 d8 d5 44 3d 18 65 46 3d 32 7a f6 3d dd d5 d0 3d
       0.0480555 0.048436254 0.12035026 0.10197041
0000c0 20 2a 96 bd b4 c5 37 3d dd 15 dc 3d 0f 82 26 3e
       -0.073322535 0.04486628 0.107463576 0.16260551
0000d0 4c 0f 04 3e 42 18 17 ba 79 c2 29 3c 48 70 ce 3d
       0.1289646 -0.00057638076 0.010361307 0.1008001
0000e0 36 74 b3 3d f3 7a 82 bc
       0.087624 -0.015927767

encoder.enc2.weight f4 [39, 58]
000000 f3 81 5d be c9 83 bf 3e c0 00 26 be 15 2b 2b 3e
       -0.21631603 0.37405232 -0.16211224 0.16715653
000010 64 20 3b 3d 11 7c d6 3e 2e e6 50 be e9 ea b1 3a
       0.045685187 0.4189153 -0.20400307 0.0013574037
000020 06 da 1f be 75 80 06 be 42 5e ff bc 64 1f 7e be
       -0.15610513 -0.1313494 -0.031172875 -0.24816662
000030 11 84 fa 3c be 38 9f 3e af 67 04 3e e7 df 8a be
       0.030580552 0.31097978 0.12930177 -0.2712395
000040 10 47 a7 bd be 28 22 be 6d 95 a7 3e 8e 6f 5a 3e
       -0.08167851 -0.15835854 0.3273119 0.21331617
000050 32 b3 f1 3e fa 8f 48 be 9d 34 7e be 40 bf 52 be
       0.47207028 -0.19586173 -0.24824758 -0.20580769
000060 18 5e d3 be b3 a0 4f bd 58 21 29 3e 80 50 b2 3e
       -0.41282725 -0.050690364 0.16516626 0.34827042
000070 67 e3 13 be d4 68 e8 3d 50 66 9a 3e 5b 28 c3 bd
       -0.14442216 0.113481194 0.30156183 -0.095291816
000080 05 f7 65 be 91 3e 24 3e 1e dc 97 3c a5 b6 13 3e
       -0.22457512 0.16039492 0.018537577 0.14425142
000090 e2 43 09 3d 2f 68 16 3f 69 09 e8 bc 4b 19 89 be
       0.033512004 0.5875272 -0.0283248 -0.2677711
0000a0 51 d2 73 3e 25 02 af 3d 5a 5a 8e 3e c6 00 d2 bd
       0.23810698 0.08545331 0.27803308 -0.10254054
0000b0 08 6b 0e 3e 89 b6 71 be 8f 9f c6 3e 96 e2 a6 3d
       0.13908017 -0.23604788 0.3879361 0.081486866
0000c0 9f 96 7b be 79 da 8f be 66 d9 4f 3e 92 49 ad 3e
       -0.24569176 -0.2809637 0.20297775 0.33845192
0000d0 2b 7a 9f 3e bd b9 7d 3d f8 ee 0b 3d 73 39 8c 3e
       0.31147894 0.061944712 0.034163445 0.2738758
0000e0 d6 69 d8 3c 1d 02 9e be 8e ea 18 3c 4b 72 af 3e
       0.026417654 -0.30860987 0.009333266 0.34266886
0000f0 35 3d 13 3e 00 f2 74 be ac 65 23 bd a4 35 9c 3e
       0.14378817 -0.2392044 -0.039891884 0.30509675
000100 6c 13 e7 be f5 6a c8 bd c0 3d 14 bd be 3e 61 bc
       -0.45132005 -0.097860254 -0.036191702 -0.013747869
000110 24 bd f4 bd f0 9e 2c 3e 23 7a 63 3e e0 53 f1 3e
       -0.11950138 0.16857505 0.2221456 0.47134304
000120 5c 35 da 3c 83 10 6b 3e cf 47 22 3e 06 75 68 3d
       0.026636772 0.22955517 0.15847705 0.056752227
000130 c6 8a 18 3e 61 37 19 3e 80 25 e2 3e 79 84 33 bb
       0.14896688 0.14962532 0.44169235 -0.0027392192
000140 9c 55 06 be e0 4a 00 bf 0c ea ae be 28 b6 84 3e
       -0.13118595 -0.5011425 -0.3416294 0.25920224
000150 cb fa 7d be a6 95 b5 bd 59 26 64 3e 8b 91 8d 3e
       -0.24802701 -0.08866434 0.22280253 0.27650103
000160 b2 99 81 3e 7b f7 ef 3d 64 5e 50 3d 43 39 99 3e
       0.25312573 0.11717125 0.050871268 0.299265
000170 f2 03 7a 3e 87 dd d9 3d 63 7f f1 be 4b c6 d5 3e
       0.24415568 0.10637956 -0.471675 0.41752848
000180 bb 91 e8 3d e4 7b 0a be 11 8a 84 3d e2 cf 9f 3e
       0.11355921 -0.13523823 0.064716466 0.3121329
000190 6b a7 7e 3e e7 be fd 3e f7 6c 70 3e c6 f9 9c 3e
       0.24868552 0.4955971 0.23479067 0.30659312
0001a0 57 3d 75 3e 4a 23 12 be 36 74 5d be 76 e2 5b 3d
       0.2394918 -0.14271274 -0.21626362 0.053682767
0001b0 19 b7 65 3d ef 55 c8 bd 81 85 9f 3e 5d 42 28 3e
       0.05608282 -0.097820155 0.31156543 0.16431566
0001c0 bb f4 30 3c 56 c3 2f 3e 4c d0 15 3e 4b 42 c0 3d
       0.010800536 0.17164358 0.1463024 0.093876444
0001d0 01 35 56 3e b6 90 0a 3f 4d 29 ee bd 23 a8 3e be
       0.20918657 0.5412706 -0.11628971 -0.18618827
0001e0 26 f6 8f be 0a d7 10 3f fd 8b 2f be 78 01 86 be
       -0.28117484 0.56578124 -0.17143245 -0.26172996
0001f0 02 80 e2 3d 33 8e c0 3e 0a 6b b4 3d 39 90 04 be
       0.11059572 0.3760849 0.088094786 -0.12945642
000200 f7 2d 83 3e c1 53 a1 bd 1a 75 41 3e 81 c0 d9 bd
       0.25621006 -0.07877303 0.18892327 -0.1063242
000210 81 8e 3b 3c f2 21 59 3c ff a7 98 be dc 30 8c 3e
       0.01144755 0.013252722 -0.2981567 0.27381027
000220 bf 8d 81 3d f4 69 1e be 4a 85 dd be b1 cf 02 be
       0.06325864 -0.15470105 -0.43265754 -0.1277454
000230 08 73 2c 3e c6 19 a9 3d 01 59 a7 be 6f 92 89 3e
       0.16840756 0.08256869 -0.32685092 0.26869532
000240 9b f0 6f be 42 20 14 3e a7 df 56 be fa 76 1e 3e
       -0.23431627 0.1446543 -0.20983754 0.15475073
000250 2f 0a 7c ba 05 08 8a 3e 04 c4 a0 3e c3 67 a7 3e
       -0.00096145546 0.26959243 0.31399548 0.3269635
000260 22 7e 21 bc e5 71 d7 bc bf f4 1d 3e c7 ed 41 3e
       -0.009856733 -0.026299426 0.15425394 0.18938361
000270 d3 0e a8 3e 2b ff b4 3e 7c 2e 5c 3e 31 82 b2 bd
       0.3282381 0.35350928 0.21502107 -0.08716238
000280 c1 59 04 3f 5a 9f d0 bd 1e c2 4d be 56 93 3a bd
       0.51699454 -0.10186644 -0.20093581 -0.045550667
000290 d8 05 17 3e cb 11 99 bd 03 ee 62 be b4 8b 21 3d
       0.14748323 -0.07474097 -0.22161107 0.039439872
0002a0 47 ba 28 be 12 63 9f bd 79 73 5d 3d 07 7b aa bd
       -0.16477309 -0.07782568 0.0540652 -0.08324247
0002b0 14 35 98 3d 96 72 cf be 80 87 22 be 09 31 9f be
       0.07431999 -0.4051711 -0.15872002 -0.31092098
0002c0 54 d3 db bf 2d a4 df bd e1 5c 03 3e 5c 1e 4d bf
       -1.7173867 -0.10919986 0.12828399 -0.8012445
0002d0 fb 50 43 3e f4 5f 22 bd 3f c5 2e bf 13 0b ae be
       0.1907386 -0.03964229 -0.68269724 -0.33992824
0002e0 58 9f ab 3e 2d c6 06 bf 63 16 75 be 51 a5 9a be
       0.33520007 -0.5264614 -0.23934321 -0.3020425
0002f0 ff 2d dc be c4 5b 84 be 8f 64 4f bf 20 f1 d4 3d
       -0.43003842 -0.25851262 -0.81012815 0.103975534
000300 e7 98 d2 3d 5d a1 84 3e e9 35 7c bf 86 d0 d0 bd
       0.1028307 0.2590436 -0.9851976 -0.10196023
000310 62 ee 57 3d 3d 3e 83 3e 1c 95 84 3c c2 99 f6 3d
       0.052717574 0.25633422 0.016184382 0.12041046
000320 8c 0c 85 3e c1 9d 31 bf f7 31 74 bc 61 27 8b 3e
       0.25986135 -0.6938134 -0.014904491 0.2717848
000330 e3 96 fd be e2 fa 5b bf 18 92 94 3e 05 a8 07 bf
       -0.4952918 -0.8592969 0.2901771 -0.5299075
000340 d9 04 13 bf f3 e5 38 bf 88 0e 38 be b3 4e 9b be
       -0.5742927 -0.72225875 -0.17974293 -0.3033348
000350 cf 62 84 3e 68 22 11 be b8 ea 38 bf aa 62 06 bf
       0.25856635 -0.14173281 -0.7223315 -0.524943
000360 8c 31 45 3e 91 98 09 bf 28 09 c5 bf c9 c2 4a 3e
       0.19257182 -0.5374842 -1.5393419 0.19800867
000370 a4 49 db be ce 5e 19 3e 69 ad 27 bf 1b f3 cd be
       -0.4282962 0.14977571 -0.6549898 -0.40224537
000380 ef e6 48 bf a0 56 94 be f8 30 34 be a4 e0 ea be
       -0.78477377 -0.2897234 -0.17596805 -0.45874512
000390 38 3f 0f bf 2f 9c 82 bf 7b 89 37 3d 43 56 4d be
       -0.5595584 -1.0203913 0.044808846 -0.20052437
0003a0 49 e8 7f be fe 92 2a 3e 4a da 8f 3e fe 8d 2d 3c
       -0.24990954 0.16657636 0.2809623 0.010592936
0003b0 27 d0 a3 3e 13 72 3d be f6 ee e9 3d 79 93 62 bd
       0.31994745 -0.18500547 0.11422531 -0.055316422
0003c0 3f 13 42 3e 33 3b 71 be f7 e7 85 3d 36 ae 9d 3e
       0.18952654 -0.23557739 0.065383844 0.30796975
0003d0 db 04 74 be d6 a7 9e 3e ce 11 9f be fa 9f 95 be
       -0.23829977 0.30987424 -0.3106827 -0.29223615
0003e0 ed 18 c0 3c 8c a2 76 3e ef b6 86 be ea f2 6e be
       0.023449386 0.24085444 -0.26311442 -0.23334852
0003f0 dc 33 96 be a2 55 48 3e ba 5d 8c 3c c0 fd 7d be
       -0.2933644 0.19563916 0.017134536 -0.24803829

encoder.enc2.bias f4 [39]
000000 95 3d d0 3d b0 8c f3 bc 7f 79 1c 3e e0 3a 8a 3d
       0.10167996 -0.029730171 0.15280722 0.06749511
000010 94 0c 03 bc ae 3c cd 3c 68 44 c1 3c 5d 4d 14 3d
       -0.007998604 0.025053348 0.023592189 0.036206592
000020 7d 3c a1 3d d5 ba 3b 3d 40 46 18 3e 48 ec ee bd
       0.07872865 0.045832474 0.14870548 -0.11666161
000030 4e f7 99 3b 4c d0 c9 bc 2b 77 c3 3c 70 b7 8d 3d
       0.0046986705 -0.024635457 0.023860535 0.069197536
000040 6f 09 f4 3c 2b f1 1e 3e ab bc bb 3d 0b 44 06 3e
       0.029789655 0.15521686 0.09166845 0.13111894
000050 a3 98 87 3d d4 d8 a1 3d 88 c6 b7 3c 9f f6 db bd
       0.0662091 0.07902685 0.022433534 -0.107403986
000060 ae e9 c7 3c f7 bf 05 3e 8d f5 b2 bc b2 0b 14 3e
       0.02440342 0.1306151 -0.021845603 0.14457586
000070 b5 0f 1e be 57 03 09 3d 35 a2 dc b9 49 4c c8 3c
       -0.1543568 0.03345045 -0.00042082524 0.024450438
000080 78 57 f7 3d 62 fe 74 bd fe f1 e9 3c 38 f2 e3 3d
       0.1207723 -0.05981291 0.028557774 0.11130184
000090 5d 70 ae 3d c5 46 af bc 21 b5 12 3e
       0.08517525 -0.02139605 0.14326908

encoder.enc3.weight f4 [19, 39]
000000 3f ae 19 3e 05 ae 71 3e 2b 28 87 3e 79 41 74 3c
       0.15007876 0.2360154 0.26397833 0.014908188
000010 7d e6 d4 3d 77 75 cd 3d f5 9b be 3e cf 5b 82 bd
       0.10395525 0.1003217 0.3722836 -0.06365167
000020 8f a5 b9 bd d0 28 b8 3e 29 f0 92 3e fc e9 97 be
       -0.09064781 0.35968637 0.28698853 -0.29670703
000030 34 2a a4 3e 52 4a b3 be db 24 53 be f6 7e 87 3d
       0.32063448 -0.3501764 -0.20619528 0.06616013
000040 67 1b 94 be 93 6f 3b be 9c 18 99 be 6a 54 77 be
       -0.28927156 -0.18304281 -0.29901588 -0.24153295
000050 58 cc c8 be e6 81 14 bd db d2 4b be 51 8b 84 3e
       -0.39218402 -0.036256693 -0.19904654 0.2588754
000060 76 1b 89 be 60 16 89 be 9e 87 2b be f6 50 9a be
       -0.26778764 -0.26774883 -0.16750953 -0.30139893
000070 5b 74 17 be 14 9a 83 be d9 aa de bd 69 70 69 bd
       -0.1479048 -0.2570349 -0.1087243 -0.05699197
000080 1e 56 f0 bd 2e d1 90 bd 6c 12 2d be 88 49 e4 3c
       -0.117351755 -0.07071148 -0.16901559 0.027867094
000090 0b 5a be be 97 f7 9a be 8a cf a3 be a3 cf 63 3e
       -0.37178072 -0.3026702 -0.31994277 0.22247176
0000a0 5d c8 f1 bb 8e ce fa bd 12 09 b0 bf b6 4f 33 be
       -0.0073786215 -0.122464284 -1.3752768 -0.17510876
0000b0 bb 26 20 bf f0 4d 86 be fa 6b 9c bf bb c0 17 3e
       -0.625591 -0.26231337 -1.2220452 0.14819615
0000c0 ce 45 33 be b7 55 2d bc 96 91 d6 3e d4 c6 42 bf
       -0.17507097 -0.010579518 0.41907948 -0.7608464
0000d0 94 4c 58 3a f8 ab 78 3e 12 8a aa bf 3f b2 88 bf
       0.0008251157 0.24284351 -1.3323386 -1.0679396
0000e0 58 e3 25 be dd a9 de bc 62 f2 44 be 0d 7a 79 3e
       -0.16200006 -0.027180606 -0.19233087 0.24362965
0000f0 97 e8 b4 bf 2d 9a ab bd 17 06 d9 3e 55 5c 86 3e
       -1.4133481 -0.08379016 0.4238746 0.2624232
000100 2f 8c 46 3e e5 22 46 3e 6a d5 80 bd 94 15 a6 3e
       0.19389413 0.19349249 -0.062907055 0.32438338
000110 0e 80 83 bf 52 35 39 3d 26 66 95 3e 83 4c a7 bd
       -1.0273454 0.045216866 0.29179496 -0.0816889
000120 6e 59 c3 bb 0b 3a 58 3e bd ea 1b be 3a c4 0f be
       -0.0059615886 0.21115892 -0.15226264 -0.14039698
000130 23 f4 bd 3e c8 c1 84 3e 2b 01 2e 3e 5b 5c 14 3e
       0.37100324 0.25929093 0.16992633 0.14488356
000140 28 50 39 3e 01 cc 8e bf e2 b4 20 be f2 3b 9e be
       0.18096983 -1.1156007 -0.15694001 -0.3090511
000150 cc 9f 80 3d 20 52 b6 bf 38 54 e3 3e 3f 82 5b 3e
       0.06280479 -1.4243813 0.4440019 0.21436404
000160 4b 90 81 3d e7 46 b6 be 50 2d 80 bf ab 12 4b bd
       0.0632635 -0.3560097 -1.0013828 -0.04957835
000170 3e 4f 75 3e 21 2b c5 bf ec 4e 71 be f7 10 35 3e
       0.2395601 -1.5403787 -0.23565263 0.17682253
000180 8d b7 2a bd c8 df 85 3e b3 ec 9d 3e 91 8e ee bf
       -0.041678954 0.26147294 0.3084465 -1.8637258
000190 02 02 e9 3e 9f f9 92 be 89 f4 95 be 93 f8 91 3e
       0.45509344 -0.2870607 -0.29288128 0.2850996
0001a0 1b 8a 42 3e 3b 22 f7 3d 4a 77 9d 3d fa 94 98 bf
       0.18997996 0.12067076 0.07688768 -1.1920464
0001b0 95 c9 92 be 01 c9 89 bd 8d 3a 8c be c6 62 0d be
       -0.2866942 -0.067277916 -0.2738842 -0.1380721
0001c0 12 89 df 3e ee e4 f8 bd 51 04 9a 3e 3a 7c ae bd
       0.43659264 -0.1215304 0.30081418 -0.08519788
0001d0 fb ba b0 3d 0c 19 36 bf 0e 23 b5 bd cb 7b b0 3e
       0.08629414 -0.7113197 -0.08844577 0.34469447
0001e0 b5 5e 89 be cf 9d a0 3e 0f 52 39 3e 3c ac 98 be
       -0.26830068 0.31370398 0.18097709 -0.29818904
0001f0 6f 35 10 3e e5 39 b1 bf 5a ac 20 3e 61 c6 0a bf
       0.14082883 -1.3845793 0.15690747 -0.5420895
000200 27 9e 5c 3e ce 78 04 3e 73 b8 61 3e c4 b2 ba bd
       0.21544705 0.12936708 0.22043018 -0.09116128
000210 6c 4e bf 3d 48 60 81 be a9 76 4b be fc 83 a5 be
       0.0934113 -0.2526877 -0.19869484 -0.3232726
000220 70 a8 00 3f 65 95 0c bd 79 c6 83 be 14 54 6a be
       0.50257015 -0.03432216 -0.2573736 -0.22883636
000230 1c ad cd bd b3 ca 93 3e d0 53 43 be e4 0c f0 3d
       -0.100427836 0.28865585 -0.1907494 0.11721209
000240 4f 55 15 3e ba 1f ab 3f eb 2f 90 be 58 ce c1 be
       0.14583324 1.3369057 -0.28161559 -0.3785274
000250 3c e1 c7 3d 2a 9d b9 3e 0c 4b bc be af 9a c9 3e
       0.09759757 0.3625272 -0.36776006 0.39375827
000260 66 32 7d bf 65 85 ba be 38 cc 82 3e 52 0d 21 bf
       -0.98905027 -0.36429897 0.25546432 -0.6291095
000270 e1 b1 0f bf 5a 86 9f bf 11 09 40 bf 16 fc 7d 3f
       -0.56130797 -1.2462876 -0.75013834 0.9921278
000280 1e ee 81 be 0e d5 31 3f 51 7f a6 3e 80 73 45 3f
       -0.25376981 0.6946572 0.3251901 0.77129364
000290 bb 1e 28 3c 0f 2c 0f bf be fd d4 3d 5d 82 a8 bf
       0.010261233 -0.55926603 0.1039996 -1.3164784
0002a0 61 71 91 3f c7 82 a1 3e 65 9f 99 bf 26 3c 7a 3f
       1.1362725 0.31545088 -1.2001768 0.9774803
0002b0 52 e0 18 3f 59 36 14 3d cf a0 a7 be e7 2b 9a 3e
       0.59717286 0.036184642 -0.32739875 0.3011162
0002c0 df 8d 61 bf ed a0 aa 3f f9 7b 19 bf 6b 8a bd bf
       -0.88107103 1.3330361 -0.5995479 -1.4807867
0002d0 2c 9f 7a bf 0e c0 ce bc a6 2e 9c 3d 67 92 c1 3e
       -0.97899127 -0.025238063 0.07626085 0.3780701
0002e0 8e 8b a9 bd bf d9 76 3f af e3 82 3e dd 96 28 bf
       -0.08278571 0.96426004 0.25564334 -0.658552
0002f0 1d 19 93 be 26 8f 43 bf a7 57 bc bd b3 e2 b0 3e
       -0.28730097 -0.763903 -0.09196406 0.34547958
000300 97 3e 3c be 6b 1e 71 bf d5 f0 bf 3d 8c 26 03 3c
       -0.18383251 -0.9418704 0.09372107 0.008004796
000310 45 69 dc bd 64 80 44 3e b3 09 b9 bf 01 ac 89 3e
       -0.10762266 0.19189602 -1.4456085 0.2688904
000320 76 d9 a2 be 2d 2c 7d 3d 36 6a 88 bf c6 d9 9c 3e
       -0.31806535 0.061809707 -1.0657413 0.30634898
000330 94 f0 61 be 1d a4 bf 3e 50 65 1a bf d0 c8 b2 bf
       -0.2206443 0.37429896 -0.6031084 -1.3967533
000340 eb 12 be 3e 9e 9f 03 bb 99 ca 97 bf 7b 43 a1 be
       0.37123808 -0.0020084153 -1.1858703 -0.31496796
000350 c3 33 bc 3d 14 d5 99 3d 76 73 c9 3e 87 25 c1 3e
       0.0918956 0.075113446 0.39345902 0.37723944
000360 92 a0 f0 bf 29 77 3a 3e 3b 75 9d 3c a2 f6 5d be
       -1.8799002 0.18209518 0.019220939 -0.21676114
000370 14 05 8c 3e 58 df c8 bd 4a 1f b9 3d b8 d7 bb 3d
       0.27347624 -0.098082244 0.09039171 0.091720045
000380 2b 32 cc bf 3e 1f 72 bc ce a0 a9 3e 6f d5 c2 bd
       -1.595281 -0.0147779565 0.33130497 -0.095133655
000390 cb 92 56 3e 48 94 67 be f4 cd ab bd 06 c1 e1 bd
       0.20954435 -0.22615159 -0.08388892 -0.110231444
0003a0 45 18 6a 3e 9e db 8c 3d 56 94 90 3d ec ad ad bf
       0.2286082 0.06877826 0.07059543 -1.3568702
0003b0 f9 11 55 bf 43 28 1f 3f 00 ac 9b bd 2c 96 8c 3f
       -0.8323055 0.6217081 -0.07601166 1.0983329
0003c0 a7 4d 4d 3d a2 51 dc 3e 16 af 07 bb 2d b9 0f bf
       0.050122883 0.4303103 -0.0020703725 -0.5614193
0003d0 79 b9 21 be a6 bb 80 bf 49 46 5f 3f 62 2b 76 3e
       -0.15793408 -1.0057266 0.8721662 0.24039987
0003e0 6a 3c 64 bf 81 bb 89 3f 36 b2 27 3f fe a3 cf bd
       -0.89154685 1.0760347 0.65506303 -0.10138701
0003f0 75 ed 14 3e b8 0b 09 3e 1f ff 47 bf 02 3d 92 3f
       0.14543708 0.13383377 -0.7812366 1.1424868

encoder.enc3.bias f4 [19]
000000 00 00 00 00 e2 e7 e9 bd a3 95 ea 3d d6 7b c3 bd
       0.0 -0.11421181 0.11454322 -0.09545104
000010 dc 68 1c 3d 58 95 f0 3d 27 af 8d 3d 22 b8 dc 3d
       0.03818594 0.11747235 0.06918173 0.10777308
000020 31 5c 3f 3e b8 79 cf 3d df ad 62 3d 66 46 1d 3e
       0.18687512 0.10130638 0.055341598 0.15358886
000030 ef 4c c5 3b c0 03 85 3d 82 b6 1c 3e 9d 78 c7 3d
       0.006021134 0.06494856 0.15303996 0.09739802
000040 12 71 bf 3d 3b ca 40 3e b9 70 06 3e
       0.09347738 0.18827145 0.13128938

encoder.enc4.weight f4 [7, 19]
000000 33 42 48 bd d9 a1 a0 3e 2c 63 8a 3e b0 5d cc 3f
       -0.048891257 0.3137348 0.27028787 1.5966091
000010 78 03 55 3f 85 d2 18 bf 90 ce 12 3f 7e 1f 24 bf
       0.8320842 -0.5969623 0.5734644 -0.64110553
000020 7f db 0f be 24 59 fc bd e2 95 00 bf 1a 7d 89 3e
       -0.14048575 -0.1232169 -0.50228703 0.26853257
000030 d9 fd 04 bf 70 db 04 bf 7f a3 61 3e 35 47 da bd
       -0.5194984 -0.51897335 0.22035025 -0.10658113
000040 66 ac e6 be 1e 84 e0 3e 62 04 36 3f 43 b0 03 bf
       -0.45053405 0.43850797 0.7110044 -0.5144083
000050 a7 47 a6 be 53 db fc 3e 28 15 ff bf b1 5c 93 bf
       -0.3247654 0.4938608 -1.9928331 -1.1512662
000060 de d0 97 3e 2f 43 0e bf c0 df 92 3e df ed d9 3e
       0.2965154 -0.55571264 0.28686333 0.42564294
000070 8b e0 91 3e 0c c2 d0 bd c1 c5 81 bf d5 f4 c6 bd
       0.28491625 -0.101932615 -1.0138475 -0.09714667
000080 dd 7d 74 3e d4 19 35 3f 18 01 0c 3f 99 cd c4 3e
       0.23876138 0.70742536 0.5468917 0.3843811
000090 90 ae 41 3e a9 83 20 bf d7 bc 1f be 44 d6 8e 3c
       0.18914247 -0.627009 -0.1559938 0.017436154
0000a0 76 64 de bd dc 19 f4 3f 91 50 25 3f 49 ed 42 be
       -0.10859005 1.9070392 0.6457606 -0.1903583
0000b0 dd 61 8c 3f 4a b3 17 bf a5 ae c3 bd 20 76 85 3d
       1.0967366 -0.5925795 -0.09554795 0.06516671
0000c0 bf cb 27 3d 01 61 84 3f d6 42 ea 3e d3 56 a9 3e
       0.04096579 1.0342103 0.45754117 0.33074054
0000d0 8a e2 97 be a5 6b c1 be ac 04 30 bf ae ac 32 be
       -0.29665023 -0.3777744 -0.6875713 -0.17448685
0000e0 d0 75 ac 3e b9 c5 5c be 7c 6d ce be a2 b6 53 3d
       0.33683634 -0.215598 -0.40317905 0.051687844
0000f0 f1 8f a7 bf 45 84 1d bf 16 5c ac be b3 28 42 bf
       -1.3090802 -0.6152995 -0.33664006 -0.7584335
000100 9b 95 a6 3d 1e b0 17 3f b5 75 c2 3e 69 48 e4 3e
       0.08134004 0.5925311 0.37980428 0.44586495
000110 7f fd 23 bf 61 f5 93 be aa b0 25 3f 23 eb 1d 3e
       -0.6405868 -0.28898147 0.6472269 0.15421729
000120 f4 a5 8b 3d 1e 57 6f 3e e4 0e 43 3e 04 13 0f bf
       0.068187624 0.23373076 0.19048649 -0.5588839
000130 6b 96 08 3f a2 0a a6 be 97 ea 8a be 17 fb fa bf
       0.5335452 -0.32429987 -0.27132103 -1.9607877
000140 d5 d8 62 bf de ab 62 be 3e 38 8b bf eb 30 96 3e
       -0.8861211 -0.22135875 -1.0876539 0.29334196
000150 79 08 11 3f b0 0b 81 be b4 68 33 3e b2 83 f2 be
       0.56653553 -0.2520423 0.1752041 -0.473661
000160 a6 d7 0e 3f 1a cb e4 3e e3 d0 9c 3d 0b fe 43 bd
       0.55797803 0.44686204 0.076570295 -0.047849696
000170 27 df 0f 3f c8 20 1c 3f 5e e8 af bd 36 dc 6b 3d
       0.5619988 0.6098752 -0.085892424 0.057583056
000180 87 15 8c be 9a 6b 2e 3f e7 8d f8 bf 57 83 62 bf
       -0.27360174 0.68132937 -1.9418305 -0.8848166
000190 78 f7 af 3d 99 ed 83 bf 52 d3 c9 3e e2 27 01 3e
       0.08592123 -1.0306884 0.39419037 0.1261287
0001a0 29 9a 12 3f 33 b0 02 3f 1d b1 88 bf 29 ce 96 bc
       0.5726648 0.5105011 -1.0679051 -0.018408852
0001b0 ac 80 4f 3d 81 f3 63 3e 6c 08 12 3f fe 35 0d 3f
       0.05065982 0.22260858 0.570441 0.5516051
0001c0 31 49 c2 be 29 cf 76 bf 1a 9b 1e 3d 55 d1 03 bf
       -0.37946466 -0.9640985 0.038722135 -0.5149129
0001d0 f4 a3 ed 3e e5 e8 10 c0 fe 86 5e bf 9e 53 87 3d
       0.4641415 -2.2642148 -0.8692473 0.066077456
0001e0 f5 31 1c bf d3 50 92 3e 8e da 1d 3f bf d4 55 be
       -0.6101373 0.2857729 0.61661613 -0.20881937
0001f0 ca b0 d7 3b 0f 28 29 bf 09 89 40 be ee 6d d8 3e
       0.006582354 -0.6607675 -0.18802275 0.4227137
000200 23 ea f3 3e ed e3 d2 3e 94 cf 2e 3f 29 09 20 3f
       0.4763957 0.4118952 0.6828549 0.6251398
000210 ce 7c 60 bf
       -0.87690437

encoder.enc4.bias f4 [7]
000000 0f 5d bd 3c 83 4f 77 3c 73 35 0e bd 8a 34 38 bd
       0.023115663 0.015094641 -0.034718942 -0.04497198
000010 48 1e c1 3c c3 dd ac 3c f2 1d d6 bc
       0.02357401 0.021101838 -0.026137326

decoder.dec1.weight f4 [19, 7]
000000 99 7a d5 be 39 38 28 bf 99 86 ce 3e bb fd 2d bf
       -0.41695097 -0.6571079 0.40337065 -0.67965287
000010 73 61 22 bf 1f 7d a7 3e 6f 13 07 bf 9b b7 67 be
       -0.63429946 0.32712647 -0.5276403 -0.22628634
000020 2a 8f 19 be d3 c2 91 3e 4e 7c 0f 3f 14 ad 69 3e
       -0.14996019 0.28468952 0.5604905 0.2281993
000030 48 33 5e 3f 11 4f 9a be 4e 04 b9 3c 1f 6f 89 be
       0.86797 -0.30138448 0.02258506 -0.2684259
000040 14 b8 17 3f 80 99 05 3f 36 59 d0 be 9f 5c 0b 3c
       0.59265256 0.5218735 -0.40693063 0.008505969
000050 8b 36 56 3f c6 e4 1c be d4 be 4f 3f 18 c8 3b 3f
       0.83676976 -0.15321645 0.81150556 0.73352194
000060 70 36 37 bf 15 2f 2f bf 30 6c 21 3f 10 08 37 bf
       -0.7156744 -0.68431216 0.63055706 -0.7149668
000070 07 9e 5d be 38 45 44 bf c9 03 cd b9 df bb 3e 3f
       -0.21642314 -0.7666812 -0.00039103467 0.7450542
000080 27 c4 a9 bd 9a 36 df be 7a 71 1c 3f 44 97 f6 be
       -0.08289366 -0.43596345 0.6111065 -0.48162282
000090 1b cb 44 bf 69 11 2c bf 82 e6 c3 3e 24 10 86 be
       -0.76872414 -0.67214066 0.382618 -0.2618419
0000a0 84 09 9a be 0e f0 2e 3f 8f e4 14 bd 09 57 a9 3d
       -0.30085385 0.68335044 -0.036350783 0.08268554
0000b0 d6 37 ea bd c9 59 71 3e 58 24 1c bf e9 4a 18 3e
       -0.11436431 0.23569407 -0.60992956 0.14872326
0000c0 92 d9 44 3f ee 0f 0e 3e df fe bf 3e c4 c9 2a be
       0.76894486 0.13873264 0.3749914 -0.1667853
0000d0 ce f0 37 3f b0 f3 15 bf 26 4a 35 3d 84 36 8d 3e
       0.71851814 -0.5857496 0.044260167 0.27580655
0000e0 79 11 ab 3e a1 f0 de be 74 dc 26 3f e9 81 a7 be
       0.33411768 -0.4354296 0.65180135 -0.327163
0000f0 0e cd f4 be b1 6f 77 3e 40 bd 3f 3f e6 d5 f4 be
       -0.47812694 0.241637 0.7489815 -0.47819442
000100 8c ed 89 bc a9 51 03 bf 09 3e bb 3e d9 31 34 bf
       -0.016836904 -0.5129648 0.36570767 -0.7038856
000110 ae 21 4a 3f d9 e9 41 3f 84 20 50 be 75 24 de be
       0.7895764 0.7574745 -0.20324904 -0.4338719
000120 66 78 a3 bd cc 12 35 bf c3 c0 12 bf 97 a6 ea be
       -0.079819486 -0.70731807 -0.5732538 -0.45830223
000130 96 47 cd 3d ee 5f 15 3f 21 30 6e be 15 74 2e 3e
       0.100234196 0.583495 -0.23260547 0.1703647
000140 62 2f 3a bf 39 7c bd be 1b 3f 38 bf c4 1a 03 3e
       -0.7272855 -0.37008837 -0.7197129 0.12803179
000150 1b bf bc be 33 d8 e9 3e e6 48 ef bd af 36 35 bf
       -0.36864552 0.4567276 -0.11683826 -0.70786566
000160 cc f2 b2 be 2f 49 f9 be 4a 61 4d 3e da 9d e8 bd
       -0.34950864 -0.48688647 0.20056644 -0.11358233
000170 93 d5 4f bf cf 02 49 bf 7b e4 1e 3f 54 b4 c1 bd
       -0.81185263 -0.7851991 0.62067384 -0.09458223
000180 e9 96 12 bf 31 9d 61 3d 72 7d 1a bf 20 25 6e 3d
       -0.5726152 0.05508155 -0.60347664 0.058140874
000190 ab 5e b7 3e 03 d4 55 3f 35 64 24 3f bf 39 38 bf
       0.35814413 0.8352663 0.64215404 -0.71963114
0001a0 87 f7 e7 be ba 46 1a bf bf 5c 1a be 43 ab 44 3f
       -0.45306036 -0.6026417 -0.15074442 0.76823825
0001b0 b6 f3 8f 3e c3 96 52 bf ab 7e a6 be 74 aa 8a 3e
       0.28115624 -0.82261294 -0.32518515 0.2708317
0001c0 6b 9c da be 18 56 40 3e 7c 27 36 bf f8 dd 3a bf
       -0.42697462 0.18782842 -0.71154 -0.7299495
0001d0 9a 0e 0c bf b4 87 13 bd 2c c4 32 be de 17 11 bf
       -0.5470978 -0.03601809 -0.17457646 -0.56677043
0001e0 ac 31 8f 3e c3 fe ba be 0a f2 0a 3f 26 1c 4d bf
       0.27967584 -0.36522493 0.5427557 -0.80121076
0001f0 20 09 42 bf 03 a5 38 3f ba 99 2a bf b2 d8 38 bf
       -0.75795174 0.7212679 -0.6664082 -0.7220565
000200 0d 6b 69 bf 9b 5d 62 3f 36 dd 5d bf 16 30 2a be
       -0.9117897 0.8842408 -0.86665666 -0.16619906
000210 1c c7 52 3e
       0.20583767

decoder.dec1.bias f4 [19]
000000 29 01 64 bd 5e 48 19 3d 6f b8 61 bc cc 9f 0c be
       -0.05566517 0.03742253 -0.013776883 -0.13732833
000010 54 ca 0e bd be 3b 6b 3d 11 19 04 bd 40 42 0d bd
       -0.034860924 0.05743002 -0.032250468 -0.03448701
000020 a3 a3 37 bb a9 c6 26 3d cb 16 df bc cd 95 9c bc
       -0.002802112 0.0407168 -0.027232548 -0.0191144
000030 80 c4 a1 bd 74 9a 1a 3d 5f 4b c2 bc 9b de b7 bd
       -0.078988075 0.037744954 -0.02371758 -0.089780055
000040 da 97 76 3c 19 4c 44 bc 24 be 16 bd
       0.015050853 -0.011981034 -0.036802426

decoder.dec2.weight f4 [39, 19]
000000 20 d0 59 be 28 77 db be bc 23 9c bd 84 1e 01 bf
       -0.212708 -0.42864347 -0.07624003 -0.5043719
000010 68 3a cf 3e 2c 16 f1 be 63 92 0b 3f f9 f1 4b be
       0.40474248 -0.47087228 0.54520243 -0.19916524
000020 ea d4 a1 be 94 0a 7f be dd 29 a4 be 02 e7 92 be
       -0.31607753 -0.24906379 -0.3206319 -0.2869187
000030 7f c6 69 be 82 81 bb be 9a 7c a0 be 94 2e 64 be
       -0.22829627 -0.36622244 -0.31345063 -0.22283393
000040 cd c5 b6 be ce df 64 3d f9 54 da be e8 4e e5 3e
       -0.35697785 0.0558775 -0.42642954 0.44786763
000050 29 0c a6 be 4c b5 e9 be a4 f8 a0 3e 3d 6a ee 3d
       -0.32431152 -0.4564613 0.31439698 0.11641357
000060 41 25 06 3e 91 91 7b be 07 df ca 3e 7e 07 ed be
       0.13100149 -0.24567248 0.3962328 -0.4629478
000070 0f 88 ea bd e1 48 cb be 7d ac 77 3e da 81 03 3f
       -0.11451732 -0.3970404 0.24186893 0.5137001
000080 0e 1e f9 be 07 f1 50 be 7d 69 26 3e ed d8 87 be
       -0.48655742 -0.20404445 0.16251178 -0.2653269
000090 af 92 8c 3e 11 13 9a 3d 60 9c 62 be 46 19 1f bd
       0.2745566 0.07523168 -0.22129965 -0.038842462
0000a0 2b 3b d8 bd 14 2e f3 be dc e0 c4 be 5b a8 ac bd
       -0.105581604 -0.47496092 -0.38452804 -0.08430549
0000b0 19 ae 54 bd ec 5d d6 bd 4d d3 d7 be 94 4f 11 be
       -0.051923845 -0.10467133 -0.42153397 -0.14190513
0000c0 46 f6 5d 3c 21 61 7d be b2 af 00 bd 63 8f 18 be
       0.013547486 -0.24744083 -0.031417556 -0.14898448
0000d0 ba 43 b5 3e e5 4b be bd 90 14 b7 be ad 0c d0 3e
       0.35403234 -0.092918195 -0.35757875 0.4063467
0000e0 15 99 b7 bd a9 cc cd bd 05 4a 62 3e 46 ef e3 3e
       -0.08964745 -0.100488015 0.22098549 0.4451849
0000f0 16 7f c4 be 78 2d 4a 3e fc f3 3c bc ba f6 ff 3e
       -0.3837821 0.19743907 -0.01153278 0.49992925
000100 6b 45 0e 3e e3 c6 34 be 31 d3 00 3d 7f cd 96 3d
       0.13893668 -0.17653994 0.031451408 0.07363414
000110 c8 8d a1 3d 73 55 42 3e bb 97 4f bd e1 2a 90 3d
       0.07888371 0.18977909 -0.05068181 0.070394285
000120 67 7e d2 be ca 92 c1 be 0c 52 30 3e f3 5c 71 be
       -0.41112062 -0.37807304 0.17218798 -0.23570614
000130 f5 99 d2 be 1f 13 03 bf 9a 50 0f 3f 6c 34 21 3f
       -0.41133085 -0.5120105 0.55982363 0.62970614
000140 ae 04 c6 be ee 7e 4f 3e e8 f2 15 3f 64 28 89 bd
       -0.38675445 0.20263264 0.5857377 -0.06697157
000150 e8 01 f8 3e 87 ab d3 bc ad 32 1f be a1 cc d0 bd
       0.48438954 -0.025838627 -0.15546675 -0.1019528
000160 aa c7 8c be 9f 33 9d 3e d5 4d 49 3e 0a 6c af be
       -0.27496082 0.30703446 0.19658597 -0.34262115
000170 19 6b 52 3e 41 f3 a5 be 5f 97 ff bd 34 1e 8d 3e
       0.20548667 -0.3241215 -0.124800436 0.27562106
000180 72 1d 03 3f 21 9a f4 bd d8 7a 6c be 09 51 85 be
       0.51216805 -0.1194346 -0.23093736 -0.26038387
000190 bd 8b 8e bd c1 24 97 3e f3 1e 9f be 71 ab e6 3d
       -0.06960247 0.29520229 -0.310783 0.112631686
0001a0 a4 79 f6 be ef 2a 60 3e 2a da e2 be e2 ff fa be
       -0.4813968 0.21891378 -0.4430707 -0.49023348
0001b0 03 ae 99 be 97 db 67 be 42 a5 d0 bd ad d2 6f 3e
       -0.30015573 -0.2264236 -0.101877704 0.2342021
0001c0 9f cf 97 bd 00 17 8e bd df 76 c0 3e a5 a4 cd be
       -0.074126475 -0.06937981 0.3759069 -0.40164676
0001d0 3f b0 9d 3e 04 29 f2 3e f8 61 e1 3e a1 12 ca be
       0.30798528 0.47296917 0.44020057 -0.39467338
0001e0 72 15 c9 3e 70 22 75 3e 70 29 f8 be 2a 72 37 be
       0.39274174 0.23938918 -0.48469114 -0.17914644
0001f0 b5 43 59 3e cf 9d c6 3c 8f 44 40 3e 6d bd a0 bc
       0.21217234 0.02424517 0.18776153 -0.019621575
000200 71 18 b2 bb 08 28 da bc 3e b4 8b 3e b0 e5 87 3e
       -0.0054350425 -0.026630417 0.2728595 0.26542425
000210 c4 de fc 3d ab 6a 68 3d 94 29 20 3e 69 3c 07 3e
       0.12347177 0.05674235 0.15640861 0.13206638
000220 2a c1 3a 3e 77 c7 e0 3e 4c 67 87 3d e7 e8 59 be
       0.18237749 0.4390218 0.06611499 -0.21280251
000230 6a e6 bd 3a bc 5d a6 3e 34 50 1f be 48 31 b7 3d
       0.0014488224 0.3249339 -0.15557939 0.089449465
000240 66 50 1d bd a4 69 55 3c d7 e2 f7 3e 97 8d 97 3d
       -0.038406752 0.013025675 0.48415253 0.07400053
000250 8a ca d0 be 08 5e aa be 93 4a 22 bf b5 62 20 3e
       -0.40779525 -0.33274865 -0.6339504 0.15662654
000260 aa 9a 71 3e d4 6c 66 bd 10 89 4f 3e ea d6 5d 3e
       0.23594156 -0.05625613 0.20267129 0.21664014
000270 f4 31 3b bf c1 3e c3 bd ae 2d f0 3d ec 02 d5 bd
       -0.731231 -0.09533454 0.11727463 -0.10400948
000280 dd 40 46 be a4 9a 44 3e 7d 35 95 be c2 c8 fe 3d
       -0.19360681 0.19199616 -0.2914237 0.12440635
000290 f9 fc a2 be 7e d2 83 3e 09 37 f6 be 56 44 85 be
       -0.31833628 0.2574653 -0.48088863 -0.260287
0002a0 15 0a ad 3d 54 07 b7 be 1c 24 70 3d 50 29 01 3e
       0.084491886 -0.35747778 0.058628187 0.12613416
0002b0 a2 74 b5 be 81 06 c2 3e f3 79 d2 be 37 21 80 be
       -0.35440546 0.37895587 -0.41108665 -0.2502534
0002c0 2d 51 62 be 93 91 10 be 19 e0 9d be 53 05 93 3e
       -0.22101279 -0.14118032 -0.30835035 0.28715
0002d0 d0 88 91 3c 7c dd 9c 3e 05 5e f4 3e 0f 72 e9 be
       0.017765433 0.3063773 0.4772798 -0.45594832
0002e0 06 8f ed be 96 51 84 3e 4e d7 fa 3e 88 c0 9d 3d
       -0.4639818 0.25843495 0.4899239 0.07702738
0002f0 a0 02 e0 3e 63 be 1a 3f 76 9d a1 3d 68 d1 25 bc
       0.43752003 0.6044676 0.078913614 -0.010120727
000300 c9 ee 74 be 73 aa d7 be 6a 54 0f 3e 08 1c a2 3e
       -0.23919214 -0.4212223 0.13997045 0.3166201
000310 45 07 7a be 18 df c9 be f5 b4 7c be 75 5f ac 3e
       -0.24416836 -0.3942802 -0.24678405 0.33666578
000320 55 8a 0b 3f 63 03 a0 3e 06 35 ba 3c 5a fd 07 3f
       0.5450795 0.31252584 0.022730362 0.5312096
000330 d4 9f c6 bd a0 89 1d 3e 99 4f 8c be 38 87 2b 3e
       -0.096984535 0.15384531 -0.27404478 0.167508
000340 fa 8e 9e 3e 93 f3 a9 be 68 81 d3 be 66 92 4c 3e
       0.30968457 -0.33193645 -0.41309667 0.19977722
000350 3b 29 ca be 42 68 4e 3c 7d b6 c3 be 4d 40 4c be
       -0.3948458 0.012598099 -0.38225165 -0.19946404
000360 cd 9c 14 be 25 bd 17 be 1a 2e 28 be d0 0d d9 3d
       -0.1451294 -0.14818247 -0.16423836 0.10598338
000370 43 1a c1 3e 6c 3f 0e 3e cc 65 1e be 94 b3 db 3e
       0.3771535 0.13891381 -0.1546852 0.42910445
000380 a5 28 8f 3e 16 d3 fb 3e 69 b5 f4 be 3d e3 c7 3e
       0.27960697 0.49184483 -0.47794655 0.39040557
000390 3d 28 ec 3e 38 0c 18 bd 04 f4 ad 3e e5 0d 9d be
       0.4612445 -0.037121028 0.33975232 -0.30674663
0003a0 c9 3a 5f be 26 6a 19 bf 2d 54 dd be 01 75 e5 3c
       -0.21799769 -0.59927595 -0.43228284 0.028009893
0003b0 50 17 ad 3e 56 7f 9f 3d 9e 4a 81 3e 2f 3f e2 bd
       0.3380685 0.07787959 0.2525224 -0.110472076
0003c0 5f 1c 22 be 90 e0 b1 be 9e d7 bb 3d dc 8e 50 3e
       -0.15831135 -0.3474164 0.09171985 0.20366997
0003d0 7a 16 0b 3e 43 c1 ed 3d 66 b8 3d 3e 53 78 17 bd
       0.13582793 0.11609127 0.18527374 -0.036979984
0003e0 0b 80 ad 3e f2 12 8f be 9d 12 ff 3e b2 4c 42 be
       0.33886752 -0.27944142 0.49818888 -0.1897457
0003f0 bb e9 1f bd 7d 7c 93 be 77 6a 79 3e ef c0 da bc
       -0.039041262 -0.28805915 0.2435702 -0.026703326

decoder.dec2.bias f4 [39]
000000 9d 9a 14 bc a4 c7 45 bd ee dc 00 bc 9e 0c 21 bd
       -0.009070066 -0.048286095 -0.007865174 -0.039318673
000010 7f 60 81 3d 45 b4 1c bb 00 43 e9 3b 3d 66 14 3d
       0.06317233 -0.002391116 0.0071185827 0.036230315
000020 f7 7f a1 bb 2f 66 04 3d 8a 42 b9 3c 60 c5 7c bc
       -0.0049285847 0.032324012 0.022614736 -0.015427917
000030 ac e4 86 bc 24 28 ec 3b 10 f3 51 3d 4a 62 5c 3d
       -0.016466461 0.0072069336 0.051257193 0.053804673
000040 ec 36 1d bc 71 1b cb bc 92 51 b2 bc f4 d4 18 bd
       -0.009595614 -0.024793359 -0.021767411 -0.037312463
000050 79 2f ca bc fc dd 84 3c 69 5e 8e 3d c4 8b fb bb
       -0.02468084 0.016219132 0.06951601 -0.0076765735
000060 e4 59 a7 3d 42 73 34 3b 38 e2 bc 3c 27 70 10 bc
       0.08171442 0.002753452 0.023057088 -0.008815802
000070 46 3e 0e bd 5e 9e 38 bd ee 35 98 bb 9c 49 66 3e
       -0.034727357 -0.045072906 -0.004645101 0.22489017
000080 c9 4e 40 3d 16 d8 12 bc 68 30 1b 3d de 37 03 bb
       0.046950135 -0.008962652 0.03788796 -0.0020022313
000090 80 1f 28 3d bc 9b 49 3b 82 ed 0d bc
       0.041045666 0.003076299 -0.008662583

decoder.dec3.weight f4 [58, 39]
000000 5f 1c 61 3e 46 fa 39 be 88 e3 20 3e c3 6e f3 3c
       0.21983479 -0.18161878 0.15711796 0.029715901
000010 e2 af 00 be a6 5d ee 3c 10 83 94 3e 70 50 a5 be
       -0.12567094 0.02909739 0.29006243 -0.3228793
000020 16 5f b2 be 97 dd 7d 3c e3 b2 d2 3d 84 c7 6d be
       -0.3483817 0.015494726 0.10288026 -0.2322064
000030 49 f7 a2 be 6a ce c1 3e f4 d9 2c 3e d8 6b 56 bc
       -0.3182929 0.37852794 0.16880018 -0.013087235
000040 89 88 ec 3c e8 f1 e6 3c 23 cd 90 bd ce 6d 85 be
       0.028873699 0.028191522 -0.07070377 -0.26060337
000050 e5 cc 4a 3e b4 16 f8 3d 2f 15 b0 be 8d cd bf be
       0.19804724 0.12113705 -0.34391162 -0.3746151
000060 23 1e a5 bd 00 44 60 3d c6 04 a0 be 6e 15 7f 3e
       -0.08062389 0.05475235 -0.31253642 0.24910519
000070 c2 c4 bd be 57 f5 69 3e 97 76 03 be 02 13 46 be
       -0.37064177 0.22847496 -0.12838207 -0.19343188
000080 3c 67 16 3d 55 ff b8 be 6b e0 09 3e 6c 00 8e 3d
       0.036719546 -0.36132303 0.13464515 0.06933674
000090 44 d6 4f be 84 11 74 be e9 de ae 3d c4 c2 98 3c
       -0.2029658 -0.23834807 0.085386105 0.018647559
0000a0 1f ee c9 3e 09 4f cc 3d 7f 70 e0 bd 85 e5 c5 be
       0.39439484 0.09976012 -0.10958957 -0.38651672
0000b0 58 d6 af be d3 ef b8 bc 3a 9e 99 3e b0 2a 94 3f
       -0.3434322 -0.022575295 0.3000353 1.1575527
0000c0 9c 6e d6 be 9b be cd be 70 ec 1f be 22 89 5c 3e
       -0.41881263 -0.40184483 -0.15617537 0.21536687
0000d0 1e da 52 bd 65 a2 bf 3e b9 9d 60 3e 26 10 d2 3c
       -0.051477544 0.37428585 0.21935166 0.025642466
0000e0 58 89 c4 be 9f 15 ad 3f c2 02 ec be 5c 28 66 bd
       -0.38386035 1.3522223 -0.46095854 -0.056190833
0000f0 80 5e 98 3e 2f 05 b1 be 93 b7 3c be 12 80 18 3f
       0.29759598 -0.34574267 -0.18429403 0.5957042
000100 67 c4 9d 3e 39 b3 ab 3e cc 82 c0 bd 02 f2 e2 bd
       0.30813906 0.33535174 -0.093999475 -0.110813156
000110 b8 96 af bd 8d 05 31 c0 10 f9 c7 be e3 ee 3c be
       -0.08573669 -2.7659638 -0.39057207 -0.18450503
000120 0a c8 10 c0 bb 9e c0 be 40 1f a0 be 3d fc 3b 3e
       -2.2622094 -0.37621102 -0.31273842 0.1835794
000130 7f be 80 3d 83 c0 8e 3e 64 e3 b9 3c 65 37 4a be
       0.06286334 0.2788125 0.022691436 -0.19747694
000140 48 b4 9f be d0 70 af 3e 28 16 92 3e 56 4a 99 be
       -0.3119223 0.34265757 0.2853253 -0.29939526
000150 4a a3 b6 be 4d 75 2a 3d 0a 87 04 bf d2 49 20 3e
       -0.35671455 0.041615773 -0.51768553 0.1565316
000160 83 17 c9 3d ba 2f 9a 3e ca 0a 57 bd 44 9c 6c 3e
       0.09818938 0.30114537 -0.052500524 0.23106486
000170 b0 ca 93 3d 3d 4f 2c 3d bf 97 d5 bc 3b ec 89 3d
       0.07216394 0.042067755 -0.026073335 0.067345105
000180 85 be 1e bf f3 5d 89 bd 3f 76 36 3e ed ed 4a 3e
       -0.6200946 -0.067073725 0.17818545 0.19817324
000190 0f c2 6b 3e b1 3c ad 3e 10 bf aa be 4d 8e a3 3d
       0.23023246 0.33835366 -0.33348894 0.07986126
0001a0 2d 74 7e be 33 1a 81 3e d1 5d a4 be 93 cf 9b 3e
       -0.24849005 0.252153 -0.32102826 0.30431804
0001b0 a3 9d aa 3d cb 53 66 be 65 7c a8 be 4d 44 5e 3e
       0.08330848 -0.22492902 -0.32907405 0.21705742
0001c0 b6 fe ac 3e e5 ed 77 3e 4b b1 4f be ba 33 66 bd
       0.3378808 0.24211843 -0.20282476 -0.056201674
0001d0 02 d5 e2 bd 17 d0 53 3e 84 a6 d5 3d 1a 23 66 be
       -0.11075784 0.20684849 0.10432151 -0.22474328
0001e0 7a 93 34 be a2 b1 22 be 38 44 0d be fc 6d 43 bd
       -0.17634383 -0.15888074 -0.13795555 -0.04771231
0001f0 fa 20 97 bd 77 36 86 3e 90 e6 9b 3e 1d 1b 9f be
       -0.07379337 0.26213428 0.30449343 -0.31075373
000200 41 c0 36 3e 0b 22 68 be dd 30 a8 be dd cb 55 be
       0.17846777 -0.22669236 -0.3284978 -0.20878549
000210 fe e0 21 be 44 f9 68 3d 9b 45 24 bd ac d7 c3 3e
       -0.15808484 0.056878343 -0.040105443 0.38250482
000220 db de 54 3e 9f 91 b4 3b 59 e3 b3 be 46 b5 ea 3d
       0.20788138 0.0055105234 -0.3513439 0.114603564
000230 a5 ef 64 be 0c e3 55 be b2 42 bc be 2c 90 04 be
       -0.22357042 -0.20887393 -0.36769634 -0.12945622
000240 fe 2d 69 3e 45 0e 49 3e ff da 8b 3e 1a ca 40 3e
       0.22771451 0.1963435 0.27315518 0.18827096
000250 83 03 49 3d 72 41 35 3e 4f 85 9c be e2 c2 a4 3d
       0.049075615 0.17700747 -0.30570456 0.080449834
000260 3b d4 ac 3d 6b 32 3b be b0 28 1d be 0c ce 98 bb
       0.08438917 -0.18280952 -0.15347552 -0.0046632346
000270 3f 1a a7 3e 50 c1 ce 3d 7b d4 a8 3e 0e 1c f6 be
       0.32637212 0.10095465 0.3297461 -0.4806828
000280 3b 50 2b bd 1a db 17 3e 97 40 5e 3e 17 87 ba 3d
       -0.04182456 0.14829674 0.21704327 0.091077976
000290 52 03 3a 3a 1f c5 ac 3e a1 9e 5a 3d 7f 3a 2a bd
       0.00070958317 0.3374414 0.053373937 -0.041559692
0002a0 b7 21 b2 3e e6 6f a5 be d0 dd 81 3d 1f 08 75 3d
       0.34791347 -0.32311934 0.063411355 0.059822198
0002b0 99 d3 e4 3b 40 f2 4b be 8c 4f 30 3e 5b 33 06 be
       0.006983232 -0.1991663 0.17217845 -0.13105528
0002c0 2c c1 bd be 59 94 a2 be f3 20 e6 3d 52 db d4 3c
       -0.3706144 -0.31753805 0.11236753 0.025983486
0002d0 42 2c ca be 0d ae 83 be 54 7e b5 bd 86 3b 6e bd
       -0.3948689 -0.25718728 -0.08861986 -0.058162235
0002e0 7b 40 0b 3d 93 bf c8 be d4 cd 89 3e 10 3e a5 3d
       0.03399704 -0.3920866 0.26914847 0.08068478
0002f0 20 ef 91 3e c1 78 02 be 7d 48 a2 3d 9e 38 95 be
       0.2850275 -0.12741376 0.07923982 -0.29144758
000300 06 09 a7 3e b5 db 88 be 5e 4c de bd b3 94 1b be
       0.32624072 -0.26730123 -0.1085441 -0.15193443
000310 3a 6b c3 3e 04 85 85 3b da 05 f0 bb a9 19 89 3e
       0.38167745 0.0040746946 -0.0073249163 0.2677739
000320 50 de b2 be c3 8b ae be f6 f2 84 3e bb 54 91 3e
       -0.34935236 -0.34091005 0.25966614 0.28384957
000330 e1 c1 0b 3e 78 67 79 be dd 81 ae 3d 59 c2 b4 be
       0.13648178 -0.24355876 0.08520863 -0.35304525
000340 c7 c3 8c 3e 57 32 9b be 31 d3 11 3e bb 86 a4 3e
       0.27493116 -0.30311844 0.1424072 0.3213404
000350 38 b3 c6 be 6f 05 84 be ce 9a 39 be 9b 31 ec bd
       -0.38808608 -0.25785396 -0.1812546 -0.11532899
000360 fe e7 9e 3d 19 dc f9 3d 5c 5e c8 3d ba 5e 3c 3e
       0.07759093 0.122001834 0.097836226 0.1839551
000370 2d e0 97 3e 99 d2 47 be b5 c9 bc 3c 87 44 2a 3e
       0.2966322 -0.1951393 0.0230454 0.16627704
000380 2d ca 98 3e e2 37 bd 3d 8b 5e 77 be 01 0d af 3e
       0.29841748 0.092391744 -0.24157159 0.3418961
000390 3c fb 3f 3d 08 5d 9a 3c 16 17 3d 3e 6d 79 77 be
       0.046870455 0.018843189 0.18465838 -0.24167414
0003a0 0b 28 9a bc b4 ed 30 bd 0b e0 40 3e 9a 85 84 bd
       -0.018817922 -0.04319544 0.18835466 -0.06470795
0003b0 7d 0f 69 be 23 ac 16 3e 5c 04 31 3e 7f dc d6 3d
       -0.22759815 0.14714102 0.17286819 0.10491275
0003c0 ec 06 87 3e 4b e9 41 3e b1 b8 de bf 9d 2d 5e be
       0.26372468 0.1893665 -1.7400113 -0.21697088
0003d0 2e 4c 0f be 4c 83 1c 3e 17 65 e6 3e b2 57 7c 3e
       -0.13993904 0.15284461 0.44999 0.24642828
0003e0 19 32 60 be d4 aa 01 3e 65 39 f4 3d 0e ac 53 be
       -0.2189411 0.12662822 0.1192501 -0.20671102
0003f0 8c 05 de 3d 63 10 09 3e 8a 61 b4 be 50 ad 38 be
       0.10840902 0.13385157 -0.35230666 -0.18034863

decoder.dec3.bias f4 [58]
000000 56 2c 30 bc f3 7c 7c 3d 0b f5 1d 3b f3 27 93 bd
       -0.010752758 0.0616426 0.0024102356 -0.07185354
000010 1b 17 6e 3d 4c a6 3d bd 87 09 72 3c 64 f4 d3 bc
       0.058127504 -0.04630117 0.014772779 -0.02587337
000020 52 0c 8d bc fa ef 54 bc 7d d3 40 bc 38 43 d3 3d
       -0.017217789 -0.012996668 -0.011769173 0.10315555
000030 74 1f 0b bd b9 b9 80 bb 92 b7 43 3d e7 c1 b4 bc
       -0.033965543 -0.00392839 0.04778249 -0.022065116
000040 d2 59 86 bd 79 11 39 bd 50 09 2d bd e3 85 18 bd
       -0.065601006 -0.04518268 -0.04224521 -0.03723706
000050 32 08 11 bc 7b 02 69 bc 0d 8a 75 bd 1e 8a 70 3d
       -0.008852052 -0.014221783 -0.05994611 0.05872547
000060 23 52 59 bd b9 1c 27 3d 59 8e 25 bd c3 d1 11 bd
       -0.053056847 0.040798876 -0.040418956 -0.035600435
000070 98 70 cd bb e9 9c ee bb 4f e9 61 3b 51 de 93 bc
       -0.0062695257 -0.0072818887 0.0034471338 -0.018050345
000080 46 3b 84 3d a4 76 a2 bc 7f c1 cb bc 27 b8 e4 bb
       0.06456618 -0.019831963 -0.02487254 -0.0069799605
000090 47 97 15 3d 4e 76 4c bd c9 55 c8 bc 21 60 4d 3d
       0.036521222 -0.04991751 -0.024454968 0.050140504
0000a0 73 1b 6e bd f4 59 c0 bc 24 a6 3b bc 6e 3f 5f 3c
       -0.058131646 -0.023480393 -0.011453185 0.013625963
0000b0 df 01 0a 3d cb 8d 2e bd a2 a0 df bc 1b c6 cf bc
       0.03369319 -0.042615693 -0.027298275 -0.025363019
0000c0 d2 fc 81 bd 60 58 2b bd 07 b2 d2 3c e3 12 7b 3c
       -0.0634705 -0.041832328 0.025719656 0.015324327
0000d0 7f 25 0d bd 8e ef bb 3c 54 d7 36 bd 88 27 83 bd
       -0.034459587 0.022941377 -0.044638947 -0.06404024
0000e0 f3 d1 ea bb 0c 1a 17 3d
       -0.007166141 0.036890075
