IDS_TA/initial_Models/CADE-m15.0-l0.001.pth (torch, 68014 bytes, 16 tensors)

encoder.enc1.weight f4 [58, 78]
000000 d1 df 2c 3e 5e 97 18 3e 5e cf c6 3e 1f 31 16 be
       0.16882254 0.14901492 0.38830084 -0.14667176
000010 dd 90 bf 3c 0e c7 e0 3d 80 f2 82 3e 87 7c 87 3d
       0.023384506 0.10975467 0.25575638 0.066155486
000020 0a 3f b0 3d e2 bb 7b be 54 8e 67 3e 96 b9 40 3d
       0.08605774 -0.2458339 0.22612888 0.04705199
000030 b5 94 43 be 60 11 d5 3e 31 8b 9e bd 1f d8 96 bd
       -0.19099696 0.4161482 -0.077413924 -0.073654406
000040 b4 ab 64 3e ab 78 83 3e bc 7b 31 3e a1 40 96 3e
       0.22331125 0.25678 0.17332357 0.29346183
000050 e6 35 e1 bc ea e3 8d 3d 14 e0 05 be 23 6f 0d 3c
       -0.027491521 0.06928237 -0.1307376 0.008632454
000060 22 25 4f 3e 6c 41 61 bd a3 23 b3 3e 89 24 09 3e
       0.20229009 -0.05499403 0.34988126 0.13392843
000070 3c f6 f5 bd 4d 97 59 3e f2 c5 e7 3d aa 8a 2c bf
       -0.12009856 0.21249123 0.11317052 -0.67399085
000080 5f c2 d9 be 79 9a 10 bd 48 7e 89 be 32 4d 0d be
       -0.42531106 -0.035303567 -0.26854157 -0.13798979
000090 5f 21 8e 3e fb 03 1b 3e 63 9d db 3c 61 a7 14 3e
       0.27759835 0.15138237 0.026808446 0.14516975
0000a0 3d 1b 0a be c4 c5 5a 3e dd 1f 2c 3e 3e df 99 3d
       -0.13486953 0.21364504 0.1680903 0.07513283
0000b0 36 a4 2f bd 63 b2 bd be 2b 16 f1 bd 3d 95 a1 be
       -0.042881213 -0.3705016 -0.11771806 -0.31559172
0000c0 c4 98 9f bd c7 cf 70 3e 6f dd 63 be 24 71 4f 3e
       -0.077928096 0.23516761 -0.22252439 0.20258003
0000d0 63 3b 40 be b7 a4 8c 3e 06 a4 17 3d 93 09 98 3d
       -0.18772654 0.27469417 0.03702166 0.07423701
0000e0 50 ad d2 3c 87 db e2 3e 5e bb 0b be 57 d3 88 bc
       0.025717407 0.4430811 -0.13645694 -0.016702337
0000f0 24 25 ae 3d ad 8d fa 3d c2 ca 8b 3e 58 b9 0f 3e
       0.08503178 0.12234054 0.2730313 0.14035547
000100 3f cd 2f 3e 4e 1b 90 bd b3 43 3f bd 9b c3 68 3e
       0.17168139 -0.07036458 -0.046695422 0.22730868
000110 c6 fe 55 be a5 d6 48 be 08 b8 b1 3e 8d 53 27 3e
       -0.2089797 -0.1961313 0.34710717 0.16340466
000120 1e cb 50 bd 76 93 4b be 45 ad 74 3e 17 9a 58 bc
       -0.050974958 -0.1988047 0.23894222 -0.013220332
000130 e7 84 6a 3e 03 d6 10 3e 41 ed e7 3d b3 67 d0 3d
       0.2290226 0.14144139 0.113245495 0.10176029
000140 cf c9 9d be 5a ed 07 be 2f 00 9f 3e 21 bd ea bd
       -0.3081803 -0.13274136 0.31054828 -0.11461855
000150 01 94 b5 3b d4 e2 a7 bd 2e 82 84 bd 2d 23 4e be
       0.005541325 -0.08197561 -0.06470142 -0.20130606
000160 38 f7 f0 bd ed 8f ef 3b 2b 53 d5 3d 34 1b a6 3d
       -0.11765903 0.0073108585 0.10416254 0.08110657
000170 4a ac ff bd 52 42 c9 3d ab 6a 80 3e 0e 9f 78 3d
       -0.124840334 0.09827103 0.2508138 0.06069856
000180 2e 96 14 be 20 93 19 be ad 0d 80 3d 28 df 5d be
       -0.14510414 -0.1499753 0.062526084 -0.21667159
000190 f0 99 12 3d 94 cb fe bd da d7 ce be fa 20 fc bb
       0.035791337 -0.12441173 -0.40399057 -0.007694361
0001a0 da 96 7f be 92 b5 08 be 0f 69 1c 3b 13 d7 3a be
       -0.24959889 -0.13350514 0.002386633 -0.18246107
0001b0 31 d3 65 bd c5 da e0 3c 2f 54 c1 3e eb f9 67 3e
       -0.05610961 0.027448067 0.3775954 0.2265393
0001c0 a1 cb ec 3d b7 0b 2e 3e eb 5e 07 3e d4 5d 97 3e
       0.11562277 0.16996656 0.13219802 0.29563773
0001d0 fa 51 ca be 90 cd 95 3e f3 99 95 3c 1c 7b b4 3d
       -0.39515668 0.29258394 0.018261885 0.08812544
0001e0 95 31 00 3e b3 9b 57 3e 1b 5d ac 3e b1 82 82 3e
       0.12518914 0.21055488 0.33664784 0.25490335
0001f0 df 0f 89 3e e9 7c 12 3e ad 87 11 bc 98 1f f4 3d
       0.2676992 0.14305462 -0.008882445 0.119200885
000200 b4 47 84 3e 81 0c 6f bd 44 a5 c4 3c 3d ee d4 3d
       0.25835955 -0.058361534 0.024004586 0.10397003
000210 99 fb aa bd f3 70 fb bd 1d 25 99 3e 74 05 52 3e
       -0.0834877 -0.12277403 0.29911128 0.20509893
000220 4f 11 4a 3d 5e b1 ac bd 36 da 3a 3e 43 6a 53 bd
       0.049332913 -0.084322676 0.18247303 -0.05161501
000230 71 16 58 be 51 bf 9e 3b 22 bf 0b 3d 22 5b e1 bb
       -0.2110231 0.004844584 0.034117825 -0.006877319
000240 1d 5b d5 3e 9f 23 8b bd 34 0c 79 bd 50 76 89 3e
       0.41671076 -0.067939036 -0.060802653 0.26848078
000250 df d0 a7 be bb 00 35 bc 6e 4a 00 3e a8 31 82 3d
       -0.32776543 -0.011047537 0.12528393 0.063571274
000260 e7 43 d0 be 82 9e 6d bd 3d 3c 3a 3c 5b 70 6f be
       -0.40676805 -0.058012493 0.011366901 -0.23382704
000270 08 73 d5 3d d5 74 35 be 68 38 77 3e 66 2c ac ba
       0.10422331 -0.17720349 0.24142611 -0.001313579
000280 80 df cb bd 62 4b 1a be 0e 1f 65 3c 28 34 b1 bd
       -0.099547386 -0.15067819 0.013984455 -0.08652526
000290 40 87 2c 3e 2c fb 15 be 99 d6 ad 3e 6b f5 7f bd
       0.16848469 -0.14646596 0.33952788 -0.06248991
0002a0 03 b3 83 be 69 65 b0 3e 82 9f 74 3e be a6 b7 be
       -0.25722513 0.3445237 0.23888972 -0.35869402
0002b0 c8 b7 eb 3c 21 cb 1a 3e 83 07 3e be 6c 9b 40 be
       0.028774157 0.1511655 -0.18557553 -0.18809289
0002c0 c7 ef 8a 3e 71 08 5b be 44 3d 35 be 0c a8 79 bd
       0.2713606 -0.21389939 -0.17699152 -0.060951278
0002d0 6b c7 93 3e 56 4a 0d be d3 60 04 3e 79 1b 81 3e
       0.2886308 -0.13797888 0.1292756 0.25216272
0002e0 64 26 d8 bb 79 2e b4 bd fe b4 7c bd e7 8b 4e bf
       -0.0065963734 -0.087979265 -0.061696045 -0.80682224
0002f0 fb 5d 17 bf c5 d9 c1 3c 29 78 64 3e c5 29 7b be
       -0.5912778 0.02366341 0.22311462 -0.24527653
000300 4d 60 10 be 64 fd f1 bc 98 2c 64 bd 05 a3 92 be
       -0.14099236 -0.029539771 -0.05570659 -0.2864
000310 4c fb 60 3c f5 93 62 3e ec e0 94 3e fa 6a 8e 3e
       0.013731789 0.22126754 0.29077852 0.27815992
000320 28 df 0c 3e cd 05 69 be a1 2a b0 bd 27 fc 20 bf
       0.13757002 -0.22756119 -0.08601881 -0.62884754
000330 31 f0 24 be a7 ae 84 3e 5b d9 15 3e 6b 56 a3 bb
       -0.16107251 0.259145 0.14633696 -0.004984667
000340 d6 a8 23 bf 34 7c 6c bd 23 72 b7 3e d0 e2 ef bc
       -0.639295 -0.057735637 0.35829267 -0.029282957
000350 42 1d be bd d6 97 1f be f2 4c 0e 3e 71 83 a2 3e
       -0.09282924 -0.15585265 0.1389654 0.31740907
000360 d7 97 3a be 19 c6 4b 3e bb 96 cd 3d 0c 14 be 3c
       -0.18221985 0.19899787 0.10038515 0.023202918
000370 41 3d 22 be 88 66 b0 3e 91 a7 e9 3d aa c3 8c 3e
       -0.15843679 0.34453225 0.11408914 0.2749303
000380 3e 77 c8 be ec 9f 67 3d c1 0f 23 3e 2f 29 33 3d
       -0.39153475 0.056548998 0.15923978 0.043740448
000390 bb 12 a4 3d db 53 89 3d ec bf 9f 3e e0 18 48 be
       0.08011385 0.06705447 0.31201112 -0.19540739
0003a0 52 be ae bd a6 ed f4 bd f5 28 60 be f3 22 da bd
       -0.085323945 -0.1195939 -0.21890624 -0.10651197
0003b0 76 e2 10 be 9d 38 69 3e 51 d7 8e 3e c7 9a e8 be
       -0.14148888 0.22775503 0.27898648 -0.45430586
0003c0 e8 a7 e6 bd d6 6f 20 be b1 2e 9b bd 3b 5e f4 bd
       -0.11262494 -0.15667662 -0.07577265 -0.119320355
0003d0 1f 1f 57 bd da f0 e5 3d 58 bc 2c be 42 1d f0 bd
       -0.052519914 0.112275794 -0.16868722 -0.117243305
0003e0 59 a8 7d 3d 6e 9b a5 3b 12 f8 eb 3d 74 44 a6 bd
       0.061928127 0.005053929 0.11521925 -0.08118525
0003f0 7b 07 31 be 4e 11 a9 bd 1f 04 38 3e 24 61 00 3e
       -0.1728801 -0.08255254 0.17970322 0.12537056

encoder.enc1.bias f4 [58]
000000 7c 4b 15 bd e5 b2 57 3b 37 32 40 3b 7b 32 1a 3d
       -0.03644894 0.0032913026 0.0029326805 0.0376458
000010 04 fd a5 3d df 44 e8 3d af e8 a6 bc b5 f5 2f 3d
       0.081048995 0.11341261 -0.020374624 0.042958934
000020 23 31 02 3d b1 82 62 bd 9d d3 7a bb 5f cb 12 3e
       0.03178514 -0.05530042 -0.0038273104 0.14335392
000030 de 50 b1 3d 02 a8 2d 3d 4a 3b 5b bc c2 f0 5e bd
       0.08658002 0.042396553 -0.013380835 -0.054428823
000040 94 fe 35 3e 16 d7 9a 3d ee 69 38 3e 0e 3d 76 3d
       0.17772895 0.07560556 0.18009159 0.06011682
000050 11 5d 06 3d 39 4a 60 3c 1c 09 51 3e 39 6f 64 bd
       0.0328036 0.013689571 0.20413631 -0.055770133
000060 1a 5d 42 bd e6 24 89 3d d1 c8 38 bd 78 ae 1d 3d
       -0.04745207 0.06696491 -0.04511339 0.038496464
000070 83 46 ad 3c a0 2b 4c bd 28 cb 28 bb 22 fe 32 3c
       0.021151787 -0.04984629 -0.0025755856 0.010924848
000080 6a f1 26 3e 2f a6 d2 bb 44 34 6a 3b af 80 27 3d
       0.1630303 -0.006428502 0.003573672 0.040894207
000090 3e 55 f0 3d 08 b2 ac bb 9f 4c 88 bd 80 29 3e 3d
       0.11735009 -0.0052702464 -0.06655239 0.046426296
0000a0 2a 58 6e 3d 2b 80 cc 3c ac 17 e5 bb db 5c ff bc
       0.05818955 0.024963459 -0.0069913473 -0.031172207
0000b0 45 fa 28 3e 88 f1 de bc 57 a4 67 bd c5 74 5d bc
       0.1650172 -0.02721478 -0.05655321 -0.01351661
0000c0 4c b1 81 3c 22 6b 2f 3e ea 16 d6 3c 30 76 34 3e
       0.015831612 0.17130712 0.026133973 0.1762321
0000d0 f2 11 1e 3c 92 75 a9 39 8b 29 24 bd 67 bb d4 3c
       0.009647833 0.0003232179 -0.04007868 0.025968267
0000e0 33 94 d5 bc 1c 06 b3 3c
       -0.026071643 0.0218535

encoder.enc2.weight f4 [39, 58]
000000 c4 35 a8 bc c4 20 0c 3e 6b 19 31 3e 91 a0 54 3e
       -0.02053345 0.13684374 0.17294852 0.20764376
000010 3c 08 22 3e 83 81 93 3c f1 e5 81 3c a9 e8 dc 3b
       0.15823454 0.018006092 0.015856715 0.0067416024
000020 8d ec 2b be e3 99 8b be d0 e9 af 3d f1 3d 17 3e
       -0.16789456 -0.27265844 0.08589518 0.14769723
000030 8c 5a af bd c4 32 74 3e 0a 81 d6 be 45 31 b4 3e
       -0.08562192 0.2384749 -0.41895324 0.3519384
000040 ce 71 eb 3e 30 52 be bd 32 28 e1 3d c2 a0 40 bc
       0.45985264 -0.0929302 0.10993995 -0.011757078
000050 51 2b 7b be d3 ac 1f 3e 9f 33 9f 3c 42 b8 b9 bd
       -0.24528243 0.15593271 0.019433795 -0.090683475
000060 3d 25 92 3e 63 d8 e2 bd cb 5e c8 be ea 2e 19 3e
       0.28544036 -0.11076429 -0.3913482 0.14959303
000070 de db 36 3e ac a5 40 be e1 4e bc be 9f 5f 8a 3e
       0.1785731 -0.18813199 -0.3677893 0.27026078
000080 e4 b1 50 3d c4 9e e9 be c9 9e b1 bd a8 e7 b2 3d
       0.0509509 -0.4562894 -0.08672864 0.08735591
000090 a2 48 37 be 9a c4 56 be ca 5b 82 be 06 78 84 3d
       -0.17898801 -0.20973435 -0.25460654 0.06468205
0000a0 81 2b 2b 3c 93 cd fd 3d d1 10 e0 bc c1 e3 b1 bb
       0.010447384 0.12392726 -0.027351769 -0.0054287617
0000b0 78 70 41 3e aa 1b e3 3d af db 1a 3e da d9 0b 3e
       0.1889056 0.11089261 0.15122865 0.13657323
0000c0 18 d0 85 bd 4e 43 75 3e b4 d6 69 bb 57 af 26 be
       -0.06533831 0.23951456 -0.0035680952 -0.16277824
0000d0 67 85 1b be f4 2e 69 3e 24 77 96 3e c0 ca 0d be
       -0.15187608 0.22771817 0.29387772 -0.13846874
0000e0 2e a2 16 3b 87 3d 8e be d7 d6 c3 bd 94 a8 85 bd
       0.002298485 -0.27781317 -0.09562462 -0.06526294
0000f0 65 38 28 bd d4 6c 01 3e a4 13 81 be 1f ed 77 bf
       -0.041069407 0.12639171 -0.25210297 -0.96846193
000100 1a ec fb 3e 9f d9 93 3e 7c e0 cd bc cb 3a ae 3d
       0.4920357 0.2887697 -0.025131457 0.085073076
000110 24 6a bd be 23 9b 54 3e 8c 4a 1c 3e 28 56 30 3e
       -0.3699504 0.20762305 0.15262812 0.17220366
000120 ae de e5 3e f3 1b b2 3e 62 1b 10 be 9b c5 d7 3d
       0.44896454 0.3478695 -0.14072946 0.10535737
000130 76 e7 4e bf 0c 87 1c 3e 22 e4 22 bd be 9e d5 3d
       -0.8082193 0.15285891 -0.039768346 0.10430668
000140 e6 a3 fc 3d 49 87 ff 3d fd e2 66 c0 ae 4e c6 3e
       0.12335949 0.124769755 -3.6076043 0.38731903
000150 bf 66 94 3c fe 59 e2 be a2 71 e7 bd 7e 4c 9b 3f
       0.0181154 -0.44209284 -0.113009706 1.2132719
000160 c3 58 af be 6b 15 97 3d 00 2e 97 3e 46 96 f3 3d
       -0.34247407 0.07377132 0.29527283 0.11893897
000170 e3 c3 1d 3e 16 86 c0 bd a3 86 51 3e 76 e9 45 be
       0.15406756 -0.09400575 0.20461516 -0.1932734
000180 9f ee 76 3e 99 4a 7a bd aa 1f bd be 2c 47 32 3e
       0.24114464 -0.061106298 -0.3693822 0.17409962
000190 a0 1d d4 bc c0 27 dd 3d 3b 0e f0 3d 91 6a 84 be
       -0.025893033 0.10798597 0.11721464 -0.25862554
0001a0 d3 5e 04 3f 15 1a c8 3c fc 60 81 3e c6 5d dc 3d
       0.5170719 0.0244265 0.25269306 0.10760073
0001b0 1a ec 0c c0 19 9d 19 3e 04 cb 58 3b 7c 97 7b be
       -2.2019105 0.15001334 0.003307999 -0.24569505
0001c0 a9 ef 40 bd 0c 10 e4 be d5 99 8c be 86 7a c8 3b
       -0.047103558 -0.44543493 -0.27461115 0.0061181216
0001d0 68 91 84 3d aa ec 86 3e 2f 89 92 bd 35 e4 b0 bc
       0.064730465 0.26352435 -0.07155072 -0.021593193
0001e0 47 9b e6 3d 76 27 d0 3d ca d8 9e 3e 8a 80 eb 3d
       0.112600856 0.101637766 0.31024772 0.11499126
0001f0 8e 19 cc bc 39 88 6b be bd b3 98 3e 92 cb 8e 3e
       -0.02491453 -0.23001184 0.2982463 0.27889687
000200 9f 44 ab bd 88 5f 6f be b7 ef 0c 3e f6 ee 51 3e
       -0.08362698 -0.23376286 0.13763319 0.20501313
000210 07 df 52 be a4 82 a0 3d a2 7e 77 3e 53 90 b6 3e
       -0.2059289 0.07837418 0.241694 0.35656986
000220 5e 0f 45 3e c6 5e 38 3e 0d b6 30 bd cc 45 96 3e
       0.19244143 0.18004903 -0.043142367 0.29350126
000230 9e 52 d3 3e 15 48 67 bc d7 56 95 bd 05 7f 9a be
       0.4127397 -0.014116307 -0.07291954 -0.30175033
000240 80 9b 7c 3e e9 54 fe 3d b1 8f 0d be 9b 23 7f 3e
       0.24668694 0.12418539 -0.13824345 0.24915926
000250 33 e1 24 3e 7a 12 9e bd d6 74 94 3d 74 5c 80 3b
       0.16101532 -0.07718368 0.07248847 0.0039172713
000260 3f 1c 7f bd 8f 0c 90 be 06 48 9d 3c 5b 1f 5b 3e
       -0.062282797 -0.2813458 0.019199383 0.2139868
000270 d5 bd 22 3e 4a 31 1c be 13 b5 8d be 9b a5 19 be
       0.15892728 -0.15253177 -0.2767721 -0.1500458
000280 cf 29 91 3e 14 66 3f 3e d3 f4 0d 3e 59 66 db 3d
       0.2835221 0.18691283 0.13862924 0.10712881
000290 1c 53 a2 3e 15 b9 34 3e 33 5c 69 be 95 42 e8 3e
       0.31704032 0.17648728 -0.22789077 0.45363298
0002a0 90 df 47 3e 3a c4 47 3e 06 10 d4 3e 19 ae 9e bc
       0.19518876 0.19508448 0.41418475 -0.019370126
0002b0 20 4f 85 3c d9 b6 57 3d 8c 6a cb 3e 7e 5b a2 3e
       0.016273081 0.05266461 0.39729726 0.31710428
0002c0 b6 e5 c4 bc bd 92 19 3e 48 2f 86 3d 87 28 ba bd
       -0.024035316 0.14997382 0.06551987 -0.09089761
0002d0 1a f8 69 be af e4 8f 3e 7e d0 18 3e d1 63 6c 3f
       -0.2284855 0.2810416 0.14923283 0.9233981
0002e0 d9 88 c5 3b 87 fc 49 3d d3 18 ea 3d 83 6c 2e 3e
       0.0060282764 0.049313094 0.11430516 0.17033581
0002f0 ea 78 9f bb 8c 6d d0 3d d0 61 41 be ad 3b 85 3c
       -0.004866709 0.101771444 -0.18884969 0.016263807
000300 1a 8e 95 3d 3a 84 88 be 7b 78 ff 3d b2 98 6a 3e
       0.07302494 -0.2666338 0.12474152 0.22909811
000310 14 5e 3d be 76 90 0d 3e 29 76 d4 be 70 1f d0 3e
       -0.18492919 0.13824639 -0.414964 0.40648985
000320 01 7f 05 3f f6 8b f3 bd cb e2 5e be 80 a4 6b 3e
       0.5214692 -0.1189193 -0.21766202 0.2301197
000330 05 25 8b 3e 4b fd ca 3c 27 39 0a bd b8 92 30 bd
       0.2717668 0.024778983 -0.03374591 -0.043108672
000340 7a ce 18 be b8 02 99 be 4e de ca 3d 98 b7 c8 bd
       -0.14922515 -0.29884887 0.099056825 -0.09800643
000350 30 2e 74 3d 87 de 36 bd 45 c2 79 bd eb f5 9b be
       0.05961436 -0.044645812 -0.060976285 -0.30461058
000360 83 03 5c 3d 67 6f b5 3e c2 54 3b 3e b3 a2 96 3e
       0.053714287 0.35436556 0.18294051 0.29421005
000370 84 ff 9d 3e 6c ea 4b 3d ab 0a 0c be ce af 62 be
       0.30859005 0.04978411 -0.13675945 -0.22137377
000380 4d 3c 25 3e 5b 14 84 3e 8b ef 9d 3d 34 c7 28 3d
       0.16136284 0.2579678 0.07711705 0.0412056
000390 93 78 16 3a 9e fa 43 be 42 6b 64 be cf b2 09 3f
       0.0005740013 -0.19138572 -0.2230654 0.53788465
0003a0 16 38 f9 3d 99 e0 bc 3d 4e cc e1 3e e3 de 12 3e
       0.12168901 0.09222526 0.44101185 0.14342837
0003b0 14 c5 13 bf df f2 0f be c9 65 94 3e de 9e 30 3f
       -0.5772259 -0.14057492 0.28983906 0.6899241
0003c0 85 1e 3d bd 43 d8 2c 3f c0 eb 06 bf 21 18 c0 3c
       -0.046171684 0.6751749 -0.52703476 0.023449006
0003d0 c8 7c 22 3e 72 58 92 be 01 24 5b 3e d2 e3 ab bd
       0.15867913 -0.28583103 0.21400453 -0.08393063
0003e0 fd 4d ba be 67 9d 46 3e b0 b2 9f be f6 a5 c2 3d
       -0.36387625 0.19395982 -0.31191015 0.09504311
0003f0 b3 41 8f 3e cd 18 48 3e 0e 02 95 bc 45 39 c0 3d
       0.27979812 0.19540711 -0.018189456 0.09385923

encoder.enc2.bias f4 [39]
000000 cd de c7 bb a7 4b 1b 3d f6 8d 83 bb 93 af d7 3d
       -0.006099558 0.037913945 -0.004014726 0.10531535
000010 02 c6 9f 3d 13 ac bb 3d 10 80 db 3c e8 d2 84 bc
       0.07801439 0.0916368 0.026794463 -0.01621385
000020 49 7f 2d bb e4 81 a0 3d e3 7e 93 3c fe 4f df 3d
       -0.0026473573 0.07837275 0.01800484 0.10903929
000030 3c 84 94 bc c7 9f 8f 3d 66 02 ed 3c bd 62 0d 3c
       -0.01812946 0.07012897 0.028931808 0.008629498
000040 b9 f7 a3 3c c9 03 e6 3b ea 76 54 bc 50 72 80 3c
       0.020015584 0.007019494 -0.012967804 0.015679508
000050 b7 b5 9c 3d ec 26 90 3b 93 01 64 3d 08 32 58 bd
       0.07651847 0.004399171 0.055665564 -0.05278209
000060 d0 ed 81 3b 4b 10 af 3d e5 16 ea 3d 40 f6 db bc
       0.003965117 0.085480295 0.11430148 -0.02685082
000070 51 91 10 bc 70 7e c6 bb f5 42 32 bc ef 7a 75 3d
       -0.008823709 -0.006057553 -0.010880222 0.05993169
000080 b2 f3 29 3d ac ab 46 3d d6 c5 2a 3c 76 11 5f bc
       0.04149217 0.048503563 0.010423144 -0.013615003
000090 f0 78 3d bd 78 55 13 bd 69 62 55 3d
       -0.046257913 -0.03597018 0.052095804

encoder.enc3.weight f4 [19, 39]
000000 97 42 92 be ff 2c d0 bc 93 8d 04 be ab 6f 92 be
       -0.2856643 -0.02541208 -0.12944631 -0.2860082
000010 64 5f 07 3e 0f c9 c1 be b3 0b 24 3e 5e 46 8a 3e
       0.13219982 -0.37848708 0.16020088 0.2700681
000020 cb 7d 84 3d ff 29 d4 3d d0 c0 d5 3c d6 6a c9 bd
       0.064693056 0.103595726 0.026092917 -0.098348305
000030 5e 29 66 3e f5 da 49 bd c0 2b 67 3e 91 e5 48 3e
       0.22476718 -0.04928108 0.22575283 0.19618823
000040 db 6f cc be 27 79 e5 bc a3 8b 38 be cf 22 1a 3e
       -0.3992909 -0.028011872 -0.18022017 0.15052341
000050 c9 22 6a 3e 35 b7 a0 3e 53 99 be 3c 77 82 3f 3d
       0.22864832 0.31389776 0.02326647 0.04675528
000060 b9 09 a0 be 9f 16 66 3e 96 24 9a 3e 63 47 a9 3e
       -0.31257418 0.22469567 0.30106038 0.33062276
000070 9f d9 f9 3d ad b9 e6 3d 7e e5 c8 be db 10 2a 3e
       0.12199711 0.112658836 -0.3923759 0.16607992
000080 c1 f1 1b be 07 86 5c 3e d6 8a 2a be da 21 a6 be
       -0.1522894 0.21535502 -0.16654524 -0.32447702
000090 00 85 6c be 0d 13 42 3c 1f 13 8d be a3 0b a5 3e
       -0.2309761 0.011845362 -0.2755365 0.3223544
0000a0 6a b9 88 be 3f 81 46 be 36 bc 56 3e 9a c1 5f bc
       -0.2670396 -0.19385241 0.20970234 -0.013656998
0000b0 b9 7a c3 be 90 04 8b be e0 bb 72 be 88 06 85 3e
       -0.38179567 -0.27151918 -0.23704481 0.25981545
0000c0 4f 00 a0 be cb 0a 34 3c fa 16 06 bd 7a 53 a7 3e
       -0.31250235 0.010988901 -0.032736756 0.32680875
0000d0 34 35 98 bd 44 1a cd 3e c4 02 59 be 8a c2 9a 3e
       -0.07432023 0.40059102 -0.21192461 0.30226547
0000e0 18 ef 3b 3e 73 7c 9e bc 7e c7 b5 bd 63 4c 08 be
       0.18352926 -0.019346451 -0.08875941 -0.13310389
0000f0 f3 d2 60 3e df 91 33 be 78 00 91 bc fb 9e 32 3d
       0.2195547 -0.17536114 -0.017700419 0.043608647
000100 1e ce 1c 3e bc 9b 0e bd 61 15 b9 bd c0 9a 9f be
       0.15313002 -0.03481649 -0.09037281 -0.31172752
000110 49 dd 30 bd 25 73 c9 be c1 b6 4b 3e 5a 33 88 be
       -0.043179784 -0.3934566 0.19893934 -0.26601678
000120 3d 53 08 be 0a 34 b7 be 46 50 7c be 4a 5a e9 bd
       -0.13313003 -0.3578189 -0.24639997 -0.113941744
000130 69 cf 39 be 6d da 5d 3e c4 ee 69 be ec a5 2a be
       -0.18145527 0.21665354 -0.22844988 -0.16664857
000140 61 73 7f be 41 9e 33 3e 56 b7 ab be ef f5 a4 3b
       -0.24946357 0.17540838 -0.33538312 0.0050342004
000150 f1 42 8b 3e df 93 eb be 15 5d d2 3e 8b 96 64 be
       0.2719951 -0.46011254 0.4108664 -0.22323053
000160 a7 f4 a7 3e 7b 9c c7 be 39 dd 73 3e 84 49 62 3e
       0.32803842 -0.38986573 0.23814858 0.22098356
000170 f4 ee c4 3e ba d2 7b 3e c3 76 1e 3a 49 3f 66 bb
       0.38463557 0.24592105 0.00060449186 -0.0035132936
000180 7c 5a fc bc 7f ec 90 bd 71 ae 22 3d ab 05 46 be
       -0.030804865 -0.07076358 0.03971714 -0.193381
000190 d2 a3 05 3e 2d fc 33 be dd f2 c5 be de 83 03 bf
       0.13050774 -0.17576666 -0.38661852 -0.5137309
0001a0 7a 8b 86 3e 05 84 a5 3d aa c5 49 be 34 50 1f 3e
       0.26278287 0.08081821 -0.19704309 0.15557939
0001b0 4a 24 d2 be 76 e4 9c 3e 3a c7 a8 bd 98 28 76 be
       -0.4104331 0.30643052 -0.082411245 -0.24038923
0001c0 fa e7 14 3f cb 16 ab 3a 54 18 a6 bd ad a9 b3 3d
       0.5816647 0.0013053057 -0.08110109 0.087725975
0001d0 9e 02 13 bd f3 e9 f1 3e 85 d3 64 3f 67 eb c4 3e
       -0.035891168 0.47248802 0.89385253 0.38460848
0001e0 48 c2 77 bc 7b 70 5f 3e 0d 53 0c 3e c1 8c 07 be
       -0.015122004 0.21820252 0.13703556 -0.13237287
0001f0 f6 b7 ca be 5b ff ba 3e e1 f5 66 bd 0b 6c 23 3e
       -0.39593476 0.36522946 -0.056386832 0.15959184
000200 73 87 e8 be de c6 57 3e cf a3 bd 3d 60 5e 9f be
       -0.4541584 0.21071956 0.0925976 -0.3112669
000210 d6 6c 80 3e 90 ac a3 3e 37 15 ec be 4a 25 08 bf
       0.25083035 0.31967592 -0.46109936 -0.531819
000220 06 78 c7 be 8b b4 63 3d 45 59 0b 3e ad 64 2d be
       -0.38958758 0.0555921 0.13608272 -0.16932936
000230 80 99 c0 3d 4b d9 a3 3e 2d 6c 33 3f ac 8b c5 be
       0.09404278 0.3200172 0.7008694 -0.38583124
000240 fc 52 a6 3e 61 65 93 3d 98 b4 95 3e ad 38 57 3f
       0.32485187 0.07197071 0.29239345 0.84070855
000250 60 65 5b 3e db 9b 88 be ce 4b fd bc a7 b1 a6 be
       0.2142539 -0.26681408 -0.030919936 -0.32557413
000260 3a a4 18 3f dc 35 2b be 45 0e 79 3e c6 bf ce 3e
       0.5962559 -0.16719764 0.2432185 0.40380687
000270 cd b4 e2 3e 57 0d 41 3e 04 6b 89 3d c2 7c 94 3e
       0.44278565 0.18852745 0.06709865 0.29001433
000280 82 0d 31 bd 10 00 ae bd cc 7c 2d 3e 51 6b 76 be
       -0.043225773 -0.08496106 0.16942137 -0.24064375
000290 1a ba 40 be 39 14 21 be 21 75 aa be bb b5 6c bc
       -0.18820992 -0.1573037 -0.33292487 -0.014447625
0002a0 89 c7 d7 3e d4 c9 ab bc 17 34 d2 3d c6 21 bc 3d
       0.4214442 -0.020970263 0.102638416 0.09186129
0002b0 4b a5 84 3d 5e 35 b5 be 82 04 c7 be 38 8d b4 3e
       0.0647684 -0.35392278 -0.38870627 0.3526399
0002c0 ff c3 1b be dd 71 a0 3e 33 cf 9c 3e 23 6d 82 3d
       -0.15211485 0.3133687 0.3062683 0.063684724
0002d0 45 05 92 3e 6d 57 c2 bc 90 c1 5a 3d 1f 3f b0 be
       0.28519645 -0.023723328 0.05340725 -0.34423158
0002e0 7b 60 97 3d 64 f4 6d ba 07 33 e9 3d 98 17 66 bd
       0.07391449 -0.00090772496 0.11386686 -0.056174845
0002f0 b7 cb d9 ba 88 70 84 be 6d 76 80 3e 9d fa 4b be
       -0.0016616498 -0.25867105 0.25090352 -0.1991982
000300 94 23 c5 3d a3 bd ad 3e 31 72 8c be b7 f6 f9 3e
       0.096259266 0.33933744 -0.2743087 0.4882104
000310 78 bd 5d be 55 49 85 3e c1 50 61 3e 6a 97 e0 3d
       -0.21654308 0.2603251 0.22003461 0.1096638
000320 7f b6 54 3e 92 39 80 3e 6d 21 04 3c 97 d9 c9 3c
       0.20772742 0.25043923 0.00806461 0.024639888
000330 3a c5 b4 3e ab fb ca 3d 31 94 53 be b3 c6 a0 3e
       0.35306722 0.09911283 -0.20662 0.31401595
000340 22 05 14 3d 53 8e 08 be b3 eb ae be bc 63 09 bd
       0.036137708 -0.13335542 -0.341642 -0.03354238
000350 a3 e9 21 3c dd 9c 6c be fb e0 38 3e c3 5a 29 bd
       0.0098823635 -0.23106714 0.18054573 -0.041346323
000360 e4 d5 94 be dd f5 d6 bd 6b 22 9a bd 06 9c 92 be
       -0.29069436 -0.104961134 -0.07526096 -0.2863466
000370 cb d4 a7 3d ee 67 f2 bd 59 f0 8e be 8f 76 ee bd
       0.08194884 -0.11836229 -0.27917746 -0.11643707
000380 5c ac 0b bc 26 99 51 3d af 3e 38 3d b7 eb 7e bc
       -0.00852498 0.051171444 0.044981655 -0.0155591285
000390 88 e9 81 3e de 29 af 3d e2 43 ba bd c8 35 8d be
       0.25373483 0.085529074 -0.09094979 -0.27580094
0003a0 ad ee 13 bd 44 85 86 bd c8 f4 a7 be 8b e4 c7 3d
       -0.03611629 -0.06568387 -0.3280394 0.09760388
0003b0 4b 2f 63 be d4 2d ab be 67 5b 64 be 38 d9 a0 bd
       -0.2218601 -0.33433402 -0.22300492 -0.07853931
0003c0 df 23 94 3d 9e 8d 2d be 06 1a 2a be 3a 4a 5a be
       0.07233404 -0.16948554 -0.1661149 -0.21317378
0003d0 20 7d 23 3e 58 cf af 3d 0b db 52 3e 58 08 bd 3e
       0.159657 0.085844696 0.20591371 0.36920428
0003e0 3d c6 b7 be 30 1b 89 3e 51 2f 5b be 82 cc c4 be
       -0.3589343 0.26778555 -0.21404769 -0.38437277
0003f0 bf c7 89 3e 90 cc 4d 3e 23 37 ac 3e 22 aa 40 3e
       0.26910207 0.20097566 0.33635816 0.188149

encoder.enc3.bias f4 [19]
000000 b5 a1 63 bc 58 dc f2 3b 61 75 b0 3d f8 68 85 3b
       -0.013893534 0.007411521 0.08616138 0.004071351
000010 0a d1 3c bc 0a 1b e1 bc 32 82 19 3b a8 bb 9a 3c
       -0.011524448 -0.027478714 0.002342355 0.01888831
000020 d9 3b 94 3d 0b 88 55 bd ef 81 e1 b9 91 da fb 3c
       0.072379775 -0.052131694 -0.00043012152 0.030743869
000030 37 32 e3 3d 46 25 7b 3d dd da f4 ba 56 fb 08 bd
       0.11093562 0.061314844 -0.0018680949 -0.033442818
000040 bb a0 14 bd 58 b4 3f 3b ca b4 0b bd
       -0.036286097 0.002925178 -0.03410796

encoder.enc4.weight f4 [7, 19]
000000 fa 3d d9 3d d1 de 86 3e 02 f4 84 be b0 c3 96 bd
       0.10607524 0.2634187 -0.25967413 -0.07361543
000010 6f 66 a3 be 77 24 bd bb 0e 66 c5 bc 05 95 89 3d
       -0.31914088 -0.005772169 -0.024096515 0.06717876
000020 a4 0b a9 3d c3 84 6f 3e 6c 51 ba be c9 e8 9e 3e
       0.082541734 0.23390488 -0.36390245 0.31036976
000030 05 e9 2b bf 12 19 0a 3d 1f 49 6c be c2 11 0a bd
       -0.67152435 0.033715315 -0.23074768 -0.03370834
000040 68 bc a6 3e da 36 4f bb 87 e1 a6 bd e5 bb 5b 3e
       0.32565618 -0.0031618387 -0.08148485 0.21458395
000050 8a 7d dc 3c a3 9b a0 be 18 38 1d bf fd e8 ce be
       0.02691533 -0.3136874 -0.6141372 -0.4041213
000060 df 9a 33 be d1 6e 35 bd 0b 4e 0b 3e b9 b2 53 bd
       -0.17539547 -0.044295136 0.1360399 -0.051684115
000070 bc ad 9f 3e 7d bf b2 3e bc c6 04 3e bb 56 3f 3f
       0.31187236 0.3491172 0.12966436 0.74741715
000080 41 9b 3d be f5 70 95 3e 75 3f 3b 3f f9 9b 23 3f
       -0.18516256 0.29187742 0.731437 0.6390987
000090 ca 89 99 bd 22 08 49 bb b9 75 eb 3e 1a 1f cc be
       -0.07496984 -0.0030675014 0.45988253 -0.3986748
0000a0 4d c7 25 3f f1 c0 c5 ba 8e cb b1 3b ec 64 46 be
       0.64757234 -0.0015087408 0.005425877 -0.19374436
0000b0 7f ce 9a be 19 2a f1 3e ee 89 52 be 9a ea fe bd
       -0.3023567 0.4710243 -0.20560429 -0.124470904
0000c0 38 81 56 3e b3 c0 02 bf fb a0 98 be ee ea 4a be
       0.2094773 -0.51075286 -0.29810318 -0.19816181
0000d0 5f 98 97 be 33 3c a1 3e f9 8f 8c 3e fa eb 04 3e
       -0.29608437 0.3149124 0.27453592 0.12980643
0000e0 02 5b 23 3c 69 d3 f8 bb 5b 7d 9c be 27 33 ce bb
       0.009970428 -0.0075935614 -0.3056439 -0.006292719
0000f0 af e1 17 bf 6e 16 f0 be f5 37 91 be d0 73 cd bd
       -0.5932874 -0.46892112 -0.28363004 -0.10031855
000100 ff 6b 1f 3e 94 55 4e 3f 89 1a 82 bd 7b 76 66 3e
       0.15568541 0.8059933 -0.063527174 0.22506134
000110 8d d8 94 bd 17 aa 6f 3f 81 3e e5 3d d3 04 bf 3e
       -0.07267866 0.9361891 0.11193562 0.37308368
000120 cc 6c 11 3f d2 39 19 3f 8a 36 c9 3e e7 20 35 be
       0.56806636 0.5985385 0.39299423 -0.17688332
000130 d4 5e dd 3e 58 e4 59 3e 37 5e 7f bc 83 8b bc 3e
       0.4323641 0.21278512 -0.015586427 0.3682519
000140 71 5b 9d be 7d 98 ca be 16 ed ff be 47 13 42 3e
       -0.30733827 -0.39569464 -0.4998557 0.18952666
000150 4f ac e0 be cc 46 d3 3e a9 87 c1 3e 10 89 99 3e
       -0.4388146 0.4126495 0.37798813 0.29987383
000160 21 9b ba be 5b 1e 81 3e bd bd 4a bd 22 06 83 be
       -0.3644648 0.25218472 -0.049497355 -0.25590616
000170 c7 e3 cc be 3c 0f dc 3e 27 8e e7 3d bc 11 85 3a
       -0.4001753 0.42980373 0.1130641 0.001015238
000180 15 02 4d 3e f1 d1 9b 3e 3e 3e 51 be 9b 67 56 bd
       0.20020325 0.3043361 -0.204339 -0.0523449
000190 4a bf 9c bd 3f 2d 8e 3e e8 aa 03 3e 5d fc c3 3e
       -0.07653673 0.27768895 0.12858164 0.38278475
0001a0 6f 74 7b be 4d 30 fb bd 33 63 4b 3e 2e 04 80 3e
       -0.24556135 -0.12265072 0.1986206 0.2500319
0001b0 d6 60 80 3d 5f 04 e0 3e 52 c4 63 be 76 dd 45 bc
       0.0626847 0.43753335 -0.22242859 -0.012076726
0001c0 2f c7 e9 3c 90 c1 bf bd 73 08 20 3e d4 6c 52 3e
       0.028537361 -0.09363091 0.15628223 0.20549327
0001d0 4e d0 0b 3f a7 0a 70 be cd ff fc bc 86 9e 4d be
       0.5461472 -0.23441564 -0.030883694 -0.20080003
0001e0 94 4b 44 3e dc 04 a0 3e cf ad c3 be 7a a1 2d 3d
       0.19169456 0.31253707 -0.38218543 0.042390324
0001f0 3e 38 d5 3e fc df 7e be af 31 d6 bd b1 9a 50 be
       0.41644472 -0.24890131 -0.10458695 -0.2037151
000200 f1 b5 59 3d 85 92 d6 3e 14 70 e7 3e dc f8 da be
       0.05315203 0.4190866 0.45202696 -0.4276799
000210 19 92 2f be
       -0.17145576

encoder.enc4.bias f4 [7]
000000 d0 0d 02 3a 9f 37 8e 3c 23 a9 b5 bb 4c 00 ca 3c
       0.00049611647 0.017360507 -0.0055438443 0.024658345
000010 05 04 23 3c 51 64 33 bc 9f c5 f9 3c
       0.009949689 -0.01094921 0.03048974

decoder.dec1.weight f4 [19, 7]
000000 89 d1 1d bf da f1 60 3e 96 15 dc 3e 53 96 f0 3e
       -0.6164785 0.21967259 0.4298522 0.46989688
000010 d1 ed 69 3f 48 b8 93 3e d5 a4 a9 3e a5 10 4f 3e
       0.91378504 0.28851533 0.3313357 0.20221193
000020 30 34 2e 3e 2f 6c 1d bf ba 3d 37 3f 0b a9 84 3d
       0.17012095 -0.614932 0.7157856 0.06477555
000030 cb ff 41 bf 53 4b d6 3e 3d ad e1 3e 34 e0 04 3f
       -0.75780934 0.41854343 0.44077483 0.51904607
000040 bb 5c 29 3f b8 7c ca be 37 a1 64 be 3c 12 98 bf
       0.6615712 -0.39548278 -0.22327124 -1.1880565
000050 90 95 30 bf a0 05 bf 3e 98 60 32 bf 0e 85 e9 be
       -0.68978214 0.3730898 -0.6967864 -0.45609325
000060 ce bc 2d 3f b2 7b af 3c 32 d5 d3 3e e7 c7 52 be
       0.6786622 0.021421287 0.41373593 -0.20584069
000070 59 9e 84 3d 7c 02 38 3f 56 89 d0 3e 1e ee 5d bd
       0.06475515 0.7187879 0.4072978 -0.054182164
000080 30 fa 1b 3f a6 2b d7 be 31 a2 65 bf 12 80 2a bf
       0.6092863 -0.4202549 -0.8970061 -0.6660167
000090 c9 d3 b6 3e f2 60 e0 be a4 d5 ad 3d ba a5 5a 3f
       0.35708454 -0.43823963 0.08488014 0.8540913
0000a0 0a 95 5c 3f 54 c6 2f 3f f8 81 3d bf d7 77 1d 3d
       0.86164916 0.68662 -0.7402644 0.038444366
0000b0 8e d1 66 3f a1 14 65 3d 87 8b af bd 75 e7 39 bf
       0.90163505 0.055927876 -0.085715346 -0.726188
0000c0 5b 5d 40 bf 84 c3 1b 3f 50 f6 8e 3e f5 06 12 3f
       -0.7514245 0.6084521 0.27922297 0.57041866
0000d0 5f b4 f0 be a2 83 93 3e 43 37 2c bf 70 0b 67 bf
       -0.47012612 0.28811365 -0.6727182 -0.9025183
0000e0 2a 20 67 bc 8c 86 70 3f ba 00 e0 3d 41 57 96 bf
       -0.01410679 0.939553 0.109376386 -1.1745378
0000f0 2f 47 b9 3d 59 79 93 3f 00 49 80 be 5c 92 3a bf
       0.0904678 1.1521407 -0.25055695 -0.72879577
000100 cb 68 a6 be 70 e0 02 3f 2e 2d c8 be c0 b5 ab be
       -0.32501826 0.51123714 -0.3909697 -0.33537102
000110 3d 75 9a 3f f0 6e 12 3f 37 aa 05 be ab c3 86 bf
       1.2067028 0.5720053 -0.13053213 -1.0528463
000120 56 2c 89 bf 3d b3 8e 3f 45 13 28 3f a5 57 79 bf
       -1.0716655 1.1148449 0.656544 -0.9739936
000130 3e be 14 3f 92 75 75 3f 98 40 e6 be a0 68 ce 3f
       0.58102787 0.95882523 -0.44971156 1.6125679
000140 cf 33 11 3f b4 c2 59 3f 25 05 cc 3c 2f eb 2e be
       0.5671968 0.8506272 0.024904797 -0.17081903
000150 7d d3 09 3f 06 d5 0b be 1c b1 32 bf da 82 8c bf
       0.5383833 -0.1365548 -0.698015 -1.0977433
000160 7d 10 87 bf fd 98 e4 3e 4d 9c 9f bc 18 2f 16 3e
       -1.0551907 0.4464797 -0.01948371 0.14666402
000170 72 62 69 3e 40 07 df bc 53 c5 10 bf 11 13 a3 3e
       0.2279146 -0.027225137 -0.5655109 0.31850484
000180 2a 64 25 3f 5d f4 2f bf 73 65 07 be 31 75 10 bf
       0.64605963 -0.68732244 -0.13222294 -0.5642882
000190 8c cb 56 3f 15 3d 59 bf 34 13 cb be 7f 5d ec be
       0.8390434 -0.8485883 -0.39663088 -0.46165082
0001a0 32 12 84 be 16 b5 59 3f d0 39 9b 3e 1a 60 e0 be
       -0.25795132 0.8504194 0.30317545 -0.4382332
0001b0 de f1 e7 be a2 b4 a1 3e 7f 02 71 3f 6d 3e ea be
       -0.45301718 0.31583124 0.94144434 -0.45750752
0001c0 b0 15 4a bf 03 ae 48 3e ac b6 d0 3e c2 10 da 3e
       -0.7893934 0.1959763 0.40764368 0.4259091
0001d0 68 6b 5e 3e 8b 8c 63 bf 58 92 4e 3e 47 0e de 3e
       0.2172066 -0.88886327 0.20173013 0.43370268
0001e0 4d 17 b9 3e 25 d4 5e be cf e4 85 bf 25 24 10 be
       0.3615059 -0.21760614 -1.0460452 -0.14076288
0001f0 1c f8 6f 3f 12 72 36 3e b9 07 36 3f da aa 5d bf
       0.9373796 0.17816952 0.71105534 -0.86588824
000200 1a 6d d9 be 6a b0 ef 3e 16 e6 04 bf 6f c4 0a 3e
       -0.4246605 0.4681428 -0.51913583 0.13551496
000210 2c d1 5e 3f
       0.8703792

decoder.dec1.bias f4 [19]
000000 38 a3 5c 3c 38 87 b1 3c b7 f2 55 3d 87 15 90 3d
       0.013466649 0.021670923 0.052233424 0.07035356
000010 31 f4 05 3d c7 3d f5 3a b2 2f 87 3c 6d f5 16 3d
       0.032703582 0.0018710428 0.016502235 0.03685515
000020 af 4c 15 3d 94 dc 93 bb 17 a6 87 bd d7 3a 89 3d
       0.036450084 -0.004512379 -0.06623476 0.06700676
000030 ca 74 76 bc 34 1f 23 3c 82 03 ec 3b e3 9d 8a ba
       -0.015042493 0.00995617 0.0072025666 -0.0010575618
000040 28 4e e6 bb 51 96 00 3c c5 b6 be bc
       -0.00702836 0.007848338 -0.02328051

decoder.dec2.weight f4 [39, 19]
000000 06 85 cf 3e 8d 8c d8 be 44 7a 00 3e 1e 64 c6 be
       0.40531176 -0.42294732 0.1254664 -0.38748258
000010 de 0e 92 bd e1 3c 28 bf 85 1e e8 3e e6 52 99 3e
       -0.07131742 -0.65717894 0.45335785 0.2994606
000020 1c 78 b8 bd 8d 4f cc 3d 59 4b 31 be bb 07 17 3f
       -0.09007284 0.099761106 -0.17313899 0.5899617
000030 62 fa f0 3d 94 7a ac 3e a2 cf 0c 3f 70 77 0b 3e
       0.11766507 0.3368727 0.5500432 0.1361978
000040 87 4d 9b be 77 88 02 bf ad 2b de 3e 2a 74 0a 3f
       -0.30332586 -0.5098948 0.43392697 0.540835
000050 c9 c4 09 3e d8 1e 8e 3d 8f 38 db 3d e7 7f 28 3f
       0.13453974 0.06939477 0.10704147 0.65820163
000060 1c f0 62 3e 42 21 43 be 94 cb df bd 9b 95 62 be
       0.22161907 -0.19055656 -0.10927501 -0.22127382
000070 31 90 a8 3e 51 43 99 3e a3 0f e3 bc fd 6e db bd
       0.3292251 0.2993417 -0.027717417 -0.10714529
000080 ef f3 7b 3e 2f 06 aa 3e 35 ba aa be 78 ae a6 be
       0.24604772 0.33207843 -0.3334519 -0.32554984
000090 29 67 c9 be bb dc eb 3e 69 63 d6 be 40 11 84 be
       -0.39336517 0.4606684 -0.4187272 -0.2579441
0000a0 60 a9 cd be 0d 8b 16 bf f7 20 c6 3e 8a 22 06 3f
       -0.40168285 -0.58805925 0.38697025 0.5239645
0000b0 da 3f 8c 3d 69 b5 d3 be d4 41 48 3f 6c ae c5 be
       0.06848116 -0.41349342 0.78225446 -0.38609636
0000c0 59 46 06 bf 35 d2 25 3e 3e d5 b9 be 8b c3 12 3f
       -0.5245109 0.16193469 -0.36295503 0.57329625
0000d0 de b3 a0 bb f5 e9 93 be 07 09 3b be 7a 74 da 3e
       -0.0049042543 -0.28889433 -0.18265162 0.4266699
0000e0 2d ac dd be 50 89 ae 3e 37 08 ef bd c2 75 e6 3e
       -0.43295422 0.34089136 -0.11671489 0.45011717
0000f0 d7 aa 8a 3e c1 4a 06 3f 99 b4 ab 3d 42 bd 8f be
       0.27083465 0.52457815 0.08384056 -0.2807408
000100 38 78 08 3f 64 a7 1b bf 7f b0 e7 3d 4f 10 a6 bd
       0.5330844 -0.6080229 0.11312961 -0.08108579
000110 ba 6c 8b be 55 92 2e 3f 06 db 86 bc 6d 20 16 be
       -0.2723139 0.68192035 -0.01646186 -0.14660807
000120 e4 29 1e 3f d9 37 5a be 18 cc db be 38 97 72 be
       0.6178267 -0.21310367 -0.4292915 -0.23690498
000130 5c f5 91 3e d1 b6 90 be db 49 9d 3e e7 66 c9 bd
       0.28507507 -0.28264478 0.3072041 -0.0983408
000140 c5 92 59 bd 9a e5 c3 3e 52 93 85 3d c9 c1 15 3d
       -0.053118486 0.3826111 0.0652224 0.03656176
000150 b5 aa da 3e 39 44 1a bf 0a 58 15 bf c2 7f 30 be
       0.42708364 -0.6026035 -0.5833746 -0.17236236
000160 23 f1 19 be 44 0c c3 be ab bb d4 be b6 3b 6a bd
       -0.15033393 -0.38095295 -0.4154943 -0.05718585
000170 9e 24 5e bf 5e f1 99 3d bb ca a1 be 1c ac 0e 3f
       -0.86774623 0.0751674 -0.31599984 0.5573137
000180 aa bb b9 3e 09 12 16 3f 85 a1 db be b1 fc ee bd
       0.3627599 0.5862127 -0.42896667 -0.11669291
000190 74 74 80 be 04 80 8d be e7 84 11 3f e5 c2 27 be
       -0.25088847 -0.2763673 0.5684342 -0.1638294
0001a0 93 23 22 bf 66 5b 09 3f fc c4 39 3e 46 12 84 3e
       -0.6333553 0.5365509 0.1814155 0.25795192
0001b0 59 76 bb 3e 6b 30 12 be 77 5a 08 3d b8 ad c4 be
       0.3661373 -0.14276282 0.0332894 -0.38413787
0001c0 73 79 d7 be fd c3 ca be ee 7f a2 bb 97 fd bc 3e
       -0.42084846 -0.39602652 -0.004959098 0.36912224
0001d0 2e f3 40 3f 1b 8c 0a 3e 02 1e 2e be 5d 13 fc be
       0.7537106 0.13530008 -0.17003635 -0.49233523
0001e0 23 04 07 be 3a 08 70 be 8f 98 8c be 62 da 62 be
       -0.13185172 -0.23440638 -0.27460143 -0.22153619
0001f0 19 e4 8d 3e 5b 0f 9a be f3 76 b8 bd 4a b0 62 3e
       0.27713087 -0.3008984 -0.09007063 0.22137561
000200 5d 24 89 3c 51 8e 62 3e 1d 1d e6 bd 03 96 bb bd
       0.016740972 0.22124602 -0.11236022 -0.09159472
000210 e1 0f a7 bd 6a 85 85 be 41 57 46 be 5e 2f 6e be
       -0.081573255 -0.2607835 -0.19369222 -0.23260257
000220 3d 4d 3e bf 57 40 de be 46 aa bd 3e 83 5f b3 3e
       -0.74336606 -0.43408462 0.3704397 0.35033807
000230 f6 9b 97 be 3c af bf 3e a3 90 9d bf 94 de 85 be
       -0.29611176 0.3743838 -1.2309765 -0.26146376
000240 59 26 3d 3f e7 ff 11 3f 0c de 9a 3d b6 6b 57 bc
       0.7388664 0.570311 0.07561883 -0.013148239
000250 b6 74 ee 3e a5 6e 64 bd 11 03 8a be fe 65 62 bf
       0.46573418 -0.05576958 -0.26955464 -0.8843688
000260 7d de de be 5f f6 c3 be ac 41 c9 3e 10 ef 73 be
       -0.4352912 -0.38273904 0.39307916 -0.23821664
000270 7e 17 1f 3f 79 c4 63 be d7 ce 89 3e 3e 4e 2f be
       0.6214522 -0.22242917 0.2691562 -0.17119691
000280 70 48 db 3e 61 e7 19 bf ab ea c0 3d fd 6d c5 3e
       0.42828703 -0.6011868 0.09419759 0.38560477
000290 11 8c c0 be 0c 28 1c be ac eb 42 be 88 b9 42 bf
       -0.37606862 -0.15249652 -0.19035214 -0.7606435
0002a0 3b d5 c5 bd 59 ba 82 3d 3f 03 51 bf 07 d4 9d bd
       -0.09659811 0.06383199 -0.8164558 -0.07706457
0002b0 3d f0 e2 3d 19 04 1e 3e ce 62 72 3e af 09 a6 be
       0.11080978 0.1543125 0.23670503 -0.32429263
0002c0 81 33 3d 3e bc ec 64 be 39 37 09 3e dd ad db 3e
       0.18476678 -0.22355932 0.13399972 0.42906085
0002d0 91 90 3a be 86 8a fa 3c 5b ad a4 3a 9e a9 0d 3d
       -0.1821921 0.030583631 0.0012563871 0.034585588
0002e0 58 9b 00 3f 56 c3 67 be 6a a9 70 3e ba 99 b3 be
       0.50237036 -0.22633108 0.23502126 -0.35078222
0002f0 61 3f 09 bd 6e 2a c5 bc 46 f4 19 be d8 fa 84 3e
       -0.03350771 -0.024068084 -0.15034589 0.2597263
000300 ae 6d 27 bd 8e 1e db be 35 4c c6 be e6 7f ab 3e
       -0.040876083 -0.4279675 -0.38730016 0.33496016
000310 4e 22 f2 bd e0 b1 e5 3e c9 3e cf be d0 1e 4f 3f
       -0.11822949 0.4486227 -0.4047759 0.8090639
000320 dc 38 8a 3e 37 9e 2e 3e fd 99 d9 3e fa d6 f0 bc
       0.26996505 0.17052542 0.42500296 -0.029399384
000330 16 ff 87 be e7 9e 9c be b2 fe cd 3d cd f9 b3 3e
       -0.26561803 -0.30589983 0.10058345 0.3515152
000340 f7 a2 74 be e9 d9 b6 3e 41 f2 c3 3e 2a 1e b7 be
       -0.23890291 0.35713127 0.38270763 -0.357652
000350 1d fb ae 3e 27 fd 38 3e ef 25 0e bf 91 dc e1 be
       0.3417596 0.1806532 -0.5552663 -0.4411359
000360 d8 18 ec 3e 16 c1 61 bf c6 b7 7f 3e 17 66 04 3f
       0.46112704 -0.8818525 0.24972448 0.51718277
000370 b1 cf d3 3d 50 b4 a7 3b 9e dd a1 3e 14 3e 8f 3e
       0.10342348 0.0051179305 0.31614393 0.2797705
000380 25 73 b9 3e 3b df f7 be 7b 15 3a bf 35 2b 16 3f
       0.3622066 -0.484125 -0.72689027 0.5865968
000390 d2 36 26 be fc 08 2b 3e b4 ba e3 3e 84 62 bb 3e
       -0.1623185 0.16702646 0.4447838 0.365986
0003a0 43 67 cd be 76 4e 2c 3e a3 3b 9b 3e a9 36 b0 3d
       -0.40117845 0.16826805 0.30318937 0.086041756
0003b0 6d 0a 9e 3e 8a 2c c8 bd f3 9b c4 be ee 3b e1 3e
       0.3086733 -0.0977412 -0.3840023 0.43991035
0003c0 ca bc 09 3f 27 75 09 be 29 bd 8e bd ca 9f 4f bf
       0.53803694 -0.13423596 -0.06969673 -0.81103194
0003d0 6e f5 85 be a4 0e d1 3e 5d 45 ae 3e f6 03 09 bf
       -0.2616381 0.40831482 0.34037295 -0.5352167
0003e0 a6 e6 06 3f a1 13 b2 bd c9 66 17 3e 33 7e a1 be
       0.5269569 -0.0869515 0.14785303 -0.31541595
0003f0 cf 5c af be 93 d6 51 bd e1 29 d2 3d 60 97 a9 bd
       -0.34250495 -0.051230025 0.10261894 -0.082808256

decoder.dec2.bias f4 [39]
000000 13 eb f5 3c 01 5e fb bc 6e c5 95 3d b6 da 59 3b
       0.030019319 -0.030684473 0.07313047 0.0033241934
000010 2c f0 28 3d 4c 1c 73 3c a0 c4 05 3c d7 a8 f9 3c
       0.04124467 0.0148382895 0.008164555 0.030476017
000020 1d 9d 0c 3c 60 1f bc bb b3 7c 17 bc fa 6b 13 3d
       0.008582381 -0.005741045 -0.009246039 0.035991646
000030 d3 88 99 3c 60 03 d0 3d 23 74 ef 3c 38 7e 9c 3c
       0.018742 0.10156894 0.029230183 0.019103155
000040 e1 04 cd 3c 16 24 6a bd 46 38 10 bd 69 0f a8 bc
       0.02502674 -0.05716332 -0.035209917 -0.02051516
000050 fb 29 bf bc 2c 8a 7a 3c d6 d2 d1 3c 7c f8 a3 3d
       -0.023335448 0.015291732 0.02561323 0.08006379
000060 4c dc 2f bc d6 94 6d bc ca 33 51 3d ca ed 45 bc
       -0.010733675 -0.014500817 0.05107478 -0.012080619
000070 cd e8 df bc 00 dd 60 3d 76 25 6c bc b5 00 f4 3c
       -0.027332688 0.054898262 -0.014413228 0.029785493
000080 2a bf f8 bc f7 83 fa 3c 38 e4 62 3d 0a a7 69 3d
       -0.030364592 0.030580504 0.055393428 0.057044066
000090 6e 24 ef 3c fd b4 7e 3b 5f 26 31 bc
       0.029192176 0.0038865202 -0.010812371

decoder.dec3.weight f4 [58, 39]
000000 76 f9 e3 bc 15 94 a1 3e 6b d2 08 bf 79 f7 7a bd
       -0.027828913 0.3155829 -0.5344607 -0.061271165
000010 79 4b 39 3f 48 3f 75 be f8 32 09 3d 96 99 87 be
       0.7238079 -0.23949921 0.033495873 -0.26484364
000020 4c a6 1f bd a9 61 1d 3e 94 87 da be 8b 57 2c 3e
       -0.038976952 0.15369286 -0.42681563 0.1683027
000030 e3 c9 33 bd 45 a9 8e 3b e4 43 a8 3d 6b df 55 be
       -0.043893706 0.0043536746 0.08216074 -0.20886008
000040 b0 96 44 3f d9 34 26 3e 3d dc a1 3d fd 2f 76 be
       0.7679243 0.16231097 0.07903335 -0.24041744
000050 be e1 88 3e b6 d5 c0 3d 35 6b 89 be d4 c2 32 be
       0.26734728 0.09415762 -0.26839605 -0.17457134
000060 39 bb 02 be 41 79 e5 3e d4 78 bf be b2 a0 fe be
       -0.12766732 0.44819072 -0.37396872 -0.49731976
000070 98 68 be 3e 1b a7 8c be 14 07 91 3e 14 6d 2d be
       0.37189174 -0.2747124 0.28325713 -0.16936141
000080 87 36 f4 bd 89 bf a8 be 69 46 6a be 7a ba 00 bf
       -0.11924463 -0.3295863 -0.22878422 -0.5028454
000090 89 74 82 3e 1c 37 9d 3d 38 22 7c be fb 90 9e 3e
       0.25479534 0.07676527 -0.24622428 0.30969986
0000a0 2f f8 2d 3e 10 39 8d 3e 4b cc 01 bd 91 54 59 bd
       0.16989206 0.27582598 -0.03168897 -0.053059164
0000b0 9c 75 32 3e 2c 94 c4 be f3 3a 11 3e 2c de 39 3c
       0.17427677 -0.38394296 0.14182644 0.011344474
0000c0 45 c3 8d be b3 91 a9 bd 50 6b ad be 78 ad 6d be
       -0.2768804 -0.08279743 -0.33870935 -0.23210704
0000d0 41 e2 6a 3e 02 27 1f bd a0 66 4f 3c 75 f3 b5 3e
       0.22937872 -0.03885556 0.012658745 0.35537305
0000e0 0c ae ba be c7 c0 f2 be 27 d1 f3 bd 65 e9 8a be
       -0.36460912 -0.47412702 -0.11905127 -0.2713119
0000f0 ca bb d0 3d a5 60 7e 3d 7d b1 81 be 4a dc c5 bd
       0.10192068 0.062103886 -0.25330725 -0.096611574
000100 c2 07 ba be 5a 1e 24 3e b8 0b bb 3e 7e 5c 98 3e
       -0.36334044 0.16027203 0.36532378 0.29758066
000110 c6 b3 3e be 3d b2 12 3e e2 01 3a 3e 2e 3a b3 bd
       -0.18623266 0.14325805 0.1816478 -0.08751331
000120 8c ef c9 bd b9 ff 8c be 05 be 1b 3f 67 02 0a 3f
       -0.09860143 -0.2753885 0.6083682 0.53909916
000130 ac 7c 43 be c9 fa ac 3d 29 6c 9f 3e 3b c3 65 3d
       -0.19090527 0.08446271 0.31137207 0.05609439
000140 b6 9e 00 be 1d 40 22 3e 47 83 a6 be b1 a2 9d 3e
       -0.12560543 0.1584477 -0.32522032 0.30788186
000150 db 3f 1f bd a5 29 53 bf 3f 35 6c 3e be 9c 29 bd
       -0.038879257 -0.8248542 0.23067187 -0.041409247
000160 42 be 0c 3e fd 57 bc 3e a0 c1 bc 3e f4 48 9d bd
       0.13744453 0.3678588 0.36866474 -0.0767993
000170 49 bb 12 be b5 70 7c 3d 63 99 0b 3e 0e 5c 1e 3e
       -0.14329256 0.061630923 0.13632731 0.15464804
000180 bc 5b 72 3e 9e 7e ca 3d 59 ab 72 be 88 2f 97 3e
       0.23667806 0.098874316 -0.23698176 0.2952845
000190 36 7e cd 3e df 43 ad 3c 8d 94 80 3d 6d 58 9a be
       0.40135354 0.021150528 0.06278334 -0.3014559
0001a0 ad 4d 96 3e 54 0a 1a be 0b 88 9f 3e 10 12 73 3e
       0.29356137 -0.15043002 0.3115848 0.23737359
0001b0 fe 3c 18 be 37 b5 cc 3e df c3 01 3f 65 68 59 be
       -0.14867017 0.39982006 0.506895 -0.2123123
0001c0 31 72 0e 3e 1c 74 01 3e 4f 22 34 be 17 63 10 bd
       0.13910748 0.12641948 -0.17591213 -0.03525075
0001d0 55 04 3a 3e 46 69 0d 3e aa b3 75 3e eb e8 41 3e
       0.18165715 0.1380969 0.23994318 0.18936507
0001e0 66 64 38 3d 8d 4a 0b 3d f2 11 69 3e 32 01 11 3f
       0.045017622 0.034006644 0.22760752 0.5664245
0001f0 4d f4 bd 3e ba f7 73 be d3 7b 72 bd 59 5a c8 bd
       0.3710045 -0.23824969 -0.05920012 -0.097828574
000200 2d d9 2f 3e 20 b2 44 3d fe 9f e4 be c2 40 9f be
       0.1717269 0.048021436 -0.44653314 -0.31104094
000210 5a 05 4c bd b9 11 86 bd 73 ee c3 bd 41 0e 03 bb
       -0.04980979 -0.06546349 -0.09566965 -0.001999751
000220 6c 5f 96 be ba 74 d2 3e 2a 59 97 3e d7 66 b7 be
       -0.29369676 0.4110468 0.29560214 -0.35820648
000230 71 fc fc bd f8 e2 59 be 15 43 a4 3e 07 89 82 3e
       -0.12352837 -0.21277988 0.3208243 0.2549517
000240 0a 74 06 3f 4f 16 20 be 10 b4 81 bd 80 e1 ad be
       0.5252081 -0.1563351 -0.06333172 -0.33961105
000250 3b eb 42 bf 89 67 2f 3e af 20 8b 3e 82 d9 8b be
       -0.76140183 0.1712934 0.27173373 -0.27314383
000260 e7 b6 de 3e 45 84 f3 bd 79 fb 67 3e b6 50 a6 be
       0.43498918 -0.11890463 0.22654523 -0.32483453
000270 4a 27 22 be a0 5d 6e 3d 2e 4d 23 bd 7f 98 0d be
       -0.158353 0.058194757 -0.039868526 -0.13827704
000280 c4 10 a4 bd 64 93 09 be 63 46 54 bd e4 32 dc bd
       -0.0801101 -0.13435131 -0.05182494 -0.10751894
000290 5d 11 63 3e dd 99 cf 3d da 88 99 bd 58 be 79 bd
       0.22174592 0.10136769 -0.074968055 -0.06097254
0002a0 48 f3 8b 3e 77 ad 7f 3e 5b 34 6b 3e 76 74 9a bd
       0.27334046 0.24968515 0.22969191 -0.075417444
0002b0 19 43 41 3d 11 6d 92 3e db bc cf 3d 00 46 e2 3b
       0.04718313 0.28598836 0.10143443 0.0069053173
0002c0 e7 68 30 be 02 ae c8 bd bc 81 03 bd 4d 30 48 be
       -0.17227517 -0.09798814 -0.032106146 -0.19549675
0002d0 48 0f ef 3e 51 01 1a 3f d8 f4 0b 3f 3d 3d 4d 3d
       0.46691346 0.6015826 0.54670477 0.05010723
0002e0 a3 30 42 bd 46 26 e9 bd ac a7 ef 3d fb 56 5c be
       -0.047409665 -0.11384253 0.11701903 -0.21517555
0002f0 dc e0 4c 3e 81 e7 04 3e 8c 3a 3e bd 10 eb d9 3e
       0.20007652 0.12978937 -0.046442553 0.4256215
000300 25 36 b7 3e 70 11 1b be a9 0e 2f bd 6f 5f d0 be
       0.35783496 -0.1514337 -0.04273859 -0.4069781
000310 ae e6 4b 3e 25 ea 8e 3e 24 18 8e be 31 33 17 3a
       0.19912216 0.27913013 -0.27752793 0.0005767821
000320 cf eb 7f 3e 7c 24 1f be 3f 86 1f be 39 c1 eb 3e
       0.24992298 -0.15541261 -0.15578555 0.46045855
000330 b2 c8 e1 3d 94 90 59 3d 2d 33 f0 3d 42 dc 55 be
       0.11024608 0.053116396 0.11728511 -0.20884803
000340 55 e6 0c be c1 e1 1c be 78 b5 4b be bd 4d 06 bf
       -0.1375974 -0.15320493 -0.19893444 -0.5246237
000350 fa f2 b7 3c dc fd 92 3d e7 58 bc be 65 3b db bc
       0.022454727 0.07177326 -0.36786577 -0.02676172
000360 65 d5 3a 3e 0d 40 3b bd 55 8e 41 bd bb a5 88 3e
       0.18245466 -0.04571538 -0.04725488 0.26688942
000370 80 b0 26 3f 45 15 ec 3e f0 4f 6e 3e 5c 21 14 be
       0.6511307 0.46109977 0.23272681 -0.1446585
000380 42 60 56 be 9c 9f a2 3e 53 e4 95 bd 54 f6 1b 3e
       -0.20935157 0.31762397 -0.0731894 0.15230685
000390 ce 88 aa 3e 33 ca 0d 3e fe 7b 11 3f 6a ed 1d 3e
       0.333075 0.13846664 0.5682982 0.15422598
0003a0 29 14 a7 3e 94 79 f8 3b 8d de c7 bd 59 c5 58 be
       0.32632568 0.0075828526 -0.09759245 -0.21169032
0003b0 fb 61 87 3e 84 9a 46 3d 78 65 d9 be 1c cc 43 3e
       0.2644194 0.0484872 -0.42460227 0.1912083
0003c0 cc 5f 32 be ac a6 b1 3e 27 0e bf bd a4 9d a9 bd
       -0.17419356 0.34697473 -0.09328871 -0.08282021
0003d0 c6 2e 40 3e ba 41 d5 bd 2f 7d 9a 3e f7 39 7f be
       0.18767843 -0.10412927 0.30173633 -0.24924456
0003e0 4d 7d e0 be a6 c8 09 3f aa ae 08 3f 21 57 80 be
       -0.43845597 0.5382179 0.53391516 -0.25066474
0003f0 0e 61 32 bf 0f 94 57 3e 5d 70 35 3e e1 d7 03 3d
       -0.69679344 0.21052574 0.17718644 0.0321883

decoder.dec3.bias f4 [58]
000000 86 0a e2 3c 45 e4 86 3b 10 72 a7 3c df 2d 9a 3c
       0.027592909 0.0041165673 0.020440131 0.018820701
000010 44 42 16 3b df 72 c9 bc d6 a7 f3 bc 66 4a 8b bc
       0.002292768 -0.024590908 -0.029743116 -0.01700325
000020 6e 69 d7 3d d5 a1 1f bc 22 0b b9 3d dc 71 8a 3d
       0.10518156 -0.009743174 0.090353265 0.06759998
000030 81 e5 ab 3d 28 58 d8 3c bc 5f 02 3d 97 47 00 3d
       0.08393384 0.026409224 0.03182958 0.031318273
000040 44 ec 95 3c 47 f1 b4 3b a7 2d 8c bd de 24 33 3c
       0.018301137 0.0055219266 -0.06844645 0.010934083
000050 42 14 a5 bd a0 b3 1c bb 31 09 1c bd 83 42 05 3e
       -0.080605045 -0.0023910776 -0.038094703 0.13013653
000060 76 de ac 3c c7 c0 56 bc d6 a3 bb 3c 8f 10 8d bd
       0.021102171 -0.013107485 0.022905272 -0.06887924
000070 7f 99 89 3d b1 c8 92 3d 22 be ea 3c 66 5c bd 3c
       0.0671873 0.07167185 0.028655116 0.023115348
000080 7a d0 0b 3e b4 db 0a 3d d5 56 4a 3d 09 51 96 3b
       0.13653746 0.03390093 0.049399216 0.004587297
000090 a5 d1 b4 bc ef 9c ea 3a 92 6e 08 bd 7f 57 ed 3d
       -0.022072623 0.0017899553 -0.033308573 0.11588954
0000a0 4e 2c ba 3d ee 7d 8d bd 53 5d 10 3e 21 eb b7 3c
       0.09090482 -0.06908785 0.140981 0.022450985
0000b0 ee 2a c4 3c 7c d0 61 3d 92 09 62 3d 19 a7 12 3d
       0.023946252 0.055130467 0.05518491 0.035803888
0000c0 5d 52 0d bc 52 01 d0 3d 7e 10 2e 3c c1 20 13 3c
       -0.008625594 0.10156502 0.010624049 0.008979977
0000d0 68 5c 13 3d 86 5c d9 3d d5 b5 9c bd a1 54 08 3c
       0.035976797 0.106133506 -0.07651869 0.008320958
0000e0 f8 07 cd ba c6 5b 66 3d
       -0.0015642634 0.056239866
