IDS_TA/initial_Models/CADE-m1.0-l0.01.pth (torch, 67910 bytes, 16 tensors)

encoder.enc1.weight f4 [58, 78]
000000 0e 7a 16 3e e4 34 dd 3d 34 72 24 be 93 0c 82 3d
       0.14694998 0.10801104 -0.1605919 0.063500546
000010 6b 1c 4e 3e f6 3e 7b be 7e 5d 95 3e 2b a4 ac 3c
       0.20128028 -0.24535736 0.2917289 0.021074375
000020 18 3e 52 be d6 99 25 3e 14 54 a2 bd cd ff 39 be
       -0.205315 0.16171965 -0.07926193 -0.18163987
000030 93 7a 42 bd c9 f9 9d 3d 56 5f 29 3e 62 39 e5 3d
       -0.047480177 0.07713658 0.16540274 0.111925855
000040 94 78 80 be e3 f9 65 be 3c aa ac 3d d5 ea a2 ba
       -0.25091994 -0.22458605 0.08430907 -0.0012429605
000050 95 87 08 be eb 43 22 3e 6a 49 0a be bc 99 d8 bd
       -0.1333297 0.15846221 -0.13504568 -0.105761975
000060 13 9d 16 be aa 32 23 3e be 52 49 3e e9 17 4b be
       -0.14708357 0.15937296 0.1966047 -0.1983334
000070 4d 03 80 bd 57 d5 72 3e 28 f3 48 3d bf c0 88 3d
       -0.062506296 0.23714195 0.049060017 0.066773884
000080 b5 47 49 be 82 a8 83 be 1c 22 0d 3e ca a3 9d 3a
       -0.1965626 -0.257145 0.13782543 0.0012026962
000090 27 1d 19 be 2a 8f c0 3d 91 be a3 3d 95 e3 ac bd
       -0.14952527 0.094023064 0.07995332 -0.08441845
0000a0 9b 45 12 3e 2d 9a 25 3e 11 05 5c bd bb 13 8c be
       0.14284365 0.16172095 -0.05371577 -0.27358803
0000b0 11 f6 52 3e 0b 56 94 3e 29 5c 94 be 90 99 91 3e
       0.2060168 0.28971896 -0.28976563 0.2843747
0000c0 dd 13 46 be 28 b5 89 bd fd 40 dd bd 17 f9 32 3e
       -0.19343515 -0.06724006 -0.10803411 0.17477833
0000d0 9f 89 f0 3d 83 cc 1d be 6b d7 4b 3b b2 a3 17 3e
       0.11744999 -0.15410046 0.003110374 0.14808539
0000e0 e9 c8 5b 3c e0 57 b5 3e 64 26 6a ba f1 31 83 3e
       0.0134146 0.35418606 -0.0008932112 0.2562404
0000f0 06 9b 90 bd 27 71 5a 3d e4 04 75 be 5d f7 3d 3e
       -0.070608184 0.053330567 -0.23927647 0.18551393
000100 f4 a3 38 be aa b1 f8 bd da 7f 44 3d b9 8a bd bd
       -0.18031293 -0.12143262 0.04797349 -0.09254975
000110 c2 5f f3 bc f1 a3 fa bd ac 3d c0 3d db dd 00 bd
       -0.029708747 -0.122383006 0.09386763 -0.031461578
000120 cb 95 19 bd 57 a9 53 be 25 96 61 3e 24 26 67 3e
       -0.03749637 -0.20670067 0.22029932 0.22573143
000130 28 69 d8 bd b4 ee 4c be 68 80 30 3e 1c 28 74 be
       -0.10566932 -0.20012933 0.17236483 -0.23843426
000140 a6 ba a7 be 14 cb 4b be 5e c8 4d be eb 61 aa be
       -0.3275959 -0.19901687 -0.20095965 -0.3327783
000150 f9 18 61 3e 00 46 22 bf d9 8e 2d 3e 70 93 48 3d
       0.21982183 -0.6338806 0.16949023 0.048968732
000160 04 4e 14 3e 5f 14 fa bd e3 1b e3 bd df b8 8e be
       0.14482886 -0.12210917 -0.11089303 -0.2787542
000170 29 2a 5f be 4f 33 9c be 48 92 f4 3d 80 90 14 3f
       -0.21793427 -0.30507895 0.119419634 0.5803299
000180 6f ef 06 3e 43 dd 5e bc 50 55 61 be 30 23 46 be
       0.13177274 -0.013602558 -0.220052 -0.1934936
000190 3c 6e 02 3c 44 f6 db 3d fa 80 0c be 64 04 a9 3d
       0.007960852 0.10740331 -0.13721076 0.082527906
0001a0 25 a7 08 be 99 1e 86 3e ac b0 ef 3e 86 78 62 bd
       -0.1334501 0.2619522 0.46814477 -0.05529072
0001b0 cd 68 2c 3e ad 6f 3d bf 21 01 e8 bc b7 79 5f be
       0.16836853 -0.7399853 -0.02832085 -0.21823774
0001c0 aa ab 88 be 40 bb a1 bd d3 fb 32 3e 9b 6d df 3d
       -0.2669347 -0.07897043 0.17478876 0.109095775
0001d0 10 6e a0 3d ca e7 b9 3d fc 76 12 3e 3a 52 97 bd
       0.07833493 0.090774134 0.14303201 -0.0738873
0001e0 de 5a 4c 3e c4 21 fe be 49 10 09 3f 0e 55 00 bd
       0.19956538 -0.49635136 0.53540474 -0.031331114
0001f0 81 9c 26 bf ac 6b 9c be 18 50 a4 3e bf 15 5b be
       -0.65082556 -0.30550897 0.32092357 -0.21395014
000200 ce 0c a8 be 45 18 6c 3e 5a 82 a7 be 4e 26 99 bd
       -0.3282227 0.23056133 -0.32716638 -0.07478009
000210 bb 04 ae 3e 7e 04 1c 3e 81 07 dd be 6d 79 9f 3e
       0.33987984 0.15236089 -0.43169788 0.31147328
000220 a5 a8 c6 be 0e 96 af 3e e2 2b 9a bc 55 d7 ea bc
       -0.3880054 0.3429417 -0.018819753 -0.028667131
000230 cb 56 7b be 51 e6 54 3e 11 2f ef 3d ea b4 c0 3e
       -0.24544828 0.20790984 0.11678899 0.37638026
000240 e9 2c 8c 3e 9d b3 28 3a 0e 3c 83 bf 6d 4d 07 be
       0.27378014 0.0006435456 -1.0252702 -0.1321313
000250 20 b4 c7 3e 4e 6c bf 3e ce 77 bf 3d c8 58 8a 3e
       0.39004612 0.37387317 0.09349023 0.2702086
000260 c4 e7 7d 3d 58 86 f0 bb dd 7d a3 bd 62 6f 77 bb
       0.061988607 -0.007340234 -0.07982991 -0.0037755598
000270 a4 ae 3d 3e 11 be 20 be 5b fb 0a be 50 28 8f 3e
       0.18523651 -0.15697505 -0.13572447 0.27960443
000280 26 01 8f 3e 4c a4 e0 be dd d9 d9 bd e0 c7 3b bd
       0.27930564 -0.4387535 -0.10637257 -0.045844913
000290 0c a0 2a 3a 01 6d 43 3e ef 08 59 bd 48 1d a1 3d
       0.0006508834 0.1908455 -0.052987035 0.07866913
0002a0 9f 44 76 bd 97 e4 df bd 88 b8 b5 bd 61 9f 27 3e
       -0.060124036 -0.10932272 -0.08873087 0.16369392
0002b0 b0 70 62 3e b1 67 75 bd 85 c8 51 3e cc 62 8d be
       0.221133 -0.05991334 0.20486648 -0.2761444
0002c0 1a 47 39 3e 84 b6 2d 3e 8e ac a9 be 98 60 e8 bc
       0.1809353 0.16964155 -0.3313946 -0.028366372
0002d0 a9 40 3f 3c ed a6 86 bd ec e2 26 be 78 7d 79 3d
       0.011673131 -0.06574807 -0.16297501 0.060910672
0002e0 25 87 3b 3e f6 5c 9f 3d e5 8e f8 3d 78 18 a5 bd
       0.18313272 0.07781403 0.1213663 -0.08061308
0002f0 df ab 04 3e 3c c6 a6 3d ee 4a 02 be 01 8a 28 be
       0.12956189 0.08143279 -0.12723896 -0.16458894
000300 11 ce 61 3e 81 9c 13 be 42 63 54 3d d7 ef a1 3b
       0.22051264 -0.1441517 0.051852472 0.004941921
000310 6f 24 0a be 10 d7 78 be 8c e6 8c 3d 28 22 b8 3d
       -0.13490461 -0.2430079 0.06879911 0.0899089
000320 26 76 5b 3e 85 a8 b7 bc f8 52 71 be 57 bd d5 3d
       0.21431789 -0.022419224 -0.23566806 0.10436504
000330 db 80 6f bd ac ec 41 3e 48 a9 fe bd df ad e1 bd
       -0.058472496 0.1893794 -0.124346316 -0.110194914
000340 a1 0f 0a be ed 98 3f 3e b2 62 3b 3e 85 22 12 3d
       -0.13482524 0.1871068 0.18299368 0.03567745
000350 e4 28 c0 bb 41 d5 68 bc 88 6d bc 3d 06 03 5d 3e
       -0.0058642495 -0.014211 0.09200579 0.21583185
000360 63 a8 96 37 6c 70 7c 3c a3 cc 98 3d af 59 53 bd
       1.7959805e-05 0.015407663 0.07460906 -0.0515992
000370 f4 48 81 be d7 9d 11 3e fc e5 ef 3d 5c 76 31 bc
       -0.2525097 0.14220367 0.11713788 -0.010831442
000380 ad 7e f1 bd db 65 28 bd 88 2f a4 3d a6 4b b7 bc
       -0.117917396 -0.041112762 0.08016878 -0.02237494
000390 01 93 78 3c 68 5c f8 3d b5 08 49 be c4 c8 6a be
       0.015171767 0.12127 -0.19632228 -0.22928149
0003a0 1d 8b 32 3e 78 59 99 3d 24 d6 dc bd b0 89 8a bd
       0.1743588 0.07487768 -0.107830316 -0.06764543
0003b0 d0 bd d7 3d 3f 63 70 ba 56 6b 14 3d 21 c0 f8 3d
       0.10534251 -0.0009170062 0.036235176 0.12146021
0003c0 79 22 88 bd f6 e7 71 bd 7d 34 0d 3e 59 d0 10 be
       -0.066472 -0.059059106 0.13789554 -0.14141978
0003d0 6b 92 de bd 56 a9 0c be e0 df 33 bd db ad 15 be
       -0.10867771 -0.13736472 -0.043914676 -0.14617102
0003e0 e0 22 1c be 1e 27 2d bd 17 eb ab bd c5 b3 c6 bd
       -0.15247679 -0.042273633 -0.08394449 -0.09702257
0003f0 4d d4 33 3d de 02 77 3e 50 29 8f 3d 5e 80 60 be
       0.043903638 0.24122187 0.069903016 -0.21923968

encoder.enc1.bias f4 [58]
000000 ae a8 84 3b ed 3d db 3c 45 8a 1c bd 54 b2 af 3b
       0.0040484285 0.026762927 -0.0382178 0.0053618345
000010 95 41 aa bc 80 51 3d bc be ab 96 ba 3f 15 5d 3c
       -0.020783225 -0.011555076 -0.0011495275 0.013493835
000020 4f b7 33 3d 1f 18 31 3d 55 e9 4d 3d 16 06 df 3c
       0.04387599 0.043235894 0.05027135 0.027224582
000030 19 e8 37 3c b8 02 ec 3c 9b 60 16 bc 22 b1 f2 3d
       0.01122477 0.02880989 -0.009178306 0.11850192
000040 cd 90 6b bc 9b 77 50 bb 4d 85 9a bb 0d 8b c9 39
       -0.014377785 -0.0031809572 -0.0047155977 0.00038441308
000050 a7 c2 c0 3d bc ca 22 3c 14 6f a0 bc 3e 31 cd 3c
       0.09412127 0.009936031 -0.019584216 0.025047895
000060 6f 52 6f bc ed 5d df bc 6f db f1 bb 14 03 79 3c
       -0.014607056 -0.027266467 -0.007380895 0.015198488
000070 fa c1 0a bb 4a 5b 34 bd f6 88 92 bd 0e 2d 9f 3c
       -0.0021172748 -0.044032373 -0.071550295 0.019430663
000080 06 02 b0 3c 42 00 b6 bc 8c 43 f2 3a c3 30 83 3d
       0.02148534 -0.02221692 0.0018483265 0.06405785
000090 79 11 1e 3d cb 2b 4b bd aa 05 44 3c fe 78 43 3d
       0.038590882 -0.04960231 0.011964241 0.04772281
0000a0 22 d1 95 3d b0 49 41 bd 06 9b 48 3b 29 2e 1b bc
       0.073152795 -0.047189415 0.003060998 -0.009471455
0000b0 4b b9 5a bc f4 e0 c4 3c 87 08 a0 bc cf f0 8b bd
       -0.013349841 0.024033047 -0.019535316 -0.0683304
0000c0 df d7 99 bd 78 e6 df bb d9 8d c5 3d 6d 6f 1d bc
       -0.07511877 -0.006832894 0.09646196 -0.0096090855
0000d0 c8 17 89 bd 50 d5 00 3d 69 42 8a 39 e2 a9 e1 bb
       -0.06693989 0.03145343 0.0002637089 -0.0068867067
0000e0 e6 c4 12 bc 15 25 c8 3d
       -0.008958077 0.09772698

encoder.enc2.weight f4 [39, 58]
000000 06 c2 17 be ba 3d 88 bd 4c 48 12 3d 39 5b 86 bd
       -0.14820108 -0.066523984 0.03571348 -0.06560368
000010 54 15 49 3e 97 16 b0 bc 4e 93 d0 3c 74 d9 3f 3e
       0.19637042 -0.021495147 0.025460865 0.18735296
000020 40 56 08 3e a6 31 2e 3c 89 b2 ee 3d 61 4d 94 be
       0.13314152 0.010631954 0.11655147 -0.28965285
000030 7b fb 16 3e 4f 2a bc 3d 33 96 a3 bc e6 6b ef bd
       0.1474437 0.09187757 -0.019969082 -0.11690502
000040 27 b9 88 bd c5 48 93 be f8 d9 9a be 87 bc 65 3c
       -0.0667594 -0.28766456 -0.30244422 0.014021999
000050 94 41 08 3e 6f 44 31 3e e1 6c 2f bd 53 b5 d0 3c
       0.13306266 0.17311262 -0.042828444 0.025477087
000060 4d df be 3b d7 e9 55 be ef 6e 4a 3d 72 49 a7 3e
       0.0058249594 -0.20889984 0.0494222 0.32673222
000070 90 74 14 3e 31 5f 87 be 30 ea a2 bd 5a 05 33 be
       0.1449759 -0.26439813 -0.07954824 -0.1748251
000080 5a 58 82 3e 69 b5 a0 bd d8 f9 46 bd 0c ac 41 be
       0.25458032 -0.07847101 -0.048578113 -0.18913287
000090 2e 9c 07 3d aa e5 dc 3d 19 8c 84 3d 3a 2f 64 bd
       0.03310793 0.107859924 0.06472034 -0.0557091
0000a0 67 70 a7 3c 72 26 29 3d 11 0e 24 3e 72 9c 2b 3e
       0.02043934 0.04129643 0.16020991 0.16758898
0000b0 93 2e 49 bd 2d 7c f9 bd 9e 3c 21 be cf 39 64 ba
       -0.049116682 -0.12181888 -0.1574578 -0.0008706124
0000c0 39 7a b3 bd 07 30 9e bd 85 4c b5 3e 06 8e a8 be
       -0.087635465 -0.07724004 0.35409942 -0.32920855
0000d0 5c 03 b6 3d 54 46 8e bd 38 08 05 bb d8 f6 09 be
       0.088873595 -0.06947008 -0.0020299088 -0.1347307
0000e0 d0 c1 85 be 95 f6 c2 3d c9 87 59 3e 28 41 56 3e
       -0.2612443 0.09519688 0.21243204 0.20923293
0000f0 5d 28 26 3d 80 48 cc bd 61 ab 51 3e c1 a9 0f bd
       0.040565837 -0.09974766 0.20475532 -0.035074
000100 29 a8 3f 3e 3b 74 a5 3e 92 71 3f be 77 8a 84 3d
       0.18716492 0.3231524 -0.18695667 0.064717226
000110 84 46 db bd 53 e1 d6 3d 95 9d 79 be 00 18 bd bc
       -0.10706809 0.10492196 -0.24376519 -0.023082733
000120 40 42 f9 bd bc ce 89 3d d1 3e 22 be 66 c4 8d 39
       -0.12170839 0.067288846 -0.15844275 0.00027039944
000130 81 86 c1 be 7f 3a 93 be ee f2 4d 3e 28 76 23 3e
       -0.3779793 -0.28755566 0.20112202 0.15963042
000140 a4 6c 8e be 6c 02 8c be 6c 82 55 be 8d 99 0a be
       -0.2781726 -0.27345598 -0.20850533 -0.13535137
000150 7c 8d 71 3c f4 53 b2 3d 26 9c 29 be de 89 91 be
       0.014743205 0.08707419 -0.16563472 -0.28425497
000160 9f 42 0c 3e ed 63 0d 3d 6e 50 7a 3e 25 3a 54 3e
       0.13697289 0.034519125 0.24444744 0.20725305
000170 4d 0c 5b 3e 9e 73 1c be 2b ad 05 3e ea 88 60 be
       0.21391411 -0.1527848 0.1305434 -0.21927229
000180 41 6c 20 be 8e 61 1b be 2c 60 55 3d e8 e7 bd bc
       -0.15666296 -0.15173933 0.05209367 -0.02318187
000190 42 42 c9 3c ae b3 43 be 4c 68 e2 3d ad 0b 63 3e
       0.024567727 -0.19111511 0.11055049 0.22172423
0001a0 48 12 2d 3e f9 f2 1b 3d 68 8e e2 3e bb 5d 65 3e
       0.16901505 0.038073514 0.44249272 0.22399037
0001b0 be c1 85 3e b5 19 75 3e 55 8d a0 bd 3e ef 88 be
       0.26124376 0.23935588 -0.07839457 -0.26745027
0001c0 93 d4 d9 bd ad 35 c8 3d 45 db 09 be 5f d7 0e 3e
       -0.106362484 0.09775863 -0.13462551 0.13949345
0001d0 bc 76 fb bc c8 72 d0 3d 9d ba 1f 3e 96 eb 19 be
       -0.030696265 0.10178143 0.15598531 -0.15031275
0001e0 56 ee e4 3d c6 fb 85 3d ac b2 d8 bd a4 10 aa 3e
       0.111782715 0.065421626 -0.10580954 0.3321582
0001f0 d1 0e bd bd d5 b1 d3 bd 28 f3 cf bd 52 a1 88 3d
       -0.09231342 -0.10336653 -0.101538 0.066713944
000200 b3 8d 4e 3d 7f 29 44 3d 68 b1 ae 3e 85 85 31 3e
       0.050428104 0.047891136 0.34119725 0.1733609
000210 82 f2 4c 3e 74 1d 55 3d 01 00 90 3e c2 10 cc 3d
       0.20014384 0.05203004 0.28125003 0.09964134
000220 45 a2 ee bc 02 4c bf be 08 2c 0f 3e 7d ec 39 3b
       -0.02913011 -0.37362677 0.1398164 0.0028369718
000230 05 01 50 3d 22 f2 c4 bd 97 a8 56 be f8 67 94 be
       0.050782222 -0.09616496 -0.2096275 -0.28985572
000240 1d 71 4c 3e aa 3e ec 3d 5a 52 8b 3e 21 dc 56 3e
       0.19965024 0.1153539 0.27211267 0.2098241
000250 8e 83 8d 3e 5f 8e 84 be 33 0e 8a be a0 2c 1f 3e
       0.2763943 -0.2588987 -0.26963958 0.15544367
000260 f2 a8 6c be 0b a1 82 bd 50 18 8e 3d 8d db 48 3e
       -0.23111323 -0.06378373 0.06938231 0.19615002
000270 2c 1f 0e be 17 df 92 3d 48 bc d3 3d a9 a2 33 be
       -0.13879079 0.07171457 0.10338646 -0.17542519
000280 54 43 42 be c1 70 58 be 53 95 e2 bc 3b 3d 0e be
       -0.18970996 -0.21136762 -0.027659094 -0.13890545
000290 2d 37 3d bd 58 57 05 3e f7 0a 8a 3d 0f 15 61 bd
       -0.046195198 0.130216 0.06740373 -0.054951724
0002a0 54 68 1a 3e 37 4c 1e 3e 13 2d 3e 3e 3b 48 15 be
       0.1507886 0.15458761 0.18571882 -0.14578335
0002b0 1a f0 09 3e 91 36 50 bc c4 bf a5 bd f0 3a 1d be
       0.13470498 -0.012708322 -0.08093217 -0.15354514
0002c0 bf a3 65 3e 01 fe 9a bd dc fe 87 be 87 e1 18 be
       0.22425745 -0.07567979 -0.2656163 -0.14929782
0002d0 bc f5 13 be f0 0e 82 3d da 40 86 3d 5b 84 4b bc
       -0.14449209 0.06350505 0.06555338 -0.012421693
0002e0 9e c5 b3 3c e8 bb 7c 3d a1 6e 90 bd e1 8a e4 bd
       0.021944817 0.06170264 -0.07052351 -0.111593015
0002f0 e9 78 59 3d 5a 06 6c bd 4c e1 68 39 04 91 62 3d
       0.053093825 -0.057623245 0.00022209174 0.05531408
000300 34 5b a9 bf d1 5c c6 bc b5 ac 26 be 79 b6 da 3d
       -1.3230958 -0.02421418 -0.1627682 0.10679335
000310 c3 e8 3a 3e 10 dd c7 bd 47 bf a7 3e e0 9d 69 bd
       0.18252854 -0.09758961 0.3276312 -0.057035327
000320 0d 21 88 bc 50 f1 a6 3d 85 e0 62 be e4 1b ae 3d
       -0.016617322 0.081514955 -0.2215596 0.085014135
000330 27 a9 e3 be 40 1a 1d be 6d cd 2f be 90 44 79 3e
       -0.4446499 -0.15342045 -0.17168207 0.24342561
000340 2b ab 88 3e 9c ac b4 3d 8c bc 2d bd 71 31 96 3e
       0.2669309 0.08821985 -0.04241614 0.29334596
000350 96 19 78 3d a5 cd e1 3d 19 6e 06 3e b8 d2 91 3d
       0.060571276 0.11025552 0.13127936 0.071202695
000360 be 1b 8a 3d 49 b3 be 3e b3 18 6b bd e6 c4 3d 3d
       0.06743573 0.3724616 -0.057396602 0.046330355
000370 14 39 5f be 5c 9f 2a 3f 4e 1b 0d 3e 0e a2 88 3e
       -0.21799117 0.66649413 0.13779947 0.26686138
000380 f3 c5 1c 3e 3d a3 50 3e 9a 54 37 be a3 5b 17 be
       0.15309887 0.2037477 -0.17903367 -0.1478105
000390 57 28 1a be 1e 39 52 bd 08 65 67 3e 71 e5 22 bc
       -0.15054451 -0.051324002 0.22597134 -0.009942398
0003a0 c4 c2 cf 3c 46 0b 1f 3e bc f3 d7 3c b3 35 da bd
       0.025361426 0.15531644 0.026361339 -0.106547736
0003b0 0b 40 31 3e 03 3f 67 3e 8c eb 9e 3d 96 e4 3b be
       0.17309587 0.22582631 0.07759771 -0.18348917
0003c0 43 3c 81 bd 48 c8 f8 bd 55 55 a1 3d 53 68 02 be
       -0.06310322 -0.121475756 0.07877604 -0.12735109
0003d0 75 3a 87 be 34 95 d5 3d b2 e4 09 3e 33 86 54 be
       -0.26411787 0.10428849 0.13466147 -0.20754318
0003e0 f2 ff 60 3e 2e ed 45 bc 57 24 83 be 25 93 33 3d
       0.21972635 -0.012080474 -0.25613663 0.0438415
0003f0 63 77 af 3d 1e c5 93 bd 16 d7 88 3e 39 19 69 be
       0.08567693 -0.072153315 0.26726598 -0.22763528

encoder.enc2.bias f4 [39]
000000 ca 30 f7 3c bd 36 cf 3c 99 00 de 3c 8f 1b 61 bd
       0.030174632 0.025294656 0.027099894 -0.054957923
000010 44 e2 8f 3b f7 be c9 3d d7 48 17 3c 83 39 01 bb
       0.0043909866 0.09850877 0.009233675 -0.0019718118
000020 d6 cf 1f 3d 0b 96 a9 3c 33 30 01 3d 68 82 bb 3d
       0.039016567 0.020701429 0.031540107 0.091557324
000030 c4 b4 9f 3d 0b 71 95 3d 6b d5 80 3c 01 b0 32 bc
       0.0779815 0.07296952 0.015726766 -0.01090622
000040 cf 12 a4 3d ba 65 e4 bb ec e0 8d 3c 03 60 1d 3c
       0.080114 -0.0069701346 0.017319165 0.0096054105
000050 d1 f1 8d bb a8 47 c7 3c c1 a8 be 3b ce a0 61 bd
       -0.0043318053 0.02432616 0.005818457 -0.055084996
000060 26 72 8f 3c 8c 87 45 bc 66 02 a0 3c 2e 46 43 bc
       0.017510485 -0.012056243 0.019532394 -0.011918588
000070 a1 4b 24 bd 5c b1 17 3d 8f 3b dd b9 f0 bd 8e bc
       -0.040111188 0.037034377 -0.0004219678 -0.017424554
000080 97 d8 7e bd 6e c5 4d 3b 4a bb 91 bb 10 b4 b7 3c
       -0.062218275 0.0031398195 -0.0044473754 0.022424728
000090 30 21 45 bc 24 b4 11 3d a1 a7 3a 3d
       -0.012031838 0.035572186 0.04557002

encoder.enc3.weight f4 [19, 39]
000000 4f 6c 12 3e 7f a7 84 be 58 c6 58 be 04 a2 98 3e
       0.14299129 -0.2590904 -0.21169412 0.29811108
000010 02 05 d3 3d 0a 83 bc bd a7 03 8d 3e 8d b3 c3 bd
       0.103036895 -0.09204681 0.2754185 -0.09555731
000020 4e 60 26 3d de 1b 94 bd 13 67 8c bd 95 73 17 bd
       0.040619187 -0.07231878 -0.06855597 -0.036975462
000030 c0 5e a2 bd c6 d5 62 3d 8e 9c 89 bd b5 38 ea 3b
       -0.079282284 0.05537965 -0.067193136 0.0071478733
000040 12 ba 9c 3d 16 6a 1c 3e cc 86 8d 3e f3 fd dd bd
       0.076526776 0.15274844 0.27641904 -0.108394526
000050 04 9d a6 3e 82 9d 1d 3e c5 8d f2 bb 78 14 0f 3d
       0.32541668 0.15392116 -0.007402154 0.03493163
000060 ef af eb bd 48 78 b0 3d 1a 80 a8 be 6f 52 7e 3e
       -0.11508166 0.08616692 -0.32910234 0.24836133
000070 b4 0a 6f be 69 b8 75 bd 20 d2 58 3e 47 b4 4d 3e
       -0.23343927 -0.05999032 0.21173906 0.20088302
000080 3d d1 12 3e d1 6c ac ba ab db 6b 3e 66 c4 19 be
       0.1433763 -0.0013154988 0.23033015 -0.15016326
000090 9d 67 07 3c 22 25 ac bd 37 2f c0 bc b0 97 2e 3e
       0.008264449 -0.0840552 -0.023460014 0.17050052
0000a0 22 19 62 bd 78 de 1a be a8 c5 75 3d d1 af 72 be
       -0.05519975 -0.15123928 0.060002953 -0.23699881
0000b0 93 22 80 3d 5a af 85 3e de 0c 85 bd 25 45 dc 3d
       0.062565945 0.26110345 -0.06496595 0.10755376
0000c0 83 a4 88 3e 2e 71 a2 3d 41 fe 5c be da b2 38 3d
       0.26688012 0.079317436 -0.21581365 0.04509244
0000d0 b8 75 f8 3d 87 d2 0f 3e fd 8c 35 bd 69 1f a6 bd
       0.12131828 0.14045154 -0.04432391 -0.0811146
0000e0 e3 a8 a4 3e 16 15 f4 bd 8c fc 24 be 18 76 0d 3e
       0.321601 -0.11918084 -0.16111964 0.1381458
0000f0 db b6 83 3e bf 5f e5 3c 8f c2 a6 be 5f 52 30 be
       0.25725445 0.027999757 -0.3257031 -0.17218922
000100 59 d3 92 be f4 f9 f7 3d 9e d9 2f bd c0 46 ef bd
       -0.2867687 0.12108222 -0.042932145 -0.11683416
000110 65 d9 9c be 7e 4a dd bc e3 1e 0e 3e 62 38 f4 bc
       -0.3063461 -0.02701306 0.1387897 -0.029812042
000120 2f d1 68 be 2e 81 a2 3d 8a 77 4e 3d 23 de 06 be
       -0.22736047 0.07934795 0.05040697 -0.13170676
000130 bf 13 36 be 5b e7 fd bd 78 ba 50 3d a7 e7 50 3d
       -0.1778097 -0.12397643 0.05095908 0.05100217
000140 af ce fd 3d 78 40 cf be 5f e3 45 be 2d c8 af be
       0.123929374 -0.40478873 -0.19325016 -0.3433241
000150 cf ce 5a be 58 2b d5 be 18 7e 92 3e 71 e0 2b 3e
       -0.21367954 -0.4163463 0.28611827 0.16784836
000160 5b 64 92 3d 14 46 5c be 3d 24 31 be 38 d5 68 3e
       0.071480475 -0.21511108 -0.1729898 0.22737586
000170 0d ab e0 3d 24 03 7e 3e 99 75 fa 3d d2 f6 21 be
       0.10970125 0.24805886 0.12229461 -0.1581681
000180 f3 c6 b0 3e 50 e6 df bd 7d 8c 0b bb 9d 2f e2 bd
       0.34526786 -0.109326005 -0.0021293454 -0.11044238
000190 2f d2 0f be 99 a7 8f 3e fb 1c da bd 89 70 51 bd
       -0.14045022 0.28057554 -0.10650059 -0.051132713
0001a0 2c d0 34 3e 42 df 69 be b3 7d 00 bf 00 72 d6 be
       0.17657536 -0.22839072 -0.501918 -0.4188385
0001b0 c3 54 8d 3e 44 ac 11 bd ce 3e 38 be 28 e7 a3 be
       0.2760373 -0.035564676 -0.17992708 -0.32012296
0001c0 df 91 eb be 2d 7a 60 bd 26 fb 86 3d 60 1c 8f 3d
       -0.46009728 -0.054804016 0.065908715 0.06987834
0001d0 39 24 80 be b2 fe ce be 58 7f 8f be 57 1d 93 be
       -0.25027636 -0.40428692 -0.28026843 -0.28733322
0001e0 b2 57 5b be a6 d9 48 be a6 be 5b 3d b2 82 94 3e
       -0.21420172 -0.19614276 0.053648613 0.29005963
0001f0 31 4b fe 3d 87 61 31 be 60 b1 9a 3e fb ea 26 be
       0.124166854 -0.1732236 0.3021345 -0.16300575
000200 ba ef 32 3e 6e 7e 85 be 9a fa 16 3e aa 4d 87 be
       0.17474261 -0.2607302 0.14744034 -0.2642644
000210 b5 db 95 be 9e ce 0a be d0 a7 a4 3e 80 18 99 bd
       -0.29269186 -0.1355538 0.3215928 -0.07475376
000220 1b ce 1c be ad 9b b4 bc cd 8c bc 3d 7b 94 73 3c
       -0.15312998 -0.022046888 0.09206543 0.0148669435
000230 49 1e 95 3d 18 45 b2 3e a1 0f a8 bd 98 20 b8 3d
       0.07281167 0.3481834 -0.08206106 0.08990592
000240 7f ab 2e be d8 53 b6 be 14 d8 43 be 14 ae 35 3e
       -0.17057608 -0.35610843 -0.19125396 0.17742187
000250 88 e8 8b 3d 36 5a 19 be 36 05 22 3c 44 86 99 be
       0.06831461 -0.14975819 0.009888938 -0.2998525
000260 d2 26 74 3d 48 0c 5f 3e 3f 6c fc bd f0 12 16 3e
       0.059607334 0.21782029 -0.12325334 0.14655662
000270 74 b5 76 bc c6 a6 d7 bd f5 13 cc 3d 0f b3 68 3d
       -0.01505791 -0.105298564 0.09964744 0.05681139
000280 31 d9 42 3e 39 d9 79 bd 08 e2 5a 3e d0 92 25 bc
       0.19028164 -0.060998175 0.21375287 -0.010105804
000290 2e fa 92 3d a6 a8 61 3e 02 2e 98 bd 0b ce 03 3e
       0.07176624 0.2203699 -0.0743065 0.12871568
0002a0 2d 1d 15 be ed 2f 89 3c 15 ca 80 be b6 a8 7b 3e
       -0.14561911 0.016746486 -0.25154176 0.24576077
0002b0 d8 31 cb bd fd f5 7c 3e 23 43 49 3e 30 f7 84 bc
       -0.09921616 0.24703212 0.19654517 -0.01623115
0002c0 2a 3c 38 3e b2 5d af be 03 94 ed 3d e2 63 a1 3e
       0.17991701 -0.3425117 0.116004966 0.31521517
0002d0 af 3c 96 be 30 4b 5b 3e dd b4 ff 3d ab d3 46 3e
       -0.29343173 0.214154 0.12485669 0.19416682
0002e0 7f 3d f8 3d cf b9 56 3e 20 e1 d1 3d 5d 71 06 3e
       0.121211044 0.20969318 0.10248017 0.13129182
0002f0 80 9d 9e 3e 08 d1 5b be 41 91 ab 3d dd c4 1d 3e
       0.30979538 -0.21466458 0.08377314 0.15407129
000300 4f 0b 7e 3d 45 dd 22 3e de 61 65 3e 53 b9 9f be
       0.062022503 0.1590472 0.22400615 -0.3119608
000310 ea 13 1e bc c5 74 2a 3d 40 fd fb 3d 16 fb 94 3e
       -0.009648303 0.041615266 0.12304163 0.29097813
000320 e9 a8 c7 3d 19 bb 89 3e 5d 74 88 3d a2 2e bd 3e
       0.09749014 0.26900557 0.066628195 0.3694964
000330 40 89 0b bd a3 c4 84 3e f4 35 f9 3d cc 2d aa be
       -0.03406644 0.25931272 0.12168494 -0.33238065
000340 a1 ae a9 be f4 be 0f 3e f2 52 83 bd b3 4d 9a 3d
       -0.33141044 0.14037687 -0.06412305 0.07534351
000350 e9 5b 0f be 07 45 9a 3d f5 89 de bd f5 f9 f7 3d
       -0.13999905 0.07532697 -0.10866157 0.121082224
000360 b6 a1 f2 bd 03 85 7a 3d 67 23 0d be 43 9f 0b 3d
       -0.1184725 0.061162006 -0.13783036 0.03408743
000370 c2 c2 b8 3e 22 4a 32 3e bf 71 c9 be c2 d0 be be
       0.36086088 0.17411092 -0.39344594 -0.37268645
000380 d1 9c ac bd 03 86 b1 3d 52 c1 a5 be aa c0 a7 be
       -0.08428348 0.08668139 -0.32374054 -0.3276418
000390 a1 de 2a be 2e d1 4a 3e 21 00 8a 3e 9e c2 62 3d
       -0.16686489 0.19806358 0.26953223 0.055361383
0003a0 0f e6 34 be fa 59 14 3e ff 81 65 3d 9a 2b 14 bd
       -0.17665885 0.14487448 0.056032177 -0.036174394
0003b0 8e 50 53 3d f5 7d 57 be 2f 98 92 3e 63 20 3e bd
       0.051590495 -0.21044143 0.28631732 -0.046417605
0003c0 8a a7 f9 bd 43 67 41 be 46 06 84 3d 20 22 73 3d
       -0.12190159 -0.18887047 0.06446509 0.059358716
0003d0 d1 7c 7d bd 32 80 90 3e cd 13 6b be 97 c5 81 be
       -0.061886612 0.28222805 -0.22956772 -0.25346062
0003e0 63 c3 11 3e 7e 3a 95 be fc b9 c6 3d 17 4f df bd
       0.1423469 -0.29146188 0.097034425 -0.10903757
0003f0 58 5b 62 3d da e9 6b 3e 2a 6a d3 bd 1b 48 6f be
       0.055262893 0.23038426 -0.103229836 -0.2336735

encoder.enc3.bias f4 [19]
000000 88 ed ad 3a 65 c8 5c 3c a1 a6 dd bb 17 6a ad ba
       0.0013269642 0.013475512 -0.0067642485 -0.001323047
000010 5d 25 bc b9 76 e1 bd bc 2c a0 bb 3a 0f ce b9 3c
       -0.00035885992 -0.023178797 0.0014314703 0.022681264
000020 19 5b 0e bc 71 e0 0e bc db c6 4a 3c ff d6 03 bc
       -0.008688712 -0.008720503 0.012376512 -0.0080468645
000030 98 aa 88 bc c5 b3 0a 3e ee 9b 7c bc 1a cc 6b 3e
       -0.016682908 0.13545139 -0.015418036 0.23027077
000040 d7 1a bd 3c c4 1a bd 3c 92 7e 05 3e
       0.023084087 0.023084052 0.13036564

encoder.enc4.weight f4 [7, 19]
000000 66 ff fb be d0 c8 84 3d a1 35 65 bd 88 8f cc be
       -0.4921829 0.064836144 -0.055959348 -0.39953256
000010 c1 15 e9 3e 08 7a 01 bf 19 0e 99 be c9 fc cc 3c
       0.4552441 -0.5057683 -0.29893568 0.025022881
000020 5b db ae be 46 49 e4 3d 9d 4a 02 bf 67 2c a5 3e
       -0.3415173 0.11146788 -0.508951 0.3226044
000030 e7 df 70 3e e7 ca 6f be b8 60 eb 3e 15 f2 e7 be
       0.23522912 -0.23417245 0.45972228 -0.4530188
000040 b9 68 e1 be 46 8f 34 be 5d 78 2e 3f db 8e 44 3d
       -0.4402521 -0.1763278 0.6815241 0.0479878
000050 d0 f7 e3 3e ef 8d 8e be b4 7a 0a 3f 25 3f 86 be
       0.44525003 -0.27842662 0.5409348 -0.2622005
000060 9a ce 9b 3e a3 34 59 3d 86 a3 b7 be 34 5a 06 be
       0.30431062 0.053028714 -0.35866946 -0.13120347
000070 d4 29 e9 be ce 99 01 3f 0f 8f 9a be f4 5d 66 3b
       -0.45539725 0.5062531 -0.3018727 0.0035151215
000080 9f 9d 5e be ad 1d c0 3d cc 4c 4d be df 97 0b be
       -0.21739815 0.0938066 -0.20048827 -0.13632153
000090 93 87 91 3d 6f 24 66 3e 90 69 88 be 78 58 e4 bd
       0.07105937 0.22474836 -0.26643038 -0.111496866
0000a0 94 3a 81 3d b5 83 fb 3e a4 6d 12 3e 68 f1 99 3e
       0.06310001 0.49123922 0.14299637 0.3006699
0000b0 af 4c 96 be e6 e4 df bd a4 af 21 bd 03 15 a5 3e
       -0.2935538 -0.10932331 -0.039474145 0.32242593
0000c0 f8 cb 50 be 10 5e b9 be 37 fa ea bc 97 18 2e 3e
       -0.20390308 -0.36204576 -0.028683765 0.17001568
0000d0 d6 db 83 3e f4 a1 02 bd 6e 38 85 3e 9e 28 1f 3e
       0.2575366 -0.03189273 0.26019615 0.15542838
0000e0 cb cc c8 be a7 7d 29 bd 8d 84 a1 3e 33 ad 97 be
       -0.39218745 -0.041379597 0.3154644 -0.29624328
0000f0 ff 46 f4 bd cc 72 ad be b0 c0 b9 be 8f 8d b4 be
       -0.11927604 -0.33876646 -0.3627982 -0.3526425
000100 f0 4f bf 3e 47 39 c0 bd d3 72 34 bd 6a 88 ea be
       0.37365675 -0.09385925 -0.044054817 -0.458072
000110 d6 17 8c 3e 88 8f d7 bc 29 c8 93 bd e9 13 08 3d
       0.27361935 -0.026313558 -0.07215912 0.033222113
000120 20 01 c5 be dd d7 f8 be 1e 98 70 3d 45 e9 0f 3e
       -0.3847742 -0.4860219 0.05873882 0.14053829
000130 d1 71 03 3e d8 2b d5 3d 2b 53 a4 3d 5b 4d 05 bf
       0.12836386 0.10408753 0.080236755 -0.5207116
000140 bf 7c b4 3c a4 c5 fe be 88 f2 cf 3e e4 d7 3b 3e
       0.02203214 -0.49760163 0.40614724 0.18344074
000150 b4 6e d1 3d 11 0d 87 bd e7 bd 31 3d 85 b4 c7 3e
       0.10226193 -0.06594289 0.043393996 0.39004913
000160 be 20 b5 3e ff 02 eb 3e fe ad 59 bd fd 05 3b 3f
       0.35376543 0.45900723 -0.053144448 0.7305601
000170 7d b0 06 3f ae 5e 00 3f f0 d4 d1 be 5c 13 d5 be
       0.5261305 0.5014447 -0.4098277 -0.41616333
000180 1c d1 4e 3e c5 20 a4 3e c4 4e 08 3f 8f 86 9a 3e
       0.20196956 0.3205625 0.53245187 0.30180785
000190 be a8 fb 3e 4c 45 83 be 3a b0 a9 3e 1c 5e aa be
       0.49152178 -0.25638807 0.33142263 -0.33274925
0001a0 ff 18 d7 3e 66 a4 0b 3e e2 5c 1b be cb a7 9a 3e
       0.42011258 0.13636932 -0.1517215 0.3020614
0001b0 fe 95 c9 3e 5f f1 91 3b 47 80 22 3e 1e 15 5e 3e
       0.39372247 0.0044538225 0.15869246 0.21687743
0001c0 f4 fb df 3e 34 c0 28 bf 61 59 e7 3d 3f 58 a4 3e
       0.43746912 -0.6591828 0.112963445 0.32098576
0001d0 02 c9 00 3e 69 c4 58 bc 1f a2 ce bd 61 73 dd be
       0.12576678 -0.013230422 -0.10089516 -0.4325209
0001e0 78 3b 51 be e5 a9 f4 3e 64 35 74 3d d6 7b d4 be
       -0.20432842 0.4778587 0.05962123 -0.4150073
0001f0 d7 70 86 be ce 1e 0b 3f d8 1c 2d 3e 73 da 29 3f
       -0.26257965 0.5434388 0.16905534 0.6634895
000200 e8 d1 d2 bc 07 b2 26 3e 6f ce de bd ec bb 5a 3e
       -0.025734857 0.1627885 -0.10879218 0.21360749
000210 90 cd e9 bd
       -0.11416161

encoder.enc4.bias f4 [7]
000000 e7 2c c1 bb 57 01 f7 3b d1 61 2f bb 55 ca c0 b9
       -0.0058952454 0.0075380015 -0.0026761184 -0.00036771843
000010 42 56 54 bc f9 af 4a 3b 58 2f a0 bc
       -0.012960019 0.0030927642 -0.019553825

decoder.dec1.weight f4 [19, 7]
000000 62 d7 21 3f 17 6f fb be 70 1c 9a be 30 fc 39 3f
       0.63219273 -0.49108192 -0.3009982 0.7265043
000010 e9 93 51 bf fd d7 4b bd e7 d8 23 3f 48 43 b2 3d
       -0.8186632 -0.04976653 0.6400284 0.08704239
000020 95 f6 10 3f 7f 43 80 bf 92 19 03 3f 5c e3 4a 3e
       0.56626254 -1.0020598 0.5121089 0.19813293
000030 66 81 ec 3e fd 1f b9 3e 7b ef df be ca 6a 30 bf
       0.46192473 0.36157218 -0.43737397 -0.6891295
000040 6c 53 5a 3f f6 06 84 3d ee b5 85 3e 74 0c f7 be
       0.8528354 0.0644664 0.26115364 -0.48251688
000050 93 09 6d bf 7e fc 10 be 13 22 64 bf f8 97 9a 3f
       -0.92592734 -0.14158818 -0.89114493 1.2077627
000060 85 8d a3 be 52 07 25 bf cf eb fa 3e a5 7d b2 3e
       -0.31943908 -0.64464295 0.49008033 0.34861484
000070 c8 b1 5b 3f e8 bf 6c 3f e6 22 1c bf 75 4a 19 be
       0.8581815 0.92480326 -0.6099075 -0.1496981
000080 4f 96 39 3f 83 4c 40 3f cc 97 8d 3c 31 b4 89 be
       0.7249498 0.7511675 0.017284296 -0.26895288
000090 84 4d 77 be aa 03 fd be 8a b4 0d bf 0c 87 53 bf
       -0.24150664 -0.49416858 -0.55353606 -0.8262794
0000a0 99 00 ec 3e c9 ef cb 3e b0 b1 64 bf dd 21 50 bf
       0.46094206 0.3983138 -0.8933363 -0.8130167
0000b0 98 b1 88 bf 03 92 01 bf 00 76 f6 be de ad d0 be
       -1.0679197 -0.5061342 -0.48136902 -0.4075765
0000c0 ea cf 9e be 9b 4f 5b 3f fb 3b 21 bf fa 64 0d be
       -0.31018 0.85668343 -0.6298215 -0.13808051
0000d0 37 80 66 bf 27 92 6d bd 61 9c 91 3a 93 0f 06 3f
       -0.9003939 -0.05800071 0.0011109227 0.52367514
0000e0 0d 26 17 bf 3b ed 51 3f bd ff 06 3f 5d cb 8c bd
       -0.59042436 0.8200261 0.52733976 -0.06874726
0000f0 a5 73 d9 be 6f 2a c5 be db 28 6e 3f cc 22 ec 3e
       -0.42471042 -0.38508937 0.9303109 0.46120298
000100 15 93 f6 3e 0f 77 5f 3f f9 1d 48 bc 16 ae b7 bd
       0.4815909 0.87291044 -0.012214177 -0.08968751
000110 fd 17 56 3f c9 91 95 be 83 41 3e 3f 66 08 15 bf
       0.83630353 -0.29212788 0.7431871 -0.5821594
000120 2d 93 0d bf e4 4e 75 3f 62 12 1d bf 61 68 d9 be
       -0.553027 0.958235 -0.61356175 -0.42462447
000130 cd bf ad 3e e5 a7 8f 3e 1d 55 21 bf 0e ce 35 3f
       0.33935395 0.2805778 -0.630205 0.7101754
000140 32 c5 92 3d 88 b5 ff be 38 f6 19 be 10 ce 71 3f
       0.07166518 -0.49943185 -0.15035331 0.9445505
000150 95 22 60 bd d5 82 91 3f 46 8a d6 3e 65 6b 72 be
       -0.05472048 1.1368052 0.4190237 -0.2367378
000160 c9 84 a2 3e f1 00 77 bb b4 6b cb be d9 c0 40 3f
       0.31741932 -0.003768977 -0.39730608 0.7529426
000170 2d 38 1d 3f fd ef 27 3f c2 38 65 3d 12 c7 dc 3d
       0.6141384 0.6560057 0.05596233 0.10780157
000180 01 f1 a9 3d 52 d9 59 bd 06 cd 22 bf c5 9c 2b 3d
       0.08297921 -0.05318577 -0.6359409 0.041897554
000190 98 8b 2f 3f 40 9c f0 3e d7 d8 64 be b7 83 40 bf
       0.6857238 0.4699421 -0.22348343 -0.7520098
0001a0 12 16 06 3f e8 a6 34 3f 1e 67 31 be 3b ae 52 bd
       0.52377427 0.7056718 -0.17324492 -0.05143569
0001b0 95 46 61 3f 8c 35 4f bf a5 f4 2e 3f eb bb a1 3e
       0.87998325 -0.8094108 0.6834205 0.31588683
0001c0 40 54 06 3e 54 16 21 3f 77 eb 0a 3f b8 ba e1 be
       0.13118076 0.62924695 0.5426554 -0.44087768
0001d0 18 81 ed 3d 25 c5 31 bf 1e 38 5f 3f 9c 3e 3b 3f
       0.11596888 -0.69441444 0.87195003 0.7314241
0001e0 63 7d 65 3e f5 b0 18 3f c1 9b 50 bf 76 ce 25 3d
       0.22411112 0.59645015 -0.8148766 0.0404801
0001f0 91 a9 6a 3f 64 c8 21 bf fd ae 3b bf e9 81 16 bf
       0.9166499 -0.63196397 -0.73313886 -0.5879198
000200 d4 77 2b bf 1d ae 44 3f f5 06 cb 3d 5d 6e 97 3e
       -0.6697972 0.76828176 0.09913436 0.29576388
000210 92 5e 7e bf
       -0.9936305

decoder.dec1.bias f4 [19]
000000 75 8d 15 be 76 1a 43 bd 07 1a 57 bd 3b 94 1d be
       -0.14604743 -0.047632657 -0.052515056 -0.15388577
000010 3b e2 fa bc 85 09 10 3c 53 f3 08 ba 5f a5 32 bd
       -0.030625453 0.008791332 -0.00052242464 -0.04361474
000020 7c 87 da bc 65 c7 41 bc c6 f7 4b be 06 e4 1a 3e
       -0.026675932 -0.0118273245 -0.19918737 0.15126047
000030 82 20 f8 3b 4f 10 3d be 5a e0 d2 3d 85 f9 9e bb
       0.0075722346 -0.18463252 0.10296698 -0.0048515224
000040 6c d1 48 bd 17 0d 50 bc fc 14 55 bd
       -0.049027845 -0.012698433 -0.052021965

decoder.dec2.weight f4 [39, 19]
000000 2c 19 b7 bd f0 86 96 3e 0a 56 4d 3e a4 68 89 3f
       -0.08940348 0.29399824 0.20052353 1.0735059
000010 3a 48 b8 3e b1 0b ec 3d 5c 75 74 3d ac de 5f 3e
       0.35992604 0.115256675 0.059682235 0.21862286
000020 b2 a4 c6 be 33 84 01 bf ea 3b 11 3f 83 98 cc bf
       -0.38797528 -0.50592345 0.56732047 -1.5984043
000030 de 25 39 bf a4 7e 02 3f 2a c8 37 bd 80 4b d1 3d
       -0.72323406 0.5097449 -0.044868626 0.102194786
000040 b1 60 2f 3e 8a 38 8b 3e a6 f0 65 3e d9 11 f8 be
       0.17126729 0.27191573 0.22455081 -0.48451117
000050 3f 9a 50 be a8 15 91 3f 33 88 50 3e 6e 0f 3e 3e
       -0.2037134 1.1334734 0.20364456 0.18560573
000060 28 20 40 3e 64 5b 9c be 79 0e 58 bf 99 a7 e9 3e
       0.18762267 -0.30538476 -0.84397084 0.4563568
000070 f6 d3 2e 3b 77 01 69 be b4 78 8d bf 0d fb 86 3d
       0.0026676632 -0.22754465 -1.1052461 0.06590853
000080 c0 13 e9 3e af 52 dc 3e c0 8e ec 3e 68 7b 33 3e
       0.4552288 0.43031833 0.4620266 0.17527544
000090 fc a1 a3 3e 8d 38 4b 3e cc f1 64 3e c2 a7 a7 be
       0.31959522 0.19845791 0.22357863 -0.32745177
0000a0 f0 29 1f 3f e3 b1 30 3f f2 cc eb bd fa ee d0 be
       0.62173367 0.69021434 -0.115136996 -0.40807325
0000b0 c4 b3 9c be 18 18 35 be 07 61 19 bf a2 67 44 be
       -0.306059 -0.17684972 -0.59913677 -0.19180158
0000c0 fd 4a ff bd 83 26 3a 3f ac af 1b bf b3 a9 cb 3e
       -0.12465475 0.72715014 -0.6081493 0.39777908
0000d0 c7 5b 6e be 40 99 aa be b1 d6 d7 be 99 a8 02 bf
       -0.23277198 -0.33320045 -0.42155984 -0.5103851
0000e0 01 d4 15 be db 5e 57 be 85 a5 39 be 63 72 74 3f
       -0.14631654 -0.21032278 -0.18129547 0.9548704
0000f0 43 2e 1b bf 53 8b 0a 3f e6 20 02 bf 6d bc 11 3f
       -0.60617465 0.5411884 -0.5083145 0.5692814
000100 7e 10 e3 bd 56 b5 10 bf 52 4f fd 3e f0 9a 4e 3e
       -0.1108713 -0.56526697 0.4947458 0.20176291
000110 1e 51 1f bf 92 38 22 bf 64 64 b1 be 95 de aa be
       -0.6223315 -0.6336757 -0.34646904 -0.33372942
000120 67 97 ad bd de 56 f0 be 77 84 3d bf 95 a9 f7 3e
       -0.08476143 -0.46941274 -0.7403025 0.48371568
000130 16 e5 e5 be 3d 8a 30 3f a9 02 f0 be 0d a7 ed 3e
       -0.4490134 0.68960935 -0.4687703 0.46416512
000140 5f d1 9f 3e 04 44 d9 be 38 23 7e 3e f7 11 89 be
       0.31214425 -0.42434704 0.24818122 -0.2677152
000150 15 a2 e8 be 6b 80 b0 3e bc cf 33 be 31 9e 66 3d
       -0.4543616 0.34472975 -0.17559713 0.056303207
000160 8f 11 ef be 69 65 08 bf 72 f5 e5 bd fd 98 e3 be
       -0.46693084 -0.5327974 -0.112284556 -0.44452658
000170 26 46 2d bd 2c da 86 bd 50 90 a6 be a1 85 7e be
       -0.042303227 -0.06584582 -0.32531977 -0.24855663
000180 59 a2 24 3f a4 56 8d bf c0 62 99 3d 50 21 72 be
       0.6431022 -1.1042066 0.07489538 -0.2364552
000190 2d 4a d9 be 1f 2d 1a 3f ef 96 31 bd b0 35 54 bd
       -0.42439404 0.602251 -0.043356832 -0.051809013
0001a0 03 98 e8 3e e2 48 b1 bb b0 ba 56 bf b0 53 c6 bd
       0.45428476 -0.0054102996 -0.8387861 -0.09683931
0001b0 b9 d1 3f be 60 fb 1e 3e f9 5c 81 3e 02 6a d4 3e
       -0.18732347 0.1552558 0.25266245 0.41487128
0001c0 e5 09 05 bf 34 bf 73 3d fd 63 94 be 67 9f 55 bf
       -0.5196822 0.059508517 -0.28982535 -0.83446354
0001d0 8b 72 b1 bd 2a 51 e4 bd b3 de 67 be 6b 86 0e 3f
       -0.086644255 -0.11148293 -0.22643547 0.55673856
0001e0 91 4e b5 3e 97 4e 1d 3f 3c bb 81 bf 88 a0 0a bf
       0.35411504 0.61448044 -1.0135264 -0.541512
0001f0 53 21 8e 3e d6 86 34 3e 29 23 86 bf 86 a0 5b be
       0.277598 0.17629561 -1.047948 -0.21447954
000200 c1 fb a3 3d d7 a5 8d 3e e4 b7 9c be 55 4f 24 3f
       0.080070026 0.27665588 -0.30609047 0.6418355
000210 d9 e9 be be c1 e3 10 3f a4 d6 fd be 3a 38 de be
       -0.37287787 0.56597525 -0.4957782 -0.43402272
000220 67 a1 b8 be 36 19 8a bd db e8 d0 bb 1e 92 93 be
       -0.3606064 -0.0674309 -0.006375415 -0.28822416
000230 41 f2 2c 3e e1 7e 67 be bb ab 75 3e 9b b3 1d 3f
       0.16889288 -0.22606994 0.23991291 0.6160218
000240 ba 72 ab be 32 0d 7a be 82 3b 4a be cc 41 73 be
       -0.33485967 -0.24419096 -0.19749263 -0.23755568
000250 19 b4 f4 3e da 92 03 3f 6b 7f 2e be 35 8f b3 be
       0.47793654 0.5139595 -0.17040794 -0.35070196
000260 57 f1 d5 be dd 5a 19 3f 96 39 bf be da 8b bd 3d
       -0.4178569 0.5990427 -0.37348622 0.0925519
000270 a0 62 03 be 88 54 1e bc 67 1c 12 3e db 0c c4 be
       -0.12830591 -0.0096637085 0.14268647 -0.38291058
000280 7c 8f 7c 3f 10 7e a5 3d bd 4e e7 be 27 2a eb be
       0.9865644 0.08080685 -0.4517726 -0.45930597
000290 ad 20 12 be 42 30 10 bf ba ad ce bd 38 f0 90 3e
       -0.14270277 -0.56323636 -0.100917295 0.28308272
0002a0 48 1b 32 3f 35 52 a8 be b0 46 3c 3e ac b6 04 3e
       0.6957288 -0.3287522 0.1838634 0.12960309
0002b0 76 34 c7 be 4f cb 69 3d d7 6e 62 3e 0e 92 6e 3e
       -0.38907212 0.057078656 0.22112595 0.23297903
0002c0 b0 de 39 3f b3 e2 a4 3e a4 2a 98 be 04 b0 b7 be
       0.7260542 0.32204208 -0.29720032 -0.35876477
0002d0 c0 6d ab be a1 55 48 bf db cd d6 3d 8d 86 81 3f
       -0.3348217 -0.7825566 0.104884826 1.0119187
0002e0 a8 a4 8e 3e 73 12 22 bf f1 31 d8 3e 71 74 3a bf
       0.27859998 -0.633094 0.42225602 -0.72833925
0002f0 62 b4 47 3f 49 b8 19 be 97 54 84 3d 57 de c1 3e
       0.7800962 -0.15011705 0.06461447 0.37864944
000300 62 54 b8 3e 64 4b e6 3d 2f fa 99 3e 50 2e 5e 3f
       0.3600188 0.11244848 0.30073687 0.8678942
000310 19 a4 56 be fe 05 23 bf a2 eb 94 3f 63 0b d2 be
       -0.20961036 -0.6368102 1.163441 -0.41024312
000320 62 67 cc bd c1 2f 23 bf 50 4c 26 be 16 94 44 be
       -0.09980656 -0.6374474 -0.16240048 -0.19197115
000330 d8 b1 cf be 25 f9 a2 3e 96 79 fa 3e 52 58 a5 3d
       -0.40565372 0.31830707 0.48920888 0.080734864
000340 50 8e 7c 3f 08 34 32 3e 2e a5 2a be 68 b9 01 3f
       0.9865465 0.17402661 -0.16664574 0.5067353
000350 58 96 da 3d 45 d5 89 3e 9b 26 88 3e aa a8 ae be
       0.10673207 0.26920524 0.26591954 -0.34113055
000360 d8 f8 d1 3e 6e bd b4 3e 50 27 3f be fe a0 c6 be
       0.41010165 0.35300773 -0.1866734 -0.38794702
000370 a8 95 c4 be b6 df 28 3e ad 23 00 3e 5c 1f 08 bf
       -0.3839543 0.16491589 0.12513609 -0.5317285
000380 73 c1 b5 3e 56 18 fb 3e db 00 4f 3f 10 85 91 3e
       0.35499153 0.49042004 0.8086068 0.2842183
000390 a6 a4 e4 3d c4 13 9a 3f cb 00 61 3e 78 10 1f 3f
       0.11164217 1.2037282 0.21972959 0.62134504
0003a0 21 e9 62 3e c4 4a c4 3e 94 55 e0 be 2b 49 07 bf
       0.22159244 0.38338292 -0.4381529 -0.5284602
0003b0 b2 d9 d3 bd 14 b3 66 be 0d 60 4a bd 52 4d d7 3e
       -0.103442565 -0.2252925 -0.049408007 0.42051178
0003c0 e2 5c 66 3e ad dd a9 bd 42 a6 fe 3e 35 2b 0d 3f
       0.2249637 -0.082942344 0.4973622 0.55144054
0003d0 4c c5 c3 be ed 74 4c be 41 74 3b bd 05 29 54 3e
       -0.38236463 -0.19966479 -0.045765165 0.20718773
0003e0 aa 9a c3 be 7a 3c 15 bf be 09 9d be 8c c1 96 3e
       -0.38203937 -0.58295405 -0.30671495 0.2944454
0003f0 c9 5c bf 3e 06 82 0b 3f c1 a0 a9 be 6d 16 40 bf
       0.37375477 0.54495275 -0.33130458 -0.7503422

decoder.dec2.bias f4 [39]
000000 51 f2 3a bd 86 5e 0d 3b d5 21 1c 3e ae af aa 3c
       -0.045641247 0.0021571233 0.15247281 0.020835724
000010 2f 4b 95 bc 3a 98 ec bb 16 07 18 3c b4 2b 90 3c
       -0.018224327 -0.0072202953 0.009279033 0.017598964
000020 cc c7 36 3d da 98 43 bd e7 94 3f 3d df 6a 9e bc
       0.044624135 -0.047753192 0.046772864 -0.01933807
000030 69 f8 15 bd d6 e1 1e 3d f8 af 06 3d 19 7b d9 3d
       -0.036613856 0.038789593 0.03288266 0.10619182
000040 43 6b c1 ba ed 25 f7 3c ef ed b7 bc 59 97 a2 bd
       -0.0014756698 0.030169452 -0.022452323 -0.079390235
000050 58 10 e8 3c 77 52 29 3e 7e 99 37 bd 87 74 7f bc
       0.028328106 0.16535364 -0.044824116 -0.015591747
000060 da 85 d2 3c 8e 05 6f 3c b5 b8 0f bd 3f a4 36 bc
       0.025698591 0.014588727 -0.03508826 -0.011147558
000070 8b 18 97 3d 3a 1c 23 bc 91 44 5c 3d 45 3a ec 3c
       0.07377728 -0.00995546 0.053776328 0.028836379
000080 27 0d 7e bc e0 b2 59 bb 95 30 eb bc 6c 6c 26 bc
       -0.015506065 -0.003321819 -0.02870969 -0.010157686
000090 c3 15 c3 bb 19 9f ce bc 38 aa 24 3d
       -0.005953522 -0.025222348 0.040201396

decoder.dec3.weight f4 [58, 39]
000000 95 0e 35 be e2 68 19 3d 77 bb 63 3e f8 f3 21 bf
       -0.17681344 0.03745354 0.22239481 -0.6326289
000010 58 a8 a5 bc 12 50 ab be e2 4f 66 bf 80 1f 30 3c
       -0.020221874 -0.33459526 -0.8996564 0.010749698
000020 fb 58 a3 be 7e aa 2d 3f a2 72 10 3e c8 fc 37 3f
       -0.31903824 0.67838275 0.14106229 0.7187009
000030 1b 68 86 be af cb 6a be 60 14 b8 bc 53 a7 38 3f
       -0.262513 -0.22929262 -0.022470653 0.72130316
000040 30 ea c8 3c e4 a4 02 bf b2 8e ec 3e b1 4a a5 3e
       0.024525732 -0.51032853 0.46202618 0.32283548
000050 eb a2 44 3f d5 93 12 3f ad b1 93 3e f0 bd 01 3f
       0.76811093 0.57256824 0.28846493 0.50680447
000060 b6 94 18 3f 9a 80 ce be 55 5b 99 3e 32 f8 e7 bd
       0.59601915 -0.4033249 0.29952493 -0.113266364
000070 c7 43 3a 3f 6d 05 5c 3d a5 84 34 3f 11 3c 9c 3c
       0.7275967 0.053716112 0.705149 0.01907161
000080 24 19 4c 3e 5c 7c c7 be 46 5c 80 3f c1 b6 a3 3e
       0.19931465 -0.38962066 1.002816 0.31975368
000090 03 1f b0 bc 66 8e f7 be b0 83 03 bf 76 a6 34 be
       -0.021499163 -0.4835083 -0.51372814 -0.17641625
0000a0 7a 48 4d be 2a 0d fe 3e 62 84 37 bf e2 cb 7b 3e
       -0.20047179 0.49619418 -0.71686375 0.24589494
0000b0 5e fc 0d be 5f f8 4e bf 51 8f 40 bd 92 d5 0f 3f
       -0.13865802 -0.80847734 -0.047011677 0.5618526
0000c0 50 ee 82 3f 3c d4 41 3f 22 50 ae 3e e8 4d d5 3e
       1.0228977 0.7571447 0.3404551 0.41661
0000d0 2f e7 9f 3d 69 01 32 bf c7 3a ef bf 96 18 7f be
       0.07807767 -0.695334 -1.8689812 -0.24911723
0000e0 60 85 c4 be fc 57 84 3e e5 bc 57 3e 31 d6 00 be
       -0.38383007 0.25848377 0.21068151 -0.12581708
0000f0 85 20 2d 3d bd f0 6c be 85 fe 5e be 0e 7d 01 bf
       0.04226734 -0.2313871 -0.21776779 -0.50581443
000100 2f 84 55 bf ae 94 93 3e 59 9b b5 be 12 06 a0 3e
       -0.8340482 0.2882437 -0.35470083 0.3125463
000110 68 95 06 bf ea 27 06 bd 59 5e 2a 3e 20 8b 96 be
       -0.52571726 -0.03275291 0.16637553 -0.2940302
000120 dd ef 21 be 6f 6a e3 3d f3 ce 77 be 1c 60 be bd
       -0.15814157 0.11104285 -0.24200039 -0.09295675
000130 e2 0c ec 3e 10 03 b4 3f d9 25 0d bf e8 e8 e5 be
       0.4610358 1.4063435 -0.55135876 -0.44904256
000140 6f 8b 2e bf ca 97 d0 3e 73 96 8d 3e e6 a9 a8 be
       -0.6818151 0.40740806 0.27653846 -0.32942122
000150 cc d6 84 3e 79 c6 59 be 3c 4d 41 bf 6c f2 2f 3f
       0.25945127 -0.21267118 -0.75508475 0.6872928
000160 d9 ee c8 be b5 71 95 3e ed a2 15 3e 4d 67 ab 3e
       -0.39244726 0.29188314 0.14612933 0.3347725
000170 38 4f 09 3f 4e e0 81 bf a9 06 3f 3f c2 77 0c bf
       0.53636503 -1.0146577 0.7461954 -0.54870236
000180 c8 91 d3 be 72 e5 b6 be 98 bf 39 bd 99 78 aa 3e
       -0.4132216 -0.35721928 -0.045348734 0.33295134
000190 43 70 8e bd 5f 65 bc be 12 25 d2 3e bc 4f 1e 3e
       -0.06955006 -0.3679609 0.41043907 0.15460104
0001a0 d0 5d 51 bf b7 1a 8e be bc 1b 08 bf b2 76 19 bf
       -0.8178377 -0.27754757 -0.5316732 -0.5994674
0001b0 9f a5 5d be 0d 0c 0c 3d d9 32 b4 3e 09 ee 3e 3e
       -0.2164521 0.03419118 0.35195044 0.1864549
0001c0 d5 50 af 3e 10 3c 17 3f 40 2a 22 3f 37 86 f1 3e
       0.34241357 0.59076023 0.6334572 0.4717271
0001d0 3b 6b 91 bf a0 b1 e1 3d e9 7d bb be e5 e2 d7 bd
       -1.1360849 0.110202074 -0.366195 -0.105413236
0001e0 75 6e 74 3e 57 a4 a2 bc 8b 8f 60 3c 28 7a 61 bf
       0.23870261 -0.019853754 0.013706098 -0.8807702
0001f0 00 1e 42 be 81 10 8c 3c 21 92 80 be b1 16 e4 3d
       -0.18956757 0.017097713 -0.25111488 0.111371405
000200 ec 3a 29 be 48 cc bf 3c d9 ed bf 3d be 8c 4a 3e
       -0.16526383 0.023412839 0.09371538 0.19780251
000210 83 6c 3d 3f 2b 60 5c 3e 42 64 b3 3e 09 4b 02 be
       0.739937 0.2152106 0.35037428 -0.12723936
000220 99 94 13 bf 31 80 38 be 4a b9 9f bd 66 86 6f be
       -0.5764862 -0.18017651 -0.07799013 -0.23391113
000230 75 06 61 3d 66 01 89 bd e4 7c cd be 89 ce 23 bd
       0.0549378 -0.0668972 -0.40134346 -0.03999189
000240 91 d1 1b 3f 6c b5 89 3f 12 01 44 3f 6e bc bb 3e
       0.6086665 1.075849 0.76564133 0.36667198
000250 a2 e5 8d 3e 2f 92 04 bd 53 35 fd 3d 1b 8d 6a be
       0.27714258 -0.032365974 0.123636864 -0.2290539
000260 c1 a3 20 3e d3 76 9d 3e c4 a2 0e bf 76 7e 93 3e
       0.15687467 0.30754718 -0.5571711 0.2880742
000270 95 4f 1e 3f c6 63 09 bf 44 eb de 3e e1 1b cc be
       0.6184018 -0.5366787 0.43538868 -0.3986502
000280 a4 86 7e 3e a6 a7 90 bd e6 d1 6b be cb b9 b9 3e
       0.24856049 -0.070632264 -0.23029289 0.3627456
000290 af 9b ac bc e7 8c 5f be 4d 79 0b 3e 0b 19 54 3e
       -0.02107033 -0.21831094 0.13620491 0.20712678
0002a0 f9 71 3f 3f 5d 1f 0b 3e 93 e3 16 be a0 d3 ba 3e
       0.74783283 0.13586183 -0.1473525 0.36489582
0002b0 ec eb bb 3d 77 56 75 3e f3 76 0e 3f 37 16 74 3f
       0.09175858 0.23958765 0.5565025 0.953464
0002c0 26 e7 35 be a3 fc a5 3d c8 94 95 be 48 99 ce bd
       -0.17763957 0.08104827 -0.29215074 -0.1008783
0002d0 3f 84 a1 3e 7f f3 fe bd e5 5e a1 3e fa d5 4a be
       0.31546208 -0.12448787 0.3151771 -0.19808188
0002e0 1b 6d 07 3c c9 4a bd be f0 15 54 be 8e 85 bf be
       0.008265759 -0.3697112 -0.20711493 -0.37406582
0002f0 a5 c4 45 bd cf 8c 19 be 62 82 3c bf 42 39 72 3e
       -0.048283238 -0.1499512 -0.7363645 0.23654655
000300 45 d4 f3 be e2 35 a5 3e 8f 6a c0 be 4a 11 9b 3e
       -0.47622886 0.32267672 -0.37581298 0.30286628
000310 d6 06 ee bb 76 b2 d9 3d ae c3 ac be dd ed e0 bc
       -0.0072639985 0.10629742 -0.33743042 -0.027457172
000320 28 0c 53 be 27 44 14 3e 27 a5 5e bd b5 79 c2 3e
       -0.20610106 0.14479123 -0.05435672 0.3798348
000330 1b 9f c4 be 1a 89 ca bd 52 80 1a 3e 6a a0 01 be
       -0.38402638 -0.09889431 0.15088013 -0.1265885
000340 1f 30 7f bd 2c a1 7d 3e 00 20 26 bf f1 5e b9 3d
       -0.06230175 0.24768513 -0.6489258 0.09051312
000350 3b 91 cd 3e 04 b0 4a be c2 50 06 be a6 eb f6 3e
       0.40149865 -0.19793707 -0.13116744 0.4822666
000360 32 26 fe bd 78 b4 6c 3e 9f 81 57 3d 70 03 87 3e
       -0.12409629 0.23115718 0.05261385 0.2636981
000370 88 f3 94 3d 08 70 04 3f 4d 9e 12 3e 03 04 6a 3e
       0.072730124 0.51733446 0.143182 0.22853093
000380 af 6a 02 bd b3 75 9c be 96 83 af 3e 0d 03 c9 be
       -0.031840023 -0.30558547 0.3428008 -0.3926014
000390 8d b7 ae be 7b 5e 95 3e f1 07 45 be 5b 1b d0 3e
       -0.34124413 0.29173645 -0.1924131 0.4064587
0003a0 87 b8 7f be 59 b7 63 be e7 58 67 3e 00 41 cc 3e
       -0.24972735 -0.2223791 0.22592507 0.3989334
0003b0 23 35 75 be f6 27 93 be 1e 11 33 be 43 63 2a 3e
       -0.23946051 -0.28741425 -0.17486998 0.16639428
0003c0 77 0f 0e be 06 36 ac be 43 40 b2 3d 97 77 9d be
       -0.13873087 -0.33634967 0.08703663 -0.30755302
0003d0 a4 2a 3d 3e 65 c8 03 be 1d 11 7e bf f1 4d a5 3e
       0.18473297 -0.12869413 -0.9924486 0.32286027
0003e0 2a cd c7 3e 50 ff 9c 3f 40 d9 8b 3e 52 43 20 3f
       0.39023715 1.2265415 0.27314186 0.6260272
0003f0 22 bc 68 3e 52 16 69 3d f2 96 8c 3e 1f 5e b3 bc
       0.22728017 0.056906052 0.27458912 -0.021895466

decoder.dec3.bias f4 [58]
000000 f4 28 e2 3d 50 44 75 bc cb a0 b4 bd cf 0e e3 3d
       0.110429674 -0.0149699 -0.08819731 0.11086809
000010 81 a2 9a bc 84 c6 bd bc fb 1f 9f bc 77 c9 ac 3d
       -0.018876316 -0.023165949 -0.01942443 0.08436864
000020 a4 88 36 bd 6d 23 18 bc a2 d0 87 3d 00 00 00 00
       -0.044563904 -0.00928579 0.066315904 0.0
000030 79 22 08 bb 00 af 10 3d a7 38 f0 3c f3 28 1a bd
       -0.00207725 0.035323143 0.029323889 -0.03763671
000040 34 83 15 bd a9 6f df 3c 47 ed a9 3c 00 00 00 00
       -0.03650208 0.027274923 0.020743025 0.0
000050 88 fd 44 bb 4e 26 6a 3c 91 4b b5 3c ce 50 d1 3d
       -0.0030058343 0.014291359 0.02213076 0.102204904
000060 08 b6 31 bd cc aa ce 3a 60 d5 fd 3d b5 28 19 3d
       -0.04338649 0.0015767454 0.12394214 0.037392337
000070 46 44 ae ba da 26 e3 bc f3 88 dc bc 29 29 c5 3d
       -0.0013295494 -0.027728487 -0.026920771 0.09626991
000080 67 5a 05 bd 2f 1f 4f bc 2f 5e 0c 3d 08 10 35 3c
       -0.032556918 -0.012641712 0.034269508 0.011051185
000090 7c 42 08 3e 91 5f 45 bc 2a 3b fb 3d a3 7b ac 3c
       0.13306612 -0.012046711 0.12267144 0.021055048
0000a0 7d 27 3e 3d 24 60 9c 3d b6 71 07 3d ce a4 94 3c
       0.046424378 0.07635525 0.033067428 0.018144991
0000b0 37 80 fa bc 1e d3 b0 bc 19 c7 b3 bc da c9 92 bc
       -0.030578716 -0.021585044 -0.021945523 -0.017918516
0000c0 89 09 2e bc 4c 45 32 3d 76 68 d8 bc 38 6f a9 3d
       -0.010622391 0.043523118 -0.026416998 0.082731664
0000d0 e7 4c 6d 3d 3c 56 18 3d fd fe b5 bc 00 00 00 00
       0.057934668 0.037191615 -0.022216314 0.0
0000e0 c8 cc ee 39 0e 16 b6 bd
       0.0004554747 -0.08890925
