IDS_TA/initial_Models/CADE-m10.0-l0.001.pth (torch, 68014 bytes, 16 tensors)

encoder.enc1.weight f4 [58, 78]
0	0x3e248729	0.16067185
1	0x3e52ae09	0.20574202
2	0xbd2c8c56	-0.042126022
3	0xbebca45a	-0.3684414
4	0xbedaa746	-0.42705745
5	0xbebaa3ce	-0.36453098
6	0xbd2e1654	-0.042501763
7	0x3e3eab08	0.1861993
8	0xbe1cc893	-0.15310888
9	0xbdee3a47	-0.11632209
10	0x3cdd588d	0.027019763
11	0xbdc80369	-0.097662754
12	0x3e42f4f2	0.19038752
13	0xbe3470d1	-0.17621161
14	0xbc653e3e	-0.0139918905
15	0xbd50934f	-0.050921734
16	0x3df560bc	0.11981341
17	0xbe88a1aa	-0.2668584
18	0xbcc46ebd	-0.023978585
19	0x3e3dcc3d	0.18534942
20	0x3ea0f94c	0.31440198
21	0xbe9f6a9a	-0.31136018
22	0xbee8621c	-0.45387352
23	0x3d132fcf	0.035934266
24	0x3e16abed	0.14714022
25	0xbea94124	-0.3305751
26	0x3c231c17	0.009955428
27	0xbe79e885	-0.24405105
28	0xbcf2a37c	-0.029618971
29	0xbe3cbf49	-0.18432344
30	0xbe25b85a	-0.16183606
31	0xbe0d081e	-0.13772628
32	0xbe9892c4	-0.29799473
33	0x3e1a68d4	0.15079051
34	0xbe1ff1b9	-0.15619554
35	0xbebccb0a	-0.36873657
36	0xbd8d2e64	-0.06893614
37	0x3e70b9df	0.23508404
38	0xbe45b723	-0.19308142
39	0xbd1a6a31	-0.03769893
40	0xbd7128ba	-0.05887673
41	0x3be243df	0.0069050635
42	0x3e2a7cda	0.1664919
43	0x3e5ebd7f	0.21751975
44	0xbd025693	-0.031820845
45	0xbcce37b4	-0.025173046
46	0xbe8013b6	-0.25015038
47	0xbe872f20	-0.2640314
48	0xbd2e546e	-0.042560987
49	0x3e4af78e	0.19820997
50	0xbea4b063	-0.32165822
51	0x3d8baab8	0.068196714
52	0xbe39c592	-0.18141773
53	0x3dd502ca	0.104009226
54	0xbd0d08ef	-0.034432348
55	0x3d6e8e73	0.05824132
56	0xbed75654	-0.4205805
57	0x3cfcecdb	0.03087466
58	0x3e38bd58	0.18040979
59	0x3d383c26	0.044979237
60	0x3d9fa891	0.07795823
61	0xb951fafd	-0.00020025294
62	0x3e1a05cd	0.15041275
63	0xbd3b5d29	-0.04574314
64	0xbd4044fa	-0.04694078
65	0x3bba606f	0.0056877653
66	0x3e14efb4	0.14544564
67	0x3d8d5282	0.06900503
68	0x3e566dff	0.20940398
69	0x3d1b23e5	0.03787603
70	0x3e679e66	0.22619018
71	0xbdb596ad	-0.0886663
72	0xbe2a1a0a	-0.16611496
73	0x3d2b40ad	0.041809727
74	0xbe1f85f1	-0.15578438
75	0x3daccddc	0.08437702
76	0xbe944131	-0.28955987
77	0xbe21f799	-0.15817107
78	0xbd50fd85	-0.051023025
79	0xbdedceec	-0.11611733
80	0xbe7fa923	-0.24966864
81	0x3d817836	0.063217565
82	0x3e134038	0.14379966
83	0xbddfdb92	-0.109305516
84	0xbdc624a1	-0.09674955
85	0x3f32d9a5	0.6986335
86	0xbd68ea46	-0.056864046
87	0x3cb31f55	0.021865526
88	0xbc898d92	-0.016791139
89	0x3e6ce0b7	0.23132597
90	0x3e8d8ab8	0.27644897
91	0xbea0239a	-0.31277162
92	0x3e07b58c	0.13252848
93	0x3ca2d6f6	0.019877892
94	0xbd75b2f6	-0.059985124
95	0xbf0d4535	-0.55183727
96	0xbdb1eea8	-0.08688098
97	0xbd3d8d06	-0.04627707
98	0xbdafb7a1	-0.08579946
99	0x3ddb5f8c	0.107115835
100	0xbe49925b	-0.19684736
101	0x3e28cf99	0.16485442
102	0x3e65b1f9	0.22431172
103	0x3dc2f5e4	0.09519556
104	0x3d089cd7	0.0333527
105	0xbfa0d94c	-1.2566314
106	0xbeafed6d	-0.3436083
107	0xbdd8ebf3	-0.10591879
108	0xbfa7691d	-1.3078953
109	0x3ecc8d20	0.3995142
110	0x3e1f1402	0.15534976
111	0x3e34f5d5	0.17671902
112	0xbe7b02be	-0.24512765
113	0xbe30dadb	-0.17270987
114	0x3ec79292	0.38979012
115	0x3caac793	0.020847118
116	0xbeef458f	-0.46732756
117	0x3e3e9d0c	0.18614596
118	0xbd107952	-0.03527195
119	0x3e3031c3	0.17206483
120	0xbe305c63	-0.17222743
121	0xbf2b53b2	-0.66924584
122	0x3dec1969	0.11528284
123	0x3dd98214	0.106205136
124	0x3ec0864d	0.37602463
125	0x3db10276	0.086430475
126	0x3dc6bae2	0.09703614
127	0xbe5a1c52	-0.21299866
128	0x3e36aaac	0.17838544
129	0x3e93a4f0	0.28836775
130	0x3ef43cb4	0.47702563
131	0xbbe5d981	-0.007014454
132	0xbdb1172d	-0.086469986
133	0xbe763210	-0.24042535
134	0x3e4108cd	0.18851013
135	0xbe5f4fdc	-0.21807808
136	0xbe158343	-0.14600854
137	0xbb2c628f	-0.0026303863
138	0xbe667938	-0.22507179
139	0xbe44a8d9	-0.19205035
140	0x3e60c0f3	0.21948604
141	0xbdac4b8b	-0.08412846
142	0xbe852afa	-0.2600935
143	0xbde8705d	-0.113495566
144	0x3efff837	0.4999406
145	0xbebd1e25	-0.3693706
146	0x3dc2584e	0.09489499
147	0x3c6ace11	0.014331357
148	0xbddb9171	-0.107211
149	0xbeefc230	-0.4682784
150	0xbf074448	-0.52838564
151	0xbe9d0a38	-0.3067186
152	0xbf3b160e	-0.7308053
153	0xbef90b9e	-0.48641676
154	0xbf572ccb	-0.84052724
155	0xbebfa095	-0.37427202
156	0x3e5c5e2a	0.21520296
157	0x3e13b4ff	0.14424513
158	0xbe20a42a	-0.15687624
159	0x3e4b3da7	0.19847737
160	0x3d30eeca	0.043196477
161	0x3e190258	0.149423
162	0xbdd2a794	-0.10285869
163	0xbd84a5dc	-0.06476948
164	0x3cd7e7ee	0.02635571
165	0x3e19ab5c	0.15006775
166	0x3c6dfe3c	0.014525946
167	0x3dfa4fd1	0.12222255
168	0x3d773d68	0.060361296
169	0xbca91afd	-0.020642752
170	0x3dc66d80	0.09688854
171	0x3b473c36	0.0030400879
172	0xbd3f1a2b	-0.046655815
173	0xbd0e7dcb	-0.034787934
174	0x3deb18a9	0.11479313
175	0xbd817fd0	-0.063232064
176	0x3e9d9b78	0.30782676
177	0x3e81e866	0.25372618
178	0x3d9deae5	0.07710818
179	0xbe5959a9	-0.21225609
180	0x3e28cc42	0.16484168
181	0x3e17f261	0.14838554
182	0x3e36c2b8	0.17847717
183	0xbd91245a	-0.07087012
184	0xbe1fdeb9	-0.15612306
185	0x3dd00bfd	0.101585366
186	0x3e59a1e4	0.21253163
187	0x3eb309ce	0.34968418
188	0xbe3ff21e	-0.18744704
189	0xbe87f72d	-0.26555768
190	0xbe643132	-0.22284392
191	0x3e00a378	0.12562358
192	0xbdc8ae5e	-0.09798883
193	0x3e044ba0	0.12919474
194	0xbd2c5418	-0.042072386
195	0x3e1e61da	0.15467015
196	0xbd883ecb	-0.06652602
197	0xbe4820f1	-0.19543816
198	0xbe03d456	-0.12873968
199	0x3dd9a648	0.10627419
200	0xbec09280	-0.3761177
201	0xbdaf263f	-0.08552217
202	0x3ecf2512	0.4045797
203	0x3dd10d49	0.10207612
204	0xbe88be0d	-0.26707497
205	0x3d86f469	0.06589586
206	0x3e6ba649	0.23012652
207	0x3d1f4be7	0.038890745
208	0x3e824a9c	0.25447547
209	0xbde10405	-0.10987095
210	0xbe429eaa	-0.19005838
211	0x3e38021c	0.17969555
212	0x3e1eea7b	0.15519135
213	0x3cbc0a34	0.022954084
214	0x3ce065dd	0.027392322
215	0x3e081dd7	0.13292633
216	0x3bbe20ed	0.005802265
217	0xbcbab434	-0.022791006
218	0x3d52c6ca	0.05145911
219	0xbcd208da	-0.025638986
220	0xbe297fe2	-0.1655269
221	0xbdeb88a2	-0.1150067
222	0xbde4f0f2	-0.11178769
223	0x3dc9333f	0.098242275
224	0x3d8ed397	0.06973951
225	0x3e555cb4	0.20836145
226	0x3dd2d6f6	0.10294907
227	0x3d8b9d96	0.068171665
228	0xbcf66562	-0.03007764
229	0xbe83d616	-0.25749272
230	0xbe1426b5	-0.1446789
231	0xbe898372	-0.26858097
232	0x3e62587c	0.22104067
233	0xbcc33694	-0.023829736
234	0x3e7f5ebb	0.2493848
235	0x3e81550d	0.252602
236	0xbe8a8c7b	-0.27060303
237	0x3e5cc2f5	0.21558745
238	0xbba84d3a	-0.0051361592
239	0xbd95244b	-0.07282313
240	0xbe4ba050	-0.19885373
241	0x3c8c7e86	0.017150175
242	0x3de4475e	0.11146425
243	0x3e3a3041	0.1818247
244	0x3d125551	0.035725895
245	0x3c8c96ec	0.017161809
246	0xbe0f9fd1	-0.14025809
247	0x3e0c0f63	0.13677745
248	0xbd4c0026	-0.04980483
249	0x3c998ef8	0.01874493
250	0x3e315a09	0.17319502
251	0xbd82e3da	-0.063911155
252	0x3e390a45	0.18070324
253	0x3c90c452	0.017671738
254	0x3e107777	0.14108072
255	0x3e2539e2	0.16135362

encoder.enc1.bias f4 [58]
0	0xbd2fdbb3	-0.04293413
1	0xbd1b97e8	-0.037986666
2	0xbb9e8214	-0.004837284
3	0xbce31892	-0.027721677
4	0xbc07226c	-0.008247953
5	0x3c453144	0.012035672
6	0xbc7126ad	-0.014718694
7	0x3c939869	0.01801701
8	0x3cb4c0fa	0.022064675
9	0x3d870e49	0.065945216
10	0x3e048dd9	0.12944736
11	0x3d2728ce	0.0408104
12	0xbe039c1f	-0.12852524
13	0xbd8826f9	-0.066480584
14	0x3e335241	0.17511846
15	0x3e0c471d	0.13699003
16	0xbc89ce3e	-0.016821977
17	0xbd589871	-0.052879754
18	0xbc0558f6	-0.008138886
19	0xbdb24719	-0.08704967
20	0x3b823919	0.0039740917
21	0xbc289931	-0.01029043
22	0x3c1c6c69	0.009547331
23	0x3daa3fef	0.083129756
24	0x3c2ff510	0.01073958
25	0x3cc2971c	0.023753695
26	0xbcad8e90	-0.021186143
27	0xbc806fbc	-0.01567828
28	0x3a89cb08	0.0010512779
29	0x3c740a0e	0.014894975
30	0xbd4d6658	-0.05014643
31	0xbc691615	-0.014226456
32	0xbd212447	-0.039341237
33	0x3d161ce9	0.036648665
34	0xbe056efb	-0.13030617
35	0xbc743f21	-0.014907629
36	0x00000000	0.0
37	0x3c973cdb	0.018461635
38	0xbc6b5993	-0.014364618
39	0xbd89d615	-0.06730286
40	0x3c46e886	0.012140399
41	0xbbaf5f72	-0.005351954
42	0x3c50365a	0.012708271
43	0x3c9cba94	0.019131936
44	0xbd44e93d	-0.048073996
45	0x3d22688a	0.039650477
46	0x3d45ce6e	0.04829257
47	0xbc93b6a1	-0.01803142
48	0xbccba7cb	-0.024860283
49	0x3bbd8787	0.0057839784
50	0x3d7c12f4	0.061541513
51	0xbd06c473	-0.032902192
52	0xbcc49641	-0.023997428
53	0xbd1faef6	-0.038985215
54	0xbd95119c	-0.07278749
55	0xbcd318cf	-0.025768666
56	0x3b55b553	0.0032609298
57	0x3c713796	0.014722725

encoder.enc2.weight f4 [39, 58]
0	0xbe3e97cc	-0.18612593
1	0x3e9cbcb1	0.3061271
2	0x3c943e44	0.018096097
3	0x3e60cc68	0.21952975
4	0xbda299e0	-0.079395056
5	0xbf4eea74	-0.808265
6	0xc009dcef	-2.1541097
7	0xbe62ed8c	-0.2216093
8	0xbf179be4	-0.59222245
9	0xbdd30a7c	-0.10304734
10	0x3f3005b7	0.6875872
11	0xbf45fcc7	-0.7733883
12	0xbf25dc9d	-0.64789754
13	0x3e50aa96	0.20377573
14	0xbef2f3d0	-0.4745164
15	0xbf2034ef	-0.6258077
16	0xbe978354	-0.29592383
17	0xbd47183c	-0.048607096
18	0x3ea37108	0.31922174
19	0x3f025451	0.50909907
20	0x3da28d7e	0.07937144
21	0x3e9a62d4	0.30153525
22	0xbd1ca1f3	-0.038240384
23	0x3eca278e	0.39483303
24	0x3f65b496	0.8972868
25	0xbe818e16	-0.25303715
26	0x3edc68ae	0.43048614
27	0x3e9c1235	0.3048264
28	0x3d84d14e	0.06485234
29	0xbeae7699	-0.34074858
30	0xbe90a724	-0.28252518
31	0xbe872f37	-0.2640321
32	0xbe2c5a0a	-0.16831222
33	0xbeaf315b	-0.34217343
34	0x3e30fa6d	0.1728303
35	0xbe0f559a	-0.13997498
36	0xbe8a71bc	-0.27039897
37	0xbdfccdb2	-0.12343921
38	0xbd1a3e17	-0.03765687
39	0x3f421ab2	0.75821984
40	0xbe42aaf0	-0.1901052
41	0xbf2822bd	-0.65678006
42	0x3ca570a7	0.020195318
43	0x3e2f170b	0.17098634
44	0x3e38862c	0.18019933
45	0xbe1d10de	-0.15338466
46	0xbe93519b	-0.28773198
47	0x3e808860	0.25104046
48	0xbe4c74ab	-0.1996638
49	0x3ca34521	0.019930424
50	0x3f27b5e3	0.6551191
51	0xbeaf1922	-0.34198862
52	0x3ea5f612	0.324143
53	0x3ef724b1	0.4827018
54	0x3ec40c87	0.38290808
55	0x3f26c936	0.65150774
56	0x3db42942	0.08796932
57	0x3eb9e8d2	0.3631044
58	0xbe4067fe	-0.1878967
59	0x3e5796ae	0.21053573
60	0x3d602565	0.054723162
61	0xbdddd27f	-0.108311646
62	0xbe8242ea	-0.25441676
63	0xbdb28b17	-0.087179355
64	0x3d719641	0.058981184
65	0xbe858149	-0.260752
66	0xbb7f598b	-0.0038963284
67	0x3dfa42a1	0.1221974
68	0xbe841b9c	-0.25802314
69	0xbd4b898f	-0.049691733
70	0xbe23627b	-0.15955536
71	0x3e0657b8	0.131194
72	0xbe932360	-0.28737926
73	0x3da1ca12	0.0789987
74	0x39cdd7e8	0.0003926151
75	0xbe9a04d1	-0.300818
76	0x3d8f9465	0.07010726
77	0xbe6fdddd	-0.23424478
78	0xbe4f4c4d	-0.2024395
79	0xbcb53e4f	-0.022124438
80	0xbde95f69	-0.11395151
81	0x3d16898b	0.036752265
82	0x3e95a8ea	0.29230434
83	0xbea87373	-0.3290058
84	0xbe93800e	-0.28808635
85	0xbd7485ac	-0.059697792
86	0xbdd89f61	-0.10577274
87	0x3e8a8429	0.27053955
88	0xbe2a2141	-0.16614248
89	0xbe8a2906	-0.26984423
90	0x3e3954ce	0.18098757
91	0x3e94a352	0.29030854
92	0x3dbedfe9	0.09320051
93	0x3e375b8c	0.17906016
94	0xbe08e4b9	-0.13368501
95	0xbe9ce275	-0.30641523
96	0x3c9cbda9	0.019133406
97	0xbe19194c	-0.14951056
98	0x3e9096f3	0.28240165
99	0x3dcc587b	0.09977814
100	0xbe590147	-0.21191894
101	0xbd7accc5	-0.06123044
102	0x3c14664a	0.009057591
103	0xbe717fd7	-0.23583923
104	0x3d468519	0.048466776
105	0x3e957dfd	0.29197684
106	0x3ca9aae2	0.020711366
107	0xbe6d33bd	-0.23164268
108	0x3dd4a3db	0.103828155
109	0xbe605c38	-0.21910179
110	0xbc88022d	-0.0166026
111	0xbdce3612	-0.10068907
112	0x3e737a70	0.23777175
113	0x3e885cb6	0.26633233
114	0xbe850b85	-0.2598535
115	0xbe77122e	-0.24128029
116	0xbe189731	-0.14901425
117	0xbe7fd06c	-0.2498185
118	0x3da812ac	0.082066864
119	0x3e8098aa	0.25116473
120	0x3d50996a	0.050927557
121	0x3d9924be	0.07477711
122	0xbe3d4788	-0.18484318
123	0x3dcd1370	0.10013473
124	0x3e91bcce	0.2846436
125	0x3d872b03	0.06600001
126	0xbcbe37f4	-0.02322004
127	0xbe84bc88	-0.25925088
128	0x3e3beffe	0.18353269
129	0xbe3770d3	-0.17914133
130	0xbe211ac8	-0.15732872
131	0x3e884557	0.26615402
132	0x3e407f7c	0.18798631
133	0x3e38db18	0.18052328
134	0x3d474957	0.048653927
135	0x3d1d13dd	0.03834902
136	0xbe42be12	-0.19017819
137	0x3e048edb	0.1294512
138	0x3e9e87ae	0.3096289
139	0x3e296f08	0.16546261
140	0xbe71e518	-0.23622549
141	0x3e826583	0.25468072
142	0x3eaa942b	0.33316168
143	0x3df1cc58	0.118065536
144	0xbdbcf580	-0.09226513
145	0x3e941c86	0.28928012
146	0x3d1769e9	0.03696624
147	0xbe17f402	-0.14839175
148	0x3e8009bb	0.25007424
149	0xbdd50ea2	-0.104031816
150	0xbd60f8e5	-0.054924864
151	0x3e08bd7f	0.13353537
152	0xbe73906f	-0.23785566
153	0xbe525835	-0.20541461
154	0x3b69fc61	0.0035703408
155	0xbe61e535	-0.22060092
156	0x3dc49016	0.09597795
157	0x3e50e5ac	0.20400113
158	0x3d7df743	0.062003385
159	0x3e2c2dfe	0.1681442
160	0x3e1ec889	0.15506186
161	0x3e0554f0	0.13020682
162	0xbe7067cd	-0.23477097
163	0xbcdabdaf	-0.026701776
164	0xbe6aec88	-0.22941792
165	0x3e710d62	0.23540261
166	0xbe860b8f	-0.26180694
167	0x3e34f345	0.17670925
168	0x3e1e393f	0.15451525
169	0xbdf396e9	-0.11894018
170	0xbe737222	-0.23774007
171	0x3dce4ae2	0.100728765
172	0xbe130459	-0.14357127
173	0xbd629e00	-0.05532646
174	0x3e892938	0.2678926
175	0x3ecac7d6	0.39605588
176	0x3e8d23c2	0.27566344
177	0xbe6c2f35	-0.23064883
178	0x3e4c5f59	0.19958247
179	0xbfb1c715	-1.388888
180	0xbf35610d	-0.7085121
181	0x3d1df792	0.03856618
182	0xbf4293b7	-0.76006645
183	0xbe6fef9a	-0.23431244
184	0x3de659ca	0.11247595
185	0x3e86ad6e	0.2630419
186	0xc01782b7	-2.3673532
187	0x3e1ed786	0.15511903
188	0xbf30b872	-0.6903144
189	0xbf9778ad	-1.1833702
190	0xbe99d844	-0.3004781
191	0xbc9e0d01	-0.01929331
192	0x3e11e739	0.1424836
193	0x3e00d134	0.12579805
194	0xbd9cc91b	-0.07655545
195	0x3eb36d7d	0.3504447
196	0xbe80779f	-0.25091264
197	0x3e1da3e7	0.15394555
198	0x3e909c01	0.28244022
199	0x3d9d3b83	0.076773666
200	0x3d98edb9	0.07467217
201	0xbd1eaa8e	-0.038736872
202	0x3e1afa17	0.15134464
203	0xbf04fbab	-0.51946515
204	0xbf8c910c	-1.0981765
205	0x3e8cc9f5	0.2749783
206	0xbc1d73e8	-0.009610154
207	0xbef1dae2	-0.47237307
208	0x3e424480	0.18971443
209	0xbe1f44a5	-0.1555353
210	0x3e7e2a73	0.2482088
211	0x3dad585f	0.08464121
212	0x3e99afd1	0.3001695
213	0x3e63f98c	0.22263163
214	0x3d226115	0.039643366
215	0xbedc8a61	-0.43074325
216	0x3e1fa299	0.1558937
217	0x3ea1533c	0.31508815
218	0xbcd99c45	-0.026563773
219	0xbe141880	-0.14462471
220	0x3de68f12	0.11257757
221	0x3e488c8a	0.19584861
222	0xbe388bd5	-0.18022092
223	0x3e299bc9	0.16563334
224	0x3f1c2542	0.6099435
225	0xbdf9fa29	-0.122059174
226	0x3e8b1975	0.2716786
227	0x3f892510	1.0714436
228	0x3f04fff0	0.5195303
229	0x3e0e6c41	0.13908483
230	0xbe16039e	-0.14649817
231	0x3e0a6695	0.13515694
232	0xbebab29a	-0.36464387
233	0xbeb95aac	-0.3620199
234	0xbda22e9a	-0.07919045
235	0x3cc3aef7	0.02388714
236	0x3deb203a	0.11480756
237	0xbe048f13	-0.12945203
238	0x3eb4e69d	0.35332194
239	0x3df5f2cc	0.120092005
240	0x3e2c9120	0.16852236
241	0xbd991690	-0.074750066
242	0xbe8cfe45	-0.27537742
243	0x3e82df0d	0.255608
244	0x3de97623	0.11399486
245	0xbd9fa56b	-0.07795223
246	0x3d855767	0.06510811
247	0x3ee13300	0.43984222
248	0x3d0535d1	0.032522026
249	0x3e61e08f	0.22058319
250	0x3e6f3ba1	0.2336259
251	0xbef8bed1	-0.4858308
252	0xbe3d8f4c	-0.18511695
253	0xbdb88b02	-0.09010889
254	0x3e562099	0.20910873
255	0xbe5de1ae	-0.21668121

encoder.enc2.bias f4 [39]
0	0xba61c29a	-0.0008612067
1	0xbc1f289a	-0.00971427
2	0x3d51a575	0.051183183
3	0x3c65451a	0.013993526
4	0xbb7f8c50	-0.0038993545
5	0x3d60739a	0.054797746
6	0x3d40eed5	0.047102768
7	0xbd0754de	-0.03303992
8	0xbd21f797	-0.03954276
9	0xbd460066	-0.048340224
10	0x3ce13807	0.027492536
11	0x3e069d11	0.13145854
12	0x3caaf658	0.020869419
13	0x3cf2f030	0.029655546
14	0x3bfd0d15	0.0077225068
15	0x3c318bf0	0.010836586
16	0xbbd80e1a	-0.006593478
17	0x3d71fec4	0.059080854
18	0xbd427e93	-0.04748399
19	0xbd837943	-0.06419613
20	0x3c5614f3	0.013066518
21	0xbbf7c5e2	-0.0075614313
22	0xbcf10065	-0.029419133
23	0x3c679078	0.014133565
24	0xbb83d5e3	-0.0040233
25	0x3c65eb28	0.014033116
26	0xbd623177	-0.055222955
27	0x3ca2c0c4	0.019867308
28	0x3ad5f186	0.001632259
29	0x3dac60ca	0.084168985
30	0x3bb1a668	0.0054214485
31	0x3c842c89	0.016134517
32	0xbc0e8081	-0.00869763
33	0xbb94badb	-0.0045388765
34	0xbc0bc280	-0.008530259
35	0xbd5d030b	-0.05395798
36	0x3e1dd6d9	0.15413989
37	0xbc744895	-0.014909883
38	0xbc159ca9	-0.009131589

encoder.enc3.weight f4 [19, 39]
0	0x3ed0754a	0.40714484
1	0xbe0965e8	-0.1341778
2	0xbe0342f9	-0.12818517
3	0x3f3144f0	0.69245815
4	0x3f22f58f	0.6365594
5	0x3dd3b5db	0.103374206
6	0xbebc8a4d	-0.36824265
7	0x3d836f21	0.064176805
8	0xbf61c998	-0.8819823
9	0xbf975935	-1.1824099
10	0x3f167c79	0.5878368
11	0x3ee1fc9f	0.44138047
12	0x3ed67aa5	0.41890445
13	0x3f483ae1	0.7821484
14	0xbdb36f07	-0.08761411
15	0xbf9e7934	-1.2380738
16	0xbf777e8e	-0.9667748
17	0xbf2cd2ea	-0.6750933
18	0x3eb8e116	0.36109227
19	0xbf4625d0	-0.7740145
20	0xbe01235a	-0.12611142
21	0x3e94f386	0.29092044
22	0x3c4a8c10	0.012362495
23	0xbea135fc	-0.314865
24	0x3d3373b8	0.04381153
25	0xbf86e10e	-1.0537431
26	0xbe7be254	-0.24598056
27	0xbcec0255	-0.028809706
28	0xbe8e587f	-0.27801892
29	0xbf3fef36	-0.7497438
30	0xbec1013b	-0.3769625
31	0x3f3350ec	0.7004535
32	0x3b9d9e0e	0.0048101014
33	0xbf11059b	-0.5664918
34	0x3f196cb0	0.5993147
35	0x3cff6fdc	0.031181268
36	0x3f5cd49f	0.86261934
37	0xbe92d1f0	-0.28675795
38	0x3da0f07c	0.07858369
39	0xbe894bf7	-0.2681577
40	0xbc923ad8	-0.017850325
41	0xbe8bc0d9	-0.2729557
42	0xbeb1f000	-0.34753418
43	0xbe3fe6d1	-0.18740393
44	0xbd43d96c	-0.04781477
45	0x3e4a8736	0.19778141
46	0xbe022694	-0.12710029
47	0xbc535ecc	-0.012901019
48	0xbe8adb27	-0.27120325
49	0xbea64c64	-0.32480156
50	0xbeb48d36	-0.35263985
51	0xbe6cb31f	-0.23115204
52	0x3e556cac	0.20842236
53	0xbe71dd9e	-0.23619696
54	0x3e9ce1bf	0.3064098
55	0x3e939a1b	0.2882851
56	0xbec86387	-0.39138433
57	0x3de19017	0.11013811
58	0xbeceb891	-0.40375188
59	0x3ce21371	0.027597161
60	0x3e51527d	0.20441623
61	0x39a24c82	0.0003095605
62	0xbe51a971	-0.20474793
63	0x3d23ffb1	0.04003877
64	0x3eb1591e	0.34638304
65	0xbec3ab36	-0.3821656
66	0xbe65d7b7	-0.2244557
67	0x3e631104	0.2217446
68	0xbe2149dd	-0.15750833
69	0x3c99b6a2	0.018763844
70	0xbeaed5fd	-0.34147635
71	0x3e85a418	0.26101756
72	0xbec5d56b	-0.38639387
73	0xbebe5e3b	-0.37181267
74	0x3d96aeee	0.07357584
75	0xbd0a34c5	-0.03374173
76	0xbd3f9edd	-0.046782363
77	0x3e981975	0.29706922
78	0xbe0a0d0b	-0.13481538
79	0xbdfe1f54	-0.12408319
80	0xbce56ad3	-0.02800504
81	0xbea19f3d	-0.31566802
82	0xbe37fcd4	-0.1796754
83	0x3e73ccab	0.23808543
84	0x3e42235b	0.189588
85	0xbba36a22	-0.0049870173
86	0xbdd77124	-0.10519627
87	0x3f1e1716	0.61753976
88	0xbe13147f	-0.14363287
89	0xbcc4a6fc	-0.024005406
90	0xbdd88e02	-0.10573961
91	0xbf35716f	-0.7087621
92	0xbdc7ce32	-0.097561255
93	0xbd0e6de3	-0.034772765
94	0x3dadbc6c	0.08483204
95	0x3d83c83e	0.064346775
96	0xbe0e1e4f	-0.1387875
97	0x3e984410	0.29739428
98	0x3d33e1aa	0.043916382
99	0xbf13d091	-0.5774012
100	0x3d9a4976	0.07533543
101	0xbe83e45f	-0.2576017
102	0x3ea9a76f	0.33135554
103	0x3f12755b	0.5721032
104	0x3e30e957	0.17276512
105	0xbe549f69	-0.20763935
106	0x3e739d5b	0.23790495
107	0x3ec4610f	0.383553
108	0x3c9a15ad	0.018809164
109	0xbee1dff8	-0.44116187
110	0xbead1b60	-0.33809948
111	0x3e80bab0	0.2514243
112	0xbec9cb30	-0.39412832
113	0x3e84f5e7	0.2596886
114	0xbeb01fc0	-0.34399223
115	0x3ef8585f	0.48504922
116	0x3e35375c	0.17696899
117	0x3d201eef	0.039092
118	0x3ca8ae2a	0.02059086
119	0x3bff5b30	0.007792853
120	0xbd3a0dda	-0.045423366
121	0xbe236187	-0.15955172
122	0x3ecd9bde	0.4015798
123	0x3dde181d	0.10844443
124	0x3e5cae0d	0.2155077
125	0x3d14cc79	0.036327813
126	0x3e43c42a	0.191178
127	0xbe51b916	-0.20480761
128	0x3c17dd3c	0.009269055
129	0xbe6a0e92	-0.2285712
130	0x3e6f0f35	0.23345645
131	0xbebcb8ed	-0.36859837
132	0xbe8b0706	-0.27153796
133	0x3e31cbf3	0.17362957
134	0x3ddce0cc	0.10785064
135	0xbe894b57	-0.26815292
136	0xbdb68993	-0.08912959
137	0xbc91f165	-0.017815301
138	0x3ea93def	0.33055064
139	0x3eb7872a	0.3584531
140	0xbe1863e5	-0.14881857
141	0xbe875cae	-0.26437896
142	0x3e048e8d	0.12945004
143	0xbe73b058	-0.23797739
144	0xbe0e38c8	-0.13888848
145	0xbe5eea98	-0.21769178
146	0x3eaf0a27	0.34187433
147	0x3e323856	0.17404303
148	0xbe436f81	-0.19085504
149	0xbd7bfcb2	-0.061520286
150	0x3ea9e28b	0.3318065
151	0x3ebeff09	0.3730395
152	0xbbbd2ede	-0.0057734093
153	0xbe58a57b	-0.21156876
154	0xbea7884b	-0.3272117
155	0xbe61063a	-0.21975031
156	0x3db9612d	0.09051738
157	0xbd62676a	-0.055274405
158	0x3d448875	0.047981698
159	0xbe00301f	-0.12518357
160	0x3e580f0c	0.2109949
161	0x3e4019fa	0.1875991
162	0x3e0dd7af	0.13851808
163	0x3e903af9	0.28169993
164	0x3e8361cf	0.2566056
165	0xbe43069b	-0.19045489
166	0xbe34212c	-0.17590779
167	0x3d92b297	0.071629696
168	0x3e425e6e	0.18981335
169	0xbeb9a4b8	-0.36258483
170	0xbe82a76a	-0.25518352
171	0x3eb248b0	0.3482108
172	0xbe1f22d9	-0.15540637
173	0x3e505a35	0.20346911
174	0x3e1f35ef	0.15547918
175	0xbe882bd4	-0.26595938
176	0x3f0a580c	0.540406
177	0x3e144d01	0.144825
178	0x3ecc9307	0.39955923
179	0xbdfa2229	-0.12213547
180	0x3d6f0979	0.058358643
181	0x3e7de082	0.24792674
182	0xbe90b892	-0.28265816
183	0x3e093094	0.13397437
184	0x3e1f5baa	0.15562311
185	0x3e51f25a	0.20502606
186	0xbe4f368a	-0.20235649
187	0x3db648b3	0.08900585
188	0xbe79abd4	-0.24381953
189	0xbe95b78a	-0.29241592
190	0xbdda0684	-0.10645774
191	0xbe88a497	-0.26688072
192	0x3dfb827d	0.12280748
193	0x3ea91732	0.3302551
194	0x3d8bf61f	0.06834053
195	0x3ead9759	0.33904532
196	0x3ce2da8b	0.0276921
197	0xbcb020b5	-0.02149997
198	0x3e8f90ac	0.28040063
199	0x3ee91163	0.45521078
200	0xbdca4dd0	-0.09878123
201	0x3e4bf9ee	0.1991956
202	0x3e2b2990	0.16715074
203	0x3dda3708	0.10655028
204	0xbebb9b1b	-0.36641774
205	0x3e5011ba	0.20319262
206	0xbdd28e92	-0.102810994
207	0x3daf8e7b	0.08572098
208	0x3f31d05b	0.6945855
209	0xbe826200	-0.25465393
210	0x3d66f202	0.05638314
211	0x3db54235	0.088505186
212	0x3e849859	0.25897482
213	0x3e899d33	0.26877746
214	0xbe0be464	-0.13661343
215	0x3e56d062	0.20977929
216	0x3e74c62b	0.2390372
217	0x3e1cc8ec	0.1531102
218	0xbe12fb97	-0.14353786
219	0xbe80b745	-0.25139824
220	0xbe7bb097	-0.24579082
221	0x3eaf9951	0.3429666
222	0xbe9d9b22	-0.3078242
223	0xbdf71c98	-0.12066001
224	0xbe424d4d	-0.189748
225	0x3ea1d0f6	0.31604737
226	0xbc942ce2	-0.018087808
227	0xbde5a6c4	-0.11213449
228	0xbea064f7	-0.3132703
229	0x3e6ee470	0.2332933
230	0xbe727db7	-0.23680769
231	0x3f2874dc	0.65803313
232	0x3dc943b9	0.0982737
233	0x3dc4b36b	0.09604534
234	0x3ebdaaa9	0.37044266
235	0x3e27be39	0.16381158
236	0xbec59965	-0.38593593
237	0xbc8d0816	-0.01721577
238	0xbec28480	-0.37991714
239	0xbe6eca45	-0.23319347
240	0x3ea0cb33	0.3140503
241	0x3ec3b991	0.38227513
242	0xbcbe11e8	-0.023201898
243	0x3d7e9102	0.06215001
244	0x3e9b16ad	0.30290738
245	0xbccbe053	-0.02488724
246	0x3dde1957	0.10844677
247	0xbeb600d6	-0.35547513
248	0x3edcbae9	0.4311135
249	0x3eeaf801	0.45892337
250	0x3e8112d7	0.25209686
251	0x3e383d3a	0.17992106
252	0xbed94a8d	-0.4243969
253	0x3ec58d74	0.38584483
254	0xbe902c15	-0.28158632
255	0x3e580daf	0.2109897

encoder.enc3.bias f4 [19]
0	0x3d86e7c2	0.06587173
1	0xbca96f42	-0.020682935
2	0xbb593bc0	-0.0033147186
3	0xbc93a230	-0.018021673
4	0xbccf86bc	-0.025332801
5	0x3c40c49a	0.011765623
6	0xba14b8d3	-0.0005673293
7	0x3bc70dfd	0.0060746656
8	0x3c65d749	0.014028379
9	0xbbfa777c	-0.007643638
10	0x3d19434a	0.037417687
11	0xbd37aa71	-0.04484028
12	0x3d7ab835	0.06121083
13	0xbc138b49	-0.009005376
14	0xbd3e0a3b	-0.046396475
15	0xbccd8999	-0.025090026
16	0x3bd30c71	0.006440692
17	0x3d217e6f	0.039427217
18	0xbcccb9dd	-0.02499097

encoder.enc4.weight f4 [7, 19]
0	0xbea9c19f	-0.33155534
1	0x3e51a275	0.20472129
2	0xbea5c4c5	-0.32376686
3	0xbde2042d	-0.11035953
4	0x3eda28b2	0.42609173
5	0xbecbf22c	-0.398332
6	0x3be5b264	0.007009791
7	0x3eac9d47	0.33713743
8	0x3e1e6497	0.1546806
9	0x3e5fd32c	0.218579
10	0x3e9880ab	0.29785666
11	0xbecbcfd1	-0.3980699
12	0x3d966a83	0.07344534
13	0xbeefc519	-0.4683006
14	0xbdf94000	-0.1217041
15	0xbdcecd01	-0.10097695
16	0xbeceb5f4	-0.40373194
17	0x3e22c8ae	0.15896866
18	0x3db68166	0.089113995
19	0x3e7808ac	0.24222058
20	0xbf099459	-0.53741986
21	0x3f138862	0.5762998
22	0xbe2abe64	-0.16674191
23	0xbe041419	-0.12898292
24	0x3f1a75aa	0.6033579
25	0xbe0d0cde	-0.1377444
26	0xbee51324	-0.44741166
27	0xbebccef2	-0.36876637
28	0xbf083bb5	-0.53216106
29	0xbeebd971	-0.46064332
30	0x3f00b533	0.5027649
31	0xbea0a886	-0.31378573
32	0x3e79c8f0	0.24393058
33	0xbe5902aa	-0.21192423
34	0x3f00a875	0.50257045
35	0x3ee3a5a2	0.44462305
36	0x3ef02bad	0.46908322
37	0x3c81b7ef	0.015834777
38	0x3eafca66	0.34334105
39	0x3d3ecad9	0.04658017
40	0x3e8229bb	0.25422463
41	0x3ec29582	0.3800469
42	0x3aa88f42	0.0012860077
43	0x3ed4a1b6	0.41529626
44	0xbe06185e	-0.13095233
45	0xbe82c437	-0.25540325
46	0x3e151c6a	0.1456162
47	0xbee39915	-0.4445273
48	0x3e208427	0.15675412
49	0xbe0d273a	-0.13784495
50	0x3a5b7b39	0.00083725486
51	0x3cb564ed	0.022142852
52	0xbea3bfe6	-0.31982344
53	0xbe823181	-0.25428393
54	0x3e4f09da	0.20218602
55	0x3ed02ab9	0.40657595
56	0x3ddcfa84	0.107899696
57	0xbf1e21a8	-0.61770105
58	0xbe81a902	-0.25324255
59	0xbee5d563	-0.44889364
60	0x3e084af1	0.13309838
61	0x3d704be0	0.05866611
62	0xbed96d08	-0.42465997
63	0x3eb021f2	0.34400898
64	0xbee7ab36	-0.4524781
65	0x3c381161	0.011234612
66	0x3da58896	0.08082692
67	0xbd180da8	-0.0371224
68	0xbeaa18d2	-0.3322206
69	0x3f08adbf	0.53390115
70	0x3eb041d1	0.34425214
71	0x3ee215e3	0.44157323
72	0x3da0e566	0.07856254
73	0x3e78aa5c	0.24283737
74	0xbe893f3c	-0.26806056
75	0xbda60b96	-0.081076786
76	0x3f5be663	0.8589842
77	0xbec16bd8	-0.3777759
78	0x3e71cf16	0.23614153
79	0x3e99c682	0.30034262
80	0xbd6d03cb	-0.057864945
81	0x3e7a9436	0.244706
82	0xbda2eee6	-0.079557225
83	0x3f0cf300	0.5505829
84	0x3d940336	0.07227175
85	0xbebffada	-0.37496072
86	0x3ecd8815	0.40142885
87	0x3e96f49d	0.294835
88	0xbeb66862	-0.35626513
89	0x3f074553	0.52840155
90	0x3c04778f	0.008085146
91	0x3ee28e60	0.44249249
92	0x3e106723	0.14101844
93	0x3f14145b	0.5784356
94	0x3e91f3df	0.2850637
95	0xbf528f77	-0.8225016
96	0x3f00ecef	0.5036153
97	0xbec4748f	-0.38370177
98	0x3ede955a	0.4347332
99	0x3e5d61e3	0.21619372
100	0xbec1ac3e	-0.37826723
101	0x3e89615a	0.26832086
102	0x3db99364	0.09061316
103	0x3e924f8b	0.2857631
104	0xbd872ae2	-0.06599976
105	0x3ea2a31c	0.31765068
106	0xbe800325	-0.250024
107	0x3e9e976e	0.30974907
108	0x3e8204d7	0.25394318
109	0xbe828d3d	-0.2549838
110	0xbf16db59	-0.5892845
111	0xbebb5e3b	-0.3659533
112	0xbee2aef8	-0.44274116
113	0x3b75dea1	0.003751673
114	0xbec23d71	-0.379375
115	0xbe2e97b1	-0.17050053
116	0xbed10271	-0.40822175
117	0x3eaa50ba	0.33264714
118	0x3ef2e76b	0.47442183
119	0xbf0f0fc5	-0.5588344
120	0x3e42079b	0.18948214
121	0x3cedbb61	0.029020013
122	0xbc905ecd	-0.01762333
123	0x3ef06f05	0.469597
124	0x3eb517af	0.35369632
125	0xbed116db	-0.4083775
126	0xbe55d986	-0.2088376
127	0xbddc1f34	-0.10748139
128	0xbe2d46f0	-0.16921592
129	0xbf22441a	-0.63385165
130	0x3e8c175c	0.27361572
131	0x3e92f9ed	0.28706303
132	0xbe5fc368	-0.21851885

encoder.enc4.bias f4 [7]
0	0xbb82532e	-0.003977201
1	0x3bfdc96b	0.007744958
2	0xbccc40b6	-0.0249332
3	0x3bba62f4	0.0056880657
4	0x3d28d97c	0.041223034
5	0xba88d470	-0.0010439288
6	0xbcd8ff4c	-0.026488923

decoder.dec1.weight f4 [19, 7]
0	0xbf6de5ed	-0.92928964
1	0xbf1d7bbe	-0.6151694
2	0x3db2c1d4	0.08728376
3	0x3f55c383	0.8350145
4	0x3ea3e864	0.32013237
5	0xbf0701ee	-0.5273732
6	0x3eab0195	0.33399644
7	0x3efea5a6	0.49735755
8	0x3e899103	0.26868448
9	0x3e9557ad	0.29168454
10	0xbefb6ca3	-0.4910632
11	0xbc4162b8	-0.011803322
12	0xbda8dc8b	-0.0824519
13	0x3f5ed0e2	0.8703748
14	0xbf0b3e1f	-0.54391664
15	0x3efbcc4e	0.4917931
16	0xbea0372e	-0.312921
17	0xbec5921b	-0.38588032
18	0xbf032f10	-0.51243687
19	0x3f2497f6	0.64294374
20	0xbf374135	-0.71583873
21	0xbf70766d	-0.93930703
22	0xbf115935	-0.56776744
23	0x3f5f2dfe	0.87179554
24	0x3e020dd6	0.1270059
25	0x3ee91981	0.4552727
26	0xbea609b5	-0.3242928
27	0xbf15e8a9	-0.58558136
28	0xbf62fccd	-0.88666993
29	0x3f00999c	0.5023439
30	0xbf393af1	-0.7235556
31	0xbd78e918	-0.06076917
32	0x3ec97a22	0.39350992
33	0x3f385244	0.7200053
34	0xbf219648	-0.63119936
35	0x3d5d47e4	0.05402364
36	0x3eb75628	0.3580792
37	0xbf1cccc0	-0.61249924
38	0x3e1d109f	0.15338372
39	0xbf6ae683	-0.9175798
40	0xbf3a9d0e	-0.72895896
41	0xbbdb9459	-0.006701034
42	0xbe23db57	-0.1600164
43	0x3e111ebe	0.14171883
44	0xbeb334c5	-0.35001197
45	0x3f630d06	0.8869175
46	0xbdc78b08	-0.09743315
47	0x3f1280e7	0.5722794
48	0x3fe1b022	1.7631876
49	0x3e6f5ea6	0.2337595
50	0xbdc207e1	-0.09474159
51	0x3e54f942	0.2079821
52	0x3f28e193	0.659692
53	0x3f224dab	0.6339976
54	0xbf2b4782	-0.6690599
55	0xbee3738e	-0.444241
56	0x3e9281de	0.28614706
57	0xbf00218d	-0.50051194
58	0xbf1dcb3f	-0.61638254
59	0x3eb1a5c5	0.34696785
60	0xbeda8354	-0.4267832
61	0x3f021307	0.50810283
62	0x3fc1b49b	1.5133241
63	0x3ef238bf	0.4730892
64	0xbf380a30	-0.71890545
65	0xbf31e1dd	-0.69485265
66	0x3dc76042	0.097351566
67	0xbf82ca02	-1.0217898
68	0x3e81c1ec	0.25343263
69	0xbf055670	-0.5208502
70	0x3f820c60	1.0160027
71	0xbeffb04f	-0.499392
72	0x3d6d844a	0.05798749
73	0xbf17e097	-0.5932707
74	0xbee423f4	-0.4455868
75	0x3d3f4a86	0.04670193
76	0x3ef1f1cb	0.47254786
77	0xbe9e3931	-0.3090301
78	0xbe7c122b	-0.24616306
79	0xbea071ca	-0.31336814
80	0x3f352caf	0.70771307
81	0xbe744485	-0.23854263
82	0x3ecb8177	0.3974721
83	0xbf7e9194	-0.99440885
84	0xbdcd6cbf	-0.10030507
85	0x3e8bab5e	0.2727918
86	0x3e659ed3	0.22423868
87	0xbf4772c9	-0.77909523
88	0xbf8841af	-1.0645045
89	0x3ec85154	0.39124548
90	0xbe030ed2	-0.12798622
91	0x3e9abca5	0.3022205
92	0xbf023647	-0.5086407
93	0xbf884528	-1.0646105
94	0xbf5f90d9	-0.87330395
95	0x3f2a4eb6	0.66526353
96	0xbc8c7bdd	-0.017148906
97	0x3f8347ed	1.0256325
98	0x3f542e95	0.8288358
99	0xbf325331	-0.6965819
100	0x3f1b3acd	0.606366
101	0x3ee16c1d	0.44027796
102	0x3cf2b3c3	0.029626733
103	0xbf6ed7ed	-0.93298227
104	0x3d835820	0.06413293
105	0xbf35bf61	-0.70995146
106	0xbe78dd06	-0.24303064
107	0xbf15495a	-0.5831505
108	0xbeba0ca3	-0.36337766
109	0x3d0c3787	0.034232643
110	0x3e1926d4	0.14956218
111	0xbe90e216	-0.2829749
112	0x3ea6c1fc	0.32569873
113	0x3f35cbee	0.71014297
114	0xbe8570bf	-0.2606258
115	0x3e847ebc	0.2587794
116	0x3eb5ff2c	0.35546243
117	0x3ecb4d54	0.39707434
118	0xbf28e186	-0.6596912
119	0x3f5976dd	0.84946996
120	0x3f4f70ce	0.810315
121	0x3f58ab2a	0.84636176
122	0x3f6d7f04	0.92771935
123	0xbe830387	-0.2558863
124	0xbe43eb30	-0.19132686
125	0xbf4a2db7	-0.78976005
126	0xbeb26014	-0.34838927
127	0xbdc90c5a	-0.09816809
128	0xbf1cc117	-0.6123213
129	0xbf306ae9	-0.6891313
130	0xbf0383a9	-0.5137277
131	0xbe318664	-0.17336422
132	0xbc090ac9	-0.008364388

decoder.dec1.bias f4 [19]
0	0xbbccd40d	-0.0062508644
1	0x3d2ebe10	0.042661726
2	0x3dba653a	0.09101339
3	0xbaa68225	-0.0012703581
4	0x3d4ee7f2	0.05051417
5	0x3d04a2ad	0.032381702
6	0xbbb3aed8	-0.0054834895
7	0x3d3c6ea1	0.04600394
8	0x3c8ab948	0.016934052
9	0x3d6e25de	0.05814158
10	0xbd345d54	-0.044034317
11	0xbd8cb4e8	-0.06870443
12	0x3c726666	0.0147949215
13	0x3d1059aa	0.03524176
14	0x3c6f061c	0.014588859
15	0x3d4c3e52	0.04986412
16	0x3d4ad2a5	0.049517293
17	0xbc5cccda	-0.013476575
18	0x3e3ad45c	0.18245071

decoder.dec2.weight f4 [39, 19]
0	0xbf55a2c5	-0.8345149
1	0x3ed75cc9	0.42062977
2	0x3e3d83ab	0.18507259
3	0x3eb159ba	0.34638768
4	0xbf00d554	-0.5032551
5	0xbe205dd6	-0.15660796
6	0x3e90c6bb	0.2827662
7	0xbd930072	-0.07177819
8	0x3eb3be43	0.35106096
9	0x3e18c150	0.14917493
10	0xbdae9922	-0.085253015
11	0x3d34dec4	0.04415776
12	0xbaf59a40	-0.0018737987
13	0xbd17cc37	-0.03705999
14	0x3d371ea3	0.04470695
15	0xbebfe73c	-0.37481105
16	0x3e4132b9	0.18867005
17	0xbebbb6c9	-0.36662892
18	0xbea876ee	-0.32903236
19	0x3f100ed3	0.5627262
20	0x3d95d471	0.073159106
21	0xbeeadb60	-0.45870495
22	0x3e46f9ce	0.1943123
23	0xbe04ea4e	-0.12980005
24	0xbea14da5	-0.3150455
25	0x3f1ae503	0.60505694
26	0xbf206695	-0.6265653
27	0xbee5a545	-0.44852653
28	0xbf1cfe2f	-0.61325353
29	0x3f03bd6c	0.5146091
30	0xbecfdad0	-0.40596628
31	0xbec85aa7	-0.39131662
32	0x3f131e40	0.5746803
33	0xbe4ac3e9	-0.19801296
34	0xbc376ae4	-0.011194918
35	0xbe888e99	-0.26671293
36	0xbe0f03ed	-0.13966341
37	0x3e932695	0.28740373
38	0x3f5dacc0	0.8659172
39	0xbf290696	-0.66025674
40	0xbcba7b0a	-0.022763748
41	0x3c5bc5e9	0.013413885
42	0x3e0fea78	0.14054286
43	0xbc4e5042	-0.012592377
44	0x3db6c989	0.089251585
45	0x3ed68503	0.41898355
46	0xbecabd07	-0.3959734
47	0x3eb73e04	0.35789502
48	0xbdca25a3	-0.0987046
49	0xbe5bfe70	-0.21483779
50	0x3f1b8d9d	0.6076296
51	0x3e118055	0.14209111
52	0x3e6a742a	0.22895876
53	0x3eb06bc1	0.3445721
54	0x3e90b8df	0.28266045
55	0x3e77764f	0.24166225
56	0xbda0b208	-0.07846457
57	0xbececcff	-0.40390775
58	0x3edcba38	0.43110824
59	0x3e297df1	0.16551949
60	0xbedcbad3	-0.43111286
61	0xbdc6ffe8	-0.09716779
62	0x3f185b23	0.59514064
63	0x3e09392d	0.13400717
64	0xbecf16d6	-0.4044711
65	0x3e0909af	0.133826
66	0xbe26003c	-0.16211027
67	0xbd24cd02	-0.040234573
68	0x3ea7c356	0.32766217
69	0xbf3585b9	-0.7090717
70	0x3eff9956	0.49921674
71	0xbf5c400d	-0.86035234
72	0x3f1b2653	0.60605353
73	0x3ed93f94	0.4243132
74	0x3d7ef604	0.062246338
75	0x3f29d4b9	0.66340214
76	0xbf27847c	-0.6543653
77	0xbe81835f	-0.2529554
78	0x3d124b8a	0.03571657
79	0xbdb2d8bd	-0.08732746
80	0x3e300fd0	0.17193532
81	0x3efb540a	0.49087554
82	0xbe4f4dfc	-0.20244592
83	0x3e19a7c2	0.15005401
84	0xbf2af039	-0.667728
85	0x3f05dd8b	0.5229117
86	0x3ee2e028	0.44311643
87	0xbb4e02c6	-0.0031434759
88	0x3e84e31a	0.25954515
89	0xbe997c4a	-0.29977638
90	0x3edde474	0.43338358
91	0xbe8496d7	-0.25896332
92	0xbd4c9fd5	-0.049957115
93	0x3ea20106	0.31641406
94	0xbd841d3c	-0.064508885
95	0x3f056fdb	0.521238
96	0xbf0c06c3	-0.5469782
97	0x3dd57a34	0.10423699
98	0x3ede4984	0.43415463
99	0xbe13646a	-0.14393774
100	0xbec274f2	-0.37979847
101	0x3e56d52d	0.20979758
102	0x3da3676e	0.07978712
103	0x3e56807c	0.2094745
104	0x3eb684ea	0.3564828
105	0xbf7f39e7	-0.99697727
106	0xbe9b7406	-0.30361956
107	0x3eedd020	0.4644785
108	0x3f6369c4	0.8883326
109	0x3cc96856	0.024585884
110	0x3eec7355	0.4618174
111	0x3f00ea5a	0.5035759
112	0xbdd62bb4	-0.104575545
113	0xbebb9b08	-0.36641717
114	0x3ece7bf2	0.40328938
115	0xbd0df05d	-0.034653056
116	0xbf3a329d	-0.7273348
117	0xbed399c0	-0.4132824
118	0xbf24a380	-0.6431198
119	0xbdcfb2bc	-0.10141513
120	0x3f3dd799	0.741571
121	0x3f2d302b	0.67651623
122	0xbefd7633	-0.4950424
123	0xbd19973a	-0.037497737
124	0x3e76771b	0.24068873
125	0x3b5ffc02	0.0034177308
126	0xbdf40d78	-0.119166315
127	0xbf18136c	-0.59404635
128	0x3e02c329	0.1276976
129	0xbec713cc	-0.3888229
130	0x3f3a7a80	0.7284317
131	0xbe7a68be	-0.24454018
132	0x3e8dafd0	0.27673197
133	0x3e5d9009	0.21636976
134	0x3f0fbf31	0.5615111
135	0xbe9fc15e	-0.31202215
136	0xbef088d8	-0.46979403
137	0x3e89336d	0.26797047
138	0xbe4a2183	-0.19739346
139	0x3ec18bf5	0.3780209
140	0xbee08883	-0.4385415
141	0x3ee6a7cc	0.45049894
142	0xbea3ce34	-0.31993258
143	0x3e7f818e	0.24951765
144	0xbeccd2df	-0.40004632
145	0xbe3804f5	-0.17970641
146	0x3ec61454	0.38687384
147	0xbda3084d	-0.079605676
148	0x3f076907	0.52894634
149	0x3db22a5c	0.08699486
150	0xbee0fd06	-0.43943042
151	0xbe771d2c	-0.24132222
152	0xbedc66d5	-0.43047205
153	0xbf638d3e	-0.88887393
154	0x3de4b0c4	0.11166528
155	0xbf2ac49f	-0.6670627
156	0xbe9bfaa6	-0.30464667
157	0x3e83c4d2	0.257361
158	0x3d58a0ea	0.052887835
159	0xbee9603a	-0.45581228
160	0x3f057b0e	0.5214089
161	0xbdf87b99	-0.121329494
162	0xbe645451	-0.22297789
163	0x3e3afcf9	0.18260564
164	0x3e1eca04	0.1550675
165	0xbee436bb	-0.44573006
166	0x3f23339e	0.63750637
167	0x3f3cd62a	0.7376429
168	0xbeb61a43	-0.3556691
169	0x3e0b7694	0.13619453
170	0x3f386da3	0.7204229
171	0xbe106db5	-0.1410435
172	0x3dfba4da	0.12287302
173	0x3e29e8f7	0.16592775
174	0x3e87b83d	0.2650775
175	0x3e07f9b0	0.13278842
176	0x3e692096	0.22766337
177	0xbf22dca0	-0.636179
178	0x3ef340c8	0.47510362
179	0xbe3c7937	-0.18405615
180	0x3e8299fa	0.255081
181	0xbe336c3f	-0.17521761
182	0x3ec28005	0.37988296
183	0x3ed7fcbb	0.42185006
184	0x3f4fd4fe	0.81184375
185	0x3f8cf110	1.1011066
186	0xbe9349c3	-0.28767213
187	0x3ee13052	0.43982178
188	0xbe2e0ab4	-0.1699627
189	0xbdb16a10	-0.08662808
190	0xbf465ace	-0.77482307
191	0xbe8334fd	-0.25626364
192	0x3f127158	0.572042
193	0x3e95fc7f	0.29294202
194	0x3ece6427	0.40310785
195	0x3f22eade	0.6363963
196	0xbe786599	-0.24257506
197	0xbed62299	-0.4182327
198	0x3e829551	0.25504544
199	0xbc31dea5	-0.010856305
200	0x3e58176a	0.21102682
201	0x3f6499b0	0.8929701
202	0xbeb74cf2	-0.35800892
203	0x3e2b889a	0.16751328
204	0xbea118d0	-0.31464243
205	0xbf2e541c	-0.6809709
206	0xbe4b09fd	-0.19828029
207	0x3e6c79c0	0.23093319
208	0xbf0fe411	-0.56207377
209	0xbd6c092a	-0.057625927
210	0x3ee18077	0.44043323
211	0x3d88ddae	0.06682907
212	0xbf3ddbe1	-0.74163634
213	0x3d38eb56	0.04514631
214	0x3f09cbbb	0.53826493
215	0x3e9bcf2c	0.30431497
216	0xbe43efd8	-0.19134462
217	0x3eb70c76	0.35751694
218	0x3f17273c	0.5904424
219	0x3ea9a92b	0.33136877
220	0x3e779092	0.24176243
221	0xbe080d35	-0.13286288
222	0x3ee47463	0.44620046
223	0x3d973f31	0.073851
224	0xbcbf75bc	-0.02337157
225	0xbe11fc3b	-0.14256375
226	0x3f334eed	0.70042306
227	0x3cc80c80	0.024420023
228	0x3e89453e	0.2681064
229	0xbe7634f6	-0.2404364
230	0xbd87effc	-0.0663757
231	0x3ec476a8	0.38371778
232	0x3e8145e9	0.2524865
233	0x3d95c7af	0.07313477
234	0xbeaa6b81	-0.33285144
235	0x3d87fc7a	0.06639953
236	0xbe76d3ae	-0.24104187
237	0x3f2b6270	0.6694708
238	0x3e777057	0.24163948
239	0xbda39f73	-0.07989397
240	0x3e920330	0.28518057
241	0x3c5c8202	0.013458731
242	0xbe7bf879	-0.24606504
243	0x3e3ffe20	0.18749285
244	0x3ef5d380	0.48012924
245	0xbec53d33	-0.38523254
246	0xbd5a5d37	-0.053311553
247	0x3c936865	0.017994115
248	0x3e43c506	0.19118127
249	0x3eaa15fe	0.33219904
250	0x3e488a09	0.19583906
251	0xbedae2e7	-0.42751238
252	0xbe994dbe	-0.29942125
253	0x3e3bb130	0.1832931
254	0x3ede261b	0.43388447
255	0x3e010315	0.12598832

decoder.dec2.bias f4 [39]
0	0x3d02a97e	0.03189992
1	0x3d265163	0.04060496
2	0x3c59b43a	0.013287598
3	0x3ca8a795	0.020587722
4	0x3a4212c2	0.0007403308
5	0x3c684bcf	0.01417823
6	0xbe0f2fb1	-0.13983037
7	0x3d4db0d5	0.05021747
8	0x3debf05d	0.11520455
9	0x3c7f4dc2	0.015582504
10	0x3de15b90	0.11003792
11	0x3d8725d4	0.06599012
12	0x3dcaacb0	0.09896219
13	0x3d8289f9	0.063739724
14	0x3d00e610	0.031469405
15	0xbd0fe68a	-0.03513197
16	0xbc6110a0	-0.013736874
17	0x3db7fef9	0.08984179
18	0xbc3ff5a2	-0.011716278
19	0x3d694ecf	0.056959923
20	0xbc4cbdf8	-0.012496464
21	0x3d9fb735	0.07798616
22	0xbd0e1e0b	-0.03469662
23	0x3de8bbf0	0.11363971
24	0xbb177072	-0.0023107794
25	0xbc373c03	-0.0111837415
26	0x3e1bc1ca	0.15210643
27	0x3d2ac40b	0.041690867
28	0x00000000	0.0
29	0xbc5a0a4c	-0.013308119
30	0x3e1a1575	0.15047248
31	0xbc85ceeb	-0.016334018
32	0x3d022f05	0.031783123
33	0x3e0a73ed	0.13520785
34	0xbce21882	-0.027599577
35	0xbcbf4b2d	-0.023351276
36	0xbd7c5021	-0.061599854
37	0x3d86f8e3	0.0659044
38	0xbc0e8552	-0.008698778

decoder.dec3.weight f4 [58, 39]
0	0x3d9260a0	0.07147336
1	0xbf11803c	-0.56836295
2	0x3e0ecfe7	0.13946496
3	0xbdac127f	-0.08401965
4	0x3ca40925	0.020023892
5	0x3e50da70	0.20395827
6	0xbd8df17b	-0.06930824
7	0xbe052311	-0.13001658
8	0xbdc0a42c	-0.09406313
9	0x3c668d17	0.014071724
10	0xbd94cb3f	-0.072653286
11	0xbdbb6dcf	-0.09151804
12	0xbe0ff719	-0.14059104
13	0xbd28cffb	-0.04121397
14	0xbe9b319b	-0.30311283
15	0x3e54c8a1	0.20779659
16	0x3e9eb500	0.30997467
17	0x3a82fead	0.0009994112
18	0x3ec7b757	0.39007065
19	0xbf28b192	-0.6589595
20	0x3eac3c31	0.33639672
21	0xbdf10776	-0.11769001
22	0x3dd4e1c1	0.10394622
23	0xbe33e807	-0.1756898
24	0x3d9367e2	0.071975484
25	0x3ed7f26e	0.42177147
26	0x3e5b5d70	0.21422362
27	0x3f1c33a7	0.61016315
28	0x3e864fae	0.26232666
29	0x3eee66bd	0.46562758
30	0xbdb88e43	-0.09011509
31	0xbea1a97f	-0.31574628
32	0x3bfb748a	0.0076738046
33	0x3db97682	0.09055807
34	0xbeaac2be	-0.33351701
35	0xbe932e08	-0.28746057
36	0x3d89c663	0.067272924
37	0x3c34e147	0.011040038
38	0x3de5c7a7	0.11219721
39	0xbe70e3ac	-0.2352435
40	0x3f608152	0.8769733
41	0x3e5eaec0	0.2174635
42	0x3ebd90d5	0.3702456
43	0x3d66af86	0.056319736
44	0x3e628b82	0.2212353
45	0x3f5a8689	0.85361534
46	0x3e3db953	0.18527727
47	0xbc49c7d9	-0.012315714
48	0xbe7b3067	-0.24530183
49	0x3eb0f5b6	0.34562463
50	0x3d1eb952	0.038750954
51	0xbe0cb895	-0.13742287
52	0x3e89ae6b	0.26890883
53	0x3dc28dbf	0.09499692
54	0x3e0e66bb	0.13906376
55	0xbcbd3e08	-0.023100868
56	0x3e8d4c24	0.27597153
57	0x3ec8b88d	0.392033
58	0x3e20aa4e	0.15689966
59	0x3ed508c4	0.4160825
60	0xbef97de4	-0.4872886
61	0x3e4aac4d	0.1979229
62	0xbe85cd16	-0.2613303
63	0xbebfa5ad	-0.37431088
64	0x3e1a4ab3	0.15067558
65	0x3f393185	0.72341186
66	0x3e309e07	0.17247783
67	0x3ec0fc4a	0.3769248
68	0xbea5eb70	-0.32406187
69	0x3eeb6d5b	0.4598187
70	0xbe52a1aa	-0.20569482
71	0x3eaaa350	0.33327723
72	0x3ec8e525	0.39237323
73	0x3f2fe382	0.68706524
74	0x3dd5492a	0.104143456
75	0xbedc795e	-0.43061346
76	0xbe696cb3	-0.22795372
77	0x3e1483eb	0.14503448
78	0x3e8afee5	0.27147594
79	0xbe52712f	-0.20550989
80	0x3e85d04b	0.26135477
81	0x3d594d90	0.053052485
82	0x3e96cd24	0.29453385
83	0xbec4ce41	-0.3843861
84	0xbf60d9c6	-0.87832296
85	0x3e879f58	0.26488757
86	0x3ee190d6	0.44055814
87	0x3e72458f	0.23659347
88	0xbcc2462e	-0.023715105
89	0x3e91e5bb	0.28495583
90	0xbebba49d	-0.36649027
91	0xbe92fe21	-0.2870951
92	0x3e7fa6e5	0.24966009
93	0xbe7f05c3	-0.24904542
94	0xbb7ca8ff	-0.0038552878
95	0xbef8698c	-0.48518026
96	0x3e0c778e	0.13717481
97	0xbe6f6ebf	-0.2338209
98	0xbea7db3e	-0.32784456
99	0xbe4be0d4	-0.19909984
100	0xbd094c96	-0.033520304
101	0xbc421126	-0.011844909
102	0x3e93cf47	0.28869078
103	0xbdba49db	-0.09096118
104	0xbeee895a	-0.46589166
105	0xbeabef05	-0.33580795
106	0xbe39f0ac	-0.18158215
107	0x3ed3e9ef	0.41389415
108	0x3d55cfa1	0.052199963
109	0x3e944a56	0.28962964
110	0x3ec6241f	0.38699433
111	0x3e47733f	0.19477557
112	0x3f207659	0.62680584
113	0xbdb202ce	-0.08691941
114	0x3f040b81	0.51580054
115	0xbe1afc30	-0.15135264
116	0x3eb02f02	0.34410864
117	0xbbd059f0	-0.0063583776
118	0x3d2962ee	0.041354112
119	0xbe685dd7	-0.22692047
120	0x3e9103b6	0.28323144
121	0xbebe9b66	-0.37227935
122	0xbdf4a097	-0.119446926
123	0xbe75e4ac	-0.24013013
124	0xbe981fa5	-0.29711643
125	0xbc5e0b7a	-0.013552541
126	0xbe98dba4	-0.29855072
127	0xbe8a1b33	-0.26973876
128	0xbea4ded7	-0.32201263
129	0xbea74d9a	-0.32676393
130	0xbe1a9f54	-0.15099841
131	0x3e2aba1f	0.16672562
132	0x3dcc2902	0.09968759
133	0xbe682ebb	-0.22674076
134	0x3e953a68	0.29146123
135	0xbe9db6be	-0.30803484
136	0x3eb5ea58	0.35530353
137	0xbc9594da	-0.018259455
138	0xbe8a9056	-0.27063245
139	0x3cb378ab	0.021908125
140	0xbe037650	-0.12838101
141	0x3cfe3c06	0.03103448
142	0x3e3b13e3	0.18269305
143	0xbcd7814f	-0.026306776
144	0x3d08e6d1	0.03342325
145	0xbe092f53	-0.13396959
146	0x3e0966c1	0.13418104
147	0x3e80fc6b	0.2519258
148	0xbca1d251	-0.019753607
149	0x3e68698f	0.22696517
150	0x3dc2a0a7	0.09503298
151	0xbe13ae92	-0.14422062
152	0xbe9ec23c	-0.31007564
153	0x3db3cd70	0.087794185
154	0xbeac5144	-0.3365575
155	0x3e970e4d	0.29503098
156	0x3d998584	0.07496169
157	0xbf2d3e1b	-0.6767289
158	0x3e91b1f8	0.28456092
159	0x3e92b4d0	0.28653574
160	0x3e455f45	0.19274624
161	0xbddf94d7	-0.10917061
162	0x3f823c67	1.0174683
163	0xbecd5d57	-0.40110275
164	0xbe8dbbd9	-0.2768238
165	0xbe5e1816	-0.21688876
166	0x3f0b3564	0.5437834
167	0x3c16aeee	0.00919698
168	0x3c8f6d0d	0.017508054
169	0x3eb9e65f	0.36308572
170	0x3df2a8a5	0.11848573
171	0x3e429fdb	0.19006293
172	0x3e4c8e3c	0.19976133
173	0xbeb568db	-0.3543156
174	0xbd3c4ff6	-0.045974694
175	0x3e1d3829	0.15353455
176	0xbda85b34	-0.082205206
177	0x3e12fd7d	0.1435451
178	0x3d82bcdc	0.06383678
179	0x3ea30fd8	0.31848025
180	0x3e30a5ad	0.172507
181	0x3e05b9a2	0.13059095
182	0x3f2f3a11	0.6844798
183	0xbe99d623	-0.30046186
184	0x3e3910ed	0.18072863
185	0x3e7c12bc	0.24616522
186	0x3f1a330c	0.6023414
187	0xbd9db0c5	-0.07699732
188	0xbeb9228c	-0.3615917
189	0x3e68516d	0.22687311
190	0x3ec06ad6	0.3758151
191	0x3c312a67	0.010813332
192	0x3e4e1a13	0.20127134
193	0xbe80fd55	-0.25193277
194	0x3e830943	0.25593004
195	0xbecf209a	-0.4045456
196	0x3f0ce92d	0.550433
197	0xbd5aa6e1	-0.053381804
198	0x3e4ef8a3	0.20212035
199	0x3e630454	0.2216962
200	0x3e81eaa6	0.25374335
201	0x3dd16777	0.102248125
202	0xbf899a9e	-1.075031
203	0xbe445be1	-0.19175674
204	0x3e97594d	0.2956032
205	0xbda4f48e	-0.080544576
206	0xbe036b4d	-0.12833901
207	0xbc9f3a57	-0.019436998
208	0xbe6f96b8	-0.23397338
209	0xbe6713b1	-0.22566105
210	0x3ec1281d	0.37725917
211	0xbdcb32f0	-0.09921825
212	0x3d6184a5	0.05505814
213	0x3e5ef969	0.2177483
214	0xbeaaea51	-0.33381894
215	0x3ef95770	0.48699522
216	0x3ed570ad	0.41687527
217	0xbe4db0e2	-0.20087007
218	0x3e7d94ee	0.24763843
219	0xbeba6a96	-0.36409444
220	0x3ef0273b	0.4690493
221	0x3e54d2dc	0.20783561
222	0xbe70afb5	-0.23504527
223	0xbeb0930f	-0.34487197
224	0xbe295d15	-0.16539414
225	0xbd36677d	-0.044532288
226	0xbe981ab2	-0.29707867
227	0x3debc7f7	0.1151275
228	0x3ea27fd0	0.31738138
229	0xbdbad8e4	-0.091234
230	0xbd6e42b7	-0.058169093
231	0xbccbad4a	-0.024862904
232	0xbc6d257d	-0.01447427
233	0xbdd79ea0	-0.10528302
234	0x3f3744b8	0.7158923
235	0xbe39c0a1	-0.18139888
236	0x3d8a2d8d	0.06746969
237	0x3ea612fb	0.32436356
238	0x3e36dcaf	0.17857622
239	0xbdf34d66	-0.11879997
240	0x3f6dad15	0.9284223
241	0x3e0e1ab0	0.13877368
242	0x3e839a9f	0.25703904
243	0xbbbb992a	-0.0057250457
244	0x3f16b81a	0.58874667
245	0xbf250674	-0.6446297
246	0x3e55f4d5	0.20894177
247	0x3cf50e98	0.029914185
248	0xbe42a6b4	-0.19008905
249	0xbe9ed460	-0.31021404
250	0xbdf026da	-0.1172616
251	0xbddbb8b8	-0.10728592
252	0x3d8900aa	0.0668958
253	0xbe19753e	-0.1498613
254	0xbef700b6	-0.4824273
255	0x3f1f471d	0.62217885

decoder.dec3.bias f4 [58]
0	0x3cbdd33d	0.023172015
1	0xbc96ed3d	-0.01842367
2	0xbd29174b	-0.04128198
3	0xbb87b151	-0.004141011
4	0xbb4e3a15	-0.0031467725
5	0xbd9c293b	-0.076250516
6	0x3c230b45	0.009951417
7	0xbc0700b5	-0.008239915
8	0x3d18c4a0	0.03729689
9	0x3d1f3e03	0.0388775
10	0x3db9483a	0.09046979
11	0x3c565396	0.013081452
12	0x3cf42197	0.029801173
13	0x00000000	0.0
14	0xbd3de310	-0.04635912
15	0x3d35dafb	0.04439829
16	0x3d9c31a9	0.076266594
17	0x3d61cca1	0.05512679
18	0x00000000	0.0
19	0x3cffff8a	0.03124978
20	0xbc2472fd	-0.010037181
21	0xbc14158f	-0.009038343
22	0x3c590245	0.01324517
23	0x3bc0bd38	0.0058819316
24	0x3db39518	0.08768672
25	0x3d5f4898	0.05451259
26	0x3ae8500b	0.001772405
27	0x3d06a5c7	0.03287294
28	0x3d508f48	0.050917894
29	0x3daaddd3	0.08343091
30	0xbd5886f1	-0.052863065
31	0x3db3ff23	0.08788898
32	0x3dcd6a44	0.10030034
33	0x3cbfa09b	0.023392012
34	0x3c556eca	0.013026902
35	0x3dbd9b58	0.09258145
36	0x3d377e61	0.04479826
37	0xbcffcd70	-0.03122589
38	0x00000000	0.0
39	0xbd0747b5	-0.03302737
40	0x3d774845	0.060371656
41	0x3df7c64f	0.12098371
42	0x3daa2820	0.083084345
43	0xbd99bf6f	-0.07507216
44	0xbd056868	-0.032570273
45	0x3da70a67	0.08156281
46	0xbcd80f63	-0.026374524
47	0x3d436ddd	0.047712196
48	0xbc9e60e3	-0.019333309
49	0xbccb2cef	-0.0248017
50	0x3dc89bad	0.09795318
51	0x3d9b2741	0.075758465
52	0x3d498798	0.049201578
53	0x3ddaa282	0.10675527
54	0x3d029d79	0.03188846
55	0x3d85f89f	0.06541561
56	0xbd1fa8f7	-0.038979497
57	0x3d6abbcf	0.057308014
