IDS_TA/initial_Models/CADE-m1.0-l0.001.pth (torch, 67994 bytes, 16 tensors)

encoder.enc1.weight f4 [58, 78]
00000000: ba8e 213e cb2f 44be aa07 8cbd 0911 81be
00000010: 3687 513d 9a86 113e 3164 f43d a46c 1ebe
00000020: 0a62 a23d 47bb 0fbe aa20 823d 675d afbd
00000030: b949 3fbe 2bdf 04be 3ff9 6abe e2cf 34be
00000040: 71f1 a53d c822 453e 2080 6c3e 801b 9bbd
00000050: 5a54 563e 546d 82be 3e9c 36be c684 d23d
00000060: 9aac 5e3e 3038 053c 9b27 67be 04b3 f43c
00000070: c123 4c3e 4334 bdbd 4b8c 863e 77b0 fdbe
00000080: 48c4 7dbe 5e35 4dbe 7b66 85bd adb7 02be
00000090: 109a a5bd ec18 17bf 9aee cebe 713d 073e
000000a0: 9ba2 9abd abcb 0a3e 9352 63be fe93 f43e
000000b0: e44a 0d3e ea43 9a3d af53 673d f88e adbe
000000c0: dac3 9dbe 70d8 e4bd bf4b 953d 2c44 f0bd
000000d0: d838 653e c241 9bbe 2fab 2bbe 1fe3 9bbc
000000e0: 9a09 27be fecc 1b3f 60b8 96be b72c 38be
000000f0: c5e3 bfbb b9f8 83bd 23d9 9fbe 3d11 993d
00000100: 38f6 2e3e 990a 423e 8e79 16bc d6a0 16be
00000110: 39d1 4d3d baf9 333e ae2b 23be afa5 23be
00000120: aa9f 6a3e 354b 4c3e 2202 5e3d 77ec 5c3e
00000130: 6055 983c 63d9 733d d00c 55bd d0e4 8bbe
00000140: 0f72 ddbd d755 763e b45d 463e 6d89 dd3d
00000150: cb1c c63d 916c dd3d 6548 823e a2e8 603e
00000160: f6c8 84be 9fcf 103e 3cc1 043d d1dc 343e
00000170: 40e6 82bd 567e 2abe 7e5d 9abd 5104 3cbd
00000180: 3311 34be d8ee 583d 243c 6f3e acb3 5d3e
00000190: 9c6a 113e 4b21 9d3e bdf1 923d d1f5 6e3d
000001a0: 0c2f 73be dea1 ed3d 1231 e5bd 9f3a 1a3e
000001b0: 67e9 273e 3007 73bd c8bb 72be dea4 083e
000001c0: 79d1 1cbe 1304 f23d 2e16 563e 9068 5fbe
000001d0: 3003 5cbe b7bd 04be 9f03 4abd 2e16 c7bc
000001e0: 5bd6 743d 06a0 85be e5bc 6d3e 55a3 c83d
000001f0: 2602 183e eb7b 033b 7da9 2a3e 5fb4 bc3d
00000200: b555 5c3e 8520 573e 7a99 f43d 2573 60be
00000210: 85f6 383e 4e09 79be 9750 09be 0cf4 b9be
00000220: e043 89be 0351 5e3c 7547 dfbd cbdc 47be
00000230: da19 813e d0c3 d13d d4fa 0bbe a1d4 6c3d
00000240: cf91 e6bd 3a74 86be 3dfb 87bd 9d50 22bd
00000250: d723 f73d af4e 16be 0ad3 b1bb 5c6a 81ba
00000260: c55a 17be fc3b 353d 9311 48be 5b8b 853d
00000270: 8baf 69be 195a 7fbe dbaa 8cbe 7df0 973e
00000280: 8778 c7bd 8019 e73e 5a98 e9bd b673 b4be
00000290: 8a5f 0e3d 4874 9dbe 3353 4b3e 432e 493d
000002a0: fb1c 5ebe bde0 67be 0517 83bd cbf7 fb3c
000002b0: 9cf4 583e 0ff4 91bd 17f5 70be 052f a5bd
000002c0: 47be 40be 949c de3d 502b b73d a659 403e
000002d0: 8972 903d 42c9 eabd 8d52 163e aac4 e03d
000002e0: 4b73 95bd 99f3 ffbd bd1f bfbd a76e ba3d
000002f0: 380c e9bd 622c 4ebd 2110 08be 0c63 d63d
00000300: 775a a83e c189 753b 74d6 abbd 9c5f 1f3e
00000310: d7d1 bb3d 1aa9 3c3e 564f c13d 8ddf 80be
00000320: 14ac 513e 71f3 16bd 0f54 453e dcf8 9f3d
00000330: 24d9 14be 4e9d 12be db7f 883e c29b f9bd
00000340: d6d8 20be ae30 af3d dea2 1e3e e433 9b3e
00000350: 5558 06bd 3314 a93d 61c1 683d 980f 183e
00000360: 9434 833e 6304 a13d f33a 16bd 8f2e 76bd
00000370: c54c 03be 927b fd3b 5a5c 39bd df1e a63e
00000380: 5b99 593d c3b3 efbd 0d95 d33d f4bf b83d
00000390: d43c 32be 6800 1b3e ccb1 3b3e 80c5 f43d
000003a0: 3b5b 4d3e 5a63 af3d 9587 1a3e 2d49 bf3d
000003b0: 4af8 093e 4f57 e3bd a826 833e c780 583d
000003c0: 7ce8 4f3e 0032 53be b08f ad3c 5f63 0e3e
000003d0: f696 85bd 167b 2bbd e4c8 653b 576b 12be
000003e0: c789 d5bd 9ab4 583d a85a 06be 54a2 45be
000003f0: fb57 70be cd4b 3b3e 44e7 be3d e760 cebd
0.15777102 -0.19158857 -0.06837399 -0.2520831 0.051154338 0.14211503 0.119331725 -0.1547113
0.07928856 -0.14036284 0.063538864 -0.08562737 -0.18680467 -0.12975757 -0.22946642 -0.17657426
0.08102692 0.19251549 0.23095751 -0.075736046 0.20930615 -0.25474036 -0.17833039 0.10279231
0.2174553 0.008131072 -0.22573702 0.029870518 0.19935514 -0.09238484 0.2627891 -0.49548694
-0.24781907 -0.20039889 -0.06513687 -0.12765379 -0.08086026 -0.590224 -0.40416414 0.13207032
-0.07550546 0.13554256 -0.22199468 0.4776916 0.137981 0.07532485 0.05647629 -0.3389814
-0.30813485 -0.11174095 0.07289838 -0.11731753 0.22384965 -0.30323607 -0.1676452 -0.019029198
-0.16312256 0.6085967 -0.29437542 -0.17985807 -0.0058560097 -0.064439245 -0.3122035 0.07473991
0.17086112 0.18949355 -0.009184254 -0.14709792 0.05024836 0.17575732 -0.15934631 -0.15981172
0.2291247 0.19950564 0.054201253 0.21574579 0.018595397 0.059533488 -0.052014172 -0.27323008
-0.108127706 0.24056183 0.19371682 0.108172275 0.096734606 0.10811723 0.25445858 0.21963742
-0.2593457 0.14141701 0.032410845 0.1766236 -0.06391573 -0.16649756 -0.075373635 -0.045902554
-0.17584686 0.052962154 0.23362786 0.2165057 0.14200824 0.30689463 0.07175014 0.058339898
-0.23748416 0.11603139 -0.11191 0.15061425 0.1639763 -0.059333026 -0.23704445 0.13344142
-0.15314282 0.11817183 0.20906898 -0.21817231 -0.21485591 -0.12962995 -0.04931986 -0.024302568
0.059774738 -0.2609865 0.23216589 0.09796778 0.1484457 0.0020062875 0.16666217 0.092140906
0.2151707 0.21008499 0.11943336 -0.21918924 0.1806279 -0.24319956 -0.13409649 -0.36319005
-0.26809597 0.013569119 -0.10902301 -0.1951782 0.25215036 0.102424264 -0.13669902 0.057819966
-0.112582795 -0.2626055 -0.06639717 -0.03962766 0.12067383 -0.14678453 -0.005426769 -0.0009873617
-0.1478072 0.04424666 -0.19537954 0.065207206 -0.2282087 -0.24936713 -0.27474102 0.29675665
-0.09739786 0.45136642 -0.11406012 -0.3524453 0.034759082 -0.30752778 0.19855957 0.049116384
-0.21690743 -0.22644325 -0.06400875 0.030757805 0.21187061 -0.071266286 -0.23530994 -0.08065609
-0.18822585 0.10869709 0.08943808 0.18784198 0.07053096 -0.11464168 0.14679928 0.10975011
-0.07297381 -0.124976344 -0.093322255 0.091031365 -0.11379284 -0.050335295 -0.13287403 0.104681104
0.3288152 0.003746614 -0.08390513 0.15563816 0.09170883 0.18423882 0.0943896 -0.25170556
0.20475799 -0.036853258 0.19270347 0.07811138 -0.14535958 -0.1431782 0.26660046 -0.121879116
-0.15707716 0.08554207 0.15491816 0.30313027 -0.032799084 0.08255806 0.056825045 0.14849699
0.2562605 0.07862165 -0.036677312 -0.060102995 -0.12822254 0.007735678 -0.04525409 0.32445428
0.053124767 -0.11704209 0.103311636 0.09020987 -0.17406017 0.15136874 0.18329543 0.11951733
0.20054333 0.08563872 0.15090783 0.09340129 0.13473621 -0.11100637 0.2561543 0.052857187
0.2030353 -0.20624542 0.02118668 0.13905095 -0.06522934 -0.04186543 0.0035062367 -0.1429876
-0.104266696 0.05290661 -0.1312052 -0.19300205 -0.23471062 0.18290634 0.09321454 -0.100770764

encoder.enc1.bias f4 [58]
00000000: 645c 21bd 11fe 2f3d f52d df3d d3b8 493d
00000010: d20e b43d e619 bb3c a962 023e f1cd 063d
00000020: b3a0 fd3b 98a9 193d 4772 453d 13ad a73d
00000030: 3d40 603d 18a7 d83c de1d 9fbd 4120 a73d
00000040: 3f76 2e3d 6f3e e23d 171d bebb 69f2 38bd
00000050: b8da b93d e5aa 8eba 57f1 40bd cc96 ce3b
00000060: 1003 18bd 3df8 9b3c e1ed 9b3c f458 e13d
00000070: 84d5 a63c 949f 473d 2f3f 1bbc 9d36 3abb
00000080: e35d 04bb 9454 0cbd 23b5 4b3c d162 e83d
00000090: 63a8 ec3d 2f6f d63c 70c3 5abc e455 0e3d
000000a0: 1e4f 0b3d 0940 3bbd 442c 13bd f155 673c
000000b0: 418f b4bc adbd b43d 8371 f63c 37d7 02bd
000000c0: 93da 2cbc db11 62bc 7e77 443d f095 0b3d
000000d0: 95ce 0dbd c58e 763d 0544 26bc e25b 0e3e
000000e0: 98f7 943d e26b c3bc
-0.03939475 0.042966906 0.108974375 0.049248528 0.08791889 0.022839498 0.12732948 0.032911245
0.007740104 0.037515253 0.048204686 0.08187308 0.054748762 0.026446864 -0.077693686 0.08160449
0.042593237 0.110470645 -0.0058018076 -0.045153055 0.090749204 -0.0010884671 -0.04710516 0.0063045975
-0.037112296 0.019039268 0.019034328 0.110032946 0.020365484 0.04873617 -0.009475513 -0.00284139
-0.0020197562 -0.034260347 0.012433323 0.11346973 0.11555555 0.026176063 -0.01335226 0.03474988
0.034011 -0.045715366 -0.035930887 0.014119611 -0.022040965 0.0882524 0.030083423 -0.031943526
-0.010550159 -0.013798202 0.04796552 0.03407854 -0.03462084 0.06019475 -0.010148053 0.13902238
0.07273787 -0.023855153

encoder.enc2.weight f4 [39, 58]
00000000: 4a57 81bd 9936 433e b2d2 d5bd bb3c 81be
00000010: 5968 9ebe df11 9ebe 7a34 38bd 2168 993d
00000020: 2401 1d3e 2c2b 8dbd 549a 16be 6f4d 703e
00000030: a048 df3c 6cf3 1dbe 4712 70be 8b81 87bd
00000040: dacd 56be fc2a 1dbe f969 a43e 11f1 2bbe
00000050: 7209 613d 02ca 8e3d 29ad 86be 507c 213e
00000060: f6cb 9cbe 7983 093e 0e96 95be 4892 32be
00000070: c122 e93c 25ac 28be 3500 97be 29a2 75be
00000080: 6571 033e 5c8f 4abe 1d70 43bc 9b81 61bd
00000090: 2e6c 04bd ac13 c6bd 9339 6ebe 269d a7be
000000a0: 605d 123e b718 22be 40af 88be e21e 4dbd
000000b0: 49f4 97be 937e 94be c16a 8a3e 7977 b93d
000000c0: c3cf 463e 1679 9f3d 5a7a 02be 059d 753e
000000d0: 69ed 9bbe 3502 0fbe 1c81 4f3d 363d abbd
000000e0: 279b 09be d6fb 7e3e 2111 92bc 0e5b 0a3e
000000f0: 2910 853e 023b 7e3e 0ff1 26be 8edd d0bd
00000100: 0374 d83e a80b bfbd 0c7c 28bc 4251 5d3d
00000110: 1230 923e 7505 ef3d 8925 c43e 89d9 983d
00000120: 7424 84be 3727 3abe f4ac 283e 163d 3cbe
00000130: aeb7 07be 2843 5a3e d6e6 b63e 3cc0 80be
00000140: aef0 903d a796 903e 164c 6dbe 9e6c 153d
00000150: e8f8 393e 419c a93c 3b23 143e 4192 c6bd
00000160: 305f 07be 4286 2b3c 32f1 493e 88c8 4cbe
00000170: 06cb 1abd 7305 7a3e 4183 00bd 2065 07be
00000180: c15a 2d3e d1ce 66be 9b74 813e d284 da3e
00000190: a94f 99be 350b a0bd c308 4bbe 3639 0dbe
000001a0: f259 323e c26a 2fbe 9d5e 7fbe 5ea2 d73d
000001b0: 4610 56bd 9b65 26be 9094 113e e625 fd3d
000001c0: e0cf a33d 3097 e43c 9560 95bd 52e9 d6bd
000001d0: 97d7 e43d 7d4f 4abd aaa4 89bd ac57 0bbe
000001e0: 943b 97bd 350f e0bd 2519 98bd b952 243d
000001f0: e989 6bbe 511b 86be 4a5f 023b 1c00 6ebe
00000200: 48cb 55be 4070 193e 698a 9d3e 75f4 983d
00000210: bded 23be ac2e 25be 6524 d5bb 89b5 32be
00000220: 376a 3f3e 4831 65be f639 85be 8260 fdbd
00000230: 02d8 7ebe ba2e 5c3e 69ab 75be e91d 92bd
00000240: a4ce 99be 0794 95be f46e 6d3e c4aa 84be
00000250: fc9a 723e 82df 7cbd 466b 833e d6cb 783e
00000260: 6207 28be c752 d0bd 290b d63d 4c5c e73d
00000270: 752d 4dbe e23e 2f3e ad4a 83be 8290 8abe
00000280: 7f07 cb3c b82d 81be 6f8d 8cbe e416 82be
00000290: cc56 a4be a9ed c2bc f0a7 78be 6559 983e
000002a0: f3a4 6bbc 287f 60be 13de 843e 31f7 933e
000002b0: b4ef 6d3e 4bd9 6b3d a7ce 8abd 121b 783d
000002c0: bc0c 313e 6338 283e 872c b4be 9ca6 fdbd
000002d0: 5ce5 79be c388 40be 42e8 3bbd b6ef a4bc
000002e0: e398 8c3d a636 823d cfe0 d93d 259b 85be
000002f0: 4652 cc3e d485 01bd 18d2 3e3e 435a 903e
00000300: a1d9 b2bd d060 7b3d 4946 353e 15bd a53e
00000310: 611b 54be a51a 493e 4ba7 123d 7ea2 08bb
00000320: eb57 263e 09d4 a93d 5c7f 0a3e 7df5 5a3d
00000330: fa66 21be 7da5 973d 31b5 083e 51d8 7f3d
00000340: f112 3f3e 9657 003e 3db3 38be 6e23 53be
00000350: 4253 513e af18 19be c450 31be 4631 c73d
00000360: d7ce 13be f04d 41be 1e68 d73d 3228 053e
00000370: 23a9 9b3e eb7b 983e 3da7 503c 78d3 793e
00000380: 4ece 343e a3a9 01be ae91 f3bd 0948 b43d
00000390: 384d 3c3d 5e2b 52be 451f 873d 7f20 9f3e
000003a0: 91eb 173d 00b9 5b3e aae9 d43d 9a79 a93d
000003b0: a2d6 b93c b902 ffbd 8bdf c33d 94df 81be
000003c0: 3bd2 353c 40a3 e2bd c826 21ba b369 54be
000003d0: bb5a 9e3c d58a 003e e934 95be 9d90 61be
000003e0: 432a 6ebe fca5 b13e 4fe0 d6be be2d fdbc
000003f0: d2be c7be 9654 9cbe d8d9 903e cfca 9b3e
-0.06315477 0.19063796 -0.104405776 -0.25241646 -0.30938986 -0.3087301 -0.04497192 0.07490564
0.15332466 -0.06893 -0.14707309 0.23467039 0.02725631 -0.1542489 -0.23444472 -0.06616505
-0.20976964 -0.15348428 0.321121 -0.16791178 0.05494065 0.06972124 -0.26303986 0.15770078
-0.3062436 0.13429059 -0.29216045 -0.17438614 0.028458955 -0.16471918 -0.29492345 -0.2398764
0.12836225 -0.1978125 -0.011928585 -0.055055242 -0.03232973 -0.09671721 -0.2326415 -0.32737082
0.14293432 -0.1582974 -0.26696205 -0.05007828 -0.29678562 -0.29002818 0.27034572 0.09055991
0.19415192 0.07786767 -0.12741986 0.2398568 -0.30454567 -0.13965686 0.050660238 -0.083612844
-0.13438092 0.24900755 -0.017830433 0.13511297 0.25988892 0.24827197 -0.16302894 -0.10198508
0.4227601 -0.09328395 -0.010283481 0.05403257 0.285523 0.11670963 0.38309887 0.074633665
-0.25809062 -0.18179022 0.16472226 -0.18382677 -0.13253662 0.2131468 0.3572299 -0.25146663
0.07077156 0.2823994 -0.23173556 0.03648054 0.18161356 0.02070439 0.14466564 -0.096958645
-0.13219905 0.010469021 0.19720915 -0.19998372 -0.037791274 0.24416141 -0.031375173 -0.1322217
0.16929151 -0.22539832 0.25284275 0.4267946 -0.29943588 -0.078146376 -0.19827561 -0.13791355
0.17417124 -0.17130569 -0.24938436 0.10529016 -0.052261613 -0.16249697 0.14216828 0.12360744
0.079986334 0.027904123 -0.07293812 -0.10493721 0.11173933 -0.049392212 -0.0672086 -0.13607663
-0.073844105 -0.109404005 -0.07426671 0.040117953 -0.23001827 -0.26192716 0.0019893222 -0.23242229
-0.20878327 0.14984226 0.3076966 0.074685015 -0.16008659 -0.16131085 -0.0065045827 -0.17452063
0.18692861 -0.2238208 -0.26020783 -0.12371923 -0.24887088 0.215022 -0.23991169 -0.07134611
-0.30040467 -0.29214498 0.23186857 -0.25911534 0.23691934 -0.06173659 0.2566778 0.24296507
-0.16409066 -0.101720385 0.104513474 0.11296901 -0.20036872 0.17113832 -0.2564291 -0.27063376
0.024783848 -0.25230193 -0.27451655 -0.2540809 -0.3209747 -0.023794966 -0.24282813 0.29755703
-0.014382589 -0.21923506 0.2595068 0.2889953 0.2323597 0.057580274 -0.06777697 0.06057269
0.17290014 0.1642776 -0.35190222 -0.12385294 -0.244039 -0.1880217 -0.045875795 -0.020133834
0.06865098 0.063580796 0.10638582 -0.26094928 0.3990652 -0.03162177 0.18634832 0.28193864
-0.08732916 0.061371624 0.17702593 0.3237082 -0.20713569 0.1963907 0.035804074 -0.0020848806
0.16244476 0.082923956 0.13525146 0.053456772 -0.15761939 0.07404611 0.13350369 0.062462155
0.1865957 0.12533411 -0.18037124 -0.20618984 0.20441917 -0.14950822 -0.17315966 0.09726195
-0.14434372 -0.18877387 0.10517906 0.13003615 0.3040248 0.29782042 0.012735185 0.24397075
0.17656824 -0.12662368 -0.118930206 0.08802802 0.04597208 -0.20524356 0.06597761 0.3107948
0.037089888 0.2145729 0.103961304 0.08275147 0.022685353 -0.12451691 0.09564122 -0.2536589
0.011097486 -0.11066294 -0.00061474415 -0.20743446 0.019330373 0.1255296 -0.2914193 -0.22027822
-0.23258309 0.3469695 -0.4196801 -0.0309056 -0.39012772 -0.30533284 0.28291202 0.30428168

encoder.enc2.bias f4 [39]
00000000: e4cf c6bc 3b0e 2e3d 110f 61bc 1712 8cbc
00000010: edd2 2e3c 03dd bc3d 743c a73c b739 5e3c
00000020: 483f 85bc 40d8 d3bc 1cc5 483d 77c0 553c
00000030: 7efe 32bd de3a a2bb 2a5e 933d b1ca 5ebc
00000040: 5297 443d 98a8 5c3d 328f 2cbb 2e81 b43c
00000050: 4486 3bbb c8ce 02bd 3fe6 08bc c5fa b2bd
00000060: e73f bc3d 666f b3bc 9e94 f23c 9427 b23c
00000070: 61cb 85bc 503a 3cbc 781e 473d c857 703c
00000080: 6918 9b3d a6ff d0bc be9f 07bd 3659 3b3b
00000090: 646e 363c 518f 9c3c 6a00 963c
-0.024269052 0.04249404 -0.013736502 -0.01709847 0.010670406 0.09221842 0.020414568 0.013563565
-0.016265526 -0.025859952 0.049016103 0.0130463755 -0.043699734 -0.004950865 0.07195695 -0.01359813
0.047995873 0.05387172 -0.0026330468 0.022034254 -0.0028613964 -0.031935483 -0.008355676 -0.08739237
0.09191876 -0.021903705 0.029611882 0.021747388 -0.01633233 -0.011488512 0.04861304 0.014669366
0.07573015 -0.025512528 -0.033111326 0.002858711 0.011134718 0.019111307 0.018310744

encoder.enc3.weight f4 [19, 39]
00000000: 074d e9bd d1e7 13be 46a1 563e f416 873e
00000010: bc25 c73e 98d7 4abe ea9e 93be ffd8 4c3e
00000020: 6bf4 41be c0a4 d9be 001c d83e 53e1 363d
00000030: 0b24 c73e 71ac ab3d 7b73 1dbe 8f3a d63d
00000040: ef42 85be 2104 edbe 4ed9 e63d 9bb6 2e3e
00000050: ba77 38be 5912 02be 320e 89bd cac0 e7bd
00000060: eecb 033f 23bc bf3d 6c7b d43d aa05 39be
00000070: 8773 123e 3ac8 983e 1545 893d 109f 51be
00000080: d461 de3e 5f9f 9abe 60fb 773d 698e 1fbe
00000090: e600 b0bd 292d 5a3e bdb8 f33d ae68 853e
000000a0: 8f04 923e 1e35 063e f8d1 7c3e be20 5f3e
000000b0: 41c6 d9bd cb2f 683e f2b3 fbbd dbc9 193e
000000c0: 2a12 4dbe 8d02 27be 69e0 f33d 4775 0e3e
000000d0: 00f4 6c3e c37c fb3d 3798 e2bd 308b 24bf
000000e0: 30b3 48be 08c7 2c3c 3ae8 b73d 05a8 a4be
000000f0: 672e 96be 8aa6 863d 8daa 00be 7e2f a03e
00000100: 69b6 8dbc 35e1 ec3e 873e e1bd 2e50 12bf
00000110: b40f 933e b3b1 f93d 11f5 15be 05ca 973e
00000120: 1755 b6be 1ccb dc3a aeec c0bd cfc8 863e
00000130: dac4 993e 92df c93e 14e4 9a3e fb47 903d
00000140: bcbb b33d 3d3f 613e c2b5 a33e 0e9e 993e
00000150: 7d03 a6bc a6c1 2b3d a614 15be 730f 91be
00000160: 65e6 bb3e 45f0 eabd c753 07be b1d7 a33e
00000170: da7b c43e 2d9e f83c f47f 79be f377 d3bc
00000180: 02f5 4fbe c0d4 d6be 6830 3a3e b4cb 52be
00000190: ca28 a9be bc1d 8c3d 14dd dabd f32a 87be
000001a0: 764a a8bc 1359 67be 7dac a7bc 64c3 853e
000001b0: bc13 fa3c aad5 953e e93b 363f d322 c7be
000001c0: cffb 79be 706f c13d 66ee 013d 3a75 d03e
000001d0: 2653 00be 257b 4abe c0c7 aa3e 8863 dc3d
000001e0: 7b02 ecbd ba80 68be 636e a3bd 7bc1 6f3e
000001f0: f8eb e1bd be10 28be 1f26 593b de6a 133e
00000200: 0173 b2bd a8d8 623d bbb0 533e 3faa 5a3e
00000210: 2db7 76be 289d 533c 5de6 3c3e 30c8 b7bd
00000220: 8a15 b33e b65a 02be f80e 33be c913 8ebd
00000230: e5f6 5c3e d5ef 9d3d 5119 a9bc cada cabd
00000240: 92c4 3abe 252c 343e 556d 173e 84fc 6cbe
00000250: 7773 d7b8 4608 b9be 4bba b63e 9701 473d
00000260: 0db2 8a3d 695a 4bbd 22da a3be 76a7 8ebe
00000270: 8f9f a4be 9324 8c3e 7cc9 5dbd 5c80 303e
00000280: 6988 80be df1b d63d 0e7e 04bf 7bb6 8f3e
00000290: ba97 423c 5ffe 9cbe 5459 6a3e 2a81 45bc
000002a0: 6ea5 683e 2fd9 173d 0ea6 45be 8b42 05be
000002b0: f06e 93be 855b 57be ea5b 13be ea40 9abd
000002c0: ac72 cebd dfd4 f4bd 2539 bbbe 3dce 1739
000002d0: 94bf 9fbd 7caf 71bd 656a ac3c 8cd4 21be
000002e0: 000e 12be f28b 903b 233e 34be 0236 dfbe
000002f0: 4aa4 febd 24e7 a4be 89b8 b2be 0d39 0bbd
00000300: 8d00 823e cef9 8b3e b882 203e 416c 5c3e
00000310: ca0c 07bd d705 edbc 5fb5 83be 1bf4 503e
00000320: c63e 47bf b158 bcbe 4f2d c1be d06c afbe
00000330: 6de9 393e a5c0 623e dcba 123e c598 50be
00000340: 5a2c da3d 845c f4bd 2275 7f3e ac86 c2be
00000350: fd16 633e 8bfb 02be 154a 983d b0e8 903e
00000360: bc8a 51bd 7c41 60bd eb86 acbe f7a1 a7be
00000370: 6b18 093e 4ed4 bf3d 0d83 adbe c41e 56be
00000380: a331 8bbd 9eef 453e 861b 7f3d 39c4 57ba
00000390: 42f1 10be 0fc8 eabd d156 15bf d75e 12be
000003a0: c385 d0bb 2fff a9bd 4a38 60be 0536 4bbe
000003b0: 43dd c73d 62a9 a33c e70d f6be 89d2 1abe
000003c0: 00f6 4cbe ff13 09bf 9431 a7be 345a 62be
000003d0: 2e88 3f3e 90ef 3b3d c288 993b 2310 cfbd
000003e0: b683 88bd 78ad 733e 7c77 8f3c c216 073e
000003f0: a8c8 5bbe 9220 613d 6801 96be bbeb e93e
-0.11391645 -0.144439 0.20959958 0.263847 0.38895977 -0.19808805 -0.2883218 0.20004652
-0.18940894 -0.42508507 0.42208862 0.04464848 0.38894686 0.083825 -0.15376084 0.10460388
-0.2602763 -0.46292213 0.11271916 0.17061846 -0.18014422 -0.12702312 -0.06692161 -0.113160685
0.51483047 0.09362056 0.10375103 -0.18068567 0.14301883 0.2984026 0.067026295 -0.20470834
0.43434012 -0.30199715 0.060542464 -0.15581669 -0.08593921 0.2130629 0.119004704 0.26056427
0.28519103 0.131062 0.24689472 0.21789834 -0.10633517 0.22674482 -0.12290181 0.15018408
-0.2002646 -0.16309567 0.11908037 0.13911925 0.23139954 0.12279656 -0.11064189 -0.64274883
-0.19599605 0.0105455 0.089798406 -0.3215944 -0.29332277 0.065747336 -0.1256506 0.31286234
-0.017298894 0.4626557 -0.10998254 -0.57153594 0.28722918 0.121920966 -0.14644267 0.29646316
-0.35611793 0.0016845199 -0.09420143 0.2632508 0.30032998 0.39428383 0.30252135 0.07044979
0.08776042 0.2199678 0.31974608 0.300034 -0.020265335 0.041932724 -0.14558658 -0.283321
0.36699215 -0.11471609 -0.13215552 0.32000497 0.3837574 0.030348862 -0.24365216 -0.025814032
-0.20308307 -0.4195919 0.18182528 -0.20585519 -0.33038932 0.06841609 -0.106866986 -0.26399955
-0.020543318 -0.22592573 -0.020467991 0.26125634 0.030526988 0.29264575 0.71185166 -0.38893756
-0.24412464 0.09445083 0.031721495 0.40714437 -0.12531719 -0.19773538 0.33355522 0.107611716
-0.115239106 -0.22705355 -0.07980039 0.2341365 -0.110313356 -0.16412637 0.0033134294 0.14396235
-0.087133415 0.0553824 0.20672886 0.21354006 -0.24093314 0.012915887 0.18447252 -0.089737296
0.3497737 -0.12729916 -0.17486179 -0.069373675 0.21578558 0.0771176 -0.020641955 -0.09905012
-0.18239048 0.17594965 0.147878 -0.23143202 -0.00010273506 -0.36139125 0.35689005 0.0485855
0.06772242 -0.04964677 -0.3200236 -0.27862138 -0.32152984 0.27371654 -0.05414723 0.17236465
-0.25104073 0.10454535 -0.51754844 0.2806891 0.011876995 -0.3066282 0.22885638 -0.012054721
0.22719356 0.037072357 -0.19301626 -0.13013665 -0.28795576 -0.21031006 -0.14390531 -0.075319126
-0.10080466 -0.119546644 -0.36567035 0.00014477312 -0.078002125 -0.059005246 0.021046827 -0.15803736
-0.14263153 0.004411214 -0.17601828 -0.43595892 -0.124336794 -0.32207596 -0.34906414 -0.033989955
0.25391045 0.27339023 0.15674865 0.2152567 -0.03297118 -0.028933449 -0.25724313 0.20405619
-0.7783016 -0.36786416 -0.3772988 -0.34262705 0.18155451 0.221438 0.14329094 -0.20370777
0.10652991 -0.119317085 0.24947026 -0.3799337 0.22176738 -0.12791269 0.07436005 0.28302526
-0.051157698 -0.05474995 -0.33696684 -0.32740757 0.13388221 0.09366666 -0.33889046 -0.20910174
-0.06796577 0.19329688 0.062282108 -0.00082308386 -0.14154533 -0.114639394 -0.58335596 -0.14293991
-0.006363602 -0.083006255 -0.21896473 -0.19844826 0.09758999 0.019978229 -0.48057482 -0.15119375
-0.20015717 -0.53546137 -0.32655013 -0.22104722 0.18704292 0.04588276 0.0046854923 -0.101105
-0.06665747 0.23796642 0.01751303 0.13192275 -0.21463263 0.054962702 -0.29297948 0.4568766

encoder.enc3.bias f4 [19]
00000000: 6d77 883c 37f5 5b3d 48d4 66bc 014a aabb
00000010: c9a6 22bc 0b93 16bd a251 023d 12e4 99bc
00000020: 42f2 d23a 8fee d8bc 6958 c03b 0e92 203d
00000030: e3a5 06bb c769 71bc 4549 e7bc c2cb 5fbd
00000040: 1877 59bd 1eb4 243d 7395 ecbc
0.01665851 0.053700652 -0.014088698 -0.0051968102 -0.00992746 -0.036761325 0.031816132 -0.01878551
0.0016093927 -0.026480941 0.0058699143 0.03920179 -0.0020545654 -0.014734692 -0.02823318 -0.054637678
-0.053092092 0.040210836 -0.028879857

encoder.enc4.weight f4 [7, 19]
00000000: 36b7 203e 1093 1ebe 45f3 81be 2058 353d
00000010: ee1b 2c3e 3c2c f2bb f457 a13e 2c86 7dbe
00000020: 194f 03bf 0d34 863e 5ce0 cc3e d3b9 a63e
00000030: 3fdb f23d cb4f b0bc c2b9 223e 6302 18be
00000040: fad8 a43e e070 2ebd 423c 7b3b 20ce 13be
00000050: 24bf a1bd f7de 103f 5526 c6be e57f 913b
00000060: 7dd9 003f 5622 2e3e 172b 14bf d636 0abf
00000070: 4b89 743e b58d 19bf 07b6 2d3e d86d 96be
00000080: 8899 de3e d9c0 19be 4c73 9c3e 0312 c0be
00000090: 54d0 fa3e 3548 933e 02fe 033e e4ad 10be
000000a0: a2c1 173f 7c50 c2be 93f9 86be 08a3 1f3e
000000b0: 7061 813d d17f 8cbe 23c6 adbd 0b73 d2bd
000000c0: 606f c7bd e15e 09be f87d 0cbf ef38 28be
000000d0: 35aa 0bbf 1f66 09bf e331 b3be 2cd4 e43e
000000e0: 789a 89be 225e ba3e 9194 d33e 25d0 cbbe
000000f0: 4956 ab3d f791 1cbe 5db5 3a3e cf81 b03e
00000100: bf06 b4be 6751 c1be 479f d3be a358 aebe
00000110: 3b9c c0be a7f3 eb3e 3884 f23e 8bdf 39be
00000120: 39f8 d1be 4240 95bc 045b 7f3c 1662 fd3c
00000130: 23db a3be 530e 723d f2e6 33be a476 263f
00000140: f456 c03e ab31 983e 5506 f7bd 8807 803e
00000150: b921 913e a9d1 af3d 4c88 2cbe 0f9b 15be
00000160: bf55 08be a4e3 f7be b935 c0be 048d b4bd
00000170: 2f03 c23e 3ca1 47be 90b4 83be e042 ac3e
00000180: bbc9 123e 7c71 d1be 063d 10bf 052f 8cbe
00000190: 253d 6dbe 2b57 b13d 312a 2bbe 95c3 00be
000001a0: 922e 6abc 17ad f1bd 9797 9b3d 4c81 343e
000001b0: bcd6 d03e 720d 9cbe 0bbe b63e a180 37bd
000001c0: a373 173e 7f3d ed3e 4d63 8f3e 1c6b f0bd
000001d0: 48c9 303e b24f 2c3e 0a91 4fbe 0541 453b
000001e0: 536c b43e 7dab 9abe b107 8dbe 70ca 6d3e
000001f0: 0c14 4abe 3447 14be 64ac 30bd 9cc0 863e
00000200: 3c8e 693e 9305 50be dcf9 9a3e 757c cabb
00000210: 76af 09be
0.1569489 -0.15485787 -0.25380912 0.044273496 0.1680753 -0.007390527 0.31512415 -0.24758214
-0.5129257 0.26211587 0.40014923 0.32563648 0.11858224 -0.021522423 0.15891173 -0.1484466
0.3219679 -0.042588115 0.0038335477 -0.14434099 -0.07897785 0.5659022 -0.3870112 0.004440295
0.5033186 0.17005286 -0.5787825 -0.53989923 0.23880498 -0.5998185 0.16963969 -0.2938068
0.4347651 -0.15014972 0.30556715 -0.37513742 0.48987067 0.28766027 0.12889865 -0.14128834
0.59279835 -0.3795203 -0.26362285 0.15589535 0.06317413 -0.27441266 -0.08485057 -0.10275849
-0.0973804 -0.134151 -0.54879713 -0.16427968 -0.5455659 -0.5367145 -0.34998998 0.44693124
-0.26875663 0.36399943 0.41324285 -0.3980724 0.08366067 -0.15290056 0.18233247 0.34474036
-0.35161397 -0.37757418 -0.41332456 -0.34052 -0.37619194 0.4608433 0.473665 -0.18151681
-0.4100969 -0.018219117 0.015585665 0.03093056 -0.32003126 0.059095692 -0.17568567 0.6502478
0.3756634 0.29725394 -0.120617546 0.25005746 0.2834604 0.085849114 -0.16848868 -0.14609931
-0.1331396 -0.48415864 -0.37540987 -0.08815959 0.37893054 -0.194951 -0.25723696 0.33644772
0.14334767 -0.40906894 -0.56343114 -0.27379623 -0.23167856 0.08659204 -0.16715313 -0.12574609
-0.01429333 -0.118005924 0.07597273 0.17627448 0.4078883 -0.30479008 0.35691866 -0.044800404
0.14790206 0.4633598 0.28005448 -0.117391795 0.17264283 0.16827276 -0.20270172 0.003009857
0.35238895 -0.3020896 -0.2754493 0.23221755 -0.1973421 -0.14480287 -0.043133155 0.26318824
0.22808164 -0.20314626 0.30268753 -0.006179387 -0.1344584

encoder.enc4.bias f4 [7]
00000000: 705d 03bd 1ed7 723d a234 af3b fadd 443c
00000010: f7fa 5d3c fae5 be3b 99de d4bb
-0.03207153 0.059287183 0.0053468505 0.012015814 0.013548604 0.005825755 -0.0064962623

decoder.dec1.weight f4 [19, 7]
00000000: 9596 d7be e6c4 fb3e 30dd c23e a0d5 8d3f
00000010: f8fa 09bf 83db c7be 0c43 38bf 06c5 8d3f
00000020: 6089 4a3f bd8c 83be fe77 4abf a5cd 98be
00000030: a0dc 213f f26d 1fbf 6964 34bf 8703 9bbc
00000040: 17ed 273c 417e 113e 1bb2 5ebf d15e 52bf
00000050: b1b0 44be 0b8a 533f 8899 e8be 9bed 583f
00000060: 5b07 223f a488 403f 6f56 d73e 38a1 dc3e
00000070: 49dc bcbe 62bf 383f 464b 5cbf 0a1c be3d
00000080: eb52 72bf 5268 a7bf 8c25 3c3e fec7 0e3f
00000090: fb70 aebe 3ce0 933e 96f3 a3be 228f bc3e
000000a0: be29 233f f18d 15bf 0955 7ebf dc97 d13e
000000b0: 0a2a fcbc 9b72 7cbf bd32 10bf 2af5 7abf
000000c0: 74da 9cbf d4ab d0be 4da6 3abf b89e 103f
000000d0: 06b6 f4be 550f cd3e 832d e1be c337 7b3f
000000e0: 1b80 143f 5d38 683f 5dcd 5dbf 633a f43e
000000f0: a650 d4bd 9db0 813e 39ce 38bf b549 0dbf
00000100: 7c08 a83d e495 dc3d cdfe 213f 46b6 ea3e
00000110: 50ab 64bf f0c9 993e 6d87 ab3e ffbb 3b3f
00000120: 388a 2f3f 2014 833e f530 0f3f 5ffa 0abf
00000130: 5853 89bf 453b 2e3b af7d 3bbf da2c 3fbf
00000140: f4ce 9a3c ca2f 5d3f 80d4 c9be 4205 21bf
00000150: 7a9f 9bbe ad9a 0f3f 60e0 4b3f 9846 83bf
00000160: c9a8 ef3e 6b23 ce3e 019e ea3e 6fcc 453e
00000170: 53fe 6ebe 6b12 083f 0ac2 43bf 4a18 1dbf
00000180: 4e49 fcbe 322f 69bf adfb 5abe 6539 89bf
00000190: 180e f23e 7227 f2bc eda0 66bf 2440 1f3f
000001a0: a4ee eabe 8f65 343f 46f9 a0be a538 11bd
000001b0: 20d9 47be 913b 09bf dce7 fa3e c50c ea3d
000001c0: 8c76 433f dfe9 9fbe e427 163f 880f 28bf
000001d0: 94bb a03d eca8 323f 1614 cc3e 6c97 ec3c
000001e0: 8394 86be ad37 07bf 1b15 d43d 8116 43bf
000001f0: 07c1 0a3f f03d 513f 56d4 bd3e 1ed6 54bf
00000200: 54b9 f2bd ac97 c8be aa1b debe a1a6 b7be
00000210: 0c8a d1bd
-0.42107072 0.4917366 0.38059378 1.1080818 -0.5389857 -0.39034662 -0.71977305 1.1075752
0.7911587 -0.25693312 -0.79089344 -0.29844394 0.6322727 -0.6227714 -0.70465714 -0.01892258
0.010249398 0.14208318 -0.8699052 -0.8217593 -0.19208027 0.8263251 -0.45429635 0.8473756
0.63292474 0.752085 0.4205813 0.4309175 -0.36886814 0.72167027 -0.8605236 0.09282692
-0.9465777 -1.3078711 0.18373698 0.55773914 -0.34070572 0.28882015 -0.3202178 0.36827952
0.6373557 -0.5841971 -0.99348503 0.40936172 -0.030781765 -0.98612374 -0.5632742 -0.9803034
-1.2254167 -0.40756094 -0.72910005 0.56492186 -0.47795123 0.4005076 -0.43980035 0.9813196
0.58007973 0.90711004 -0.86641484 0.47700796 -0.10366945 0.25330058 -0.7218967 -0.55190593
0.08204743 0.10770777 0.6327942 0.4584219 -0.893239 0.3003688 0.3350176 0.73333734
0.6857028 0.25601292 0.5593408 -0.54288286 -1.072856 0.002658562 -0.7323865 -0.74677813
0.018897511 0.86401045 -0.39419937 -0.6289865 -0.30395108 0.5609539 0.79639244 -1.0255919
0.4680846 0.40261397 0.45823672 0.19316266 -0.23339204 0.53153104 -0.76467955 -0.6136519
-0.49274677 -0.9108764 -0.21385069 -1.072064 0.47276378 -0.029559825 -0.90089303 0.62207246
-0.45885193 0.70467466 -0.3144018 -0.03545441 -0.1951642 -0.53606516 0.4900502 0.11428217
0.76352763 -0.31233117 0.5865462 -0.656487 0.07848278 0.69789004 0.39859074 0.028880797
-0.2628518 -0.5281933 0.10355588 -0.76206213 0.54200786 0.81735134 0.37076062 -0.83139217
-0.11851755 -0.39178216 -0.4338048 -0.35869315 -0.102314085

decoder.dec1.bias f4 [19]
00000000: e820 2c3d f396 b63c 3d46 bb3c db49 fe3c
00000010: ab0d 1cbd b8de f4bb 08f7 fdbb 49bd 453d
00000020: 2b11 01bd 30a7 ad3d 0aad 27bd d2d8 50bc
00000030: 81e5 3e3d 2ea7 04bd c43a 7f3c 1ce9 84bd
00000040: d790 8abd a1ad 6f3a 7efc c6bc
0.04202357 0.022288775 0.02286064 0.031041076 -0.038098972 -0.007472839 -0.0077503957 0.04827622
-0.031510513 0.08479154 -0.040936507 -0.0127470065 0.04660559 -0.032385997 0.015577976 -0.064897746
-0.06765907 0.0009142999 -0.02429032

decoder.dec2.weight f4 [39, 19]
00000000: 1839 ae3c 7478 6e3d a6ea 3fbe 62c8 8cbe
00000010: 89e5 debe 89ef 5fbf e91b cfbe 824a 283e
00000020: 1e4d cc3e 670b 88be 03b5 813e 9734 aa3e
00000030: 2481 81be 7b12 41be 4bbf b53e 3dfd e83e
00000040: 6b42 bcbd 1197 613e 09f0 4ebe d310 64be
00000050: d1c5 25be f126 153f 8068 21be 7b1c 4b3e
00000060: 38c3 0abf e1d6 dc3e f794 123e 5dc7 103f
00000070: b27d 813e b70b 193f 3ba3 12bf 951b 21be
00000080: e3f8 fb3e daba 9fbe a53e 6cbd 7991 b4be
00000090: 3ead d53e e512 e6be 0e0a be3e 43a6 3a3e
000000a0: 261d debe adf5 d6be 5d4e b6be bac1 683e
000000b0: 6858 f23e 9583 e13e 2997 553d 2e58 993e
000000c0: 1053 1cbf 7959 5ebd b5b6 0bbf 3d07 f03e
000000d0: 5c25 14be adea 083f ae25 a03e 3715 e63e
000000e0: f2e7 793e e207 313d afdd 213e f1ad e7be
000000f0: fd61 dbbe 042b e33e f994 72bf 5e02 a13e
00000100: fc3d 963e 718c 04be 575d ac3c 0afc 92bd
00000110: 898f c63e 3198 163f 29ec 4cbe b13e 43be
00000120: 293a 073e 42e0 afbe c02a d8be c492 1c3e
00000130: e4d9 17bf a159 98be 6ca7 ee3e 1cbe e53e
00000140: 2500 8bbf 73d3 073f 0533 88be 2035 f23e
00000150: e023 28bf b6db c1bd 7888 31bf 1475 e53e
00000160: 8c0c 333e 9432 013f d232 0d3f d82d 203f
00000170: f7fb 2f3d e558 cdbe 1472 483f 5ac8 92be
00000180: 085e 063e 1bd1 e53e 4adf ebbe 81e7 8f3e
00000190: 30b2 16bc 417d bd3e 48fb 723d 2c98 5c3e
000001a0: e8b4 84bd 34f3 55bf f840 963e ae3d ae3c
000001b0: 9bee dabe 71f6 e4be b417 b23e e5cb a8be
000001c0: 3519 9abd 1e44 9f3e 6a72 efbe 770b 3c3e
000001d0: 90a9 ddbe 1c14 003e a34f fc3d e443 1f3e
000001e0: 3c29 15bf be8e c7be 9087 b7be 3b45 e0be
000001f0: 48f7 90be 2ce6 693e 0c0c e6be 32d3 eebe
00000200: 0f73 41be 6bb0 86be 0503 2e3e 6a48 f0be
00000210: b80a 003f 25d1 103f da8a a83e 9998 b5bd
00000220: 261b 50be 19c9 6cbe 23a4 503c b120 d6be
00000230: 5c11 9c3e 59b8 a63e 3486 d6bd ed20 963e
00000240: be81 7ebe 0f08 c7be 9996 eb3e 30a2 8abe
00000250: 51f7 013e c651 5fbd 38ea 5d3e 12b6 ad3e
00000260: b244 22be d43c 80be 1bdb 8a3e 59e7 423c
00000270: 8bc3 c73e b7f3 f0bd 7d66 fa3e f2da 0fbf
00000280: 7b77 2a3f b337 ed3e 526f 693e 5259 d03e
00000290: 4b30 4ebe 7d34 90bd 12a3 8f3e 93d2 393e
000002a0: 3d9e 7fbe c25d c93e 9d6d 21be c94f d5be
000002b0: c2f3 eb3e bf0a a2be ad37 e13e 1c65 e4be
000002c0: 1741 c5be fa58 ddbe a764 693f 194b 4ebe
000002d0: 1144 6abf 0a1a 05bf 2bda dcbd 5840 d93e
000002e0: aaa4 893e dca9 6bbf a084 ffbe 13e6 e43e
000002f0: 940b da3e f066 fabe 0239 893e fd3e ff3e
00000300: 0302 6bbe b300 1dbf 34b0 e3bd ed6a 8b3e
00000310: 27c0 a0be 1c31 a23e 772c 053e 9c51 d0be
00000320: 6ec1 5e3e cfea 90be 74ef f0bc 4a5a 183f
00000330: 7a29 01bf 0fdf 113e 5e45 013d c197 e83e
00000340: 4cfb b4bd 1bf4 0fbe 189d bfbe 006f e43c
00000350: 7a35 973e 3c03 c3be da25 413f 36c9 babe
00000360: b8c4 9c3f 79f7 3fbf 8814 f63e 877a b53e
00000370: 19d7 973e 8b55 a93e 66fb ce3e ffe9 8fbe
00000380: d0d4 663e cfd0 f4bd 6150 8f3c 6522 353f
00000390: 5d36 54be 63de ff3e 9357 26bb f284 01bf
000003a0: 4c04 5fbe 63ba f43d 49b1 03bf a7f3 5abe
000003b0: e73e 753c 5887 a9be 03a3 03bf 7a58 aabd
000003c0: 3570 4d3e 0ae0 e7be 7c9a 493e 0f08 dcbe
000003d0: 84b8 21bd 6caf 043f 6b4f eebe 0d89 5fbe
000003e0: ca76 e93e 4a48 9bbd 4044 003f a235 8fbe
000003f0: c3e1 9a3e ab32 ccbe 960b aabe 33d9 1ebf
0.021267459 0.05822034 -0.18741855 -0.2749663 -0.43534496 -0.87474877 -0.4045098 0.16434672
0.39902586 -0.265712 0.25333413 0.33243248 -0.2529384 -0.18854706 0.35497507 0.45505705
-0.09192356 0.22030284 -0.20208754 -0.22272043 -0.16188742 0.58262545 -0.1576252 0.19835083
-0.5420413 0.4313269 0.14314638 0.56554204 0.2529121 0.597835 -0.5728032 -0.15733178
0.49213323 -0.31197244 -0.05767693 -0.35267237 0.41733736 -0.4493629 0.37117046 0.18227486
-0.43381613 -0.4198431 -0.3560666 0.22730151 0.47333074 0.44045702 0.05214611 0.29950088
-0.61064243 -0.054284547 -0.54575664 0.46880522 -0.14467376 0.53483087 0.31278747 0.4493806
0.24404886 0.04322041 0.15807222 -0.45249894 -0.42848197 0.44368756 -0.94758564 0.3144712
0.29344165 -0.12944199 0.021040602 -0.07176979 0.38781384 0.58825976 -0.20011963 -0.19066884
0.1320578 -0.34350783 -0.42220116 0.15290362 -0.5931685 -0.2975588 0.46612108 0.44871604
-1.0859419 0.5305702 -0.26601425 0.47306156 -0.6567974 -0.09465735 -0.6934886 0.44815886
0.17485255 0.504678 0.5515567 0.6256995 0.0429649 -0.40106884 0.7829907 -0.2866848
0.13121808 0.44886097 -0.46068794 0.2810631 -0.009197757 0.37009624 0.05932167 0.21542424
-0.06479818 -0.83574224 0.29346442 0.021269646 -0.42760167 -0.4471927 0.3478371 -0.3296806
-0.07524339 0.31106657 -0.46766979 0.18363748 -0.43293428 0.12507671 0.12319877 0.15553242
-0.58266044 -0.3897609 -0.35845613 -0.4380282 -0.2831366 0.2284171 -0.44931066 -0.46645504
-0.18891548 -0.2630647 0.1699334 -0.46930248 0.50016356 0.5656913 0.32918435 -0.08866996
-0.20322856 -0.23123588 0.012734446 -0.41821817 0.30481994 0.3256252 -0.10474816 0.29321995
-0.2485418 -0.38873336 0.46013334 -0.27076864 0.12692 -0.054521345 0.21671379 0.3392797
-0.15846518 -0.25046408 0.2712029 0.011895978 0.39016375 -0.11765235 0.48906317 -0.5619346
0.6658856 0.46331558 0.22796372 0.40693146 -0.2013561 -0.07041261 0.280541 0.18146734
-0.24962707 0.39329344 -0.1576447 -0.41662434 0.4608441 -0.31648824 0.4398779 -0.4460839
-0.38526222 -0.43231946 0.9116921 -0.20145835 -0.9151011 -0.5199286 -0.107838 0.42431903
0.2688344 -0.9205606 -0.49905872 0.44706783 0.42586958 -0.4890666 0.26801306 0.49852744
-0.22949986 -0.6132919 -0.111175925 0.27230015 -0.313966 0.31678092 0.13005243 -0.40687263
0.21753475 -0.28304145 -0.029411055 0.5951277 -0.50453913 0.14245246 0.031560294 0.4542828
-0.088369936 -0.14057963 -0.3742454 0.02788496 0.29532987 -0.38088405 0.7544838 -0.36481637
1.2247534 -0.7498699 0.4806254 0.35445043 0.29656294 0.33073077 0.40426177 -0.28108212
0.22542119 -0.119538896 0.017494382 0.70755607 -0.20723863 0.49974355 -0.0025381788 -0.50593483
-0.21778983 0.11949613 -0.5144239 -0.21382008 0.01496861 -0.33111072 -0.5142061 -0.08317657
0.20062335 -0.45288116 0.19687837 -0.42974898 -0.03948261 0.5183017 -0.46544966 -0.21829624
0.4559844 -0.075821474 0.5010414 -0.27970606 0.30250368 -0.39882407 -0.33211964 -0.6205017

decoder.dec2.bias f4 [39]
00000000: 8c43 133e 792a 6fbd c235 4abc b477 03be
00000010: e1fd 743d 65a7 573d bde6 5bbd af4c e43b
00000020: 5da4 31bd 8071 643c f1d4 1dbd 1f74 4e3b
00000030: acdd 4436 d8a9 80bd a13d f53b 95d7 b23d
00000040: 2b8d d43c 0072 81bd ac1f 423d a810 923d
00000050: 12fd 01bc 64a2 b23d 0729 0fbc 2237 64bc
00000060: 92ed cb3c 4928 1b3c 27df af3c 59c5 75bd
00000070: c5b5 313d b810 1a3d 7657 50bb 1319 a0bd
00000080: 186b 18bd 6d2e fd3d 8fb8 47bc e549 fc3b
00000090: b076 c8bc ccf6 b9ba cf5e e73d
0.14381236 -0.058390114 -0.012341918 -0.12838632 0.05981243 0.052649874 -0.053686846 0.006967149
-0.04336964 0.013943076 -0.038533155 0.003150232 2.9335306e-06 -0.06282395 0.0074841534 0.08732525
0.02594622 -0.06320572 0.047393486 0.07132083 -0.007933872 0.0872238 -0.008737809 -0.01392916
0.024893556 0.009470054 0.021468712 -0.06000266 0.04338624 0.0376136 -0.0031790412 -0.078172825
-0.037211508 0.12362371 -0.012189998 0.0076992386 -0.024470657 -0.0014187931 0.1129738

decoder.dec3.weight f4 [58, 39]
00000000: 109e 24be 7ac0 853d 0b17 903d dc97 72be
00000010: 5093 bdbd e5aa af3e cecb 313c e17a 84be
00000020: 1f46 2a3e 01f6 243d 7cfd 863e e529 00bf
00000030: 294c 913e 2cb3 653c 4571 293c 1fb9 c03d
00000040: f4de 58be a2a3 f7be 7508 073e ba28 a03d
00000050: e148 7ebe eded 83be cf5b 023f 230b 993e
00000060: 41f2 c9bd 5f7e 8d3e 3247 993e f9d6 f2be
00000070: 9e4a 7d3e 6d2c f23e 2f21 793e 13d7 85bc
00000080: b7b6 223f 1210 853e 2df3 66be 2501 48be
00000090: d5d9 50be 33f8 0dbd 5a43 963e c79a 17be
000000a0: 23c6 4d3c 3264 edbe f62f 59be 98aa a5be
000000b0: 1b11 cebe 7c49 4bbd b9af a6be c1ee 4dbe
000000c0: 6604 6a3d 9d66 b03e 3e3d 2cbd 2326 013e
000000d0: 4255 e8be 50fe b03d 6995 a8be 8748 54be
000000e0: 488d 123f 94b6 a63e ef10 ce3d 1828 183e
000000f0: 1b46 09be 6aa3 c8be 2c64 393e cedd ae3e
00000100: 2fb3 813d 32a3 6abe cb9f 163f 2919 243d
00000110: 31db 343e 53d6 90bb 8d90 b5bd 0bc4 1ebf
00000120: 1eb1 9fbe 1b5e 87be 0641 70be a470 85be
00000130: d7cf bb3e cdf6 eb3e 4611 39be 4562 a3bd
00000140: c165 883e 1c72 6bbe bcf9 ce3e 5eb9 113e
00000150: 01f6 a73e adca a23e 7802 2abe 7dd4 96be
00000160: ea83 ef3e 0139 963e e613 8cbe 80ec b63e
00000170: 8c0f b5be 2e0e 78be 4c38 a73d 4292 54be
00000180: 0caf 0a3e 2fd1 e4be 73e0 35be de08 283e
00000190: 9386 64be aab3 0ebf bcae 42be 42d5 94bd
000001a0: a683 743d 040d e6be 52e7 ba3e 7e3b 103e
000001b0: bd85 893e 96d3 88bd c99b 9cbd ab52 03bc
000001c0: 9655 59be 0a82 f9be bacb 483f 06fa d3bd
000001d0: 9bfc aebd 0386 07be 5723 8b3e 2672 d1bd
000001e0: 5214 ab3e 6819 2d3e 359b c23d 6c69 b33d
000001f0: 3ac7 5dbe f886 6fbe fe0e f9bf 1f4d 82bd
00000200: 902c 9dbd f9e1 943e 54b3 2d3f 0006 b7be
00000210: defb 993f 9f7c 7b3e 872a afbd cec0 013c
00000220: a2ee 3e3d 9d81 c33e f38c 3dbe 7eed fa3d
00000230: a79b 953e 914e 3c3e 10df a6be f61c ae3e
00000240: b764 3cbe 3257 fabc c7ba 8c3f c4d9 c6be
00000250: 5bc1 943e c7bb 593e 490d ebbd ae53 b2be
00000260: 5f1b 18be 6c1e 313f e840 ee3d 9da0 f7bd
00000270: 276b a2bd 37ea 9abd eb79 59be d042 60bb
00000280: 2ad7 debd a960 8f3e da1b 053e 8c80 8cbe
00000290: fadf 42be 4540 a33d f043 c2bd 11c3 2a3d
000002a0: 3a91 c2be f8d7 953e 525a 663e 21fd 4b3d
000002b0: 2def dabe a23d 683e ed0e ab3e 16cf 833e
000002c0: b3c8 c63b 3eb5 c43e b34e 813e 321d fe3d
000002d0: 130c e93e bb87 603e 0170 cb3d c552 813e
000002e0: 767e dfbd a6bd 95bd c5e0 633d 2948 ebbd
000002f0: 0003 0b3e ca0a ddbd 9b5e e83d b058 a13d
00000300: 3a6b 9cbe f97a 0fbe fa8f 9a3e 010e ae3e
00000310: 3376 b23e 9f96 abbd c654 513e 89cb 0a3f
00000320: 1242 e3bd 6e8c 373e cb58 9f3e b2b5 943e
00000330: 58d1 a6be 57df 373e 2dde 88bd 28b4 bf3e
00000340: fa57 a2be d98e 09be cdbf 25bc d121 363f
00000350: 3b6a 52be 3072 8d3e 4783 ebbe eca7 b33e
00000360: b440 16bd b499 f03d 0179 35bd 30ae 9fbe
00000370: 5ea5 fdba c3da a8be 225b fd3c 5772 f8bd
00000380: 293d 48be 3370 f03c f93b 8c3d 1e55 c0be
00000390: bc39 da3e 221f 5b3e efa2 f83d 6756 fa3d
000003a0: 58e7 c83d f2b3 92bd 15ea 893d 41ea 42be
000003b0: 7b8c b43d d819 23bd b499 a83e 43ba db3e
000003c0: c16d 8fbe 95f9 ccbe cbed 813d 5844 4a3f
000003d0: 58ae 593e 764a b4bc e6e9 b7bd f859 ebbe
000003e0: 478e 84be e233 82bd c8a0 ab3e 207e a13e
000003f0: d5fe 00bf 9f8d 903c e404 5bbe 9196 b2bc
-0.16075921 0.065308526 0.07035645 -0.23690742 -0.09256613 0.3431007 0.0108518135 -0.25875
0.16628312 0.04027367 0.26365268 -0.50063926 0.28378418 0.014019769 0.010341947 0.09410309
-0.211788 -0.4836703 0.1318682 0.07820268 -0.24832489 -0.2576746 0.5092134 0.2989131
-0.098606594 0.27635476 0.2993713 -0.47429636 0.24735495 0.4729952 0.24329065 -0.016337907
0.6356005 0.25988823 -0.22553702 -0.19531687 -0.20395596 -0.03466053 0.2934826 -0.14805137
0.0125594465 -0.46365505 -0.21209702 -0.32356715 -0.40247425 -0.049630627 -0.3255594 -0.20110609
0.0571331 0.34453288 -0.042050593 0.12612204 -0.45377547 0.08642256 -0.3292649 -0.20730792
0.5724683 0.3256117 0.100618236 0.14859045 -0.1340565 -0.39187175 0.18104619 0.341536
0.06333005 -0.22913817 0.58837575 0.040063057 0.1766174 -0.0044200807 -0.088654615 -0.6201789
-0.31189817 -0.26438984 -0.23462304 -0.260625 0.36682007 0.46086732 -0.18072996 -0.07977728
0.26640132 -0.22992748 0.40424907 0.14230868 0.32804874 0.31795254 -0.16602504 -0.2945899
0.4678033 0.29340366 -0.2735893 0.3572731 -0.35363424 -0.24224159 0.08165035 -0.20758918
0.13543338 -0.44690844 -0.17761402 0.16409633 -0.22316961 -0.55742896 -0.19011968 -0.07267238
0.059695862 -0.44931805 0.36504608 0.14085194 0.26859847 -0.06680982 -0.07646901 -0.008015315
-0.21224055 -0.48732024 0.7843586 -0.103504226 -0.085442744 -0.13234715 0.271754 -0.1022685
0.3341394 0.16904223 0.0950226 0.08760342 -0.2165803 -0.2339133 -1.94577 -0.06362366
-0.07674515 0.29078653 0.6785176 -0.35746765 1.2029989 0.24559258 -0.08553033 0.007919503
0.046614297 0.38184825 -0.18510799 0.12252329 0.29220316 0.18389346 -0.32592058 0.3400647
-0.18397795 -0.030559156 1.09945 -0.38838017 0.2905377 0.21263038 -0.11477143 -0.34829468
-0.14854191 0.69187045 0.11633474 -0.120911814 -0.07930594 -0.07564204 -0.21237914 -0.003421951
-0.10880883 0.28003433 0.12998906 -0.27441823 -0.19030753 0.07971243 -0.09485614 0.041689936
-0.38001424 0.29266334 0.22495392 0.04980195 -0.42760602 0.22679761 0.33409825 0.25743932
0.0060664057 0.38419527 0.25255355 0.12407912 0.45517024 0.21926777 0.099334724 0.2525846
-0.109127924 -0.07311563 0.05563428 -0.11488373 0.13575363 -0.107930735 0.113461696 0.07878244
-0.30550557 -0.14011754 0.3018797 0.3399506 0.34855804 -0.08378338 0.20442495 0.5421682
-0.11096586 0.17924663 0.3112243 0.29044873 -0.32581592 0.17956291 -0.06683002 0.37442136
-0.31707746 -0.13433398 -0.01011653 0.7114535 -0.20548336 0.2762618 -0.45998594 0.35089052
-0.0366828 0.117480665 -0.04430485 -0.31187582 -0.0019351651 -0.32979402 0.030927245 -0.121311836
-0.19554581 0.029350376 0.068473764 -0.3756494 0.42622173 0.21398595 0.12140452 0.12223511
0.0980975 -0.07163228 0.06734101 -0.19034673 0.08815857 -0.03981957 0.32929766 0.42915544
-0.28013423 -0.40034166 0.063441835 0.79010534 0.21257913 -0.022008162 -0.089801595 -0.45967078
-0.258898 -0.06357552 0.33521104 0.31541538 -0.5038884 0.017645655 -0.21388584 -0.021800311

decoder.dec3.bias f4 [58]
00000000: ae8b a5bd 30bb 6bbd bec8 513e 6f95 383d
00000010: e13c a33c b27f acbd a572 d53a c28e d33d
00000020: b994 083d 5a9f c03c 390c 2f3d 2131 523d
00000030: 465a 263c 856d 04bc efa2 c6bc 71f7 e63c
00000040: a854 81bd aa99 093e a2bc 54bd 6288 333e
00000050: be25 9b3c 8346 64bc eb23 4abd fa51 0cbc
00000060: 0b1a 2fbe 1f55 d13b 0a9e 4f3d 2594 f63d
00000070: 70b6 cebb e749 adbb 4f80 5c3d 7eb9 d23d
00000080: a9cb b83a 9606 cebc 5b78 1e3d 4196 2ebc
00000090: f95e 8d3d 4857 86bc a21d 94bc 4634 ff3d
000000a0: 170b dfbd 7409 fc3c 5521 e83d ce57 7fbc
000000b0: 88d3 053d ca91 a33d a0c0 1dbd 19d9 76bd
000000c0: 8f07 30bd d860 ffbd 0000 0000 13ce fc3c
000000d0: a774 ba3d aac0 bcbb ee43 133e d7d4 4f3c
000000e0: 3f5c 033c 60e6 983d
-0.080832824 -0.057551563 0.20486733 0.045064386 0.01992649 -0.084227934 0.0016284777 0.10329963
0.033344958 0.023513485 0.042736266 0.051316384 0.010153359 -0.008082752 -0.024247615 0.028194161
-0.06314975 0.13437524 -0.051937707 0.17532495 0.018938895 -0.013932827 -0.04935066 -0.008564467
-0.17099778 0.006388321 0.050687827 0.12039975 -0.0063083693 -0.005288351 0.053833302 0.10289286
0.0014098781 -0.025149625 0.038689 -0.0106559405 0.0690288 -0.01639904 -0.018080536 0.12461142
-0.10890787 0.030766226 0.113344826 -0.015584899 0.032672435 0.079867914 -0.03851378 -0.060265634
-0.04297596 -0.12469643 0.0 0.030859983 0.09104281 -0.005760272 0.14381382 0.012685022
0.008017599 0.074658155

decoder.dec4.weight f4 [78, 58]
00000000: 8283 3d3d fcc3 4a3d 4e80 17bd 48aa 543e
00000010: 6349 083e a221 90bd cf6b 87be 41a6 16bd
00000020: e458 92bd 5789 8bbd fc01 003f d093 27be
00000030: 14a0 bfbe 5bd6 8ebd 8c7c 7abd 4237 f7bd
00000040: 6528 903e e567 37be cc0e 8ebd 8e7e 453d
00000050: 6928 553b 1ca1 b83c e82e 6dbe 41f8 1d3d
00000060: 77e0 0740 86ce 8cbe 191f f83d 32c9 72bd
00000070: cf84 4d3e 42f5 f3bc c2e4 1dbe d7c0 03bd
00000080: 28b2 80be 038b b73e bb95 1b3e 83d8 483e
00000090: b3da 8f3c f44c 3fbe 1a96 5ebd 69d3 833d
000000a0: 8215 07bd cbf1 543d 07ad ab3b 267e b8bd
000000b0: ff1b 78be c142 063e 476d 43be f3b1 143f
000000c0: 3afe 033e 1038 21bd c4bb 093e 90f5 1e3e
000000d0: 5977 ce3d fb83 3fbe 41cb 2fbe 45a6 83bd
000000e0: 171f f0bc fa09 5fbe 4923 5ebd 6a30 e3bd
000000f0: 8dcf 6abf b242 06bf 2665 ba3d 4b13 03be
00000100: f92f 8fbe 05cf 9e3e 96b1 043e 2a2c a4be
00000110: 9b18 06bf ef1b 9b3e 38e2 40bd c06a 8d3e
00000120: 4148 193e dc80 15be f99d f23d fa54 4f3f
00000130: 87a6 ecbe bd65 073e 4d59 adbe b10b bcbd
00000140: a91b 143d 242a 0abd 1143 e6be 4650 1a3e
00000150: 21b3 54be fe54 ec3d b274 663d 19eb e9bd
00000160: 2533 973e 2933 b9be ccf9 a63e 7ad6 bfbb
00000170: d158 42be 5a3f 70be 9d8e b73e 528f bcbd
00000180: 15c3 f03e 3d5a 89bd c461 5bbd 06d3 86be
00000190: eb37 1d3f 132e df3e ae25 893e 0b9b 50bc
000001a0: cf98 103e fa55 893e 6ce8 44bf 5a0d bfbe
000001b0: 62bc 66be 3683 793e 0c38 903e 2243 98be
000001c0: 3fac 93be 2f9a 663e 2a9d 23bd 8e42 3c3d
000001d0: 8ed4 613b 97d6 3dbe c03c 0bbf f6ac 563e
000001e0: 7567 173e cfd4 38bc 2110 f0be 3e80 8dbe
000001f0: 48f4 533e e5c3 c33e 1dfd 953e 307e 183e
00000200: bf55 b8bc 91ad 7d3d c949 babd 65d4 a4be
00000210: acc4 c3bd c0b5 b23d 7452 043f e061 ad3f
00000220: b6a3 733e f9d0 39bc 9b62 e53d 1a04 663d
00000230: 0ecd 913c 132c a0bd 3207 d53e 8eff 22bd
00000240: e4c5 89be b602 34be 10d8 363b 3537 43be
00000250: 7df8 aabe 8442 cd3e 1f6f d2be a303 1dbc
00000260: a538 70be 7ca8 853e 5c42 093e 0750 e5be
00000270: 6823 6d3e b98e 96be 856b 623e d6aa e23d
00000280: 3464 30be 19ef bebe 8334 96be 7521 7dbe
00000290: 36b0 913d 0aa1 30bd f634 83be d759 2cbe
000002a0: 2463 b83e fd92 62be 9c82 f8bd 855b 9f3e
000002b0: 4e6c 9e3d 72ac f8be b2e1 e13c e1d6 073c
000002c0: fbf9 3dbe ee86 e6ba 96ca 773e 00a9 4b3d
000002d0: eb5a 04bc 659f fcbc 08ee 99bc b983 4b3e
000002e0: 4cba 2abe 03c6 47bc e2fb 233e 8e8d 28be
000002f0: dc1d 40bd 0a91 fb3c 6a75 fcbd 9ad1 193d
00000300: d9b9 1b3e 5dd9 2b3c 05ff ef3d 6dcd 903c
00000310: 505a 573d b196 07be d87d 683c daf4 51bc
00000320: edc6 523d 3a85 863c df88 973e be46 b83c
00000330: cdad 8ebd e180 10bc 9ee6 253d fef0 08be
00000340: cc7b d43e 9c63 f03d bc1a 64bc 04a9 3b3e
00000350: 0cb9 e53c f8ca cbbc edee e93d cd0c 283e
00000360: fa5d 9bbd fa9b 2a3d 29da 0ebe adaa 46be
00000370: ea6f bf3d 4b0f ab3d feba c7bd e43c 1fbe
00000380: a087 4bbe 8430 67be 8e76 60bc a51b 893e
00000390: 26de c7bd 4b03 943d 067f a8bd 3047 b23d
000003a0: 7c60 e4bc 1baf b53c b343 b8bd 44f0 78bb
000003b0: f748 1f3c 1efb 733c 4fe4 1bbe 1c8e 023e
000003c0: b3dd e2bc 59de 4d3d 8dd8 22be cdd1 64bd
000003d0: 881e 373e 4df2 5ebe e2c2 1a3e edfc ab3d
000003e0: 8795 ebbd f59e c63b 68ab 7e3d 49ef b5bc
000003f0: 973c 183e 3c53 0a3e 28d0 4b3c 3a4b 29be
0.046267994 0.04950331 -0.036987595 0.20768082 0.13309245 -0.07037665 -0.2644944 -0.036779646
-0.07145861 -0.06813305 0.5000303 -0.1636498 -0.37426817 -0.06974479 -0.061153933 -0.120710865
0.2815582 -0.17910726 -0.06936416 0.048216395 0.0032525307 0.02253776 -0.23162425 0.03856683
2.1230752 -0.27501315 0.121153064 -0.059273906 0.20070194 -0.029780034 -0.15419295 -0.03216633
-0.25135922 0.35848245 0.15193836 0.19613843 0.017560339 -0.18681699 -0.054342367 0.06436808
-0.032979496 0.051988404 0.0052391323 -0.09008436 -0.2422943 0.13111402 -0.19084655 0.5808403
0.12889948 -0.039360106 0.13450533 0.15523362 0.100813575 -0.1870269 -0.17167379 -0.06428198
-0.0293117 -0.2178115 -0.05423287 -0.110932186 -0.9172295 -0.5244552 0.09101324 -0.12800328
-0.27966288 0.31017318 0.12958369 -0.32064945 -0.52381295 0.3029475 -0.04709074 0.27620506
0.14968969 -0.14599937 0.11846537 0.8098904 -0.462208 0.13222404 -0.33857194 -0.091819175
0.03615919 -0.033731595 -0.44973043 0.15069684 -0.20771457 0.115396485 0.056263633 -0.114217944
0.29531208 -0.36171845 0.32612455 -0.005854425 -0.18979193 -0.23461667 0.35850993 -0.09207024
0.47023836 -0.06706665 -0.053560033 -0.26332873 0.6141345 0.4358984 0.2678656 -0.012732278
0.14120792 0.26823407 -0.7691715 -0.37314874 -0.225328 0.24366459 0.2816776 -0.29738718
-0.2884235 0.22519754 -0.039944805 0.04596191 0.0034458968 -0.18538891 -0.5438957 0.20964417
0.1478556 -0.011281206 -0.46887305 -0.27636904 0.20698655 0.38235393 0.29294673 0.14891887
-0.022501824 0.061933104 -0.09096105 -0.32193294 -0.095589966 0.08726072 0.51688313 1.3545494
0.2379292 -0.011341327 0.11200448 0.056156255 0.017797973 -0.078209065 0.41607052 -0.039794497
-0.2690879 -0.17579159 0.002789978 -0.19064029 -0.33392707 0.4008981 -0.41100404 -0.009583387
-0.23459108 0.26105106 0.1340422 -0.4478762 0.23158038 -0.29405764 0.22111328 0.110677406
-0.17225724 -0.37291792 -0.29336938 -0.24719794 0.07113688 -0.04312233 -0.25626343 -0.16831146
0.36013138 -0.22126384 -0.12134287 0.3112451 0.07735501 -0.48569065 0.02757344 0.008290977
-0.18552391 -0.001758782 0.24198374 0.049721718 -0.008078317 -0.030837724 -0.01879026 0.19874467
-0.16672629 -0.012193206 0.16014054 -0.16460249 -0.046903476 0.030708808 -0.123270825 0.037553407
0.15207614 0.010488835 0.11718563 0.01767608 0.052576363 -0.13241078 0.01419016 -0.012814725
0.05145924 0.01642095 0.29596612 0.02249467 -0.069667436 -0.00881979 0.040503137 -0.13373181
0.415007 0.11737749 -0.01392239 0.18326193 0.028042339 -0.024877056 0.114225246 0.16411133
-0.07586284 0.041652657 -0.13950409 -0.19401045 0.09347518 0.08352526 -0.09752463 -0.15550572
-0.19875956 -0.22577101 -0.013700141 0.26778904 -0.09759168 0.072271906 -0.08227353 0.08704984
-0.027878039 0.022178223 -0.089972876 -0.0037985006 0.009721986 0.014891414 -0.15223812 0.12749523
-0.027693605 0.050260875 -0.1590292 -0.055864144 0.1788274 -0.21772118 0.15113404 0.08397851
-0.115031295 0.0060614296 0.062175184 -0.022208827 0.14866863 0.13508314 0.012439765 -0.16532603
