IDS_TA/Thursday_Models/CADE-m1.0-l0.01.pth (torch, 67910 bytes, 16 tensors)

encoder.enc1.weight f4 [58, 78]
00000000: 6b89 05be 8dfd 89be ac1f a7bb 9bed 50be
00000010: 73a3 5d3d 38d8 863e f95e 3bbe 003c 853e
00000020: f35d 4ebe 81bd 8abd e2ad 40be 229c 81be
00000030: d912 483e 15c1 1e3e 481b 2c3b 771d 033c
00000040: 82b3 84bd 9b43 febd baff 533d 5000 36be
00000050: afd8 26be df01 38bd 5172 313d d972 23bd
00000060: 25ba 7e3e 310f a6bc 6894 51be 8a51 ea3d
00000070: 5b51 69bd ec91 0ebe c01e 2d3e 1c21 87be
00000080: 50ee a9bd cdda 863e 105e 17be 602b f2bc
00000090: 5252 673e 56ee 2e3e fa53 2abe 644e 093e
000000a0: b9bc bdbd 5c13 1fbe 2b84 0bbe 679a a83c
000000b0: b1c5 563e dac0 823e 6006 4bbe f25a 213e
000000c0: 80eb 5c3e b696 9f3d 2b74 9bbd d28c 123e
000000d0: 4a13 f63c 0acc 86bc 84af e3bd 3b8f 50be
000000e0: 89dd ccbd d018 903d b538 263e bd49 3cbe
000000f0: 7cd9 54be 7330 433e a03c 80bc 4e8b 82be
00000100: c73f 28bc f847 be3d 9ef2 32be ec5e afbd
00000110: e6a5 363c b174 83be c939 2dbe 0f33 ad3c
00000120: 0878 6abe f66d 9b3d 311a 58bd b410 7abc
00000130: 0b8b aebd cfef e63c 5375 2dbe c7da 293c
00000140: 5f41 473e 67c7 6a3e 86f0 133e 60f7 8f3e
00000150: e43b 443e 294f 413d 1698 73be 69a7 1b3e
00000160: 9ff7 7b3d d277 863e 0647 dabd fb81 c03d
00000170: 11cb 45be d1bd f5bb 4309 cebd 4dc8 373d
00000180: d928 20be 5c6e 31be 803e 7b3e cdb4 ed3d
00000190: 6d7a 253e 7de2 0bbe bc20 83be 7769 353e
000001a0: 38f5 813d ec59 b23d 416d 8cbd d0f3 9ebe
000001b0: 441f 4cbd f1f5 e23c 64ed abbd e0f9 8dbe
000001c0: db0c dcbb 5be1 19be 03b7 10be 7973 7a3d
000001d0: f336 8ebe 19a8 ef3d 28d5 b4bd 9f2c dc3d
000001e0: 4ed5 a93d c08b a13c 557c ad3c bee5 c53c
000001f0: bf42 b03e 4095 febc 98fd ddbd 364b 44be
00000200: 17a6 153e d26e 5b3d 19c3 bf3e 10bc a93d
00000210: 15d2 07be 595f 79bd a646 443c 1eca 1e3e
00000220: ccb6 e33d 585e f4bd e9e6 eabc 3d49 cabc
00000230: 0cc7 683e 455b d5bd 7ece 063e ed5e 62be
00000240: 1470 4abe 85a1 723e 0f57 de3c 7155 ec3d
00000250: afe8 7fbe b8b6 92bd 9217 b03d 3fed ec3d
00000260: a170 933e 249e 2d3e adb5 85be 4117 a73e
00000270: 80d2 903c 4dec 67be 799c 0bbf 5a85 663e
00000280: 8d01 1f3e 0262 433e 03e7 ac3e 3704 13bf
00000290: ab04 6cbd 80c0 f03d 5018 59be 0df2 3abe
000002a0: be0f 92be c88b 873e 1917 e9bd 640a 6fbf
000002b0: efc7 80be 658e 0e3e 64d2 f43d ab3e 20bc
000002c0: e983 863e 06a7 0dbf 5ef6 693e 6246 023e
000002d0: 58c7 913d 0e71 e3bd 34df f6be a888 cd3e
000002e0: 6b55 d33e bd73 283f 87e7 483e be3d 8fbf
000002f0: 064b 1dbf 9953 5c3c 0fb0 6e3e 8e9d 8fbd
00000300: d311 0e3e 791a d9bc d7c5 51be 6090 93bc
00000310: 0d37 6b3e d1eb 48bd 5158 a33c 71b4 4a3d
00000320: 864d 523f 263f 823e f412 8bbe 76f3 0fbf
00000330: d1c0 583e 4105 3bbe 6b07 acbe f6c4 a5be
00000340: 5d31 2abe 804c f6bc d677 ddbd 0fe0 1dbe
00000350: 410e 3bbd d403 c93e 147a bbbc 859c 933e
00000360: 4368 07bc 8c7f 09be a521 103d 4c70 1ebe
00000370: db82 99bd 819d 0fbd c73b d53d 64cc 04be
00000380: 9927 6abf 932f a83e f863 d33d 77ec 36be
00000390: 3941 d23e 2c29 1f3f c831 52be abdb 853e
000003a0: 99c2 b23c d8d0 c03d c24c 6abd f2f5 c23c
000003b0: c5ef 0a3e 1727 bc3d c304 efbc 4259 d63d
000003c0: 75de 6a3e e76b bd3c 7dd3 a03d 50bb 60be
000003d0: beeb fb3c 0cf8 323e 1b2f 43be 5889 09be
000003e0: 4850 84be 6c0b 2a3e bb70 533e 1c65 6b3d
000003f0: bbfe 2e3e 3c23 84be 1c14 c13d 6132 5dbd
-0.13040702 -0.26951256 -0.005100211 -0.2040314 0.054110955 0.26336837 -0.18297948 0.2602234
-0.20153026 -0.06774426 -0.18816331 -0.25314432 0.1953844 0.15503342 0.0026261378 0.00800263
-0.06479551 -0.124152385 0.05175755 -0.17773557 -0.16293596 -0.04492366 0.04332191 -0.03990445
0.24875696 -0.020270916 -0.20466769 0.114413336 -0.056962352 -0.13922852 0.16906261 -0.26392448
-0.082974076 0.26338807 -0.14781976 -0.029561698 0.22589996 0.17083105 -0.16633597 0.1340881
-0.092645116 -0.15534729 -0.13624637 0.020581437 0.20973851 0.2553776 -0.1982665 0.15757349
0.21574211 0.07792418 -0.07590517 0.14311531 0.030038495 -0.016454715 -0.11117461 -0.20367138
-0.10003192 0.070359826 0.1623257 -0.18387504 -0.20786089 0.1906145 -0.015653908 -0.25496906
-0.010269112 0.09291071 -0.17475364 -0.08563027 0.011147952 -0.25674966 -0.16916575 0.02114251
-0.22897351 0.07589333 -0.052759353 -0.015262771 -0.08522614 0.028190522 -0.16939287 0.010367102
0.19458531 0.22927628 0.14447221 0.2811842 0.19163471 0.047194634 -0.23788485 0.1520058
0.061515447 0.2626329 -0.10658078 0.09399792 -0.19315745 -0.0074994345 -0.1006036 0.044868756
-0.15640582 -0.17327255 0.2453556 0.11606751 0.16159983 -0.13660617 -0.25610912 0.17716013
0.063456 0.087085575 -0.06856776 -0.3104539 -0.049834505 0.027705165 -0.08394888 -0.27729702
-0.0067153997 -0.15027373 -0.14132313 0.06114528 -0.27776298 0.11701984 -0.08829719 0.10750698
0.08292638 0.019719958 0.02117745 0.024157401 0.34425923 -0.031077027 -0.10839385 -0.19169316
0.1461414 0.053572483 0.37453535 0.08287823 -0.13263734 -0.060881946 0.0119797345 0.15506789
0.1111885 -0.11932057 -0.02867456 -0.024693126 0.2273218 -0.10417799 0.13164708 -0.22106524
-0.19769317 0.23694427 0.027141122 0.11539734 -0.24991105 -0.07163757 0.08598246 0.115686886
0.28796867 0.16954857 -0.2611517 0.3263493 0.0176785 -0.22648735 -0.54535633 0.22511807
0.15527935 0.19080356 0.33769998 -0.57428306 -0.05762164 0.117554665 -0.2120068 -0.18256398
-0.28527635 0.26473832 -0.11381359 -0.9337523 -0.25152537 0.13921507 0.11954191 -0.009780566
0.26272514 -0.5533298 0.22847888 0.12722161 0.071181 -0.11105548 -0.48217165 0.40143323
0.41276106 0.658016 0.1961957 -1.1190717 -0.614426 0.013447666 0.23309349 -0.07012473
0.13873987 -0.026501881 -0.20485626 -0.01801318 0.22970219 -0.049053017 0.019939573 0.04948849
0.8214954 0.25438803 -0.27162898 -0.56230867 0.21167304 -0.18263723 -0.3359941 -0.32376832
-0.16620393 -0.030065775 -0.108138725 -0.15417503 -0.04566789 0.39260733 -0.02288536 0.28830352
-0.008264604 -0.13427562 0.035188336 -0.15472525 -0.07495662 -0.035062317 0.10411792 -0.12968594
-0.9146667 0.32848796 0.10321802 -0.17863642 0.41065386 0.621722 -0.20526803 0.26144156
0.021821307 0.09414834 -0.05720211 0.023798916 0.13568027 0.09187143 -0.029177075 0.10466243
0.22936423 0.02312274 0.07852838 -0.21946454 0.03075206 0.17477435 -0.19060938 -0.13431299
-0.258425 0.1660592 0.20648472 0.057469472 0.1708936 -0.25808132 0.09427664 -0.054003123

encoder.enc1.bias f4 [58]
00000000: 9960 01bd 60a5 403a e50b 08bb e185 5ebc
00000010: 61f6 7b3d 921d 15bd 2fd7 dab8 24ee 033b
00000020: f7e7 3abc 1432 103c 683b fcbb 6fb2 d33b
00000030: c065 57bb b8e8 37bc 83c3 b63c 016a 723c
00000040: 997a 7c3c 91ba 52bb 79d7 acbb 2167 adbc
00000050: 213a dfbc 3566 2f3a e24d 9f3c d01f 443c
00000060: a9f6 a93c 91c9 c33c 4bf1 05bd 2b63 b6bc
00000070: 9147 f33c bd25 83bc e964 07bc 2b02 963b
00000080: 8110 1d3d 1800 113c fb21 38bd 0547 8a3d
00000090: e98e 433e 44e6 413c d8a3 c4bc cee0 fc3c
000000a0: 06a2 adbc 0e68 e63c 030e 833d f843 8c3b
000000b0: 926f b0bc 8a9a d63b e492 fe3b 17ee 863d
000000c0: e493 34bd 781b 823d 2e2f cc3d a93e 383d
000000d0: 670f 79bc 70e5 243c 590a db3d aa3a 25bc
000000e0: 9fe8 56bd 1edb 823d
-0.031586263 0.00073488615 -0.0020759043 -0.013581724 0.061514262 -0.036405154 -0.00010435131 0.0020130957
-0.011407844 0.008801002 -0.0076975115 0.00646048 -0.0032867044 -0.011224918 0.022310024 0.014795781
0.015410089 -0.003215466 -0.00527471 -0.02116734 -0.027249398 0.000669095 0.019446317 0.011970475
0.0207475 0.023899825 -0.032700818 -0.022264084 0.029697211 -0.016009206 -0.008263805 0.004577895
0.038345817 0.00885012 -0.04495428 0.06751827 0.19097485 0.011834685 -0.024003908 0.030868914
-0.021195423 0.028125789 0.06399157 0.0042805634 -0.021537576 0.006549184 0.0077689756 0.06588381
-0.044086352 0.063528955 0.09969936 0.044981632 -0.015201426 0.010064468 0.10695333 -0.010084787
-0.05246794 0.063894495

encoder.enc2.weight f4 [39, 58]
00000000: d00f 40be dddf 743c eb7f d63e 2aec 113e
00000010: c267 183e ab1f 603e de2b a53e e685 233e
00000020: b67b 5bbe 99ae 4f3e e01f debc 9f9e 563e
00000030: 9b53 bebd 6d98 46bd efc0 3d3e 0f63 783e
00000040: 8605 813d e290 09bc d913 dbbd 81f0 663e
00000050: d66d 14be e604 c5bd 1dce 313e 04da c63b
00000060: 2fde 4abe 4750 8b3e a765 22be 8fab c1bc
00000070: 6701 ef3d f859 663e c357 8cbd 6f34 2bbe
00000080: 3a0e 2c3d e280 9bbd 8a39 773e abcf 1b3e
00000090: 3003 863e 022e 82be fd80 bc3d e9e3 363d
000000a0: 9b4c 303e bd19 ff3d a814 85be de97 d4be
000000b0: 900b 6c3e 89c1 ddbd 824c abbd 2457 a83c
000000c0: 00f5 cabd 5eac 51be 8b5d 98be abe5 2d3d
000000d0: 62a9 39be a1c9 07be a9e1 283d 5ce9 773e
000000e0: cb28 613e a5e3 c4bd 655c 0b3e 28e9 1abe
000000f0: fe5c 893e 44fd 9d3e f7df 283d 801a a23e
00000100: 6f23 853e edc8 3c3e 5fa6 6b3d 33d7 0d3c
00000110: e59a 353e 4e4b b33d a7f4 333e d3cf c4bd
00000120: acf6 a33e 7b5c 0fbd ee5e a7bd 8c35 5cbe
00000130: 9908 173e 0be5 cabd 1d78 29be cc0f e83d
00000140: 1168 7d3d 4ef8 63bd cc4f 0fbe 94d7 b03e
00000150: 87f6 24be bc83 aabd 8360 4dbd ad74 eb3c
00000160: 7581 96be 7433 b4bd 4859 c03c d88e 87be
00000170: 00fe fa3d 0c91 3a3e 0ef7 da3e 7961 73bd
00000180: 3a4b 9ebd 1e8b 943d 59e4 8a3e 33bd 44be
00000190: 397f 81be 5c0a 97be b757 8e3e 171b aa3d
000001a0: 44a4 513d 1cf7 753e eb3d fc3c a09f 7bbe
000001b0: 022f dcbd 33cc e93d 52d9 4ebe 1e85 bcbe
000001c0: dd12 c03e 4fc8 9c3d e7a1 c33d 4cb4 9a3d
000001d0: 047a 6fbe 527b f3be 17d6 9b3d f568 123d
000001e0: 001d 65be 53aa 4c3e 137a 8a3d 6003 40be
000001f0: ff48 923e 3e3c fb3a d1c8 583e 1f57 f13d
00000200: d6cf 6bbe 9f44 2abe d965 bbbd 6cc7 68bd
00000210: b24c 11be 90ae 503d 6b55 6cbe 1e83 19be
00000220: ae36 003e b75d 653d 7714 97be 18d1 eb3d
00000230: 61f4 aebe fb5e 973e b4a4 2c3d 3b39 08be
00000240: 4f15 3b3c eeaf cf3c 38ab a33e a944 edbd
00000250: a012 973d 4d53 82be c5cf ee3d 5997 cebe
00000260: 5759 bebb ffdd da3d 9c29 b2be 877b ea3d
00000270: e299 e43d 5da4 35be c188 1c3e 9e2f d7bd
00000280: df8b 5a3e ec74 0bbe d178 a5be 8cd7 963e
00000290: 027f 96bd 2967 13be f0e3 4ebe 3ba7 09be
000002a0: 0a61 cc3d 06f8 aebe aa4a 693d 5edc 20bf
000002b0: 19e2 8f3e f16d 9a3d f590 423e eb8d f33b
000002c0: 6232 f4bd a2ec 843d 2efa 56be 1bf2 aabe
000002d0: 2101 3abe 1ef6 b93d a3ff 05bd de2f 493e
000002e0: c760 323e 3861 5f3e f6aa 1a3e b9d9 a5be
000002f0: b9fe 603e 4685 853e ee2c a63e c74b fb3d
00000300: fcbf 2cbe a350 5bbe e034 673c 3db0 4a3e
00000310: a0b1 9e3e 4975 3dbe 1d05 093e 3d4b 04bd
00000320: 1374 11be 31ef 9ebd b481 303d de81 123e
00000330: 515f 53bd 146a a5bd ee61 b73d 705a 3abe
00000340: 8cdc c6bc 1b2a 8b3a 07f6 4bbe 026b 29be
00000350: 9107 433e 9eb3 b1bd 96b0 e83c c794 023e
00000360: bbd6 df3d 3891 8b3c ab3b 423d ec4e 9c3d
00000370: 9ceb e5bd 25fc b7be d9af e2be 654a a43e
00000380: cf43 ca3d 8346 9d3d a2d5 0bbe a3e3 6e3e
00000390: d504 bc3e 62a8 6c3e aff4 2fbd 657f 2fbe
000003a0: 925d 9abe 7b37 5bbe 53d6 efbe 2cb5 893e
000003b0: 35d3 9f3e 5e4e 26bf 9c14 f53c 76a1 483e
000003c0: d92d d6bc b2fb 193d 3fb9 293e 50cb 00be
000003d0: c56f 38bb ccdb 363e 87e3 28be f5c0 0dbd
000003e0: 7630 22be 8f98 ba3c 2ac9 adbe b486 2dbe
000003f0: 25b7 7cbe 6eed 953e d3bf 18bf 7e2c 8ebe
-0.18756032 0.014945951 0.4189447 0.14250246 0.1488333 0.2188708 0.3226003 0.15969047
-0.2143391 0.20281447 -0.027114809 0.20958947 -0.0929329 -0.04848521 0.1853063 0.24256538
0.06299882 -0.008396359 -0.10697145 0.22552682 -0.14495024 -0.09620075 0.17363782 0.00606847
-0.19811319 0.27209684 -0.1585909 -0.023641376 0.11670189 0.22495258 -0.06852677 -0.1671922
0.042005755 -0.07592942 0.24143043 0.15215938 0.26174307 -0.25425726 0.0920429 0.044650946
0.17216723 0.12456081 -0.25992322 -0.41522115 0.23051286 -0.108279295 -0.08364202 0.020549364
-0.09910011 -0.20475909 -0.29758868 0.042455357 -0.1813102 -0.13260509 0.04123083 0.24210113
0.21988218 -0.09613732 0.13609464 -0.15128005 0.2682876 0.3085729 0.041229215 0.31660843
0.26003596 0.18436022 0.05753171 0.0086572645 0.17734869 0.087545976 0.17573796 -0.09609952
0.32024133 -0.035000306 -0.08172403 -0.21504802 0.14749373 -0.09906968 -0.16549726 0.11331138
0.061866824 -0.055656724 -0.13995284 0.34539473 -0.16109668 -0.083259076 -0.05014087 0.028742159
-0.29395643 -0.087988764 0.023480073 -0.2647617 0.12255478 0.18219393 0.42766613 -0.05941913
-0.07729192 0.07253097 0.2712734 -0.19212799 -0.25292376 -0.2950009 0.27801296 0.08305948
0.051182047 0.24020046 0.030791244 -0.24572611 -0.107511535 0.11415901 -0.20200089 -0.3682031
0.37514392 0.07655393 0.09552365 0.0755392 -0.23386389 -0.47555023 0.07609194 0.035744626
-0.22374344 0.19986849 0.06761565 -0.18751287 0.28571317 0.0019167734 0.21170355 0.11784195
-0.23028502 -0.1662774 -0.09150285 -0.05683081 -0.14189413 0.050947726 -0.2307946 -0.14991423
0.12520859 0.055997577 -0.295078 0.11514491 -0.3417082 0.29564652 0.04214926 -0.13303082
0.011418655 0.025352444 0.31966567 -0.115853615 0.07376599 -0.25454178 0.11660723 -0.40349844
-0.00580899 0.10686874 -0.3479737 0.11449342 0.11162163 -0.17738481 0.15286542 -0.10507129
0.21342419 -0.13618821 -0.32318738 0.29461324 -0.073484436 -0.14394821 -0.20204139 -0.134427
0.09979446 -0.34173602 0.05695597 -0.62836254 0.28102186 0.07540501 0.19000609 0.0074326894
-0.11923672 0.064904466 -0.20993873 -0.33387837 -0.18164493 0.09080146 -0.032714497 0.19647166
0.1741973 0.2181443 0.15104279 -0.32392672 0.21972169 0.26078242 0.32456154 0.12270313
-0.16870111 -0.21417479 0.0141117275 0.19793792 0.30994892 -0.18501772 0.13380857 -0.032298315
-0.14204435 -0.07760466 0.043092445 0.14307353 -0.051604573 -0.080768734 0.089542255 -0.18198562
-0.024275087 0.0010617407 -0.1991807 -0.16544726 0.19045855 -0.086768374 0.028404515 0.12752067
0.109296285 0.01703702 0.047420185 0.07632241 -0.112265795 -0.3593456 -0.44274786 0.3208801
0.09876215 0.07679465 -0.13655713 0.23329024 0.36722437 0.23111108 -0.042957958 -0.17138441
-0.30149513 -0.21407883 -0.46843204 0.26896036 0.31215826 -0.6496333 0.029917054 0.19592842
-0.026144909 0.03759355 0.16574572 -0.12577558 -0.0028142792 0.17857283 -0.16493045 -0.034607846
-0.15838799 0.022777824 -0.33942538 -0.16945916 -0.24679239 0.29282707 -0.596677 -0.2776832

encoder.enc2.bias f4 [39]
00000000: 8bd2 423d 5c1f 663c 9e79 b03c 01d3 943c
00000010: a274 773d 7395 53bb 5a08 49bb bd37 cebb
00000020: 7e86 adbb 106f a9ba de33 8d3c 3c53 efbc
00000030: dd6f a23c e000 a7bd 178c d33c 6085 433d
00000040: 2d86 523b 5363 ba3c 390e bd3c 085f d0bc
00000050: 7a84 58bc c4c3 b4bb e100 27bc d9db 1a3c
00000060: 1dfb 4d3c de90 91bb 844a 25bc c63b 24bd
00000070: 5525 f0bc 65b1 d2ba 7023 67bc 2f9c 78bc
00000080: 86a3 24bc 88a5 aabc 0857 abbb 0237 8c3c
00000090: 0000 0000 fe02 c3bc e36d 383d
0.04756407 0.014045563 0.021542367 0.01816702 0.060413964 -0.0032285124 -0.0030675144 -0.0062932656
-0.0052955737 -0.0012926776 0.017236646 -0.029214494 0.019828731 -0.08154464 0.025823636 0.04773462
0.0032123432 0.02275244 0.023078071 -0.02543594 -0.013215179 -0.005516501 -0.010193081 0.00945183
0.012572077 -0.0044423183 -0.010088567 -0.040096067 -0.029314676 -0.0016074596 -0.01410757 -0.015173956
-0.010048753 -0.020830885 -0.005228881 0.017116074 0.0 -0.023805138 0.04502667

encoder.enc3.weight f4 [19, 39]
00000000: 642e a53b 2978 7d3d 4f4f a8bd d68e 393c
00000010: f418 ee3c 2777 ba3c ca3b 6abd 6dcd cdbd
00000020: ba03 c43c 9170 a0be bf52 d93e fbcc 91be
00000030: a567 ef3c 1915 3ebe 54b5 073e 411a 18be
00000040: 677b eebd 94c8 82bd 2bd4 4cbe d4ec f53d
00000050: f367 33bd bf90 ee3e 4c40 5bbe 8532 e03d
00000060: 4bb3 4d3d 475d 19be 3f2a e43d eb24 c0bd
00000070: e9ac 21bd 9bb3 d93d 7863 80be 0038 033e
00000080: b786 803d 9f01 5e3d 5494 d93d ee52 a13c
00000090: f044 b7be 3779 a3be 7358 083f 94b1 453e
000000a0: dabb c3be 5e6c 523e 49fd 343e 970d 383e
000000b0: 0b35 c43c 9b19 d4bd 208d 81be 9d94 493e
000000c0: 9cf2 093e 1047 a8bd 9592 c6bd bef3 1b3e
000000d0: 756c 7cbb 16d8 cc3e bb8a 4f3e f7d3 5abe
000000e0: ac20 babd ed1c 8bbe 25fb c0be afbe b5be
000000f0: 63a4 a7be 933d d53b e17f 3abe 5465 c3be
00000100: babf b2be 60d8 a9be 5bc2 a03d c448 93bd
00000110: 2350 073e f0c0 03be 6897 ccbd a2b8 15bd
00000120: 33b6 25be 8f5a bf3e d962 7cbe 588b 2b3e
00000130: 26f4 8ebe 986b 47be cbc7 a8bd c51b 893e
00000140: 9de8 c7be 0ca9 903d 4a58 53be ed91 663e
00000150: a451 343e 7eed 643d 9583 503e 868b 28be
00000160: beac e43d cd1f 58be 2382 04be 734b 39be
00000170: bc29 e3bd 178a 7bbe f550 82be 8953 b73c
00000180: ab96 a0be 85cc ee3e 4ea3 80bd cacc 30bf
00000190: cbdd 35be fb52 c6be 0221 503e 274d a9be
000001a0: 8e6e 8bbd 07ab 8b3d cdf7 033e 9969 7bbd
000001b0: 6df1 ff3d ee8d 6c3e ebd6 26be 34ad 85be
000001c0: 6dc3 c83e 3ad6 2bbe de3f ac3e 94f9 b6be
000001d0: cc17 21bd 6ed4 b23d 2b1e aebe 27f9 863e
000001e0: a63a 74bd fd1a 5bbe 9bcb 04be a923 493e
000001f0: 59c3 ee3c 9d77 f1be 138d 823a 367e ee3e
00000200: 2e70 9a3e 7ad0 e8bc 98b1 d9be cd6b 11be
00000210: 4db3 86bd b8e4 60be 987a a8be a80e 52be
00000220: d8ea 3cbe 2649 d9bd 5f52 bbbe 41be 843e
00000230: dcf4 12be 3da3 64be 2e00 fbbd 2c1e 12be
00000240: 034b 2a3e 0457 52bc e94d 40bd 0e62 4c3e
00000250: 0322 7e3d 5a13 d23d 0e58 383e effb b93e
00000260: addb 7eba ada1 803e c003 3e3e 0e16 e8be
00000270: cc4f 693e c8bc bbbc 50df c23d 2fea 63be
00000280: 6516 a7be ef92 a1be ca9c dcbd 821c a23e
00000290: dd31 6fbe 9c76 88bd bafc 253c a0df 85be
000002a0: 9e14 80be 75a8 b63d 7a0d 8b3e af60 c1be
000002b0: 9b44 c3bd cdea c5bd 298f 81bd 597d a23e
000002c0: 981f af3c 6775 1abe 1835 21bd c35a 7abd
000002d0: 6651 c7be c60e 4cbd 1c86 a33d ac4f 7f3c
000002e0: f5f6 693d 3780 a2be 54fc c7bd 2bcf f4bb
000002f0: adb2 44be 103c 2ebe ba0b 2f3e d708 793e
00000300: 6998 85be 2e04 21bd 17f6 53be ce2c 0ebf
00000310: 10e0 c1be 2efd b53e 3fac 4d3e 8392 863f
00000320: 2463 37be e160 3dbf d667 b83b aa40 723f
00000330: b199 213f ef02 053f eedf 97bc 2f35 b73f
00000340: e742 03bf e408 293f 62ab 28be 9d8b 003e
00000350: d008 90bf cf24 113f 1780 d93d a9a3 a13c
00000360: 3e09 edbe 71d3 2dbe 520e 7b3d 04d2 b43e
00000370: e488 153f 0ce4 d2be 134e 4b3e 0ae5 4c3e
00000380: aef0 9abe 4345 353d a58f 14c0 a78b 84bd
00000390: 4088 493e 798b 40bf d911 8b3f 949e 49be
000003a0: 49bd c33d ee51 633e 5b11 84be 6362 f0bd
000003b0: f34f fc3d 8f62 023e 2b90 95bd 94a0 bfbe
000003c0: af83 89bd 2034 1e3e 06a7 5fbe 75b7 273e
000003d0: fdae b63e 2ed4 93be 331b 8b3e 299b 95be
000003e0: b584 5c3d c77c b2bc 9450 993e 1588 c33d
000003f0: e2b4 bfbd 4044 a6bc 3664 873d 63f5 11be
0.0050409306 0.06188217 -0.08218252 0.011325559 0.029064633 0.022761894 -0.057185926 -0.100489475
0.023927558 -0.3133588 0.42445943 -0.284767 0.029224226 -0.18562736 0.13252765 -0.14853765
-0.11644631 -0.063859135 -0.2000281 0.12008062 -0.043800306 0.46594808 -0.21411246 0.10947136
0.050219815 -0.14976989 0.1114087 -0.093820415 -0.03947154 0.1062996 -0.2507589 0.12814331
0.06275695 0.054200765 0.106239945 0.019692864 -0.35794783 -0.31928417 0.5325996 0.19306022
-0.38229257 0.20549151 0.17674746 0.17973934 0.023951074 -0.10356446 -0.25302982 0.19685598
0.13471454 -0.08216679 -0.09695927 0.15229699 -0.0038516794 0.4000861 0.20267765 -0.2136992
-0.09088263 -0.27170506 -0.37691608 -0.35497043 -0.32742605 0.0065075844 -0.18212844 -0.38163245
-0.349119 -0.33172894 0.0784957 -0.07191613 0.13214163 -0.12866569 -0.09989816 -0.036553033
-0.16182785 0.37373778 -0.24647082 0.16752374 -0.27920645 -0.19474638 -0.082412325 0.26779
-0.39044657 0.07063493 -0.20639148 0.22516604 0.17609268 0.055890553 0.20362695 -0.16459474
0.111657605 -0.21105881 -0.12940268 -0.18095188 -0.110919446 -0.24564396 -0.2545239 0.0223787
-0.3136495 0.4664041 -0.06281148 -0.69062483 -0.17760389 -0.38735184 0.20325091 -0.33066675
-0.06808196 0.0681973 0.12887497 -0.061380003 0.1249722 0.23101017 -0.16292922 -0.26108706
0.39211598 -0.1678094 0.33642477 -0.35737288 -0.039329335 0.08731924 -0.3400739 0.26361963
-0.059626244 -0.21397014 -0.12968294 0.1964251 0.029145883 -0.4716157 0.0009960256 0.46580666
0.3016371 -0.028419722 -0.42518306 -0.14201279 -0.06577168 -0.2196225 -0.32906032 -0.20513403
-0.18448961 -0.10609655 -0.36586282 0.25926402 -0.14351219 -0.22327895 -0.12255894 -0.14269322
0.16630177 -0.012838129 -0.0469493 0.1995928 0.062044155 0.10257597 0.1800234 0.36325023
-0.00097220653 0.2512335 0.18556118 -0.45329326 0.22784346 -0.022917166 0.0951525 -0.22257303
-0.32634273 -0.31557414 -0.10772093 0.31662375 -0.23358865 -0.06663248 0.0101310555 -0.26147175
-0.2501573 0.089188494 0.2715872 -0.37769076 -0.0953457 -0.09663925 -0.06326134 0.31736258
0.02137737 -0.15083848 -0.039357275 -0.061121713 -0.3892929 -0.049818777 0.07984564 0.01558296
0.057120282 -0.31738445 -0.09764925 -0.0074709854 -0.19208784 -0.170151 0.17094317 0.24319778
-0.26092842 -0.039310627 -0.20699345 -0.55537117 -0.3786626 0.35544723 0.20085238 1.0513462
-0.17908913 -0.7397595 0.0056276126 0.9462992 0.6312514 0.519576 -0.018539395 1.4313105
-0.5127396 0.6602919 -0.16471627 0.12553258 -1.1252689 0.5669679 0.10620134 0.01973136
-0.46296114 -0.1697519 0.061292954 0.3531648 0.58412004 -0.4118961 0.19854002 0.20009246
-0.3026175 0.044255506 -2.3212674 -0.06471949 0.19680882 -0.7521282 1.0864822 -0.19689399
0.09557588 0.22199222 -0.2579449 -0.11737516 0.123199366 0.1273291 -0.073028885 -0.374272
-0.0671457 0.15449572 -0.21841058 0.16378577 0.3568038 -0.28872818 0.2716919 -0.2921994
0.053837497 -0.021788014 0.2994429 0.0954744 -0.093606725 -0.020296216 0.066109106 -0.14253764

encoder.enc3.bias f4 [19]
00000000: 8e46 753d dcd2 643d 6a54 afbc 6d50 42bb
00000010: 16bb a2bc fd31 273d 1968 a9bb 97bb 7c3b
00000020: 1b74 2b3c 9c14 cbbc 4980 cb3b 0a00 523d
00000030: b8d3 a9bb e828 c5b9 17ae ba3c cf6d 1cbb
00000040: 5f7f 9e3c 08c7 d93a 6b5d e2bc
0.05988174 0.055865154 -0.021402556 -0.0029649988 -0.0198646 0.040819157 -0.00516988 0.003856396
0.010464693 -0.0247901 0.006210361 0.05126957 -0.0051827095 -0.00037605246 0.02278809 -0.0023869162
0.019347845 0.0016615102 -0.027632436

encoder.enc4.weight f4 [7, 19]
00000000: ccfc 14bd e65e 0d3c 68a4 05bd 93f8 87be
00000010: 9c82 073f 9313 abbf 5681 c63e 671c 7dbe
00000020: 5ba8 dd3e 09ea e73e dc68 9e3c 97ba 32be
00000030: 46bd 263f fa50 78bd 128b c03e f062 2ebd
00000040: f01b f5be fc19 f5be dd17 b43d 75e2 8e3e
00000050: f695 d23e 98ff 7f3d 52cb 6d3d c837 d4bd
00000060: e4d2 0a3f 30ea ec3e 04f1 debb d619 283d
00000070: a504 95be c213 08bd 691e 1e3e f579 afbe
00000080: b0d9 023b b3fd ab3d 884b dfbd 4964 45be
00000090: acbb 033f e8ef 943e 1494 0a3e 537a 003f
000000a0: e298 97be fe62 ab3d a55d f63e c0ec 15bf
000000b0: d2e7 b23b 9b81 043f c82c 76be d278 383e
000000c0: 5da8 95be 447c e3be b733 c0be 9760 30bd
000000d0: 2af1 0d3e 11e9 1ebd 244b 533e 540d fdbe
000000e0: 392c 16be 0238 9bbe 8093 78be 4415 803e
000000f0: fe92 6e3d 3d4c a53e 45a5 2dbe 0382 043f
00000100: b684 e8be eedc 803e 7397 7d3e ba93 5d3e
00000110: b9d3 7d3e 46fd f43e 27fe b03e cdd4 9bbe
00000120: d567 813e 73cf bebe 7ac0 9b3d 572c 113e
00000130: 86f1 c8bd 50d1 373e 064b 11bd 224e 34bc
00000140: 7e49 70be 5e3f 973e 15e6 163e 5413 26bd
00000150: 973d b7be 53e1 9ebc 4e0a 27be 9291 e43d
00000160: 0478 29bd 6021 e33d bf92 ffbd 0ac9 b63d
00000170: dc7b c53e 3e5a 3dbe 6123 45bd ba3b ebbe
00000180: d1b5 6e3e fc8a a23e aaf9 48bc 44c4 e43d
00000190: 2f7e bc3e 4ae5 fcbe 90c0 7abd 1343 8abe
000001a0: 7b83 183e 8cf0 29bc 10c9 b93d 7c12 7bbd
000001b0: 7a99 babb ec4e 24be 810e 8e3d bc68 56be
000001c0: c87e ce3e 2335 99bd 7ebb 1ebe 146a 8dbe
000001d0: cd57 e23c 9342 33be ef62 82be 0b98 c33e
000001e0: b91d d93e e6c5 1f3e 939d 8a3d 2cfa b0be
000001f0: 4669 383d 0c23 5c3e 4e5b aabd 91c6 88bd
00000200: 7c62 473e c2fe 2fbe 6727 c4be f494 d03e
00000210: 8229 f73d
-0.0363739 0.008628583 -0.032627493 -0.26556835 0.5293367 -1.3365349 0.3877055 -0.24717866
0.43292508 0.45295742 0.01933711 -0.17453991 0.6513256 -0.0606241 0.37606102 -0.042574823
-0.47872877 -0.47871387 0.08793614 0.27907148 0.41130036 0.062499613 0.05805523 -0.10362202
0.54228044 0.4627242 -0.0068036336 0.041040264 -0.29105106 -0.033221968 0.15441288 -0.34272733
0.0019966178 0.08397999 -0.10903078 -0.19276537 0.5145824 0.29089284 0.1353305 0.5018665
-0.29608828 0.08368491 0.4811832 -0.58564377 0.005459764 0.5176026 -0.2404052 0.1801484
-0.29230013 -0.44430745 -0.37539455 -0.043060865 0.13861528 -0.03879649 0.20634133 -0.4942423
-0.14665307 -0.30316168 -0.24275017 0.25016224 0.05824565 0.32284728 -0.16957577 0.5176088
-0.4541375 0.25168556 0.24764805 0.21638384 0.24787797 0.47849482 0.34568903 -0.30435792
0.2527453 -0.37267646 0.07605071 0.1417707 -0.09811692 0.1795094 -0.03547194 -0.011004956
-0.23465535 0.29540533 0.14736207 -0.040545776 -0.35789177 -0.019394552 -0.16312525 0.11160578
-0.04137422 0.1109035 -0.124791615 0.08925064 0.3857106 -0.18491456 -0.048129443 -0.45944005
0.23311545 0.31746662 -0.012266556 0.11170247 0.3681502 -0.49393684 -0.0612188 -0.270043
0.14893906 -0.010372292 0.09071553 -0.061296925 -0.0056945654 -0.16045731 0.0693636 -0.2093839
0.403311 -0.07480838 -0.1550121 -0.27619994 0.027629757 -0.17505865 -0.25466105 0.38201937
0.4240549 0.15602836 0.06768336 -0.34565866 0.04502227 0.21497744 -0.08318196 -0.066784985
0.19471163 -0.17187026 -0.38311312 0.40738642 0.12068464

encoder.enc4.bias f4 [7]
00000000: ffc0 a8bb 2605 b1b9 094f 8ebc a271 38bc
00000010: d79b 43bc debf 853c b796 5bbb
-0.00514996 -0.00033763907 -0.017371671 -0.011257561 -0.011939011 0.016326841 -0.003350658

decoder.dec1.weight f4 [19, 7]
00000000: 645d 2f3e be11 af3e 73ff ccbe 2ce4 fdbe
00000010: 82f0 49bf a284 a8be 93d1 853e cf7c a2be
00000020: 3a9c 2f3e 0b90 0b3f 1913 df3e 371a 803f
00000030: 47aa 7a3e a3fd 92bf d013 d43e cded 21bf
00000040: 546e ddbe 915a 72bf 0c53 2e3f 0163 053e
00000050: 7aa6 3a3f 42c8 93be 9540 e5bd 73d3 a23e
00000060: 0d0e 0f3f 5c16 113e ee65 3ebf cad0 91bf
00000070: b1bc 5b3e 5043 e03e 23c3 f1bd 9d7f 81bf
00000080: 8067 3cbe d55b 62be a099 f2be bf94 493f
00000090: 9ef6 373e d74c 2dbf fd62 e73d 99b7 a83e
000000a0: 15b1 bbbc a89a 883f 1cff 9bbe 1526 87bf
000000b0: e160 5dbf 1e7c 82bf 27af 95bf c21d 1b3f
000000c0: 7a5f 81bf ac22 533f 9afe b23e b93f e5bd
000000d0: 2fdf c33e 30c7 f13e 423d f93e e312 6cbf
000000e0: 470a 863e 67e8 6bbe 1096 a93e 5199 8c3c
000000f0: d707 fb3e 9e27 4abf 5f99 ecbe 316a a93e
00000100: 96b2 7d3f f712 4bbf bcb8 f3bc 016e 33bf
00000110: 5aed 68bf fbc7 8bbb cb28 963e 9339 d7be
00000120: d18b 31bf 7c3f 383f 6c0e 463f da62 87bf
00000130: 162a 01bf 98aa 293e 008e 103f 94f9 9c3b
00000140: 30ac 6a3f c92e 3fbf c5fe 693e 9f8f 5c3f
00000150: 7c01 e3be c67a 1fbf d770 683f 9b31 9e3e
00000160: f856 53bf 3ab6 d43e a175 893f b099 e5be
00000170: 7848 53bf a0b1 553f 9e75 513f b925 80bf
00000180: ab82 67bf e4b6 61bf bcdc cd3e a027 523f
00000190: 6ca8 bcbe 43ec 453e 6d2e 283f cb9a 01bf
000001a0: 6a29 f3be efa9 3e3e dff6 0bbf fb3f 3abd
000001b0: c6d6 7b3f 0636 01bf 948d 4cbf 5768 71bf
000001c0: c285 313e e6c4 bebe f7f3 b53d 93ba 6c3f
000001d0: c9ad a93e 289c 793e eaa7 183f ef45 993e
000001e0: 9750 febe aa6d 6b3f 3d88 0a3e c1a7 19bc
000001f0: 1cfc d1be 5370 bb3e 3d98 b13e 25d9 263f
00000200: 304e 513f f5d0 3cbf 0449 cdbe 375a b33f
00000210: 02fc 453e
0.1712547 0.34193224 -0.40038642 -0.49588144 -0.7888261 -0.3291369 0.26136455 -0.31735846
0.1714944 0.5451667 0.43569258 1.0008 0.24479018 -1.1483654 0.41421366 -0.6325348
-0.43248236 -0.94669443 0.6809547 0.13026048 0.72910273 -0.28863722 -0.11193959 0.31801948
0.55880815 0.14168686 -0.7437428 -1.1391842 0.21458699 0.43801355 -0.118047975 -1.011707
-0.18398857 -0.22105344 -0.47382832 0.78742594 0.1796517 -0.67695373 0.112981774 0.32952574
-0.022911588 1.0672197 -0.3046807 -1.0558497 -0.8647595 -1.0194128 -1.1694077 0.6059228
-1.0107262 0.8247478 0.3495987 -0.11193795 0.38256213 0.4722228 0.48679549 -0.9221632
0.26179716 -0.23037873 0.331223 0.01716295 0.4902942 -0.789667 -0.46210763 0.3308883
0.99100626 -0.79325813 -0.029751174 -0.7008973 -0.9098717 -0.004265783 0.29327998 -0.42036113
-0.6935397 0.7197187 0.77365756 -1.0577042 -0.50454843 0.16568983 0.56466675 0.004790494
0.9166899 -0.74680763 0.22851093 0.8615665 -0.4433707 -0.6229671 0.9079718 0.3089722
-0.8255458 0.41545278 1.0739022 -0.44843817 -0.82532454 0.8347416 0.81820095 -1.0011512
-0.9043376 -0.88169694 0.4020747 0.8209171 -0.36847246 0.19328408 0.6569584 -0.5062682
-0.47492534 0.18619512 -0.5467357 -0.045471173 0.98374593 -0.5047306 -0.7990353 -0.94299835
0.17336181 -0.37259597 0.08884423 0.9247219 0.331404 0.24375975 0.59631217 0.29936168
-0.4967086 0.9196421 0.13528533 -0.009378375 -0.41012657 0.36609134 0.3468646 0.65175086
0.8175993 -0.73756343 -0.4009477 1.4011906 0.19334415

decoder.dec1.bias f4 [19]
00000000: c4af 4ebc a366 b7bb 3139 0b3b 509d 35bc
00000010: 8f44 75bd 2b88 d53d 4441 8c3a 1f91 b93d
00000020: 86a8 0fbc 7612 db3a ff82 b63d f838 a83d
00000030: 2bab 3e3c 85e2 79bc 964b 9dbc 3bf2 3b3d
00000040: ee7c 92bd 8fc3 20bc a0ac cebc
-0.012615148 -0.005596952 0.0021243806 -0.0110848695 -0.059879836 0.104263626 0.0010700603 0.09060883
-0.008768206 0.0016713876 0.08911704 0.08213991 0.011637489 -0.01525176 -0.019201081 0.045885306
-0.07152735 -0.00981225 -0.025228798

decoder.dec2.weight f4 [39, 19]
00000000: 3bcf aabf d7fd c3bd 2799 01bf 2b86 80be
00000010: 16c8 a4bf 5f3f d73e af4d 1dbd 4601 adbd
00000020: 26cd 4cbf 50b7 ad3e 1363 c4be 8700 eabd
00000030: 6cdf 8b3e e00e 5f3e 20df 873e a34c 20bf
00000040: f4fe d43e 3902 113f 0e07 aabe 90a3 053e
00000050: c8ec 9a3e 523a 713e 53f9 abbf 684f 35be
00000060: 7094 023f 3f90 8dbf bb18 ca3c d12e 52bf
00000070: 3102 e63e 2f8f a73e d9b5 533e 2a8c c83e
00000080: 0e8c 04bf b747 cd3e 7408 8abe 0668 173e
00000090: dddc e93d b0ad 4a3e 00a4 c53d afb4 c33f
000000a0: 62c8 c13e 66a1 0e3d a983 aabe cdc5 0b3f
000000b0: 968f 16be 1cdc 0a3f 1139 3fbe 2510 59be
000000c0: f4a2 69bf 0db7 8dbe 28b8 453d 6976 a53d
000000d0: 378c 9d3e 3f9a 17bd 9905 b8bd 63a9 95bd
000000e0: adf2 313f 7dd6 b5be 2a35 cd3d 8698 ccbd
000000f0: 36ab bb3f 31f8 80bf ec31 f63e 3753 e0be
00000100: 739d 1f3f 22c9 d83c 82bd 4dbf c5df 543f
00000110: 0f62 e6bd df10 d73e d18d e63e 4efa a0be
00000120: 541e 0f3e bf18 04bf 05f8 123c 903f 38bf
00000130: 7584 34bf 83e0 32bf 0f90 d7be 2414 f53e
00000140: 0c31 e33e 4d5b 07bf adb2 86be ba89 6fbe
00000150: e10e 7d3e bfc0 613e 5e0f 74bf 2c1d 06bd
00000160: 7beb e73c ebec 463f c45e 1c3c e639 f63e
00000170: 40df 0e3f 8fc2 15bf 8c84 18bf b339 92be
00000180: 3f44 8bbf f770 09bf 01d7 a03e a390 58be
00000190: 8699 693e a4ee 2abf dc91 9ebe c283 81be
000001a0: 5582 7e3c 1183 51be ac27 d6ba 725f 173f
000001b0: af23 0e3f cd06 99be f6f0 f4bc 1e69 f03e
000001c0: ffb7 0c3f 8b1c be3e 6b35 593e 35f6 06bd
000001d0: 6a85 363e d98e 08bf 690c f63e e329 55be
000001e0: 6bee 363f 3d70 86be f2bc bebe fb1c 523e
000001f0: a448 d2be 731d 23bf 52c6 3fbf 0a71 833d
00000200: 5b93 913e ede7 3a3e de0f 263e 3840 72be
00000210: 03aa e93e 4a71 483e 7383 45bc 4a98 3e3f
00000220: 5bde 6fbe 2ecd 70be bd22 fe3e e1bb 83be
00000230: 365b 623e 1bf8 603c 31b2 c63c 1d26 bdbe
00000240: 51c1 c0bd a852 1e3f 2a7a 173f 9467 a0bd
00000250: 5428 78bf bfff 0abf 3483 513f 13ca e3be
00000260: d426 b13e 1fb7 32be dd3d 0abf e229 57bf
00000270: d56c dcbe 00f6 673e dc13 303f bf33 0d3f
00000280: 3b94 10bd 52b3 aebd 5699 17be 823e a83e
00000290: a56d 543e 8fc3 afbe 2d4e 9a3e 652e ee3e
000002a0: ca34 e13e 96c1 373d 52b3 283f 68e0 61bf
000002b0: 3bde 8ebe 270e 1abf 1cdf 1c3f 0c05 afbf
000002c0: aea0 5a3d 0020 b1be 50b6 90be 5da0 69bf
000002d0: 6729 abbe f951 5dbf ac2e 603d 4705 8d3e
000002e0: 3cc4 993e aa21 5e3e e1c4 443c 802c a83e
000002f0: 5ee1 8c3e 3731 53bf 1227 12bf 74b9 1ebf
00000300: 30f2 393f e77a aa3e c170 ec3e 7e9a 833d
00000310: f469 8b3e 556d fd3d 52e1 a3be b546 0ebf
00000320: 5d5a de3e 05fa 1e3f 88f3 7e3e 97a9 8ebe
00000330: 864d 153e 5fb0 683e 8a5f a93e 0c90 973e
00000340: 10ac ef3e 64ec fbbe 628f 87be 34cf 1b3f
00000350: 3835 d33e 8aa8 d3bd df13 a0be e602 aa3d
00000360: 24d2 b8be 32e2 cfbe b91d 713f 8bf6 62be
00000370: c1f2 70be f74c 1c3e dcaa 05bf 7d71 023f
00000380: e779 d13d 3dad 633e d059 453f 0031 f43e
00000390: ab48 65bf c526 a23f 2163 7ebd e97c 343f
000003a0: 8878 5fbf a337 ae3e 7a9d 72be 8efe 7abd
000003b0: 27a2 8d3f 50ce bebe 8aa9 883f 8c54 de3e
000003c0: 88b1 08bf 7305 333e 9a72 873d 519d 22bf
000003d0: 9927 0e3f 331c bc3a 26d7 a7bf e58b 533e
000003e0: 44dc 213e 7aba 1ebf f1a1 f9bd 10a0 353e
000003f0: 68e9 0ebf 0ba0 323f 39b0 e6bd ff50 16bf
-1.3344492 -0.095699005 -0.50624317 -0.25102362 -1.2873561 0.42040536 -0.038404163 -0.084475085
-0.8000053 0.3392892 -0.38356838 -0.11425882 0.27318895 0.21783018 0.26537418 -0.6261694
0.41600764 0.56644017 -0.33208507 0.13050675 0.30258775 0.23557404 -1.3435463 -0.17706072
0.5100775 -1.1059645 0.024669996 -0.82102686 0.44923547 0.32726428 0.20674838 0.39169437
-0.51776206 0.40093777 -0.26959574 0.14785776 0.114190795 0.19792819 0.09650421 1.5289515
0.37848192 0.03482189 -0.33303574 0.54598695 -0.14703211 0.5424211 -0.18674113 -0.21197565
-0.9126427 -0.2767872 0.04827133 0.080792256 0.30771038 -0.037012335 -0.08985443 -0.073076986
0.6951092 -0.35515204 0.10019906 -0.09990029 1.4661624 -1.0075742 0.48084962 -0.43813488
0.62349623 0.026463095 -0.8036729 0.83153945 -0.11249172 0.4200506 0.45030072 -0.31440967
0.13976413 -0.5160026 0.008970265 -0.7197199 -0.70514613 -0.6987383 -0.42102095 0.4786693
0.44373357 -0.5287369 -0.26308194 -0.23392382 0.24712707 0.22046183 -0.9533595 -0.032742664
0.028310528 0.7770526 0.009544078 0.48091048 0.558094 -0.585 -0.5957725 -0.28559646
-1.0880202 -0.53687996 0.31414035 -0.21148925 0.22812471 -0.66770387 -0.30970657 -0.25295836
0.015534003 -0.20460154 -0.0016338727 0.59130013 0.555232 -0.29888 -0.029900055 0.46955198
0.54968256 0.37131152 0.21211784 -0.032949645 0.17824331 -0.5334297 0.48056343 -0.2081676
0.71457547 -0.26257506 -0.3725353 0.20518868 -0.41071045 -0.6371681 -0.7491199 0.06418045
0.28432736 0.18252535 0.1621699 -0.2365731 0.4563752 0.19574466 -0.012055266 0.74451125
-0.23424666 -0.2351577 0.49635878 -0.25729278 0.22105107 0.013731028 0.02425489 -0.3694314
-0.09411872 0.61844873 0.5917078 -0.07832256 -0.96936536 -0.5429649 0.81840825 -0.44490108
0.34599936 -0.17452668 -0.54000646 -0.84048283 -0.43051782 0.22652435 0.68780303 0.55157083
-0.035297614 -0.085302964 -0.14804587 0.3286019 0.20744951 -0.34328887 0.30137768 0.4651977
0.43985587 0.044862352 0.6589862 -0.8823304 -0.27903923 -0.60177845 0.6127794 -1.3673415
0.053375892 -0.34594727 -0.28264093 -0.9126032 -0.33430025 -0.86453205 0.05473201 0.2754309
0.30032527 0.2169253 0.01200983 0.3284645 0.27515692 -0.8249697 -0.57090867 -0.6200173
0.72635174 0.33296892 0.46179774 0.064259514 0.27229273 0.12374369 -0.32007843 -0.5557664
0.43428317 0.6210025 0.24897587 -0.27863762 0.14580354 0.2272353 0.33080703 0.29602087
0.4681096 -0.4920379 -0.2647658 0.6086304 0.4125154 -0.10334881 -0.3126516 0.08301334
-0.36097825 -0.4060226 0.9418598 -0.22164361 -0.23530103 0.15263735 -0.52213836 0.5095442
0.10228329 0.22234054 0.7709017 0.47693634 -0.8956401 1.2668082 -0.062106255 0.705031
-0.8729329 0.34026822 -0.23692885 -0.06127792 1.106511 -0.3726678 1.0676739 0.4342388
-0.5339589 0.17482547 0.066136554 -0.63521296 0.5552917 0.0014351666 -1.3112533 0.20658834
0.15806681 -0.6200329 -0.12189091 0.1773684 -0.558249 0.69775456 -0.112640806 -0.5871734

decoder.dec2.bias f4 [39]
00000000: 5788 0c3d 6907 5c3d 2020 d23a 9fa7 363d
00000010: c2a2 133d dcb2 5a3b cf62 00bc ed92 83bd
00000020: 016e 05bd bcdd a93d 8d60 bf3c c7d6 503d
00000030: 736f 6f3d 343c 88bc b37a a1bc 5f51 a8bc
00000040: 7ef6 353b 273d f73d ba4d 7cbd a717 753b
00000050: 2d6d 283d 5e1e 44bd aa89 8f3d 4635 ed3c
00000060: 24ca 71bd 10f0 47bd e99d 98bb 6fc3 603d
00000070: b851 7e3c 48eb b23d 4cd0 aebc 554c 033d
00000080: 36a8 883c 2f76 20bd 2c00 fe3c 464a af3d
00000090: 3c72 32bd f65b f637 ff0e d63d
0.03430971 0.053718004 0.0016031303 0.04459345 0.03604389 0.0033370769 -0.007836058 -0.06424508
-0.03257561 0.082942456 0.023361469 0.050986078 0.058455896 -0.01663027 -0.019711828 -0.020546613
0.002776533 0.12072211 -0.061597563 0.003739813 0.041119743 -0.047880523 0.07008679 0.028956067
-0.059030667 -0.048812926 -0.004657496 0.05487388 0.015522413 0.087362826 -0.021339558 0.032055218
0.016681772 -0.03917521 0.031005941 0.085590884 -0.043565974 2.9368308e-05 0.10452079

decoder.dec3.weight f4 [58, 39]
00000000: 8c7d 56bd 7dd0 4d3e d7c2 2cbd 5445 e8bd
00000010: 90e8 a73f 5f2c 0a3f 3d97 8abe 0463 203f
00000020: ed05 953e 7c6b f6be 519f 0fbe 2b39 083f
00000030: 40eb 3c3c bf6e ae3e 2ce5 87be 8e06 5e3f
00000040: 55da e7bd 5def 413f f0fb d43e 043d 0b3e
00000050: 9000 3ebe 6ba1 563e bd4f cabe d862 33bd
00000060: 8f95 c2be 88b9 0c3f 1111 9fbe 1071 00bf
00000070: b288 743f 1576 e63d 39b2 643e d159 d33e
00000080: e616 473f 43a2 59bf 0ec7 a8be 41f0 8abc
00000090: 4346 533e 4e50 2b3d 223c c0bd be89 aa3e
000000a0: 949d 143e 191a 89bd 1aac c3bd 58c5 37bf
000000b0: 4c05 20be 5049 eabe 6930 1fbf 5b00 86be
000000c0: bda4 0cbd 476a 0ebf c437 46be 9b59 64be
000000d0: ba77 c2be a311 133e 996d ce3e 7ed2 d8be
000000e0: e22b b33e d5be f6bd 126e c83d cce6 713f
000000f0: 2f32 bfbd d62a ef3e 6ebf 0bbf 8614 efbe
00000100: bb5d 61bf 5d17 623e ae5c 943e ef35 dcbd
00000110: 6d6b 993e f885 3c3c bdc0 3bbe 25e0 1dbf
00000120: 69d8 15bf ed3d 5a3c 05b9 253e a927 37be
00000130: 82f6 85be 8538 803f e2d2 943e a4f0 5d3d
00000140: e82a 39be b1fc 1d3f df9f 87bf e7d6 19bf
00000150: a9d1 0bbf 7a01 bf3e 4f5e 1cbf 24a7 d33e
00000160: 6b1f bcbe feb0 233d 7023 053f 7e89 c2be
00000170: 9ba3 a5be 5e7d 693b f7ab a83e 7b3a b23e
00000180: c162 2fbe 80c6 bebd 0d0a 0c3f b18c 17bf
00000190: 8019 8e3e 570b f73e 38da 973e e41a ca3d
000001a0: 45af f3bd e60a 843e 8b5f 01c0 1deb 843e
000001b0: 1d8f e0be 5fca cf3e 4fa9 46be 5040 4bbf
000001c0: 0792 cf3c d90d 86bd f096 03bf 3bcd 823d
000001d0: 7e28 1e3e 77ef 563e 35cf 82bf a0ef 22bf
000001e0: 0c6f ebbd 1731 193f 2b8a bc3e 9175 763e
000001f0: 1795 c03e b4cc cbbc c868 8dbe e0e8 173e
00000200: b245 cf3d 92f7 4ebe c47f d2be 31a9 0a3e
00000210: fe82 8cbf 2d7f 063f 136c d4bd c77b 7b3f
00000220: 4f59 5abd 6839 a13d d484 0bbe fedc 6ebd
00000230: 082b 21bf c875 8f3e abee 55bf e50f 8b3e
00000240: 0086 823e d0cb 6f3f 63e1 dcbe e43e ae3e
00000250: d1e0 3e3f eb8d 5e3e ac0b b1bd 4e5a 243e
00000260: 565d ad3d 89ce 0abf 8baf 11be 9210 72be
00000270: 94eb ad3e 6165 a93e 1874 0ebe bc6e ffbe
00000280: d007 d83e 7033 743f 5b21 e63e 7a4e f0bd
00000290: df14 be3e f082 343c c66e d23e 5a08 503e
000002a0: 849b 5d3e 217c c93e edd8 c83e a4e4 17bf
000002b0: afaf 4cbe 021e 223e 87b2 d23d d6ed c8bd
000002c0: 8ffb 9d3e 4f03 0f3e 7ee9 0fbe eeed 57be
000002d0: c1df 99be bc67 113e f24f 50be c699 6b3f
000002e0: 367e 9d3f ce17 edbd efc8 993e c5cd 57be
000002f0: 3bd7 be3e 6c22 66be da56 6b3e 345c aebe
00000300: 82b4 173e 46a1 b1be 7919 2ebf b892 68bc
00000310: 3da7 07bf c516 4abd 0c1f 56bf 492b c13e
00000320: 2f96 c83e 8b9a 313f e74c 183d 13da 83be
00000330: 0669 32be 420d 783e 4486 a73d a615 253f
00000340: 1572 853d 21be 7c3e f9d4 a2be 8d64 123f
00000350: acc0 643f 9fbb ba3e 1cc6 a7bd 2e01 53bc
00000360: af74 853e 6ed9 05bf df33 993d f9c7 253f
00000370: f1b9 a5be 1cc8 123e 2851 c93d 2300 7d3e
00000380: ec8d 0dbf 4efc b9bd 8a3e 543d 24c2 543d
00000390: dbda 293f 1683 b53e 7a76 133e 1b54 a1bd
000003a0: 0bf6 eb3d 5d5d 19bf 81df bc3e 8aa9 1ebf
000003b0: fbfa 763e db01 28be fee1 2cbf 8ccd ea3d
000003c0: 9c3f a6bd 2895 673f be80 f33e 0bb8 2ebc
000003d0: 710f 48be e9ef 613e e731 f8be 810e 86be
000003e0: 9b98 a3bd 3d07 c9bd 9d0b ae3e 35fb 2dbe
000003f0: 1476 8c3e 147d 84be aace a33e a6d9 433e
-0.052365825 0.20099063 -0.042178 -0.11341348 1.3117847 0.53973955 -0.2706851 0.62651086
0.29106084 -0.4812888 -0.14025618 0.5321223 0.011530697 0.34068868 -0.26542032 0.8672875
-0.113209404 0.75755864 0.41598463 0.13597494 -0.18554902 0.20960014 -0.3951396 -0.043795437
-0.3800473 0.549706 -0.31067708 -0.5017252 0.9552108 0.11252991 0.22333612 0.41279462
0.77769315 -0.85013217 -0.32964367 -0.016960265 0.20632271 0.04182463 -0.093864694 0.33308214
0.14513236 -0.06694431 -0.0955431 -0.717855 -0.1562702 -0.45759058 -0.62183243 -0.26172146
-0.034336794 -0.55630916 -0.1935721 -0.22299807 -0.3798197 0.14362197 0.4031799 -0.42348093
0.34994417 -0.12048117 0.09786619 0.94492793 -0.09335744 0.4671237 -0.54588974 -0.46695346
-0.88033646 0.22079225 0.2897696 -0.107524745 0.29964772 0.01150655 -0.18335243 -0.6167014
-0.5853334 0.013320428 0.1618386 -0.17886223 -0.26164633 1.0017248 0.2906714 0.05418457
-0.18082774 0.617137 -1.0595664 -0.6009354 -0.5461679 0.37305814 -0.61081403 0.41338456
-0.3674272 0.039963715 0.520072 -0.37995523 -0.32351384 0.0035627703 0.329437 0.34810242
-0.17127515 -0.093152046 0.54702836 -0.59199053 0.2775383 0.4825084 0.29658675 0.0986841
-0.118986644 0.25789565 -2.0214565 0.25960627 -0.43859187 0.40584084 -0.19400524 -0.7939501
0.025338186 -0.0654561 -0.5140219 0.06386801 0.15445134 0.20989786 -1.0219485 -0.6364689
-0.1149579 0.5984053 0.36824164 0.24068286 0.37613747 -0.024877883 -0.27619004 0.14834929
0.10120715 -0.20211628 -0.41113102 0.13541104 -1.0977476 0.52537805 -0.10372176 0.98235744
-0.053307828 0.078722775 -0.13624889 -0.058316223 -0.62956285 0.28019547 -0.83567303 0.27160564
0.2549286 0.9367037 -0.43140706 0.34032357 0.7456179 0.21733825 -0.08644804 0.16050074
0.08465068 -0.542214 -0.1422712 -0.23639134 0.33968794 0.33085158 -0.13911474 -0.4988917
0.4219346 0.9539099 0.44947323 -0.11733718 0.37125298 0.011017546 0.41100138 0.20315686
0.21641356 0.39352515 0.39228 -0.5933325 -0.19988893 0.1583176 0.10287958 -0.098109886
0.30855986 0.13966106 -0.14053914 -0.21086857 -0.30053523 0.14199728 -0.20342997 0.92031515
1.2304142 -0.11576806 0.30036113 -0.21074589 0.37273583 -0.22474068 0.2298235 -0.3405472
0.14814952 -0.34693354 -0.6800762 -0.014195137 -0.5298956 -0.04933812 -0.83641124 0.37728336
0.3917708 0.6937644 0.037182715 -0.25752315 -0.17422876 0.24223807 0.08179906 0.6448616
0.065159 0.24681903 -0.3180311 0.5718468 0.89356494 0.3647127 -0.08192083 -0.012878699
0.26065585 -0.52284896 0.07480597 0.6475826 -0.32368425 0.14334148 0.098299325 0.24707083
-0.5529468 -0.090813264 0.051817454 0.05194296 0.6634957 0.35451573 0.14400664 -0.0787737
0.11521538 -0.59908086 0.3688927 -0.61977446 0.24119179 -0.16406958 -0.67532337 0.11464986
-0.08117601 0.9046197 0.4755916 -0.010663996 -0.1953714 0.22064175 -0.48475572 -0.2618294
-0.079880916 -0.09815834 0.33993235 -0.16990359 0.27433836 -0.25876677 0.3199361 0.19125995

decoder.dec3.bias f4 [58]
00000000: a631 ccbd 8ae6 513e cbc2 cb3d 70cc e73d
00000010: 40f2 3abc eff3 61bc 1887 febc 9b8d 8cbc
00000020: fd62 87bd d8f7 1f3d 3939 92bb 1e0a 48bc
00000030: 299b 363d 6416 62bc ef91 c5bc f2e1 763d
00000040: 2e1b b93c 021a 5dbc 07e3 ccbb afaf 56bd
00000050: 4067 38bd 76fd 2f3d 3a3a af3d 4fba f5bc
00000060: 202d a9bd acc3 0abd 7c2c 63bd 36e0 d7bc
00000070: 307c 0f3d 0848 393d b612 e03c a766 c03c
00000080: b08d 353d 1dc2 523c a46d c13d b6da 043d
00000090: 5d45 4ebd 9d41 e3bc 7b37 093b e871 003e
000000a0: da33 e73d a264 b03d 44e6 7c3d 6fc5 8b3e
000000b0: 83a5 afbb e45c 8abc a0ea 49bd 6c2b 2ebb
000000c0: bdb6 b3bd 103c 453d 27f8 063e 2b1d 973e
000000d0: 22ad 2b3c 874e d4bb eb9d 04bd 40e4 ff3d
000000e0: 6778 6bbc 56d6 763d
-0.09970407 0.204981 0.09949263 0.1131829 -0.011410296 -0.013791068 -0.031070277 -0.017157366
-0.066106774 0.03905472 -0.004462388 -0.012209443 0.044581566 -0.013799284 -0.024117438 0.060274072
0.022595968 -0.01349497 -0.0062526497 -0.05241364 -0.045020342 0.04296633 0.08556028 -0.029996065
-0.0826056 -0.033878013 -0.055462345 -0.02635203 0.035030544 0.04523471 0.027352672 0.023486448
0.044324577 0.012863663 0.094447404 0.03243514 -0.05035912 -0.027741248 0.002093761 0.12543452
0.11289187 0.08612944 0.061743036 0.27299067 -0.0053603067 -0.016889997 -0.04929602 -0.0026576174
-0.08775089 0.048152983 0.131806 0.2951444 0.01047829 -0.0064790878 -0.032377165 0.12494707
-0.014371968 0.060263

decoder.dec4.weight f4 [78, 58]
00000000: 9478 e83d 877d 21bf 62bc 223d d4a4 8abd
00000010: d021 9ebc 02bc 123e 5534 f5bc 7d14 a8bd
00000020: 9fed 55be ba00 663e 7fc8 2c3e c20f b93e
00000030: 4eae 5abe 5983 9c3e c5b9 aabe f893 85bd
00000040: 2ff5 a6be 4b51 b6bd 7382 efbe 522f 003e
00000050: 2b7d a73f b30d a13d 6ed2 22bf 0b84 44be
00000060: 1f33 75bb 7bbb b03e 6557 6c3e 7178 203d
00000070: 6f8a f63c e604 acbe c7d7 50bd 62b0 8e3e
00000080: 5a4e 0c3e 6ba5 ac3e 2d41 c0bc 028e 143f
00000090: 58ff 063f 9e9f 563e c416 883d d91a 5ebe
000000a0: 58d5 8dbe 8e4f 903e b64a 783d 6248 7e3e
000000b0: e535 42bc b5dd a6be 40a8 993e 295d fa3d
000000c0: 324f ec3c 1cf7 bbbe 6471 643e e1a4 7d3e
000000d0: ccc8 a6bf dcba 8dbe 9325 4cbd fead 2abe
000000e0: 2cb2 f1be 6a17 c13d cbac e1be 33d2 abbf
000000f0: 33b2 823e 5f15 9ebe 62d5 953e aeab 0dbe
00000100: 1cec 1ebe d23c 2fbe f73c aebe 143b f43e
00000110: c7f9 2fbd 5c50 1cbe f3c0 7d3d e346 e73e
00000120: a578 4cbe 9367 10bf 276f 483e 6f5a 9abe
00000130: 7af0 57be 7518 4abe d0cd 03bf 95bc 243d
00000140: 10b7 bdbe 7ff0 953d 4dc1 b3bd 1ab0 893e
00000150: 0c5c 273e 7b0e 0cbf e2dd b33e 48fc 153f
00000160: fda1 823f 52ee 61bf 3c10 813e 8036 403e
00000170: 4d2a a13f 6320 85bc 6fea 79bf ab90 793e
00000180: c38f 7ebe 4f88 f73e f0ba 343e f6d0 2ebe
00000190: 8f6d 47be b999 0e3e 0fc0 083f c7dc 543e
000001a0: 79e4 e5bd 5346 09bb 5f32 68bd 9fbf 1d3f
000001b0: 6bf8 a13e ec74 dd3c 9a2e 84be 0035 f1bd
000001c0: a9d6 79be 7c52 7b3e 9673 f63d 4026 04bf
000001d0: cf56 753f 442e 99be 374c f0be 18b0 eabe
000001e0: 60fe 1bbe feb4 95bd bb1c 79be c7d3 a83f
000001f0: 389d a2be 3067 6bbe ef62 40bd 5af4 933e
00000200: 2ccc 06be c616 b03d 5a37 d2be 7688 1c3f
00000210: 95cd b4be be5b 253e 91fa da3e f591 fe3e
00000220: 6ecb 4b3d 2a92 d13d 0ca6 fd3c 6f0c 2abe
00000230: de86 adbd 54be 8b3d 63e8 afbe dc8e 063f
00000240: a2bd 07bb 32cd 163e 1610 853e 40bc 8fbe
00000250: 7418 393d ca01 383e 995f 073e 1de2 983e
00000260: 6af5 423b 77e2 4c3e 3779 dcbe 234c 0c3f
00000270: cf11 0cbf 550f ee3d 3e49 013f e2f7 4bbf
00000280: 4c3a d33e 422b 8ebe d01d e63e c81b 4dbf
00000290: 5429 603f 62ba 823e a1f5 90bc a0da 063f
000002a0: 01a7 f63e 9d10 6a3e 8116 84be c0bf babd
000002b0: 23a4 493d a150 0f3f 9536 61bd 83ee cebc
000002c0: 8a5c b53c 12d1 023d dd6e 06be 1c87 6abd
000002d0: bc8f dbbd 2300 a43d 66e9 8fbd 7312 dc3c
000002e0: c5fa aebb 714e 2e3d 8e8a 00bd 0789 4cbd
000002f0: d117 7e3d 2bbb 80bd 549f f73c 5fa3 f03d
00000300: ac55 0dbc 4866 89bd 7874 853d b277 883d
00000310: 5d4d e6bd 2952 38bd 2746 35bd 7b7a a13c
00000320: caf7 a23d 5742 a4bc 71a5 05be a5f6 cd3d
00000330: 68e9 cb3d f9e7 043e dbac c9bd d3f3 bfbd
00000340: 51dc a1bd f078 fc3d fed0 83bd 7cca 5a3e
00000350: 7635 a73d cb10 1fb9 f49f 14bd 5123 c2bb
00000360: 79d5 fe3c 153b a6bc bcd1 c7bc aca8 a1bc
00000370: 60c2 6d3c f46b 1ebb a5ce e03c fd68 1f3d
00000380: 1f7c 01bb aff7 fc3c d76f c9bc 2ab8 173e
00000390: 606f 80bb a142 383d b633 cf3d e248 fdbc
000003a0: a0d9 12be e832 31bc 5e7f 963c e34d 5d3c
000003b0: 7632 163e 7df0 223b 3216 9bbd 67c3 e53d
000003c0: d1f5 913d 7801 fa3d b5e1 483d 639c fa3b
000003d0: b7dd 63bd f5c3 1bbd ff3a 54bd c145 dcbd
000003e0: 97a4 4138 431f c73d 8e69 ecbd bd00 1bbe
000003f0: 671a 79bd 0a15 2c3d 1070 92bd ed61 25be
0.113511235 -0.63082165 0.039730437 -0.0676972 -0.019303232 0.14329532 -0.02993218 -0.08207033
-0.20891427 0.22461215 0.16873358 0.36144835 -0.21355554 0.3056896 -0.33344856 -0.065223634
-0.32608935 -0.08902224 -0.46779212 0.12518051 1.3085073 0.07863941 -0.6360234 -0.19190995
-0.0037414504 0.34518036 0.23080213 0.039177362 0.030095307 -0.33597487 -0.05098703 0.27868944
0.13701764 0.33719954 -0.023468578 0.58029187 0.52733374 0.20959327 0.06644967 -0.21689929
-0.2770183 0.28185695 0.060618125 0.248323 -0.01185367 -0.32591024 0.30011177 0.122248
0.028846357 -0.36711967 0.2230888 0.24769928 -1.3030028 -0.27681625 -0.04984052 -0.16667935
-0.47206247 0.09428294 -0.44077143 -1.3423523 0.2552658 -0.3087568 0.2926436 -0.13835022
-0.15519756 -0.17113045 -0.34030887 0.47701323 -0.042962816 -0.1526503 0.06195159 0.4517127
-0.19967897 -0.5640804 0.19573651 -0.3014712 -0.21087828 -0.19735892 -0.5148592 0.04021891
-0.37053728 0.073212616 -0.087771036 0.26892167 0.16343707 -0.54709595 0.3513022 0.58588076
1.0205685 -0.8825427 0.25207698 0.1877079 1.2591034 -0.016250795 -0.9762334 0.24371593
-0.24859528 0.48346183 0.17649436 -0.170719 -0.19475387 0.13925828 0.5341806 0.20787345
-0.11225218 -0.0020946458 -0.056688663 0.61620516 0.3163484 0.027033292 -0.25816804 -0.11777687
-0.24398293 0.24543184 0.12033765 -0.51620865 0.95835584 -0.2991811 -0.46933147 -0.45837474
-0.15233755 -0.07309912 -0.24327366 1.3189629 -0.31760573 -0.22988582 -0.04696935 0.28897363
-0.13163823 0.08598094 -0.41057855 0.6114572 -0.35313097 0.16148278 0.42769292 0.4972073
0.049754553 0.10232957 0.030962966 -0.16606306 -0.084729895 0.068234116 -0.34356984 0.52561736
-0.0020712395 0.14726713 0.25988835 -0.2807331 0.045189336 0.17969432 0.13220061 0.2986001
0.002974833 0.20008264 -0.4306123 0.54803675 -0.54714674 0.11624018 0.50502384 -0.79675114
0.41255414 -0.27767378 0.4494462 -0.80120516 0.8756306 0.25532824 -0.01769525 0.52677345
0.4817429 0.228579 -0.2579842 -0.09118605 0.0492288 0.55982405 -0.054983694 -0.025260216
0.022138853 0.031937666 -0.13128228 -0.057257757 -0.107207745 0.080078386 -0.07026939 0.026864266
-0.0053399527 0.042555276 -0.031382136 -0.049935367 0.06203443 -0.062856995 0.03022734 0.117499106
-0.008626383 -0.06708962 0.06516355 0.06663455 -0.112452246 -0.04500023 -0.044256356 0.019711724
0.07957418 -0.020051165 -0.13051392 0.10056809 0.09956628 0.12979116 -0.09847423 -0.09372678
-0.0790335 0.123277545 -0.064363465 0.21366304 0.08164494 -0.00015169677 -0.036285356 -0.00592462
0.031107651 -0.020291844 -0.024392001 -0.01973375 0.014511675 -0.0024173232 0.027442286 0.038918484
-0.001975782 0.030879823 -0.024589462 0.14816347 -0.003919527 0.044985417 0.10117285 -0.030918542
-0.1434083 -0.01081536 0.01837128 0.013507339 0.14667687 0.002486258 -0.07572593 0.11218911
0.07126964 0.122073114 0.049043376 0.0076480373 -0.055631366 -0.038028676 -0.051814076 -0.10755492
4.6168072e-05 0.097227596 -0.115435705 -0.15137 -0.060816195 0.042012252 -0.071502805 -0.16150637
