IDS_TA/Thursday_Models/CADE-m1.0-l0.001.pth (torch, 67994 bytes, 16 tensors)

encoder.enc1.weight f4 [58, 78]
000000 ce 0b 10 be bc d7 88 be 4b 98 25 3e 7a 33 5b be
       -0.14067003 -0.26727092 0.16171376 -0.21406356
000010 7c f5 3b 3c c0 b7 a4 3e 38 c5 5d be ed 51 97 3d
       0.011472102 0.3217144 -0.21657264 0.07388673
000020 ab 6f 20 bd c2 6f 83 3c 27 5d 24 be 8a 7f 10 be
       -0.039168995 0.016044501 -0.1605116 -0.14111152
000030 ef a2 ad bc a5 2a 7c 3e ed 17 74 3d 8a b2 96 3c
       -0.021195857 0.24625643 0.05959313 0.018395681
000040 52 b8 e6 3d 28 7d 4c bd 58 9e 8a 3d 00 70 13 be
       0.11265625 -0.049924046 0.06768483 -0.14398193
000050 ca a3 f4 bc 69 ad f3 3c 08 e6 66 bd ab 90 ce 3d
       -0.029863257 0.029745774 -0.05637172 0.10086187
000060 45 5e eb 3d d8 e6 5a be 3a 18 49 be c2 b4 49 bc
       0.1149259 -0.21377122 -0.19638148 -0.012311162
000070 0e a9 36 3e 82 e9 85 be 3a 75 c9 bd 23 99 0a bd
       0.17837927 -0.26154715 -0.09836812 -0.03383745
000080 10 40 80 be cd da 86 3e 10 5e 17 be 76 0a 2a bd
       -0.25048876 0.26338807 -0.14781976 -0.041513883
000090 6e f5 44 3e f0 48 f4 bc 01 7b b5 3d c8 96 3d 3e
       0.19234249 -0.029819936 0.08861352 0.1851455
0000a0 cc 75 e8 bd b7 11 10 be c0 61 51 bd b1 b8 60 3b
       -0.11350593 -0.14069258 -0.051118612 0.0034289772
0000b0 c9 c5 ad bc 7b 0e 80 3e 77 12 ca 3c 47 46 41 3e
       -0.021212475 0.25011048 0.024667008 0.18874465
0000c0 a1 a0 39 3e b6 96 9f 3d 9a e7 aa be 71 25 ec bc
       0.18127681 0.07792418 -0.33379823 -0.028826447
0000d0 ab b3 90 3d 09 4d ec ba 85 57 e0 bc 75 4b e6 bd
       0.07065519 -0.0018028329 -0.027385483 -0.11244861
0000e0 cc 41 4d 3d f8 69 5e 3e a5 64 cc bd 86 3f 41 be
       0.050111577 0.21720111 -0.09980134 -0.18871889
0000f0 1e 8c 7d be c7 8a c4 3d 84 c7 cc 3d c8 e6 2a be
       -0.24760482 0.09596782 0.09998992 -0.16689599
000100 cc 50 17 be fe 6e 9f 3d 09 c5 4c bd 11 96 a1 3e
       -0.14776915 0.07784842 -0.049992595 0.31559804
000110 84 09 aa 3d 50 24 8c be 31 a2 b2 3c 92 92 c0 3d
       0.08302596 -0.27371454 0.021805855 0.09402956
000120 e2 8d 9c bd 6a cf 6c 3e 74 7b 3e bc e5 79 dd bd
       -0.076442495 0.23125997 -0.011626113 -0.10814265
000130 4d 35 e7 bc 6b bf 01 3e 18 0f ef bd c8 60 30 3d
       -0.028223658 0.12670676 -0.11672801 0.043061048
000140 b8 d2 4b 3e 43 2b a3 3e 3f 04 74 3e 32 04 a5 3d
       0.19904602 0.31868944 0.23829745 0.08057441
000150 83 14 89 3e fd 56 a5 3d 36 62 00 be 0f 99 e7 3d
       0.26773462 0.08073232 -0.12537464 0.113084905
000160 65 2a 5e 3d 5f 9c bb 3d 14 50 a8 bd ef 4e 35 3e
       0.05423965 0.09160685 -0.08218399 0.17705892
000170 14 5e 15 be 32 6d 0b 3e 56 90 f7 bd 9c da 8f bc
       -0.14586669 0.13615873 -0.12088077 -0.017560296
000180 8e b5 32 be fb 09 4d be 46 0e 1e 3e 78 49 21 3e
       -0.1745207 -0.20023338 0.15435132 0.15750682
000190 db 72 1f 3e c5 cf bd bd b3 fe 5a be 86 29 63 3e
       0.15571158 -0.092681445 -0.21386223 0.22183809
0001a0 d0 0f 1d bd f0 82 99 3e c1 dd 84 3e 6c 06 22 be
       -0.038345158 0.2998271 0.25950435 -0.15822762
0001b0 bf 22 39 3e 84 c4 b5 3c 9c f5 7d bc e0 f9 8d be
       0.18079661 0.022188433 -0.015500452 -0.27729702
0001c0 db 0c dc bb 2b 69 a3 bd d0 77 5e bd f4 6b ed 3d
       -0.0067153997 -0.079790436 -0.05431348 0.11592856
0001d0 80 24 63 be 0c d5 9a ba 20 79 38 be 32 04 c6 3d
       -0.22181892 -0.001181276 -0.18014956 0.09668769
0001e0 5d 8f 0e 3e 71 8b 9b 3d 56 59 30 bd 0b bd ee 3d
       0.13921876 0.07594956 -0.043053947 0.11657151
0001f0 46 f2 16 3e ad 07 4f 3b 5c fb 82 bc 36 4b 44 be
       0.14740857 0.0031590268 -0.015988998 -0.19169316
000200 14 c7 82 3e 0f 2d 69 3d 85 0c a4 3e 96 93 93 3d
       0.2554251 0.056927737 0.32040802 0.07205884
000210 41 ac 2f be 4e b0 b5 3c eb b3 cb bd 39 94 3e 3e
       -0.17155553 0.022178795 -0.09946426 0.1861123
000220 ac 9b b6 3d 80 91 b5 be 4a e3 88 be 3e 7c 52 bc
       0.08916411 -0.3546257 -0.26735908 -0.012847004
000230 d6 5f 78 3e f3 c1 06 bd 85 5f f2 3d ef 1f 87 be
       0.24255309 -0.03289981 0.11834625 -0.2639155
000240 be e7 88 be a1 59 85 bc 75 b5 1f 3d 68 0c 15 3e
       -0.26739305 -0.01627809 0.03899141 0.14555514
000250 c8 8d 2e be b8 eb 5d bd 39 fe 30 bc 29 4d 08 3e
       -0.17046273 -0.054179877 -0.010802799 0.13310684
000260 08 1d 86 3e 92 fd f4 3b 6a 03 8c be f3 a2 70 3e
       0.26194024 0.007476517 -0.27346355 0.2349966
000270 6d 3c 7b 3d 1c 98 62 be f3 7b 58 bf 19 d3 3d 3e
       0.061336923 -0.22128338 -0.8456413 0.18537559
000280 9a 71 c0 3d 5a 4a 36 3c 00 8b 68 3e 2b b5 45 be
       0.09396668 0.011126125 0.22709274 -0.19307391
000290 80 3b 3e 3e 40 18 45 3e 52 9e 1d bc 3c 9a 21 be
       0.18577385 0.19247532 -0.009620266 -0.15781492
0002a0 96 fc a0 bf 82 de 2a 3e 8d df 76 bd 1a 3e 93 be
       -1.2577083 0.16686442 -0.06027179 -0.28758317
0002b0 90 dd 78 be 34 f0 d2 3d 1f 1a 07 3e 9a 72 9b 3d
       -0.2430327 0.10299721 0.13193558 0.07590218
0002c0 f4 6e d7 3d a5 68 59 bf 99 23 9b 3e cb 93 3d 3e
       0.105192095 -0.849253 0.30300596 0.1851341
0002d0 a3 7e c4 3e 47 74 c7 bd 23 c2 60 bf e2 0a 41 3f
       0.38377866 -0.09738975 -0.8779623 0.7540723
0002e0 57 8e 09 3f 52 87 08 3f f3 9a 3f 3d 02 c1 fe be
       0.5373282 0.5333148 0.04677863 -0.49756628
0002f0 82 e9 14 bf 95 b2 0c 3e 0f b0 6e 3e 79 6b cb bd
       -0.58168805 0.13739999 0.23309349 -0.09932608
000300 e9 11 63 3d 46 21 42 3d f0 67 d1 be d8 05 cc bd
       0.055437002 0.047395013 -0.4089961 -0.09962052
000310 f1 5a 6e 3e db b6 84 bd 53 9d 1f 3e a0 55 b5 bd
       0.23276879 -0.064801894 0.15587358 -0.08854222
000320 33 ad 03 3f 23 30 3f 3e 53 6e 38 3e ec fe a4 be
       0.51436156 0.18670706 0.18010835 -0.3222574
000330 47 fd 23 3e 38 5f 70 bd 90 dc f9 3d 21 21 8e bd
       0.16014586 -0.058684558 0.12200272 -0.069399126
000340 be b3 8e be c1 a8 3b bd 7e 0f 08 bd 54 0c 81 be
       -0.27871507 -0.045815233 -0.0332179 -0.25204718
000350 c9 24 cd bd ea 57 45 3e 3d f2 b3 3d ea 2c 1f 3e
       -0.10016782 0.19271818 0.08786438 0.15544477
000360 6f 8f fa bd cc 15 e7 bd 7b 89 eb 3c 1f 47 30 bd
       -0.12234389 -0.11283454 0.02875208 -0.043036576
000370 70 16 0a be 19 0b 93 bd 09 be 8e 3d 93 fb 0d be
       -0.13485122 -0.07179851 0.0696984 -0.13865499
000380 cd c8 85 be 9b 1f b0 3e 9d c7 8f be 56 42 86 3e
       -0.2612976 0.34399113 -0.2808198 0.26222485
000390 20 18 4e 3d 58 79 58 3e 5a 33 8b be 48 9a eb 3e
       0.050315976 0.21140039 -0.27187616 0.46016145
0003a0 f2 13 05 bd 9b c1 3c 3c b2 79 a1 3b e9 9e 9f 3d
       -0.032489724 0.0115207685 0.0049278373 0.077939816
0003b0 44 22 21 3e 34 ef 7e 3d f1 86 85 bd 9e bb 67 3e
       0.15735728 0.06223984 -0.06519879 0.22630164
0003c0 38 71 5c 3e 06 8f 34 bb 78 7d 0a 3d 4b 6a 2c be
       0.21527565 -0.002755107 0.033811063 -0.16837423
0003d0 df 4b 94 bc 9f 7c 30 3e 01 b8 ef bd 04 28 a6 bd
       -0.018102584 0.17235039 -0.11705018 -0.08113101
0003e0 66 c2 f0 bd bb 10 01 3e a8 cc 46 3e 56 e8 38 3d
       -0.117558286 0.12604038 0.19414008 0.045143448
0003f0 f9 a3 16 3e c4 00 44 be c5 fa 7c bc bb f6 0a bc
       0.14710988 -0.19140917 -0.0154406475 -0.008481677

encoder.enc1.bias f4 [58]
000000 db 4c 40 3e 88 49 a7 bc ce f9 a8 3b e7 84 d8 bc
       0.18779318 -0.020420805 0.005156732 -0.02643056
000010 19 57 26 3d 2f dc d0 3b 5f 2a 48 bd 8b e9 17 bc
       0.040610407 0.006373904 -0.048868533 -0.00927199
000020 96 c9 b3 bc f6 0e 6c 3b 1b 6c b8 bb 9c 09 57 bc
       -0.02194671 0.003601966 -0.0056281216 -0.01312485
000030 c0 a5 fe bb 6f 11 78 bc 60 f9 02 3c fa f9 02 3d
       -0.007771224 -0.015140875 0.007994026 0.031976677
000040 b2 22 19 3b 4d 8b b6 3c 65 44 86 3c db c9 cf bc
       0.0023366627 0.02228322 0.016390035 -0.025364807
000050 79 d7 16 bc 5b 90 ed 3b d1 ad 26 3d de 7d b9 bb
       -0.009206646 0.0072498745 0.040693108 -0.0056607565
000060 4f 8a 6a 3c ed 3f 25 3d e7 4a 7b bd 12 4a 19 bd
       0.014315202 0.040344168 -0.06135073 -0.037424155
000070 81 f8 5f 3d bf 08 c6 ba e7 29 14 bc 48 2a b3 3d
       0.05468035 -0.0015108808 -0.009043193 0.08748299
000080 bb ed 71 3d 6e f8 ed 3c 3a ae 86 bc 2c a6 35 3d
       0.059064608 0.029049125 -0.0164405 0.044347927
000090 42 b8 11 3e f1 02 a8 bc c6 ae b3 3b 1c 9e cc 3d
       0.14230445 -0.020509215 0.005483481 0.099910945
0000a0 1f 6b 34 3c ff ec cc 39 cc b3 82 3d c9 d2 db bd
       0.011011868 0.00039086488 0.0638195 -0.107335635
0000b0 8a d6 48 bc 5b f6 3c bb 59 0a 56 3c 4a 25 1c 3b
       -0.012258181 -0.0028833363 0.0130639905 0.0023825937
0000c0 35 fd c3 bb 5b 4f 91 bc 43 cb 33 3d f3 51 6d 3c
       -0.0059811124 -0.017738035 0.043895017 0.01448487
0000d0 1a fc 09 bd 60 02 a8 3c e2 e8 3e 3d eb 0b c4 bc
       -0.03368769 0.020508945 0.046608813 -0.023931464
0000e0 98 11 d4 bc 3f ad 07 3c
       -0.025887296 0.008281051

encoder.enc2.weight f4 [39, 58]
000000 4d 39 2d be 20 11 95 3d 56 af 6c 3b 51 d2 2d 3e
       -0.1691639 0.07278657 0.003611525 0.1697476
000010 2a 76 43 bd d6 bb a4 3d 6a 9a 95 3e 04 22 20 3e
       -0.047720112 0.08043639 0.2921937 0.15637976
000020 37 9d 3a be 70 37 52 3e 70 d6 aa bd ab 70 38 3e
       -0.18224035 0.2052896 -0.08341682 0.1801173
000030 cd 77 19 be 8e 94 4c bd 39 9f df 3d b3 0c 53 3e
       -0.14987107 -0.04994636 0.10919041 0.20610313
000040 f3 82 90 be de 30 b5 bc ea 0d 07 be 10 6e 08 3e
       -0.28224906 -0.022118028 -0.13188902 0.13323236
000050 a6 6a ce bd 44 20 80 bd 08 a5 47 3e 16 97 dc 3e
       -0.10078935 -0.06256154 0.19496548 0.4308402
000060 d0 af c2 bd b1 b0 72 3e 24 06 a0 be f6 b5 bc bd
       -0.0950619 0.23700215 -0.31254685 -0.09214394
000070 4e 51 bc 3e 0a 4b 82 3e 4a 84 9d bd 97 f7 e4 be
       0.3678078 0.25447875 -0.07691248 -0.44720146
000080 65 1e cc bd f0 6a b4 3c 4d 31 78 3e 35 71 93 3e
       -0.09966735 0.022023648 0.24237557 0.28797308
000090 a6 30 98 3d 0e cf 15 be 70 68 cf 3d 97 0f 69 be
       0.07431154 -0.14629766 0.10127342 -0.22759853
0000a0 a9 18 98 3e 1b d4 80 3d a4 e1 ae bd 87 91 12 3a
       0.29706314 0.06290456 -0.08539131 0.0005591143
0000b0 eb bb 1c 3e 18 55 79 be cd 86 ef bd 70 cf 13 bd
       0.1530606 -0.24348867 -0.11695633 -0.0360865
0000c0 c9 90 dc bd 1c 1c 9d 3d 60 93 c9 be f1 f2 47 be
       -0.10769803 0.07671377 -0.3937025 -0.19526269
0000d0 66 4d b2 be 4e 60 eb 3c cd 8f 98 bd 3c be b1 3d
       -0.34824675 0.028732445 -0.07449303 0.086788625
0000e0 ae 6a 90 3c 5a d1 14 bd 79 40 6f bd 0c f0 7e be
       0.017628994 -0.036332466 -0.058411095 -0.24896258
0000f0 34 80 64 3e 94 1d 97 3e 89 3d fc 3e a3 7d 3a 3e
       0.2231453 0.29514754 0.49265698 0.18211989
000100 3b 6e 5c 3e 6c 6b 1d 3e 35 47 82 3d 9f 3b 37 3c
       0.21526425 0.1537301 0.06361238 0.011183648
000110 97 ee 5b 3e 70 d1 88 3d c8 c4 96 3e 82 93 d9 bd
       0.21477734 0.06680572 0.29447007 -0.10623838
000120 92 5f 9f 3e 82 be 44 bd 66 b8 0d 3e 1e 8e 59 be
       0.31127602 -0.048033245 0.13839874 -0.2124562
000130 93 40 1c 3e 34 92 1e be 94 a5 db bd a3 60 a3 bc
       0.15259008 -0.1548546 -0.10724941 -0.01994354
000140 6b 28 c1 3d eb ab 62 bd 45 5d 29 3d 00 23 a8 3e
       0.09431537 -0.055339735 0.041348714 0.32839203
000150 e0 f3 9c bd 31 bd bb bd 4f fc 3a 3c 99 67 1b 3e
       -0.07663703 -0.09166945 0.011412694 0.15176238
000160 26 87 8f be eb 40 79 3e 46 00 8e be de 5e 8c be
       -0.28032798 0.2434117 -0.27734584 -0.27416128
000170 8a 0a 81 bd e4 81 75 3e e2 66 61 3d 7d 39 d8 bd
       -0.06300838 0.2397533 0.055029757 -0.1055784
000180 64 ce 70 be 1a 13 17 3d 61 5f 98 3e 66 8e a0 be
       -0.23516232 0.03688345 0.29760268 -0.3135864
000190 97 3c 2c bf 3f 48 7f be 62 0c ab 3e 26 a1 79 3d
       -0.6727995 -0.24929903 0.33407885 0.0609447
0001a0 08 b3 cc 3d e3 eb 4b 3e 09 d4 cc 3d c7 9c ac be
       0.09995085 0.19914202 0.1000138 -0.33713362
0001b0 be d8 e9 bd f3 52 e1 3d a5 74 a2 3d 18 33 82 be
       -0.114182934 0.110021494 0.079324044 -0.25429606
0001c0 f9 1a a5 3e d8 38 0e bd 24 71 af 3e 78 0f 07 3e
       0.3224714 -0.03472218 0.34266007 0.13189495
0001d0 52 dd 36 be 9b 8c 91 be 8a 99 db 3e c7 77 9f 3d
       -0.17857864 -0.28427586 0.42890579 0.077865176
0001e0 12 ff 17 bf 8d 25 61 3e 3d ef 2b 3d 71 c7 24 be
       -0.5937358 0.2198698 0.041976202 -0.16091706
0001f0 bb d2 af 3e d8 dd 36 bd 48 48 64 3e 4b c0 61 3d
       0.34340462 -0.04464516 0.22293198 0.055115025
000200 fc de 16 be de ae 1c be d8 8a 55 be fe 8d c9 bd
       -0.147335 -0.15301082 -0.20853746 -0.09841536
000210 d1 66 1d be a8 f4 19 3e bc 45 10 be f7 99 e6 bd
       -0.15371253 0.15034735 -0.14089102 -0.11259835
000220 13 91 4a 3e 82 62 1c 3d 89 c2 7e bd 72 74 61 3e
       0.19781904 0.038179882 -0.062197242 0.22017077
000230 4e d6 d8 be 99 85 9e 3e 3d 94 9d 3e f6 9f 1d bd
       -0.42351002 0.30961302 0.3077716 -0.03848263
000240 41 85 24 3d 89 41 85 3e 43 d7 75 3e 52 93 b9 bd
       0.040166143 0.26026562 0.24007897 -0.09061302
000250 3a 3c e1 3d 6a d6 93 be fd 7e 93 3e 9f 54 9c be
       0.109978154 -0.28874522 0.28807822 -0.3053331
000260 0d c6 bb 3e eb 2a fe 3d af 6b 5e be f1 a5 25 bd
       0.36674538 0.1241053 -0.21720766 -0.040441457
000270 63 ea 3c 3e 2f c5 c6 bd 56 e8 ea bc 7e 73 06 bf
       0.18448786 -0.097055785 -0.02867524 -0.5251998
000280 fb 61 06 3e a1 20 cb bd d6 a4 8d be 44 38 23 3e
       0.13123314 -0.09918333 -0.27664822 0.15939432
000290 1d a5 01 be 28 de 5f be b1 2e 26 3d e7 c9 5a be
       -0.12660642 -0.2186209 0.040571872 -0.21366082
0002a0 83 b8 1e 3e 12 f4 17 3d f6 f5 82 bd 08 5d b5 3c
       0.15500073 0.037097998 -0.063945696 0.022139087
0002b0 3f 20 b6 3e 23 fb bb 3d 6c b4 70 be 22 71 86 3b
       0.35571477 0.0917876 -0.23506325 0.004102842
0002c0 e6 80 ca 3e a0 74 9c 3c aa 9d 99 bd 76 f5 90 be
       0.39551467 0.01909858 -0.07500775 -0.28312272
0002d0 7f 1e 18 be 5c 3b fc 3d 64 9b e4 bd aa f6 3c 3e
       -0.14855383 0.123160094 -0.11162451 0.1845347
0002e0 ef a6 9a 3c 03 a3 97 3e 18 55 d1 3d ca 00 ad be
       0.018878428 0.29616556 0.102213085 -0.33789665
0002f0 fd b4 87 3e 54 01 64 3e f5 61 9a 3e 87 1c 02 3e
       0.2650527 0.22266132 0.3015286 0.12706195
000300 bc 85 c1 3e 8a 31 10 be 12 ac 10 bd 03 26 38 3e
       0.37797344 -0.14081398 -0.03532035 0.1798325
000310 3b ab 98 3c 85 78 f4 3d ed 15 17 3e d9 1a 97 be
       0.018636337 0.1193705 0.14754458 -0.2951267
000320 5f b3 4c bd 68 e9 0e 3e 68 4d 95 bd fa c2 48 3e
       -0.04997575 0.13956225 -0.07290155 0.19605628
000330 ba f5 a1 bd 12 df 5f be 3b f5 57 3e 4a 51 ab be
       -0.07908197 -0.21862438 0.21089642 -0.33460456
000340 28 13 12 bf 97 87 80 3d 91 6a 76 3e 57 ac 24 bd
       -0.5706048 0.06275862 0.2406409 -0.04020342
000350 e6 ee 97 3e eb 95 21 bd 08 23 70 3e 6c 45 f3 bc
       0.29674453 -0.039449614 0.23450863 -0.029696189
000360 c3 23 19 3e ec 8d 13 bf 31 80 a4 bd 48 1d 34 3e
       0.14955048 -0.5763843 -0.08032263 0.17589295
000370 a4 dd 00 be 10 92 25 bf 57 1d 11 bf ac d6 a3 3c
       -0.12584549 -0.64676 -0.56685394 0.019999824
000380 b0 62 3c 3d 70 a4 dc 3b b9 e8 55 3d a3 7e ae 3e
       0.045992553 0.0067334697 0.052223895 0.3408099
000390 a2 8b ff 3d b8 9b 03 3e 83 92 7b 3e 3a e4 90 bd
       0.12477805 0.1285237 0.24567609 -0.07074781
0003a0 50 c5 f5 bd 79 79 d9 be 0b f2 eb be ec b9 80 3e
       -0.12000525 -0.4247549 -0.46083102 0.25141847
0003b0 64 3d 06 3e bc b8 c8 3d 91 b2 3d bc 91 b9 30 3e
       0.13109356 0.0980086 -0.011578218 0.17258288
0003c0 a5 89 e0 bd 5e d8 12 3e 0b 06 2f 3e 1b 0b 54 be
       -0.109637536 0.1434035 0.17092149 -0.20707361
0003d0 c6 6a 3e bd ad 64 4e 3e f7 54 9f 3d 2c 5d ea bd
       -0.046488546 0.20155592 0.07779878 -0.114435524
0003e0 96 8f 32 be 1a 8e b5 bb 05 8f 32 bf d0 70 99 be
       -0.17437586 -0.0055406215 -0.6974948 -0.29968882
0003f0 fe 55 7e be 5c a0 d4 3e 3d 52 78 be 31 66 87 be
       -0.24837491 0.41528594 -0.24250121 -0.26445153

encoder.enc2.bias f4 [39]
000000 d9 e9 42 bb 9f 82 09 3b fd 93 c9 bc ee ce c3 3b
       -0.0029741435 0.0020982397 -0.0246067 0.0059755957
000010 aa f6 e4 3c fa 3a 3a 3b 23 28 5b bd 78 75 06 bd
       0.02794965 0.00284165 -0.053505074 -0.03282687
000020 46 fe 11 bd 1f c3 c2 bc ac 9f bb bb 0c 81 70 bb
       -0.035642885 -0.023774682 -0.0057258215 -0.0036698012
000030 27 53 95 3d e3 34 7b 3a 2e d6 40 bb 4c dc 84 bc
       0.07291251 0.0009582771 -0.0029424536 -0.016218327
000040 8b d7 38 bb c0 7f 46 bc b7 d2 71 3c 66 92 22 bd
       -0.0028204645 -0.012115419 0.014759711 -0.039690398
000050 a1 43 06 bc ae 4e 04 bd 61 2a 9f bc 40 b0 1b 3c
       -0.008194835 -0.032301597 -0.019429388 0.0095024705
000060 59 02 37 3c d9 54 68 bb 0c e3 01 bc 52 a6 4f bc
       0.011169993 -0.0035450964 -0.007927667 -0.012673931
000070 9a 78 fe 3a 5f 32 2d 3c af ac 2f 3c ee f7 61 3d
       0.0019414604 0.010571091 0.010722323 0.055168085
000080 e8 e7 fa bb fa 77 00 bc 6e 4b 3e 3b 24 b1 12 3d
       -0.00765704 -0.007841105 0.0029036659 0.035813466
000090 00 00 00 00 a5 ea 37 bd 2b 99 e9 bc
       0.0 -0.04490151 -0.028515419

encoder.enc3.weight f4 [19, 39]
000000 ca 2e d8 be c1 8f b9 bd f9 41 fe bc 36 9f 38 be
       -0.42223197 -0.09060622 -0.031037318 -0.18029484
000010 fc 42 4f bd a5 68 c5 3b 10 b9 4a be bc 9c 02 bd
       -0.05060099 0.0060244375 -0.19797158 -0.031887755
000020 4f 51 95 be 8f 76 01 be 7b 35 6d 3e 22 8f 60 be
       -0.29163596 -0.12642883 0.23164932 -0.21929601
000030 d3 71 16 3e e3 6d 51 be 1c cd 38 3d 3a fb 4e be
       0.14691858 -0.20452075 0.045117483 -0.20213023
000040 3a 6d 83 be 09 c6 20 3c 8b 42 42 be 4d 8b 19 3d
       -0.2566927 0.00981284 -0.18970697 0.037486363
000050 d2 8a 57 be 02 de 22 3e 5b 54 89 3e 1b e8 00 3d
       -0.2104905 0.15905002 0.2682217 0.031471353
000060 0d c9 c2 3d 16 e9 2b 3e e0 fa 03 be 25 bc 93 bd
       0.09511004 0.16788134 -0.1288867 -0.0721362
000070 ec 9f b1 bd e7 e7 a4 3d ee 91 07 be 85 85 44 be
       -0.08673081 0.08052044 -0.13239262 -0.19191559
000080 12 f6 9b 3e 9f 1b c9 bd e3 50 85 3e e2 11 87 3e
       0.30461174 -0.098197214 0.26038274 0.2638083
000090 f0 44 b7 be ee a9 aa be 7d 40 fc 3e 3f 1b 6c 3e
       -0.35794783 -0.3333277 0.4926795 0.23057269
0000a0 5b e8 70 be 4c 1b 9d 3e 4f 3d 84 3e 98 d4 45 be
       -0.23526137 0.30684888 0.25828025 -0.1931938
0000b0 f4 ad 10 3e 36 22 fb bc 59 58 06 bf f8 0a c9 bd
       0.14128858 -0.030655961 -0.5247856 -0.09816545
0000c0 f3 28 eb 3d e9 ff e5 bd 59 b1 11 bf af 9d 8b 3d
       0.1148242 -0.112304516 -0.56911236 0.06817185
0000d0 97 0d 4c bc 6a 5e e2 3e b8 2f 92 bc 9e c9 63 3d
       -0.012454412 0.44212657 -0.01784502 0.0556122
0000e0 e7 23 97 3d 6b dd 87 be 6e 8d 36 bf c6 d8 77 be
       0.07379895 -0.26536116 -0.71309555 -0.24203786
0000f0 38 8d 99 be 41 19 93 3d 04 f1 81 be e0 96 bf be
       -0.29990554 0.07182551 -0.25379193 -0.37419796
000100 4a 4d 8a be b1 d0 e3 bd 9f 78 3e 3e 68 62 3c bd
       -0.27012092 -0.11123789 0.18600701 -0.045992285
000110 b5 4f be bc 5e 67 ef bd 5a b1 2c 3e 7b 5d 66 3d
       -0.023231367 -0.116896376 0.16864529 0.056241494
000120 7f 4a 62 3e e8 4c 02 3f d9 fc 8b bc 58 8b 2b 3e
       0.2209873 0.508986 -0.01708834 0.16752374
000130 26 f4 8e be 7d 45 8b be 29 ac 9a be 12 9a 03 bb
       -0.27920645 -0.27201453 -0.30209473 -0.0020080847
000140 6d f1 a7 bc 00 26 74 3d f6 50 d1 bd 45 6a 73 3e
       -0.020500863 0.059606552 -0.1022052 0.23771007
000150 e9 ab 64 3d 5b 4a 9a be 20 db 0e 3e 97 20 18 3f
       0.05582801 -0.30134854 0.13950777 0.5942473
000160 3e 9f 0b be de 9f 56 be 6f 83 e0 3d 3c 5c ae 3c
       -0.13634965 -0.20959422 0.10962569 0.021284215
000170 26 bc dc 3d 71 00 4a 3c 32 38 b3 be 2d 95 85 bd
       0.10778074 0.012329207 -0.3500381 -0.06522594
000180 15 b2 a1 be ad 91 90 be 9a c1 25 be 77 43 12 bf
       -0.31581178 -0.28236142 -0.16187134 -0.57134193
000190 ae 15 1a bf c7 dd 96 be bd 56 5e 3e c3 d8 92 bd
       -0.6018933 -0.29466078 0.21712776 -0.0717025
0001a0 82 db 92 3e 8a 4a 2a 3e 3b b2 08 3b bf 9a f9 bd
       0.28683096 0.16629997 0.0020858187 -0.121877186
0001b0 db bc aa be b9 c7 5e 3e bb 42 16 bf 41 1a 17 be
       -0.3334721 0.21755876 -0.5869557 -0.14756109
0001c0 f9 6f 6f 3e 15 99 18 be de 3f ac 3e 94 f9 b6 be
       0.23382558 -0.14902146 0.33642477 -0.35737288
0001d0 7f b8 90 be aa 26 1d be 6a 76 a2 be fa ad 88 3e
       -0.2826576 -0.1534678 -0.31730968 0.26695234
0001e0 ae 5e d3 3d 7d 12 02 3f eb 7c dc bd 53 7f 64 3e
       0.10320793 0.5080946 -0.10766014 0.22314195
0001f0 81 09 55 be cb 6b 46 3e 28 9c 1e 3e f8 e1 8c 3c
       -0.20804407 0.19377057 0.15489256 0.017197594
000200 08 30 be 3e 4c d5 0a be 0f 8e cd be c7 bf 66 3e
       0.3714602 -0.13557929 -0.40147445 0.22534095
000210 38 5b a4 3d fc e3 ca be da ea 5b be 32 b2 19 be
       0.08025211 -0.39627063 -0.21476308 -0.15009382
000220 bc 61 b4 be 94 cd 08 3e f9 af 88 be 28 8e bb 3e
       -0.35230815 0.13359672 -0.26696756 0.36631894
000230 4d 84 70 be 5f bb 8c bd cc cb 82 3e ea e6 d1 bd
       -0.23487969 -0.06871676 0.2554611 -0.102491215
000240 e6 a1 97 bd db 0c fe bc ec 8b cb 3d 9b 5e 8c 3e
       -0.074039266 -0.03101199 0.09938797 0.27415928
000250 83 33 58 3f 74 d4 1a be 40 30 91 3e f2 8e 36 3e
       0.844536 -0.15120107 0.28357124 0.17827967
000260 eb 58 a4 3e ad a1 80 3e ea 8b 3f 3e 05 50 2d c0
       0.3209909 0.2512335 0.18705717 -2.708009
000270 4f 00 67 3e a7 b3 33 bd 02 34 00 bd f7 ec 2b be
       0.22558711 -0.0438725 -0.0312996 -0.16789614
000280 e0 e4 58 3d fb 6c bb be 8e 01 7c be 51 ec 8b 3e
       0.052952647 -0.36606583 -0.24609968 0.27328733
000290 f1 ab 5d be d2 c4 fd 3d 58 cd 1a bd 34 60 bc be
       -0.21647622 0.12391056 -0.037793487 -0.36792147
0002a0 60 e5 67 be 3b d5 db 3d 82 ae a5 3e bd 33 d0 be
       -0.22646093 0.1073403 0.323597 -0.40664473
0002b0 40 4c d6 bc fe 5d f0 bd b1 0f ea bd 87 16 88 3e
       -0.026159406 -0.117366776 -0.11428774 0.26579687
0002c0 1e 5a 8e bd 27 bd 2a be 35 56 d3 bd d6 07 6d 3a
       -0.06950782 -0.16673718 -0.10319177 0.0009042
0002d0 b9 6f b9 be a3 94 2b 3c 6c c2 23 3e c1 b0 f2 3c
       -0.3621805 0.0104724495 0.15992135 0.029625298
0002e0 8a b3 c2 3d 05 d1 7f be 6f b2 2c be bc fa 4b 39
       0.095069006 -0.24982078 -0.16864942 0.00019452994
0002f0 14 67 b0 bc 98 9b 31 be 11 89 1c 3e 82 e1 c4 3d
       -0.021533526 -0.1734451 0.15286662 0.09613325
000300 69 98 85 be 2e 04 21 bd 71 79 a6 be ed 05 02 bf
       -0.26092842 -0.039310627 -0.32514527 -0.5079029
000310 62 d0 7b be 37 fb ac 3e 41 cd 96 3d f4 6e c7 3e
       -0.2459121 0.33785412 0.07363368 0.38951838
000320 93 eb 30 be eb f6 8f be 02 fe 41 bd 0e c4 db 3d
       -0.17277364 -0.2811807 -0.04736138 0.10730754
000330 03 ed bf 3d b3 4f 51 3e 16 a9 b2 bc 93 57 e2 bd
       0.09371378 0.20440559 -0.021809142 -0.1105186
000340 80 6f e8 bd 42 8f 0b 3e ae 2f 3a bd 69 5c cd bd
       -0.11349392 0.13628867 -0.045455627 -0.100273915
000350 a0 19 12 3e 9b ca b2 3e 8c 57 9f 3e e6 57 96 3d
       0.14267588 0.349202 0.3112148 0.07340984
000360 42 68 df be d6 99 01 be ca a1 79 bc 6b 6e 0d 3e
       -0.4363423 -0.1265634 -0.015236327 0.13811652
000370 46 86 8d 3e 77 e5 b9 be 99 f0 80 3d 62 48 52 3e
       0.27641505 -0.3630788 0.0629589 0.20535424
000380 b9 1e 9a be 70 16 ba 3d 1e 3e f3 3d 4b ed d9 be
       -0.30101565 0.09086311 0.11877082 -0.42563853
000390 a9 6b d2 3d ff 77 52 be ed 0d c3 3e 94 9e 49 be
       0.10274441 -0.20553587 0.38096562 -0.19689399
0003a0 36 2f bf 3d 73 4a 81 3e df 2a 80 be f7 a8 0d be
       0.09335177 0.25252113 -0.25032708 -0.13833986
0003b0 58 1c d0 3d de 68 03 3e 2e 8e aa bd ad cc c0 be
       0.10161656 0.12832972 -0.083279 -0.37656155
0003c0 f8 33 f2 bd 78 b8 fb 3d 2b 59 5f be 91 21 5b 3e
       -0.118263185 0.12291044 -0.21811359 0.21399523
0003d0 af 9e b6 3e 44 04 a5 be 42 ef 8d 3e 03 50 86 be
       0.3566794 -0.32229817 0.27721602 -0.2623292
0003e0 78 ff 58 3d 33 ea 94 bd 41 fb 80 3e 20 5e 94 3d
       0.05297801 -0.072712325 0.25191692 0.072445154
0003f0 76 c9 24 be a8 5b a8 bc 80 e3 f0 3d 22 04 20 be
       -0.16092476 -0.020551518 0.11762142 -0.15626577

encoder.enc3.bias f4 [19]
000000 5c 7d d7 3d 20 ea 4d bb ab 2f 2b ba 6d 04 27 bd
       0.10521957 -0.0031420067 -0.00065302354 -0.040775705
000010 20 70 6e 3d c1 5d 35 3c d4 89 35 bd 32 fd 5e bc
       0.0582124 0.011069716 -0.044320896 -0.013610171
000020 fc 62 0c 3c 38 e4 78 bb de 6c c8 bc 57 e8 34 3c
       0.008568522 -0.0037977826 -0.024465974 0.011041722
000030 b5 6b 3f bc 2e 38 c3 bc 8a c0 82 3d a8 fa fe 3b
       -0.011683394 -0.0238305 0.0638438 0.0077813454
000040 1e be c5 37 07 d3 d6 3c 44 80 65 bc
       2.357276e-05 0.026223673 -0.014007632

encoder.enc4.weight f4 [7, 19]
000000 8f 5d 9a 3d d4 95 6c 3e b0 b3 39 be 89 1b 8f 3f
       0.07537376 0.2310403 -0.18134952 1.1180278
000010 e6 98 9f 3f e9 33 de be b2 b5 f5 3e 65 12 16 be
       1.2468536 -0.4339898 0.47990185 -0.14655454
000020 12 1a 6d 3e 82 2f 50 3f d9 f6 32 3d ad f8 43 3d
       0.23154476 0.8132249 0.043692444 0.047844578
000030 cd 39 35 3f 7e f8 5e bd af 4d 3c 3e 39 f8 b8 be
       0.7079132 -0.0544362 0.18389009 -0.3612688
000040 7c cd 5b bf 81 6c 06 bf 11 ab ef 3e 5c eb 35 3e
       -0.8586042 -0.52509314 0.468102 0.17765564
000050 2b 01 0c 3e 51 d7 a6 3e d1 0b a1 be 02 b0 a0 3d
       0.1367232 0.32586148 -0.31454328 0.07846071
000060 a3 a0 37 be 4e 94 e0 3e cd 02 1e be 84 f7 e2 3d
       -0.17932372 0.43863147 -0.15430756 0.11082366
000070 67 01 28 be 4b f4 29 be ce 3f f0 3d 41 1c 03 bf
       -0.16406785 -0.16597097 0.1173092 -0.5121499
000080 5a e0 99 3e f7 bf 92 3d f6 42 c3 bd 97 d7 25 be
       0.3005398 0.07165521 -0.09534256 -0.16195522
000090 04 cb 11 3f 73 3d c5 3d ad 89 3e 3e 6a 89 cf 3e
       0.569504 0.09630861 0.18607207 0.40534526
0000a0 85 3a 52 3e d3 2c 9a 3e d1 ac 9f 3e ed fc 88 be
       0.20530136 0.30112323 0.31186536 -0.26755467
0000b0 2d 35 26 3c 65 31 f7 3e 44 f0 40 be 88 bf 9c 3e
       0.010144514 0.48279873 -0.18841654 0.30614877
0000c0 00 1a a7 be dc 0e e7 be 0f 51 d5 be a5 70 57 3e
       -0.32637024 -0.45128524 -0.41663405 0.21039064
0000d0 4c d2 37 3e c6 9e 19 bd a5 c2 cb 3d 89 c1 16 bf
       0.17951316 -0.037504934 0.09949235 -0.5888906
0000e0 cd fe c0 bc cb d4 20 be 2c 70 ce be 97 88 05 3d
       -0.023558998 -0.15706174 -0.40319955 0.032600965
0000f0 78 f6 35 3f 5c 7a ea 3d 43 33 2c 3e dc ae d1 3e
       0.71079206 0.114491194 0.1681643 0.4095372
000100 f3 3d f7 be 15 b0 ca 3e 61 8f 6a 3e b2 98 90 3e
       -0.4828945 0.39587465 0.22906257 0.28241497
000110 6c e5 9e 3e 37 08 f1 3e 1e 7e e8 3e ab 06 e6 be
       0.3103441 0.4707658 0.4540872 -0.44926962
000120 be 84 b1 3e 8b e0 0a bf b5 6f 33 be 8f a0 0a 3e
       0.34671587 -0.54248875 -0.17523082 0.1353781
000130 38 6f a0 bc ba 40 cd bd dd 69 d1 3e fa b8 fa be
       -0.019584283 -0.10022111 0.4090108 -0.4896925
000140 9c e6 35 be da 24 cf 3d a9 02 8e 3d 11 0d 54 be
       -0.17763752 0.10114451 0.06934101 -0.2070811
000150 7a 2f a2 be 0b 50 69 be a2 ad e8 bd cf d7 e6 3e
       -0.31676847 -0.2278444 -0.11361243 0.45086524
000160 c0 c3 e3 bd 69 9a 27 3e 7f ad b2 3e e2 ef d8 3e
       -0.11121321 0.16367497 0.34897992 0.42370516
000170 a8 70 fe 3e 77 de 0e be 8d c2 91 be 79 d5 15 bf
       0.49695325 -0.13952051 -0.28468743 -0.5852886
000180 90 53 86 bd e5 08 0a 3e a3 65 a8 3d 9d e7 92 be
       -0.06558907 0.13479955 0.08222511 -0.28692332
000190 b5 74 fc 3e 8a fb 12 bf b8 b3 e3 bc 6d 77 c4 be
       0.4930779 -0.5741507 -0.027795658 -0.38372365
0001a0 67 6c f9 3e 6c f0 89 bd 16 35 f8 3d a6 a2 25 be
       0.48715517 -0.0673531 0.121195 -0.16175327
0001b0 0e c0 2d be 64 cf 5a be 6b 73 9d be 88 90 b7 be
       -0.16967794 -0.21368176 -0.3075212 -0.35852456
0001c0 62 1b a0 3e 5e 8f d5 bd 75 6d 3c be e7 61 1f bf
       0.3127089 -0.10427736 -0.1840113 -0.6225876
0001d0 f0 75 22 3d b9 b0 d6 be ca e4 7c be 9f 06 b4 3e
       0.039663255 -0.41931704 -0.24696651 0.35161301
0001e0 4c bc d4 3e 98 61 13 3e 09 2d 21 3d ea c4 d2 be
       0.4154991 0.14392698 0.03934959 -0.41165859
0001f0 30 6c 80 3e 23 1f 4d 3e 2c 15 22 be 2b 9f af bd
       0.2508254 0.20031409 -0.15828389 -0.08575281
000200 55 bf dd 3e bc a4 9f bd 72 52 ab be 07 3e eb 3e
       0.43310037 -0.077950925 -0.33461338 0.4594576
000210 70 f1 06 3e
       0.13178039

encoder.enc4.bias f4 [7]
000000 da 45 82 bb 8b b7 4e bc 77 13 97 bc a7 f6 8c bb
       -0.003975612 -0.012617002 -0.018441899 -0.004301864
000010 96 58 9f 3c 2c bc 17 bc 9b 24 45 bc
       0.01945142 -0.009261172 -0.012032653

decoder.dec1.weight f4 [19, 7]
000000 c7 c4 2b 3e 40 6a ad 3e 79 03 f5 bd 16 43 02 bf
       0.16774283 0.33870125 -0.11963553 -0.50883615
000010 db 69 4f bf d7 e1 1d be 9a 85 92 3e 78 ca d6 be
       -0.810209 -0.15418182 0.28617555 -0.41951346
000020 a2 e3 ac 3f c7 d7 6e 3e e2 86 8a 3f 64 f7 4f 3f
       1.3506968 0.233245 1.0822413 0.81236863
000030 17 7a c2 3e 68 68 4b bf 43 0d c8 3e e3 06 05 bf
       0.37983772 -0.79456186 0.39072618 -0.51963633
000040 52 52 da be 82 be 59 bf d6 3b 0c 3f ea c5 aa 3e
       -0.4264093 -0.85056317 0.547788 0.3335412
000050 53 78 3a 3f 0f 92 34 be 73 32 de be 3b a2 db be
       0.7283985 -0.17633842 -0.43397865 -0.4289721
000060 55 7e c3 3e 71 72 2d be 91 3f 4e bf d2 78 3a bf
       0.3818232 -0.16938187 -0.80565745 -0.7284061
000070 dd 9d dc 3e 00 34 8b be fc 6f 02 3e 2b 0a 65 bf
       0.4308919 -0.2718811 0.12738031 -0.8946864
000080 fa 01 7d 3e 00 0f cd be 60 e1 e5 be 1c a2 22 3f
       0.24707785 -0.40050507 -0.4489851 0.6352861
000090 22 55 f3 be fa a2 aa bf 39 65 ae 3e 12 7c c6 3d
       -0.4752589 -1.3330986 0.34061602 0.09691633
0000a0 59 ed 77 be f5 30 5c 3f e2 40 e8 be 1b b7 5c bf
       -0.24211635 0.860122 -0.45362002 -0.86216897
0000b0 7b 39 29 bf ec a2 79 bf d6 12 58 bf 3a 68 36 3f
       -0.66103333 -0.97514224 -0.8440374 0.7125279
0000c0 69 ac 54 bf 18 cd ad 3e 19 61 71 3f 67 22 08 bf
       -0.8307558 0.33945537 0.94288784 -0.53177494
0000d0 0f 1d 41 3f 47 84 ae 3e c3 d3 7a 3e bb e3 5b bf
       0.75434965 0.34085295 0.24494843 -0.85894364
0000e0 cb 52 a6 3e 49 29 1f be 5a 32 7e 3e 40 ca db 3b
       0.3248504 -0.15543093 0.24823895 0.0067074597
0000f0 b8 e3 45 3e ee 42 56 bf 12 52 2e be c3 9f e0 3e
       0.19325149 -0.83695877 -0.17023495 0.4387189
000100 c0 2b 82 3f df ef 72 bf be d2 e2 bc f4 f4 68 bf
       1.0169601 -0.94897264 -0.02768838 -0.9099877
000110 3f 46 3b bf 30 90 48 bd 80 b4 38 3e f0 05 2a bf
       -0.7315406 -0.048965633 0.18037605 -0.6641531
000120 48 20 a6 be 53 88 8d 3e f8 dd e0 3e ce 73 46 bf
       -0.32446504 0.2764307 0.4391935 -0.77520454
000130 e7 50 16 bf d2 70 66 bd d5 85 5b 3f 11 7c 1d be
       -0.587172 -0.056259938 0.85751086 -0.15379359
000140 3c a9 6d 3f e5 93 61 bf 45 a4 e4 3d b7 2a 59 3f
       0.92836356 -0.88116294 0.111641444 0.848308
000150 a7 d9 d0 be 0a ea 6f bf f7 34 78 3f da 9a 7e 3e
       -0.40791056 -0.9371649 0.9695582 0.24863759
000160 e0 3f 18 bf 11 e1 a5 3e de 65 8f 3f 44 f4 ed be
       -0.59472466 0.32398275 1.1202962 -0.46475422
000170 3a 11 71 bf 35 fa 63 3f f8 98 4d 3f 0e 59 2f bf
       -0.9416691 0.8905366 0.80311537 -0.6849526
000180 b5 c1 7e bf e9 b5 48 bf 16 22 fd 3e ec 58 82 3f
       -0.99514323 -0.7840257 0.49440068 1.0183387
000190 01 4d a6 be 44 e7 bb 3e 76 3e 8a 3f c8 9e 09 bf
       -0.32480624 0.3669988 1.0800312 -0.53757906
0001a0 58 85 8b be 71 3d 6e 3e da c4 18 bf 97 af 91 bd
       -0.2725017 0.23265626 -0.5967537 -0.07113569
0001b0 a8 bb 69 3f 29 86 ca be d3 dc 4f bf d7 52 20 bf
       0.91301966 -0.3955548 -0.81196326 -0.62626404
0001c0 4f 62 43 bd 50 23 b8 be 8d 49 c2 3d 7f 69 a3 3f
       -0.047701176 -0.3596444 0.09486685 1.276657
0001d0 a1 be 4b 3f d3 8b d3 bc 70 7e fd 3e 9d 27 9f 3e
       0.7958775 -0.02582351 0.49510527 0.3108491
0001e0 ff e8 c8 be 50 7e 75 3f 8e f9 1a 3d 77 9c d5 3e
       -0.39240262 0.9589586 0.03783565 0.41720936
0001f0 a5 8c 8c be 1b 89 25 3f 5f 65 a5 3e 33 da 20 3f
       -0.27451053 0.6466233 0.32303903 0.62832946
000200 ac e6 63 3f de 11 69 bf 96 36 dc 3d 37 f6 88 3f
       0.8902385 -0.9104289 0.10752599 1.0700139
000210 ad 6c 28 3e
       0.16447707

decoder.dec1.bias f4 [19]
000000 af 7d 18 3d c8 fc b6 3d 08 76 30 bc 55 b7 8d bc
       0.037229236 0.08934933 -0.010770328 -0.017299334
000010 9f 9d 2e 3d 8e df 26 3c fe e6 03 3c 08 d8 76 be
       0.042630788 0.0101851355 0.008050678 -0.24105847
000020 f9 12 8e 3c 18 71 b3 bd af fb ee 3c 65 14 63 bd
       0.017343031 -0.08761805 0.029172746 -0.05543937
000030 eb 7d 90 bc 81 45 68 3c cf 68 69 3c 53 a4 98 3c
       -0.017638167 0.014176727 0.01424618 0.018633043
000040 8c 90 b3 3c f4 ca c4 bc ed 7c d5 bb
       0.021919511 -0.024022557 -0.0065151365

decoder.dec2.weight f4 [39, 19]
000000 84 70 83 bd 6e 86 e3 be fe ef d8 be 90 8c d8 bd
       -0.06417945 -0.444385 -0.423706 -0.10573685
000010 10 fc 77 be e4 3a 10 3e 70 c8 78 be 41 b7 d9 3e
       -0.24217248 0.14084965 -0.24295211 0.42522624
000020 0e a7 42 be aa 7d dc 3e 46 18 70 3d e9 b6 d4 be
       -0.19009039 0.43064624 0.0586169 -0.415458
000030 69 e2 5c 3e 93 bf 75 3c a4 34 a8 bd 15 68 d4 bd
       0.21570744 0.014999288 -0.082131654 -0.103714146
000040 9f b5 ee 3e 35 c4 18 3f b9 f9 71 be c4 04 0e 3f
       0.4662294 0.5967439 -0.23630418 0.5547602
000050 10 5f c6 be 55 a2 87 3e 03 40 7b be 91 e4 b2 bd
       -0.38744402 0.26491037 -0.24536137 -0.08735002
000060 8f 35 86 3e 45 f0 e0 be e0 d5 16 3e 6b e4 d2 3d
       0.26212737 -0.4393331 0.14730024 0.102974735
000070 96 de 23 3f 98 be 6f 3e 1f 97 81 3d 35 c3 61 3e
       0.64011514 0.2341255 0.06327652 0.22047122
000080 fa 9b a4 be cd c0 35 be 4e d5 8e bc 25 8e 07 3f
       -0.3215025 -0.17749329 -0.017435696 0.5295127
000090 b4 83 58 3e e0 9f 45 3e 5d e8 ae 3c 0c 9e a1 3d
       0.21143991 0.19299269 0.021351034 0.07891473
0000a0 41 be b6 3e c0 c4 9f 3e 1c c2 a9 3e f0 3b 3e 3e
       0.35692027 0.31204796 0.33155906 0.18577552
0000b0 98 e2 6f be 34 43 9e 3e 68 93 b7 3e fb 51 03 bf
       -0.23426282 0.30910647 0.3585465 -0.5129697
0000c0 aa 85 00 bf 0f f6 fa be 05 ed 0c be 32 c7 ac 3d
       -0.50203955 -0.49015853 -0.13762291 0.08436431
0000d0 f3 64 a6 3e 7a f9 99 3d 9b f3 5c be 6b 3b 0b 3f
       0.32498893 0.07518287 -0.21577303 0.5438754
0000e0 b0 d0 01 3f 37 62 93 3d 37 cf 14 be a3 a6 d2 bd
       0.50709057 0.07196467 -0.14532171 -0.1028569
0000f0 e7 27 b1 3e 1b c2 fe bd d9 e6 55 bd 19 61 37 bf
       0.34600756 -0.124393664 -0.052222107 -0.71632534
000100 86 10 7e 3e 53 7d bd 3e 68 58 12 be cc 88 b4 bd
       0.2481099 0.37009677 -0.14291537 -0.088151544
000110 f6 dd 82 be 1c 22 f6 3e 1b bb 06 3f 86 6e c3 be
       -0.25559968 0.48072898 0.5262925 -0.3817026
000120 29 92 05 bf ae 22 65 bf 6c 93 4b 3e fe 39 53 bf
       -0.5217615 -0.8950604 0.19880456 -0.82510364
000130 8f 8b 51 bd eb 64 ab 3e 98 3b a4 bc fd 41 be 3e
       -0.051158484 0.33475432 -0.020047948 0.3715972
000140 fc cf 0b be 81 73 2c bf 2d aa c1 be 09 df fb be
       -0.13653558 -0.67363745 -0.37825146 -0.491936
000150 a7 0e bb 3e 40 7c ff be b9 06 26 be fd b5 03 3e
       0.36534616 -0.49899483 -0.16213502 0.12862392
000160 a6 6f c7 3d 95 d6 3c 3f a0 ef 28 bf 99 5b 60 3b
       0.09738092 0.73764926 -0.6599064 0.0034234284
000170 0f ce df bb ab 52 b1 be 6e 1d d0 be 53 de ec bd
       -0.006829984 -0.34633383 -0.40647453 -0.115658425
000180 75 00 7a bd b4 9f 42 bf ee e4 c2 3e 5a 11 08 be
       -0.061035592 -0.7602494 0.38065284 -0.13287869
000190 a7 0b 08 3e b9 47 15 bf 72 d7 8c bd 37 9f 56 bd
       0.13285695 -0.58312565 -0.068770304 -0.052397933
0001a0 61 09 ba be c4 6f 3d be 75 41 7b 3f a0 97 e2 3e
       -0.3633528 -0.18499666 0.98146755 0.44256306
0001b0 af 02 e5 3e 13 6c 80 3c de bf 96 be fa ea b0 3e
       0.4472861 0.015676534 -0.29443258 0.34554273
0001c0 14 b8 df 3e 88 3b 83 3e 47 c9 4c 3e 71 70 c8 3e
       0.43695128 0.25631356 0.19998656 0.39148286
0001d0 f8 fc 36 be 41 a7 59 3e 8b 9e 4c be 92 27 18 bf
       -0.17869937 0.21255209 -0.19982354 -0.5943538
0001e0 c3 1c 03 3f de 02 bc be 2c 46 5b be 39 6c 1c 3e
       0.5121576 -0.36720937 -0.21413487 0.15275659
0001f0 23 cb 9b 3b 73 09 8e bd ca f0 32 be e4 fc c2 3d
       0.0047544404 -0.06935396 -0.17474666 0.09520891
000200 56 65 15 3f 70 77 38 3e 29 84 66 3f a2 86 9a bd
       0.5835775 0.18014312 0.9004541 -0.075452104
000210 ba 17 0e 3f 4e 7d 05 3f 25 29 06 3f 8c 5f de 3e
       0.55504954 0.52144325 0.5240653 0.4343227
000220 26 76 8e 3e 2b b1 a7 bd 47 35 3a bf 77 d7 49 3d
       0.27824515 -0.08188089 -0.72737545 0.04927775
000230 bd 04 e2 3e 0c 07 07 bf fc 98 0f 3e 02 0a bb 3e
       0.4414424 -0.5274513 0.14023203 0.36531073
000240 68 bf 15 bf 0a 41 35 3f d2 bf b2 bd 2f 8d 0a 3e
       -0.5849519 0.70802367 -0.08727993 0.1353042
000250 e4 0d 72 be 24 e6 07 bf fb 10 c1 3e 43 79 37 bf
       -0.23638111 -0.5308554 0.37708268 -0.71669406
000260 79 3a 4e 3e 1b a6 a6 be 17 ec 0e bd 44 9f 96 bd
       0.20139493 -0.32548603 -0.03489312 -0.07354596
000270 d7 d0 06 be 1e e1 3a be c4 01 09 3f 45 89 66 be
       -0.13165604 -0.18249938 0.5351832 -0.22513302
000280 13 2c fa bd bf 94 24 be 8e ff e4 bd d6 a4 3a 3e
       -0.12215438 -0.16072367 -0.11181556 0.18226942
000290 d3 d7 0a 3e 31 d8 c6 3c 8b 4b e4 3c fd 3c 1c 3f
       0.13558893 0.02427301 0.027868053 0.6103056
0002a0 46 62 f6 3e 68 9f 5f be 26 94 d6 3e cf 2f 60 bd
       0.48121852 -0.21838152 0.41909903 -0.054733094
0002b0 6b fe 78 3f e3 96 f6 be ee 36 00 3e f5 9a f0 be
       0.9726321 -0.48161992 0.12520954 -0.46993223
0002c0 e9 27 02 3e 08 4f ad 3c fb 92 aa bd 49 e2 e5 bd
       0.12710537 0.02115585 -0.083288155 -0.11224801
0002d0 06 2b a9 be 94 f3 af be 31 0b 5f be 5b 67 e3 3e
       -0.33040637 -0.34365523 -0.21781613 0.4441479
0002e0 9d 0c 0f 3e 5c 9f 2e 3f 73 e2 6a bd 95 6e 0f bf
       0.13969655 0.68211913 -0.057344865 -0.5602811
0002f0 cc 8d 18 3f 57 83 b5 be ad 6f 04 bf 5b c4 11 bf
       0.59591365 -0.35451767 -0.51732904 -0.5694024
000300 70 70 02 3f 8c 81 ae 3e 99 fa 54 3f 62 c5 ee 3e
       0.50952816 0.3408321 0.8319488 0.46634966
000310 d1 d0 b3 3e fc fb 49 bc c7 90 5b be 81 d2 22 3d
       0.35120252 -0.012328144 -0.21441947 0.039751533
000320 c9 5a 3b 3e 22 e6 fd 3e 1d 5f ae 3c ae dd 0f be
       0.1829635 0.4958964 0.021285588 -0.14049408
000330 25 df 8b be 7c 64 d4 be c8 fa 2e be 6c 33 fe 3e
       -0.27318683 -0.41482913 -0.17087853 0.49648607
000340 50 fa ab 3e d7 da 17 bf d9 d8 52 bf 1f a1 d4 3e
       0.3358941 -0.593183 -0.82362133 0.41529176
000350 fd fc 44 bd 38 a5 b1 3c 1e 1e 54 bf a0 52 2b 3e
       -0.04809283 0.021685228 -0.82858455 0.16730738
000360 5b c5 bd 3e f9 4f 87 3c 5d 9e 03 3f 47 d2 12 be
       0.37064633 0.016517626 0.5141352 -0.14338027
000370 b9 3a 57 bc 52 6b bb 3e 8f eb 0d be a1 2b ae 3e
       -0.013136559 0.36605316 -0.1385939 0.3401766
000380 7b e8 98 3e 31 b5 bc 3e e8 02 3b 3f 05 26 7f 3e
       0.2986487 0.36856988 0.7305131 0.24916847
000390 0a 11 04 bf af 0e 96 3e 7b e6 72 bd de 60 32 3e
       -0.515885 0.29308078 -0.059301835 0.17419764
0003a0 a7 cb 8d be b3 ec bd 3e 4e d0 bd 3e bf f3 c0 3d
       -0.27694437 0.3709465 0.37072986 0.09421491
0003b0 66 77 39 3f 95 55 c5 be ca b2 29 3f 83 80 b2 3e
       0.7244781 -0.38541856 0.66288435 0.34863672
0003c0 82 bb e2 be cc 1f 6e 3f 8a 1d d1 bd cd 7f e8 be
       -0.44283682 0.9301727 -0.10210712 -0.45410004
0003d0 8f 59 b3 3f 11 60 65 3e 79 c0 44 bf 4f 80 95 3e
       1.4011706 0.22399928 -0.7685619 0.29199454
0003e0 5a c5 31 3f 0e c4 8b be c7 18 4c be f9 25 92 3e
       0.6944176 -0.27298015 -0.19931327 0.28544596
0003f0 2c 7a bd 3d cc 56 04 3f 3e 94 e0 bd 71 9b 64 3e
       0.09251818 0.5169494 -0.10965775 0.22324921

decoder.dec2.bias f4 [39]
000000 5f ac 61 3d 1d d5 9e 3c 8d ff 0d 3d 71 09 47 3d
       0.055096027 0.01938873 0.03466754 0.04859299
000010 bb 36 2c 3d 11 58 8e 3d 3f c0 13 3d 51 dc 6b bd
       0.042044383 0.06950391 0.036072012 -0.057583157
000020 a3 11 9e bc a6 a0 bb bc ee 77 11 bc 06 0a aa 3d
       -0.01929552 -0.022903752 -0.008878691 0.08302693
000030 a1 a7 18 3c 3a 50 fe 3c 81 63 d7 bc 6d 13 0c bc
       0.00931731 0.031044114 -0.026292564 -0.008549553
000040 06 eb 15 3d 47 b1 30 bc 9e 71 54 bb 32 1d bb 3d
       0.03660109 -0.010784454 -0.0032416354 0.09136428
000050 08 67 cc 3d 79 49 87 3d 27 c2 b5 bd 1e 54 d2 3d
       0.09980589 0.06605811 -0.08874922 0.1026995
000060 e3 15 56 bc 0f 56 12 bd b4 d9 3c 3a 1b 3d eb 3d
       -0.013066742 -0.035726603 0.0007204071 0.11486264
000070 0f 1b 19 bc 56 84 ec 3b 64 aa ee 3b 1b ed 4c 39
       -0.00934483 0.007217924 0.0072834957 0.00019543285
000080 96 1b 1d bd d2 fc 89 3c 65 24 b5 3d 3d ac 8d bc
       -0.038356386 0.016844187 0.08844832 -0.017294044
000090 ff ed 05 bd a0 31 85 bd 5d 72 00 3d
       -0.032697674 -0.06503606 0.031359065

decoder.dec3.weight f4 [58, 39]
000000 04 92 54 be 19 bc b9 be 95 54 cc bd 6a cb 44 3b
       -0.20758826 -0.3627632 -0.0997707 0.003002847
000010 ca 82 4c bd af 76 61 be 9e da 75 be 18 b3 3b 3d
       -0.049929418 -0.2201793 -0.24009177 0.045825094
000020 58 78 91 3d cb 85 55 3f 75 d3 33 be b5 e1 ad 3e
       0.07103032 0.83407277 -0.17561133 0.33961263
000030 b8 b0 0c 3f f5 89 80 3e f5 59 f5 bb 08 a6 c5 3e
       0.5495715 0.25105253 -0.0074875304 0.38603234
000040 49 de 52 3d e2 fa ad be cc d7 b4 3e 08 91 ae be
       0.05148152 -0.3398047 0.3532089 -0.34095025
000050 ba 8d 7c be 08 6c 37 3f 1f fe 32 3e 5f 91 b5 be
       -0.2466344 0.7164922 0.17479752 -0.35462472
000060 67 c4 84 be bc 28 ef 3e a5 e4 9d be f3 77 82 bf
       -0.25931093 0.46710765 -0.30838504 -1.0192856
000070 e5 c2 c5 be d8 bc 70 bf 8d fa 76 bd a6 e0 86 be
       -0.38625255 -0.9403815 -0.060297538 -0.26343268
000080 b5 98 b2 3e 0f f6 b0 be e6 f4 7b be 7c 62 be 3d
       0.3488213 -0.34562728 -0.2460514 0.09296128
000090 2c 50 5c 3e a1 e2 83 3d dc 66 82 3e 41 4f fc 3c
       0.21514958 0.064397104 0.254691 0.03079951
0000a0 5c 64 67 bd d8 e6 91 3e 81 a1 96 3e 60 cf 0a 3e
       -0.056492195 0.28496432 0.29420093 0.1355567
0000b0 de 99 01 3f 8d 2b 8a 3e 7e b5 e6 3e 0b a4 bd 3e
       0.5062541 0.26986352 0.45060343 0.37039217
0000c0 d0 de f2 bd c6 31 c9 be 84 05 0f bd 0e af 77 bd
       -0.11858904 -0.39295787 -0.03491737 -0.06046968
0000d0 39 b0 59 bd 40 76 fd 3e 0e 25 9a 3e 1b 8c 93 bd
       -0.053146575 0.4950428 0.30106395 -0.07204457
0000e0 43 4c 50 be 6d 0e 0d bf 86 79 35 bb 2b 7f cc 3e
       -0.20341592 -0.55100137 -0.0027690842 0.3994077
0000f0 4c 29 42 be 5c 37 42 3e 44 ff e0 be a2 07 4a 3e
       -0.18961066 0.1896643 -0.43944752 0.19729474
000100 c8 16 fd be e6 d5 61 3e 0d 57 64 3e 81 ac cb bd
       -0.49431443 0.22054252 0.22298832 -0.09945012
000110 cc 56 c4 be 77 f3 b8 3d b2 17 7d 3e c5 5d d2 bd
       -0.3834747 0.09030812 0.2471607 -0.10271791
000120 e1 81 ed bd e2 98 9e 3b 31 3f 9c be fa a3 c7 bd
       -0.11597038 0.0048400024 -0.3051696 -0.09748073
000130 c0 f0 32 3e a3 a6 5e bd a0 a0 fb 3e 0b 13 db 3d
       0.17474651 -0.054358136 0.49145985 0.106969915
000140 60 ba 97 3d 8b b6 55 3e f0 99 14 be 05 0e 82 3e
       0.07408595 0.20870416 -0.14511847 0.2540132
000150 49 54 d9 bc ca 74 2e 3e 4e 87 a9 be d1 19 4e 3d
       -0.026529448 0.17036739 -0.33111042 0.05031759
000160 f2 fd 98 be 6f 0f 88 3e 40 98 a5 3e 13 6e 2b be
       -0.29881245 0.26574275 0.3234272 -0.16741209
000170 ff d9 d6 be 4a 18 1e bd e5 c1 e1 3e d3 5f 32 3e
       -0.41963193 -0.038597383 0.44093242 0.17419367
000180 47 9d fc bd 0b 9e 03 3e a4 64 a2 3e e8 4b be be
       -0.12334686 0.12853257 0.31717408 -0.37167287
000190 00 ba 12 bd 5c df 19 3f 4e b7 b2 3e b3 8f 18 3e
       -0.035821915 0.60106444 0.34905475 0.14898567
0001a0 de 4c 7c bd 4a f9 3a 3e 6d 75 00 bf f8 24 74 be
       -0.061596744 0.18259159 -0.5017918 -0.23842227
0001b0 26 17 38 be ca 3c 63 be 5e a1 81 bd ff 80 4c be
       -0.1797758 -0.22191158 -0.063296065 -0.19971083
0001c0 1b 2a a0 3e 29 eb 04 be 1c f1 c1 3e 21 fa 5a 3e
       0.31282124 -0.12980331 0.37879264 0.21384479
0001d0 dc e0 b5 bd 29 cb 2a 3f 3d a4 00 be fd a0 33 be
       -0.08880779 0.6671625 -0.12562652 -0.17541881
0001e0 0c de 35 3d e1 62 01 bf 03 23 e5 be 40 6e 82 3e
       0.044401214 -0.505415 -0.44753274 0.2547474
0001f0 26 af 2e 3f 59 3e 20 3d 3c 28 93 be e8 07 60 3e
       0.68236005 0.03912196 -0.28741634 0.21878016
000200 3a 4d 31 3d 4a 3f 4e 3f 1b fa 7a be 8f 36 5a 3f
       0.04328654 0.8056532 -0.2450947 0.852395
000210 0d df c8 be 45 93 f2 3e 7b ad 28 be ca f1 5e 3f
       -0.39232674 0.47377983 -0.16472428 0.8708769
000220 45 11 97 be 27 b6 85 be 47 0a d3 3e 3b 4f f3 bd
       -0.29505363 -0.26115534 0.41218778 -0.118803464
000230 72 66 5e bf f4 61 b7 be bd 9b 13 be 7b d3 8e 3e
       -0.8687507 -0.3581692 -0.14414878 0.27895722
000240 99 a3 24 3f 8f b4 c0 be 93 dc b6 3d 65 65 c9 be
       0.6431213 -0.37637755 0.0892879 -0.3933517
000250 2d 67 bc be 3f b2 b0 3e 78 e4 31 3e 47 26 b9 3d
       -0.36797467 0.3451099 0.1737231 0.09040504
000260 37 76 96 3e 64 c7 2a bb 45 ba 74 be 70 88 9c bd
       0.29387066 -0.0026058787 -0.23899181 -0.07643211
000270 bd 12 92 3e e4 58 ad 3e 23 37 fc 3c 37 ba eb be
       0.2852992 0.3385688 0.03078801 -0.46040508
000280 1a 46 75 be 52 21 6b 3e 6b db a0 3e f3 7f 00 bf
       -0.23952523 0.2296193 0.31417403 -0.50195235
000290 99 da b5 3d 8b 18 ef 3d c5 19 ad 3e 29 2d e2 3d
       0.08879585 0.11674603 0.33808723 0.1104377
0002a0 38 9f 8e 3c 05 7f 4c 3e d6 02 f7 3e aa 0a 50 bd
       0.017409906 0.19970329 0.4824435 -0.05079142
0002b0 04 67 1e 3b b1 d8 29 bb 3c 39 d7 bc 31 ed 34 3e
       0.0024170289 -0.0025916512 -0.026272409 0.17668606
0002c0 fc 9d 41 3b b6 89 ab 3d 71 f4 62 3e 40 aa 9e 3d
       0.002954363 0.08375876 0.2216356 0.07747316
0002d0 f9 44 0f be 41 b7 b9 3c e4 45 54 be 8a e1 15 3e
       -0.13991155 0.02267039 -0.20729786 0.14636818
0002e0 a4 0a ac 3e 9d ef a8 3c c3 4f 31 bc f5 08 2b be
       0.33601868 0.020622069 -0.010822239 -0.16702636
0002f0 83 4a 05 3b 54 dc 83 be 0a f5 fb bd 56 f2 8e be
       0.0020338602 -0.25754035 -0.12302597 -0.27919263
000300 be b0 05 3e e2 1f b5 be ef 26 8f bd 01 ae 6b 3c
       0.13055703 -0.35375887 -0.06989848 0.0143847475
000310 b2 19 6b 3d 4c da 0a be aa 88 05 bf 91 be 9e 3e
       0.05739755 -0.13559836 -0.5216166 0.31004766
000320 19 fc 20 3e 5a 46 a7 3e 56 45 f7 bd 10 90 3f be
       0.15721168 0.3267086 -0.12073772 -0.18707299
000330 91 ee 1b 3f b6 ec 56 3e 10 3c a3 be 5f 54 c7 3e
       0.609109 0.20988736 -0.31881762 0.38931558
000340 e2 fc 35 3e 02 7e 8c 3e 36 1c 3b 3e 41 8d 0f 3f
       0.17772248 0.27439886 0.1827248 0.5607491
000350 ae 52 3f bf 9d e8 91 be be 23 71 be 40 d4 8a 3d
       -0.74735534 -0.28497782 -0.23548791 0.06778765
000360 b5 2b 4a 3e 44 4d 06 bd 7b a3 a9 3e ca 51 7a 3e
       0.19743235 -0.03278853 0.33132538 0.24445263
000370 c3 a0 f3 be b3 21 1e 3e e8 f3 e1 be b0 22 86 3e
       -0.4758359 0.15442543 -0.44131398 0.2619834
000380 9c a6 5c 3e 41 bc bc bd ef 4f 1e be 1a e3 8e bd
       0.21547931 -0.09215594 -0.1546018 -0.0697691
000390 f2 ed d6 be f1 ae 5b 3e c1 86 82 3e aa cc d8 bd
       -0.41978413 0.21453454 0.25493434 -0.105859116
0003a0 80 0a 17 3e 41 35 7c be 0f 72 9a bb 6b 0d 89 be
       0.14750099 -0.2462969 -0.004713304 -0.2676805
0003b0 2d 6d 6a 3e bb ad 16 3e f1 8c f4 bc 89 c9 b3 be
       0.2289321 0.1471471 -0.029852362 -0.35114697
0003c0 6b 5a 0b bc a4 60 9d 3e 36 a8 91 3e 78 5f e1 bc
       -0.008505444 0.30737793 0.28448647 -0.027511343
0003d0 b8 25 93 3c e7 e9 01 bd a0 84 a2 be 14 e4 90 be
       0.017962322 -0.031717207 -0.3174181 -0.2829901
0003e0 49 0d 71 3d ff 3f bb bd 40 3f 75 3e 80 68 eb 3d
       0.05885056 -0.09143066 0.23949909 0.11494541
0003f0 0e df c1 3e b1 6c 98 be c7 98 00 3e 7c 20 d5 3e
       0.3786549 -0.29770425 0.1255828 0.41626346

decoder.dec3.bias f4 [58]
000000 00 dd ae bc cc fc b3 bd 2c 82 84 3d 8a bd c6 bd
       -0.021345615 -0.087884516 0.06470141 -0.097041205
000010 e9 55 5e bc 64 ac a2 3a 81 f7 17 3b 07 54 50 3d
       -0.013570287 0.0012410996 0.0023188295 0.050861385
000020 c7 3d 99 3b 52 22 e6 3d ee 05 21 3d 10 36 1c bd
       0.004676554 0.11237015 0.039312296 -0.038137496
000030 a4 cc 6b 3d 5e 07 16 3d c6 47 dc 3c fc 24 b0 3c
       0.057568207 0.03662812 0.026889693 0.02150201
000040 89 b6 66 3c 54 1d ba 3c 11 dc cb bb 5e e2 89 bc
       0.014081606 0.022719063 -0.0062213023 -0.016831573
000050 61 25 24 3d ff 7f 7a 3d 3b bb b5 3d d4 b5 92 3d
       0.04007471 0.061157223 0.08873602 0.07163587
000060 ba 44 85 3d e2 eb e0 3b 86 cf ad bc c6 b0 af bb
       0.06507249 0.006864057 -0.021217119 -0.005361649
000070 5f 0b 9a 3c dc 9c 8f 3d 5f 7c 77 bc 72 2b 26 3d
       0.01880425 0.070123404 -0.015105336 0.040568776
000080 1c 77 24 3c 57 16 83 3d 66 f0 03 3d 6c ef 7e bb
       0.0100381635 0.06400745 0.032211684 -0.003890003
000090 24 1f 50 bd 3a f4 fe bc 51 18 a4 bd 7b b2 ba 3c
       -0.050810948 -0.031122316 -0.080124505 0.022790184
0000a0 1a 08 47 3e a0 04 d7 3c 59 e7 4b 3d 04 53 c2 bc
       0.19436684 0.026247323 0.049781177 -0.023721226
0000b0 c8 9d 26 3d 57 2f 1c 3d db 5e 63 bc 16 1d 17 bd
       0.040677816 0.038131084 -0.013877596 -0.036892973
0000c0 64 e0 00 bc 82 77 b1 3d 92 0d ad 3d 62 a9 fe 3d
       -0.007865999 0.086653724 0.08449854 0.12434651
0000d0 57 02 b7 3c 32 a3 22 bb 08 61 d9 3d 05 c4 6e 3a
       0.022339983 -0.002481651 0.1061421 0.00091081887
0000e0 0e 43 a6 bc 0b f1 72 3c
       -0.020295646 0.014827977
