IDS_TA/Wednesday_Models/CADE-m1.0-l0.01.pth (torch, 67910 bytes, 16 tensors)

encoder.enc1.weight f4 [58, 78]
00000000: 51fa 523e 676a 4c3e 74ce f4bc c78b 283c
00000010: 7f2f f23d 7c86 61bc d0cb e8bc 9bc1 563d
00000020: 15fc 87bd ab62 2bbd d413 fa3c e06a e7bd
00000030: cabd 073c 56b0 fdbd 0b83 d7bc a742 893e
00000040: 45ea f73d 18c1 8e3d 272d 643e 450b ef3d
00000050: 54e7 4d3c 8aab c4bd c031 17be e9c7 85bd
00000060: c6bb 173e adc6 f7bd 08dd 803e a329 d2bc
00000070: c378 0d3c e24e 313e d761 283e 1501 90be
00000080: c00a 05ba cdf5 46be 6333 a73d ea40 83bc
00000090: a8ab 503e 4c05 4a3e d04c 54be 567e 0bbe
000000a0: 12eb 523e 4c06 1abe e170 94bc 63ef 1e3e
000000b0: 9a74 27be 9a47 163e 6f8b 5abd a36e 513d
000000c0: 8959 2a3e 59a1 84be 6b10 103e fb65 823e
000000d0: 3304 a4bd e8e5 963e 5c4d 4cbd 7e8e fabd
000000e0: b8fb 963d 16d3 cbbe 3403 12be 2d43 b5bd
000000f0: 0947 3bbd 1f6b 383c a58c f23d 32f1 04be
00000100: 0644 09bc 92bc 86bd 85b7 2d3e dd47 163d
00000110: a9ee cc3e f958 6c3d 2cc2 b43d 745c 2c3e
00000120: cb15 54bd 195f 063d a44f 4bbe 4096 cb3a
00000130: 59d0 e6bd 0499 ae3d 4569 1c3e 5904 99be
00000140: cbb0 533e ddbd f2be 858b 2ebe 8654 f4bd
00000150: 3b5b 46be f5ef 95bd 3a42 653e 67dc 6d3e
00000160: fd4b f4bd f8ac e63c d3b1 983e e1e2 fc3c
00000170: 4682 fe3d a5eb 2abe 97c3 323e 8b5e 873e
00000180: b897 68be c6f6 8c3e a5a8 12bd 048e 97bd
00000190: e603 87be b394 593e 70f7 fdbd 3f35 a5bd
000001a0: c275 12be 33de 0ebe 9886 843e 5821 2d3d
000001b0: 78b5 15bc a734 8abe 296b ad3e 6c3f 153e
000001c0: 5e9b 2cbe 985a ee3c d46f 93be 3ca2 9a3d
000001d0: 614f 063e a352 20be 0393 8cbc 7c23 45be
000001e0: 78c7 e73d ef08 50be 54f6 fcbd 07f0 01bc
000001f0: b347 fd3d fb06 873e 2bba d6be 0942 a1bd
00000200: 49d7 62be 7305 12be 453a fa3d 57ea 09be
00000210: bebd ea3d f079 8cbd d9c3 913e 02ea 8a3e
00000220: 5464 bebd 5e58 31be 85cb 503e 83c9 a1bc
00000230: af91 853e d466 adbc b786 073d f8c1 39bc
00000240: c93d f23d 9a9f a1bc dc4e 293e 1234 7a3e
00000250: 57e1 7e3e 6af6 b63c 201e 45bd d367 f33d
00000260: d160 313e 8504 54bd 441e 4cbe 0428 413d
00000270: 7227 0f3e 70d4 6c3c 34a3 22bd bcbc 06be
00000280: 0ebb febe 29d1 6bbe 135f e8bd 4d0f 8ebe
00000290: 951a ea3d 7644 2b3e 242e a33d b3b3 e1bb
000002a0: 19e2 39be e6cf b4bd 0063 1d3e 2c1f ae3e
000002b0: 8b09 5fbe 28ab 4e3e 8ef0 0fbe ba3f 19bb
000002c0: 85e8 4bbe 1fed 973d 1d65 603c 3cae 8abd
000002d0: 430e 3a3e c7a2 8fbe 43cb afbd aab2 dbbd
000002e0: c042 09bd c641 b63d ce82 993e 68fc e6be
000002f0: f160 a4be 10e2 753d 1ad9 ec3c b7ed aabe
00000300: 40fa c7be 5057 e33d 84ce 50be 7daf 48be
00000310: 108b 963d 476d ed3c 6783 453e b155 99be
00000320: 261a bd3d fbfd 173e 099a 3fbd a92d 14bf
00000330: 8b60 c0be 3123 56be d1e3 b8bd e38f 06be
00000340: 5759 a6be 5bd8 c73d 4723 63be d0f8 f1bd
00000350: 73b1 65bb abef f53e ee5a ce3d 6ed3 80bd
00000360: 618d 91bc 4e0b e83d 8c40 aebd dfb6 f03c
00000370: 91ea 863d b3f3 a53d 9a99 0e3e 486a 163b
00000380: a6af 4cbe b234 9fbd e9b2 97bd a5c6 9a3e
00000390: e4e5 f93d d98b 20bd 93db 3a3e 63bb 5d3d
000003a0: 374b 373e 8a66 aa3a 3524 453e 68e9 f43c
000003b0: 282b 10bb 29a0 15be feb1 45be 4939 8ebe
000003c0: 6d2a c13c 66a0 703d 1a9f 0bbe 6ce2 63bd
000003d0: cad4 423e 7d2f 533e 7b7f 133c 41fc 89bd
000003e0: eeeb 5e3e e6e0 b7bd a0d1 e33d 65d6 873e
000003f0: 6826 de3d fd14 5e3c 3f85 39be f944 47be
0.206033 0.19962464 -0.0298836 0.010287232 0.118254654 -0.013764974 -0.028417498 0.05243073
-0.06639878 -0.041842144 0.030527033 -0.11299682 0.008284995 -0.12387149 -0.026307603 0.26808664
0.1210523 0.069704235 0.22282849 0.11672071 0.01256736 -0.09603031 -0.14765072 -0.065322705
0.14817724 -0.12098441 0.25168633 -0.02565462 0.008634749 0.17315248 0.16443573 -0.28125826
-0.0005075149 -0.19429703 0.08164098 -0.016022164 0.20377982 0.19728583 -0.20732427 -0.13622412
0.20597485 -0.15041465 -0.018120231 0.15521006 -0.16353074 0.14675751 -0.05335563 0.051130902
0.16635717 -0.25904348 0.14068763 0.2546843 -0.080086134 0.2947228 -0.049878463 -0.122342095
0.0737223 -0.39809483 -0.14259034 -0.088507034 -0.04572204 0.011256008 0.11843232 -0.12982634
-0.008378034 -0.06578936 0.16964538 0.036689628 0.40025833 0.05770204 0.08826098 0.16832143
-0.051778596 0.032805536 -0.19854599 0.0015532449 -0.11270208 0.08525279 0.15274532 -0.2988613
0.2067291 -0.4741048 -0.1704541 -0.11930184 -0.19370739 -0.07321159 0.22388545 0.23228608
-0.11928556 0.02815865 0.2982317 0.030869903 0.124271914 -0.16691454 0.17457424 0.26439318
-0.22714126 0.27532023 -0.035805363 -0.07400134 -0.26370162 0.2124813 -0.124007106 -0.080667965
-0.14302734 -0.1395195 0.25883937 0.042268127 -0.009137504 -0.26993296 0.3387082 0.14574975
-0.16856143 0.029095933 -0.28796256 0.07550475 0.13116218 -0.15656523 -0.017159944 -0.19251817
0.113173425 -0.20315908 -0.12351671 -0.007930762 0.12367191 0.26372513 -0.4193891 -0.07873923
-0.22152437 -0.14259891 0.12218145 -0.134683 0.11461972 -0.06859195 0.28469732 0.2713166
-0.0929648 -0.17318866 0.20390137 -0.019749409 0.2608771 -0.021167196 0.03308746 -0.01133775
0.11828191 -0.019729424 0.16533989 0.24433926 0.24890648 0.022334296 -0.048124433 0.11885037
0.17322089 -0.051762123 -0.1993342 0.047157302 0.13979891 0.014454946 -0.039706424 -0.13157934
-0.49752086 -0.23029007 -0.11346259 -0.2774605 0.11430851 0.16725335 0.07967785 -0.006887877
-0.18152656 -0.08828716 0.15369797 0.34008157 -0.21780984 0.20182478 -0.14056608 -0.0023383931
-0.19912918 0.07418274 0.013695982 -0.06771514 0.18169503 -0.28053877 -0.08583691 -0.10727437
-0.033510923 0.08899264 0.2998261 -0.45114446 -0.3210521 0.060030043 0.028912116 -0.33384487
-0.39058113 0.11100638 -0.2039128 -0.19598193 0.07350743 0.028982772 0.19288407 -0.2994819
0.09233503 0.1484298 -0.04677776 -0.5788217 -0.37573656 -0.20911862 -0.090278275 -0.13140826
-0.32490036 0.097580634 -0.22181426 -0.11815035 -0.0035048395 0.48034415 0.10075937 -0.06290327
-0.01776761 0.11330281 -0.08508405 0.029384075 0.06587709 0.081031226 0.13925782 0.0022951532
-0.1998888 -0.07773723 -0.07407171 0.3022968 0.12202051 -0.03919587 0.18247823 0.054133784
0.17899786 0.001300053 0.19252093 0.029896453 -0.002199838 -0.14611878 -0.1930618 -0.2777808
0.0235798 0.058746718 -0.13634911 -0.055635855 0.19026485 0.20623584 0.009002562 -0.06737567
0.21769688 -0.08978443 0.11123967 0.26530758 0.10847169 0.013554809 -0.18117236 -0.19459905

encoder.enc1.bias f4 [58]
00000000: 15a6 89bc 5ee9 81bb 5c90 30bc 522c 40bc
00000010: e438 fcba e2f4 c13b 013d 04bc cbaf f9bc
00000020: 3bdf 393d bec7 393b 74ce d43c 2e14 3abc
00000030: ffb2 21bb 76ad 13bd 1b07 29bc 0f6d e4bc
00000040: 4c6d 463c 0309 0d3b 7af1 653c 15ee 783d
00000050: 8da6 a13c c8e4 da3c d6bc fb39 e993 e93c
00000060: 4c4c 753d a5e9 c0bb 06b4 773d 85c6 25bc
00000070: c720 b73c fefc ebbc 6f56 dabb 664d 23bd
00000080: 6cef 4dbd 5702 0abc 49aa 95bd 602d 1fbc
00000090: 2a0b 253b 8e73 1d3d d373 cdbc 07c0 f03d
000000a0: 5912 08bc 37f4 97bc 4ade 9abc af9f b0bc
000000b0: 2fb5 5c3c 209d 1f3c a0a0 6f3d 244f 133d
000000c0: f531 033d bcd0 ff3c 4c35 b83c 1ab4 6ebc
000000d0: 29c4 9f3c 06a7 c8ba 498c 963d 68e3 903c
000000e0: 8d19 823c b7fd 6bbc
-0.016802827 -0.003964587 -0.010776605 -0.011729317 -0.0019243029 0.005919085 -0.008071185 -0.030479332
0.045378905 0.0028347815 0.02597735 -0.01135735 -0.002467334 -0.036054097 -0.0103166355 -0.027884034
0.012111019 0.0021520264 0.014034623 0.060773928 0.019732738 0.02672042 0.00048015144 0.028512912
0.059887215 -0.0058872276 0.060474418 -0.0101181315 0.022354497 -0.02880716 -0.0066631357 -0.039868735
-0.05027716 -0.008423409 -0.0730787 -0.009715408 0.0025183656 0.03844028 -0.025079643 0.11755376
-0.008305156 -0.018549068 -0.018904824 -0.021560518 0.013470932 0.009742051 0.058502793 0.035964146
0.032030065 0.031227462 0.022486351 -0.014569307 0.019502716 -0.0015308566 0.07350976 0.01768656
0.015881324 -0.014403752

encoder.enc2.weight f4 [39, 58]
00000000: 6826 3b3e c76a fd3e 82d6 56be 6c48 78bf
00000010: 2cfc 92be ec4f 9bbe a599 ebbd 4dda a43b
00000020: 3a68 1ebf 203b f13d cba3 793e 01dd 7e3d
00000030: 86eb 8f3e eadc 8e3e 91a6 663b efdb f83d
00000040: ce09 bf3d 2ed7 473e ef7b 43be cd0b b5be
00000050: 6243 93be d58d 6ebd 241f 613d 6e33 27be
00000060: bd26 423e dbf7 373e 401d f2bf 9792 83be
00000070: 6e29 4b3d 4145 4cbf 05c2 ecbe 6e9e d33d
00000080: a29a 8b3e faa5 6b3e 0b82 313d 727a 473e
00000090: d00d 90be 4738 563d 4955 8dbd 538c adbd
000000a0: d65d 443e 7056 f33d 3070 98be 710e 533e
000000b0: 36bf ed3e 90b5 b0bd 6bde 50be e2a4 83be
000000c0: 00d6 803e 1da5 1f3e 8ff8 3fbc bdba 733e
000000d0: e2d3 06bf ba0d 44be f40a e23d c32c 6fbe
000000e0: 242c b53d 66c2 11be 5ec9 dcbe 8ef9 c23e
000000f0: e204 3c3e 0c59 1b3f 9262 80be ba09 05bd
00000100: 606b 9f3e 1cf5 b73d 3a91 d23c 4ca0 b93e
00000110: a1cc 353f 0607 6d3e 7633 fb3d ba95 683e
00000120: e95d 85be 7304 1f3e 3d3c a23e 3afa 3cbf
00000130: 76d8 98be 8b3e 6bbe b20a 85be fc7d 093e
00000140: e3ac af3c 8ed7 c8bd 31e3 52be 2dc2 063f
00000150: 4690 12bf 5779 febe c4dd 833d df63 c0bb
00000160: cf85 a43e 1ef5 2dbf e6be df3e cc5d 4dbe
00000170: 0cbc 6dbd e076 753e 2759 c6bd feda 993d
00000180: d4e0 22be d0be bd3d 6bb7 e3bd 05e3 813e
00000190: a062 bcbe c093 75bf 495a 313f 8630 83be
000001a0: 5c06 4a3e 427a 47be 3a61 b4be 9d1b 993e
000001b0: cf28 1bbe 7e31 593f 329a 8b3e 4b7d 02bf
000001c0: fb55 243e 61f1 3abe d9f7 a7be 6831 eabe
000001d0: 0559 823e 7ec6 ee3d ac7f 3c3e 3a2c 0e3e
000001e0: 02c8 79be e8ab 5c3e def0 303e 49f1 c83e
000001f0: 0b1c fc3e 8669 68be 0177 a43e c8d6 8b3e
00000200: 5d2d a8bc a8d0 1ebe 6027 41be a5a5 18be
00000210: f17f 7e3e f0be d93d f1ee 66bd 1b8b d8bd
00000220: 1b78 893e 553b d23c 5fd8 e5bd 02e7 263e
00000230: 0b9f 31be 8969 1f3e 2de6 17be eebc 8b3d
00000240: c49d c03d 9855 543e ff54 fcbd a57c 153e
00000250: 6b96 77bc cd35 553e 452a 79bd 9d38 34be
00000260: 9a0b d9bd 166c bb3d 1523 e33d 7322 8bbe
00000270: 0dff 09be 23ba 563d 6610 033e 5ceb 943e
00000280: e674 f93d d6b6 ac3d 8e39 9ebd 00f3 abbe
00000290: e961 b1bd 1c89 2cbd 97de 8a3e e5de 73be
000002a0: 4ad9 8fbe 89f8 76be abec 683d 34b6 2b3e
000002b0: aeef 763e d96b 4fbd 59e2 c13d 250c 523e
000002c0: 053b 5a3d 2053 adbd 7e0c 463d 048e 9ebe
000002d0: 0bf3 1a3e 4907 693d b2fc 49be c318 3cbe
000002e0: b816 10bf 5af6 3fbc 5bf3 32bf 15a1 b6be
000002f0: 3874 4bbd e857 73be 0ad2 eebe 162b 4b3f
00000300: b255 973e fb6a 5abe c7c4 953d 7fba 283e
00000310: aa5a 2a3e 971e 223e 066a 71be 3522 f3bf
00000320: f9af a43e 657b cbbe 7dc5 913c fb73 0cbe
00000330: d1d6 1b3f 31bf f8be 259a b8bd c040 40bf
00000340: 1259 af3c 8fa9 163d dfea 4e3e ef25 f7be
00000350: 1d7c 5fbf 93d3 92be d7d3 10bf bf47 053f
00000360: b023 abbe 0ea1 6bbf e938 8b3e c05e 9f3e
00000370: a49c a7be fd78 7ebe 7db3 0bbf e733 583e
00000380: 0f5b 2cbd 3c70 a2bf 82c3 2b3e 095e dabd
00000390: 1d43 6dbd 9f87 ecbe f74f 263d 8941 abbe
000003a0: 4241 213e 3196 69be a2cc 5aba 2c3d 033e
000003b0: a78b 6a3e 9b07 d73d 922e 2cbe e22f 0abd
000003c0: ed1a 16be fba0 2f3e 1851 0abe 000a e4bc
000003d0: 13a7 cabc 68e6 a23e c965 c6bd 3fb0 9ebc
000003e0: 6c19 e6bd 18d8 5b3d 99b4 d23c 5d56 91bd
000003f0: 2350 9f3d 1884 06be 5de8 f4bd 505a 49be
0.1827637 0.49495527 -0.20980266 -0.96985507 -0.28708017 -0.30334413 -0.11503915 0.0050309063
-0.6187779 0.11778855 0.24378888 0.062222484 0.28109378 0.2790292 0.0035194496 0.12151324
0.09328042 0.19515678 -0.19090246 -0.35360566 -0.28762347 -0.05824073 0.05496134 -0.16328213
0.1896009 0.17965643 -1.8915176 -0.25697777 0.049600057 -0.79793173 -0.46241775 0.103329524
0.27266413 0.23012534 0.04333691 0.19480303 -0.28135538 0.052299764 -0.069010325 -0.0847403
0.1917642 0.11881721 -0.29773092 0.20610978 0.46434945 -0.0862838 -0.20397346 -0.25711733
0.2516327 0.1559033 -0.011716976 0.23801704 -0.5266706 -0.19145861 0.110372454 -0.23356919
0.0884631 -0.14234313 -0.4312238 0.3808102 0.18361238 0.6068275 -0.25075203 -0.03247998
0.31136608 0.08982298 0.025704015 0.3625511 0.71015364 0.2314721 0.12265675 0.22713366
-0.2604821 0.15529041 0.31686583 -0.73819315 -0.29852647 -0.22973077 -0.25984722 0.13426965
0.021444743 -0.09806739 -0.20594479 0.5264004 -0.57251394 -0.4970195 0.06438783 -0.0058712806
0.32133338 -0.67952144 0.4370033 -0.20055312 -0.058040664 0.23971128 -0.09684973 0.075124726
-0.15906078 0.0926491 -0.111189686 0.25368515 -0.36793995 -0.95928574 0.6927839 -0.25622958
0.19728988 -0.19480231 -0.35230428 0.2990388 -0.15152286 0.84841144 0.2726608 -0.5097243
0.16048424 -0.18256141 -0.3280628 -0.4574082 0.25458542 0.11658953 0.18408078 0.13884059
-0.24392703 0.21549952 0.17279384 0.39246586 0.49240145 -0.22696504 0.32122043 0.27312303
-0.020529443 -0.15509284 -0.18862677 -0.14906938 0.24853493 0.106321216 -0.056380216 -0.10573407
0.26849446 0.025663057 -0.1122291 0.1629906 -0.17345826 0.15567602 -0.14833899 0.06823145
0.094050914 0.20735776 -0.12320899 0.1459833 -0.015111546 0.20821305 -0.060831327 -0.17599721
-0.10597916 0.09151475 0.11090676 -0.2717472 -0.134762 0.052423608 0.12799224 0.29085815
0.121805 0.08433311 -0.077258214 -0.33583832 -0.08661253 -0.042122945 0.27122948 -0.23815496
-0.28095466 -0.24118246 0.05686633 0.16768724 0.24114868 -0.05063996 0.094670005 0.20512445
0.05327894 -0.084631205 0.048351757 -0.30967724 0.15131776 0.056891713 -0.19725302 -0.18368821
-0.56284666 -0.01171645 -0.6990258 -0.3566977 -0.04967138 -0.23764002 -0.46644622 0.7936262
0.29557568 -0.21329872 0.07312923 0.16477393 0.16636148 0.15831982 -0.23575601 -1.8994814
0.32165506 -0.3974258 0.017794365 -0.13716118 0.6087466 -0.48583367 -0.09013776 -0.750988
0.021404777 0.036782797 0.20206784 -0.4827113 -0.87298757 -0.28677043 -0.5657324 0.520626
-0.33425665 -0.92042625 0.27191857 0.31126976 -0.32736695 -0.24850841 -0.5457075 0.21113549
-0.042079028 -1.2690501 0.16773799 -0.10662467 -0.057925332 -0.4619722 0.040603604 -0.33448437
0.1574755 -0.228112 -0.00083465327 0.12816304 0.22904836 0.104994975 -0.1681464 -0.03373707
-0.14658709 0.17151253 -0.13507497 -0.0278368 -0.02473787 0.3181641 -0.09687383 -0.01937115
-0.112353176 0.05367288 0.025720881 -0.070965506 0.07778957 -0.13136327 -0.11958382 -0.19663358

encoder.enc2.bias f4 [39]
00000000: eebb 26bd dcad 85bd d79a bf3c b194 9f3c
00000010: 1d77 0dbd 0191 5d3b eab0 57bb 5b68 cf3c
00000020: a513 133c 3213 ae3a 5916 443c 465a 483c
00000030: 513d 2bbd 1444 b83b 76b8 723c f1cf 153c
00000040: 1a19 143d cc30 f6bc c3c6 00bd 5dc1 afbb
00000050: 3b09 eabc 223f 8bbc d7e4 c5bc 0000 0000
00000060: 1e6a c53b e69c 803d d512 31bc 598d 43bc
00000070: 7077 02bc 615a 5f3d 6096 023d 2e4a d4bc
00000080: 8027 743c 556a fb3c 5a35 65bb 7213 1dbc
00000090: 1857 12bc 48f5 98bc bb9b 8dbc
-0.040706567 -0.06527302 0.023389263 0.019480081 -0.034537423 0.0033808353 -0.0032911845 0.025318315
0.008976852 0.0013280867 0.011968219 0.012228554 -0.041806523 0.00562335 0.014814487 0.009143815
0.03615675 -0.030052565 -0.031439554 -0.005363627 -0.028568855 -0.016997878 -0.02415697 0.0
0.006024613 0.06279926 -0.010807713 -0.011935555 -0.007963046 0.05452955 0.03188169 -0.025914278
0.014901996 0.030690352 -0.0034974427 -0.009587156 -0.008931898 -0.018671647 -0.017286172

encoder.enc3.weight f4 [19, 39]
00000000: 2ad6 eb3b 9c43 513e 345d 7ebe 0050 efbc
00000010: 929b debd 6a35 80be 44da 2b3e 0470 0a3d
00000020: c41e 763e 35c4 d23e d491 54be 6866 b33e
00000030: a5d4 a2bd e96d 87be 9172 6dbe 0c99 c43d
00000040: bdff 373e ae19 13be ff3d ab3e a10e 0f3d
00000050: 1fa7 0fbe b341 c0bc 0464 c8bc a30a 4cbe
00000060: 4783 a6be a7ad 4e3e 1fd8 95be d1db 653e
00000070: 1cd0 c03e 2258 5cbe 24c9 ae3e 5fdb cfbe
00000080: 8896 78be 8739 863e 24a0 bbbe 10d1 473e
00000090: 0d8d e93a 112d 7ebe 1326 7e3e 1401 04bf
000000a0: 6002 cebe f170 153d 9299 3d3d c6a8 353e
000000b0: f338 6f3e c39f 4f3c 23a0 00be dce6 90be
000000c0: 0008 7a3d d285 a03e 6b79 8d3d 276a 1ebe
000000d0: e25c f1bd 1ee4 133e 7676 14be 123c b73e
000000e0: b0f4 373c 9e16 063e a5fb a93d 666b d6bb
000000f0: a8ee 16bd dee4 ae3e f546 be3e ad79 ed3d
00000100: 1a52 a7be b0e5 223e 36b2 12be f778 ad3b
00000110: 7493 62be 43d7 33be 2215 0ebf 73f4 2ebe
00000120: f153 d23e fdbb 56bd 49f4 2bbe 3fe3 a63d
00000130: fe22 0ebd 6a20 07be fa52 3cbe 468d 5f3d
00000140: 171d 77be c90b 303c 3036 a83e 9ebb ea3d
00000150: 02a2 8c3e d29e acbc 6116 6fbc 791d 88bd
00000160: 2d74 953c 2660 5e3e 011e 35be d23a 6b3e
00000170: f668 243d f054 0c3e ba94 ab3e 64e8 dbbd
00000180: d047 9d3e 1776 80be 2dbd 6bbd c03e 8cbe
00000190: 78e4 a63e 1d02 383c 26c4 61be 1ed4 463e
000001a0: df0d 6b3e 9399 7e3e a352 623e 918a 14be
000001b0: 6b57 ffbc 4f0c c2bd 793c 12be 75b7 8b3e
000001c0: 5497 9b3d 383b 213e e7f6 063e f460 57be
000001d0: 88c6 a7be 0fb3 113e 12a3 cdbd 86f7 063e
000001e0: dc21 c73e bbdb 01be 11d3 36be 92f1 cabd
000001f0: 3ce9 54be c8d4 263e 1132 cdbd 2e56 91bd
00000200: 4cd8 923d 568d dcbd 38fb f93d 7043 84bd
00000210: dbf9 683c ab5a 223d 0352 3dbe 5d7e e83d
00000220: 1ed4 573e 5f91 e13d 5596 f93c 7717 8e3e
00000230: dd14 59be 06cd 3f3d 74f3 003e 9cdf b33e
00000240: e70c ed3d 2aa2 b73c 475f 08be 3c90 573b
00000250: c09b 5bbe 7345 acbe 956a 633e f199 67bc
00000260: da3f 123d 52c9 e3bd 35f0 d6bd 6b5f f03d
00000270: 069b 4fbe 4684 4c3e 53fa 943e 7211 b1be
00000280: bbb9 e23c 1391 38be 45a1 2ebe 4d7a eebd
00000290: d48b bfbe 0a84 ed3d 5b20 cbbe 8e70 d5bd
000002a0: 2f49 eabd 848f afb9 5a88 183f a36e 2ebf
000002b0: 3667 7d3e 47ca 24be a0ad 1f3d 3e15 1cbd
000002c0: 2db9 cd3d ea01 723d af68 60bb c0e4 973e
000002d0: b4e8 44bd 34de 7e3e 5f86 aabe 16d6 22bf
000002e0: daf8 8dbe 4df0 1bbf 4666 b33d b386 8c3e
000002f0: 13ae e73d 9428 a53e e95a 43bd 0425 10be
00000300: 0a57 8ebe 5867 09be bb6e 4b3e c3bc 50bd
00000310: 845d 74be f2ac 73be 8629 afbd 265b bbbe
00000320: 2245 06be e976 22be 9b14 bcbe fa4b 9bbd
00000330: 8cfa a13e a11e 7fbd c677 ad3e 72ae f93d
00000340: a665 173e 96aa 61be 0b23 363e 7765 173e
00000350: 1ad0 13be c327 fa3d d5f8 0dbd 054b c4be
00000360: b9cb c53e 73c8 b63e 1527 843e b847 54be
00000370: a311 233c b58b 2bbd 7302 a0be a934 87be
00000380: 24ea 373e 66d9 6a3e 7b37 e7bd 153a 4ebc
00000390: 599c 5fbd dbb0 763d 88e2 1abe d191 54be
000003a0: 9362 29be d153 4e3c 24c1 a83e 1ed8 bdbf
000003b0: 0cbc 20be 09bb 10c0 1eba 453d 2e43 4e3e
000003c0: 598b 3fbe 0d16 623e a429 073e e871 a33a
000003d0: a582 37be 9085 143f 1cbb ec3d 3edb 74be
000003e0: 46e2 f5bd 8ff2 cabe 4df7 8d3d cab2 88be
000003f0: 1fa3 8dbb 45ae b7be 6bf5 0abe a280 873e
0.007197161 0.20435947 -0.24840242 -0.029212952 -0.108695164 -0.25040752 0.1678248 0.033798233
0.24035174 0.4116532 -0.20758754 0.35039067 -0.07950715 -0.26451042 -0.23188235 0.09599504
0.1796865 -0.14365265 0.33445737 0.03492606 -0.14028595 -0.023468828 -0.024461754 -0.19925933
-0.32522032 0.2018343 -0.2926645 0.22447135 0.37658775 -0.21517995 0.34137833 -0.40597054
-0.24276173 0.26215765 -0.36645615 0.19513345 0.0017818526 -0.24821879 0.24819212 -0.51564145
-0.40236187 0.036484662 0.046289034 0.17740163 0.23361568 0.0126723675 -0.12561087 -0.28301132
0.061042786 0.31352097 0.06907924 -0.15470181 -0.11785294 0.14442489 -0.14498314 0.35788018
0.011227772 0.13094565 0.082999505 -0.0065435646 -0.036848694 0.34158987 0.3716351 0.115954734
-0.32679826 0.15907931 -0.14325795 0.005293961 -0.22126561 -0.17562585 -0.55500996 -0.17085437
0.41079667 -0.052425373 -0.16792406 0.081488125 -0.03470134 -0.13195959 -0.18391028 0.05457809
-0.2413219 0.010744997 0.32853842 0.114615664 0.27467352 -0.021071825 -0.014592738 -0.066462465
0.018243873 0.21716365 -0.17687227 0.22971657 0.04013916 0.13704276 0.33511907 -0.10737684
0.3071885 -0.25090095 -0.05755346 -0.27391624 0.32596183 0.011230973 -0.22047481 0.19416854
0.2295451 0.24863271 0.22101836 -0.14505984 -0.031169614 -0.09475004 -0.14280881 0.27288404
0.07597223 0.15745246 0.13180123 -0.21033078 -0.32768655 0.14228462 -0.10040869 0.1318036
0.3889302 -0.12681477 -0.17853953 -0.09909357 -0.20792097 0.16292107 -0.10019315 -0.070965156
0.071701616 -0.10769145 0.12206119 -0.06458175 0.014219726 0.03963725 -0.18488316 0.11352227
0.2107701 0.110140555 0.030467192 0.27752277 -0.21199365 0.046826385 0.1259287 0.35131538
0.115747266 0.022416193 -0.13317595 0.0032892367 -0.21446133 -0.33646736 0.22208627 -0.014135824
0.035705425 -0.11122383 -0.104950346 0.117369495 -0.2027398 0.19972333 0.29097232 -0.34583622
0.027676454 -0.18024091 -0.17053707 -0.11644421 -0.37411368 0.1159745 -0.39673123 -0.10421859
-0.1143974 -0.0003348553 0.59583056 -0.6813757 0.24746403 -0.16092788 0.03898394 -0.038106196
0.10045085 0.059083857 -0.0034242084 0.2966671 -0.048073485 0.24889451 -0.33305642 -0.6360792
-0.2772892 -0.60913545 0.087597415 0.27446517 0.11312499 0.3225752 -0.04769412 -0.1407662
-0.2780078 -0.13418329 0.19866459 -0.050961267 -0.23863798 -0.23796442 -0.08552842 -0.36592978
-0.1311231 -0.15865673 -0.3673447 -0.07582851 0.31636465 -0.06228507 0.33880442 0.12191476
0.1478487 -0.2203773 0.17786805 0.147848 -0.14434853 0.12214615 -0.034661133 -0.38338485
0.3863199 0.35699806 0.25811067 -0.20730484 0.009952935 -0.041881282 -0.3125187 -0.26407364
0.17960411 0.22934493 -0.11289879 -0.01258709 -0.054592464 0.060227256 -0.15125477 -0.2075875
-0.1654151 0.012593226 0.32959855 -1.4831579 -0.15696734 -2.2614157 0.0482732 0.20142815
-0.187055 0.22078724 0.13199478 0.001246986 -0.1792093 0.580163 0.11559126 -0.2391176
-0.12006049 -0.39638183 0.069319345 -0.26698905 -0.004322424 -0.35875145 -0.13570182 0.26465327

encoder.enc3.bias f4 [19]
00000000: 0332 663c 4cdb 383c 81ab 933b 2fa7 57bc
00000010: 0795 d43b cc26 c7bb cd71 013d f6f5 c53b
00000020: 216a 5a3d 8717 87bb 2026 55bc 08b5 3abb
00000030: 7d3a 40bc d348 713c 67bd 903c 8d60 cf3c
00000040: 0e42 eabc f39e c73b fab6 073c
0.01405001 0.011282753 0.004506529 -0.013162418 0.006487492 -0.006077623 0.03160267 0.0060412837
0.05332387 -0.0041226777 -0.013009578 -0.002848925 -0.011732695 0.014726835 0.01766844 0.025314594
-0.02859595 0.0060919463 0.008283371

encoder.enc4.weight f4 [7, 19]
00000000: ac5b 823e f3ca f23d 1617 733d d084 c4be
00000010: 005b 5fbe c803 1bbd e898 9c3e ce0c f3bd
00000020: 2b16 db3e 3dcd 33bc 10d6 9e3e 11f7 1bbf
00000030: 0fe4 fe3d 113f 01bf daf2 c83e 8cb4 34be
00000040: 74f0 d2be 0022 e8be 792a 803e 0690 0e3f
00000050: 051b 99be b65a 593e 5524 3a3e 6f2c a23e
00000060: 70da acbe 5a96 24bd a1aa 673d 224c 123e
00000070: 2e01 d6bc dd06 25bc b89e b53e ac55 11be
00000080: f8db 1fbd 20fe a33c 03e1 94bd 5418 b03e
00000090: 28c6 2f3b 44fd 8a3d 8077 eb3d e4c4 45be
000000a0: c174 b3be ba0d f1be 65e5 f43e 8b73 22bf
000000b0: 3a18 403f 3b5d 0e3e 4397 8f3e e4f1 653e
000000c0: 21dd 8fbe 8577 723d c7f5 9e3e 75a7 f1be
000000d0: 8c66 253e 4598 63bf 7421 d8bc 3041 9a3e
000000e0: 78c9 58be 2a18 8fbe ebbd 66bc 5b87 243e
000000f0: 781d dabc 478f 303e f411 ce3e 0d61 18be
00000100: 7520 6c3e a3a9 b63d ee84 ddbd 1ac0 babe
00000110: 3a82 c83e b3b2 d13b 9941 193e 9010 51be
00000120: 4b8d ca3c b645 fc3e 0f2c 84be 8988 873e
00000130: 366c 843e 4013 00bd 5883 61be 0682 fbbd
00000140: 94de c53e f13a d53e 852d 76bf 75b4 283f
00000150: c087 fcbe 5c4b c6be ca4d b53e c52b debe
00000160: 2358 03bf a7db e23e eecc 853c 7a0a 3f3f
00000170: dc24 38bd d1c4 a93e 5788 9c3e 1cb5 a2bc
00000180: 700e 06bf 8095 313e 22f9 783e dc01 f13e
00000190: f0d3 3ebe 3559 d7bd b202 c33d 0790 ea3e
000001a0: dee3 2a3c fe5b 213e 1c92 23be 5bde 25be
000001b0: dd44 cb3e c0be de3d 0796 14be f1a9 c83e
000001c0: e7cf 26be 0fda 7a3d 2433 313e 0aee c13e
000001d0: 4dc3 b2bd 0da4 033e dd0d 20be bf2d 8d3e
000001e0: b29e 643d 51c6 00be 24a9 91bd e782 2dbd
000001f0: 0b7f 7c3e 1a80 de3e acc9 6a3e 7c62 43be
00000200: 04fc 873e 4bbe 1f3d b8e6 ba3e d1ca 06bf
00000210: 65e0 a03e
0.25460565 0.11855116 0.05934819 -0.38382578 -0.21812057 -0.037845403 0.30585408 -0.11867677
0.4279035 -0.010974226 0.31022692 -0.6092387 0.124458425 -0.50486857 0.3924778 -0.17646998
-0.41199076 -0.4533844 0.25032404 0.5568851 -0.29903427 0.2122601 0.18177922 0.31674525
-0.33760405 -0.04018245 0.05655921 0.14286855 -0.02612361 -0.010072437 0.35472655 -0.14192837
-0.039028138 0.020018637 -0.0726948 0.3439356 0.0026820991 0.06786588 0.11497402 -0.19313389
-0.35050014 -0.47080785 0.47831264 -0.63457555 0.75036967 0.13902752 0.2804509 0.22455555
-0.28098395 0.059196014 0.31046888 -0.47198072 0.161524 -0.8890422 -0.02638314 0.3012786
-0.21170604 -0.27948123 -0.014083366 0.16067259 -0.02662538 0.17242156 0.40248072 -0.14880772
0.23059256 0.089190744 -0.1081637 -0.36474687 0.39161855 0.0063994764 0.1496643 -0.20416474
0.024725577 0.49271935 -0.25814864 0.26471356 0.25863808 -0.03126836 -0.2202276 -0.122806594
0.38646376 0.4164653 -0.9616321 0.65900356 -0.4932232 -0.3872937 0.3541091 -0.43392769
-0.5130636 0.44308206 0.01633307 0.7462536 -0.044957027 0.33157972 0.3057277 -0.01986175
-0.5236578 0.17342186 0.24313787 0.4707173 -0.18635535 -0.10515062 0.095219985 0.4581301
0.010430304 0.15757748 -0.15973705 -0.16198103 0.39700976 0.108762264 -0.14510356 0.39192155
-0.16290246 0.061243113 0.17304665 0.37876922 -0.08728657 0.12855549 -0.15630288 0.27573964
0.055815406 -0.12575652 -0.07112339 -0.042361166 0.24657838 0.4345711 0.22928494 -0.19080538
0.2655946 0.038999837 0.3650415 -0.52653223 0.314212

encoder.enc4.bias f4 [7]
00000000: d6dd bdbc 6ed0 ca3a 66a1 543c f9a0 bfbc
00000010: 418c 083c 9c71 d73b d467 4a3a
-0.023177069 0.0015473494 0.0129779335 -0.023392187 0.00833422 0.0065748226 0.000772116

decoder.dec1.weight f4 [19, 7]
00000000: 155a 783f 254e 19bf 37f6 863e a6d0 36bf
00000010: 1a79 a83d 5c37 703f e6bb 59bf d3a6 883f
00000020: a9d9 9ebf b56d 453e 2bc3 d5be fb51 2f3f
00000030: 610c 913e 61fe 8dbf 6184 2b3f 9680 4f3f
00000040: a786 093f aae5 203f 3fd8 c63e 7688 593d
00000050: 3c9a a7bf f3a2 46bf 9fb3 dd3e a0fe 263f
00000060: b77d 73bf b1a6 de3e 8658 0dbf 34df eb3e
00000070: 2c65 083f de34 9e3c b6fe 683d f012 51be
00000080: a25a a23e 5049 653f 1bdc 903f e8d1 8bbe
00000090: c51b 57be 128f 0c3f 2684 8cbf 885c 2f3f
000000a0: 232c 92be fae6 b53f 6a3f 99be 5044 b63f
000000b0: 4454 21bf 1e6a d0be 749a 37bf 9d97 e63e
000000c0: 8367 b2be 3884 a33d e6c9 2a3f 2532 473f
000000d0: b371 2ebe c8f2 cb3e 788c 1cbf f7d6 dc3b
000000e0: 0159 fd3e 74da 4f3f de29 e73e 478b 543e
000000f0: 558c 1a3f cf80 e7be 8f64 00bf fcd4 83be
00000100: e046 42be 1cf4 61bf 6c9c 683f 2e1a 52bf
00000110: a99a e03e db66 cebe 12c5 7dbf dfba f2bd
00000120: c47e ff3c 6020 32bf c870 1abe 33b0 7f3f
00000130: 5ccf 15bf acbd 54bf efd3 80bf 1992 2cbe
00000140: 3724 b5be 02af 15bf cbce 863f 5b0f 3cbe
00000150: a775 cb3d 69e2 553f 1fa7 f03e 541d 423f
00000160: 2ee5 96be d898 023f 299f 713e 8bc2 65bf
00000170: 21a0 973e 9a83 303f b715 77bf fbbc cabe
00000180: f80d 67bf 5c83 9d3e 0e74 cebd e56d 83bd
00000190: 2b22 47be 988c 303f 14ba 90bf 1b42 2ebf
000001a0: a59c 6b3f 0f02 06bf db04 323f 8f1e 873e
000001b0: 725b b7bd eb05 2bbf cfad e5bd b811 823f
000001c0: ce99 6ebf 1c5c 9abf 49eb 173f 5530 bbbd
000001d0: e9fb 2a3e 27dd a33e 7f01 01bf 5a12 f33e
000001e0: 27db 40bf d0b2 b63f 61dc 963e d4f3 9cbf
000001f0: 0cdc 9cbe a517 833e b96d 7e3f 178a 61bf
00000200: 823b 20be 360d 4cbf dc46 033f feda c3be
00000210: 307f e9be
0.97012454 -0.59884864 0.26359722 -0.7141212 0.08226223 0.9383447 -0.85052335 1.0675911
-1.2410175 0.19280131 -0.41750464 0.6848447 0.28329757 -1.1093255 0.6699887 0.8105558
0.5372109 0.6285044 0.38836858 0.053108655 -1.3093944 -0.7759239 0.43301103 0.65232277
-0.951137 0.4348655 -0.552132 0.46068728 0.53279376 0.019312318 0.056883536 -0.2041738
0.31709772 0.8956499 1.1317171 -0.27308583 -0.21006687 0.5490581 -1.0977829 0.68500566
-0.285493 1.4211113 -0.29931194 1.4239597 -0.63019204 -0.4070596 -0.7172005 0.45037547
-0.34844598 0.07984203 0.6671432 0.7781089 -0.1703556 0.39833665 -0.6115184 0.006739493
0.49481967 0.8119271 0.4514913 0.20756255 0.6037038 -0.4521546 -0.5015344 -0.25748432
-0.18972349 -0.88263106 0.9086368 -0.820712 0.43867996 -0.40312847 -0.9912883 -0.11852049
0.031188376 -0.6958065 -0.15082085 0.99878234 -0.5851953 -0.83101916 -1.0064677 -0.16852607
-0.35379192 -0.58470166 1.0531858 -0.18365233 0.0993455 0.835486 0.47002503 0.75826
-0.29471725 0.5101447 0.23595871 -0.89749974 0.29614356 0.6895081 -0.9651751 -0.39597306
-0.9025569 0.30764282 -0.100807294 -0.06417445 -0.19446628 0.6896453 -1.1306787 -0.6806962
0.92035896 -0.5234689 0.6953866 0.26390502 -0.08952989 -0.66805905 -0.11214792 1.0161657
-0.9320344 -1.205936 0.5934339 -0.09140078 0.16697659 0.32004663 -0.5039291 0.4747494
-0.753344 1.4273319 0.2946501 -1.226191 -0.30636632 0.25603977 0.99386173 -0.88101333
-0.156477 -0.7970766 0.5128 -0.38253015 -0.4560485

decoder.dec1.bias f4 [19]
00000000: 0b21 153c 07be 1a3d 4dc9 ed3c 639b b23c
00000010: beeb 733d 2559 133c 60bc c33b b353 023d
00000020: e535 093c 2a62 4a3d e07c dfbc 2962 2d3d
00000030: 07c2 a23a c4fd 373c b90c 803d f76a 283c
00000040: 9043 8fba 8608 203d 5629 663d
0.009102116 0.03777888 0.029026652 0.02180261 0.059550993 0.008993422 0.005973384 0.031818103
0.008374666 0.049410023 -0.027281225 0.04232994 0.0012417444 0.011229936 0.06252427 0.010279409
-0.0010930169 0.03907063 0.056191765

decoder.dec2.weight f4 [39, 19]
00000000: e014 5c3f e0fa 2a3f 2ca7 3f3e 001e 413d
00000010: 5287 c43e 3047 d73d 3ff2 09bb 25fe c13e
00000020: f558 94be 4633 27bf 2866 c73e 79b6 3d3f
00000030: 116c 20bf 7c72 b63d adb4 b0be 1c41 c6bb
00000040: c1a2 90be 8399 0cbf 4ed9 e83e bd15 3dbf
00000050: 4d93 56bf 2d5a 733e a561 0c3f 6629 a13d
00000060: a394 4c3f 3b81 db3d ac3f 4b3f ab3b 753e
00000070: 986c c7bc 835c d1be 57af 373d 1f93 51bc
00000080: 28d9 1c3d 0920 be3d caae 163f fd98 e8bd
00000090: 4851 f0bd 8a15 283e 2e6c 803e aa41 1cbf
000000a0: 8e01 ebbe b763 e53e 9f12 173e c8fd 333f
000000b0: 1126 403d 058c a5be 201c 043e c11f c7be
000000c0: 5c9c dabe c6f0 7e3d 87ee 1a3f ac6a 3d3f
000000d0: 2752 c53d 3b10 083f c8d0 c5be be3b 9f3e
000000e0: 252e 4abe 12af 80be ded0 9bbe a1c0 103f
000000f0: a56d 5f3e a988 06bf f7b1 2c3f fde5 383f
00000100: 428b a03e a305 c43e 03d2 003e f22a 843d
00000110: 6079 553d 9ff9 adbe cb30 77be 0b08 b23e
00000120: 5f63 ee3e ddb5 e93d 919b cfbe c07f 0dbe
00000130: d6c7 0b3e c941 243f 96b8 653e 627d 34bf
00000140: a08b 8e3c 79dd 03bf 5528 e3be bb55 acbe
00000150: eb96 2fbe 20db 3abe fc2a 9d3d d4cb e33e
00000160: 8f9f fabd b9b2 64bf 7102 c13e 34c9 92bf
00000170: 283e 7ebd 49ad 2abe 8fad e03e bb37 fdbe
00000180: e5e5 933e f8cb 3c3e f658 09bf 6124 de3e
00000190: fa59 943e ea5d 9dbe 1a96 0d3f 01f7 1fbf
000001a0: ce6d 753e 543c 08bf 291c 3a3e aa37 0dbf
000001b0: 86b5 08bf 9b64 b93e 81fb 4dbe 6b18 183f
000001c0: 5ccb 8b3f 972d b13c 01d8 eabc 6449 163f
000001d0: dc5d 02be 7461 49be 6eb4 cf3e 9493 7d3e
000001e0: 78e5 f53d ba02 fe3e ea79 ab3d f954 3bbe
000001f0: 6f08 973e 3260 26be 592f 7ebf 4054 21be
00000200: 2c85 b03e 47a9 3abf 07a0 bebe ca8a 2bbd
00000210: 9988 07bf 3ca3 013e b164 3f3e 4b8d 91be
00000220: f025 7c3d 5001 d13d a7ec e1bd 0c7f adbe
00000230: 5e3d 60be 3d43 d63e c7cb 3b3e 7f4a 0c3e
00000240: 4d34 623e ee62 0ebf 8462 b3bd fab0 833e
00000250: 009f 4fbe 21fc 223f a01f aebd af7a 24be
00000260: 24cf b5be 7157 a8be e25f 7dbe 1456 26be
00000270: d053 863e 9c9a f03e a5be 60bd be23 f73e
00000280: 87cb fbbd 0ef7 f2be 079d 93be 3948 bcbe
00000290: ad64 12bf 928f 28be c0d6 9c3e 8ba1 d23e
000002a0: 2359 313e d780 863e e926 b4be 1690 25bf
000002b0: 216a a2be 6acc df3e 016b 93be 528d 8bbd
000002c0: 44ac a73e da0f 2e3f 06cd 723e a3e9 ac3d
000002d0: c9f0 9d3e 2868 853e fdbf ccbe a0c4 abbe
000002e0: 69af 603e 7e20 65bf b95d 8f3e 171f d0be
000002f0: f436 8cbe d2be 46be f046 883e 97f9 78be
00000300: 556b 55be a71d 77be da55 b4be 017a 16bf
00000310: 485c e5be 005c 55bf 3713 2fbe 9ddc 173f
00000320: 21bf 273f c20c 213f 2354 e6be 55f6 4a3d
00000330: a927 f4bd 6f25 e3be 8f82 023c 06ca 2f3e
00000340: 6550 c83c 2782 24bf c053 84bf f941 6cbf
00000350: 4835 98bc d4ab c13e 29c1 5bbf 2011 bf3d
00000360: 93c0 a2be e528 b6bd aa28 29bd dc9d bbbe
00000370: 5236 6fbe f7de da3e 0cb7 663e d6ca 2d3f
00000380: 90e4 16bd a862 f8be db86 bdbe 7693 2ebe
00000390: 51e3 6f3c 4010 a33e e25f 61be 075a fc3d
000003a0: db4f 51bf 25ed 27bf a776 4cbe a779 0ebf
000003b0: 04a6 a83e 44c4 21be d969 cf3c 71de 38be
000003c0: 10d1 39bf 2f1f b5be 867f 00bf 0ad6 51bf
000003d0: 0b7e 7c3e d588 613f e64a 093f f590 8e3e
000003e0: 3216 f7be 223e 04be d217 6d3d cb60 10bf
000003f0: d8f3 33bf f350 c4be 8b87 ad3e 22e6 8f3e
0.8596935 0.66789055 0.18716115 0.04714775 0.3838449 0.10511625 -0.002104893 0.3788921
-0.2897412 -0.6531261 0.38945127 0.74106556 -0.62664896 0.08908555 -0.34512845 -0.006050242
-0.2824917 -0.5492174 0.4547829 -0.73861295 -0.83818513 0.23764868 0.54836494 0.07869224
0.799143 0.10718008 0.7939403 0.23948543 -0.024343774 -0.40890893 0.04484495 -0.012791424
0.038293034 0.09283454 0.58860457 -0.11357305 -0.11734253 0.16414467 0.25082535 -0.61037695
-0.45899624 0.4480264 0.14753197 0.70309114 0.046911303 -0.3233339 0.12901354 -0.38891414
-0.42697418 0.06224134 0.60520214 0.73990893 0.0963481 0.53149766 -0.3863585 0.31100267
-0.19744165 -0.25133568 -0.3043279 0.5654393 0.2181917 -0.52552277 0.6745905 0.72225934
0.31356245 0.3828555 0.12580113 0.06453504 0.052117705 -0.33979508 -0.24139707 0.3477176
0.4656019 0.11411641 -0.40548375 -0.13818264 0.1365045 0.6416288 0.22433695 -0.7050382
0.017400563 -0.51509815 -0.44366708 -0.33659157 -0.17147414 -0.18247652 0.07674214 0.44491446
-0.12237465 -0.8933521 0.37697175 -1.1467652 -0.062070996 -0.16667666 0.43882415 -0.4945658
0.28886333 0.18437183 -0.5365137 0.4338713 0.28974897 -0.30735713 0.5530716 -0.62486273
0.23967668 -0.53217053 0.18174805 -0.5516306 -0.5340198 0.36209568 -0.20115472 0.5941226
1.0921435 0.021628184 -0.028667452 0.58705735 -0.12731117 -0.19666082 0.40567344 0.24763328
0.12006658 0.49611455 0.08372863 -0.18294133 0.29498622 -0.16247633 -0.99290997 -0.15754795
0.34476602 -0.72914547 -0.37231466 -0.041880406 -0.52942806 0.12659925 0.18690754 -0.2842811
0.061559618 0.102053285 -0.11031466 -0.33885992 -0.2189841 0.41848174 0.18339454 0.13700293
0.22090264 -0.55619705 -0.08759025 0.2572096 -0.20275497 0.6366597 -0.08502126 -0.16062425
-0.35509598 -0.32879212 -0.24743608 -0.16243774 0.2623582 0.46992958 -0.054869313 0.48269457
-0.12294679 -0.47454113 -0.2883074 -0.36773852 -0.5718487 -0.16461018 0.3063259 0.41138873
0.17319159 0.26270172 -0.35185936 -0.6467298 -0.31721595 0.43710643 -0.28792575 -0.06814064
0.32748616 0.6799294 0.23711023 0.08443 0.30847767 0.26056027 -0.39990225 -0.3354845
0.21941914 -0.89502704 0.28001192 -0.4064872 -0.27385676 -0.1940873 0.2661662 -0.24313961
-0.20841725 -0.24132405 -0.3522175 -0.58779913 -0.44796968 -0.83343506 -0.17097174 0.59321004
0.65526015 0.6291009 -0.44986066 0.049551327 -0.11921627 -0.44364497 0.007965698 0.1716691
0.024452398 -0.64261097 -1.0338058 -0.92288166 -0.018580094 0.37826407 -0.85841614 0.09329438
-0.31787547 -0.08894519 -0.041298546 -0.36643875 -0.23360565 0.42748234 0.22530764 0.6788763
-0.036839068 -0.4851277 -0.3701695 -0.1704844 0.014641599 0.31848335 -0.22009233 0.12321859
-0.81762475 -0.6559623 -0.19967137 -0.55654377 0.3293916 -0.15797526 0.025319027 -0.18053605
-0.7258463 -0.35375354 -0.50194585 -0.8196722 0.24657457 0.88099414 0.5362991 0.27844968
-0.4825912 -0.12914327 0.057884045 -0.56397694 -0.7029395 -0.3834301 0.33892474 0.28105265

decoder.dec2.bias f4 [39]
00000000: ef89 dfbc ebd4 323d 9eb2 373d 262d 163d
00000010: 76cb 1ebc 9430 373c 40ca 6cbb 3a34 f6ba
00000020: 343a 4dbd ec6b 7339 b2b0 6cbd a6e6 133e
00000030: ae95 f03d adc6 273b d456 b7bd 4b6f 503d
00000040: e70d 8cbc 8aca 413e 487f a03d 2ff4 40bd
00000050: 2273 8dbd e47b f43d c0d7 f5bc 0365 90bd
00000060: a41c 903d 1436 98bc e248 f73d 0655 14bd
00000070: 92d4 963d fa9a 993d a04d 493b 01e1 233d
00000080: b905 fdbc 7122 d13d 258b 263c d7f0 763c
00000090: fee6 ef3d 876a 5e3d d991 073e
-0.027287452 0.043660086 0.044848077 0.03666415 -0.009692064 0.0111810155 -0.0036131293 -0.0018783875
-0.050104335 0.0002321449 -0.057785697 0.14443454 0.11747299 0.0025600598 -0.08952108 0.050887387
-0.017096473 0.18924919 0.07836777 -0.04710787 -0.069067255 0.11937693 -0.030010104 -0.070505165
0.07036713 -0.018580474 0.12074448 -0.036213897 0.07364763 0.075002626 0.0030716434 0.040009502
-0.030886518 0.10211647 0.010165011 0.015072069 0.1171398 0.05430081 0.1323923

decoder.dec3.weight f4 [58, 39]
00000000: d646 30bf e2dd 593f 2e48 9b3c f201 2a3f
00000010: b60a 67bf 08f6 15bf dfa7 283e 30e4 7cbf
00000020: 9b7a 01be a830 9f3e 57e7 85be c543 9abe
00000030: 75a0 25be 790f 08bf 193e e13c 140b ad3c
00000040: fdb0 cc3c 6e75 cfbd d652 2ebf f3a2 713f
00000050: 6aa1 94bf d930 083f 29da efbd 6045 35bf
00000060: d0d4 20bf a602 79be 91ec 13be 3f5b 18bd
00000070: fbfc 013f bc27 77be dc3e ef3e 53d8 c4be
00000080: c0fb f13d e509 f9bd 4f40 3a3e 87f0 a3be
00000090: dab0 ebbe f490 36bf bef9 f93d 72c9 343e
000000a0: 0b3f d9bd f195 8d3e 66ab b33b bcf1 72bd
000000b0: 1a60 103e 27bd bcbd 71cd 4a3e 29e3 893d
000000c0: a2cb 84be a662 0b3e 19b5 8c3b 4896 dd3d
000000d0: 77da a93c cb20 c0bd bf6e bfbe 6979 bdbe
000000e0: b0bd e1be cd8d 5bbf e1c8 5b3d 3020 a13c
000000f0: 217e 1cbf 09d6 e53e 7bbb 203e 05a6 4abe
00000100: 62ea 3ebf c08a fc3d e6d6 813a 50a8 2abe
00000110: c0f3 ae3e e714 d6bd 970a c43d 86e5 c1be
00000120: 4871 ea3d 0959 f53e 59b4 873e fb0e c9bd
00000130: 4f49 d1be a224 803e e9bc 46be efa5 84be
00000140: 50ff cc3e 080c c33c 7c22 1c3e bdbd 823e
00000150: 2a88 c83c a494 cf3e 0c6b 1d3e 2d79 ed3e
00000160: 5aaa bbbd 61de 82be 3325 4dbe 6dbd 113f
00000170: 8489 4ebe bc63 7fbe 1015 81be 6ee4 9bbe
00000180: 6090 9cbc 026e 0f3e a61e 123f cb39 e23c
00000190: 02fa a7be 7f21 803e f22b 333d 2a51 a73f
000001a0: dfc1 b33e 3ac5 a9be 8ece 6bbf 2374 41be
000001b0: ef03 d6bd 8458 c13d d1fb 10bf f54c 62bd
000001c0: 3713 b13e e827 e33e 6aec 133f a939 e1bd
000001d0: eaa3 c33b 0575 023f 3034 4f3e 8564 b7be
000001e0: 8da9 0b3e 3f52 a23e 548f 8bbd 6b7d ad3e
000001f0: 2a9e fbbe ecca bf3e cf2d cabd f8e6 9538
00000200: a7d8 eb3e 22c4 f1be fc39 dabd 2955 c4be
00000210: fa56 083f 233d cc3e 6677 0f3f 6575 b1bd
00000220: 4fc6 de3e 78a9 1d3e 31f1 85be 193c 11be
00000230: 2821 9b3e 8a9b 313d bb82 c23d 3358 60be
00000240: f39d 333e e2ac 2c3f ab6e 3a3e 3bbc 2c3d
00000250: bc52 323b 32a0 603e afc3 49be c24a 593d
00000260: c167 d1bf d1ee 32be 601f e1bd 5cde c9be
00000270: bffc 4ebe c3fe 053d 1b04 8cbe 2de8 c4bb
00000280: d633 f2be 7543 463e 97ec 31be a04d 6cbd
00000290: dc0b 18be b05e dfbe da0f e3be 38de adbd
000002a0: 4ad0 e33e a591 ec3c cb27 983e 9346 1a3e
000002b0: 6283 e5bd 126b c03e 3b2f 75be a19c 0abf
000002c0: 74ed 1cbf ccdb e23e 2a4c 2a3d afdf 3e3e
000002d0: afd4 863e 861c 8cbe 083a 28be 3b25 333e
000002e0: 9504 dbbc cff9 7cbe 819b b43d 320c 07bd
000002f0: ebf6 49bc 7377 84be 1cfc 8ebd 9715 d3be
00000300: 8154 adbe f4a6 d6be 8201 dc3e dd3f 27bc
00000310: 1703 b43e 3e3a 8bbe 7e78 06be c217 c73e
00000320: 096f a13d 1795 823e 0231 87be 0836 733e
00000330: a0df a9be 201e 0bbe 2382 78be 4c86 d2bd
00000340: 89e6 823d b2f8 bb3e 9477 c13e 3233 b4be
00000350: e065 6bbf b3ca b23e e668 bebe c380 8c3e
00000360: cbcf 9e3e ba95 a63d a542 b5bb 5e31 01bc
00000370: 2a8b 593e f168 91be cc87 0d3e 7290 3cbe
00000380: a325 b13e 1e01 27be 4069 893e 9539 703f
00000390: df44 8f3e 78df 3b3e 2250 3dbe 5aa3 3bbd
000003a0: c6a5 963e f172 ef3e 033a bb3e 02cd afbe
000003b0: 7411 6b3e 0885 cbbe 3a57 963e a0a1 343f
000003c0: 50fd ff3d 44f6 633e ae47 3bbe 1070 90bd
000003d0: 2c55 c0bd 9565 603c d304 61be 6fb6 28bd
000003e0: 9f53 5b3e 502d 9a3f b3d0 03bf 0ac1 66bf
000003f0: 2a9c 07be 221f 4cbe 626e 303f 1a16 293e
-0.6885809 0.8510419 0.018955316 0.6640922 -0.9025072 -0.5857854 0.16470288 -0.98785686
-0.12644427 0.3109181 -0.2615306 -0.3012983 -0.16174491 -0.5314861 0.02749543 0.021123447
0.024986738 -0.1012982 -0.6809515 0.94389266 -1.161176 0.53199536 -0.117115326 -0.7080898
-0.62824726 -0.24317417 -0.14445712 -0.037196394 0.5077664 -0.24136251 0.46727645 -0.38446292
0.118155956 -0.1216009 0.18188594 -0.32019445 -0.46033365 -0.7131493 0.12205838 0.1765497
-0.106077276 0.2765346 0.005483079 -0.059312567 0.1409916 -0.092157654 0.19804932 0.067327805
-0.2593661 0.1361185 0.0042940495 0.108196795 0.020734055 -0.09381255 -0.3738918 -0.3700669
-0.44090033 -0.85763246 0.05365837 0.019668669 -0.6112996 0.44889858 0.15696518 -0.19789894
-0.7457639 0.12331152 0.0009905964 -0.16665769 0.34170341 -0.104532056 0.09572332 -0.37870425
0.11447388 0.4791949 0.26504782 -0.098173104 -0.40876243 0.2502795 -0.19408001 -0.25907847
0.40038538 0.023809448 0.1524753 0.25535384 0.02447899 0.4054309 0.15372866 0.46381512
-0.09163351 -0.25560287 -0.20033722 0.56929666 -0.20169646 -0.2494039 -0.25211382 -0.30447716
-0.019111812 0.14006808 0.57078016 0.027615448 -0.32807928 0.25025555 0.04374308 1.3071644
0.3510885 -0.33158284 -0.9211205 -0.18891959 -0.10449969 0.09440711 -0.5663424 -0.055249173
0.34584972 0.44366384 0.57782614 -0.10997326 0.005970468 0.5095981 0.20234752 -0.35818878
0.13638897 0.31703374 -0.06814447 0.3388475 -0.49144107 0.37459505 -0.098720185 7.147895e-05
0.4606373 -0.4721995 -0.10655591 -0.38346222 0.53257716 0.39890394 0.5604156 -0.08664969
0.43510672 0.15396678 -0.26160577 -0.14183082 0.30298734 0.043361224 0.09497591 -0.21908645
0.17540722 0.674513 0.18206279 0.042171698 0.0027209958 0.2193611 -0.19703554 0.05304981
-1.6359788 -0.17473914 -0.109923124 -0.3942746 -0.20213602 0.032713663 -0.27346882 -0.006009123
-0.47305173 0.1936167 -0.17375408 -0.057691216 -0.14848274 -0.43626928 -0.4434803 -0.084896505
0.4449485 0.028878042 0.2971786 0.15065984 -0.112067 0.37581688 -0.23943798 -0.54145247
-0.61299825 0.44308317 0.041576542 0.18640016 0.2633414 -0.27365512 -0.16428387 0.17494671
-0.026735583 -0.2470467 0.088187225 -0.032970615 -0.012326936 -0.25872383 -0.0698168 -0.4122741
-0.33853534 -0.4192425 0.429699 -0.010208097 0.35158607 -0.27192873 -0.13131902 0.38885313
0.078825064 0.25504372 -0.26404577 0.2375108 -0.33178425 -0.1358571 -0.24268393 -0.10279521
0.06391627 0.36713177 0.37786543 -0.3519531 -0.91952324 0.34920272 -0.37189406 0.27441987
0.31017908 0.08134027 -0.0055316263 -0.007885305 0.21244493 -0.28400376 0.13821334 -0.18414477
0.34599027 -0.1630902 0.26838112 0.93837863 0.27982232 0.18346965 -0.184876 -0.04581008
0.2942335 0.4676738 0.36567697 -0.34336096 0.22955877 -0.39749932 0.29363424 0.7055912
0.124994874 0.22261912 -0.18289062 -0.07052624 -0.09391245 0.013696094 -0.21974497 -0.041189607
0.21418618 1.2045078 -0.51490325 -0.90138304 -0.13243166 -0.19933751 0.6891843 0.16512337

decoder.dec3.bias f4 [58]
00000000: c0af b33d f53c 523d 48b4 fb3d 1fb9 263d
00000010: fdb8 ef3c 1328 af3a 821d 613d 28cc 2e3d
00000020: cadc 233d ac4d c4bd b9b0 3b3c 5db6 863d
00000030: 2f8e a5bd 6f0f 74bc 66ec bb3d 5bd9 91bd
00000040: 30f1 043e 106f b6bd 3558 a33c 94f1 40bd
00000050: c2cf d0bc a1b2 443d c3bb ea3d 9f75 843d
00000060: 326e 38bc 86d3 483c ba92 0f3e 2108 28bd
00000070: 8708 4d3e 80a9 8ebc a3dd 883d b6f1 003e
00000080: 7e22 4f3d ecaf d73c 9b53 15bd 55fa 733d
00000090: 0770 103e f61b 983d 8403 653d 9671 123e
000000a0: c0d2 89bc 58e9 cf3d 93e3 963d 3421 4c3d
000000b0: e628 0f3d a816 a7bb 698a cf3c 0446 81bd
000000c0: ccbe d13c 5ed1 2ebd 94de b13d 8805 12bd
000000d0: 6d25 233d 9fa9 cc3c 444e 37bd 7b08 3dbc
000000e0: c51b 953b 45b3 b63d
0.08773756 0.051327664 0.12290245 0.04070389 0.029263014 0.0013363383 0.05495978 0.042675167
0.040005483 -0.09585127 0.011455708 0.06577752 -0.0808376 -0.014896258 0.09175949 -0.071215354
0.1298263 -0.08907902 0.019939521 -0.047105387 -0.025489692 0.048021916 0.11461594 0.06467747
-0.011256741 0.012257462 0.14020815 -0.041023377 0.20022784 -0.017414808 0.06682899 0.12592205
0.050570004 0.026329003 -0.036456686 0.059564907 0.14105235 0.07427208 0.055911556 0.14301142
-0.016824126 0.10151929 0.07367625 0.049836352 0.034951113 -0.0050991364 0.025334554 -0.063121825
0.025603674 -0.042680137 0.086850315 -0.035649806 0.039830614 0.024983225 -0.044752374 -0.011537666
0.0045504295 0.08920912

decoder.dec4.weight f4 [78, 58]
00000000: 0886 2bbc 484b f23d ef95 cd3d 2a6d 153e
00000010: 2e09 2a3e 00b1 f53d 0d33 2fbe 606c bfbc
00000020: 902e 263c 72dd 263d 26ed ed3d 666c aabb
00000030: 55c1 84bd 069e 663d 5ad2 0e3e 7f40 973d
00000040: dec1 ddbc 39aa 2c3e cb04 263d 16e6 dcbc
00000050: c920 15bd 5dd3 8ebc dce2 4a3d ac71 973c
00000060: 6a1e 4c3d 2e96 75bc 100c 973d 118b 36bc
00000070: 7f9c 71bd e78c 4abe 210f 8dbd 971b f837
00000080: ce54 6dbd 01d2 b33c ab1b d73c a46d d4be
00000090: 8895 953b 0317 16bd fbd1 8dbe ee5b 1c40
000000a0: cf16 35bd 73b5 05bd ce22 22be 1692 e03d
000000b0: 7ce6 feba 5103 bc3d e588 233e 4975 72bb
000000c0: 4fb7 0fbb 1e87 7f3e 57fa 8bbe 1593 2bbd
000000d0: e593 99bc 6713 8abe 282d 8ebe 5f49 0fbd
000000e0: 151b eb3d 32a1 3f3d 8098 04bf 13bf 6d3e
000000f0: 63c1 403e 43ca 55bf 0b47 d8be 80fe 1dbf
00000100: 523b 6d3e 2698 a1bc 7624 413e b7e3 a8be
00000110: 0975 eabe 0e45 c0bd 34c8 b33d 88fe 48be
00000120: fa06 0d3f 5afb 51be 10f6 44bf 4524 cdbe
00000130: f0de 0cbd 8f4d b33e 1971 993d 0fe8 13be
00000140: 482d dfbc 68bb 283e c81b ab3d ccf9 e7bb
00000150: 70f0 c03f e979 a4be 885c 8c3e dec1 6bbe
00000160: 3fed 5bbe 0757 6e3f 118f 893d 3680 6ebe
00000170: 9dc6 b6bc 5e5d 363e 0589 a43e f17a 3d3e
00000180: 1ab5 58be 419f 9bbe b162 a53e 5b8e 9fbd
00000190: 91f4 ae3e 01d8 043f d297 403f c92f 1e3f
000001a0: 13ed c43d 1511 0fbe 6048 c73e 2411 9abe
000001b0: 6b23 963e 176c 3dbe 165a 6d3d 816e c83e
000001c0: 49a4 9abe 9749 983e 2999 8e3c 1f07 9cbe
000001d0: 6d90 fe3e 31c4 5d3e 1839 74be 5ddd cd3e
000001e0: 8298 07ba c8b3 9f3d b689 f53e 8d92 3fbf
000001f0: 3eca 1fbf 0201 ad3e 2c88 613e 4c4e 35bd
00000200: 1670 863d 7d1b 593d 6b1f b83e 73a8 b43b
00000210: 78c3 b1bd f4db 0c3f 912a 773d 0ffb 223f
00000220: 5604 a8be 5342 df3c 0f6f 96be cc6e de3e
00000230: 6f27 943c 1701 113d 9f2b c93d e079 093f
00000240: 7a5f ffbe e2b6 193d cd2f b3be 1430 d63d
00000250: c655 09be 89ec a2bd 6aa5 0cbe 2e82 943e
00000260: 8211 073e 369d b9be c25a 7d3e 0e39 493d
00000270: b48f 653e 794b 09bf 97cc 433e 5f77 02be
00000280: 094a 263c 6f8b 953e 5ce0 ccbe 9553 723e
00000290: b620 0cbf ce3c a23e 148e c43e c16c bcbd
000002a0: 911c c93e fe1d c1be af0c 933e e336 bb3d
000002b0: cad2 173f 0b03 1fbd 8296 02bd 5044 fd3c
000002c0: ac22 b5bd 7e14 763d a1f6 5b3d 905e 70bd
000002d0: e5fb 253e 1da1 50bb f1f1 bd3c ca1b 32bb
000002e0: e558 833d ac9b 3c3d 7964 e1bb 757c 90be
000002f0: 1855 97bd ae46 4abd 6abd ad3c d134 bfbd
00000300: 2df7 4b3d d9b8 e0bd 6b51 903b f616 c93c
00000310: 9e48 c63a 2e9f d73d a63b cebd 6596 dc3c
00000320: 0e74 8a3c 149e 3cbd 743d cb3c c836 923d
00000330: 2d97 dd3d b547 cb3c c08b 93bc 8284 863d
00000340: c88e b93c fbfb 7f3d 4588 ef3b 1bff bdbc
00000350: 06b1 3cbd 108c a6bc d656 5ebd ec9b 14bd
00000360: 50d8 04be e6fa 003d 9e9d c83c 2f0e 903d
00000370: 88aa bdbc 4c94 27bc 540b 5ebd 8dcb 81bc
00000380: 5107 dfbc 3bd0 d23d 908c d93d a009 8fbc
00000390: 8947 8fbd 378c bcbb 88d2 5fbb 3f4b 0cbe
000003a0: 7143 313c 8be6 09bd a346 a83c 6698 a9bc
000003b0: d9a1 83bb eb02 193e fb97 febd c2ad b4bb
000003c0: e992 66bc 5ae3 1b3b 0d68 293d f276 9fb9
000003d0: 6c07 6fbb 6462 50be 5b80 153d 64a2 4cbc
000003e0: 04d1 0e3d da77 c53d 0ff3 8abc 78da 89bc
000003f0: 8079 b5bc 0438 643b 26cf a9bb 9bd1 3c3d
-0.010468967 0.11830765 0.10038363 0.14592424 0.16605064 0.11996651 -0.17109318 -0.023367107
0.010142937 0.04073853 0.11617498 -0.0052009104 -0.06482188 0.056303047 0.1394743 0.073853485
-0.027069982 0.1686181 0.040531915 -0.026965182 -0.03640822 -0.01743477 0.049532756 0.01848682
0.049833693 -0.014989419 0.073753476 -0.011141554 -0.058987137 -0.19780312 -0.06887651 2.9576751e-05
-0.057942204 0.021950724 0.02625831 -0.414899 0.0045649447 -0.03664304 -0.27699265 2.443111
-0.044211205 -0.032643747 -0.1583359 0.10965364 -0.0019447352 0.0918032 0.1597019 -0.0036996177
-0.0021929329 0.24953887 -0.27339432 -0.041888315 -0.01874728 -0.26967928 -0.27768826 -0.03498208
0.11479775 0.046784587 -0.51795197 0.2321742 0.18823771 -0.8351175 -0.422417 -0.6171646
0.2316716 -0.01972587 0.18861565 -0.32986233 -0.45792416 -0.09388171 0.0877842 -0.19628346
0.5508877 -0.2050604 -0.7693796 -0.40066734 -0.034392297 0.3502011 0.07492275 -0.14443992
-0.027243271 0.1647774 0.08354908 -0.0070793387 1.5073376 -0.3212426 0.27414346 -0.23023173
-0.21477221 0.93101543 0.06716741 -0.23291096 -0.022311503 0.17809054 0.32135788 0.1850393
-0.21162835 -0.3039494 0.32301858 -0.07790824 0.34170964 0.51892096 0.7523166 0.61791664
0.09615531 -0.1397136 0.38922405 -0.30091202 0.29323897 -0.18498264 0.05794724 0.39146808
-0.30203465 0.29743645 0.017407017 -0.30474183 0.49719563 0.21656872 -0.23849905 0.4020795
-0.0005172567 0.077979624 0.47956628 -0.74832994 -0.6241797 0.3378983 0.22024602 -0.044264123
0.065643474 0.05300473 0.3596147 0.005513245 -0.08679861 0.5502312 0.06034333 0.63664335
-0.32815808 0.027253306 -0.29381606 0.43443906 0.01808521 0.03540143 0.09822773 0.5370159
-0.4987753 0.037527926 -0.34997407 0.10458389 -0.13411626 -0.07955272 -0.13734975 0.2900557
0.13190272 -0.36252755 0.24741653 0.049126677 0.224181 -0.5363079 0.19121014 -0.12740849
0.010149487 0.29207942 -0.40014923 0.23664697 -0.5473741 0.31687015 0.38389647 -0.09200431
0.39279607 -0.37718195 0.28720614 0.09141328 0.59306014 -0.03882126 -0.031881817 0.030916363
-0.08844504 0.060078137 0.053702 -0.05868393 0.16209371 -0.0031834312 0.023186656 -0.0027177208
0.0641344 0.046046898 -0.0068784324 -0.28219953 -0.07389277 -0.04938381 0.021208484 -0.09336246
0.049796272 -0.10972757 0.004404237 0.024547081 0.0015127843 0.10528408 -0.10069971 0.026927182
0.016901042 -0.046049193 0.024809577 0.07139355 0.1081985 0.024814466 -0.018010974 0.065682426
0.022651091 0.062496167 0.0073099458 -0.023192933 -0.04606726 -0.020330459 -0.054282032 -0.03628151
-0.12973142 0.031489275 0.02448922 0.07033955 -0.023152605 -0.010228228 -0.054210022 -0.01584413
-0.027225168 0.10293623 0.10622513 -0.017460644 -0.06996066 -0.0057540196 -0.0034152586 -0.13700579
0.010819302 -0.03366713 0.020541495 -0.020702552 -0.0040170965 0.1494252 -0.12431332 -0.0055138776
-0.014073112 0.0023786635 0.041358996 -0.00030415464 -0.003647293 -0.20350033 0.036499362 -0.012489889
0.0348673 0.096420005 -0.016961602 -0.016827807 -0.022152662 0.0034823427 -0.0051821647 0.046098333
