IDS_TA/Wednesday_Models/CADE-m1.0-l0.1.pth (torch, 67890 bytes, 16 tensors)

encoder.enc1.weight f4 [58, 78]
0	0x3e9a7d65	0.30173793
1	0x3e3ea67a	0.18618193
2	0xbdd65f08	-0.104673445
3	0x3d5ce4c3	0.0539291
4	0x3e20d073	0.15704517
5	0xbcdc6a1f	-0.026906071
6	0x3c295586	0.010335332
7	0x3e5c0ef8	0.21490085
8	0xbdbd9e08	-0.09258658
9	0xbd898396	-0.06714551
10	0x3e3c3706	0.18380365
11	0xbdae3380	-0.085059166
12	0xbe15900c	-0.14605731
13	0xbe0b153c	-0.13582319
14	0xbdfa13d3	-0.122108124
15	0x3e3c909f	0.18414544
16	0x3e1c8817	0.15286289
17	0x3bbb0424	0.0057072807
18	0x3e5804e6	0.21095619
19	0x3e1677d1	0.14694144
20	0x3e8029b5	0.2503182
21	0xbe4faa4d	-0.20279808
22	0xbe76ec2c	-0.2411353
23	0xbd936a43	-0.07198002
24	0x3e15e7f7	0.14639269
25	0xbdd3012b	-0.10302957
26	0x3e7dfe63	0.24804072
27	0xbcc83eb1	-0.024443956
28	0x3e7cd246	0.24689588
29	0x3e4d7ad6	0.2006639
30	0x3e2e493a	0.17020121
31	0x3d569745	0.052390356
32	0xbd81a262	-0.063298
33	0xbe46f5cd	-0.19429703
34	0x3da73363	0.08164098
35	0x3d4e1992	0.050317355
36	0x3e814e15	0.25254884
37	0x3d38b374	0.045093015
38	0xbde4ab43	-0.11165478
39	0xbe13691b	-0.14395563
40	0x3e6f481b	0.2336735
41	0xbe2aecdc	-0.16691917
42	0x3decb1c0	0.115573406
43	0x3e42db18	0.1902889
44	0xbb5094c5	-0.0031826955
45	0x3e18b0d8	0.1491121
46	0xbd3e54b6	-0.046467505
47	0x3ccb3a13	0.024807965
48	0x3e54c615	0.20778687
49	0xbe84a159	-0.25904348
50	0x3d6ba0a6	0.057526253
51	0x3e0eae8e	0.13933775
52	0xbe91ce82	-0.28477865
53	0x3e8e7291	0.27821782
54	0xbd99f8e3	-0.075181745
55	0xbe098440	-0.13429356
56	0x3c1aae85	0.009441023
57	0xbd1d1d33	-0.038357925
58	0xbdeb3058	-0.1148383
59	0xbd900cf7	-0.07033723
60	0x3d4bf523	0.049794327
61	0xbd3019a9	-0.04299322
62	0x3d452149	0.048127446
63	0xbe76c324	-0.24097878
64	0x3c812074	0.015762545
65	0xbd3817e3	-0.044944655
66	0x3e0d3951	0.13791396
67	0x3b8e88f1	0.004349821
68	0x3e3a133f	0.18171404
69	0x3e127782	0.14303401
70	0xbd8d6c0b	-0.06905373
71	0x3e440019	0.19140662
72	0xbc8cc2dd	-0.017182762
73	0xbe399dea	-0.18126646
74	0xbe4fb255	-0.20282872
75	0xbc9839c4	-0.018582232
76	0xbd4f2305	-0.050570507
77	0x3e1b5778	0.15170085
78	0x3dec0291	0.11523927
79	0xbe57c6f9	-0.21071996
80	0x3e394197	0.18091427
81	0xbe461645	-0.19344433
82	0x3d9c35bd	0.07627437
83	0x3e6a3bf8	0.22874439
84	0x3d489c28	0.048977047
85	0xbc985e1e	-0.018599566
86	0x3e19d1fe	0.15021512
87	0x3e910d44	0.28330433
88	0xbe182e1e	-0.14861342
89	0x3d94aca8	0.07259494
90	0xbea1b133	-0.31580505
91	0x3911cd5d	0.00013904781
92	0x3de4cc3a	0.111717656
93	0xbd5c3bdb	-0.05376802
94	0x3e3fd20c	0.1873247
95	0x3e8ef91f	0.2792444
96	0xbe806f51	-0.25084928
97	0x3e60ae19	0.21941413
98	0xbe3adab8	-0.18247497
99	0xbd2a3b1b	-0.041560274
100	0xbe39cb75	-0.18144019
101	0x3e3a6ab4	0.18204767
102	0xbe11fb25	-0.1425596
103	0xbdaabb13	-0.08336463
104	0xbe01701d	-0.12640424
105	0xbe442289	-0.19153799
106	0x3d9bc0a1	0.076051004
107	0xbdd253aa	-0.10269864
108	0xbe5bcb7c	-0.21464342
109	0xbe4bb691	-0.19893862
110	0x3e6e3d94	0.23265678
111	0x3e153f6c	0.14574975
112	0xbe2c9b5e	-0.16856143
113	0x3e69178e	0.22762892
114	0xbe25cf2a	-0.16192308
115	0x3e1bc2ea	0.15211073
116	0x3e65ccdf	0.22441433
117	0x3e186497	0.14882122
118	0x3d299aab	0.04140727
119	0xbe5183ef	-0.20460485
120	0x3e38130c	0.17976016
121	0xbe8bbc62	-0.27292162
122	0xbe8002d8	-0.2500217
123	0x3e2b22f1	0.16712548
124	0xbdbcb0d8	-0.09213418
125	0x3e3ad760	0.18246222
126	0xbe1c1a6c	-0.15244454
127	0xbda14209	-0.07873923
128	0xbe9520e4	-0.29126656
129	0xbcfc7198	-0.030815884
130	0x3e487ea7	0.19579564
131	0xbe164aca	-0.14676967
132	0x3e299cf2	0.16563776
133	0xbdcb69c3	-0.09932282
134	0x3e48afed	0.1959836
135	0xbe391e2f	-0.1807792
136	0xbe1f4c1f	-0.15556382
137	0xbe5c6032	-0.2152107
138	0x3d7c16d5	0.06154521
139	0xbe5330e1	-0.20624115
140	0x3e378dc1	0.17925169
141	0xbdeab9bd	-0.11461208
142	0xbd2300b3	-0.03979559
143	0xbd4035cd	-0.04692631
144	0x3e585037	0.2112435
145	0x3d2ebd35	0.04266091
146	0xbcdb6f8a	-0.026786584
147	0x3e8e4f3a	0.2779482
148	0x3da91b3e	0.08257149
149	0xbdcb164c	-0.09916362
150	0xbe32f14a	-0.17474857
151	0x3d1818eb	0.03713314
152	0x3e492c95	0.19645913
153	0xbe3d0d1d	-0.18462034
154	0xbe7f526a	-0.24933782
155	0x3e3c1c79	0.18370236
156	0x3e95040c	0.2910465
157	0x3c66c706	0.014085537
158	0xbb337c5d	-0.0027387359
159	0x3e039806	0.12850961
160	0xbe7d9e08	-0.24767315
161	0x3d973bab	0.07384428
162	0x3dd8768f	0.10569488
163	0xbe2614c1	-0.16218854
164	0x3cada7c6	0.021198165
165	0x3e133492	0.14375523
166	0x3dc64162	0.096804395
167	0x3e3d1d7c	0.18468279
168	0xbe84da4a	-0.2594779
169	0xbbaa75d9	-0.005202037
170	0x3e339948	0.17538941
171	0xbd853206	-0.06503682
172	0xbe42c078	-0.19018734
173	0x3e064cec	0.13115281
174	0xbe467032	-0.19378737
175	0x3d612897	0.05497035
176	0xbe375dde	-0.17906901
177	0x3e1bf5b5	0.15230449
178	0xbc389802	-0.01126671
179	0x3d258eb8	0.04041931
180	0x3e7ec334	0.24879152
181	0xbe8cc14f	-0.27491233
182	0xbdb1a8f1	-0.08674801
183	0xbe7ef309	-0.24897398
184	0xbd42a4f9	-0.04752061
185	0x3d4c17a8	0.049827248
186	0x3e5654ae	0.2093074
187	0xbe254f18	-0.16143453
188	0xbde22c90	-0.11043656
189	0x3d75e210	0.060030043
190	0x3cecd91a	0.028912116
191	0xbe355e50	-0.17711759
192	0xbe722950	-0.23648572
193	0x3e2891ef	0.16461919
194	0xbe83242e	-0.2561354
195	0xbea628d1	-0.32453015
196	0x3de2a1bf	0.11066007
197	0x3e2d3d33	0.16917877
198	0x3e3c9c1d	0.18418927
199	0xbe4baea2	-0.19890836
200	0x3d513386	0.051074527
201	0x3b8dd35d	0.004328175
202	0xbe1ef315	-0.15522416
203	0xbeabd788	-0.33562875
204	0xbe010400	-0.12599182
205	0xbe562331	-0.20911862
206	0xbe34ed59	-0.17668666
207	0xbe17c46c	-0.14821023
208	0xbe93a212	-0.28834587
209	0x3e737bb6	0.2377766
210	0xbe7b3307	-0.24531184
211	0xbd0fa10a	-0.03506569
212	0xbde971d7	-0.11398666
213	0xbdc27d4e	-0.09496556
214	0xbe52db81	-0.20591547
215	0xbcbb2ace	-0.02284756
216	0xbdba6ce4	-0.091028005
217	0x3df382cf	0.11890184
218	0x3d234e61	0.03986967
219	0xbde26566	-0.110544965
220	0x3d5b9e50	0.053617775
221	0x3e8312ce	0.25600284
222	0x3e0cfc7f	0.13768195
223	0x3e2d9ae8	0.16953623
224	0x3b22aeff	0.0024823544
225	0xbe555aaf	-0.20835374
226	0xbe253130	-0.16132045
227	0x3e09513a	0.13409892
228	0x3e87887d	0.2647132
229	0xbd066862	-0.03281439
230	0x3e95a491	0.29227117
231	0x3ab0d924	0.0013492447
232	0x3e6a4e6b	0.22881477
233	0x3e1709b5	0.14749797
234	0x3ea493e4	0.32144082
235	0xbd1e7e24	-0.038694516
236	0x3cac48da	0.021030832
237	0xbc39c87e	-0.011339305
238	0xbda0e3f7	-0.07855981
239	0xbe809d71	-0.25120118
240	0x3e0c1952	0.13681534
241	0x3e324b4b	0.17411534
242	0xbdb56eed	-0.08859048
243	0xbe5b7264	-0.21430355
244	0x3d9f5168	0.07779199
245	0x3e5c0b5f	0.21488713
246	0x3e39b34e	0.18134806
247	0xbe8f17ac	-0.27947748
248	0x3e510f19	0.20415916
249	0xbba7c7a5	-0.005120235
250	0x3df78535	0.12085954
251	0x3e3cdf50	0.18444562
252	0x3d5f08f8	0.054451913
253	0xbd289946	-0.041161798
254	0xbe1b16a0	-0.1514535
255	0xbde1d3b2	-0.11026706

encoder.enc1.bias f4 [58]
0	0x3c862db0	0.016379207
1	0x3b6522e8	0.0034963433
2	0x3c8a7a0a	0.016903896
3	0xbbf45291	-0.0074561317
4	0x3a50bddf	0.00079628633
5	0xbb508040	-0.0031814724
6	0xbd2b1db9	-0.041776393
7	0x3d571120	0.052506566
8	0xbc9d270f	-0.019183664
9	0xbaa73580	-0.0012757033
10	0xbdab7ceb	-0.083734356
11	0xbb3afed4	-0.0028533237
12	0x3cc34d8b	0.023840686
13	0xbc13a997	-0.009012601
14	0x3b05d961	0.0020423757
15	0xbc11a9cf	-0.008890583
16	0x3b956313	0.0045589297
17	0x3c2a7f7a	0.010406369
18	0x3af2191d	0.0018470619
19	0xbc388439	-0.011261993
20	0x3ccbeb44	0.024892457
21	0xbb271a0f	-0.002549771
22	0x3c09d7ab	0.008413236
23	0x3ca7ca7d	0.020482296
24	0x3d031676	0.032003842
25	0x3c91e61c	0.01780992
26	0x3d2aa14c	0.04165773
27	0x3c34f0be	0.011043726
28	0x3c00c492	0.007859366
29	0xbc803f86	-0.01565529
30	0x3c41cbd2	0.01182838
31	0x3b45069b	0.0030063752
32	0x3b8895ed	0.004168263
33	0xbc9386b6	-0.018008571
34	0x3a221bc3	0.00061839464
35	0x3ddec52f	0.108774535
36	0xbaf6cb67	-0.0018828929
37	0x3c5c6f81	0.013454319
38	0xbbbd5ed6	-0.0057791276
39	0x3cfb45d5	0.030672947
40	0x3a71796c	0.00092115137
41	0x3cf148c9	0.029453652
42	0x3c37757b	0.011197443
43	0xbc8cd4ac	-0.017191254
44	0xbbbe03fa	-0.005798814
45	0x3bdf2d59	0.006810826
46	0x3b8963e0	0.004192814
47	0xbc89c9f6	-0.016819935
48	0x3c102ac9	0.008799263
49	0xbcc22ec3	-0.023703938
50	0xbc2aff0c	-0.0104367845
51	0x3c515989	0.0127776945
52	0xbb9a391f	-0.0047065164
53	0x3c121c13	0.008917826
54	0x3c6303e7	0.013855911
55	0x3c5cf5f4	0.013486374
56	0x3cb1aa83	0.021687752
57	0xbbc45f2b	-0.00599279

encoder.enc2.weight f4 [39, 58]
0	0x3e3dbd94	0.1852935
1	0x3e582749	0.21108736
2	0xbe5597ed	-0.20858736
3	0xbe304856	-0.17215094
4	0xbea12d27	-0.3147976
5	0xbe8b3c85	-0.2719461
6	0xbded3ec4	-0.11584237
7	0x3cb80578	0.022463545
8	0xbe962413	-0.29324397
9	0x3dcfd15a	0.101473525
10	0x3dbcbb1f	0.09215378
11	0x3cf89c1a	0.030347873
12	0x3ea63352	0.3246103
13	0x3e765f98	0.24059904
14	0x3e4d97da	0.20077458
15	0x3c7c4238	0.015396647
16	0x3ba13006	0.004919055
17	0xbe837b6c	-0.256801
18	0xbe409ca0	-0.18809748
19	0xbe85756b	-0.26066145
20	0xbe7edff3	-0.24890117
21	0xbddbef82	-0.10739042
22	0xbdbbd657	-0.091717415
23	0xbddf3a2b	-0.108997665
24	0x3e78034c	0.24220008
25	0x3e1c1210	0.15241265
26	0x3daf5cc2	0.08562614
27	0xbddbcf7c	-0.10732934
28	0xbe8d1ca7	-0.27560923
29	0xbe60c13d	-0.21948715
30	0xbda64828	-0.081192315
31	0x3e602c78	0.21891963
32	0x3e7c14b6	0.24617276
33	0x3e20feae	0.15722153
34	0x3e08b5fa	0.13350669
35	0x3e8cc539	0.2749422
36	0xbea10820	-0.3145151
37	0x3d641341	0.055682424
38	0xbdc95f10	-0.09832585
39	0xbdd4a233	-0.103824995
40	0x3e4487db	0.1919245
41	0x3de23b87	0.1104651
42	0xbe072b6a	-0.13200155
43	0xbd43361b	-0.04765902
44	0xbdc92997	-0.09822386
45	0xbe62caf7	-0.22147737
46	0xbe893f47	-0.2680609
47	0xbe801129	-0.25013092
48	0x3e9c6e1d	0.3055276
49	0x3e349574	0.17635137
50	0xbdd708f2	-0.10499753
51	0xbdbf44a9	-0.09339268
52	0xbe5e9c21	-0.21739246
53	0xbe1cf5e0	-0.15328169
54	0x3db79067	0.089630894
55	0xbe5be109	-0.21472563
56	0x3d2a0240	0.041506052
57	0x3d5884e7	0.05286112
58	0xbeaaf62f	-0.33390948
59	0x3e0885a7	0.13332234
60	0x3df21b82	0.11821653
61	0x3e0d25c9	0.13783945
62	0xbe696307	-0.22791682
63	0xbcbe995d	-0.023266489
64	0x3e91cc73	0.28476295
65	0xbc2785c3	-0.010224762
66	0xbd7f26ad	-0.062292743
67	0x3e1f1542	0.15535453
68	0x3ea9c2c5	0.3315641
69	0x3e884d4a	0.26621467
70	0x3db19262	0.086704984
71	0x3e93a367	0.28835604
72	0xbe22139c	-0.15827793
73	0x3e194a2b	0.14969699
74	0x3e6a7f2b	0.22900073
75	0xbe8528ab	-0.2600759
76	0xbeaf2801	-0.34210208
77	0xbe674af3	-0.22587185
78	0xbe97b188	-0.29627633
79	0x3d670778	0.056403607
80	0xbd369be5	-0.044582266
81	0xbdcd393c	-0.10020682
82	0xbe4f8382	-0.2026501
83	0xbe992214	-0.29908812
84	0xbe246de9	-0.16057552
85	0x3eb39e1d	0.35081568
86	0xbd226bfa	-0.039653756
87	0x3ce7a1f3	0.028275466
88	0xbc61cdac	-0.013781946
89	0xbe0f0570	-0.13966918
90	0x3e653e93	0.22387151
91	0xbd77c848	-0.060493737
92	0xbab36b4f	-0.0013688597
93	0x3e2840e2	0.16431001
94	0xbd1f6925	-0.038918633
95	0x3dcab051	0.09896911
96	0xbeca2a2c	-0.394853
97	0x3e83155a	0.25602227
98	0xbd31afff	-0.043380734
99	0x3e841bfb	0.25802597
100	0xbe88fc9b	-0.26755223
101	0x3d3d61ed	0.046235967
102	0x3db53d13	0.088495396
103	0xbe6bc629	-0.23024811
104	0x3e6d82ed	0.23194475
105	0xbe4999e8	-0.19687617
106	0xbd023458	-0.0317882
107	0x3e6794fa	0.22615424
108	0xbe0776c0	-0.13228893
109	0x3e60de77	0.21959864
110	0x3e88847d	0.2666358
111	0x3d9f8eb3	0.077908896
112	0x3dc932d8	0.09824151
113	0xbe56b838	-0.20968711
114	0xbe5ed35b	-0.21760313
115	0xbd508744	-0.05091025
116	0x3e8989dc	0.2686299
117	0x3e8911cd	0.26771393
118	0x3e8755b6	0.2643258
119	0xbdee3ad4	-0.11632314
120	0xbe782f44	-0.2423678
121	0x3e0a8ad9	0.13529529
122	0x3e3c68eb	0.18399398
123	0x3e6a0303	0.22852711
124	0x3e945799	0.28973082
125	0xbe15d894	-0.14633399
126	0x3e8fda79	0.2809637
127	0x3e916a95	0.28401628
128	0xbdee8a84	-0.116475135
129	0xbe1a3946	-0.1506091
130	0xbe573ea7	-0.21019994
131	0xbde50a54	-0.111836106
132	0x3e871413	0.26382503
133	0x3db2b4a7	0.08725863
134	0xbd8603a8	-0.06543666
135	0xbd941b40	-0.0723176
136	0x3e93cccd	0.28867188
137	0x3d8cc3d3	0.06873288
138	0xbe180035	-0.14843829
139	0x3e376d29	0.17912735
140	0xbe487f07	-0.19579707
141	0x3e5d4d94	0.21611625
142	0xbedb5604	-0.42839062
143	0x3d8a085b	0.06739875
144	0x3e57ae97	0.21062694
145	0x3e8b3966	0.2719223
146	0x3b920355	0.0044559636
147	0x3e39302a	0.1808478
148	0x3c8da6b0	0.017291397
149	0x3e98ab9c	0.29818428
150	0xbe25d575	-0.16194709
151	0xbee5d9c9	-0.4489272
152	0xbd891aa8	-0.066945374
153	0x3ca8a24d	0.020585204
154	0x3cbc2b80	0.022969961
155	0xbe8c2027	-0.2736828
156	0xbe36eb09	-0.17863096
157	0xbc4c1d71	-0.012458191
158	0x3dba284e	0.09089719
159	0x3e7d6fa4	0.24749619
160	0xbd4d4705	-0.050116558
161	0x3de57f8b	0.112059675
162	0xbe270979	-0.16312207
163	0xbea383f1	-0.319366
164	0x3c2d824b	0.010590146
165	0xbd8f86c2	-0.07008125
166	0x3e86919a	0.2628296
167	0xbe893e58	-0.26805377
168	0xbe8901ea	-0.26759273
169	0xbe3cbc5a	-0.18431225
170	0x3d097d53	0.033566784
171	0x3e6069a9	0.21915306
172	0x3e7abca3	0.24486022
173	0xbd2fb0a3	-0.042893063
174	0x3e1aa897	0.15103374
175	0x3e4c3304	0.19941336
176	0x3ce12d0c	0.0274873
177	0xbdcc98c4	-0.09990075
178	0x3da12be0	0.078696966
179	0xbe1aec55	-0.15129216
180	0x3e833dd5	0.25633112
181	0x3e415da4	0.18883377
182	0x3d060e1e	0.032728307
183	0xbd8ba3b6	-0.06818335
184	0xbc2fff5a	-0.010742033
185	0x3d54d481	0.051960472
186	0xbe86311e	-0.26209348
187	0xbe955878	-0.2916906
188	0xbd03234b	-0.03201608
189	0xbe245360	-0.1604743
190	0xbe7427e5	-0.23843344
191	0x3ca438c2	0.020046595
192	0x3e8b09b7	0.2715585
193	0xbe52debb	-0.20592777
194	0xbcd39d56	-0.02583186
195	0x3e294b8f	0.1653273
196	0x3e1f9366	0.15583572
197	0x3decf7dd	0.11570714
198	0xbc8561b5	-0.016281942
199	0xbdf9580b	-0.12174996
200	0x3eb4f761	0.35344985
201	0xbd789492	-0.060688563
202	0x3bbf5605	0.0058391117
203	0xbe59e3ad	-0.21278258
204	0x3d075011	0.03303534
205	0xbe77b1ff	-0.24188994
206	0xbd8caa22	-0.06868388
207	0xbdb6f664	-0.08933714
208	0x3e81e45d	0.2536954
209	0x3e29d2be	0.16584298
210	0x3dbfcb45	0.093649425
211	0xbd9dc5df	-0.077037565
212	0xbe78361e	-0.24239394
213	0xbdf0f0aa	-0.11764653
214	0x3e016465	0.12635954
215	0x3ede7242	0.43446547
216	0xbe2c8522	-0.16847661
217	0xbdd570cd	-0.10421906
218	0x3e28adfd	0.16472621
219	0x3e9fa564	0.3118087
220	0xbe85544d	-0.2604088
221	0xbe1cfb4c	-0.15330237
222	0xbe7790ae	-0.24176285
223	0x3e06d1e8	0.1316601
224	0xbdb41658	-0.08793324
225	0xbbaaa4cf	-0.005207635
226	0x3e797e2c	0.24364537
227	0xbc7010f2	-0.014652478
228	0xbe398cac	-0.18120068
229	0xbe6dbd9f	-0.23216866
230	0x3ea2d35f	0.31801888
231	0xbd0c10a7	-0.03419557
232	0x3e663c29	0.22483887
233	0xbdd15e34	-0.10223046
234	0xbd6568f3	-0.05600829
235	0x3dddbdbb	0.10827204
236	0x3e6702c3	0.22559647
237	0x3d6fc90d	0.058541346
238	0xbe451469	-0.19246067
239	0xbd41863c	-0.047247157
240	0xbdd96723	-0.10615375
241	0x3e017404	0.12641913
242	0xbdb18aed	-0.08669076
243	0xbd4a039c	-0.04931985
244	0xbd5897b9	-0.05287907
245	0x3ea6f604	0.3260957
246	0x3cb6a179	0.022293793
247	0x3e6aa6dc	0.22915214
248	0xbe323cfe	-0.17406079
249	0x3cb4154e	0.021982815
250	0x3d35885e	0.044319503
251	0xbe5d395c	-0.21603912
252	0x3d5b07e1	0.05347431
253	0xbe91d427	-0.28482172
254	0x3cb46563	0.022021001
255	0xbe68003f	-0.22656344

encoder.enc2.bias f4 [39]
0	0x3b5e189e	0.0033889185
1	0xbd2bcbda	-0.041942455
2	0x3cf6f97f	0.030148266
3	0xbb8697ab	-0.0041074357
4	0xbcc3e4be	-0.023912784
5	0x3bd730ee	0.006567112
6	0xbb4c55f8	-0.003117917
7	0x3db2ada2	0.08724524
8	0xbbc9ed51	-0.0061623235
9	0xbc1b68e7	-0.00948546
10	0x3aad0bfe	0.0013202426
11	0x3b868f66	0.00410645
12	0xbc2a531e	-0.010395793
13	0x3d34e5a6	0.044164322
14	0x3d917968	0.071032345
15	0x3c4072a6	0.011746084
16	0xbc997430	-0.01873216
17	0x3b65866f	0.0035022756
18	0x3c3ebee6	0.011642193
19	0xbb9a1275	-0.0047019073
20	0x3c40ab81	0.01175964
21	0x3bcd6aed	0.00626885
22	0x3a8ebf75	0.0010890799
23	0x3afb1666	0.0019156456
24	0xbbf9fe16	-0.0076291664
25	0xbc93bbd1	-0.018033894
26	0xbcc1b72b	-0.023646912
27	0x3ccc01b0	0.024903148
28	0x3bd307d7	0.0064401436
29	0x3d8fcf88	0.07022005
30	0xbc305983	-0.010763529
31	0xbc0f788e	-0.00875677
32	0x3c1d14d7	0.009587488
33	0xbcc886dd	-0.02447837
34	0x3c23146c	0.009953599
35	0xbc40dd78	-0.011771552
36	0x3c0d1e0e	0.008613123
37	0xba49c175	-0.0007696369
38	0x3ce88053	0.028381502

encoder.enc3.weight f4 [19, 39]
0	0x3c46f376	0.012143007
1	0x3e8eed5d	0.2791547
2	0xbe8bc131	-0.2729583
3	0x3b1b7032	0.0023717997
4	0xbd7568eb	-0.05991451
5	0xbe84e0e6	-0.25952834
6	0x3e361a88	0.17783558
7	0x3d0f4f73	0.034987878
8	0x3e73a974	0.2379511
9	0x3eb43178	0.35193992
10	0xbd37c7dc	-0.044868335
11	0x3ea28ae5	0.31746593
12	0xbe02c41a	-0.1277012
13	0xbec1ee8e	-0.37877315
14	0xbe983ee0	-0.2973547
15	0xbb7fe124	-0.0039044106
16	0x3da0637e	0.07831477
17	0xbd8c2a36	-0.068439886
18	0x3eb7e951	0.35920194
19	0x3d0f0ea1	0.03492606
20	0xbe10134d	-0.14069863
21	0x3de22f78	0.1104421
22	0x3cbd2b0a	0.023091812
23	0xbe4c0aa3	-0.19925933
24	0xbe915e83	-0.2839242
25	0x3ea5b7e6	0.32366866
26	0xbe9637a2	-0.2933932
27	0x3e7082dd	0.2348742
28	0x3ec03591	0.37540868
29	0xbe48796e	-0.19577572
30	0x3eb0b713	0.34514675
31	0xbec8b440	-0.3920002
32	0xbe4ff0a9	-0.20306648
33	0x3e9a134e	0.30092853
34	0xbea29835	-0.3175675
35	0x3e7c9892	0.24667576
36	0xbd85d976	-0.06535618
37	0xbeb4f221	-0.3534098
38	0x3e44824e	0.19190332
39	0xbebe07f3	-0.3711544
40	0xbe6f29f6	-0.2335585
41	0xbd83d0f1	-0.06436337
42	0x3e3f3ad1	0.1867478
43	0x3ece5744	0.40300953
44	0xbe813ff0	-0.25244093
45	0x3d8527a2	0.065017
46	0x3d0d0656	0.03442987
47	0xbea14221	-0.31495765
48	0xbe45db0b	-0.1932184
49	0x3e763a3f	0.24045657
50	0x3ddfcfde	0.109283194
51	0xbe5bf0aa	-0.21478525
52	0xbe2bdf8b	-0.16784494
53	0xbe23f0c5	-0.16009815
54	0xbeb8daa9	-0.36104324
55	0x3e8d467f	0.27592847
56	0xbdace0d6	-0.084413216
57	0x3e0a0749	0.13479342
58	0x3da9fba5	0.082999505
59	0x3debf33a	0.11521001
60	0x3db1fcbb	0.08690783
61	0x3eabd436	0.33560342
62	0x3ebe46f5	0.3716351
63	0x3ca128a8	0.019672707
64	0xbec2c666	-0.3804199
65	0x3e195815	0.14975007
66	0xbdc77d57	-0.097407036
67	0x3ba823f6	0.00513124
68	0xbd24a011	-0.040191714
69	0x3d89a814	0.067215115
70	0xbeb35565	-0.35026088
71	0xbc28518c	-0.010273349
72	0x3eadd9f8	0.3395536
73	0xbdc2cd46	-0.09511809
74	0xbe733076	-0.23748955
75	0xbe237c8b	-0.15965478
76	0xbebec9cf	-0.37263343
77	0x3d530a44	0.051523462
78	0xbdc29328	-0.09500724
79	0x3e82253d	0.25419036
80	0xbe4b076d	-0.19827051
81	0x3dc1724d	0.09445629
82	0x3e8a68d0	0.2703309
83	0x3e899022	0.26867777
84	0x3e5f16de	0.21786067
85	0xbdf713e0	-0.12064338
86	0x3b4b6292	0.0031034094
87	0xbc943fd6	-0.018096846
88	0x3d19e618	0.03757295
89	0x3e815d61	0.25266555
90	0xbe9c70b2	-0.3055473
91	0x3d9b104b	0.07571467
92	0x3d355877	0.04427382
93	0x3db991bd	0.090610005
94	0x3e6d182a	0.23153749
95	0xbe66dc6e	-0.22545025
96	0x3e8fc88b	0.2808269
97	0xbe84a83b	-0.259096
98	0xbde54132	-0.11194076
99	0xbeb868b7	-0.3601739
100	0x3eb21a29	0.34785584
101	0x3c1d359e	0.009595303
102	0xbe8a2beb	-0.26986632
103	0x3e826aa1	0.25471976
104	0x3eacaf74	0.3372761
105	0x3e8f9858	0.28045917
106	0x3e816c9a	0.2527817
107	0xbe556202	-0.20838168
108	0xbe5e32c9	-0.2169906
109	0xbe019217	-0.12653385
110	0xbe7d90cf	-0.24762271
111	0x3e96b008	0.29431176
112	0x3d2722fc	0.040804848
113	0x3ca1f40f	0.019769697
114	0x3e1a08aa	0.15042368
115	0xbe6623d6	-0.22474608
116	0xbe6a8efa	-0.22906104
117	0x3ce29218	0.027657554
118	0xbe3cb29f	-0.18427514
119	0x3dcc2536	0.09968035
120	0x3e208052	0.1567395
121	0xbebe0684	-0.37114346
122	0xbc580508	-0.013184793
123	0xbe219cd3	-0.1578248
124	0xbe5b78f7	-0.21432863
125	0x3e5bf4cb	0.214801
126	0xbea50f8c	-0.32238424
127	0xbe12edab	-0.14348476
128	0x3e4f4513	0.20241193
129	0xbe243424	-0.16035515
130	0x3e48c602	0.19606784
131	0xbdad8f8e	-0.084746465
132	0x3d306f3a	0.043074824
133	0xbe31fd35	-0.17381747
134	0xbeab8641	-0.33500865
135	0x3df92e44	0.121670276
136	0x3e56ecd3	0.20988779
137	0x3dbc383a	0.09190412
138	0x3d8be2d8	0.068303764
139	0x3e5e689a	0.2171959
140	0xbe5a5068	-0.21319735
141	0x3e11563a	0.14193049
142	0x3e20b3a8	0.15693533
143	0x3e7fd454	0.2498334
144	0x3e64ef60	0.2235694
145	0x3d9b0f2b	0.075712524
146	0xbe4f991e	-0.20273253
147	0x3ec1e21a	0.37867814
148	0xbe94180d	-0.289246
149	0xbea6f096	-0.32605428
150	0x3dad5038	0.08462566
151	0xbc63f8db	-0.013914312
152	0xbe1c881d	-0.15286298
153	0xbd2df6b6	-0.04247161
154	0xbe7a4450	-0.24440122
155	0x3e8475a0	0.2587099
156	0xbe132356	-0.14368948
157	0x3e36561c	0.17806286
158	0x3e8e97a0	0.27850056
159	0xbe7da7c4	-0.24771029
160	0xbe232a17	-0.15934025
161	0xbe5415eb	-0.20711486
162	0xbe1f1bb6	-0.15537915
163	0x3d9e06fd	0.07716177
164	0xbec919f3	-0.3927761
165	0x3c8a6e8a	0.016898412
166	0xbeaf8aed	-0.3428568
167	0xbdd8117f	-0.10550212
168	0xbe683a65	-0.22678526
169	0xbd46c85c	-0.04853092
170	0x3ecc850e	0.39945263
171	0xbed45e2c	-0.41478097
172	0xbe388508	-0.18019497
173	0xbe87a05d	-0.26489535
174	0xbb1326e3	-0.0022453598
175	0xbd1c153e	-0.038106196
176	0x3cfb5668	0.03068085
177	0x3d2aa8e1	0.04166496
178	0x3be642e2	0.007027016
179	0x3e97e4c0	0.2966671
180	0xbda49c28	-0.08037597
181	0x3e814303	0.25246438
182	0xbeaa865f	-0.33305642
183	0xbe8149a8	-0.25251508
184	0xbe8db5ca	-0.27677757
185	0xbe8e7b2d	-0.2782835
186	0x3d5660bc	0.052338347
187	0x3ea1d660	0.31608868
188	0x3ce7ccf7	0.028295977
189	0xbe443d2b	-0.19163959
190	0xbdd7e531	-0.10541762
191	0xbe9736cd	-0.29533997
192	0xbe72a73f	-0.23696612
193	0x3ea4e2c4	0.32204258
194	0x3e5e9e6c	0.2174012
195	0x3c73af27	0.014873303
196	0xbe32f923	-0.1747785
197	0xbe8575db	-0.2606648
198	0xbeae7916	-0.34076756
199	0xbed50147	-0.41602537
200	0xbdebe363	-0.1151798
201	0xbeab8c24	-0.33505356
202	0x3e8e5e8f	0.27806517
203	0xbe669331	-0.22517087
204	0x3e7ebc76	0.2487658
205	0xbb505b7c	-0.003179281
206	0x3ea5934a	0.32338935
207	0x3d4125da	0.04715524
208	0x3decd70f	0.11564457
209	0xbebd23d5	-0.369414
210	0x3e0b4b55	0.13602956
211	0x3eb63511	0.3558736
212	0xbdb81adb	-0.08989497
213	0xba4acb2b	-0.0007735963
214	0xbd0df8d5	-0.034661133
215	0xbebd36ee	-0.3695597
216	0x3e83e836	0.257631
217	0x3ebf0b02	0.37313086
218	0x3e842715	0.25811067
219	0xbe32f2bc	-0.17475408
220	0x3d1b8686	0.03797009
221	0x3b61d637	0.0034459957
222	0xbeace043	-0.33764848
223	0xbe8734a9	-0.26407364
224	0xbde3193e	-0.11088799
225	0xbe4f2bc7	-0.20231543
226	0xbd26ec13	-0.04075248
227	0xbdcb801b	-0.099365436
228	0x3e01249e	0.12611625
229	0xbd7c9694	-0.06166704
230	0xbec01559	-0.37516287
231	0xbe58f0a3	-0.21185546
232	0xbe85e473	-0.26150855
233	0x3e6863cc	0.2269432
234	0x3e0dd40f	0.13850425
235	0xbe5cb55f	-0.21553563
236	0xbe715975	-0.23569281
237	0x3dea5d45	0.11443571
238	0x3ded806f	0.115967624
239	0xbd8184b8	-0.06324142
240	0xbe805a93	-0.25069103
241	0x3e1a029d	0.1504006
242	0x3d7223e5	0.059116263
243	0xbe91762a	-0.28410465
244	0xbe8c973d	-0.27459136
245	0x3ecba38d	0.39773217
246	0x3d59ef29	0.053206597
247	0x3d90c84f	0.07069456
248	0xbe4cdb29	-0.20005478
249	0xbebeff83	-0.37304315
250	0xbdc966b1	-0.0983404
251	0xbe49789f	-0.1967492
252	0x3b92e001	0.0044822698
253	0xbeb7ae45	-0.35875145
254	0x3e1ee551	0.15517165
255	0x3e904dd4	0.28184378

encoder.enc3.bias f4 [19]
0	0xb9adf00d	-0.00033175983
1	0xbc2ff2b4	-0.010739017
2	0xbb1131b0	-0.002215486
3	0x3caff5d1	0.02147952
4	0x3bf68e64	0.0075242985
5	0xbcb8b38c	-0.022546552
6	0x3cbe245c	0.023210697
7	0x3b9e2498	0.0048261397
8	0x3d860e15	0.06545655
9	0xbc82d75a	-0.015971828
10	0x38e3e7ec	0.00010867402
11	0xbc819183	-0.015816456
12	0xbb7f4f9f	-0.003895737
13	0x3bded3fc	0.006800173
14	0xb9b11d6d	-0.00033781995
15	0xbd8491bc	-0.06473109
16	0xbcb2a87c	-0.021808855
17	0xbd1f34d0	-0.038868725
18	0xbbee626b	-0.007274916

encoder.enc4.weight f4 [7, 19]
0	0x3ec0a558	0.37626147
1	0x3d71af29	0.059004936
2	0xbd14f0f3	-0.0363626
3	0xbef58777	-0.47954914
4	0x3ead3fe8	0.3383782
5	0xbc41c351	-0.011826352
6	0x3d4962f0	0.04916662
7	0xbd2687f4	-0.040657
8	0x3f0fc3fc	0.56158423
9	0xbe5c7b8e	-0.21531507
10	0x3e894a51	0.2681451
11	0xbe268054	-0.16259891
12	0xbe02f93f	-0.12790392
13	0xbf08f552	-0.5349933
14	0x3ea9757c	0.33097446
15	0x3d446041	0.047943357
16	0xbeac2b69	-0.3362687
17	0xbf09915c	-0.53737426
18	0x3edadb73	0.4274555
19	0x3ee697fc	0.4503783
20	0xbe45188b	-0.19247644
21	0x3e85feaf	0.2617087
22	0x3d93657b	0.0719709
23	0x3f1cf0c7	0.613049
24	0xbefc7bae	-0.4931311
25	0xbd599007	-0.05311587
26	0xbd3329e0	-0.043741107
27	0x3dca784c	0.09886226
28	0xbd2a67bc	-0.041602835
29	0x3c910900	0.017704487
30	0x3e763d7d	0.24046893
31	0xbf027e49	-0.50973946
32	0xbe1c6ac8	-0.15275109
33	0xbd138345	-0.03601386
34	0xbeb2dde6	-0.3493492
35	0x3e881a2b	0.26582465
36	0xbdbfc0db	-0.09362956
37	0x3e2f49bd	0.17117973
38	0x3dbaea1b	0.09126683
39	0x3d0c027e	0.034182064
40	0xbe8cfc8e	-0.27536434
41	0xbec4bd76	-0.38425797
42	0x3e15b1f7	0.1461867
43	0xbebfc6da	-0.374564
44	0x3eebb733	0.46038207
45	0x3eee52de	0.46547598
46	0x3e860f2f	0.2618346
47	0x3eb67a49	0.3564017
48	0xbe9148fa	-0.2837599
49	0x3e06562d	0.13118811
50	0x3e4e3952	0.20139053
51	0xbf032ffd	-0.512451
52	0x3e7a6eec	0.24456376
53	0xbea779fe	-0.3271026
54	0xbd8bd962	-0.06828572
55	0x3ebc5d78	0.3679006
56	0xbe5684e5	-0.20949133
57	0xbca4962c	-0.020091139
58	0x3c693027	0.014232672
59	0x3eb9c718	0.3628471
60	0xbd5f162a	-0.054464497
61	0x3e8e90f2	0.2784496
62	0x3eaee06c	0.34155595
63	0xbe243e04	-0.16039282
64	0x3df115f7	0.117717676
65	0x3e0ccb1b	0.13749354
66	0xbef9ffe8	-0.48828053
67	0xbe69eb96	-0.22843775
68	0x3e5ecbf4	0.2175749
69	0x3ec799a7	0.38984415
70	0xbb697064	-0.0035619969
71	0xbeadcefd	-0.33946982
72	0xbd8af70d	-0.067854024
73	0x3edd1e57	0.4318721
74	0xbea87d5d	-0.32908145
75	0x3e594b21	0.21220066
76	0x3ea4ab2a	0.32161838
77	0x3e00158b	0.12508218
78	0xbee78622	-0.45219523
79	0xbd753ad5	-0.05987056
80	0xbec16f6f	-0.3778033
81	0x3e2aee10	0.16692376
82	0xbf1b9877	-0.6077952
83	0x3f227c96	0.63471353
84	0xbeef3ecd	-0.467276
85	0x3dc39225	0.09549359
86	0x3ccf0a63	0.025273507
87	0xbf022ca3	-0.5084936
88	0xbe9d13b5	-0.30679098
89	0x3ed5a271	0.41725495
90	0x3daee545	0.085398234
91	0x3f0b72ba	0.54471934
92	0xbc970491	-0.018434795
93	0x3ec2a026	0.3801281
94	0x3e35362b	0.17696445
95	0xbc9e1511	-0.019297155
96	0xbf07e06b	-0.5307681
97	0x3e57d2d6	0.21076521
98	0x3e52ff3e	0.2060518
99	0x3e138451	0.14405943
100	0xbed007d5	-0.40630975
101	0x3ccabba6	0.02474768
102	0xbc4d41b9	-0.0125278765
103	0x3ef263fb	0.47341904
104	0x3eebc494	0.46048415
105	0x3e052375	0.13001807
106	0xbe4e386e	-0.20138714
107	0x3ead291e	0.33820432
108	0x3f160136	0.585956
109	0x3e9b9a8e	0.30391353
110	0x3e1602a3	0.14649443
111	0x3f2e7b44	0.6815684
112	0xbe0b33bf	-0.13593958
113	0x3e725dc5	0.23668583
114	0x3de55863	0.11198499
115	0x3ea056e0	0.3131628
116	0xbd1e21c8	-0.038606435
117	0x3e191ce7	0.14952432
118	0xbb973e06	-0.004615548
119	0x3edbedcf	0.4295487
120	0xbd4065ec	-0.0469722
121	0xbe1345de	-0.14382121
122	0x3cfba85e	0.030719932
123	0x3df64133	0.120241545
124	0x3e9ae169	0.302501
125	0x3eb33002	0.34997565
126	0x3eb67be6	0.35641402
127	0xbed00429	-0.40628174
128	0x3ebe4fe9	0.37170342
129	0xbdd29535	-0.10282365
130	0x3e0efcc1	0.13963605
131	0xbf1d6981	-0.6148911
132	0x3e8cc178	0.27491355

encoder.enc4.bias f4 [7]
0	0xba4c3112	-0.00077892945
1	0xbcc854e0	-0.024454534
2	0xbbcbf809	-0.0062246365
3	0xbd429515	-0.047505457
4	0x3d10f08f	0.035385665
5	0x3d238043	0.03991724
6	0xb9fa9a10	-0.000477985

decoder.dec1.weight f4 [19, 7]
0	0x3f5c3255	0.860143
1	0xbf3adfb7	-0.7299761
2	0x3f51280f	0.8170175
3	0xbf6a39ba	-0.91494334
4	0xbe8a0865	-0.2695953
5	0x3f354d5d	0.7082117
6	0xbe961138	-0.29310012
7	0x3f63ba01	0.88955694
8	0xbf4e9fb8	-0.8071246
9	0x3e5c1d43	0.21495537
10	0xbe17f22a	-0.14838472
11	0x3f3d7ebc	0.74021506
12	0x3dc339fe	0.095325455
13	0xbf832619	-1.0246001
14	0x3e8250da	0.2545231
15	0x3f57882d	0.8419216
16	0x3f56df41	0.8393441
17	0x3e7b5159	0.2454275
18	0x3e970c80	0.29501724
19	0x3d4dbdc2	0.050229795
20	0xbf683f24	-0.90721345
21	0xbf3059ae	-0.6888684
22	0x3ee0335e	0.4378919
23	0x3f384587	0.7198109
24	0xbf0338e4	-0.51258683
25	0x3ee800a9	0.45313004
26	0xbf0a5737	-0.5403933
27	0xbd14886f	-0.036262926
28	0x3f0619d6	0.5238317
29	0x3e69dad7	0.22837387
30	0x3d28018e	0.041017108
31	0xbdc10d8c	-0.09426412
32	0x3eadaeea	0.3392251
33	0x3f44cec0	0.76877975
34	0x3f50aade	0.8151072
35	0x3d519aff	0.051173206
36	0xbea18d69	-0.315532
37	0x3f186c5f	0.5954036
38	0xbf3afb83	-0.73040026
39	0x3f47a112	0.7798015
40	0xbe85ca1e	-0.26130766
41	0x3f6fd2f1	0.93681246
42	0xbe5603d3	-0.20899896
43	0x3f16e132	0.5893737
44	0xbf166c92	-0.58759415
45	0xbe8caf6c	-0.27477586
46	0xbf63cb3e	-0.88982
47	0x3ef1f129	0.47254303
48	0xbe99d1a9	-0.3004277
49	0xbd88f58f	-0.066874616
50	0x3f17e2e8	0.59330606
51	0x3f0f9911	0.56092936
52	0xbe2300b1	-0.15918233
53	0x3ee82e2f	0.45347735
54	0xbf1c1986	-0.60976446
55	0xbd11ea42	-0.035623796
56	0x3f017f0e	0.50584495
57	0x3f310a1f	0.6915607
58	0x3edfdcdc	0.4372319
59	0x3efdafbc	0.49548137
60	0x3f2b2043	0.668461
61	0xbedafca6	-0.4277088
62	0xbef6b8bd	-0.4818782
63	0xbe980609	-0.29692104
64	0x3f0a8336	0.5410646
65	0xbf75caed	-0.96012765
66	0x3f4cd33d	0.80009824
67	0xbf4687b3	-0.7755081
68	0x3f009944	0.50233865
69	0xbeaef72a	-0.34172946
70	0xbf543eda	-0.82908404
71	0x3e3b8201	0.18311311
72	0x3db384ef	0.087655894
73	0xbe4c5615	-0.19954713
74	0xbe3543f3	-0.17701702
75	0x3f61ac9a	0.88153994
76	0xbedd2a1c	-0.4319619
77	0xbf40d2d1	-0.7532168
78	0xbef092f3	-0.46987113
79	0x3be753a0	0.0070595294
80	0xbeb03477	-0.34415027
81	0xbf29b9c7	-0.662991
82	0x3f478921	0.7794362
83	0xbe1b5846	-0.15170392
84	0x3dcfff61	0.101561315
85	0x3f2d9ea5	0.678202
86	0x3f1c097e	0.60951984
87	0x3f32d3e5	0.69854575
88	0xbe740b9d	-0.23832555
89	0x3e86ef33	0.2635437
90	0x3ef706a8	0.48247266
91	0xbee90d96	-0.45518178
92	0xbf08bfe7	-0.5341782
93	0x3ed200c9	0.41016224
94	0xbf4ca42b	-0.79938
95	0xbf056715	-0.52110416
96	0xbf5e0522	-0.8672658
97	0xbec50937	-0.38483593
98	0x3e86d1fa	0.26332074
99	0xbecad6ac	-0.39616907
100	0xbdc1fff2	-0.09472646
101	0x3f4d017a	0.8008038
102	0xbf530d7e	-0.8244246
103	0xbf423e2b	-0.7587611
104	0x3f1f485d	0.6221979
105	0xbe880f1b	-0.26574025
106	0x3f1138d8	0.5672736
107	0x3e9c4390	0.30520296
108	0x3e0b9cf9	0.13634099
109	0xbec974c3	-0.39346895
110	0x3e1a7f91	0.15087725
111	0x3f0bfa7b	0.5467908
112	0xbf5c0e9b	-0.85959786
113	0xbf1a4aa5	-0.6027015
114	0x3f076d8a	0.5290152
115	0xbe051746	-0.1299716
116	0x3dd341d8	0.10315293
117	0x3e653e9b	0.22387163
118	0xbeddad5c	-0.43296325
119	0x3f58083f	0.8438758
120	0xbc87726e	-0.016534057
121	0x3f4678f8	0.77528334
122	0x3e25242a	0.16127077
123	0xbf0d9e62	-0.553198
124	0xbe3e34a9	-0.18574776
125	0x3f4977a3	0.78698176
126	0x3f85f871	1.0466443
127	0xbf0874da	-0.533033
128	0xbe8066ad	-0.25078335
129	0xbeb6382c	-0.3558973
130	0x3f2d529c	0.67704177
131	0xbe281788	-0.16415226
132	0xbe4ed0d3	-0.20196848

decoder.dec1.bias f4 [19]
0	0xbb85d581	-0.0040842895
1	0x3d56e339	0.05246279
2	0x3c40cfa3	0.011768254
3	0xbc294890	-0.010332242
4	0x3d249bc1	0.0401876
5	0x3b90372e	0.004401109
6	0xbc9f27dd	-0.019428188
7	0x3b87ddf4	0.004146332
8	0xbc9205be	-0.017825004
9	0x3bee3dd2	0.007270553
10	0x3d154c2b	0.036449593
11	0x3b83c20b	0.0040209345
12	0xbc9d5c66	-0.019209098
13	0xbcc17c74	-0.023618914
14	0x3d14dc5c	0.036342964
15	0xbb01233f	-0.0019704846
16	0x3b92e083	0.0044823303
17	0xbb8a5c56	-0.004222433
18	0x3c6b5054	0.014362413

decoder.dec2.weight f4 [39, 19]
0	0x3f07fe9d	0.53122884
1	0x3efa56b5	0.48894277
2	0x3e32215b	0.17395537
3	0x3df4e9f6	0.11958687
4	0x3df79e8f	0.120907895
5	0xbe77045e	-0.2412276
6	0x3d971eec	0.07378945
7	0x3ed2d007	0.41174337
8	0xbe3eba60	-0.18625784
9	0xbed48a60	-0.41511822
10	0x3ead2e7f	0.33824536
11	0x3eabb1e2	0.3353415
12	0xbefdcb2a	-0.49569064
13	0x3e27d266	0.16388854
14	0xbdb86d0a	-0.090051726
15	0xbe0aa13d	-0.1353807
16	0xbec43133	-0.38318786
17	0xbe54b513	-0.207722
18	0x3f12b704	0.5731051
19	0xbeac8fba	-0.33703405
20	0xbf173138	-0.59059477
21	0x3dd39121	0.103304155
22	0x3eadf6dd	0.33977404
23	0x3e57fc59	0.21092357
24	0x3ed812aa	0.4220174
25	0x3d2545ed	0.04034989
26	0x3e360ea4	0.17779022
27	0x3dfcfa5a	0.12352438
28	0x3823e7ca	3.90781e-05
29	0xbe81e710	-0.253716
30	0x3de14ff7	0.1100158
31	0x3e3e1e48	0.18566239
32	0x3e37b132	0.17938688
33	0x3e19ce2c	0.15020055
34	0x3eb7b1ff	0.35877988
35	0xbde9a21d	-0.11407874
36	0x3e60f5a6	0.21968707
37	0x3ead9bb5	0.33907858
38	0x3e9c490b	0.30524477
39	0xbf094458	-0.5361991
40	0xbe857579	-0.26066187
41	0x3eb2f2d3	0.34950885
42	0xbd315719	-0.043295953
43	0x3f0135cd	0.5047272
44	0xbe4b9fdf	-0.19885205
45	0xbef2736a	-0.4735368
46	0x3e3c596a	0.18393484
47	0xbef781f4	-0.48341334
48	0xbf1d5949	-0.61464363
49	0xbe103ee9	-0.14086498
50	0x3ebdb191	0.37049535
51	0x3effc197	0.49952385
52	0x3dea959b	0.11454316
53	0x3ecda6a0	0.40166187
54	0xbe9752bb	-0.29555306
55	0x3ee044c6	0.4380247
56	0xbd2bd0e5	-0.041947264
57	0xbe1cc9e3	-0.15311389
58	0xbe5532be	-0.20820138
59	0x3ef28741	0.47368816
60	0x3e8a53d1	0.27017072
61	0xbe548d3b	-0.20757
62	0x3eba1992	0.36347634
63	0x3e9dcc0d	0.3081974
64	0x3ead54d0	0.3385377
65	0x3eb85314	0.36000884
66	0x3e24dc09	0.16099562
67	0x3dd3ca3a	0.10341306
68	0x3df4e708	0.11958128
69	0xbf021475	-0.50812465
70	0x3ec66130	0.38746023
71	0x3ddbaeaa	0.10726674
72	0x3e63fe99	0.2226509
73	0x3dde1849	0.10844476
74	0xbeaf02a4	-0.34181702
75	0xbeb352b4	-0.35024035
76	0xbe27bda8	-0.16380942
77	0x3eeed837	0.46649334
78	0x3e7a9860	0.24472189
79	0xbec03ce3	-0.37546453
80	0xbe32a3fd	-0.17445369
81	0xbe3b9871	-0.1831987
82	0xbece27fd	-0.40264884
83	0xbe9c232e	-0.3049559
84	0xbeb13467	-0.34610292
85	0xbedcb3e6	-0.43106002
86	0x3dac10a0	0.084016085
87	0x3e39ccc9	0.18144526
88	0xbe869a0b	-0.262894
89	0x3e06636b	0.13123862
90	0xbcb8056a	-0.02246352
91	0xbe75434b	-0.23951451
92	0xbe23219e	-0.15930793
93	0xbeb4e19a	-0.3532837
94	0x3ee194fc	0.4405898
95	0xbf07761d	-0.529146
96	0xbd334ff5	-0.043777425
97	0xbf022558	-0.5083823
98	0xbec9ed84	-0.39439023
99	0x3eab7168	0.3348496
100	0x3ee80c03	0.45321664
101	0x3f0f4019	0.5595718
102	0x3edd213c	0.43189418
103	0xbf57ab81	-0.8424607
104	0x3e7f8a9b	0.24955218
105	0xbec4b971	-0.3842273
106	0x3e29eeb5	0.16594966
107	0xbea7cdcf	-0.32774207
108	0xbd8250b5	-0.0636305
109	0xbe9fb3f0	-0.3119197
110	0xbd2af6ba	-0.041739203
111	0x3ed355b6	0.4127633
112	0x3f0f0695	0.5586942
113	0xbe9f47cf	-0.31109473
114	0xbec398e1	-0.38202575
115	0x3f1d8394	0.615289
116	0xbceae8b4	-0.028675415
117	0xbdcd19dc	-0.10014698
118	0x3ea8ad5b	0.3294476
119	0x3ef6a3e4	0.48171914
120	0xbe7add0d	-0.24498387
121	0x3de306fe	0.11085318
122	0xbe9c28b1	-0.30499795
123	0xbded3678	-0.11582655
124	0x3ead6c01	0.33871463
125	0xbc78e0a7	-0.01519028
126	0xbeeee9b8	-0.46662688
127	0xbdc3197e	-0.095263466
128	0x3ef6abff	0.48178098
129	0xbe3a85e8	-0.18215144
130	0xbe1932ce	-0.14960787
131	0x3e8d392b	0.27582678
132	0xbe399fbd	-0.18127342
133	0x3d425bba	0.04745076
134	0x3e8a450e	0.2700581
135	0xbe08f2a8	-0.13373816
136	0x3e5f3628	0.21798003
137	0x3ca7e4e6	0.02049489
138	0xbe00cf93	-0.12579183
139	0xbde4411c	-0.11145231
140	0xbecdc588	-0.40189767
141	0x3ed7824b	0.42091593
142	0x3e5083b8	0.20362747
143	0x3e093e77	0.13402735
144	0x3dd2722c	0.10275683
145	0xbef7bc30	-0.48385763
146	0x3e97bb5f	0.2963514
147	0x3ce605c1	0.028078916
148	0xbe176348	-0.14783967
149	0x3f01070d	0.50401384
150	0xbec04042	-0.37549025
151	0x3e40e8ee	0.18838856
152	0xbe8c483a	-0.27398854
153	0xbd3a6912	-0.04551036
154	0xbe953d92	-0.29148537
155	0xbe2259b2	-0.15854529
156	0x3ecb7970	0.39741087
157	0x3f1258d5	0.57166797
158	0xbe75f654	-0.24019748
159	0x3efa88d8	0.48932528
160	0xbdedd0f7	-0.116121225
161	0xbf30da44	-0.69083047
162	0xbec48f35	-0.38390508
163	0xbeee5bca	-0.46554404
164	0xbf0e24e3	-0.55525035
165	0xbdc5d696	-0.0966007
166	0x3ef7ed39	0.48423174
167	0x3ecf9eb7	0.40550777
168	0x3e425198	0.18976438
169	0x3eca76d6	0.3954379
170	0x3d624b61	0.05524767
171	0xbe945450	-0.28970575
172	0xbe9869b2	-0.2976814
173	0x3eef124a	0.4669364
174	0x3e8f46ee	0.27983803
175	0xbe6737ec	-0.22579926
176	0x3eacc34e	0.33742756
177	0x3c140c8b	0.009036194
178	0xbd4504ed	-0.0481004
179	0xbdbdf3ca	-0.09275015
180	0x3e99875f	0.29986092
181	0x3e1b899b	0.15189211
182	0x3daf9fa5	0.08575372
183	0xbe316d93	-0.17326955
184	0x3f204789	0.62609154
185	0xbe98f319	-0.2987297
186	0xbe1e51d0	-0.15460896
187	0xbe1321ae	-0.14368317
188	0xbe49b30c	-0.19697207
189	0xbe8db39f	-0.27676103
190	0x3b455d43	0.0030115403
191	0xbe37126b	-0.1787812
192	0xbe33cb89	-0.17558111
193	0x3d930378	0.07178396
194	0xbefc22d0	-0.4924531
195	0xbce9436d	-0.028474534
196	0xbf072dd2	-0.5280429
197	0xbc461007	-0.012088782
198	0xbd4a9116	-0.04945477
199	0x3f0784c4	0.5293696
200	0x3f05dc83	0.522896
201	0x3e6336a4	0.22188812
202	0xbe5474ba	-0.20747653
203	0x3eb16bf6	0.3465268
204	0xbda506d7	-0.08057945
205	0xbf037462	-0.5134946
206	0xbe7b26dc	-0.24526542
207	0x3e8a37f2	0.26995808
208	0x3eb358cc	0.35028684
209	0xbef2a422	-0.47390848
210	0xbf0d6dcc	-0.5524566
211	0xbe817cf7	-0.25290653
212	0xbd7e1483	-0.06203128
213	0x3ef1a7f9	0.47198465
214	0xbf16d29a	-0.589151
215	0xbe1ba2e8	-0.15198863
216	0xbeb6fa2a	-0.35737735
217	0xbe0a989d	-0.1353478
218	0xbdabc26a	-0.08386691
219	0x3ca266a6	0.019824337
220	0xbed44e6e	-0.41466087
221	0x3e795ed0	0.24352574
222	0xbd1539cd	-0.036432076
223	0x3f42cc94	0.7609341
224	0xbe25e72f	-0.16201471
225	0xbd9bb70a	-0.07603271
226	0xbe8a686a	-0.27032787
227	0xbe1ba864	-0.15200955
228	0x3ef2f96f	0.47455928
229	0x3f08b18a	0.53395903
230	0xbe2354ad	-0.1595027
231	0xbed278ac	-0.4110769
232	0xbea70680	-0.32622147
233	0xbf250e84	-0.64475274
234	0x3dcd822c	0.10034594
235	0xbda47192	-0.08029474
236	0x3e9188bb	0.2842463
237	0x3e886930	0.26642752
238	0xbe25f3bc	-0.16206259
239	0xbec9309d	-0.39294901
240	0xbed913c5	-0.42397895
241	0x3e248ad4	0.16068584
242	0xbf232dd1	-0.63741785
243	0xbe7f41d3	-0.24927454
244	0xbd3b65a0	-0.045751214
245	0x3e96b184	0.2943231
246	0x3f3bccf9	0.7335964
247	0x3e8f4039	0.27978685
248	0xbecb46b8	-0.39702392
249	0xbe929aa6	-0.28633612
250	0x3d8ac6df	0.06776213
251	0xbebc4563	-0.36771688
252	0x3e6f1f38	0.23351753
253	0xbe8677f2	-0.26263386
254	0x3eb17995	0.34663072
255	0x3ea3b740	0.31975746

decoder.dec2.bias f4 [39]
0	0xbcb819af	-0.022473184
1	0xbbec6655	-0.0072143474
2	0xbc9de54d	-0.019274378
3	0xbc94f389	-0.018182533
4	0xbc1fc84b	-0.009752343
5	0x3cf59d5d	0.029982263
6	0x3d2cc836	0.042183124
7	0x3ce8d20b	0.028420469
8	0x3c8540d1	0.016266258
9	0x3ccaabf5	0.024740199
10	0xbc3781d3	-0.011200386
11	0x3dd4025d	0.10352013
12	0xbc5bf5d9	-0.013425314
13	0x3c0f4685	0.0087448405
14	0xbbef9d23	-0.0073124333
15	0xbbf29666	-0.007403183
16	0xbc2f52fd	-0.010700938
17	0x3d1c05f1	0.038091604
18	0xbbf9bacc	-0.007621145
19	0xbcf0775a	-0.029353786
20	0x3bdbf022	0.0067119757
21	0x3dce103c	0.1006169
22	0x3d4a26f3	0.04935355
23	0xbbbf2130	-0.0058328137
24	0xbb41dc54	-0.0029580789
25	0x3c8fe263	0.017564004
26	0x3bc256a5	0.005930739
27	0xb887943e	-6.464914e-05
28	0xbc83f9a9	-0.016110258
29	0x3ca360a4	0.019943543
30	0xbb973cba	-0.0046153935
31	0xbc8c7e83	-0.01715017
32	0x3ab36c78	0.0013688942
33	0xbbe476f7	-0.0069721895
34	0xbc464848	-0.012102194
35	0x3d0d6272	0.034517713
36	0x3dbc73e7	0.09201794
37	0x3d37fd7f	0.044919487
38	0xbd089a32	-0.033350177

decoder.dec3.weight f4 [58, 39]
0	0x3d15a7a7	0.03653684
1	0x3bca191a	0.006167543
2	0x3e112707	0.14175044
3	0x3ec5124e	0.38490528
4	0xbe4e38f4	-0.20138913
5	0xbe772240	-0.24134159
6	0x3d5dbbf0	0.05413431
7	0xbe96bca3	-0.29440793
8	0xbe018d52	-0.12651566
9	0xbe483e41	-0.19554998
10	0x3e373ebf	0.1789503
11	0x3d4f6930	0.050637424
12	0x3f1fc764	0.6241362
13	0xbe1a7007	-0.15081798
14	0x3cbc360a	0.022974987
15	0xbe554c28	-0.20829833
16	0x3e11cfa2	0.14239362
17	0x3e561db3	0.20909767
18	0x3e86d2e1	0.26332763
19	0x3d3b247a	0.045689084
20	0x3e6eb89e	0.23312613
21	0x3cdde56c	0.027086936
22	0x3d82c788	0.06385714
23	0xbe2b1f87	-0.16711245
24	0xbea1647a	-0.3152197
25	0xbe70ed8b	-0.23528115
26	0xbe9cbdaa	-0.30613452
27	0xbd0517c9	-0.032493386
28	0xbccda788	-0.0251043
29	0x3e5692b5	0.20954402
30	0x3eb00a8b	0.34383044
31	0x3d305586	0.04305031
32	0x3e02069b	0.12697832
33	0x3de12790	0.10993874
34	0x3ead2028	0.33813596
35	0x3ea523de	0.32253927
36	0xbef0f0ef	-0.47058818
37	0xbec06b8c	-0.37582052
38	0x3d94f1f0	0.072727084
39	0x3e3f7240	0.18695927
40	0x3eaa2efc	0.3323897
41	0x3ec90db8	0.3926828
42	0xbe27a313	-0.16370802
43	0x3d43555b	0.047688823
44	0x3e80b837	0.25140545
45	0xbbe3c77c	-0.0069512706
46	0x3e68e292	0.2274268
47	0x3ddb6d7e	0.10714243
48	0xbdd39dc0	-0.10332823
49	0x3dcec80e	0.10096751
50	0x3d27dcf8	0.040982217
51	0x3ee0786e	0.4384188
52	0x3e2e249d	0.17006154
53	0xbdc605f8	-0.09669107
54	0xbe039dee	-0.12853214
55	0xbe0e1b66	-0.13877639
56	0xbe5c1a80	-0.21494484
57	0xbe4366d0	-0.19082189
58	0x3ba58985	0.005051794
59	0x3cdaeb86	0.026723634
60	0xbe8e8317	-0.2783439
61	0x3e8ee955	0.27912393
62	0x3cdcd18e	0.026955392
63	0xbb327e85	-0.0027236056
64	0x3edb824e	0.42872852
65	0x3df43523	0.119241975
66	0x3c5ae2c4	0.013359729
67	0x3e867b31	0.26265863
68	0x3e8d4fad	0.2759985
69	0xbd97e940	-0.07417536
70	0x3db94b23	0.09047534
71	0xbf04e7d7	-0.5191626
72	0x3e875898	0.2643478
73	0x3e80cc32	0.2515579
74	0x3e73f3eb	0.23823516
75	0xbe25f6c5	-0.16207416
76	0xbe94f5a2	-0.29093653
77	0x3e90da1b	0.282914
78	0xbdae413c	-0.08508536
79	0xbe8b3220	-0.2718668
80	0x3ccf7e7a	0.025328863
81	0xbe1dcc7f	-0.1541004
82	0x3e9c8df5	0.30577055
83	0x3ea135b6	0.3148629
84	0xbd40f7fb	-0.047111493
85	0x3ed0354d	0.40665665
86	0x3eb42bc0	0.3518963
87	0x3ea9cf7d	0.33166113
88	0xbe89230a	-0.26784545
89	0x3f096acd	0.5367859
90	0xbdbf54a1	-0.093423136
91	0x3edaa4f3	0.4270397
92	0xbe4abaf6	-0.19797882
93	0xbef7a6fe	-0.48369592
94	0x3d5713b1	0.052509014
95	0x3d8a39c3	0.067492984
96	0xbea2b720	-0.31780338
97	0xbe205ffd	-0.15661617
98	0x3e189881	0.14901926
99	0x3e543901	0.2072487
100	0xbeff1ccb	-0.49826655
101	0x3ea7f7b7	0.3280618
102	0xbd43f460	-0.047840476
103	0x3e8ef0bc	0.2791804
104	0x3c414590	0.01179637
105	0xbcd4bf31	-0.025970073
106	0xbe77d2c1	-0.2420149
107	0xbe5d8134	-0.21631318
108	0x3ca50e7d	0.02014851
109	0x3e5b4015	0.21411164
110	0xbf00f6df	-0.50376695
111	0xbd508b85	-0.050914306
112	0x3e67bc30	0.22630382
113	0x3e880adf	0.26570794
114	0x3f1a8ccf	0.60371107
115	0xbd2bd0b2	-0.041947074
116	0xbe5233fb	-0.20527641
117	0x3e88d9f1	0.26728776
118	0x3e0acb5c	0.13554138
119	0xbd58fa23	-0.052972924
120	0x3e82261e	0.25419706
121	0x3e21911a	0.15778008
122	0x3ca0b040	0.019615293
123	0x3ea24a9a	0.3169754
124	0xbec2965a	-0.38005334
125	0x3eb8ad32	0.36069638
126	0xbe4bd4c0	-0.19905376
127	0x3df52718	0.11970347
128	0xbe5e4b65	-0.21708448
129	0xbe6c3cd7	-0.23070084
130	0x3e13b427	0.14424191
131	0xbec5ee91	-0.38658574
132	0x3e8507ba	0.25982457
133	0x3e346d7b	0.17619888
134	0xbe466763	-0.19375376
135	0xbe13c787	-0.14431582
136	0x3e2b5df9	0.16735066
137	0x3d4d2906	0.05008795
138	0xbd1ee728	-0.038794667
139	0xbed24e81	-0.4107552
140	0x3e9d3a6d	0.30708638
141	0xbdfc5e78	-0.12322706
142	0x3e5a3413	0.21308927
143	0xbeb30906	-0.34967822
144	0x3e36466e	0.17800304
145	0x3e5fa6c6	0.21840963
146	0x3db6689b	0.08906671
147	0x3dc2ceb4	0.09512082
148	0x3d8bb078	0.06820768
149	0xbe462a54	-0.19352084
150	0xbe9c1c3a	-0.30490285
151	0x3d8b75ce	0.06809579
152	0xbdded29c	-0.10880014
153	0xbe663ff3	-0.22485332
154	0xbe55aa52	-0.20865753
155	0xbe89d18b	-0.2691768
156	0xbe4e8821	-0.20169117
157	0x3d1bb42e	0.03801363
158	0xbe3f9bc2	-0.1871176
159	0xbd0377e9	-0.032096777
160	0xbe27f4bc	-0.16401953
161	0x3cba71bd	0.022759313
162	0xbe3f8fbf	-0.18707179
163	0xbccd2309	-0.02504112
164	0xbe181def	-0.14855169
165	0xbd7063f0	-0.058689058
166	0xbe29e5e9	-0.1659161
167	0x3da81cfa	0.08208652
168	0x3e27a587	0.16371737
169	0x3b0b9e47	0.0021304057
170	0x3e98aa32	0.2981735
171	0x3e0c6641	0.13710882
172	0x3e477f14	0.1948207
173	0x3e66fa57	0.22556435
174	0xbe73741a	-0.23774758
175	0xbe8937b2	-0.26800305
176	0xbeaad029	-0.3336194
177	0x3eaf0d39	0.34189776
178	0xbe08fb36	-0.1337708
179	0x3e9611f8	0.29310584
180	0x3da431f8	0.08017343
181	0xbe8b8332	-0.27248532
182	0xbe5b386f	-0.21408246
183	0x3e33253b	0.17494671
184	0x3e385de3	0.18004565
185	0xbeb094f8	-0.34488654
186	0x3e59d792	0.2127364
187	0xbe4e752e	-0.20161888
188	0xbe1d89a0	-0.15384531
189	0xbe8475ba	-0.25871068
190	0xbda34802	-0.07972719
191	0xbeb87ccb	-0.3603271
192	0xbec3673d	-0.38164702
193	0xbe99bfcf	-0.3002915
194	0x3eb0dfd2	0.3454576
195	0xbdbd5de9	-0.092464276
196	0x3dee1b9a	0.11626358
197	0xbe745520	-0.23860598
198	0xbe146c98	-0.1449455
199	0x3df8e692	0.12153353
200	0x3d0275e2	0.031850703
201	0x3c030963	0.007997843
202	0xbe678acb	-0.22611539
203	0x3e360d04	0.17778403
204	0xbc81e6b4	-0.015857078
205	0x3d14b9f9	0.03631017
206	0x3ea51451	0.32242063
207	0xbd35a4de	-0.044346683
208	0x3e6a547f	0.22883795
209	0x3ebc7baa	0.36813098
210	0xbe9fdb18	-0.31221843
211	0x3e41a861	0.18911888
212	0x3e0bda29	0.1365744
213	0x3ea97db2	0.3310371
214	0xbf28376a	-0.65709555
215	0xbd844e53	-0.06460252
216	0xbe12d2d2	-0.14338234
217	0x3e401aae	0.18760177
218	0xbe029db3	-0.1275547
219	0x3da2bfde	0.07946752
220	0xbe0bc885	-0.13650711
221	0x3da0bdaa	0.078486755
222	0xbc995017	-0.018714948
223	0x3e82f4fd	0.25577536
224	0x3e1231d7	0.14276825
225	0xbeaea1e0	-0.34107876
226	0x3e34772c	0.17623585
227	0x3f050754	0.51964307
228	0x3eaab896	0.33343953
229	0x3d95c44a	0.0731283
230	0xbe84c351	-0.25930265
231	0x3e07b940	0.13254261
232	0x3e871c27	0.26388666
233	0x3eb60966	0.35554045
234	0x3eb99223	0.36244306
235	0xbea079d2	-0.31342942
236	0xbd82c1d9	-0.0638463
237	0xbea9db45	-0.33175102
238	0x3e47b3d1	0.19502188
239	0x3e2cdcb9	0.16881074
240	0x3d31e13a	0.043427683
241	0x3d9e5db6	0.07732718
242	0xbd4be52a	-0.049779095
243	0x3e212691	0.15737368
244	0xbea717d6	-0.32635373
245	0x3ee2564e	0.4420647
246	0xbd49670f	-0.04917055
247	0xbe25c485	-0.16188248
248	0x3e470027	0.19433652
249	0x3e0b6584	0.13612944
250	0xbe8357d8	-0.25652957
251	0xbdb27f67	-0.08715706
252	0x3d5c85ac	0.053838417
253	0xbe7889b8	-0.24271286
254	0x3ea98b65	0.33114162
255	0x3db6af0c	0.08920106

decoder.dec3.bias f4 [58]
0	0xbbbd0e78	-0.005769547
1	0x3c6c7b9c	0.014433768
2	0x3d5322ed	0.05154698
3	0xbc982649	-0.018572943
4	0xbb3e8f31	-0.0029077048
5	0xbd0382e2	-0.03210724
6	0x3ce5814f	0.02801576
7	0x3c9cff35	0.019164661
8	0x3d9ac1f6	0.07556526
9	0xbc8708fe	-0.01648378
10	0xbc47edb7	-0.012202672
11	0x3d97eabf	0.07417821
12	0xbcc7833c	-0.02435457
13	0xbc5ec9d0	-0.013597921
14	0x3cb06c82	0.021536116
15	0x3c2cc7b7	0.010545663
16	0x3db1258b	0.08649739
17	0x3ac3f98f	0.0014951694
18	0xbc9a95aa	-0.018870194
19	0xbcb777c1	-0.02239597
20	0xba410391	-0.0007362897
21	0xbadf38ac	-0.0017030439
22	0xbc10e5d8	-0.0088438615
23	0xbbe68174	-0.007034475
24	0xbcaea1a1	-0.021317305
25	0xbb9a9647	-0.0047176215
26	0x3d1f0b95	0.038829405
27	0x3c3e19a0	0.011602789
28	0xbba5c543	-0.005058916
29	0xbc93164b	-0.017954966
30	0xbc8522f4	-0.016252019
31	0x3bd2b34d	0.0064300657
32	0x3d46a4a0	0.048496842
33	0xbc1e20de	-0.009651391
34	0xbdfc2188	-0.12311083
35	0x3d58dabe	0.052942984
36	0x3d87aa6b	0.066243015
37	0x3cafd0bb	0.021461835
38	0x3b442986	0.0029931976
39	0xbb9388b1	-0.004502379
40	0x3cf6f2c9	0.030145066
41	0x3d589a2b	0.0528814
42	0xbaaf7114	-0.001338514
43	0x3d4438af	0.04790562
44	0xbd23bc47	-0.039974477
45	0xbc2b5b3d	-0.010458765
46	0x3e10d43b	0.1414346
47	0xbb8237c1	-0.0039739315
48	0xbb382649	-0.0028098992
49	0xbcb57b7a	-0.022153605
50	0x3d0769ad	0.033059765
51	0xbc0852cc	-0.008320522
52	0x3d3dfc80	0.04638338
53	0x3d91027c	0.07080552
54	0xbc6fa421	-0.014626534
55	0xbbead1c7	-0.0071661207
56	0xbcc9eac7	-0.024648083
57	0x3d8b3ad0	0.06798327
