IDS_TA/Wednesday_Models/CADE-m1.0-l0.001.pth (torch, 67994 bytes, 16 tensors)

encoder.enc1.weight f4 [58, 78]
000000 da 08 66 3e 58 2e 2f 3e a1 58 ce bd 22 36 cb 3c
       0.22464314 0.17107522 -0.10075498 0.024806086
000010 45 31 06 3e 4d 8a 9d bd 9b fb 09 bc 51 d3 8f 3d
       0.13104732 -0.076923944 -0.008421804 0.07022727
000020 bc 44 34 3e 72 74 00 3e c4 d9 b2 3d f7 1d 35 3d
       0.17604345 0.1254442 0.08732942 0.04421803
000030 6a 70 a8 bd 37 27 fc bd 7f b4 91 3d a4 46 e6 3c
       -0.08224566 -0.12312167 0.07114505 0.028109856
000040 2e ce 05 3e 11 2f 2a bb 6c 78 8c 3e 0d d6 9f 3d
       0.13066933 -0.0025967995 0.27435625 0.07804499
000050 e6 dc 54 3e 09 1c 2a be a6 16 2e be 84 47 4d bd
       0.20787391 -0.16612257 -0.17000827 -0.05011703
000060 66 28 b3 3d e9 15 6a 3a 7f 73 77 3e b1 89 bc bd
       0.0874794 0.00089296565 0.24165152 -0.0920595
000070 39 0c 2a 3e 56 28 43 3e 12 81 3b 3e ac f3 19 be
       0.16606225 0.19058356 0.18310955 -0.1503436
000080 f5 2b b1 bb cd f5 46 be 63 33 a7 3d d7 e7 88 3c
       -0.0054068514 -0.19429703 0.08164098 0.016712112
000090 31 cf 6f 3e d9 6d b6 bc 0b 36 83 bc bc ce eb bd
       0.23418881 -0.022269176 -0.01601698 -0.11514041
0000a0 9e 61 95 3e ec 1b 58 be 09 0f 15 3e 90 d0 70 3e
       0.29176039 -0.21104401 0.14556517 0.2351706
0000b0 56 71 08 3e 9c 19 2b 3e 1a 57 67 3d 6e 8c 00 3d
       0.13324484 0.16708988 0.05647955 0.031383924
0000c0 d8 3b 39 3e 59 a1 84 be ed f3 e5 3d e8 2b 55 3e
       0.18089235 -0.25904348 0.11228166 0.2081753
0000d0 5f 94 64 bd 57 b7 6f 3e cf 73 f0 3d eb 04 f9 bd
       -0.05580556 0.23409782 0.11740839 -0.12159141
0000e0 5a 93 32 3e d1 8d 8d be 83 c9 30 bd 2f 65 2a be
       0.17439023 -0.2764726 -0.043160927 -0.16640161
0000f0 9d e9 99 bd 96 0f a2 bd b7 24 fd 3d ac 75 00 be
       -0.07515261 -0.07913129 0.123605184 -0.12544888
000100 fd 00 c7 bd a2 3e fb bd 70 88 2d 3d 50 6c 93 bd
       -0.097169854 -0.12267806 0.042366445 -0.07198393
000110 4f 52 7b 3c 86 5f 49 3d ad c6 9d 3b 87 a9 fc 3d
       0.015339448 0.049163364 0.0048149438 0.12337022
000120 91 8a d5 bc a7 88 da bd 6e 39 13 be bd 1c ac bd
       -0.02606705 -0.106705956 -0.14377376 -0.08403919
000130 2f 39 a7 bd bd e5 27 3e 32 36 2b 3e e0 d1 3c be
       -0.08165204 0.16396232 0.16719893 -0.18439436
000140 e4 01 56 3e 6c cc 71 be d2 67 7b 3c 87 93 d9 3d
       0.20899159 -0.23613137 0.015344577 0.10623842
000150 29 93 ea 3c fd 87 b3 bd c7 0b b0 3d 12 6b 82 3e
       0.028634625 -0.08766172 0.08595996 0.25472313
000160 18 69 3b be 1a 5f 78 3d c7 68 ed 3d e6 30 98 3c
       -0.18301809 0.06063757 0.1159225 0.018578004
000170 83 e1 89 3d a7 49 fa bd 6c f6 18 3e f8 3c 8c 3e
       0.06732466 -0.12221079 0.14937752 0.27390265
000180 8e a4 70 be 8b c9 9d 3e cb fb 43 be 03 e2 4c bd
       -0.23500273 0.30817828 -0.1913902 -0.05002023
000190 c5 49 6b be 53 3b 08 3e 8f 75 a7 bd 3d d1 a6 bd
       -0.2297736 0.1330388 -0.081767194 -0.08145378
0001a0 d6 da 08 be 12 c8 d5 bd 06 5d 0f 3e 38 4d 4d bd
       -0.1336473 -0.10438551 0.1400033 -0.05012247
0001b0 fb 44 0f bd 91 0f 14 be fd 22 47 3e 6c 3f 15 3e
       -0.034977894 -0.14459063 0.1944694 0.14574975
0001c0 5e 9b 2c be 8e 6f 4f 3e 15 be 63 be 26 55 3c 3e
       -0.16856143 0.20257398 -0.2224048 0.18391857
0001d0 5e f6 b7 3d 22 4f c3 3e 22 88 ba bd 89 6f 16 be
       0.08982538 0.3814631 -0.091079965 -0.14690985
0001e0 1d 78 87 3d 8a f8 a8 3c 1b 05 0b be e7 19 06 3e
       0.06614707 0.020626325 -0.13576166 0.13095818
0001f0 a9 4e bf bc ff db 42 3e 18 dc 50 be 09 42 a1 bd
       -0.023352938 0.19029234 -0.20396459 -0.07873923
000200 a8 71 1c be 16 24 61 3c 9f 1b b3 3e 23 6b b6 bd
       -0.15277731 0.013741514 0.3498201 -0.089071535
000210 4d 59 0c 3e 70 a6 a5 bd a1 40 44 3e c0 31 88 be
       0.1370594 -0.08088386 0.19165279 -0.26600456
000220 30 40 16 3d 49 58 e0 bd 84 c3 38 3e 64 2f 35 bd
       0.036682308 -0.10954339 0.18043333 -0.04423465
000230 11 6a d6 3e 65 29 d8 bc 45 d5 ce bd 36 88 db 3c
       0.41877797 -0.026386926 -0.10099272 0.026798349
000240 47 c3 18 3e 1c 23 aa 3d b4 a7 33 be 34 cb 41 3e
       0.14918242 0.08307478 -0.17544442 0.18925172
000250 89 66 42 3e be ee 94 bc 03 d7 99 bd 0a 1f 10 3e
       0.18984427 -0.018180247 -0.07511713 0.1407434
000260 b7 cb 5c 3e 15 9f 50 be 84 75 26 be 3e 7b 8a 3e
       0.21562086 -0.20373185 -0.16255766 0.2704715
000270 92 24 9b 3e a2 6d 43 3c b2 61 99 3c ae 51 8b 3e
       0.30301338 0.011927994 0.018723343 0.27210754
000280 34 07 c4 bd 5c 97 79 3e c5 73 7d 3e c8 9f b1 be
       -0.095716864 0.24374145 0.24751194 -0.34692216
000290 60 23 8b 3d 78 a6 ea 3d 37 b7 cc 3c 4c 70 e3 3d
       0.067938566 0.11457533 0.024989707 0.11105403
0002a0 31 f7 a4 bd 2e ae 0b be 72 d2 d0 3d aa 4b 9c bd
       -0.080549605 -0.13640663 0.10196389 -0.07631619
0002b0 2a ef 16 be c4 89 14 3e 3e 75 38 be 61 73 a0 3d
       -0.14739671 0.14505678 -0.18013474 0.07834507
0002c0 75 e4 e1 be 88 0e d9 3d bd 21 ac bd d2 99 e6 bc
       -0.4411961 0.10598475 -0.084048726 -0.02814952
0002d0 2a ea 75 3e 5a 9b ac be 05 2d d9 bc 92 4f 5a be
       0.24015108 -0.33712274 -0.026510725 -0.21319416
0002e0 a8 63 94 3d 6d f2 d3 bc 62 62 36 bc 76 07 75 bd
       0.072455704 -0.025872434 -0.011131855 -0.05982157
0002f0 bc 38 e4 3d 10 e2 75 3d 1a d9 ec 3c 2e be d1 bc
       0.11143634 0.060030043 0.028912116 -0.02560338
000300 61 ec ba bd d6 6a b3 3c 80 99 af be 4e ca 6f be
       -0.09127117 0.02190153 -0.342968 -0.23417017
000310 b5 e1 29 3e 8e 18 85 3d 56 7e e8 3d 5c 31 e1 bd
       0.16590007 0.06498824 0.11352222 -0.10995743
000320 aa 03 a9 3c 46 03 e9 bd 01 8d ec be 4f e7 f9 bd
       0.02063163 -0.113775775 -0.46201327 -0.12202322
000330 47 92 b4 3c 31 23 56 be 5d e1 a5 3d aa 88 93 3d
       0.022042407 -0.20911862 0.08099625 0.07203801
000340 d3 51 ba be 58 ca 08 3e 32 8a 8c be 6f 42 2a be
       -0.36390552 0.13358438 -0.27449185 -0.16626905
000350 e5 b4 cc bd 7f bd f9 bd af b6 e8 bd 91 bb e0 3d
       -0.099954404 -0.12194347 -0.11362969 0.109732755
000360 24 10 59 3d f6 68 ab bb 9b 9b ff be f2 7a 3a 3c
       0.05299391 -0.005231018 -0.49923405 0.0113818515
000370 b1 f5 06 3d 84 a6 03 3e c4 de 95 3d c4 3e a1 bc
       0.032949153 0.1285649 0.0731788 -0.01968325
000380 4b e6 78 bd cc 72 2e be 81 42 2b be 4f a9 fa 3d
       -0.0607665 -0.17035979 -0.16724588 0.12239324
000390 31 91 85 3d 8e af 88 bd 79 9a 44 3e c7 46 ff 3c
       0.06521834 -0.066741094 0.19199552 0.031161679
0003a0 90 08 55 3e 91 92 8f 3d 67 b9 c4 bb ed a0 2d 3d
       0.20804048 0.07010377 -0.006003547 0.0423898
0003b0 26 bc 16 be e0 9e 4d be 75 0f 50 be 4d cd 52 be
       -0.1472021 -0.20080137 -0.20318396 -0.20586129
0003c0 91 57 90 bd 5e 8a 98 3c e6 80 64 be 7f 91 3e be
       -0.07047952 0.018620666 -0.22314796 -0.1861019
0003d0 3b e8 2a 3e 99 b0 7c 3d f2 41 8f 3e 2d 6e 6a be
       0.16690151 0.061691854 0.2798 -0.22893591
0003e0 8a 70 a0 3e 70 b7 39 bd 79 ca 27 3e 31 83 62 3e
       0.3133586 -0.045340955 0.16385831 0.22120358
0003f0 b3 37 5d 3d 2c e7 96 bd 29 09 cb bd 75 4e 8c be
       0.054008197 -0.07368311 -0.099138565 -0.27403608

encoder.enc1.bias f4 [58]
000000 0c 87 b6 bb 1a 30 0c bd 06 5d 78 3d bb 9b 19 3d
       -0.005570298 -0.03422556 0.06063559 0.03750203
000010 00 af da 39 e9 e7 2b 3d 32 57 7f bc 9d 38 39 3d
       0.00041710585 0.041969214 -0.015584754 0.045220006
000020 94 2a 81 3d 70 01 46 bc 4c 34 f7 bc 46 38 61 bc
       0.06306949 -0.012085304 -0.030176304 -0.013746327
000030 69 67 65 3c 46 df de bb ca 48 e1 3c 89 0d dd bc
       0.014001706 -0.0068015186 0.027500529 -0.026983993
000040 26 9f 1b 3d bf aa 21 3b 5b 6b 04 3b 55 57 81 3c
       0.037993573 0.0024668423 0.002020559 0.015788713
000050 26 59 49 bc 8b f3 8d bc c3 01 ef 3b f3 7b 65 3c
       -0.012289321 -0.017328044 0.007293911 0.014006603
000060 1c f1 12 bc b4 1e 77 bc 4a 56 8d 3d 8e 51 0c 3a
       -0.008968618 -0.015083004 0.06901224 0.0005352729
000070 2e 10 85 3c 44 cf 8d 3c b7 87 0e bd 88 8f 10 bc
       0.016243067 0.017310746 -0.034797397 -0.008823283
000080 ca fa 07 3c 07 54 a6 3d 01 d3 66 bd 19 b8 9a bc
       0.008299539 0.08121496 -0.056353573 -0.018886613
000090 c6 84 04 bd 58 e3 3a 3d 70 8d e8 bc b8 75 a0 3d
       -0.032353185 0.04562697 -0.028387755 0.07834953
0000a0 14 0d 8b bc f8 ce 86 3b 18 e1 d2 3c 24 49 54 3c
       -0.01697401 0.004114028 0.025742099 0.012956891
0000b0 8a d1 8c bd 2f 4e 2d 3c 45 15 3d 3d 78 8f e3 bc
       -0.06875904 0.010577722 0.046162862 -0.027778372
0000c0 84 7f d1 3d e1 66 2d b9 9e 77 0c 3d 26 5a 0f bc
       0.102294 -0.00016536891 0.034293763 -0.00874952
0000d0 9a a9 95 3c b8 dd be bc 83 c9 47 bc 68 77 5f 3c
       0.018269349 -0.023299083 -0.01219404 0.0136393085
0000e0 7a b6 8b 3c d3 4f 5a bd
       0.017054785 -0.053298783

encoder.enc2.weight f4 [39, 58]
000000 31 92 12 3e a3 58 18 3e 92 69 5f be 8d 5b 22 be
       0.1431358 0.14877562 -0.21817616 -0.15855236
000010 c4 53 7c be b1 7c 63 be a2 c7 82 bd 5c 40 de 3d
       -0.24641329 -0.22215535 -0.06385733 0.10852119
000020 ac 48 cb be 98 bd 01 bd fb df 92 3c ba fc 9c 3d
       -0.39703882 -0.03167495 0.017929068 0.07665391
000030 93 4e a0 3e a4 7d 95 3e 13 cd d3 3d 1f 21 93 bd
       0.31309947 0.2919742 0.10341849 -0.07184052
000040 db b2 63 3d e5 db 82 be 84 27 4f be 57 48 49 be
       0.05559049 -0.2555839 -0.20229918 -0.19656502
000050 c4 20 81 be c8 6a ce bc 1e f2 44 3e 1d 40 dc bd
       -0.2522031 -0.025197402 0.19232985 -0.10754416
000060 24 84 77 3e 71 91 01 3e 1a 74 b4 bd 9b 62 0a 3e
       0.24171501 0.12653138 -0.08811207 0.13514178
000070 a7 f7 7a be b8 20 59 bd 61 9b 60 bd 93 ce a3 3d
       -0.24508534 -0.05300972 -0.05483568 0.07998385
000080 d2 c9 44 3e 34 6a ee 3e 69 2a 98 3d e7 d8 c1 3d
       0.19217613 0.46565402 0.07429964 0.09465199
000090 f7 19 6c be 4b a6 cc 3d b9 aa d3 bd e1 3a 7f be
       -0.2305678 0.09992655 -0.10335297 -0.24924804
0000a0 31 8e 72 3e 56 8c 15 3e f7 1d cb bd 40 6b c5 bc
       0.23687054 0.14604315 -0.09917825 -0.024098992
0000b0 3d 29 02 3d d1 e5 23 be 52 ac be be 5e cf 79 be
       0.03177761 -0.16005637 -0.37240845 -0.2439551
0000c0 25 76 40 be c1 a1 4a 3e b7 90 b7 bc b9 7c 5e bd
       -0.18795069 0.19788267 -0.022407873 -0.054318164
0000d0 3d f7 95 3e 4a ea 11 bd b9 2a 85 3d cf a7 14 be
       0.2929019 -0.035623826 0.06502289 -0.14517139
0000e0 74 76 a1 3d d5 83 5b 3d 24 ac a8 be 6a 37 b7 bc
       0.07883921 0.05359252 -0.32943833 -0.02236529
0000f0 e5 65 03 3e 75 09 05 bd 28 6c 8d be 66 cf db bc
       0.12831838 -0.032479722 -0.2762158 -0.026832294
000100 44 03 8b 3e f2 4c 13 bd f9 ab 2b 3d 5e 67 14 3e
       0.2715093 -0.035962053 0.041912053 0.14492556
000110 a1 b1 4b 3e 09 58 67 3e 68 38 f4 3d b5 aa 85 3e
       0.19891979 0.22592176 0.11924821 0.26106802
000120 3e 24 76 3c 9c 28 3e 3d ee 13 50 3e f8 5c ec bd
       0.015023289 0.046425447 0.20320103 -0.1154117
000130 50 78 56 be 49 f4 e4 bd 57 1f 9e be 53 69 d4 3c
       -0.20944333 -0.11179406 -0.30883285 0.025929129
000140 f9 2b c4 3c 6b d9 aa bd 3f 61 9c be 26 9c ae 3d
       0.023946749 -0.083422504 -0.30542943 0.08525877
000150 d4 fa 34 3c b1 15 3e 3e f5 5e 4e be 5a 59 3f bc
       0.01104613 0.18562962 -0.2015341 -0.011679018
000160 ea 0e 6b bd 28 43 29 be 16 b8 81 3e fc 66 c7 bd
       -0.05738727 -0.16529524 0.2533576 -0.097364396
000170 0e 1e b0 bd c4 80 b4 3e 34 73 68 bd af ae c4 3d
       -0.085994825 0.3525449 -0.05675049 0.09603631
000180 d1 bd 88 be 10 e8 9f 3e d1 d1 7f bc a8 aa 03 3e
       -0.26707318 0.31231737 -0.015613989 0.12858069
000190 83 cf 60 be 79 5a 9f 3d c9 cb cd 3d 6d ac 34 be
       -0.2195416 0.07780928 0.100486346 -0.176439
0001a0 43 83 87 3e 3b e1 de bd 21 75 62 3d a3 81 4c 3e
       0.26467332 -0.10882803 0.055287484 0.19971327
0001b0 6c 8e 2d be 90 b0 62 3e f6 3c e9 3d 02 81 38 bd
       -0.16948861 0.22137666 0.113885805 -0.045044906
0001c0 ed 59 be 3d d1 a0 58 be f6 dc 37 be 4a 3c 04 3d
       0.09294496 -0.21155097 -0.17955384 0.03228406
0001d0 ad fc a0 3e 80 e8 36 3e 11 cd 5d 3e f7 41 fc bc
       0.31442776 0.17862129 0.21660258 -0.030793173
0001e0 2f cb 70 be 51 52 80 3e 9f f3 56 3e 1c 51 ba 3e
       -0.23515008 0.25062802 0.20991372 0.36390007
0001f0 86 3c 45 3e 04 30 44 be a5 5e 82 3e ce c6 97 3e
       0.19261369 -0.19158942 0.25462833 0.29643863
000200 bb ac 38 3c b4 9c 18 be 88 57 20 be cf ca 32 be
       0.011271651 -0.14903527 -0.1565839 -0.17460178
000210 ca ac ac 3e bb 2a ae bc df 36 60 bb ba 08 f7 bb
       0.33725578 -0.02126061 -0.0034212393 -0.007538882
000220 2a 27 67 3e 78 9e c0 bc eb 17 75 be 25 09 ed 3d
       0.22573534 -0.023513064 -0.23934905 0.1157401
000230 61 de 3d be e7 5b 7c 3e fa 88 0c be c2 83 10 3e
       -0.18541862 0.24644433 -0.13724127 0.14112762
000240 be dc 01 3e 6f 59 77 3e d6 f2 15 be 5c a1 2c 3e
       0.12681863 0.2415521 -0.14643416 0.16858429
000250 26 95 4f 3d 39 81 c4 3e 54 d8 ed bd 47 ba c8 be
       0.05067935 0.3837984 -0.11613527 -0.39204618
000260 4e 93 a8 bd bd 94 74 3d 4a f2 98 3d 51 a3 3d be
       -0.08231221 0.05971216 0.07468088 -0.18519332
000270 4e 0a ea bd 24 d8 94 3d b6 a5 99 3d 50 37 5f 3e
       -0.11427747 0.07267788 0.0750231 0.21798444
000280 f0 1e 1a 3d 01 8d fd 3d c9 dd 52 be 7f 76 d3 be
       0.03762716 0.1238041 -0.20592417 -0.41301343
000290 6c a9 4e be 8b f5 41 bd 40 a4 80 3e 9a 75 67 be
       -0.20181817 -0.04735331 0.25125313 -0.22603455
0002a0 46 54 b3 be 00 05 20 be 1b e4 3e 3d 55 76 6b 3e
       -0.35025233 -0.15626907 0.046604257 0.22994359
0002b0 08 dd 17 3e bd 5b 18 3e 19 d1 16 3e 3e 2d 2d 3e
       0.1483041 0.14878745 0.14728202 0.1691179
0002c0 28 14 30 3d 41 17 f6 bd 72 a1 9b 3d 20 00 38 be
       0.042987972 -0.12016154 0.075991526 -0.17968798
0002d0 cd 75 7b 3e 74 4f 82 3e 2e 8b 5d 3c f7 c2 96 bd
       0.24556656 0.25451243 0.013521953 -0.07361405
0002e0 f7 5b 25 bd 47 b7 5d 3d 24 3c c1 be a3 12 a2 be
       -0.040370908 0.054129865 -0.37741196 -0.31654844
0002f0 a4 45 59 bd 1e 95 1c be 5b 71 92 be 15 2c 91 3e
       -0.05304493 -0.15291259 -0.28602108 0.28353944
000300 26 4f ac 3e 30 71 d5 bd b8 2a 97 bd 8a 36 80 3e
       0.33654135 -0.104219794 -0.07381195 0.2504161
000310 83 56 14 3e 04 f0 a1 3d 71 9d e7 bc 71 87 29 be
       0.14486127 0.079071075 -0.028273316 -0.16555573
000320 15 8b 3f 3e 2f c8 7f be 5b 18 13 3e 19 d3 68 bd
       0.187054 -0.24978708 0.1436476 -0.056841943
000330 87 df 64 3c 8e 51 57 be 6b da 9a bd ac 4c 47 bd
       0.013969309 -0.21027204 -0.07561191 -0.048657104
000340 74 e2 8d 3e bc bc 29 be c1 e8 c6 3d b1 4a d3 bd
       0.27711833 -0.16575903 0.09712363 -0.10316981
000350 7e ee 49 be 39 7e 59 be 6b f5 20 3e 98 8c 98 3e
       -0.19719884 -0.21239556 0.1571862 0.29794765
000360 19 fc 8e be f9 05 66 be c3 2f a9 3d e4 33 8c 3e
       -0.2792671 -0.22463216 0.08261063 0.2738334
000370 c4 15 de be ed 1f 48 be 4c c0 9c be 12 24 59 3e
       -0.4337598 -0.19543429 -0.3061546 0.21205166
000380 6b b1 ca bd 44 d8 40 be d1 2a 6f 3e ed 2b f5 3d
       -0.09897121 -0.18832499 0.23356177 0.11971269
000390 ab 94 e7 bd 05 17 6b be 7b 57 7d 3e 3a 0e 0a be
       -0.11307653 -0.22958 0.24740402 -0.1348199
0003a0 3d 0c 2f 3e ed df f4 bd 80 0e a7 3a f1 db 30 3e
       0.17094512 -0.11956773 0.001274541 0.17271401
0003b0 5c 58 2e 3e 06 5c 0f 3d 70 57 57 be af 1f e2 bd
       0.17025894 0.03499987 -0.21029449 -0.110411994
0003c0 8f 0f 89 bd c8 96 09 3e b6 5c 4a 3d 76 7d 89 bd
       -0.06692421 0.13436425 0.049404822 -0.06713383
0003d0 75 77 04 bd d0 0c a1 3e c8 a4 82 be 0b dd 1b 3e
       -0.032340486 0.31455088 -0.25516343 0.1522104
0003e0 b7 47 6f be 5e 43 6d 3e cf 09 6a 3d c9 bb ca be
       -0.23367201 0.2317023 0.05713826 -0.39596394
0003f0 48 96 35 3e bd 12 84 be 21 7f 9e bc 0f 41 80 be
       0.17733109 -0.25795546 -0.01934773 -0.25049636

encoder.enc2.bias f4 [39]
000000 c1 1e 85 ba 8b f6 98 3c 93 29 06 3d 07 85 32 3c
       -0.001015626 0.018672248 0.032754492 0.010895974
000010 c0 44 14 3c c8 01 a9 3c e7 ba 35 bd 1c f1 55 3b
       0.009049594 0.020630732 -0.044367697 0.0032644933
000020 aa 24 28 bb 54 54 88 bb 5b 76 c1 bb a2 f7 fd 3b
       -0.002565662 -0.0041604433 -0.0059040016 0.0077504674
000030 40 20 8f bc 2b 33 3b 3d b3 42 cc bc e2 b2 63 bb
       -0.017471433 0.045703094 -0.024934148 -0.0034744074
000040 6c 55 21 bb 2a 73 83 3b 48 7b 5a 3d 3c cd 53 bc
       -0.0024617566 0.0040115314 0.053340226 -0.01292735
000050 ad ff cf bc 75 aa 06 bd 2f f1 aa bb 00 00 00 00
       -0.02539047 -0.032877404 -0.0052167396 0.0
000060 00 e7 bb 3b 83 1c 35 bc d9 05 ae bc c8 cc 00 3d
       0.0057343245 -0.011054161 -0.021243023 0.031445295
000070 99 03 71 3d 2b 80 90 3d f1 09 57 bc 41 7b f3 3b
       0.05884132 0.07055696 -0.013124929 0.0074304645
000080 75 a6 37 3d 9d 6e c8 ba 48 ef 00 3d 17 0b fc bb
       0.04483648 -0.0015291754 0.031478196 -0.0076917517
000090 29 ad b1 bc e3 71 a7 3b 43 16 0a 3c
       -0.021689015 0.005110012 0.008428159

encoder.enc3.weight f4 [19, 39]
000000 77 97 26 bb fc 2e 81 3e 38 79 99 be dd ff 6c bd
       -0.002541987 0.2523116 -0.29975295 -0.057861198
000010 aa a0 8e bd c7 9c 87 be e3 92 19 3e 88 3a 01 3e
       -0.06964238 -0.264868 0.14997439 0.12619984
000020 7d 9b 6d 3e b8 28 b4 3e 95 2d 81 bd 08 ed 87 3e
       0.23203845 0.35187316 -0.06307522 0.26548028
000030 e5 91 cc bd 7e ea b1 be 0f f6 68 be 24 e1 7f bb
       -0.09988765 -0.34749216 -0.22750114 -0.0039044106
000040 07 57 3f 3d 17 70 9b 3b dd c2 c1 3e a1 0e 0f 3d
       0.046713855 0.0047435868 0.3784398 0.03492606
000050 01 e4 0f be e9 89 6a 3d 4b 88 0e 3c a3 0a 4c be
       -0.1405182 0.057260428 0.008699487 -0.19925933
000060 70 d1 98 be 59 de b0 3e bb 18 96 be b0 61 44 3e
       -0.29847288 0.34544638 -0.29315743 0.1917789
000070 e9 02 f0 3e c0 05 47 be 58 f9 a0 3e 65 8c aa be
       0.4687722 -0.19435787 0.31440234 -0.33310238
000080 44 08 7e be e1 bf 95 3e 8b 44 a3 be e6 d3 7c 3e
       -0.2480784 0.29247954 -0.31888232 0.24690208
000090 88 3e ef bd 69 9b af be bc 07 3e 3e c1 0b fb be
       -0.11681849 -0.34298256 0.18557638 -0.49032405
0000a0 39 49 b9 be 4b 5a 4f bd 1a 87 fe 3d ba 71 70 3e
       -0.36188677 -0.05062322 0.12428112 0.23480883
0000b0 5f 36 40 bd f7 94 9b bd 7a 64 9f bd eb c6 83 bd
       -0.046926852 -0.07596772 -0.07782836 -0.06434425
0000c0 3f 23 bb be 13 77 d3 3e 52 cc f1 3d f1 14 34 be
       -0.36550328 0.41301784 0.11806549 -0.17586114
0000d0 18 30 3f 3c 5a b6 aa bd df 2c 93 3e 79 eb 46 3e
       0.011669181 -0.08335562 0.2874517 0.19425763
0000e0 c5 85 83 bd a1 09 8f 3e 69 ab a8 3d d4 2e af 3d
       -0.06421999 0.27937034 0.08235819 0.08553854
0000f0 3c 1b 39 3d 85 98 a3 3e f5 46 be 3e 2b 71 21 3e
       0.04519199 0.319523 0.3716351 0.15765826
000100 7b 1d ba be 46 ae 0f 3e ce 6b 1f 3e ff c5 6e 3d
       -0.36350617 0.14031324 0.15568468 0.058294293
000110 8d 92 92 3d 7c 40 d7 bc 04 08 ed be 5e 48 aa 3d
       0.071568586 -0.026275866 -0.46295178 0.08314584
000120 ed 0b 95 3d 86 94 c3 bd 8f 3d c6 bd 06 c9 ca 3d
       0.07277665 -0.09549813 -0.0967971 0.099016234
000130 f7 3f 3d be ce e4 30 3d c0 e9 cb bd 3a 23 69 3e
       -0.18481432 0.043186955 -0.09956694 0.22767344
000140 b5 b3 43 be ed 92 dd 3c 5b 57 86 3e c2 3b dc 3d
       -0.19111522 0.027047599 0.26238522 0.107535854
000150 72 4e 8d 3e 59 fd cc 3c a5 60 3a be a7 e4 83 be
       0.27598912 0.02502315 -0.1820093 -0.25760385
000160 26 31 6b 3d 3b e5 91 3e cf 89 73 be a4 de c2 3d
       0.05741992 0.284952 -0.23783039 0.095151216
000170 a9 64 84 3d b2 e2 43 3e fb 2d 98 3e cb 0a 0b be
       0.06464512 0.19129446 0.2972258 -0.13578336
000180 88 01 a8 3e c7 d1 81 be 3a da 3f bd fb bc a8 be
       0.32813668 -0.2535536 -0.046838976 -0.3295668
000190 ce 0a be 3e 1d 02 38 3c e9 1f 8a be 00 df 40 3e
       0.37117618 0.011230973 -0.2697747 0.18835068
0001a0 e3 37 60 3e 33 70 8a 3e d9 f3 10 3e 5d 43 cf 3b
       0.21896319 0.27038726 0.1415552 0.006325169
0001b0 f0 a5 a6 bc 18 13 fb bd f6 e9 2d be d2 d3 d4 3d
       -0.020342797 -0.12259501 -0.1698378 0.10391964
0001c0 7a cc d8 3c 80 1e 3b 3e f8 d8 82 3e 81 aa a0 bd
       0.02646469 0.18273354 0.2555616 -0.07845021
0001d0 e6 d2 51 be 63 7d 1b 3e f5 09 42 be fa 8c f4 3d
       -0.20490608 0.1518455 -0.18949111 0.11940952
0001e0 e3 df 0d 3e da 11 7c be e7 55 5f bd c2 1c 40 be
       0.13854937 -0.24616185 -0.054525282 -0.1876097
0001f0 e9 d3 f1 bd 1f c6 0f 3e 14 c0 e8 be 5e 11 e7 bd
       -0.11807997 0.14040421 -0.45459044 -0.112826094
000200 2a 7b 5a 3e d1 ae e8 bd 6c bf 2e 3d 2c a4 32 3c
       0.21336046 -0.113614686 0.042663023 0.010903399
000210 15 e9 17 be 32 76 0f 3d b2 4f 3d be 0b 9c 82 3d
       -0.14835007 0.03502483 -0.18487433 0.06377419
000220 2c 6a 58 3e 7d e1 db 3d e1 02 60 3d 57 d5 98 3e
       0.21134251 0.10736368 0.054690246 0.29850265
000230 dd 14 59 be 41 a2 a3 3d 4a 28 43 3e be ea a9 3e
       -0.21199365 0.07989932 0.19058338 0.33186907
000240 27 2d 40 3e 33 74 b9 3c 5b 11 5b be 45 02 d9 3d
       0.18767224 0.022638416 -0.2139334 0.10596136
000250 91 35 a1 be 42 53 78 be 66 a9 85 bd a9 1f 5d bd
       -0.3148618 -0.2425051 -0.06526451 -0.05398527
000260 0d 67 96 bd f7 a9 d6 bd ee db ec bd 6e fc 7f 3e
       -0.07343874 -0.10481637 -0.11565386 0.24998638
000270 09 a1 2d be 2d ae f1 3d 18 2f 9b 3e 5a 9a b6 be
       -0.16955961 0.118007995 0.30309367 -0.35664636
000280 b0 b7 5c be bc de a0 be 09 92 e6 bd a0 a2 c3 3e
       -0.21554446 -0.31419933 -0.11258323 0.3821001
000290 6f 2f 98 be 5c bb 48 3b ee 31 9a be 03 27 98 be
       -0.2972369 0.0030629253 -0.30116218 -0.29717264
0002a0 3d e8 69 be f9 54 ed bd e9 45 1c 3e be 1c b8 be
       -0.22842498 -0.11588473 0.15261044 -0.3595943
0002b0 71 85 0e bc cc 0d b7 be d5 e9 0a be 3e 15 1c bd
       -0.008698807 -0.35752714 -0.13565762 -0.038106196
0002c0 2d b9 cd 3d 3b 2b 81 be 8c 66 5a 3d c0 e4 97 3e
       0.10045085 -0.25228295 0.053320453 0.2966671
0002d0 f4 d5 8a 3b bb 3f 10 3e 5f 86 aa be 4a 04 5b be
       0.004236931 0.14086811 -0.33305642 -0.21388355
0002e0 69 9f 8e be 8a e8 ce be 75 ff c7 bc 1d 2a 35 be
       -0.27855995 -0.40411788 -0.024413804 -0.17691846
0002f0 de 47 5a 3d a8 9b 46 be ae c3 9a 3c 21 e7 ed be
       0.053291194 -0.19395316 0.018892135 -0.464654
000300 8b b6 2a bf 55 00 45 3e 97 d4 b3 bd 80 96 b6 3d
       -0.6668479 0.19238408 -0.08780783 0.08915424
000310 ad 1d 6a 3d 39 27 9d be a0 1f 11 bf 72 1a b4 be
       0.057157207 -0.30693987 -0.5668888 -0.35176426
000320 a4 0d 3c bb 9c c4 ab be 64 c0 20 3e 04 f1 9b bd
       -0.0028694654 -0.3354844 0.15698391 -0.076143295
000330 68 05 75 3e 8c f1 30 3b 2b 11 c2 3e 8f 71 67 3b
       0.23927844 0.0026999442 0.37903723 0.003531549
000340 e9 22 a3 3e 5e aa 13 bf 6f 4c 4c 3d 9a 62 21 3d
       0.31862572 -0.57681835 0.04987758 0.039400674
000350 83 89 8a 3d 28 33 03 bd d5 f8 0d bd 19 83 c0 be
       0.067645095 -0.03203121 -0.034661133 -0.3760002
000360 de 66 c9 3e 03 1b cc 3e 15 27 84 3e 74 02 7a be
       0.39336294 0.39864358 0.25811067 -0.24414998
000370 7e 5e 8d bd d4 0b 37 bd 72 c5 58 be 78 e9 8a be
       -0.069027886 -0.044689015 -0.2116907 -0.27131248
000380 6a f6 f6 bd 9b af 4c bd 72 8c e3 bb 72 78 84 3e
       -0.120587185 -0.049972158 -0.0069442326 0.25873142
000390 fc 2f cb bd 24 bb e7 bd 41 d3 bb be b7 4c 8b be
       -0.09921262 -0.11314991 -0.3668461 -0.27206966
0003a0 c7 d5 eb be 3f ce cc 3e e4 bb 34 3e 09 07 fc be
       -0.46061537 0.40001103 0.176498 -0.49224117
0003b0 a9 ea a3 be 4e b9 50 3e 04 29 5f 3e 4b 99 4a bd
       -0.3201497 0.20383188 0.2179299 -0.049462598
0003c0 90 82 4f be 43 77 7b 3e a3 fb f1 bd 58 06 ee 3d
       -0.2026465 0.24557213 -0.11815574 0.11622304
0003d0 d1 de 35 be 98 22 6c 3e 87 10 08 be 37 b8 2e bf
       -0.17760779 0.23060071 -0.13287555 -0.6824984
0003e0 b9 ed 9a be 08 68 91 be cc 10 69 3d 2a 62 1f bf
       -0.30259493 -0.28399682 0.056900784 -0.6225916
0003f0 dd 29 c8 bd 45 ae b7 be 74 3f 0b be 5b 15 fa 3e
       -0.0977361 -0.35875145 -0.13598424 0.48844418

encoder.enc3.bias f4 [19]
000000 d2 bf 94 bb 33 3c 79 3d 95 64 02 3c cd 0a 87 bb
       -0.0045394683 0.060848426 0.007958551 -0.0041211606
000010 2d d8 7a 3d 5f f7 37 bd 36 4f 97 bd 14 15 19 bc
       0.061241318 -0.044913646 -0.07388155 -0.009343404
000020 6d 62 54 bc 1c 3c 9e 3a 27 f0 fa bc f6 4d 2e 3c
       -0.01296292 0.0012072357 -0.030632092 0.0106387045
000030 09 e9 a9 bc 1d db 19 ba 09 e8 ed 37 71 93 1f b8
       -0.020741003 -0.0005869137 2.8360651e-05 -3.804587e-05
000040 fe 0f ac bc c6 c3 11 b9 ca 79 48 3c
       -0.02100372 -0.00013901209 0.012236068

encoder.enc4.weight f4 [7, 19]
000000 31 68 dc 3e a2 a8 fb 3c 41 f7 4f bc c9 c1 f1 be
       0.43048242 0.030720059 -0.012693227 -0.4721816
000010 22 c7 7b 3e f8 54 9f bd 61 ec e7 3d ee 49 16 bd
       0.24587682 -0.077798784 0.113243826 -0.0366916
000020 6d 51 01 3f a9 99 99 3d 81 0a 86 3e d4 d2 18 bf
       0.5051487 0.075000115 0.2617989 -0.596967
000030 8e f5 49 be 14 10 ed be 89 9f 9c 3e 88 e6 b1 bd
       -0.19722578 -0.4630133 0.30590466 -0.086865485
000040 8d 1c 56 3e ac 7c db be de 96 97 3e c3 72 b6 3e
       0.20909329 -0.42868555 0.2960729 0.3563443
000050 0d 93 d8 be 8e 98 7f 3e 55 a3 8f 3e 4b a6 ab 3d
       -0.4229969 0.24960539 0.280543 0.08381327
000060 55 68 f7 be 2c b0 5e 3c 0d 43 65 3d 54 62 f3 3d
       -0.48321787 0.013591807 0.055972148 0.11883989
000070 25 07 2e bd d0 a9 4e bc 20 3b 87 3e 0d 4e 63 bf
       -0.042487282 -0.012613729 0.26412296 -0.8879097
000080 25 14 f1 bd 35 eb 43 bc dd 6b 45 be f4 de 36 3f
       -0.117714204 -0.011957933 -0.19279428 0.7143395
000090 80 c0 36 bd 9d 4e de 3d 76 a3 5c bd 65 77 3d bc
       -0.044617176 0.10854838 -0.053866826 -0.01156411
0000a0 40 8e 8e be 0d a3 b1 be 5d 76 50 3e a9 7b 13 bf
       -0.27842903 -0.3469471 0.20357652 -0.57610565
0000b0 62 17 2e 3f 56 ce 09 3f df 51 d6 3d a9 5b 9f ba
       0.6800443 0.5383047 0.104648344 -0.0012158054
0000c0 5e b5 93 be e2 da f4 3e b2 d5 16 3e 78 b7 f5 be
       -0.2884931 0.47823244 0.14729956 -0.47991538
0000d0 f8 da ae 3e 43 5b 12 bf f2 1e da bd dc c3 a6 3e
       0.34151435 -0.57170504 -0.106504336 0.32571304
0000e0 fd 80 93 be 1e 42 01 be 34 4f 42 3e d6 aa 7e 3e
       -0.28809348 -0.12622878 0.18975526 0.24869856
0000f0 1c 1b b1 bc 0c 37 49 bd 3d 94 23 3f 7a 81 46 bf
       -0.021619372 -0.049124762 0.6389807 -0.77541316
000100 31 a1 1a 3e 98 22 77 3d d1 4d 21 bf 29 13 bb be
       0.15100552 0.060335726 -0.63009363 -0.36538056
000110 b1 92 04 3e 51 62 a0 3e 78 3e fb 3d 77 58 9e be
       0.12946583 0.3132501 0.12267774 -0.30926868
000120 79 4a 0c be c0 d1 89 3e a5 59 a2 be 4b 71 9b 3e
       -0.13700284 0.2691784 -0.31709018 0.30359873
000130 39 73 c1 3e 0b dd 14 3e 75 0c e7 be ef b7 56 be
       0.3778322 0.14537446 -0.4512669 -0.20968603
000140 07 1a 10 bc d9 e1 7f 3e 2a 06 e9 be d3 ca 19 3f
       -0.008795268 0.24988498 -0.45512515 0.6007511
000150 c8 b6 c4 be 96 ef c9 3e 34 53 c2 3e d4 80 d2 be
       -0.384207 0.39440602 0.37954104 -0.41113913
000160 01 b4 82 bc 65 e8 dc 3e c9 97 40 3d e7 25 29 3f
       -0.015954973 0.43146053 0.047019754 0.6607346
000170 54 54 7e 3e 9b 37 8e 3e b9 a1 9e 3e 35 1e fa 3d
       0.24836856 0.277768 0.3098276 0.12212793
000180 a4 8e 09 bf 3d 3e ef 3d d9 e0 b3 3e fc 57 37 be
       -0.5373328 0.11681793 0.35132483 -0.17904657
000190 9a 43 b0 be 30 4c 81 3c d2 f9 be 3d 22 25 e9 3e
       -0.34426576 0.0157834 0.09324993 0.45536143
0001a0 b7 7e a1 bd b1 ef 0f 3e 5b 72 92 bd b1 66 15 3d
       -0.07885497 0.14056279 -0.07150718 0.036474887
0001b0 0f 74 19 3f 04 5b 95 3e ed 93 7d 3c be b1 7a 3f
       0.59942716 0.29171002 0.015477163 0.97927463
0001c0 97 26 13 be 1d 20 83 3e 70 29 23 bd 5d 87 ac 3e
       -0.1437019 0.25610438 -0.03983444 0.33697024
0001d0 c6 32 ad bd 71 b0 52 3e 91 74 4f 3d 0c f8 9b 3e
       -0.0845695 0.2057512 0.050648276 0.30462682
0001e0 b1 3d ae bd 85 7a 27 bd 33 10 21 be ce 5a 1a 3e
       -0.085078605 -0.040888328 -0.15728836 0.15073702
0001f0 62 3b 89 3e dd 9e cc 3e 59 2f a7 3d e8 4e 9d be
       0.26803118 0.39964953 0.08163328 -0.30724263
000200 94 8f c5 3e 1c 8e 86 be f5 60 c7 3e a8 a2 0c bf
       0.38586104 -0.26280296 0.3894116 -0.54935694
000210 7c b4 84 3e
       0.2591895

encoder.enc4.bias f4 [7]
000000 e9 61 4d bc d4 d4 93 bb 22 a1 a1 bc ed 81 06 bc
       -0.012535551 -0.004511455 -0.019730154 -0.008209688
000010 f0 73 a4 bc 03 f0 93 3c 85 fc 80 bb
       -0.020074815 0.018058782 -0.0039363527

decoder.dec1.weight f4 [19, 7]
000000 ff be 82 3f 79 73 43 bf 1e 83 16 3f be f1 cd be
       1.0214537 -0.7634807 0.5879382 -0.40223497
000010 04 fc 5e be c1 9b 5f 3f 80 ce 06 bf 87 8e 28 3f
       -0.21775824 0.87347037 -0.52658844 0.6584248
000020 15 39 69 bf f6 98 0b 3e 07 17 c6 bd 83 95 27 3f
       -0.91102725 0.13632569 -0.09672361 0.6546251
000030 5f 6c 61 bd 9b 48 9b bf c0 83 47 3e 8f 59 5a 3f
       -0.05503499 -1.2131532 0.19483852 0.85292906
000040 67 b0 4a 3f 2c e1 24 3f 5f 3c c9 3e 0b 36 a8 3c
       0.7917542 0.64406085 0.39303872 0.020533582
000050 f9 5b 8b bf 0d 69 21 bf d9 95 b9 3d 92 b3 13 3f
       -1.0887443 -0.6305092 0.09061784 0.5769588
000060 ac 4d 44 bf 61 0e ea 3e 9e e9 e2 be c4 50 a3 be
       -0.7668102 0.45714095 -0.4431886 -0.31897557
000070 e4 71 24 3f 7f 53 4b 3e 23 e5 05 3e 62 58 04 be
       0.64236283 0.1985607 0.1307569 -0.1292434
000080 24 78 98 3e 9c b8 5e 3f 31 b7 6d 3f 66 ec 96 3c
       0.2977916 0.8700044 0.9285765 0.01842327
000090 11 be 14 bf fd 41 69 3e 65 e5 4c bf 3a ee 3c 3f
       -0.5810252 0.22779079 -0.8003753 0.73801005
0000a0 cf cf a2 be 4b 82 a5 3f c1 c9 9f bd e9 fd 3a 3f
       -0.3179917 1.2930387 -0.078021534 0.73043686
0000b0 50 24 05 bf cb ae 62 bd 5e 28 56 bf 81 61 ae 3e
       -0.52008533 -0.055342477 -0.83655345 0.34058765
0000c0 9e bd 02 bf da a6 9c 3d 5d 04 24 3f 9d b4 ed 3e
       -0.5107058 0.07649012 0.6406916 0.4642686
0000d0 af 1b 3e 3e 25 57 e5 3e 57 7b f6 be 6a ec a7 be
       0.18565248 0.44793049 -0.48140976 -0.32797557
0000e0 e3 4f 60 3e b3 9c 07 3f 93 57 ee 3e 47 6c 00 3f
       0.21905474 0.5297348 0.4655119 0.5016522
0000f0 b6 fa 30 3f 17 87 9f be 50 b8 fc be a1 93 79 be
       0.69132555 -0.31157753 -0.4935937 -0.24372722
000100 af 46 74 3d 39 f6 55 bf d0 d3 74 3f de 62 21 bf
       0.05963772 -0.8357883 0.956357 -0.63041484
000110 08 8d 0d 3f 44 66 e5 be 02 2a 65 bf 13 16 87 3e
       0.5529332 -0.44804585 -0.89517224 0.2638403
000120 b0 90 c3 3c 0d 07 11 bf de 04 db bd 6e 85 66 3f
       0.023872703 -0.56651384 -0.10694288 0.9004735
000130 d8 db 1a bf fd 18 7a bf 28 7f 52 bf b5 a4 69 3d
       -0.60491705 -0.9769438 -0.82225275 0.057041842
000140 ff 2c 71 be eb d1 1e bf 14 f4 65 3f 7d 6e 55 be
       -0.23552321 -0.6203906 0.8982556 -0.20842929
000150 5f 25 72 bd 11 03 22 3f 3d 0a 78 3e 2c eb 24 3f
       -0.05911767 0.6328593 0.24222656 0.64421344
000160 ff db 73 be 56 46 9d 3e 8b 52 15 3f c2 78 28 bf
       -0.2381439 0.30717725 0.58329076 -0.6580926
000170 44 c2 3c be 11 01 f0 3e 8f 22 04 bf e9 5c ca be
       -0.18433481 0.46875814 -0.5161523 -0.3952401
000180 9d 9d 25 bf 73 b6 5d bf 77 f3 97 3d 5e e8 d6 be
       -0.64693624 -0.8660652 0.07419484 -0.41974157
000190 f0 12 7a be 50 1c 2f 3f 54 9d ba bf 4c ee 57 bc
       -0.24421287 0.68402576 -1.4579263 -0.013179373
0001a0 1e 0f 21 3f 3d fd 25 bf 93 fb d1 3e 50 9b 94 3e
       0.6291369 -0.64839536 0.41012248 0.29024744
0001b0 a7 ab 06 3f 5c ee 0c bf 20 7f 95 bc 3f 43 1b 3f
       0.5260567 -0.5505121 -0.018249094 0.60649484
0001c0 2b b3 8a bf c3 83 89 bf 52 eb 16 3f eb 0d 45 3e
       -1.0835928 -1.0743335 0.5895282 0.1924359
0001d0 39 2d 41 3e bd fc 22 3e bc c8 e8 be 08 2e 17 3f
       0.18864907 0.15916725 -0.45465648 0.59054613
0001e0 14 cc 93 bd 26 64 29 3f b2 9b a3 3d 24 25 e6 be
       -0.07216659 0.6616844 0.07988681 -0.4495021
0001f0 51 3d 8f bd 00 54 97 3f bb c9 68 3f a4 93 7f be
       -0.06994117 1.182251 0.90932816 -0.24958664
000200 5a 96 11 be 82 66 4f bf 63 c4 2c 3f 26 c4 07 be
       -0.14217511 -0.8101579 0.6748716 -0.13258418
000210 f1 7e 84 be
       -0.258781

decoder.dec1.bias f4 [19]
000000 d9 05 4a 3b 7d 18 ea 3c fb 59 be 3d ae 45 4d 3c
       0.003082624 0.02857613 0.09294506 0.01252882
000010 72 fb 80 3d 22 c1 d8 3c e2 b0 2f 3d fa ad 86 3d
       0.062979594 0.02645928 0.042893298 0.06576152
000020 fd 2d 10 bd cf 41 87 3d 6a ef 26 bd c0 d8 bc 3c
       -0.035200108 0.06604349 -0.040755667 0.023052573
000030 5d 96 d8 bc 76 ba 97 bb 2d bc 0e 3e 20 bd 91 3c
       -0.026438886 -0.004630382 0.13938971 0.017790377
000040 03 28 5b 3c 0c 59 b2 3d d1 34 bb 3c
       0.013376239 0.087083906 0.022852333

decoder.dec2.weight f4 [39, 19]
000000 67 13 38 3f 3c 87 14 3f 88 44 2d 3e 0c 71 06 be
       0.71904606 0.5801885 0.16920674 -0.13129061
000010 41 ce 9f 3c 14 20 7a be a1 c8 09 3e 20 36 ec 3d
       0.01950753 -0.244263 0.1345544 0.11533761
000020 72 6f 20 be a8 a6 dd be 43 d0 d5 3e ff d5 cb 3e
       -0.15667513 -0.4329121 0.41760454 0.39811704
000030 91 b5 fd be 7b 6d 85 3e 51 74 27 bc b9 ec 07 bf
       -0.49552587 0.2606009 -0.010220603 -0.53095585
000040 51 6c de be c8 a0 59 be 43 fc 05 3f 57 eb e8 be
       -0.43442014 -0.2125274 0.52338046 -0.4549205
000050 f7 fb 8e bf c9 ce ff bd 9d f4 c5 3e dc 9c db 3d
       -1.1170644 -0.12490613 0.38663188 0.10723278
000060 8a e2 8e 3f 75 e9 b3 3c 44 2d 48 be 9f 35 d0 be
       1.1162884 0.021961907 -0.19548517 -0.4066591
000070 56 12 14 bd 4b 60 33 be 0e a6 86 3e 69 3b 03 3e
       -0.0361503 -0.17517202 0.26298565 0.12815632
000080 1f c2 eb 3c e5 12 c9 3d 13 93 e2 3e 55 fd 7f 3e
       0.028779088 0.09818057 0.44252834 0.24998982
000090 9f b9 c8 3e 67 b1 2c bf 25 93 0b 3f 78 8b 03 bf
       0.39204118 -0.67458194 0.545214 -0.5138469
0000a0 7a ff ea be 68 e9 8e 3d 48 78 a3 3d 39 0b 84 3f
       -0.45898038 0.069781125 0.07981926 1.0315925
0000b0 c9 e7 a1 3d 50 e3 19 bf 5e 25 46 3e f7 c0 94 be
       0.07905538 -0.60112476 0.19350192 -0.2905347
0000c0 3d bd 44 bf 3c 68 8d bc 61 46 d5 3e a4 1c e4 3e
       -0.76851255 -0.017261617 0.41655257 0.445531
0000d0 aa 49 b7 3e e3 28 0d 3f ac 98 85 be eb 90 f9 3e
       0.3579839 0.55140513 -0.26093042 0.48743376
0000e0 79 21 ab 3e 8f 7f 6d be 3e a6 61 be f8 d2 0f 3f
       0.33423975 -0.23193191 -0.22036073 0.5618129
0000f0 04 0f 99 3e 27 d7 86 be ac 90 9d 3e c5 24 1d 3f
       0.2989427 -0.26336023 0.30774438 0.6138423
000100 f3 3b 1b 3e d5 58 1c 3e 29 90 4c 3e 73 d8 42 3e
       0.15159588 0.15268262 0.19976868 0.19027881
000110 26 b8 1e 3e e0 46 0c bf a2 4e 2e 3d 16 38 a7 3d
       0.15499935 -0.54795647 0.04255546 0.081649944
000120 a2 b2 0e 3f 4f 73 3a 3e 5f 70 0f bf 84 85 a4 bd
       0.5574132 0.18208049 -0.5603084 -0.080332786
000130 fe 90 63 bd a1 68 f4 3e 28 ec 97 3e ae ce 17 bd
       -0.055558197 0.47736076 0.2967236 -0.03706234
000140 f0 ca 3a bd 32 1f 0c bf 01 f5 88 be fc 6f e5 bd
       -0.045603693 -0.547351 -0.26749423 -0.11203
000150 b7 24 e2 bc 45 41 30 be 67 c8 57 3e d6 f9 94 3e
       -0.027605398 -0.17212398 0.21072541 0.2909686
000160 af a3 4c be 64 a9 ad 3d 64 ed bb be 1e f3 ad bd
       -0.19984315 0.08479574 -0.36704552 -0.084936365
000170 e2 40 b4 bd f1 37 a1 3e 0f b9 18 3e 6b 1f 43 bf
       -0.08801438 0.31487992 0.14914344 -0.76219815
000180 66 3e 8b 3e cd 38 2c bd be f2 f4 bd fd 81 89 3e
       0.27196044 -0.042046357 -0.11960362 0.26856986
000190 24 0a 28 3f 2d 78 82 3e 5b c8 67 3f 87 2b f7 be
       0.65640473 0.25482312 0.90540093 -0.48275396
0001a0 36 4c ff 3d 33 e7 94 be e3 89 2a 3e ef 2a d7 be
       0.12465708 -0.2908264 0.16654162 -0.42024943
0001b0 94 4e 0a 3e 43 8c 6c 3c 02 ed 59 bd 01 b7 05 3f
       0.13506538 0.014437738 -0.053204544 0.52232367
0001c0 fc d0 f9 3e 2f ea 31 bd 7e 2c b4 be f8 f6 23 3f
       0.48792255 -0.043436226 -0.35190195 0.6404872
0001d0 69 70 fc 3d 94 4d 94 3c 34 d5 b9 3c 28 67 80 3d
       0.12326128 0.018103398 0.022684671 0.062696755
0001e0 af 2c 0d bf a2 40 75 3d cf 9d aa ba 48 02 e3 be
       -0.55146307 0.05987609 -0.0013017001 -0.44337678
0001f0 f3 21 80 3e c7 e3 f6 bd 33 d4 10 bf 1e 2c 61 3e
       0.250259 -0.12055164 -0.5657379 0.21989486
000200 66 0b be bd ee 43 85 be 34 fd 41 be 44 b3 15 3f
       -0.09279518 -0.2602839 -0.18944246 0.5847666
000210 ad bf 79 be 46 34 67 bc 15 73 af 3e a4 34 ef bd
       -0.24389525 -0.014111584 0.34267488 -0.11679962
000220 83 13 9c 3d 2f c7 0c bd 44 af 8d bd dd 45 99 be
       0.07620909 -0.034369644 -0.06918195 -0.29936114
000230 a1 07 29 bd d3 3e b8 3e c3 7f 94 3e af 7b 8b 3d
       -0.04126704 0.3598543 0.29003724 0.068107
000240 a7 4c d6 3d 25 b5 65 be f6 78 83 be ef bb f0 3d
       0.10463839 -0.22432382 -0.25678223 0.117545955
000250 8c 83 21 be 21 8b 16 3f 92 0d 96 be cb ed 17 3e
       -0.15772837 0.58806044 -0.29307228 0.14836805
000260 aa 2e ab be 35 de 8a be fc 34 79 be 10 bf 62 be
       -0.3343404 -0.27122656 -0.24336618 -0.22143197
000270 d4 73 12 3d e7 7e d7 3e 03 0f 96 be ab 1d fa 3e
       0.035754994 0.42089006 -0.29308328 0.4885076
000280 d8 ad fa bd bc ef bb be b9 f3 d2 be df 60 af be
       -0.12240189 -0.3670634 -0.4120157 -0.34253594
000290 ac 88 f1 be 4f 36 0c 3e 0c a6 e1 3e 58 a2 0a 3f
       -0.47174585 0.13692592 0.44071996 0.54153967
0002a0 f4 ec a6 3e 8e a8 a3 3e 06 c0 92 be 71 8d 9c be
       0.32602656 0.31964535 -0.28662127 -0.3057666
0002b0 4a 73 b3 bd 5f 51 2b 3f 80 a2 80 3e a5 7b 9e be
       -0.08762224 0.6692104 0.25123978 -0.30953708
0002c0 1c 7a 4b bd 4c 25 52 be bb ba 94 3d 52 6a c3 bd
       -0.049677 -0.2052204 0.072621785 -0.09541763
0002d0 c4 de 88 3e 8b cc 12 3e bc 3a 35 3c cb 8d a0 be
       0.26732457 0.1433584 0.011061367 -0.3135818
0002e0 31 ba 4e 3e d5 b3 a3 be 0c ab a0 be c3 4a 8e bd
       0.20188214 -0.31973138 -0.31380498 -0.069478534
0002f0 cb 79 71 3d f4 b2 ad bd 9e 2d 35 3e 4b 65 7c be
       0.05895404 -0.08481398 0.17693183 -0.24648015
000300 9e 77 16 be 27 a9 c9 3d 72 a6 e3 be da af e9 be
       -0.14694068 0.098467164 -0.44462925 -0.45641977
000310 72 7a f8 be bf 6a 96 bd ba ae 38 bd 34 a3 cf 3e
       -0.48530918 -0.07344579 -0.045088507 0.40554202
000320 49 92 19 3f 6c 16 cc 3e 99 75 8d be 90 49 fa bd
       0.5998884 0.39860857 -0.27628782 -0.12221062
000330 67 d5 1f bf ad f3 3e bf 93 41 c4 bd ac 70 79 3d
       -0.62435 -0.7459057 -0.0958282 0.060898468
000340 6f 00 24 3e be 92 b7 be eb ec 1f be f1 13 91 3d
       0.1601579 -0.35854143 -0.15617721 0.07083882
000350 10 c1 38 bf 04 dd 7d 3f b3 ec 86 be c8 3c a3 be
       -0.7216959 0.9916537 -0.26352462 -0.3188231
000360 39 8f f5 be 51 3e 9c 3e b5 27 71 bd 83 2a 77 be
       -0.47960833 0.30516294 -0.05887576 -0.2413731
000370 5c 63 17 bf 3c 23 fe 3e 07 f9 18 3b 9d 14 22 3f
       -0.59135985 0.49636257 0.0023341791 0.63312703
000380 78 51 28 be ac 9f a5 be f6 b9 0d be b8 fc f0 3e
       -0.16437328 -0.32348382 -0.1384047 0.4706781
000390 2d e2 50 3e 01 76 6d 3e 9d a7 75 be 4b 59 4d bd
       0.20398779 0.23189546 -0.2398972 -0.050133985
0003a0 ea 9c c9 be 89 a0 f9 3d 35 00 4a 3e 8d 27 3e bd
       -0.39377528 0.12188823 0.19726641 -0.046424437
0003b0 a2 78 c3 3e e5 3b 3c 3e 55 21 06 3e ee b1 fa bd
       0.38177973 0.18382223 0.13098653 -0.12240969
0003c0 bd 19 81 3d 25 b6 f1 bd 7d c7 e8 be 10 b1 15 bf
       0.06303737 -0.118023194 -0.45464697 -0.584733
0003d0 73 fc 95 3e 70 ff 3b 3f 38 74 f9 3e e5 b0 ac 3e
       0.29294166 0.7343664 0.4872148 0.3372871
0003e0 7a b5 e5 be b6 0d 39 be d4 75 1e be 8a b9 70 be
       -0.44865018 -0.18071637 -0.15474635 -0.23508278
0003f0 19 97 c6 be 3a 6a 8c bd 3d 17 b8 3d 71 e9 0e 3e
       -0.38787153 -0.068561986 0.08988807 0.13956238

decoder.dec2.bias f4 [39]
000000 03 2a 6a bc ba fc 61 3d 8b e6 fe 3c fa c1 82 3c
       -0.014292243 0.05517266 0.03111579 0.015961636
000010 66 48 e7 bc 33 a7 68 bd e0 e6 16 3d 05 70 4b 3d
       -0.028232764 -0.05680008 0.036841273 0.049667377
000020 f5 c5 38 bd 0f bc 15 3c 91 32 b6 3c 84 f4 52 3c
       -0.04511066 0.009139075 0.022240909 0.01287568
000030 4f c0 4f 3d e3 6f 9c 3d 3c 67 bf bc ea bb 12 3e
       0.05072051 0.07638528 -0.023364656 0.14329496
000040 3b f8 f9 bc 88 26 3c 3e 5e 19 08 3e 42 af 89 3d
       -0.030513873 0.18374074 0.13290927 0.06722881
000050 61 3c 8a 3c 71 24 7e 3d f2 f7 84 bd c2 b8 ac ba
       0.016874494 0.062046472 -0.06492604 -0.0013177621
000060 96 19 f3 bb 9d 78 56 3e e2 78 ac bb aa c4 99 3b
       -0.0074188216 0.20944448 -0.005263434 0.0046926336
000070 8a 39 e7 3d 22 66 40 3d 79 79 dd bb 40 c2 8e 3d
       0.112902716 0.0469724 -0.0067588654 0.06970644
000080 64 69 43 3d f4 32 81 bb 74 1a 7c ba 6a c2 a2 bd
       0.04770793 -0.0039428417 -0.0009616979 -0.07947238
000090 ed 54 25 3c 12 7b 16 3d 9b 86 2a 3d
       0.010091049 0.036738463 0.041632276

decoder.dec3.weight f4 [58, 39]
000000 1a cf df be ee 11 98 3e 92 ba c0 3d ce c1 c0 3e
       -0.43712693 0.2970118 0.094105855 0.3764786
000010 a5 c7 b5 3e a4 ed 1d be e5 ed 17 3d fb f7 9c be
       0.3550388 -0.15422684 0.03709211 -0.30657944
000020 85 a9 f7 bc 4a 7f bf 3c 09 b2 9b 3d 47 91 71 3c
       -0.0302322 0.023376126 0.07602317 0.0147441095
000030 23 8d 47 be ce 4b 92 be 74 f0 ef 3c e2 e6 4d bf
       -0.19487433 -0.2857346 0.029289462 -0.80430424
000040 78 a5 1f be 41 55 b2 3e 07 ce da bd 2b 3f 19 3e
       -0.15590465 0.3483067 -0.10683828 0.14965503
000050 04 c6 9f 3e 1c 0b 0c be b6 22 52 bf ee 63 a8 be
       0.3120576 -0.13676113 -0.82084215 -0.3288874
000060 38 84 d0 be b9 d9 4f be 60 1b 8d 3d 28 ef d5 3e
       -0.40725875 -0.20297898 0.06889987 0.41784024
000070 0f af 04 bd 33 2d d7 bb 04 b3 0c 3f 73 40 f2 3d
       -0.03239351 -0.0065666675 0.54960656 0.11828699
000080 6c 5d cd be d8 a8 e2 3d e1 99 fe 3e 31 f3 69 be
       -0.40110338 0.11067361 0.49726775 -0.22846676
000090 68 8f 80 be 71 35 a9 be 20 fa 25 bd 78 10 20 3e
       -0.2510941 -0.33048585 -0.04052174 0.15631282
0000a0 bd 9f 9b 3e b0 95 22 be dc 3d 53 be f5 9f 15 bd
       0.30395308 -0.15877414 -0.20629066 -0.0365295
0000b0 66 3b 47 3e 8c 0f 57 bd de 3d 68 3e ae 80 ad 3d
       0.19456252 -0.05250506 0.2267985 0.08471809
0000c0 54 30 11 be a8 6d 1a bc 1f 39 20 bf ed 8c 1d 3e
       -0.14178592 -0.009425558 -0.6258716 0.1538579
0000d0 2f 42 30 3e 91 75 e4 bc 1b 95 92 be 62 a1 34 be
       0.17212747 -0.027888091 -0.28629383 -0.17639688
0000e0 47 41 b8 3e 93 fb 20 be 3b ed 34 3e e8 fc 8e 3c
       0.35987303 -0.15720968 0.17668621 0.01745458
0000f0 89 ae dc be c6 45 f2 3e ff f3 aa 3d f4 3b 5e bd
       -0.4310191 0.47318858 0.0834732 -0.054256395
000100 fb f3 31 3e 59 4c 3b 3e 83 5c ba 3e 40 61 26 3e
       0.17378227 0.18290843 0.36398706 0.16248035
000110 62 49 a6 bd 5d 65 69 3c c1 b6 c4 3d 09 7f b8 be
       -0.081194654 0.014245358 0.0960517 -0.3603442
000120 ea 62 87 3e 34 0f c6 3e c3 ec cd bd 55 4d 47 bd
       0.26442653 0.38683474 -0.10054924 -0.048657734
000130 64 bd 9d be 1d 2d 39 3e fb 72 39 bd 20 d5 b1 bd
       -0.30808556 0.18083616 -0.04527567 -0.086832285
000140 fd 39 73 3d 55 f5 c7 bd 59 27 8a 3e 8a f0 eb 3e
       0.059381474 -0.0976359 0.26983145 0.46081954
000150 01 7e 9e 3e 59 a7 a7 3e e7 0a 2b be 6e 2c de 3e
       0.30955508 0.32744864 -0.16703378 0.43393272
000160 45 43 7c be 20 e1 03 be bb b3 3d be d3 cf 05 3f
       -0.24635036 -0.12878847 -0.18525593 0.5227024
000170 dd 64 b6 bd 33 a3 ba be 0f 2b 13 be a6 04 0a 3f
       -0.08905957 -0.36452636 -0.14371894 0.5391334
000180 b9 57 d1 be 1d 20 10 be da ac 5d 3e d3 52 ee be
       -0.4088724 -0.1407475 0.21647969 -0.46547565
000190 33 02 b2 be 4f 39 6a 3e d4 ee e2 bd 6f 3e c7 3e
       -0.34767303 0.22873424 -0.11080709 0.3891482
0001a0 f0 d0 38 3e 7c 3f 16 bf 03 43 25 bd 3c ee 6f be
       0.18048453 -0.5869062 -0.04034711 -0.23430723
0001b0 9c 77 bd be 5d b6 34 3e 0f d4 b3 be dc 41 52 bd
       -0.37005317 0.17647691 -0.35122725 -0.05133234
0001c0 a6 8a 85 3e dc b4 73 3d 7b 11 ba 3e 98 80 94 bd
       0.26082343 0.059498653 0.36341462 -0.0725109
0001d0 6b 5c 12 be 57 7b b9 3e 6e 35 12 be cb 22 29 3e
       -0.14293067 0.36226913 -0.14278194 0.16517179
0001e0 63 c2 75 3e 0c 3b a0 3e ff 55 d3 bd 5f 99 98 3e
       0.23999934 0.3129505 -0.10319137 0.29804513
0001f0 80 e1 8c be c0 65 43 3e 12 b4 86 bd c8 1a 8b 3e
       -0.27515793 0.19081783 -0.065773144 0.2716887
000200 6b 85 a3 be 81 80 8d be 55 ec f1 3c 21 1a c5 be
       -0.31937727 -0.27637103 0.029531637 -0.38496497
000210 e0 df 1a 3e fa fe 4d 3e a1 58 52 be d8 0a 7e 3c
       0.15124464 0.20116797 -0.20541622 0.015505515
000220 d7 40 d5 3e 90 4c 2b 3e 6a 7a ee 3e 27 00 ed be
       0.4165103 0.16728425 0.4657777 -0.4628918
000230 7e c1 a4 3e 63 ce a0 3b 5c 4b 99 3f da 27 a1 be
       0.32178873 0.0049074157 1.1976123 -0.31475717
000240 e4 b1 31 be ff 51 5c 3e 3e 08 4e 3e 70 61 9e 3c
       -0.17353016 0.21515654 0.20120332 0.019333571
000250 da 3d 73 3e 6f 20 d9 3e df f8 9b be c6 f9 39 bd
       0.23754063 0.42407557 -0.3046331 -0.045404218
000260 0b ea 58 be d5 b7 44 be df 23 2c be 42 a8 97 be
       -0.2118303 -0.19210751 -0.16810559 -0.29620558
000270 f0 87 57 be 76 d6 1b 3d 91 4f 4f be d6 42 91 bc
       -0.2104795 0.038046323 -0.20245196 -0.017732065
000280 bc f4 27 be 1c 22 59 3c 7c 47 44 be 02 82 e3 bc
       -0.16401953 0.013252761 -0.19167894 -0.027771953
000290 4c 5d 18 be bb c7 21 bd d6 a1 2a be 08 24 b8 3d
       -0.1487934 -0.03949712 -0.16663298 0.089912474
0002a0 2f 34 16 3e be ff cd 3b 16 24 98 3e e2 85 ed 3d
       0.14668344 0.0062865904 0.2971503 0.11597802
0002b0 ca 6b 36 3e 9b 63 4c 3e 31 6b 6f be b2 37 89 be
       0.17814556 0.19959871 -0.23380734 -0.26800305
0002c0 ec 4f a7 be 35 ff bd 3e bc 51 09 be e7 81 99 3e
       -0.32678163 0.3710877 -0.13410085 0.2998192
0002d0 e9 27 9a 3d 49 f4 8b be fb 64 50 be 39 41 24 3e
       0.075271435 -0.27334812 -0.20351021 0.16040505
0002e0 d6 3f 38 3e 89 bd bb be 80 db 59 3e dd 92 4c be
       0.17993101 -0.3666804 0.21275139 -0.19977899
0002f0 61 67 1f be 93 6f 84 be a1 8d 7f bd e4 0c c2 be
       -0.1556678 -0.25866374 -0.062390927 -0.3790046
000300 a4 08 c1 be 54 e3 9c be 63 ce b1 3e a8 4a 98 bd
       -0.37701905 -0.30642188 0.34727773 -0.074361145
000310 b0 4a 83 be bd 24 7e 3e 85 98 8e bd b9 61 84 3e
       -0.2564292 0.24818702 -0.069626845 0.25855806
000320 42 71 8d 3b da cf 4c 3e 1f d3 8e bd 7a 31 5a 3e
       0.00431648 0.20001164 -0.06973862 0.21307936
000330 3a 05 13 3e d7 f4 ae 3b 6d 9a ad bd 2a 93 20 be
       0.14357463 0.005339246 -0.0847672 -0.15681139
000340 49 0e db 3d 6e ad bb 3e cd 6d 7e be 1b 5d 2f be
       0.10696084 0.36655754 -0.24846573 -0.1712536
000350 f1 d0 05 bf f5 dc 86 3e a3 13 09 be 2f 4c 1c be
       -0.52271944 0.26340452 -0.13386397 -0.15263437
000360 7d 2a c5 be bb eb 27 3e c1 b5 8e be d1 9f e7 3d
       -0.38508978 0.16398518 -0.27873042 0.113097794
000370 88 5d 07 3f f3 67 1d bd 5f bb 02 3d f2 04 a7 3d
       0.5287709 -0.03842921 0.031916972 0.0815524
000380 34 b3 d1 3e e6 1d 39 be 97 28 a5 bd be 92 36 3f
       0.40957034 -0.18077812 -0.080643825 0.7131766
000390 a9 80 ac 3e 9f 49 2a 3e 20 35 4f be f7 f1 b4 3c
       0.3369191 0.16629647 -0.2023511 0.022088034
0003a0 16 4b 04 3e 19 11 ed 3e 06 8a 8a 3e 1d 1e 80 be
       0.12919268 0.46302107 0.2705843 -0.25022975
0003b0 a6 0e 25 3f 2b c3 95 be 62 e0 bf 3d b8 89 19 3e
       0.64475477 -0.29250464 0.093689695 0.14993942
0003c0 c9 05 47 3e 83 ec 40 3e 06 7f c4 be 66 bf bb 3d
       0.194358 0.18840222 -0.3837816 0.09167366
0003d0 07 1e 89 be 69 ff 67 bd c6 5e 35 be aa 39 0c be
       -0.26780722 -0.056640062 -0.17711934 -0.13693872
0003e0 71 39 a9 3e b5 c1 28 be e4 f1 92 be 5d f0 2d bf
       0.33051637 -0.16480143 -0.28700173 -0.6794489
0003f0 0f 2a b8 bd a1 62 06 be 86 a7 07 3f c2 a5 e0 be
       -0.08992397 -0.13123561 0.52989995 -0.43876463

decoder.dec3.bias f4 [58]
000000 62 fb 0e 3d df dd 70 3d c4 2e 00 bc 61 aa 0f bd
       0.034907706 0.058805343 -0.00782365 -0.035074595
000010 24 e2 f9 3b 9e 98 89 3b 83 99 00 3d e5 dd 99 3d
       0.007625835 0.0041991016 0.0313964 0.07513026
000020 79 39 8b 3c ba fd 20 be 84 1a a0 bd 29 93 0a 3d
       0.016995179 -0.15721789 -0.078175575 0.03383175
000030 be 25 ee bd 27 83 ba 3c f1 25 91 bb 8f e8 fa bc
       -0.116282925 0.022767616 -0.004429572 -0.03062847
000040 a7 41 7b 3d 86 25 8b bd 53 23 bf 3d 61 01 99 bc
       0.061341908 -0.067942664 0.093329094 -0.018677415
000050 3b 39 15 ba cf 7e 90 bd 74 4d 01 3e 58 7f 3a bd
       -0.0005692427 -0.07055437 0.12627202 -0.0455316
000060 fc 90 dc 36 04 ed 8e bd 72 aa c9 3d 62 bb f0 bb
       6.5733893e-06 -0.06978801 0.09846963 -0.0073465565
000070 1f 89 27 3e f8 19 5d 3a 16 31 7b 3d 2b da 38 bd
       0.16360901 0.00084343506 0.06132611 -0.045129936
000080 20 d9 32 3e 3d e7 a3 3c 14 be b8 3c f8 69 df 3d
       0.17465639 0.020007724 0.022551574 0.10908884
000090 85 2a 01 3e e4 1f a1 3d 7e 20 46 3c 60 71 0d 3e
       0.12613876 0.07867411 0.012092708 0.1381278
0000a0 62 3a c9 bb 2c 72 42 3d ab 43 12 3e 90 61 4f 3d
       -0.006140993 0.047472164 0.14283626 0.050630152
0000b0 97 15 44 bd be 2e 11 3d dc 54 83 3d e6 bd b3 3d
       -0.047872152 0.035444967 0.0641267 0.08776455
0000c0 16 35 7a bd ee 2c 66 3c d5 af b1 3d dd 8e ba 3b
       -0.061085783 0.014048798 0.086761154 0.0056933
0000d0 ea 52 ac 3d 9f a9 96 3d bf e0 ee 3d 20 cc 0c bd
       0.08414252 0.073565714 0.11663961 -0.034374356
0000e0 63 a8 0c 3d b5 e1 87 3d
       0.034340274 0.06634847
