IDS_TA/Friday_Models/CADE-m1.0-l0.001.pth (torch, 67994 bytes, 16 tensors)

encoder.enc1.weight f4 [58, 78]
00000000: c175 10bc a219 1a3e 83d2 25be 444b 243e
00000010: 8955 873d 50d3 f6bc e43d 143e 054e c0bd
00000020: 23b3 c43d 666e 383e 4cd3 ec3d 380f 85bd
00000030: 8c22 36be fb7a 883e 8dfc 163e cd13 cc3c
00000040: 554f 57bd 71ca 8f3e 8ec9 b7bd 262e 40be
00000050: 5256 733d 764f 9cbe 2c1a 623d 5ecd 7dbc
00000060: 8879 acbd 9f70 fbbb c9d5 77be 291e 2a3f
00000070: 8f4d 373e 5f1d 6fbe 3a1e 06bf b7b4 bc3d
00000080: e5ed 323e 020d 683e e160 63be 32ff 24be
00000090: a7fa 613e 67d9 81be 4113 813e 8db3 2b3e
000000a0: 26e4 3d3e 9f79 ebbd 2c78 2ebe ad6a c93e
000000b0: c6ba 1c3e 3829 c1bd ee89 2c3e 434d 223e
000000c0: bc01 ff3b d4eb e2ba c702 073b 79f1 aabe
000000d0: 88fa 063d 473b 3c3d affe 41be dff1 903c
000000e0: 681a b9be acca f2be be98 64be bed4 d03d
000000f0: cd06 0bbe 1293 32be 0efc 123e 8536 a6be
00000100: 122b b8bd 2d88 3e3d 70a3 6a3d 007b 6ebd
00000110: 401a 473e 1357 f03c 9388 31be 8ef1 adbe
00000120: c265 c93d 50c5 733d 79e9 29be 6270 543e
00000130: 1fce 8bbe a824 c83c 16bf b7ba 9313 853e
00000140: ba27 2cbe 3cd2 983e 90d5 563e a59f 393e
00000150: b559 32be 5d93 1bbc 27c3 40be 78cc 6b3e
00000160: 6614 003e ca07 69bd 0805 60be c44d 6dbe
00000170: 3fce 7a3c de65 913d 56c9 8ebd dd25 94bc
00000180: 22fb dc3d b4a5 6bbe a477 07be 0ca3 98bd
00000190: d6b6 0ebe f536 8bbd f607 abbb a5c4 78be
000001a0: 7428 3e3e f747 543e 6560 d73d 1a46 953e
000001b0: 025e 513e b5dc a33d 8d41 423d 474b 703e
000001c0: 3071 5fbe 49ed 3fbd aedf a1bc 26a8 513d
000001d0: 706f cbbc 6046 3ebd a2bb 763d a4bf 273e
000001e0: 005c 00bd 8c12 013e 8a4f 1ebd 95db 373e
000001f0: 00ba bd3d 9f53 f53d a9c5 bebc 463e 563e
00000200: 76ce 163d aaea 28be 90cc 81be 5036 823d
00000210: 6710 79be b58d a83d d798 11be ef97 883d
00000220: 2917 df3b b8e3 36be bac0 a1bd 6bb3 ed3c
00000230: b17e 2fbe 5c63 75be 7797 ab3c 012f 04be
00000240: 8eb3 4d3d 8829 f7bc 181e 83bc 93c2 99bd
00000250: dee3 5bbb a962 3d3e 913a a4bd 062a 5cbb
00000260: 250b 0d3e cc90 0f3d 289b c0bd a2b4 a4be
00000270: 50ad 9abd 5766 953e e87a d5bd 73c4 783e
00000280: 53e1 c5bd 544d 8bbc 801d c53d 253b 8dbd
00000290: e0c3 6b3e aaff 9b3e af5c 4abe 8ac6 0e3d
000002a0: 93df 7c3d f43b 97bd 2a47 9bbd 4c44 9f3d
000002b0: 1802 78be e012 6d3e 2222 0f3e 50a1 c13d
000002c0: 3314 7c3d 37b7 dfbd e8b0 05be 86e0 11be
000002d0: f911 693d 76c8 47be 0d3b 0e3e e1b1 ab3d
000002e0: 8f0f 853d 6153 223e 3113 5bbd a57f 413e
000002f0: 63e6 92bb 88b7 9bbb 2201 8abe 954b aa3b
00000300: 07e9 48be 9895 9bbd db30 a7be 5bbe 07be
00000310: 09a0 083e 9618 20be 3249 1d3e 5eed 023d
00000320: 7c48 08be b799 093e 2f9e e3bd 2ca1 0bbe
00000330: 583e c23d 3252 72be 4ffb 393e 9382 d43e
00000340: e3cd 0ebe 040d 8ebe d7e2 883d c1f8 4f3d
00000350: 0e80 36be 270b 2d3e f1d3 2d3e ba72 57be
00000360: 4718 92bb 5f37 d63d ecf1 663d 2b3a 913c
00000370: e0c7 9b3d 91ba 983e ae57 e2bd 717b f7bd
00000380: b0b1 7e3d e3d5 63be fff2 afbc b9ae fcbc
00000390: 3668 863c e5d5 a53c 2370 05bd a35f 833e
000003a0: dcc8 6b3e 6163 14bd 20f3 a2be 6856 16be
000003b0: c699 ccbd eb31 223e 61e2 c0bd 3954 fdbc
000003c0: 7f64 8cbc eb64 7dbe e6b9 773d c8d3 ccbc
000003d0: 71f1 f8bb 6fdd 053c 0d63 263e 19bc c23e
000003e0: 5c55 ec3e 4a7e cdbe e069 78be 9982 a2be
000003f0: 45a7 093e c684 c23e acbf d83b cb93 0cbd
-0.008817137 0.1504884 -0.16193585 0.16044337 0.066081114 -0.030130059 0.14476734 -0.09389881
0.0960448 0.18010864 0.11563739 -0.06497043 -0.17786616 0.26656327 0.14744778 0.024911785
-0.05256589 0.28084138 -0.089739904 -0.18767604 0.059408493 -0.30529374 0.05520074 -0.015490858
-0.08421618 -0.0076733376 -0.24202646 0.6645227 0.1790068 -0.23351048 -0.5238987 0.09214156
0.17473562 0.22661212 -0.22204925 -0.16112974 0.22068273 -0.25361177 0.25210002 0.16767712
0.18544063 -0.11497807 -0.1703803 0.393392 0.15305623 -0.0943169 0.16849491 0.15849786
0.007782189 -0.0017312714 0.002060102 -0.33387354 0.03295377 0.04595497 -0.1894481 0.017693458
-0.3615296 -0.4742025 -0.22323892 0.10196827 -0.13576813 -0.17438915 0.14353964 -0.3246347
-0.0899259 0.046516586 0.057284772 -0.05822277 0.19443607 0.029338395 -0.17337255 -0.33973354
0.09833862 0.059514344 -0.16592969 0.20745996 -0.27305695 0.024431542 -0.001401874 0.25991496
-0.1681203 0.29847896 0.20979905 0.18127306 -0.17417033 -0.009495583 -0.18824445 0.23027217
0.12507781 -0.056892194 -0.2187692 -0.23174196 0.015307962 0.07099508 -0.069719955 -0.01808446
0.10790087 -0.2301243 -0.13229233 -0.07452974 -0.13936934 -0.067975916 -0.005219455 -0.24293764
0.18570119 0.20730577 0.10516433 0.29155046 0.20446017 0.08001081 0.047425795 0.23466216
-0.21820521 -0.046857152 -0.01975998 0.05118575 -0.024833411 -0.046453834 0.060237534 0.16381699
-0.031337738 0.12604731 -0.038650073 0.17954858 0.09263992 0.1197884 -0.023287611 0.20922193
0.03681799 -0.16495767 -0.2535138 0.063580155 -0.24322663 0.082301535 -0.1421846 0.06669604
0.006808181 -0.17860305 -0.07898088 0.029016217 -0.17138173 -0.23963684 0.020946248 -0.12908556
0.050220065 -0.03017117 -0.01600556 -0.07507815 -0.0033552567 0.18494667 -0.08018983 -0.0033594384
0.13773783 0.0350502 -0.09404594 -0.32169062 -0.07552588 0.29179642 -0.10423833 0.2429369
-0.09662118 -0.017004646 0.09624767 -0.068960465 0.23023939 0.30468494 -0.19761918 0.03485731
0.061736654 -0.07384482 -0.07581933 0.077766985 -0.24219549 0.23151731 0.13977864 0.09454596
0.0615427 -0.10923617 -0.13055766 -0.14245805 0.056901906 -0.19510064 0.13889714 0.08383537
0.06497108 0.15852119 -0.0534851 0.18896349 -0.0044830306 -0.0047521032 -0.2695399 0.0051969984
-0.19620143 -0.07596892 -0.3265446 -0.13256209 0.13342299 -0.15634379 0.15359953 0.031964652
-0.133089 0.13437544 -0.111141555 -0.13635701 0.094845474 -0.23664168 0.18162273 0.4150587
-0.13945727 -0.27744305 0.06683891 0.05077434 -0.17822286 0.16898786 0.1697538 -0.21039858
-0.0044584605 0.1045978 0.05638306 0.017727932 0.076064825 0.2982984 -0.1105188 -0.120840915
0.062181175 -0.2224956 -0.021478174 -0.030845033 0.016407114 0.020243594 -0.032577645 0.25658903
0.2302584 -0.036227588 -0.31826115 -0.14681399 -0.099902675 0.15839355 -0.09418178 -0.03092395
-0.017137764 -0.24745528 0.06048002 -0.025003329 -0.0075971414 0.00817047 0.16248722 0.38034132
0.46158874 -0.40135413 -0.24259138 -0.31740263 0.13442715 0.37991923 0.006614646 -0.034320634

encoder.enc1.bias f4 [58]
00000000: ac29 c4bc c604 4abc 77a3 933b 8843 30bd
00000010: 4c41 85bc 570e 633c 0713 c7bc 7e01 693d
00000020: 56a2 503d 2906 f6bc 078a 1dbc 122b 22bd
00000030: b38e 213d 3430 e1bb 0f63 dd3c 1ee1 8e3d
00000040: 96be babc b4a0 a0ba 7659 8ebc f4b3 0f3c
00000050: 7099 b43c 71b4 12bd f12e febc 2c05 c2bc
00000060: ba79 b93b 3f6b 85ba 5d9f 00bd 8691 733d
00000070: dd01 8fbd c3ab b0bc 4718 69bc 8231 00bb
00000080: 038f e73b 8b17 77bc c36e 08bd 3ef2 b03b
00000090: e2d3 5c3c 8c05 c93d 0305 023e 103d 2e3c
000000a0: c1a2 c03c 6604 8cbd f21d e8bc d90f dfbc
000000b0: 2255 a83b 5791 343d 8d1a 84ba 8edc 893b
000000c0: 921a 4fbc 1e6b 5abb 967f fab9 37a3 0a3d
000000d0: a926 063d 2cec 38bd b179 803a 552d a83c
000000e0: 9946 edbc 712a a1bc
-0.023945652 -0.01233024 0.0045055705 -0.043033153 -0.016266488 0.013858399 -0.024301065 0.05688619
0.050936066 -0.030032234 -0.009615428 -0.039591856 0.03944273 -0.0068722013 0.027024774 0.069765314
-0.022795957 -0.0012254925 -0.017376643 0.0087709315 0.022045821 -0.035816614 -0.031028243 -0.023684107
0.005660263 -0.0010179057 -0.03140198 0.059464954 -0.06982777 -0.021566277 -0.01422698 -0.001956076
0.007066609 -0.015081297 -0.033308756 0.0053999713 0.013478251 0.09815511 0.12697224 0.010634676
0.023515107 -0.068367764 -0.028334592 -0.027229236 0.0051371017 0.04408392 -0.0010078714 0.0042072004
-0.012640612 -0.0033328007 -0.00047778775 0.03384706 0.032751713 -0.045147106 0.0009801892 0.020529428
-0.028964328 -0.019673558

encoder.enc2.weight f4 [39, 58]
00000000: 031c 973d 0749 2e3c 23c3 27bc a144 60be
00000010: 0515 1d3e 5565 e8bd 5f13 993f 2fbc 89be
00000020: 94fe 743e 2c04 b23e bcb6 a2be 673d 94be
00000030: 64c0 8abe 27fb 86bd 466c 2a3e 1bf0 8d3d
00000040: 6e10 5b3d 0dc5 8f3d 8e4c 863f 08d4 11be
00000050: 0bc5 a03d 40a2 943b d7a2 c33b c85f 933e
00000060: 11f2 13be d764 64be 92f1 6bbe 10ad 0abe
00000070: 2eff 483d 5f21 56bd 5ca8 2c3e 057c ab3e
00000080: 5d50 15be 1e9a f03d 0cd0 7ebe accd 0fbe
00000090: 6f60 b03e 9f5e a23c bebe 053e ee9b 443e
000000a0: c4c3 abbd df15 bd3d a81c 3d3d 7f00 67be
000000b0: 87d2 4e3e 26e1 f5bd 94c9 c93d 2da6 94be
000000c0: 2347 183e 2cbb 213e d205 0ebe e798 febd
000000d0: d8db e3bd b29e 1e3e 2203 053d 1381 da3d
000000e0: 3e5f 9b3c fbd2 a2bc d1f6 9dbd b54c 9a3e
000000f0: 1f40 7e3d 9995 8bbd c8f6 aabc 7566 98bd
00000100: c551 1b3c b3ae a7be 9e10 2abe 5d3b 013e
00000110: e812 a3bd 64fd 9fbe 8cbe 8b3e e647 4cbe
00000120: b853 3e3e c502 95bd 5272 8abe a4e3 6ebe
00000130: 3895 af3d 3151 88bc c267 283e 67ac 4ebd
00000140: f132 793e 8202 cabd df9b 4b3e 16fa 6bbe
00000150: 531b b8be 681d 86be 89c5 7e3e aeea 203e
00000160: 1c3c fb3d e2c5 babd 6f28 2b3e 226c f2bd
00000170: af8e c9be d29c 903d 9722 3abe d2e6 43be
00000180: 23d9 45be 5a8c 9fbe 9824 5d3d 4053 d6bd
00000190: 99fa ff3d a667 bf3d c86c c73a 1f36 233d
000001a0: dc94 bf3d 0880 21bc 9a9a 37be bdc6 e93d
000001b0: 456f 3fbd 96de 1b3e 11c1 02be 55d1 833e
000001c0: 866f 0bbd 8242 e33d ab8d 143d 0ef2 33be
000001d0: bf91 36be 2310 98be 75f5 b3bd 6f9a c1bd
000001e0: 84e9 db3d c30a b7bd 413e 55be a394 68be
000001f0: 1e7d febd 4190 8e3e 554b aa3e 514f bc3e
00000200: 7e96 47be b27c 353d a587 403e 49e0 87bd
00000210: 33fd 483e ee21 003e d84f 1bbd 6cd3 b6bd
00000220: b754 3e3e 665a 303d 82e0 6f3d 2369 8bbc
00000230: b4e4 f4bd 2e92 4e3e d666 be3e 8d19 bd3c
00000240: 61ac d1bd 50f4 273e e844 103e 8b7f 23be
00000250: 5ca7 a3bd 081a 85be 775e 73be 7440 223e
00000260: f21a 263c 0a0d a0bd 8ee7 f83d 2db5 42bd
00000270: 86bd 173d 2ae1 18be c473 5cbe 6638 fa3d
00000280: b3c8 e5bd f1e0 53be 7137 653c 965e 133e
00000290: 418a 103d cdf9 e73e 1c18 a13c 2aaf 5abe
000002a0: e47a 993e ae81 e93c bf61 94be 9341 893e
000002b0: 8070 ef3c eb82 433e 77d8 83bd ee9a fabe
000002c0: 7ccb 6cbe 19f1 363d 0083 2abe b7c2 fbbc
000002d0: 7b3a ccbd 2f4c c2bd 80b9 d13e 43a3 e1be
000002e0: 6a72 00be 6cda 8bbc fd18 9dbd 7ede bf3d
000002f0: 12cf 413e 5a07 86be 7a87 febd aa36 fcbd
00000300: d190 03be 0c73 a1bd c474 63be e4a1 8bbd
00000310: d16b e4bc 69fb 81bd 4c74 8b3e 97f6 013c
00000320: 0569 603e a5d1 1abb 0de2 143e 5336 9a3d
00000330: dacb 6d3e 8d6a 8dbe 8123 b3bd d793 293e
00000340: e674 c43e e0bf 113e ee30 debd 6381 aebd
00000350: 774c ac3b 9ace f1bd 5028 b63e 358e a8be
00000360: ef58 663d b9a1 363c 7540 b7be a963 b9be
00000370: 03b9 f93d a78c a1be f805 bc3c 169e 64be
00000380: 9068 aa3c 4611 1d3d 6fcc cabe 1e34 e8bd
00000390: f4bf 1c3d 12cf 17be 5212 993e bffe c7bd
000003a0: 66e6 dbbd d6c6 0fbe 7d77 05be ebb5 a13e
000003b0: 3aaa b5be 8b5a 86be 4336 353f bf1c ca3e
000003c0: c922 67be 3c49 883e 03e2 dd3e c995 30be
000003d0: 5092 573e e089 203e 9dd7 8f3e 3dd1 94bd
000003e0: 6727 bb3e e06f a4bd 81b3 263f 1082 5c3c
000003f0: 504f 293e 350b 11be f846 6d3e 39c4 2fbe
0.0737839 0.010637528 -0.010239395 -0.2190118 0.1534005 -0.113474526 1.1959037 -0.26901385
0.23925239 0.34768808 -0.3178004 -0.28953096 -0.27099907 -0.06590872 0.16642866 0.06930562
0.053482465 0.07020006 1.0492113 -0.1424104 0.07850083 0.0045359433 0.0059703398 0.28784013
-0.1444781 -0.22304092 -0.2304137 -0.1354258 0.049071483 -0.05227792 0.16861099 0.33493057
-0.14581437 0.117481455 -0.24884051 -0.14043301 0.34448573 0.01982051 0.13061044 0.19200107
-0.08386949 0.09232687 0.046169907 -0.22558783 0.20197497 -0.12005834 0.09852901 -0.29033032
0.14870887 0.15794057 -0.13869408 -0.124315076 -0.11125916 0.15490225 0.03247369 0.1066915
0.018966313 -0.019875994 -0.07713092 0.30136648 0.06207287 -0.06815643 -0.020869628 -0.07441417
0.009479945 -0.32750472 -0.16607901 0.12620302 -0.079625905 -0.3124801 0.27293813 -0.19949302
0.18586624 -0.07275919 -0.27040344 -0.23329026 0.08573383 -0.016640278 0.1644583 -0.050457384
0.24335839 -0.098637596 0.19883679 -0.23044619 -0.35958347 -0.2619431 0.24880041 0.15714523
0.12267324 -0.091197744 0.16714643 -0.11837031 -0.3936667 0.07061161 -0.18177257 -0.1913102
-0.19321112 -0.31161767 0.053989977 -0.104650974 0.124989696 0.09345941 0.0015214914 0.039846536
0.093545645 -0.009857185 -0.1793007 0.114148594 -0.046736974 0.15221629 -0.12768961 0.25745645
-0.034041904 0.1109667 0.036267918 -0.17572805 -0.17829035 -0.2969981 -0.087870516 -0.09453284
0.10737899 -0.089375995 -0.20824529 -0.2271295 -0.12426208 0.27844432 0.332606 0.36779264
-0.19491002 0.04430837 0.18801744 -0.06634576 0.19627838 0.12512943 -0.03791794 -0.08927044
0.18587004 0.04305496 0.058563717 -0.017017907 -0.11957684 0.2017295 0.37187833 0.023083473
-0.10237957 0.16401792 0.14088786 -0.15966623 -0.07990906 -0.25996423 -0.23766504 0.158449
0.01013826 -0.07814987 0.121535406 -0.047536064 0.037045978 -0.14929643 -0.21528536 0.122177884
-0.11219921 -0.20691277 0.013990269 0.1439155 0.0352881 0.4530777 0.019664817 -0.21355882
0.2997657 0.028504219 -0.28980824 0.26807842 0.029228449 0.1909291 -0.06437772 -0.48946327
-0.23124498 0.044663522 -0.16651535 -0.030732496 -0.09972092 -0.09487187 0.40961838 -0.4406987
-0.12543646 -0.017071925 -0.07670782 0.09368609 0.18926647 -0.26177484 -0.12428184 -0.12315114
-0.12848212 -0.078832716 -0.22212511 -0.068179876 -0.027883442 -0.06346781 0.27237165 0.007932327
0.21915062 -0.0023623493 0.14539357 0.07529893 0.23222294 -0.27620354 -0.08747006 0.16560303
0.38370436 0.14233351 -0.10849176 -0.08520772 0.0052581388 -0.11806984 0.3557763 -0.32920995
0.056237157 0.011146956 -0.35791364 -0.36208847 0.12193491 -0.31552622 0.022952065 -0.2232593
0.020801812 0.03834655 -0.39609095 -0.113380656 0.038269 -0.14825085 0.2989679 -0.09765386
-0.107373044 -0.14040694 -0.13033862 0.31584105 -0.35481435 -0.26240954 0.7078592 0.39475057
-0.22571863 0.26618373 0.43336496 -0.17244639 0.21051908 0.15677595 0.28094187 -0.072664715
0.365535 -0.08029151 0.6511765 0.013458744 0.16534162 -0.14164431 0.23171604 -0.17164697

encoder.enc2.bias f4 [39]
00000000: df1a 70bc 731a fb3d 3128 4a3b ab53 f539
00000010: eb44 473c 1b98 873c 7373 51bb 8a5f 31bb
00000020: 9be2 4bba db70 8d3a 3d7f a3bc 7455 7cba
00000030: 9ee8 a23d 4027 353c 5b1a a1bc 4577 92bc
00000040: b537 333c a3bb a93b 3bf8 513d 7bc8 253d
00000050: f1ff 57bc 8589 e8bc 0acb e4bc f504 7dbd
00000060: 820f 743c a161 9c3c a671 1c3c 3afc db3c
00000070: 6926 ae3c 4d07 d2bb dbc5 9cbc 6c3d 29bc
00000080: 8f76 103b bcb9 a4bc 565a d23b f892 563d
00000090: 3ecc e63d 7968 703b 7cb5 06bc
-0.014654844 0.12260904 0.003084671 0.0004679238 0.012162427 0.016552022 -0.0031959682 -0.0027065002
-0.00077776023 0.001079108 -0.019958133 -0.00096257706 0.079545245 0.011056721 -0.019665888 -0.017879138
0.010938575 0.0051798387 0.05126212 0.040474396 -0.01318358 -0.028385887 -0.027928848 -0.061772306
0.0148962755 0.019089522 0.00954858 0.02685367 0.02125855 -0.0064095617 -0.019137314 -0.0103295855
0.0022043323 -0.020108096 0.0064194603 0.052386254 0.11269425 0.0036683364 -0.00822198

encoder.enc3.weight f4 [19, 39]
00000000: 65f3 8abe 6793 7b3d 51a0 0ebe 9e5d 47be
00000010: 1289 9c3e 3102 42be 590b 94bb e2be 2bbd
00000020: 2a9a 013e 0c5b 3bbe a1cb 973e 1ab0 593e
00000030: fd4e 56bc 6d2f 6b3e f3ad d43d 8734 853e
00000040: a8ea fdbd 726d cdbe 6f2c 463e 7180 02bf
00000050: 32a5 93be 6227 87be 4dbe b6bd dc14 cebe
00000060: ab5d 853e 89b5 1fbd 486c 2dbe 2d46 9f3c
00000070: 32f7 a93d 1385 393c 83b4 9cbe 9a4b 973c
00000080: b7c6 bd3d 408b c9be 1378 003e 5526 4b3e
00000090: 1450 63bd 695e fe3d 2967 10be 0b2f 863e
000000a0: bffc 9abe 1415 263e 91e6 09be 6196 b0be
000000b0: a797 9a3d 5886 0b3e 27de 4ebe 1299 9b3e
000000c0: 0ac6 86be 5f9d cdbd e8e2 e8bd 7444 bcbe
000000d0: cf65 b73e 139c c5bc 512f 803e 32bf ef3e
000000e0: 6ece 883e e431 943c a5e5 e53d c48b 6fbe
000000f0: 1290 b0be ff99 10be 69b1 a1bd 1bff 00be
00000100: 0f4e c9be bbb3 993e 23cf 1f3d ca1b 863e
00000110: b230 993d e8fd 563e 1c38 903e a3a2 903e
00000120: 82e5 8b3e eb2a 33bd e6fe 81bd 4c98 903e
00000130: b6c3 a73d 21b7 fc3c 7878 a4bc e845 9d3e
00000140: 549f ec3c 5f55 56bc 96ec b13b e1b5 c4be
00000150: 3b7a 4c3e 7f0e 1dbe 3372 c4be 58e7 08bd
00000160: 5b70 b5be bd3e 57be 5aaa 54bd 63a5 7cbd
00000170: c5b7 9abe 8b4e 9cbe 0ce5 273e 40e2 753e
00000180: 324c 8dbe 21a4 a93e 3e8e 09bd 7b17 5c3e
00000190: 9f90 5fbe ecb3 45be 6a8b e7bd 0b6a 79be
000001a0: 78d6 14be f9a7 28be 11d5 34bd d44e 60be
000001b0: 1467 44be 795b 4cbe 25ec 1ebe 9450 29be
000001c0: 24e3 b3be c444 48be d83e a33e a751 b03e
000001d0: ca67 053e 0056 c2bd 9c5e bbbd 1ffd 70be
000001e0: f7e9 e33d 9c82 06be 8f29 84be d499 e63d
000001f0: 1592 003c a8eb 0bbe afe9 523d 7d1d 30be
00000200: b499 84be 0f0e 443e 175f 313e be10 c7bc
00000210: 231b 803d 4936 f53d 95c5 db3d 7a9f c3be
00000220: b7c1 9abd c1b0 493d 2ddb 66bf b3fe 9ebe
00000230: 7b66 4a3d 73ae a5be d577 363e 6b71 8d3d
00000240: a0b7 42be 071a 74be 2d26 443e 4f1c 0ebd
00000250: 7c95 c13e 89c6 ecbd f256 e43d 36d3 e6bd
00000260: 96a4 293e 4299 19be 17bd 8d3e 52bc f63c
00000270: b5f4 ecbb 5cd5 35be 54a0 21bf d635 ae3e
00000280: 8fcc c8be 2b12 833b 29b0 7d3e 3819 89be
00000290: 633a a83d 04f1 2bbe 4012 46be a683 e7bf
000002a0: de35 903e 6ae2 65be 2e9a 0e3e ec90 93bb
000002b0: 736e 9cbe 71e7 e0bd 59b4 c6be 349e be3e
000002c0: 1555 113e e92d e73d 9810 0d3e e94d 263e
000002d0: 30c6 c53e 6f8b ed3d e6e1 20bf fcfd 2ebe
000002e0: 4cf1 56be 3473 4ebe 4543 70be 5cea d5be
000002f0: e39f 683e 4ce7 14be befa a93e 7d56 373e
00000300: 5a5c 213e b56a 09bf 578d 4c3e c0b0 10be
00000310: 8cf4 1f3e 4b4a 85be 4efb 2b3f 2d41 213e
00000320: a335 593e a1d9 923e c50f acbe 0012 503d
00000330: 6c0e 35be 1a63 7b3d 4bd6 a4be 3e06 c63e
00000340: 39b9 d73e 3849 dcbe c57a 8d3e ef3f 85be
00000350: 8b2a f33e b253 cdbe c047 123d a36a 953e
00000360: d969 96be d821 c33e d3a5 97be f030 113e
00000370: 0bfd 583e 2014 cd3b 0f01 2dbf 3903 9e3e
00000380: a80c 86be dfaa 3f3e 9371 85be 9b04 56be
00000390: c369 7d3e 4625 20bf 798b 4cbc 9f38 f4bd
000003a0: 56dc 96bd 8b39 b73d 7a8d 163f c581 09be
000003b0: 89f1 b33e 331b 36bf 107a fb3d 6bfd a9bb
000003c0: d598 c73e d1d1 14bd c68d b73e 1ffa 153e
000003d0: b965 6dbc 069a b43e aa64 d63d d23d 453e
000003e0: a214 023e a3f5 a7be 5c00 e43c 030d cf3d
000003f0: a26a 28bd 1741 783c 8e6f 87bd bb76 17bf
-0.2713882 0.06141987 -0.13928343 -0.19469306 0.30573326 -0.18946148 -0.0045179543 -0.041930087
0.12656465 -0.1829645 0.29647544 0.21258584 -0.013080356 0.2296731 0.10384741 0.26016638
-0.12398273 -0.40122563 0.19352888 -0.50977236 -0.28836972 -0.26397234 -0.08923016 -0.4025029
0.26048025 -0.038991485 -0.16935837 0.019442642 0.08299102 0.011323231 -0.3060647 0.018468667
0.092664175 -0.39364052 0.12545805 0.19838841 -0.05549629 0.12420351 -0.14101852 0.26207766
-0.30270955 0.16218978 -0.1346686 -0.3448973 0.07548457 0.13625467 -0.20201932 0.3039022
-0.26322967 -0.10039782 -0.11371404 -0.36770976 0.3581986 -0.024122274 0.250361 0.46825558
0.26719993 0.018090196 0.11225442 -0.2339316 -0.34484917 -0.14121245 -0.078951664 -0.12597315
-0.39317366 0.30019936 0.0390159 0.26193076 0.07479991 0.20995295 0.28167808 0.28249082
0.27323538 -0.0437421 -0.06347446 0.28241193 0.08191626 0.030849041 -0.020076975 0.30717397
0.028884567 -0.0130818775 0.0054298146 -0.38420013 0.19968502 -0.15337561 -0.38368377 -0.03342375
-0.35437283 -0.21020027 -0.051920272 -0.061681163 -0.3021833 -0.30528674 0.16395968 0.24012089
-0.27597195 0.33133033 -0.03358292 0.21493332 -0.21832512 -0.19306916 -0.11305888 -0.24356858
-0.14534938 -0.16470326 -0.04414851 -0.2190507 -0.19179946 -0.19956769 -0.1551977 -0.16534644
-0.35134232 -0.19557482 0.31883883 0.34437296 0.13027874 -0.094890594 -0.09148905 -0.23534058
0.1112861 -0.13135761 -0.25812957 0.11259809 0.007847329 -0.13664114 0.05149239 -0.17198749
-0.25898516 0.19145988 0.1732143 -0.024299975 0.06255176 0.11973245 0.10731045 -0.38207608
-0.075564794 0.04924083 -0.90178186 -0.31053695 0.04941414 -0.32359657 0.1781915 0.069063984
-0.1901536 -0.23838054 0.19155188 -0.034694966 0.3780936 -0.11561305 0.11149396 -0.11270754
0.16566691 -0.1499987 0.27683327 0.030119095 -0.00723132 -0.17757171 -0.63135266 0.3402545
-0.39218566 0.0039999685 0.24774231 -0.26777053 0.082142614 -0.16791159 -0.193429 -1.8087051
0.28166097 -0.22449651 0.13926002 -0.00450336 -0.30553016 -0.10981644 -0.3880947 0.37230074
0.14192612 0.112880535 0.13775861 0.16240658 0.38627768 0.115988605 -0.62844694 -0.17089075
-0.20990485 -0.20161134 -0.23463161 -0.41780365 0.22717242 -0.14541358 0.33199114 0.17904086
0.15757886 -0.53678447 0.19975792 -0.14129925 0.15620631 -0.26033244 0.67180336 0.15747519
0.21211867 0.28681663 -0.3360578 0.050798416 -0.17681283 0.061373807 -0.32194743 0.38676637
0.421335 -0.4302461 0.27632728 -0.2602534 0.47493395 -0.40102917 0.035712957 0.2918292
-0.2937763 0.38111758 -0.296187 0.14178824 0.21190278 0.0062585026 -0.6757974 0.30861834
-0.2618153 0.18717526 -0.26063213 -0.20900194 0.24747376 -0.62556875 -0.012484425 -0.11924862
-0.073662445 0.08946522 0.58809626 -0.1342841 0.35145214 -0.7113525 0.12279141 -0.0051876805
0.3898379 -0.03633291 0.35850352 0.14646195 -0.014489585 0.3527376 0.10468419 0.19261864
0.12703183 -0.32804593 0.027832203 0.10109904 -0.041117318 0.015152237 -0.06613074 -0.59165543

encoder.enc3.bias f4 [19]
00000000: aeca 62bc 7d63 88bc a0dd b9bb 7f1c 023d
00000010: 847d f63c a596 453d 0b1f f23c 095e 0fbc
00000020: 6ced 223d 707f fcbb 1891 b2bc e709 85bb
00000030: 4f21 b5b8 bd5e a6bc 2098 843c 74a0 1b3c
00000040: f256 bfbc 1306 96bc 7790 a0bc
-0.013842268 -0.016649002 -0.0056721717 0.031765457 0.030089147 0.04823937 0.029555818 -0.008750447
0.039777204 -0.0077056214 -0.021797702 -0.0040600183 -8.636957e-05 -0.020308847 0.01618582 0.009498704
-0.023356888 -0.018313443 -0.019600136

encoder.enc4.weight f4 [7, 19]
00000000: ac4d efbe 84aa 7b3e f2c5 8bbc 455f 59be
00000010: 18eb 893e acbe f73d c8f7 acbd d75d c6be
00000020: 4b54 633e 9705 f1be 7e96 b13e dbc4 073e
00000030: 4f52 8fbe 6b30 52be 6915 11be d738 ec3c
00000040: 6743 4a3e 4d9b c03e bb0c 4dbe b0ff 1f3d
00000050: db89 03bf 6444 dc3e a8b9 20be ce5c 2cbf
00000060: 90e3 19bf cdd8 053f 7fb2 05bf f0f4 cbbe
00000070: ca00 3ebe d0a0 f93e a1db 423e 7ea3 953e
00000080: 4165 f8be 5db0 a9be 352a bc3d 8396 f0bd
00000090: 267d 63be 9ad9 823d 1a9a 853e c50b be3d
000000a0: 3b7f 693e 4dd4 e3bb 8647 87be 6eb4 05be
000000b0: d5d0 fcbd 7eb7 523e 474e c0bd 7deb 14bf
000000c0: bcbd a9be afaa d23e ff27 8abe 0395 89be
000000d0: 5ddd c93e b92d a7be 061f 6abe 4130 1ebe
000000e0: 3e2b 2cbe 4aef 9dbc 7ed5 6d3e a887 04bf
000000f0: e60a 5b3e 243b 7e3e 95fe 7fbc 87db 40bd
00000100: 2b65 41b9 0ad5 e1bd 466c d5be 7c08 52be
00000110: fc65 61be 33c1 5fbd 6648 103e e094 9d3e
00000120: ed87 003e 6473 b63e 62e2 f23e d1f5 03be
00000130: 8fcb 44be 72c6 153e 8352 1cbe 554c 433e
00000140: 41f9 a83e 9f62 af3e 4a52 c1bd 7d62 2d3f
00000150: fb99 e63e 5c4b f5be cbf3 ae3e af0c 2cbe
00000160: 04ca e03d b9b8 093e fce8 f23e e8da 12bb
00000170: 2ffd 943e 6fe4 2abe dc47 ee3d 5081 c4be
00000180: 0506 f93e a7f4 2c3d ce00 513d 4baf 323f
00000190: 3727 023f 5365 fabe 007c 503d 5db1 ce3e
000001a0: cf58 c8be 8023 df3e c6b2 b2be f860 4a3e
000001b0: db35 2a3e 02f6 d63e 51f7 2c3e b786 523e
000001c0: 4d0a a03d 2830 62bd c61e 13be 2c83 dfbe
000001d0: 1518 a53e a609 29be 6ac8 fbbd 8f50 3fbd
000001e0: 8f51 c0bd b76a b53e 608a 183e 71c3 de3e
000001f0: 904d 433d d191 75be 7ab2 e9be e09e d2bd
00000200: 357b 68bc e94e d5be b318 343e 6b56 ec3e
00000210: 788f 023e
-0.46738946 0.24576765 -0.017062161 -0.21227749 0.26937175 0.12096915 -0.08445698 -0.3874347
0.22200124 -0.47074577 0.3468513 0.13258688 -0.27992484 -0.20526282 -0.14168324 0.028835697
0.19752274 0.37618485 -0.20024388 0.039062202 -0.51382226 0.43020928 -0.15695822 -0.6732911
-0.6011286 0.52283937 -0.5222549 -0.3983531 -0.18554989 0.48755503 0.19029094 0.29226297
-0.4851475 -0.33142367 0.09187738 -0.11747458 -0.22215709 0.063891605 0.26094133 0.092795886
0.22802441 -0.0069527985 -0.26421756 -0.1305711 -0.12344519 0.20577809 -0.0938993 -0.58171827
-0.33152568 0.41145846 -0.2698364 -0.268715 0.394267 -0.3265207 -0.22863397 -0.15448095
-0.1681337 -0.019279141 0.23225972 -0.51769495 0.21390876 0.24827248 -0.015624662 -0.047084358
-0.00018443602 -0.11026962 -0.4168417 -0.20511049 -0.2201156 -0.05462761 0.14090118 0.30777645
0.12551852 0.3563491 0.4743834 -0.1288674 -0.19218276 0.14626482 -0.1526585 0.19072087
0.33002666 0.3425493 -0.094395235 0.67728406 0.45039353 -0.47909057 0.34170374 -0.16801713
0.109760314 0.13449372 0.47443378 -0.002240831 0.29099414 -0.16688703 0.116348 -0.38379908
0.48637405 0.042225506 0.051026158 0.69798726 0.5084109 -0.4890543 0.050899506 0.40369692
-0.39130256 0.43581772 -0.34902018 0.19763553 0.16622107 0.41984564 0.16891219 0.20559202
0.07814465 -0.055221707 -0.14367208 -0.43654764 0.32244936 -0.16507587 -0.12294085 -0.046707686
-0.09390556 0.3543298 0.14896536 0.43508485 0.04768139 -0.23981406 -0.4564398 -0.10284209
-0.014189531 -0.41661766 0.17587547 0.46159682 0.12750041

encoder.enc4.bias f4 [7]
00000000: 4781 d3bb ac56 c23b 6eaa e6bc 4937 60bd
00000010: 522b 39bd cc8a 13bc c351 523c
-0.00645462 0.0059307422 -0.02815744 -0.054740224 -0.04520733 -0.00900526 0.012836876

decoder.dec1.weight f4 [19, 7]
00000000: 4af7 d93e c550 12bf f9fc 85be 8c99 e2be
00000010: 69ef d33e dfc9 59bf d83b 75bf 3818 983e
00000020: 911c 6fbf ef8b 903f 2edd d23e 3263 8cbf
00000030: 498c bdbd 0b4a 97be c3b3 8abf e750 353f
00000040: 6462 0b3f 8a04 883f fbd6 393f 7932 283d
00000050: 4942 033f 4248 64bf bfe4 59bf 2282 613f
00000060: bb28 0abf 4b88 213d 24b1 44be d423 9ebe
00000070: ba8a 5c3c 62e4 b83d 3839 603f d20e 4d3f
00000080: fb00 7b3e fdc5 343e 9d42 3dbf 44fc 39be
00000090: 76c3 de3e a67d d7be 7326 5f3e 2492 453f
000000a0: 2710 8fbe d5a4 bb3e 069d 123f 5cab 4cbf
000000b0: 3487 1a3f d6ba 01bf 37c5 83bf 780c 593e
000000c0: 4e26 e93d 677b 8cbe b21b 0ebf 4b79 463f
000000d0: 2d15 26bf b488 35bf cfee 283f ec4e 413f
000000e0: 3882 513f 9124 bdbe 0800 48be 78b7 45bf
000000f0: 8688 693f 90c2 63bf 7146 a83e c2c7 31bf
00000100: 076e 073f 64b1 a63f e1db 713f 6695 02bf
00000110: bf15 423f 9956 00be d3c9 893f dc62 ecbd
00000120: 9667 483f a9f0 4b3f e6e0 463f a516 85bf
00000130: 64c9 49bf 9063 03bf 1264 6f3e 775e 5cbf
00000140: 3ee4 fd3e 40e1 febe 74c1 d43e 2ae1 3a3f
00000150: b3ea 95bf acb2 2fbe 0adf 9e3f 6dd5 96bd
00000160: 75d4 97be efac ff3d 9f71 e7be e03e ea3d
00000170: 486d 663f cea5 933e b697 b13d cc63 3f3f
00000180: 5503 a53e 9006 c4be d987 5d3f 2dd9 443f
00000190: 145b 533d a290 3b3f cfd3 14bf 3d10 9c3e
000001a0: 8d57 103f 1ecf 63bf 64cb c43d 369c ce3d
000001b0: 4e90 3ebf d2a9 1bbe f064 3ebe 2703 8dbf
000001c0: faf8 1bbf d867 31bf 434b 99be e0e0 073c
000001d0: cf90 b83e 4a8b 63bf d03a 90bd ff46 ef3e
000001e0: 8e04 423f 2a31 96bf be9a a53e 9f58 efbd
000001f0: ab09 033f 7388 86bf 46bc f7be 1489 8dbe
00000200: f23d a7be a55b 57bf 4eb4 90be 0e93 083f
00000210: 09dd b63e
0.4257148 -0.57154495 -0.26169565 -0.44257772 0.41393593 -0.85073656 -0.9579444 0.29705977
-0.93402964 1.1292704 0.41184372 -1.0967772 -0.09255273 -0.29548678 -1.0836109 0.7082657
0.5444701 1.0626385 0.7259366 0.04106376 0.5127302 -0.89172757 -0.85114664 0.8808919
-0.539684 0.03943662 -0.19208199 -0.3088671 0.013460809 0.090279356 0.8758731 0.8010074
0.24512093 0.17653652 -0.7392977 -0.18162638 0.435085 -0.4208805 0.21792011 0.7717612
-0.2794201 0.36649194 0.5727085 -0.79948974 0.60362554 -0.50675714 -1.029456 0.21196163
0.11384259 -0.274379 -0.5551101 0.7752883 -0.6487606 -0.7091172 0.65989393 0.7551105
0.81839323 -0.3694196 -0.19531262 -0.77233076 0.91223943 -0.88968754 0.32866243 -0.6944543
0.52902263 1.3022885 0.94476134 -0.51009214 0.7581443 -0.12533034 1.0764717 -0.115422934
0.7828306 0.79664093 0.7768692 -1.0397536 -0.7882292 -0.51323795 0.23378018 -0.8608164
0.49588197 -0.49781227 0.41553843 0.72999823 -1.171225 -0.17158002 1.2411816 -0.073649265
-0.2965428 0.12484156 -0.45203874 0.11437774 0.900105 0.28837436 0.08671515 0.7476165
0.32229105 -0.38286257 0.8653541 0.76893884 0.05160053 0.7326757 -0.58135694 0.3048114
0.5638359 -0.8898791 0.09609106 0.100883886 -0.7443894 -0.152015 -0.18593192 -1.1016587
-0.60926783 -0.6929908 -0.29940233 0.0082933605 0.3604798 -0.88884413 -0.070424676 0.46733853
0.757882 -1.1733754 0.3234462 -0.11686825 0.5118663 -1.0510391 -0.4838583 -0.27643645
-0.32664448 -0.84124213 -0.28262562 0.5334939 0.3571551

decoder.dec1.bias f4 [19]
00000000: 5e42 393b 0570 983b b5af 78bd f510 c1bd
00000010: 1853 64bd 37d3 a93c f5d7 063c 1ac3 88bc
00000020: 15a1 c7ba 5829 903c ffb8 1abc d154 9c3c
00000030: 4e2a ecbb 1967 b03b 2e4b 48bd 30bd ac3d
00000040: be31 82bb 7b96 9ebb 0300 d2bc
0.0028268318 0.0046520256 -0.060714442 -0.094270624 -0.055743307 0.020730598 0.008230199 -0.016694594
-0.0015230501 0.01759784 -0.009443521 0.019083412 -0.0072071915 0.005383384 -0.048899822 0.08434522
-0.003973215 -0.004839716 -0.025634771

decoder.dec2.weight f4 [39, 19]
00000000: 1bfc 543d d157 37be 1c99 8ebe 3207 5b3e
00000010: 6b02 983e 92df 07bf 85bf 923d fed9 063e
00000020: 8c14 823e 7dbf e33e 98d0 213f 89a7 693e
00000030: b1fd ed3e 7c74 8cbe 7ce5 debe 5ea8 67be
00000040: c444 1cbd 2bc5 043f 54cb f8bc 9125 15bf
00000050: 8a43 3d3c a07d cd3e 960b 7dbe 228b 193e
00000060: d8c3 38bf c7a2 313f ac56 fabe 5547 343e
00000070: 0b26 a9be 28f6 a43e 70b3 ba3d 93bd 62bf
00000080: 68c4 9f3e d8ae 37be 2d3a bf3d 5191 aa3e
00000090: 42fe eebe 11b0 86be 9c5e 9ebe ec4d 7bbe
000000a0: dd03 043f 7d39 8b3f 043b b0be 277f 0dbd
000000b0: 9f5c fc3d 1919 883e 1787 02bf 130c 33bd
000000c0: 8649 75be 9400 f5bd c817 0abf 7b75 2d3e
000000d0: 1998 853e c133 a43e ab15 e83e 6408 c3bd
000000e0: 09ac 1b3f 7a7a cbbd 31d4 a6be 09c6 1ebf
000000f0: 2c69 aa3d 6d82 acbd 790b b2bd 9cb4 3ebf
00000100: 6358 03bf 1685 9cbd 6bbd 7fbd 52ef 4fbe
00000110: 80dc d2be 6ac5 f63d f4de af3e 4621 b53e
00000120: ea37 173f 14f5 013e a831 3c3f 6eb2 97bd
00000130: b6bf 143f a582 843e 2625 2dbe e279 bdbd
00000140: d590 44be 03c5 32be 41a1 13be 9c1b a13d
00000150: 42e3 283f c681 c6bd 7cc4 bc3d 46d8 c53d
00000160: 5010 8ebe 4565 3f3e f88d 043e e02b d5be
00000170: ce8e d93e 4b99 093f 5ea0 0b3e 5859 853e
00000180: e1e4 27bf 68c9 c6bd fa74 c13e 568e d73d
00000190: f764 cebe 3c37 70bf 8809 393e 5c84 fe3e
000001a0: 15ac 0d3f 6160 673e 2a41 303c ca55 273e
000001b0: 2f68 623e cb0f 91be c3ed 19be d01e da3a
000001c0: cca9 c53e 2612 8bbd 87d1 d53e 1257 1e3f
000001d0: d4c7 cc3e 2b70 cbbe ea72 513e 145f 4fbf
000001e0: 28ee bd3e 431e 0abf c398 04bf 928f db3e
000001f0: 0e43 373e 6953 c8bd 4975 293e ca75 b33e
00000200: 8f4e 933d 6432 1abf 044d 803e 6d33 fb3e
00000210: 5fad c9be 25dd 13be 8504 1f3e 968f 143e
00000220: 5337 0abe e965 9abe fbf3 62be 93c4 4cbe
00000230: db40 1b3f 1347 a4be 518c cb3e cd73 303f
00000240: 89f5 6bbe 6b1e 503e 45a5 e0bd 4670 06bf
00000250: fee9 4b3f dc39 ba3e 0690 453e 0b07 1e3e
00000260: 102a 833e 249d 913c 98d9 37be bdfd 29bf
00000270: 5c12 f03d 1d53 963e 79e0 a3be 6e78 3dbf
00000280: bbb3 c33e ec47 38be ed31 383e df68 dcbe
00000290: 248c 8dbd e2c7 d23d 813c 00bf 7162 9abe
000002a0: 83a2 8bbe 172b fcbd 0d6f c23e b570 6bbe
000002b0: 2258 973c 7e17 bc3e 1d60 743e 33c9 cdbe
000002c0: 4577 6abf c053 913e f652 c0bc 1d88 003d
000002d0: f240 603e 5483 0e3f 0a21 83be 3066 2a3e
000002e0: d875 a7be 3f54 823e 2efe c0bd 3e69 3d3c
000002f0: 5428 df3e 3f53 28be 9fc4 1f3f 7dd6 0c3f
00000300: 92cd 40be 7aa2 13be f7ed 8ebd 5016 623e
00000310: 6b47 0dbe 8c07 583f 998b 1b3f fd99 b13d
00000320: dc4d 7e3e 1d68 68be 4f6a 97be 5e59 f3bd
00000330: 1e0a 0abe a43f ca3e 3c0f ab3e 8486 02bf
00000340: b6d8 e3be 1b5b 89be 3d15 51be af4f 803c
00000350: 32ca e73e 670d d53c f4a0 99bd 8cf1 66bf
00000360: 82a3 b8be 5a82 073e 7e52 2f3f 2ec1 b53d
00000370: 2d50 ebbe 105a 233f 9f0e 1c3f c75a fd3e
00000380: 31cb fb3d d219 9e3e 367e 29be 8990 453e
00000390: 73df 9d3c 3887 f7bf a5bd b23e 97eb 0f3f
000003a0: bb1c 3cbe a4f4 b6be 5867 813e 6f3e 5dbd
000003b0: 2df7 e93e 4ce6 febe 8053 1fbf 6940 04bf
000003c0: 60c2 f53c f5c2 f83e af7a b83e 3523 053f
000003d0: d2dd 0e3e f4c1 e83e f311 c23e ac9d a53e
000003e0: bfbf f73e 998b 9dbe 8853 1c3f 6b44 55be
000003f0: 5145 46bf 501c 0fbf aa71 043f 3189 42bf
0.05199824 -0.17904593 -0.27851188 0.21389464 0.29689345 -0.53075516 0.07165436 0.13169095
0.254063 0.4448203 0.63208914 0.22817816 0.46482614 -0.2743262 -0.43534458 -0.2262282
-0.038151518 0.51863354 -0.030370392 -0.58260447 0.011551747 0.40134907 -0.24711451 0.14994481
-0.72173834 0.69389004 -0.4889425 0.17605336 -0.33036837 0.32219052 0.09116256 -0.8857052
0.31204534 -0.17937791 0.09337268 0.33313993 -0.46678358 -0.26306203 -0.30931556 -0.24541444
0.51568395 1.0876919 -0.34420025 -0.03454509 0.123223536 0.26581648 -0.5098738 -0.043712687
-0.23953828 -0.11963001 -0.5394254 0.16939346 0.26092604 0.32070735 0.4532903 -0.09523085
0.6080938 -0.0993547 -0.32583764 -0.6202093 0.08320841 -0.08423314 -0.086935945 -0.7449434
-0.5130674 -0.07642572 -0.062436502 -0.20306137 -0.41183853 0.120493725 0.34349787 0.35376948
0.59069693 0.12691146 0.7351327 -0.0740708 0.5810503 0.25880924 -0.16908702 -0.09251763
-0.19195874 -0.17457967 -0.14416982 0.07866594 0.6597177 -0.09692721 0.09217164 0.096603915
-0.2774682 0.18690975 0.12944782 -0.41635036 0.42491764 0.5374953 0.13635394 0.26044726
-0.65583616 -0.09706384 0.3778456 0.10525195 -0.40311405 -0.9383428 0.18070042 0.49710357
0.553407 0.2259536 0.010757724 0.1634132 0.22110055 -0.28332362 -0.15032105 0.0016641263
0.38606107 -0.06790571 0.4176142 0.6185161 0.39996207 -0.39734015 0.20453992 -0.8100445
0.3709576 -0.53952426 -0.51795596 0.42882973 0.17896673 -0.09781534 0.16548647 0.35050803
0.07192718 -0.6023314 0.25058758 0.49062672 -0.39390084 -0.14439829 0.15529068 0.14507899
-0.13497667 -0.30155876 -0.22163384 -0.19996862 0.60645837 -0.32085475 0.3975549 0.689267
-0.23042883 0.20324104 -0.10969023 -0.52515066 0.7965392 0.36372268 0.19293222 0.15432374
0.2561803 0.017775126 -0.17954099 -0.664028 0.11722252 0.29360285 -0.32007197 -0.74011886
0.3822306 -0.17996186 0.17987795 -0.4304876 -0.06911495 0.10292031 -0.5009232 -0.3015323
-0.27272424 -0.12312906 0.3797535 -0.22992213 0.018474642 0.36736673 0.2386479 -0.40192565
-0.9158824 0.2838421 -0.023477059 0.031379808 0.21899775 0.5566914 -0.25611144 0.16640544
-0.32707095 0.254549 -0.09423481 0.011560736 0.43585455 -0.16438006 0.62409395 0.55014783
-0.18828419 -0.14417449 -0.06978982 0.22078824 -0.13796775 0.84386516 0.60759884 0.08671949
0.24834388 -0.22695966 -0.29573295 -0.1188228 -0.13480422 0.3950168 0.3341006 -0.50986505
-0.44501275 -0.2682732 -0.20418258 0.015662996 0.4527145 0.026007367 -0.075014025 -0.9021232
-0.36062247 0.13233319 0.6848525 0.08874737 -0.45959607 0.638093 0.6095981 0.4948332
0.12294615 0.30879074 -0.16552052 0.19293417 0.019271588 -1.933814 0.34910312 0.56218857
-0.18370335 -0.3573352 0.25274158 -0.05401462 0.45696393 -0.49785078 -0.62236786 -0.5166078
0.029999912 0.4858624 0.360311 0.52006847 0.13951805 0.45460474 0.3790432 0.32346857
0.48388478 -0.30770567 0.6106496 -0.2082688 -0.7744952 -0.55902576 0.5173594 -0.7599059

decoder.dec2.bias f4 [39]
00000000: 05d9 ea3b d123 5fbc 46c6 463d 14bd d63c
00000010: 7ca8 1b3d b626 c53c 5942 fd3b 045b 1f3c
00000020: 1fd7 b8bc afb1 473d 985d a03c ba85 473d
00000030: 1a91 463c 6f90 0ebc 5fb3 393d 8503 04bc
00000040: 4481 8abb 7d5c 803c d188 e33c d6d9 a7bc
00000050: 75a4 683d 6ea6 003b 18e2 53bc 67f1 7a3d
00000060: 8c40 893c dfa9 033c 9ef6 df3c 78f2 ad3c
00000070: 57c9 6fbc b20a c73c 419c b13c 41e8 b13b
00000080: 2277 c23d 075f 8dbc e32b 513c 1e0e b7bc
00000090: a278 873d 9c78 9c3c fa60 583c
0.007166984 -0.013619379 0.048528932 0.026213206 0.038002476 0.02406631 0.0077288565 0.00972629
-0.022563515 0.048753437 0.019575879 0.048711516 0.012119556 -0.008701428 0.045337077 -0.00805748
-0.0042268354 0.015669102 0.0277752 -0.020489614 0.056797463 0.001963045 -0.012932323 0.061265375
0.016754411 0.008036106 0.027339276 0.021233782 -0.0146354055 0.024297092 0.021680953 0.005429298
0.09495379 -0.017257227 0.012766811 -0.022345599 0.06614806 0.01910048 0.013206715

decoder.dec3.weight f4 [58, 39]
00000000: 9b15 21be 1e52 15bf d3ec 24be eca6 fe3c
00000010: 9d2b 993e 125e 4fbd 6e92 043e 40b9 443e
00000020: 5332 98bd e48e 58be d30a aa3e 4d9a 9f3e
00000030: 2fa0 37be 9eb0 883e c3ad 203d 49da c1be
00000040: e83c 0a3f 9d88 3f3e 3572 4abe cf75 c03e
00000050: 8569 823e 875f 113e a386 bebd 7fc2 b0be
00000060: d21b fbbe 3983 023d c832 893d 7f84 3b3d
00000070: 7c21 debd 4ca9 d83d d80a d33e 86f6 0a3f
00000080: b3f7 94bd 8a61 d9bd a5fe 433e 3f3c 583e
00000090: 0be3 e33d b41d 89be c26a c6be e449 90bd
000000a0: 922e 42bf 66dd 9b3e dcd7 e33d 049d 57be
000000b0: ea4d 9fbd 35de 05bf d840 173f c8ed c03e
000000c0: 98de 6d3e 8a3e e5bd 8e02 3fbe 43dd 49be
000000d0: 4bcc fdbe 5036 313e 2da5 8bbe 4559 a53a
000000e0: 8219 07bf 068e 5d3e 72ff b3be c1e2 61be
000000f0: 0210 27bf d765 0c3f d0c5 c73e 7862 2dbe
00000100: 1853 8cbd e6ba 1b3e 8d29 a13e bb8e 6c3e
00000110: 7307 29bf 675c 63bf 25d1 203f 42ac b63e
00000120: ebeb c4bc 77fc 36bf b700 813e 8e86 b43e
00000130: 735b 97bf d65b 1a3c 67b1 98be b9b2 953e
00000140: 957f 683e 28e5 f8bc d63f 8dbe 615c 923e
00000150: f9f1 e7bd 6c34 273e f3fe a3be 722b 44be
00000160: 74e9 853d 394f 9a3e ea30 86be 9d37 3d3e
00000170: 89c2 853c a195 cdbd 23aa 113f 645e 743e
00000180: 460e dfbd 3a83 47be 4a9e ebbd acc7 66be
00000190: 7ed7 3dbf f40e 593f 2f38 19bf 740e 673e
000001a0: ffdb 903e ef78 cb3e d8f8 d5bd 4adc fa3e
000001b0: 5f95 873e 51ef 23bd 3519 c93e ccef 453e
000001c0: 9b24 a33d cd3e 1e3d 395d 90be 5cca e2be
000001d0: 97ed 843f 85d7 adbe b435 543d 8b1b f4bd
000001e0: e9a3 023f 5178 a43e 76bb 9b3d 282b 26be
000001f0: d704 05bf 5596 f9bb 1315 a5bd fb94 313e
00000200: 1404 913e 802d 153e 21ab 87bd b32c bc3e
00000210: 0f90 cabf d2a4 923b 4289 2f3d 0f6a a0bd
00000220: 4897 8dbe 9bd7 ca3d 489e bdbe de89 aa3e
00000230: 3e92 59bf cbbe 0dbe 6dec dd3e fcbc 443e
00000240: f095 b03d c1f9 853e 9835 90be 9243 5b3e
00000250: 4c8f bb3f e77a 83bd 689a 16be 9f49 da3d
00000260: f002 853e 037d 39be 199d a2bf 55f8 ba3c
00000270: faef 4d3e 8d18 403c 1fba 18be 2be2 25bd
00000280: e98c 2c3d 7a73 ce3e e6c4 7fbd 2988 b1be
00000290: 4e35 683e 84e8 bdbe bc35 5f3e 12d5 ac3e
000002a0: 69db ad3e 46b5 2cbe 4904 dd3d ff98 8f3e
000002b0: 83b4 85be dc9d 673e 4f44 11bf 21d2 4fbe
000002c0: 9917 69bd bf7a 84be d65d 6bbd b58b c2bd
000002d0: d58a 93bd 6ad2 dbbb 7c48 373e 95f2 2e3e
000002e0: 6a47 033e e5b1 2a3e 6bb3 1c3c ebd4 043f
000002f0: 1d13 2ebe 5ddc 793e bdc4 183e 040c a23d
00000300: 2867 623d 8518 953e 1de1 003f 8680 103d
00000310: 4bdf 5a3e 483c 693d 2d36 033f 40b9 79be
00000320: 450d ffbd dddd c63e ea34 dc3d d305 ae3d
00000330: 1b01 b3be e17f c23d cde2 993e 573a 71be
00000340: 1af7 7dbe 0fe3 a0be f16a 503f b8a1 57be
00000350: 7004 d43e ae2a 09be 5e99 ad3e 5b57 35be
00000360: 2703 ae3e 3809 f1bd 19e0 3c3e 6b50 3b3e
00000370: 53b5 23bf 48ee 003e 76ee d33b a857 16bd
00000380: 6727 033e 4beb 283f fc6a bfbe 3431 813e
00000390: 1e4e 1c3e 784c b0be 77b5 a13e cfd1 b53e
000003a0: 6eeb 4cbe 4ca4 f83e cec4 fc3d 8689 d83d
000003b0: fe07 1f3e 7c50 4ebe f66e 233e 791d 8f3e
000003c0: 038b 95bd 0516 75be 4efd 393e 58a0 89bd
000003d0: 2e5a d43e 5539 abbe 2e70 153e 4f64 b5bd
000003e0: 242b 0b3e fc12 323c 6ada 96be 0a16 6fbe
000003f0: 88b5 84bd fe2b aa3d 5bf1 82be 6a0f 8d3e
-0.15730898 -0.58328426 -0.16105966 0.031085454 0.29916087 -0.05062682 0.12946483 0.19211292
-0.074314736 -0.21148258 0.33211383 0.3117241 -0.17932199 0.26697248 0.039228212 -0.3786185
0.53999186 0.18704458 -0.19770129 0.3758988 0.2547113 0.14196597 -0.09303024 -0.3452339
-0.49044663 0.031863425 0.06699139 0.045780655 -0.108462304 0.10579166 0.4121921 0.54282415
-0.072738074 -0.10614307 0.19140108 0.21116732 0.111272894 -0.26780474 -0.38753325 -0.070453435
-0.7585231 0.3044235 0.11125156 -0.2105599 -0.07778533 -0.52292186 0.5908332 0.37681413
0.23229444 -0.11193569 -0.18653318 -0.19713311 -0.49569926 0.17305875 -0.27274457 0.0012615105
-0.52773297 0.21636209 -0.35155827 -0.22059156 -0.652588 0.54842895 0.39018106 -0.16932094
-0.068517864 0.15208015 0.31477013 0.23101322 -0.6602699 -0.8881287 0.6281913 0.35678297
-0.024038276 -0.7147898 0.25195858 0.35258907 -1.1824783 0.009421309 -0.29822847 0.29237917
0.22704919 -0.030382708 -0.27587765 0.28586105 -0.113254495 0.16328591 -0.32030448 -0.19157198
0.06538668 0.30138567 -0.26209193 0.18478246 0.016328113 -0.10038305 0.56900233 0.23864132
-0.10891394 -0.19483653 -0.115048006 -0.22537106 -0.7415694 0.8478844 -0.59851354 0.22564107
0.28292844 0.39740703 -0.10447854 0.48996192 0.2648115 -0.04002315 0.39277044 0.19329756
0.07965966 0.03863411 -0.28196123 -0.44295013 1.0385007 -0.3395349 0.051809028 -0.11919316
0.5103136 0.32123044 0.07604115 -0.162274 -0.5196051 -0.007616798 -0.0806066 0.17341988
0.28323424 0.14568138 -0.06624437 0.36752853 -1.5825213 0.0044752145 0.04285551 -0.07832729
-0.2765448 0.09904405 -0.37034822 0.3330831 -0.8498877 -0.13842313 0.4334444 0.19212717
0.08622348 0.2616711 -0.2816589 0.21412495 1.4653106 -0.06419926 -0.14707339 0.10658573
0.25978804 -0.18114094 -1.2704192 0.022823492 0.20111075 0.011724603 -0.1491475 -0.040498894
0.04212657 0.40322477 -0.062443636 -0.34674194 0.22676584 -0.37091458 0.21797842 0.3375631
0.3395646 -0.16866025 0.10791833 0.28046414 -0.26114282 0.22618812 -0.56744856 -0.20295002
-0.05690727 -0.25874898 -0.057462536 -0.09499303 -0.072042145 -0.006708433 0.17898744 0.17084725
0.12820211 0.16669424 0.009564261 0.5188739 -0.16999479 0.24400468 0.149188 0.07912448
0.05527416 0.2912027 0.50343496 0.03527882 0.21374242 0.056942254 0.5125454 -0.24387074
-0.12453703 0.38841143 0.1075228 0.08497205 -0.3496178 0.09497047 0.30055848 -0.23557411
-0.24801293 -0.31423232 0.8141318 -0.21057785 0.41409636 -0.13395187 0.33906072 -0.17709105
0.3398678 -0.117693365 0.18444861 0.18292396 -0.63948554 0.12590897 0.0064676357 -0.03670469
0.12808 0.6598403 -0.3738631 0.25232852 0.15264174 -0.3443334 0.3158376 0.35511634
-0.20011684 0.4856285 0.12342225 0.105731055 0.15530393 -0.2014789 0.15960297 0.27952173
-0.07301905 -0.23934181 0.18163034 -0.06720036 0.41475052 -0.33442178 0.14593574 -0.08857023
0.13590676 0.010868784 -0.29463512 -0.23348251 -0.06479937 0.08309172 -0.25574765 0.27550822

decoder.dec3.bias f4 [58]
00000000: 4843 e13d 5aaa 4dbd 20f4 94bd 70a5 d7bc
00000010: f62a 923b 7eb7 c13d bc11 b33d 0cbf 0f3e
00000020: e497 933d e4e2 8cbc 8a3a 3fbd 3f76 523d
00000030: 0f73 d7bd 1371 013d d8cf 61bc 2280 af3a
00000040: d646 933d 81d5 c23c b114 9f3d 71d9 083d
00000050: cc5c 813d 950e 393d f967 e3bb 8b92 5e3d
00000060: 743b 163b 7b53 c13c 51a7 c8bc a76b ef3a
00000070: 7b1e 46bd 590a b03c 822d d8ba 8c73 a23d
00000080: 0000 0000 df78 ef3d 8940 013d c01e 043c
00000090: 77e1 433d e303 7f3c c49f e13c fda1 443d
000000a0: 9282 613d 9bc9 063d 1559 a5bc 6afb 51ba
000000b0: 1302 1cbd 164e 09bd e1ae 69ba c075 973b
000000c0: e8fb 253e 57c2 de3b 1d12 c63d 80aa 953c
000000d0: 0d2b a7bc f6eb febc 0c11 e1bc a269 123d
000000e0: 6540 893d 11d9 1cbd
0.10999161 -0.050211288 -0.07273126 -0.026324004 0.0044606877 0.094588265 0.08743617 0.14037722
0.07206705 -0.017198034 -0.046686687 0.0513823 -0.105199926 0.031601977 -0.013782464 0.0013389627
0.07191245 0.023783447 0.077676184 0.033410493 0.06316528 0.045179922 -0.0069398847 0.054338973
0.002292362 0.023599377 -0.024493845 0.0018266336 -0.048368912 0.02148931 -0.0016493055 0.07932195
0.0 0.11692976 0.031555686 0.008063972 0.047822442 0.0155648915 0.027542002 0.048006047
0.055056162 0.03290711 -0.02018408 -0.0008010181 -0.038087916 -0.033521734 -0.00089143036 0.004622191
0.16209376 0.0067980695 0.096714236 0.018269777 -0.02040627 -0.031118374 -0.027473949 0.03574527
0.067017354 -0.03829295

decoder.dec4.weight f4 [78, 58]
00000000: b937 50be 34aa 36be 55e3 413d 7717 e53b
00000010: 60f4 113f a622 81be 8ec7 aebe 0985 0dbe
00000020: d087 c6bd 283d e13d 3b06 8abd 5ce7 483b
00000030: eacc 143e f5f3 5ebe cae3 81bd b6ec 85be
00000040: 5d0b cc3d 68b7 5c3e b05b 373e 0dea 973d
00000050: 1585 123d 5268 903e e17e 483d 8fee b53d
00000060: 94bb 9cbe d2bf 653e 337d 32be bfb0 3fbe
00000070: 56ee b43e 5029 36be cc5d 703e be66 3abe
00000080: 0a30 7fbd a1dc 1bbe 868b 443f 51dd 96be
00000090: 49b0 5f3e 76f0 d8bc c81b da3d 5b8b d13e
000000a0: e5ad 23be b08a 793d be3b 173e a319 ad3e
000000b0: 31da b33e 2824 91bd dd8b 2c3a 2105 af3b
000000c0: 1296 c43e 37c8 a5bd 2c0d a23e 732a c7bd
000000d0: e3fb 873e 66b1 313d bf33 b0be 267b 693f
000000e0: b5df c0bd b78e 5ebe 9faa 8c3e 0d3c 3fbf
000000f0: b240 92be f843 2b3e 3f68 36be edcc 8c3e
00000100: e939 c13e 7b82 90bd 0253 ec3e a1c3 febd
00000110: d00b cbbd cde7 a2be 5679 4bbe 4800 d53d
00000120: 64bb f5bc af21 98be cc6f 8f3e 152e 423e
00000130: 70c9 2e3e 3146 9fbc 7e1f 16bf ad4d 803e
00000140: fd0f 9e3d 1e10 ef3d f1ce 45be c1fc 2cbd
00000150: eb75 9ebc 7fd7 2cbe e5cb 613e 72bc 88bb
00000160: 5705 be3d 3d92 403f 3b87 643e 63ce e23e
00000170: 4a4c 543f a8e2 7b3e 1306 353e 2da2 16bf
00000180: b8f6 a63e 841d 2c3e 508d 0dbd d7dd acbe
00000190: 7856 3bbe 5d53 8f3e 53a8 88be a08d 283f
000001a0: 2178 dc3d 4348 4ebd 9c69 413d cfc3 cfbe
000001b0: 1632 dd3d d557 843b ddb7 893d 689e b03e
000001c0: 163e 833f fd48 a9be 5da0 b73e 9a7c 77be
000001d0: ba82 ed3c 893c 163d ff93 303e aa0c 8cbd
000001e0: 221a cd3d cbcb f5be 201d 073e ee26 0dbe
000001f0: cc0e 633e 0da6 b23e 1013 cb3e bfa2 90be
00000200: 6921 d5bd 7b51 a7be 66e3 443e 1c56 163f
00000210: 92ea d13d 3d32 c43e 29ff e73a e467 1ebe
00000220: 7a3b b13d edbc 263e 0319 81be 898f 2e3f
00000230: b666 91bd a7c2 033f a7fc b3bd 9f25 1b3e
00000240: 716f 09be a248 5fbc 49d2 b23e 15d5 cebe
00000250: 67a9 28bd f539 95bd 7537 c7bc f028 8d3e
00000260: 7c06 97be f19d ba3d daab febd 1a92 66be
00000270: fa0b afbe 3068 1c3e 9688 2f3f 773b 163f
00000280: b1f4 9fbe 1564 7f3e cc71 90be fa6a 3fbe
00000290: d599 01bf bd30 2fbd 8617 bf3e d2ec b8be
000002a0: 4717 36be 897e b1be 5a22 30bc a96f 1c3d
000002b0: 9f98 af3d c85a 533e aa72 ec3c 3d3c 0d3c
000002c0: 46d7 763d 5aaa d53d 3ff6 53be 683c 28be
000002d0: 21a3 5e3e ee14 973d 2aa9 c3bc 788f bebc
000002e0: 41c5 1d3c f5ff 4d3c 9f34 893e 016c 74be
000002f0: 5e1b 39bc a747 0e3b f94b 24bd 9421 6dbd
00000300: 708d c2bd 5d15 34ba 585c 213c 01bf be3a
00000310: 538e 3b3d 499b 803c 3b60 e5bd a575 bd3d
00000320: c2b2 80be e2e1 5e3c 1819 823d 4e7b 273e
00000330: c6d5 0bbc 10a0 b1bd 6733 993e 9da1 adbc
00000340: fb2e e2bc 554f bc3d f6b9 423c 6079 3bbe
00000350: 3d06 303d cbbd 5c3d dcbe b538 a49e 8d3c
00000360: 7dcd cb3b 0989 77bd d4fd 9b3c 1305 6fb9
00000370: 672d dcbc cab1 b7bc 397e 8d3d 70b4 0f3d
00000380: bfee 07be c93c 8b3d a576 b63c b97f e03b
00000390: b3bb 2abd eba6 55bc e8ef 0c3e fcbc 283e
000003a0: 84c5 04bd 7a46 9abb d804 2c3d 359e c5bc
000003b0: 78c9 ce3c 2df4 aebc 8d52 dd3d 335d 7d3b
000003c0: c54b 83bc 8f38 1cbd d34a 1dbe 1ae8 3bbd
000003d0: 3a40 a03e 8ef6 923e adf8 3cbd 146c fe3c
000003e0: bbbb 2b3c 13b2 30be 3932 6a3d b408 ab3c
000003f0: bf48 8c3c 9877 213e b23b c8bc 0585 39bc
-0.20333757 -0.17838365 0.04733594 0.0069913226 0.5701351 -0.25221747 -0.34136623 -0.1382028
-0.09693873 0.10997993 -0.067394696 0.003065548 0.14531294 -0.2177275 -0.063422754 -0.2615716
0.09963105 0.21554339 0.1790607 0.074176885 0.03577145 0.2820459 0.048949126 0.08883392
-0.3061186 0.22436455 -0.17430572 -0.18719767 0.35338086 -0.17789197 0.2347328 -0.18203256
-0.062301673 -0.15220882 0.76775396 -0.29465726 0.21844591 -0.026481848 0.1064983 0.40926632
-0.15984304 0.06092328 0.14768884 0.33808622 0.35127404 -0.070869744 0.00065821205 0.0053411876
0.38395745 -0.080948286 0.31650674 -0.097248934 0.26559362 0.04338207 -0.3441448 0.91203535
-0.09417669 -0.21734129 0.27473924 -0.74701005 -0.28564984 0.16725147 -0.17813204 0.27500096
0.37739494 -0.07056137 0.4615708 -0.12439657 -0.099143624 -0.31817475 -0.19870505 0.10400444
-0.029996581 -0.297132 0.28014982 0.18962891 0.1706903 -0.01944265 -0.58641803 0.25059262
0.07717893 0.11672996 -0.19317223 -0.042233232 -0.019343337 -0.1687908 0.22050436 -0.004172855
0.09278362 0.7522314 0.22317211 0.44298086 0.8292891 0.24598181 0.17678098 -0.5884121
0.32610106 0.16808134 -0.034558594 -0.33763 -0.18294704 0.2799329 -0.2669092 0.658411
0.107651 -0.050361883 0.047219858 -0.40579078 0.10800569 0.0040387907 0.06724522 0.34495854
1.0253322 -0.33063498 0.35864535 -0.24168625 0.028993 0.036678825 0.17243956 -0.06838353
0.1001475 -0.48007044 0.13194704 -0.13784382 0.22173613 0.34892312 0.3966298 -0.28249165
-0.10406763 -0.32679352 0.1922737 0.5872514 0.10249819 0.3831958 0.0017699945 -0.15469319
0.086539224 0.16283007 -0.25214395 0.6818777 -0.07099669 0.5146889 -0.08788424 0.1515107
-0.13421418 -0.013628157 0.3492606 -0.40396944 -0.04117718 -0.07286445 -0.024318436 0.27570295
-0.29497135 0.09112156 -0.12435122 -0.22516671 -0.34188825 0.1527412 0.6856779 0.58684486
-0.31241372 0.24940522 -0.2821182 -0.18693152 -0.50625354 -0.04277109 0.37322634 -0.3611818
-0.17782317 -0.3466685 -0.010750378 0.038192425 0.08574032 0.20640099 0.02886327 0.008620319
0.060263894 0.104328826 -0.20699404 -0.16429293 0.21741916 0.07377039 -0.023884375 -0.02326177
0.0096295485 0.012573232 0.2679796 -0.23869325 -0.011298029 0.0021710189 -0.040111516 -0.05789335
-0.09499633 -0.00068696385 0.009848677 0.0014552773 0.045790028 0.015699046 -0.11199995 0.092509545
-0.2513638 0.013603659 0.063524425 0.16355631 -0.008534854 -0.086731076 0.2992203 -0.021195227
-0.027610293 0.09194819 0.011885157 -0.1830802 0.0429747 0.05389194 8.666303e-05 0.01728756
0.0062195645 -0.06043342 0.019041933 -0.00022794706 -0.026877118 -0.022423644 0.06908841 0.035084188
-0.13274668 0.06798703 0.022273371 0.006851163 -0.04168291 -0.013040285 0.13763392 0.16478342
-0.032414928 -0.0047081085 0.041996807 -0.02412329 0.025242552 -0.021356666 0.10806761 0.0038660287
-0.01602734 -0.038139876 -0.15360574 -0.045875646 0.31299 0.2870373 -0.046135593 0.031057395
0.01048177 -0.1725543 0.057176802 0.020878173 0.017124532 0.15768278 -0.024442527 -0.011323218
